Assets/results/VikramRover14/VikramRover.onnx (onnx, 147290 bytes, 10 tensors)

network_body._body_endoder.seq_layers.0.weight f4 [128, 10]
0.02050141 0.7191536 0.17404644 -0.31456885 -0.12271725 -0.11057697 0.7607342 0.15958805
0.19971281 -0.36809528 -0.37352306 -0.39533672 -0.21643293 -0.20278066 -0.1598269 -0.20461692
-0.17766841 -0.35873067 -0.16570482 -0.1269715 -0.6297778 1.0558485 0.7004397 -0.070630334
-0.028451387 0.4694801 0.14735948 0.25871873 0.13571164 0.21146768 0.3313714 0.13186146
-0.17725945 -0.13613978 0.17519717 0.19223341 -0.4178333 -0.13812828 0.33668664 0.07339071
-0.14796531 0.0030266184 0.0011298856 0.77719915 0.2942071 -0.6566342 0.18299869 -0.14090095
-0.3438659 0.09791531 0.083016686 0.25410125 0.2480558 -0.2381129 -0.09782583 0.044190325
0.3459742 0.34971052 -0.113939516 0.0727807 0.49863955 0.19203712 -0.07243059 0.4586965
-0.26701382 0.2984962 -0.15723363 0.015554891 0.50137365 0.31689358 -0.5467716 -0.014345197
-0.102991 -0.29429632 -0.09676455 0.7701839 0.25727648 0.251016 0.0185503 -0.48455855
-0.21297954 -0.13551708 -0.08293707 0.5609827 0.008618029 0.33397046 -0.14997746 -0.39159915
-0.2937017 0.43915153 -0.13531646 0.22827803 -0.12378449 -0.025880437 0.17084861 0.29658073
0.05560437 0.072676085 0.20231877 -0.06672585 0.39119393 -0.24123922 0.09464502 -0.25128868
0.23293826 -0.030584019 0.1029251 -0.5376476 0.08511324 -0.0011241668 -0.051363125 0.11163108
0.44128895 -0.23378676 -0.1736389 0.01962743 0.33541927 0.30926788 -0.13381293 -0.23399732
0.029620215 -0.14740652 0.04728149 0.008560663 -0.44748312 0.48684213 -0.12145591 0.07283968
-0.39646924 0.2714268 0.4740179 -0.001517304 -0.054036286 0.14423253 -0.32402194 0.31271815
-0.4761668 -0.027852306 -0.045767885 -0.23939247 0.25099126 -0.088369064 -0.4955196 -0.53779197
0.73840773 0.16984044 -0.40045527 0.5108379 0.44243088 -0.088567846 -0.3671266 0.07776193
0.24445543 0.09337524 0.3539925 -0.2584912 0.07785509 0.8369837 0.02330926 0.026097884
0.41194353 -0.14256772 0.026005516 -0.36089665 0.17966586 0.28036502 -0.46573326 -0.3833062
-0.0048922636 0.06055729 -0.14418212 0.054246105 0.12911007 0.06514692 0.22792333 -0.14213204
-0.06207046 0.39144492 0.1858326 -0.16496037 0.4165543 -0.18936585 0.059884597 -0.33522484
0.09321085 0.053034887 0.27852413 -0.025638582 -0.15213124 0.24567115 0.46092653 0.21656848
0.2614795 0.019916635 -0.53976333 -0.71933305 0.70107824 0.053967398 0.23699431 -0.2673861
0.57496417 0.7569137 0.11883899 0.15567583 0.51889294 -0.1788631 -0.38260365 0.6121836
-0.058377504 0.029261455 0.44165194 0.24932235 0.36184627 0.30222797 -0.5737259 -0.19327298
0.18832615 0.31880468 0.26758754 -0.034713868 0.55658454 0.19405259 -0.3307345 -0.18570577
-0.48775205 0.6840419 0.014007087 -0.4110281 0.20423184 -0.80758846 0.3836788 -0.015556204
0.15487613 -0.12843877 0.29843235 -0.33101892 -0.060563624 -0.003591842 0.17239049 -0.12744762
-0.12329269 0.23918793 0.041055635 -0.18111354 0.51878923 -0.24675046 -0.31067112 0.43493474
0.08667348 -0.48043007 0.25829944 0.24161117 -0.17534594 -0.24249725 -0.020285321 0.3567057
00000000: 93f2 a73c 731a 383f 3b39 323e 2b0f a1be
00000010: 2e53 fbbd 2e76 e2bd 7abf 423f 0d6b 233e
00000020: 8481 4c3e fc76 bcbe 6a3e bfbe 9369 cabe
00000030: 98a0 5dbe bca5 4fbe aaa9 23be 1987 51be
00000040: b5ee 35be 8cab b7be 86ae 29be d104 02be
00000050: 1e39 21bf 0b26 873f 0450 333f a3a6 90bd
00000060: e212 e9bc b25f f03e 67e5 163e c876 843e
00000070: fef7 0a3e fc8a 583e 83a9 a93e b106 073e
00000080: 8083 35be 3a68 0bbe e366 333e d6d8 443e
00000090: 3fee d5be 8071 0dbe 3162 ac3e de4d 963d
000000a0: 3884 17be 3b5a 463b ab18 943a 86f6 463f
000000b0: 50a2 963e 2e19 28bf 0264 3b3e 5748 10be
000000c0: 310f b0be d287 c83d a704 aa3d 8f19 823e
000000d0: 5702 7e3e ded3 73be e958 c8bd ea00 353d
000000e0: 8823 b13e 420d b33e 1f59 e9bd 0c0e 953d
000000f0: af4d ff3e 61a5 443e 7d56 94bd 45da ea3e
00000100: 09b6 88be 7ed4 983e da01 21be f1d9 7e3c
00000110: 065a 003f e03f a23e 39f9 0bbf 1e08 6bbc
00000120: f2ec d2bd 02ae 96be 7e2c c6bd c62a 453f
00000130: beb9 833e 2b85 803e ccf6 973c 0f18 f8be
00000140: 4f17 5abe fdc4 0abe e9da a9bd 909c 0f3f
00000150: a232 0d3c 2dfe aa3e b193 19be af7f c8be
00000160: 1260 96be 78d8 e03e 6690 0abe b7c1 693e
00000170: b982 fdbd 3603 d4bc f0f2 2e3e 6ed9 973e
00000180: 68c1 633d 33d7 943d a72c 4f3e 90a7 88bd
00000190: 924a c83e 6a07 77be 40d5 c13d e9a8 80be
000001a0: 5e87 6e3e 568b fabc 65ca d23d 46a3 09bf
000001b0: da4f ae3d c758 93ba 2462 52bd d69e e43d
000001c0: a0f0 e13e cc65 6fbe 65ce 31be b4c9 a03c
000001d0: 13bc ab3e 5c58 9e3e 4206 09be fe9c 6fbe
000001e0: 18a6 f23c bcf1 16be 3caa 413d 0642 0c3c
000001f0: 821c e5be 5f43 f93e e0bd f8bd f82c 953d
00000200: 04fe cabe 74f8 8a3e 79b2 f23e 46e0 c6ba
00000210: 2755 5dbd b1b1 133e 34e6 a5be 981c a03e
00000220: 23cc f3be 852a e4bc 1b77 3bbd 4d23 75be
00000230: ed81 803e d7fa b4bd bfb4 fdbe bcac 09bf
00000240: 4a08 3d3f a7ea 2d3e 7908 cdbe 46c6 023f
00000250: 4d86 e23e 0f63 b5bd 05f8 bbbe a641 9f3d
00000260: 8652 7a3e 853b bf3d 813e b53e f558 84be
00000270: 7d72 9f3d 9044 563f 10f3 be3c 3bcb d53c
00000280: 43ea d23e 46fd 11be 8509 d53c 72c7 b8be
00000290: 54fa 373e 018c 8f3e 9774 eebe b640 c4be
000002a0: 484f a0bb ec0a 783d 7aa4 13be 2a31 5e3d
000002b0: 6e35 043e c06b 853d bc64 693e 108b 11be
000002c0: 983d 7ebd 786b c83e e74a 3e3e 5feb 28be
000002d0: 9b46 d53e 1fe9 41be 8d49 753d 97a2 abbe
000002e0: 55e5 be3d 1c3b 593d b79a 8e3e 0108 d2bc
000002f0: 4bc8 1bbe 3891 7b3e 90fe eb3e 21c4 5d3e
00000300: a4e0 853e 3628 a33c ee2d 0abf 3626 38bf
00000310: dd79 333f eb0c 5d3d a3ae 723e d5e6 88be
00000320: da30 133f 19c5 413f db61 f33d 7c69 1f3e
00000330: 2bd6 043f e327 37be a0e4 c3be 10b8 1c3f
00000340: 401d 6fbd b8b5 ef3c 3420 e23e 5c4e 7f3e
00000350: ea43 b93e a0bd 9a3e b3df 12bf 5ae9 45be
00000360: 92d8 403e 5e3a a33e 3c01 893e 2130 0ebd
00000370: 537c 0e3f b9b5 463e 0856 a9be a729 3ebe
00000380: a3ba f9be 5f1d 2f3f fb7d 653c 4672 d2be
00000390: 2722 513e 1ebe 4ebf 8c71 c43e 73df 7ebc
000003a0: d997 1e3e 7485 03be 20cc 983e 507b a9be
000003b0: 9011 78bd 1c65 6bbb 2287 303e a181 02be
000003c0: e180 fcbd aeed 743e f429 283d d475 39be
000003d0: 5fcf 043f 27ac 7cbe 4910 9fbe c4af de3e
000003e0: de81 b13d eefa f5be d33f 843e eb68 773e
000003f0: e38d 33be 3351 78be 672d a6bc 21a2 b63e

network_body._body_endoder.seq_layers.0.bias f4 [128]
-0.01950873 -0.04228889 -0.0033273227 -0.009872896 -0.03312193 0.011852308 -0.0017141155 -0.04610961
-0.023527171 -0.0022039064 -0.041250125 0.021179818 -0.009502931 -0.006185399 -0.043414924 0.03443291
-0.030866297 0.0018112794 -0.04275549 0.0059065265 0.011905305 0.002790517 0.00596061 -0.008741115
-9.4044956e-20 -0.0029140061 -0.001562121 0.008736757 -0.015346739 0.0023438537 0.008081604 -0.022337532
-0.012772854 -0.033585303 0.0014754826 -0.009752125 -0.042099915 5.2466554e-31 -0.009095773 -0.013962703
0.0 0.01845551 0.0130591225 -0.035636786 -0.02038203 -0.034881968 -0.019430835 -1.8669254e-13
-0.042831507 0.0012731991 -0.008143598 -0.0065382686 -0.026224824 -0.0105965035 0.012893519 0.0053062746
9.973122e-19 -0.027993975 -0.009616867 -0.019318357 -0.013210313 -0.02645257 0.0 0.009726063
-0.008155647 -3.5605183e-06 -0.014843359 -0.00827874 -0.0024091736 0.02540521 -0.03521505 -0.012205193
0.0045767683 -0.010299169 -0.0033298186 -0.017990584 -0.021672577 0.0040799864 0.00051482953 -0.06412113
-0.030869037 -0.0241083 -0.0069603017 -0.01767751 -0.00052673876 -0.00616296 -0.007197694 -0.031292513
-0.010043274 -0.03761568 0.0027088074 -0.027082551 -0.0298055 0.00091552257 -0.008936083 -0.007776938
-0.015924215 -2.5024467e-06 -0.004146735 -0.0024539789 -0.03030344 0.0018575208 -0.002785411 -0.008681732
-0.015553706 -0.029130215 -0.013097078 0.015762938 -0.040817834 0.005909955 -0.02637058 -0.0064992122
-0.014875882 -0.057372913 -0.037272498 -0.014966818 -0.031230459 0.00096246373 -0.01610776 -0.027642302
0.015121002 -0.01957867 0.007509334 -0.009884343 -0.034942944 -0.02105654 -0.0012523222 -0.046199232
00000000: c6d0 9fbc 1d37 2dbd 360f 5abb edc1 21bc
00000010: dcaa 07bd 2f30 423c 2cac e0ba 6edd 3cbd
00000020: 0ebc c0bc 6a6f 10bb e4f5 28bd 4c81 ad3c
00000030: 2eb2 1bbc e3ae cabb d9d3 31bd 8609 0d3d
00000040: 51db fcbc 7468 ed3a 6120 2fbd 898b c13b
00000050: 780e 433c 1be1 363b 3951 c33b e536 0fbc
00000060: b00e de9f e9f8 3ebb 15c0 ccba 9d24 0f3c
00000070: e470 7bbc 579b 193b b468 043c 33fd b6bc
00000080: 3c45 51bc be90 09bd fb64 c13a 60c7 1fbc
00000090: f670 2cbd 8243 2a0d 7006 15bc d2c3 64bc
000000a0: 0000 0000 0230 973c eef5 553c e1f7 11bd
000000b0: 37f8 a6bc 65e0 0ebd 6a2d 9fbc 7632 52aa
000000c0: 1770 2fbd 79e1 a63a ba6c 05bc f93e d6bb
000000d0: 71d5 d6bc f59c 2dbc 573f 533c 42e0 ad3b
000000e0: 642d 9321 9f53 e5bc 1090 1dbc 8841 9ebc
000000f0: 1270 58bc 0fb3 d8bc 0000 0000 115a 1f3c
00000100: 439f 05bc 3df1 6eb6 8f31 73bc 8da3 07bc
00000110: 3ae3 1dbb 961e d03c a83d 10bd 4af8 47bc
00000120: b7f8 953b d9bd 28bc 1639 5abb fd60 93bc
00000130: b08a b1bc 68b1 853b a0f5 063a f051 83bd
00000140: 10e1 fcbc c57e c5bc 3e13 e4bb 6dd0 90bc
00000150: d714 0aba a8f2 c9bb a2da ebbb 942c 00bd
00000160: 8b8c 24bc e612 1abd 3f86 313b 3adc ddbc
00000170: aa2a f4bc aeff 6f3a a668 12bc afd5 febb
00000180: 8073 82bc b5ef 27b6 56e1 87bb efd2 20bb
00000190: eb3e f8bc 0e78 f33a 718b 36bb d33d 0ebc
000001a0: f9d4 7ebc 7da2 eebc 2095 56bc 4721 813c
000001b0: 9a30 27bd 4ca8 c13b 1d07 d8bc 58f7 d4bb
000001c0: f9b9 73bc dcff 6abd 0cab 18bd 6237 75bc
000001d0: 05d7 ffbc d94d 7c3a 6cf4 83bc 1c72 e2bc
000001e0: 14be 773c 7263 a0bc dc10 f63b f0f1 21bc
000001f0: 5520 0fbd c47e acbc f624 a4ba 683b 3dbd

network_body._body_endoder.seq_layers.2.weight f4 [128, 128]
0.04118106 -0.007580956 0.103720024 0.06782873 -0.12367407 0.045240957 -0.09761808 0.100200966
0.03539427 0.037977125 0.078828074 0.107209444 0.05347895 -0.12268851 0.1745131 0.015662182
-0.09209862 0.03951121 -0.008589678 0.017793067 -0.015723068 0.057299815 0.041650336 -0.024188705
0.16313848 -0.03562962 0.15403646 -0.1218379 -0.13265803 0.071268216 0.00048781454 0.052279815
-0.010194708 -0.06108412 0.10058447 -0.025785487 -0.02512647 0.09503227 -0.030652978 -0.0629974
0.022709504 -0.032586917 -0.06975064 0.04769382 0.10770093 -0.052863125 0.009352839 -0.0381575
-0.026801847 0.0077222297 -0.023619914 0.14199893 0.19954991 0.12340612 -0.0018492005 -0.124793306
-0.028150829 -0.045232292 0.030711163 0.05952597 -0.03771315 0.012790137 0.06670724 -0.02289463
-0.07190021 0.06634115 0.0182281 -0.036370758 -0.013413915 -0.00028484804 -0.036108483 0.120191924
0.07507491 -0.01789123 0.012948581 -0.03222486 0.2018069 -0.11656121 -0.06890671 0.06856917
-0.086087674 0.026651783 0.20756924 0.06511678 -0.0015949977 0.018784558 0.09645475 -0.03514519
0.12305738 -0.071145065 -0.06769523 0.022080062 0.0024770931 0.00630695 -0.15965532 0.0613705
-0.121902816 0.04642764 -0.12775593 -0.09019361 -0.057206824 0.06236874 0.08223159 -0.009311947
-0.15904851 -0.23506747 -0.12695259 -0.061842173 -0.08504222 -0.07139388 -0.0071648406 0.103146076
-0.19324373 0.1819966 -0.1171398 0.030449009 -0.069917545 0.1398908 0.21827395 -0.003698815
0.1589369 0.011174509 0.18546504 0.018624023 -0.060652588 0.14749828 0.00926494 0.14027095
0.04591428 0.071335696 -0.2080318 0.027311381 0.03091784 0.074230745 0.117243506 -0.16828412
0.23757654 0.09025692 -0.09531233 0.048987925 -0.07745618 -0.019089922 0.17403884 0.006425068
0.21474783 0.027246421 0.13451146 -0.021442851 0.17360966 -0.05559888 0.1775154 -0.029849032
-0.090602614 -0.20955081 0.18816069 -0.095209785 -0.0935692 0.07374921 0.031157512 -0.064375855
0.060686752 0.03266267 0.0047652 0.12186516 0.006573475 -0.10762395 -0.04339899 0.027769592
0.033112954 0.031031193 0.09451519 0.10040042 -0.0010373935 -0.07968448 -0.021268675 -0.026520796
0.07806902 0.09640821 -0.13864517 -0.027646972 -0.062022492 0.07655454 -0.17911856 0.09742436
0.089113496 -0.024663236 -0.019594992 0.05087253 0.034600474 0.11295363 -0.06352096 0.102416
-0.057194863 -0.15017487 -0.055522136 -0.0010467789 0.050987706 0.07019611 -0.06925016 0.12946913
-0.07670732 -0.18289594 0.0028558257 0.014957104 0.16423494 0.036890298 0.06578449 -0.11451203
-0.06542462 -0.009420284 -0.07167413 -0.005977587 -0.003722859 0.03958204 0.030797388 0.14919345
0.019536337 -0.07772412 0.051924694 0.0936929 -0.08520868 -0.16194119 -0.04000891 0.10918632
-0.012161154 0.10795849 0.03003673 -0.04745907 0.03901187 -0.020132164 0.03190432 -0.09810636
0.13663349 -0.017504131 0.012619442 0.05286221 -0.024192844 -0.0721428 0.06947483 -0.010854833
-0.016757004 -0.055779427 -0.029448334 0.15508382 -0.14397217 0.08124918 0.12961388 -0.07610634
-0.09953089 0.010765614 0.10075687 0.015838627 0.15055202 -0.106402606 -0.08190188 0.035607554
00000000: 79ad 283d ab69 f8bb 2a6b d43d cae9 8a3d
00000010: d548 fdbd 954e 393d fdeb c7bd 2a36 cd3d
00000020: 95f9 103d e78d 1b3d 9d70 a13d a090 db3d
00000030: be0c 5b3d 1d44 fbbd 90b3 323e fa4d 803c
00000040: 349e bcbd 82d6 213d b9bb 0cbc c4c2 913c
00000050: aacd 80bc 36b3 6a3d 8b99 2a3d 6427 c6bc
00000060: c60d 273e 5df0 11bd bcbb 1d3e 2686 f9bd
00000070: 82d7 07be 12f5 913d 5cc1 ff39 5c23 563d
00000080: b407 27bc 5833 7abd 3bff cd3d 163c d3bc
00000090: 07d6 cdbc 47a0 c23d f41b fbbc c804 81bd
000000a0: 4809 ba3c dc79 05bd 6cd9 8ebd 985a 433d
000000b0: 4e92 dc3d 0187 58bd a63c 193c 0a4b 1cbd
000000c0: 8c8f dbbc c20a fd3b 8d7e c1bc 2b68 113e
000000d0: d056 4c3e 59bc fc3d df60 f2ba a293 ffbd
000000e0: 919c e6bc 7f45 39bd fa95 fb3c 81d1 733d
000000f0: 1b79 1abd b98d 513c ce9d 883d 858d bbbc
00000100: 6b40 93bd dedd 873d 1953 953c 81f9 14bd
00000110: 0ac6 5bbc a857 95b9 7de6 13bd 2f27 f63d
00000120: e0c0 993d a190 92bc 4926 543c 37fe 03bd
00000130: 78a6 4e3e a5b7 eebd f61e 8dbd fe6d 8c3d
00000140: bc4e b0bd d754 da3c 088d 543e f25b 853d
00000150: 3e0f d1ba 13e2 993c 118a c53d 67f4 0fbd
00000160: 8205 fc3d 81b4 91bd cca3 8abd 3fe1 b43c
00000170: ba56 223b 88aa ce3b af7c 23be a25f 7b3d
00000180: 2fa8 f9bd e92a 3e3d 73d2 02be 6db7 b8bd
00000190: b451 6abd 5d76 7f3d 0969 a83d 2391 18bc
000001a0: 9ddd 22be 87b5 70be dcff 01be 384e 7dbd
000001b0: 9e2a aebd f436 92bd 0ac7 eabb 403e d33d
000001c0: afe1 45be 515d 3a3e fee6 efbd 3370 f93c
000001d0: ee30 8fbd 893f 0f3e 3583 5f3e d167 72bb
000001e0: 5bc0 223e 4a15 373c 8cea 3d3e 6891 983c
000001f0: d96e 78bd ca09 173e facb 173c 30a3 0f3e
00000200: 9d10 3c3d 7318 923d 4a06 55be 1ebc df3c
00000210: 6947 fd3c 4a06 983d 5d1d f03d ac52 2cbe
00000220: 4447 733e 9fd8 b83d 1c33 c3bd 90a7 483d
00000230: 58a1 9ebd 7862 9cbc 3d37 323e 6089 d23b
00000240: dbe6 5b3e e333 df3c 5fbd 093e eba8 afbc
00000250: bbc6 313e a7bb 63bd 99c6 353e f585 f4bc
00000260: dd8d b9bd 7d94 56be 32ad 403e 59fd c2bd
00000270: 35a1 bfbd d309 973d 0a3e ff3c 7dd7 83bd
00000280: ac92 783d 4bc9 053d 6525 9c3b 7194 f93d
00000290: 4e66 d73b f269 dcbd 24c3 31bd 0e7d e33c
000002a0: 73a1 073d 2135 fe3c 2e91 c13d bc9e cd3d
000002b0: 26f9 87ba 9e31 a3bd a53b aebc 2442 d9bc
000002c0: a6e2 9f3d ab71 c53d 00f9 0dbe e77b e2bc
000002d0: 4c0b 7ebd a0c8 9c3d db6a 37be 6c86 c73d
000002e0: 2381 b63d 8e0a cabc ad85 a0bc b75f 503d
000002f0: 3ab9 0d3d 3c54 e73d 4717 82bd 7bbf d13d
00000300: 2945 6abd 71c7 19be 2e6b 63bd 1234 89ba
00000310: 7cd8 503d fac2 8f3d 07d3 8dbd 8e93 043e
00000320: ba18 9dbd 1349 3bbe ce28 3b3b a40e 753c
00000330: 342d 283e 481a 173d 05ba 863d 4885 eabd
00000340: 58fd 85bd 8957 1abc e3c9 92bd a2df c3bb
00000350: 36fb 73bb c720 223d ce4a fc3c 2bc6 183e
00000360: ab0a a03c d32d 9fbd fdae 543d 10e2 bf3d
00000370: e381 aebd e9d3 25be 62e0 23bd 149d df3d
00000380: 943f 47bc 5719 dd3d 970f f63c 7164 42bd
00000390: e9ca 1f3d 35ec a4bc 1bae 023d fdeb c8bd
000003a0: a6e9 0b3e d364 8fbc c7c1 4e3c 0b86 583d
000003b0: 1230 c6bc 9bbf 93bd d248 8e3d 78d8 31bc
000003c0: fc45 89bc f878 64bd a23d f1bc 4bce 1e3e
000003d0: 716d 13be f865 a63d 80b9 043e a4dd 9bbd
000003e0: dad6 cbbd 4262 303c 9e59 ce3d 02c0 813c
000003f0: 4f2a 1a3e 9ce9 d9bd 2cbc a7bd 3ad9 113d

network_body._body_endoder.seq_layers.2.bias f4 [128]
0.0064897737 0.0069891424 -0.013603608 -0.005943917 0.005888704 -0.019291213 -0.028304772 -0.019546188
-0.013403303 -0.006049177 0.004947385 -0.0037550072 -0.007651846 -0.009214854 -0.010830866 0.00039416997
-0.008076101 0.00037071147 -0.021854473 0.010917715 -0.0076701744 -0.016502284 -0.01845807 -0.009932198
-0.010644224 -0.00084046676 0.0032858173 -0.0048952005 0.0038389051 0.00092009566 -0.009448737 -0.013423026
-0.008970345 -0.019317828 -0.0051304013 -0.018283503 -0.029935153 0.00079884025 2.4495299e-26 -0.010030712
-0.020944262 4.277165e-06 -0.0054442827 0.008768425 -0.0052210623 -0.035629917 -0.003698169 0.008260371
-0.008714625 -0.0069677015 0.0 -0.01027686 -0.0068030953 -0.0035319056 -0.012245779 -7.721694e-26
-0.011109142 0.0 -0.009114113 -0.008031724 -0.012072004 -0.0018782793 -0.014573147 -0.0034627663
0.000488151 0.027390402 0.0 -0.02683531 1.3005608e-27 -0.010309216 0.012359102 -0.01647463
0.009191915 -0.006312173 1.2290201e-13 -0.008134812 -0.00831043 -0.008158004 -0.01605255 -0.0049157343
0.0062751505 -0.02471395 -0.024366397 -0.0062535885 0.017796643 -0.0063354988 -0.0129116345 -0.006237989
-0.00858665 0.012337927 -0.007818717 -0.004894036 -0.0077269636 0.0 -0.002585837 -0.022510828
-0.00742307 -0.01185813 -0.006944862 -0.009420804 -0.009911226 0.0051545426 1.1784275e-12 -0.0130947875
0.0061726505 -0.0035053825 -0.0027808188 -0.024491897 -0.0051194937 -0.030179225 0.0025964903 -0.013469789
-0.012108149 -0.0013216297 -0.011775962 0.0031002737 0.009637262 0.01865154 0.0 -0.0034645384
-0.013313698 -0.028131232 -0.006056076 -0.0067952755 -0.0074631018 -0.014272191 -0.0014616086 -0.014415609
00000000: 2ba8 d43b 2d05 e53b abe1 5ebc 31c5 c2bb
00000010: 08f6 c03b 9b08 9ebc 69df e7bc 541f a0bc
00000020: 8799 5bbc 2d38 c6bb ac1d a23b 9116 76bb
00000030: 56bc fabb e6f9 16bc f273 31bc 99a8 ce39
00000040: 9f51 04bc 0d5c c239 2708 b3bc 37e0 323c
00000050: 1656 fbbb cc2f 87bc 6135 97bc a8ba 22bc
00000060: 1c65 2ebc c552 5cba de56 573b eb67 a0bb
00000070: 2496 7b3b 9332 713a e0ce 1abc 40ec 5bbc
00000080: 5bf8 12bc 6c40 9ebc ed1c a8bb 49c7 95bc
00000090: 913a f5bc 4369 513a f696 f214 db57 24bc
000000a0: 4d93 abbc 9184 8f36 f465 b2bb 71a9 0f3c
000000b0: 7215 abbb adf0 11bd fb5c 72bb 8256 073c
000000c0: c9c7 0ebc 5151 e4bb 0000 0000 4660 28bc
000000d0: 80ec debb 8b77 67bb 85a2 48bc 0d2e bf95
000000e0: 1e03 36bc 0000 0000 5c53 15bc 7e97 03bc
000000f0: a8c9 45bc 9830 f6ba 35c4 6ebc 94ef 62bb
00000100: 85ee ff39 d661 e03c 0000 0000 b9d5 dbbc
00000110: 0415 ce12 fce7 28bc d57d 4a3c cef5 86bc
00000120: b099 163c 58d6 cebb 1860 0a2a e047 05bc
00000130: 7828 08bc 26a9 05bc a380 83bc 2b14 a1bb
00000140: c79f cd3b e974 cabc 0a9c c7bc e7ea ccbb
00000150: 44ca 913c 049a cfbb 528b 53bc 0b68 ccbb
00000160: 05af 0cbc 0425 4a3c 131a 00bc 265e a0bb
00000170: 7832 fdbb 0000 0000 2577 29bb a168 b8bc
00000180: 393d f3bb 9a48 42bc ba91 e3bb b759 1abc
00000190: b262 22bc 70e7 a83b 53d9 a52b 858b 56bc
000001a0: f243 ca3b 8fba 65bb 663e 36bb 3ba3 c8bc
000001b0: 6dc1 a7bb 6c3a f7bc e129 2a3b 64b0 5cbc
000001c0: 4261 46bc 893a adba f7ef 40bc f62d 4b3b
000001d0: 9be5 1d3c 1dcb 983c 0000 0000 4f0d 63bb
000001e0: b221 5abc 7873 e6bc 0c72 c6bb e7aa debb
000001f0: 098d f4bb e8d5 69bc 7293 bfba 722f 6cbc

network_body._body_endoder.seq_layers.4.weight f4 [128, 128]
-0.16497245 -0.07487569 0.0021742794 0.008223615 0.029457416 -0.015095842 -0.10023543 0.06949085
-0.1028209 -0.061693825 0.102610596 -0.04575031 0.026161192 0.06320977 -0.06821071 -0.037954975
-0.09397632 -0.022800596 0.06480837 0.03647611 0.13699752 0.108809724 -0.076520756 -0.06915537
-0.063103326 0.0066380063 0.011661504 0.08753516 -0.005284347 0.052107297 -0.050857082 0.068579756
-0.009405369 0.0025734364 -0.03824266 -0.0019949586 -0.09566225 0.08018966 0.02751145 -0.036729835
-0.16034035 0.14194858 0.0118065 -0.060368024 0.075288266 -0.14725591 -0.012103885 -0.078165315
-0.04121932 0.058350537 -0.1174056 0.122879736 0.02740947 0.11233011 -0.022727141 -0.032696195
0.07591715 0.009630626 -0.06846669 0.06566718 0.06472356 -0.092617504 0.035501357 -0.09483525
0.067544535 -0.018678136 -0.030245962 -0.024420358 0.005456662 -0.033832897 -0.021987787 -0.11755244
0.016059428 0.006683453 -0.15143877 0.038897518 0.03282445 -0.0067805145 -0.00012649344 0.12968992
-0.028671322 0.0063707717 0.10823499 -0.10705831 0.1313994 0.15668283 -0.12190127 -0.0140876975
0.063947715 0.072124936 0.046104543 -0.31235713 -0.17680094 -0.07013592 0.07103314 -0.012233873
0.03941473 -0.14604384 -0.1090647 0.05932527 0.09336347 0.1191046 0.024967406 0.00090447435
-0.2741601 0.029547146 0.09407522 -0.076301105 -0.09648564 -0.02289829 0.048968785 0.018316265
0.061642375 -0.002905864 0.11414356 0.1138506 -0.039335556 -0.049246043 0.012191623 -0.23338522
0.1388587 -0.036059204 -0.013178409 -0.10690186 0.10043756 -0.104016244 0.03109937 -0.08302942
0.019281816 -0.04796113 0.13635403 0.045988377 0.01039012 0.060813658 0.02845492 -0.054094363
0.020554649 0.08674665 0.008424561 0.13489172 0.067831054 0.08514236 0.04251712 -0.059106465
0.06167535 -0.03794339 0.112011336 0.06341403 -0.111570075 0.0032722054 0.022026148 0.110659175
0.033977326 0.003360176 -0.10907496 -0.015500514 -0.05259307 -0.12879033 -0.013198267 -0.006373884
-0.08543026 0.040449757 -0.08516992 0.11573523 0.11822209 -0.051331926 -0.0051742652 0.016818656
0.063919075 0.17187373 0.03289446 -0.016485939 0.2303931 0.014536557 0.019839572 0.033399608
0.1918682 -0.05444023 -0.02521629 -0.17894065 0.1310007 0.08540156 0.043548573 -0.004153476
0.17475526 -0.02159884 0.053360324 -0.04245318 -0.10223993 0.05750728 0.06727336 0.13326755
-0.061054826 0.087802656 0.028230272 0.0410608 -0.044642705 0.008907636 -0.045098234 -0.11760768
-0.13941073 0.055978194 0.025448728 -0.046579413 0.1622959 -0.06251461 0.18893221 0.11632498
-0.10275704 0.022108855 -0.015169131 0.1117088 0.096073076 -0.07287533 0.13863418 0.10184854
-0.013617711 0.04990311 0.07883154 -0.13157336 0.030010102 -0.08666629 0.1156926 0.11953983
0.042275954 -0.0016461314 0.0716578 0.21837741 -0.151022 0.029421873 -0.039224792 0.039283328
0.06236753 -0.031872965 -0.07177778 0.0014865078 -0.124591835 0.019929156 0.035539743 -0.14024864
0.032693923 0.22194436 0.085594974 0.11088887 0.009537572 0.13688792 -0.04737158 -0.047854394
0.20267369 -0.04343871 0.0077367863 0.002189591 -0.03598717 -0.04351132 -0.03159902 0.085477896
00000000: 8aee 28be 6d58 99bd 5b7e 0e3b 57bc 063c
00000010: ae50 f13c 8d54 77bc 3c48 cdbd 3851 8e3d
00000020: c493 d2bd aab2 7cbd 8125 d23d ad64 3bbd
00000030: ff4f d63c 2074 813d 0fb2 8bbd ad76 1bbd
00000040: a876 c0bd 51c8 babc 40ba 843d f967 153d
00000050: 1449 0c3e a2d7 de3d eab6 9cbd 55a1 8dbd
00000060: 513c 81bd a283 d93b e50f 3f3c a245 b33d
00000070: 5128 adbb 766e 553d 844f 50bd 8b73 8c3d
00000080: fa18 1abc 19a7 283b 56a4 1cbd dabd 02bb
00000090: 92ea c3bd 7a3a a43d b15f e13c 0672 16bd
000000a0: 4330 24be f85a 113e 0d70 413c 7644 77bd
000000b0: bc30 9a3d 41ca 16be 604f 46bc 2315 a0bd
000000c0: 97d5 28bd f900 6f3d 5972 f0bd 5fa8 fb3d
000000d0: d389 e03c 540d e63d 452e babc 72ec 05bd
000000e0: 737a 9b3d c6c9 1d3c 4438 8cbd 847c 863d
000000f0: c98d 843d 3fae bdbd df69 113d fc38 c2bd
00000100: ca54 8a3d e402 99bc 61c6 f7bc 340d c8bc
00000110: cccd b23b 5d94 0abd bb1f b4bc 55bf f0bd
00000120: 108f 833c de00 db3b c412 1bbe 0153 1f3d
00000130: ee72 063d 142f debb 53a3 04b9 6fcd 043e
00000140: 1fe0 eabc e8c1 d03b 4eaa dd3d 6341 dbbd
00000150: 908d 063e 7771 203e 5fa7 f9bd 16d0 66bc
00000160: 05f7 823d 3db6 933d 1ed8 3c3d 46ed 9fbe
00000170: 4e0b 35be 6ca3 8fbd d379 913d 9570 48bc
00000180: 5771 213d 848c 15be 505d dfbd 0eff 723d
00000190: 5935 bf3d 1ded f33d 7288 cc3c 3f1a 6d3a
000001a0: b65e 8cbe db0c f23c 82aa c03d c143 9cbd
000001b0: 439a c5bd 3295 bbbc 7e93 483d fe0b 963c
000001c0: b77c 7c3d 4f70 3ebb 19c4 e93d 812a e93d
000001d0: 521e 21bd 38b6 49bd 60bf 473c 89fc 6ebe
000001e0: fa30 0e3e d1b2 13bd 41ea 57bc 5def dabd
000001f0: 35b2 cd3d 7806 d5bd 1bc4 fe3c 540b aabd
00000200: e6f4 9d3c e472 44bd 64a0 0b3e 4f5e 3c3d
00000210: 523b 2a3c be17 793d 4b1a e93c 0d92 5dbd
00000220: 3962 a83c 3aa8 b13d 2b07 0a3c 0e21 0a3e
00000230: 02eb 8a3d 1e5f ae3d 6e26 2e3d 9f19 72bd
00000240: 4b9f 7c3d 876a 1bbd 3366 e53d 37df 813d
00000250: da7e e4bd 7f72 563b 2e70 b43c 47a1 e23d
00000260: cf2b 0b3d 6636 5c3b b162 dfbd def5 7dbc
00000270: d56b 57bd 9de1 03be 8b3d 58bc 04dc d0bb
00000280: 0ff6 aebd a5ae 253d 916d aebd 9806 ed3d
00000290: 6c1e f23d 6d41 52bd e28c a9bb 47c7 893c
000002a0: 01e8 823d abff 2f3e 57bc 063d 850d 87bc
000002b0: 2bec 6b3e bd2a 6e3c 9986 a23c 07ce 083d
000002c0: 1979 443e b8fc 5ebd 6592 cebc 383c 37be
000002d0: 0c25 063e 03e7 ae3d fd5f 323d e219 88bb
000002e0: 0bf3 323e 0df0 b0bc 5b90 5a3d 63e3 2dbd
000002f0: 2b63 d1bd c18c 6b3d 9ec6 893d 4a77 083e
00000300: a014 7abd e1d1 b33d 2c43 e73c 5f2f 283d
00000310: 45db 36bd 55f1 113c edb8 38bd 4cdc f0bd
00000320: b0c1 0ebe 6449 653d da79 d03c 0eca 3ebd
00000330: e530 263e a907 80bd 7277 413e cb3b ee3d
00000340: 4872 d2bd a11d b53c f287 78bc 95c7 e43d
00000350: f6c1 c43d a93f 95bd 1ef6 0d3e f895 d03d
00000360: d21c 5fbc 3467 4c3d 6e72 a13d 2bbb 06be
00000370: bfd7 f53c 197e b1bd 3ef0 ec3d 4cd1 f43d
00000380: 8d29 2d3d 01c3 d7ba 53c1 923d 549e 5f3e
00000390: 83a5 1abe 2406 f13c 2daa 20bd 8ee7 203d
000003a0: 1875 7f3d 3a8d 02bd 3b00 93bd edd6 c23a
000003b0: 012a ffbd 7842 a33c 1f92 113d 579d 0fbe
000003c0: 10ea 053d 6245 633e 6b4c af3d b419 e33d
000003d0: 7a43 1c3c 592c 0c3e b408 42bd f802 44bd
000003e0: b189 4f3e caec 31bd de84 fd3b 3e7f 0f3b
000003f0: 4867 13bd ed38 32bd f96d 01bd 090f af3d

network_body._body_endoder.seq_layers.4.bias f4 [128]
0.017008265 0.027912518 -0.013503943 -0.005441416 0.008330096 -0.01835692 0.0015886024 0.0
-0.00014510534 -0.0042435094 -0.013651057 0.006395416 -0.0033680785 1.7653934e-09 0.011238667 0.011071162
0.006917771 -0.0075056315 -0.0052392352 -0.025876304 -2.7233278e-26 0.015019977 0.004401536 -0.012787859
-0.0013291293 -0.0100090215 0.0007171983 -0.012538803 -3.7608388e-07 0.0055988356 -0.0047659893 -0.0010405151
-0.008221988 4.8114336e-19 0.010349485 0.010736327 0.009132491 -0.0048360606 -0.0010517556 -0.0033273625
-0.016062092 -0.012576076 -0.015269046 0.003833949 -0.028089534 -0.028138682 0.0041329893 -0.021547228
0.0022333532 0.005062671 -0.011763316 0.0030447347 -0.010439675 -0.0047025904 -0.015340159 0.004578992
-0.014196379 -0.0021505305 -0.008939742 -0.0004169422 0.0030521208 0.010434934 -0.008358609 -0.021634636
-0.00085565756 -0.011748443 -0.007279369 0.0059890607 0.012918557 0.005467186 0.005403103 -0.0046739955
-0.013931436 -0.01092048 -0.007146679 -0.019717902 0.0030987177 -0.008098229 -0.0087277945 0.007863411
-0.0025719674 -0.012989221 -0.0124192 -0.005180594 -0.012151042 -0.008494313 -0.01001523 0.0
-0.0029419176 -0.015522772 -0.01693595 0.021991523 -0.0058874367 0.002004192 -0.010229414 -0.014913836
-0.013451199 -0.0013721617 -0.029908372 -0.028504394 -0.01939505 -0.0074418276 0.0050549395 -0.004752545
-0.00362847 -0.00212348 -0.010649334 4.0778603e-10 -0.009030332 0.01255863 1.2925749e-15 -0.0076538175
-5.3783916e-18 -0.0075000157 -0.014191156 -0.017069062 -0.011076497 -3.268837e-05 0.008232762 -0.0065763164
-0.034681536 -0.0049517625 -0.0049708653 -0.012926413 -0.020411093 -0.0011115646 -0.011948191 -0.0017567263
00000000: eb54 8b3c cba8 e43c a43f 5dbc e84d b2bb
00000010: f47a 083c 4061 96bc a738 d03a 0000 0000
00000020: 6b27 18b9 230d 8bbb afa8 5fbc a390 d13b
00000030: fbba 5cbb 42a2 f230 6322 383c d263 353c
00000040: 78ae e23b cdf1 f5bb e4ad abbb 8bfa d3bc
00000050: 48da 0695 5a16 763c c33a 903b 2b84 51bc
00000060: 2e36 aeba e1fc 23bc 5d02 3c3a 8d6f 4dbc
00000070: 93e8 c9b4 7076 b73b 042c 9cbb e561 88ba
00000080: 84b5 06bc 2a02 0e21 e390 293c 6be7 2f3c
00000090: 72a0 153c d177 9ebb 10db 89ba e10f 5abb
000000a0: a694 83bc e30b 4ebc 052b 7abc fe42 7b3b
000000b0: 061c e6bc 1883 e6bc 076e 873b d083 b0bc
000000c0: 735d 123b c3e4 a53b ecba 40bc 2c8a 473b
000000d0: 2c0b 2bbc 3018 9abb 4a55 7bbc 5e0b 963b
000000e0: ee97 68bc eaef 0cbb ff77 12bc 0999 dab9
000000f0: 1706 483b 49f7 2a3c 8cf2 08bc 1f3b b1bc
00000100: 354e 60ba 8b7c 40bc c687 eebb e23f c43b
00000110: 5ba8 533c 1526 b33b 830c b13b 5128 99bb
00000120: ae40 64bc d0eb 32bc b02e eabb 7087 a1bc
00000130: db13 4b3b 6fae 04bc 06ff 0ebc 89d5 003c
00000140: 748e 28bb bed0 54bc e679 4bbc f9c1 a9bb
00000150: 2a15 47bc bb2b 0bbc eb16 24bc 0000 0000
00000160: 30cd 40bb 3a53 7ebc 43bd 8abc 9127 b43c
00000170: 66eb c0bb c358 033b 4699 27bc 2959 74bc
00000180: 6b62 5cbc 1bda b3ba 6702 f5bc 0c82 e9bc
00000190: 5ee2 9ebc 93da f3bb e8a3 a53b 3dbb 9bbb
000001a0: a0cb 6dbb 152a 0bbb 8b7a 2ebc c82e e02f
000001b0: f5f3 13bc b6c2 4d3c 9947 ba26 e0cc fabb
000001c0: 796d c6a2 b1c2 f5bb 0682 68bc 6bd4 8bbc
000001d0: 327a 35bc df1a 09b8 b5e2 063c 247e d7bb
000001e0: 3a0e 0ebd 6542 a2bb a4e2 a2bb 4ec9 53bc
000001f0: 2a35 a7bc ebb1 91ba 58c2 43bc f441 e6ba

action_model._continuous_distribution.log_sigma f4 [1, 2]
0.08709552 0.076948814
00000000: 235f b23d 5797 9d3d

action_model._continuous_distribution.mu.weight f4 [2, 128]
-0.04037373 -0.0044052284 0.00502552 0.05138541 0.030501198 -0.0024992006 0.00596011 -0.012993227
-0.012334942 -0.019281454 0.0106474655 -0.01754489 -0.0015056727 -0.03344079 -0.05447074 -0.00031396892
-0.031340312 -0.005172498 0.003362501 0.020350907 0.015639812 -0.02393712 -0.026085295 0.0028593286
0.009271698 0.0064759934 0.03601886 0.0034733391 0.010268113 -0.012860871 -0.0053597726 0.025082693
0.01128163 -0.01163824 -0.034740068 -0.06098619 0.009345486 0.052428592 -0.0029900286 0.014843351
0.028693508 0.027152503 0.029888745 0.028566927 0.022354797 0.00969146 -0.0076739783 0.02433379
0.0024464168 0.038978536 -0.0059777675 -0.0033802395 0.011432123 -0.009265506 0.018679842 -0.025060609
-0.004132271 0.033646513 -0.030513575 -0.017086746 0.03956099 0.007725208 -0.0041108695 0.022863472
0.052288786 0.03105013 0.027722578 -0.041215584 -0.062323388 -0.06974329 -0.031774525 0.0081455745
0.0013652218 -0.026376618 0.0069176964 -0.006433048 -0.014878586 -0.00010452027 -0.00048642827 -0.01973754
-0.0243363 -0.020375308 0.036797203 0.022239715 0.027155718 0.03143045 0.015204918 0.03708477
-0.008904659 0.0369523 0.021191172 -0.06469604 0.00025748895 -0.024384437 0.0047300695 0.001818032
0.015331488 0.035873767 0.01236247 0.019551598 0.0207402 -0.008887654 0.0065319827 0.009500686
0.031390764 -0.033503577 0.022886533 0.003244342 -0.0070096124 -0.041317273 0.022154665 -0.00027803265
0.008103914 -4.9144972e-05 0.0020462996 0.0053114253 0.023302475 -0.007179056 -0.023370562 0.03714063
0.017778328 0.007630891 -0.011248312 0.025392149 0.0027275274 0.009149545 0.0069185137 0.033834036
-0.022933012 0.051725123 0.0063996264 -0.040734857 -0.07817153 -0.006258389 -0.01580815 0.009525062
-0.054321215 -0.0033575182 -0.02869777 -0.06334152 0.02287151 0.008982584 -0.017755818 -0.06314116
-0.012044336 -0.00086411287 0.008777539 -0.010638783 -0.0106212115 -0.029350664 -0.036265135 -0.0060682013
0.022959337 -0.0040054303 -0.01807955 -0.0047986833 0.008186281 -0.059818666 -0.0094890045 -0.037095897
-0.045086585 0.0131901195 -0.031319335 -0.008775247 0.04670472 -0.029289696 0.003942086 -0.0098798545
-0.01764424 -0.011329508 -0.007793838 -0.013804169 -0.008565397 -0.017168574 -0.005454028 -0.025588918
0.013104694 -0.036154337 0.022220872 -0.027160676 -0.01427158 -0.002236875 -0.014333112 -0.036031753
-0.023008315 0.009060386 0.0015791435 -0.0069333944 -0.01898843 0.035252593 6.0483228e-05 -0.011274434
-0.011810892 -0.01080681 -0.037129395 0.015424251 -0.027910048 -0.0006655765 -0.03820292 0.011624508
0.006276283 0.028742798 0.0022699472 0.011472121 -0.01764317 -0.001586754 0.0044078003 -0.014738439
-0.0070640934 0.0152962115 -0.012768566 0.01030849 -0.035499915 -0.032363392 -0.025060343 0.0039365184
-0.016710596 -0.009608969 -0.028406093 -0.03933197 0.026985586 -0.009170897 -0.018840702 -0.005726698
0.0026299572 -0.026896436 -0.020078868 -0.02231219 -0.014708543 -0.0051695015 -0.03277381 -0.0024608588
-0.056422878 -0.023583265 -0.033918682 0.009629986 0.010230165 -0.011585989 0.011357619 0.019192418
0.006933223 -0.01541638 -0.023439454 0.0060191443 -0.042107787 0.002895161 -0.017421713 -0.03277366
-0.017596794 -0.065862104 0.017089603 -0.034648325 -0.028889837 -0.0008925336 -0.02507052 -0.033507515
00000000: ed5e 25bd bc59 90bb 1ead a43b 8279 523d
00000010: a6dd f93c a1c9 23bb 074d c33b 8be1 54bc
00000020: 7f18 4abc 24f4 9dbc b572 2e3c 4dba 8fbc
00000030: fe59 c5ba 36f9 08bd b61c 5fbd 329c a4b9
00000040: b35e 00bd 0f7e a9bb 685d 5c3b f2b6 a63c
00000050: 101f 803c c717 c4bc d4b0 d5bc 9363 3b3b
00000060: 52e8 173c 9234 d43b 8388 133d f6a0 633b
00000070: 963b 283c 67b6 52bc 08a1 afbb 387a cd3c
00000080: 96d6 383c 51ae 3ebc 9a4b 0ebd a8cc 79bd
00000090: cf1d 193c 5dbf 563d 5bf4 43bb 8731 733c
000000a0: a60e eb3c ed6e de3c 3ed9 f43c 3005 ea3c
000000b0: 6821 b73c eec8 1e3c ff75 fbbb a857 c73c
000000c0: 1054 203b f5a7 1f3d 26e1 c3bb 0287 5dbb
000000d0: cd4d 3b3c 59ce 17bc 7806 993c e84b cdbc
000000e0: 0068 87bb edd0 093d 9bf7 f9bc 81f9 8bbc
000000f0: b40a 223d be23 fd3b 79b4 86bb 2d4c bb3c
00000100: c42c 563d d85c fe3c 761a e33c acd1 28bd
00000110: cf46 7fbd 92d5 8ebd 0126 02bd 0475 053c
00000120: 3ef1 b23a c713 d8bc d8ad e23b 51cc d2bb
00000130: 50c5 73bc e531 dbb8 4c07 ffb9 9fb0 a1bc
00000140: ec5c c7bc 1eea a6bc aab8 163d 1030 b63c
00000150: ab75 de3c 37bd 003d 0c1e 793c 33e6 173d
00000160: d9e4 11bc 4c5b 173d 1c99 ad3c 5b7f 84bd
00000170: 95ff 8639 dfc1 c7bc b3fe 9a3b 084b ee3a
00000180: ec30 7b3c 5ff0 123d f58b 4a3c ac2a a03c
00000190: 5ae7 a93c 869d 11bc 3e0a d63b c4a8 1b3c
000001a0: 9a93 003d 0c3b 09bd 8a7c bb3c 079f 543b
000001b0: e4b0 e5bb 4d3c 29bd b37d b53c e9c4 91b9
000001c0: 47c6 043c 0321 4eb8 361b 063b 770b ae3b
000001d0: d5e4 be3c 493e ebbb 9f73 bfbc c620 183d
000001e0: dba3 913c 8e0c fa3b d74a 38bc 3203 d03c
000001f0: 51c0 323b f9e7 153c b3b4 e23b 8f95 0a3d
00000200: 03de bbbc b9dd 533d f5b3 d13b 98d9 26bd
00000210: 6518 a0bd 2c13 cdbb 1880 81bc 010f 1c3c
00000220: ec7f 5ebd cf09 5cbb 9617 ebbc 33b9 81bd
00000230: 085d bb3c b02b 133c a674 91bc 2750 81bd
00000240: 9b55 45bc a285 62ba abcf 0f3c 4a4e 2ebc
00000250: 9704 2ebc ce70 f0bc c08a 14bd c3d7 c6bb
00000260: 3815 bc3c fc3f 83bb 901b 94bc 463e 9dbb
00000270: c01f 063c 6b04 75bd c577 1bbc def1 17bd
00000280: b6ac 38bd 5f1b 583c b448 00bd 0ec6 0fbc
00000290: 734d 3f3d f2f0 efbc 9d2c 813b 1ddf 21bc
000002a0: a78a 90bc 679f 39bc 7463 ffbb e22a 62bc
000002b0: e155 0cbc 1ca5 8cbc b4b7 b2bb da9f d1bc
000002c0: 12b5 563c 9216 14bd 8c08 b63c 1180 debc
000002d0: 58d3 69bc 8998 12bb 6ed5 6abc 0896 13bd
000002e0: ef7b bcbc 0372 143c 43fb ce3a 8731 e3bb
000002f0: a08d 9bbc 0665 103d 5faf 7d38 67b8 38bc
00000300: 7982 41bc 0c0f 31bc fe14 18bd ffb5 7c3c
00000310: 9da3 e4bc 157a 2eba aa7a 1cbd b874 3e3c
00000320: 47a9 cd3b 0476 eb3c 65c3 143b 90f5 3b3c
00000330: 6988 90bc a1fa cfba 4f6f 903b 7e79 71bc
00000340: e979 e7bb f69c 7a3c 3f33 51bc f1e4 283c
00000350: 5c68 11bd 7a8f 04bd 594b cdbc e9fd 803b
00000360: a9e4 88bc f06e 1dbc e5b3 e8bc 8f1a 21bd
00000370: e010 dd3c 8841 16bc d157 9abc 06a7 bbbb
00000380: 5c5b 2c3b ea55 dcbc 707c a4bc 0ec8 b6bc
00000390: 1afc 70bc ec64 a9bb d53d 06bd 5c46 21bb
000003a0: ad1b 67bd b131 c1bc 51ee 0abd 17c7 1d3c
000003b0: 6c9c 273c 29d3 3dbc 4f15 3a3c 6b39 9d3c
000003c0: 1730 e33b fc94 7cbc 1904 c0bc 3e3c c53b
000003d0: 3779 2cbd bebc 3d3b fbb7 8ebc ac3d 06bd
000003e0: 2727 90bc b6e2 86bd 7fff 8b3c 67eb 0dbd
000003f0: 61aa ecbc eaf8 69ba b160 cdbc 2d3f 09bd

action_model._continuous_distribution.mu.bias f4 [2]
-0.0014913189 -0.0014050632
00000000: 5c78 c3ba 192a b8ba

action_model._discrete_distribution.branches.0.weight f4 [1, 128]
0.0027609563 -0.010274589 0.01429374 0.017738426 0.004423683 0.0063800598 -0.0053630807 0.013706684
0.0005667861 0.0015660031 0.007553765 -0.005539281 0.005126646 0.006553878 -0.006334913 -0.00016274571
0.005969794 -0.0050676446 0.009054149 -0.028975237 -0.0039429474 0.004000948 0.006446528 0.0020152163
-0.0032208003 -0.008657597 0.011326843 -9.008427e-06 -0.0030267213 0.01120637 -0.0026514928 0.009540566
0.0022769968 0.006240063 0.006294003 0.015972845 0.00058688055 -9.49298e-05 -0.002332183 0.0040528057
-0.010382973 0.011462398 -0.006649893 -0.0035149136 0.0060262135 -0.0009609661 0.0034267295 0.008822895
-0.00088584394 -0.008501415 0.011890939 0.0053464603 -0.012041804 0.013537382 0.0041332766 0.0072997697
0.0025719688 0.0031458107 -0.0011110493 0.012819447 -0.003369137 0.0042185145 -0.015720565 -0.0127929365
0.004565859 0.008049116 0.0041319625 0.008758553 -0.009648459 0.011002113 -0.0020845605 0.004339265
-0.0011771529 -0.001286677 0.005396656 0.0017197427 -0.0018940257 0.007655376 -0.0007770067 -0.0005090726
-0.003455187 0.01163153 0.0036278933 0.0036673024 -0.0031655007 -0.018288108 -0.007861081 0.008484237
-0.0042201956 0.012037081 -0.0077807703 -0.0028574367 0.009748041 -0.005607012 0.0027288336 0.012524853
-2.6784255e-05 -0.0057795467 -0.008533008 0.002979963 0.0017573783 -0.021042278 -0.0018185948 0.0023476398
0.005079282 -0.007863733 -0.010185829 -0.017766839 0.0037936047 -7.599219e-05 0.0071896166 -0.003338752
0.008101881 -0.0021707648 -0.0012471605 -0.0039745057 0.0119355535 -0.0024841987 -0.0029133062 -0.0023560605
0.002353401 0.00042564847 -0.013446596 0.019521123 0.0015334694 0.0016209828 -0.007968341 0.004825504
00000000: 29f1 343b c056 28bc 4a30 6a3c 2d50 913c
00000010: 8bf4 903b d20f d13b c8bc afbb 0092 603c
00000020: 5f94 143a 5842 cd3a 9385 f73b db82 b5bb
00000030: 6cfd a73b eac1 d63b 1a95 cfbb b8a6 2ab9
00000040: 439e c33b 7c0e a6bb da57 143c 7a5d edbc
00000050: d733 81bb 621a 833b 653d d33b b811 043b
00000060: 1014 53bb 98d8 0dbc 3994 393c e622 17b7
00000070: f55b 46bb ec9a 373c abc4 2dbb 0950 1c3c
00000080: ab39 153b 7179 cc3b ed3d ce3b 7cd9 823c
00000090: e3d8 193a 0c15 c7b8 8ad7 18bb 66cd 843b
000000a0: 581d 2abc c8cc 3b3c 58e7 d9bb 775a 66bb
000000b0: 8b77 c53b 58e9 7bba fb92 603b e78d 103c
000000c0: fb37 68ba 8549 0bbc 37d2 423c 5c31 af3b
000000d0: fd4a 45bc e5cb 5d3c 7070 873b e832 ef3b
000000e0: 7a8e 283b f229 4e3b a1a0 91ba a808 523c
000000f0: bdcc 5cbb 773b 8a3b 6ac8 80bc 7799 51bc
00000100: 349d 953b 70e0 033c 6a65 873b 0980 0f3c
00000110: 9214 1ebc 3542 343c 1f9d 08bb 6530 8e3b
00000120: b24a 9aba b7a5 a8ba 6fd6 b03b fd68 e13a
00000130: f540 f8ba f3d9 fa3b 09b0 4bba 4973 05ba
00000140: 6b70 62bb 2c92 3e3c f3c1 6d3b 2057 703b
00000150: 4a74 4fbb f1d0 95bc c3cb 00bc 7801 0b3c
00000160: 9149 8abb 2d37 453c d5f5 febb d543 3bbb
00000170: 3fb6 1f3c 07bb b7bb 3bd6 323b 0b35 4d3c
00000180: c0ae e0b7 5a62 bdbb 08ce 0bbc 7c4b 433b
00000190: d557 e63a db60 acbc ea5d eeba dcda 193b
000001a0: 1b70 a63b e3d6 00bc 77e2 26bc c38b 91bc
000001b0: 209e 783b ff5d 9fb8 e096 eb3b f7ce 5abb
000001c0: c0bd 043c 6443 0ebb c377 a3ba 923c 82bb
000001d0: 578d 433c f0cd 22bb 2bed 3ebb 2368 1abb
000001e0: 843b 1a3b 9229 df39 1d4f 5cbc c3ea 9f3c
000001f0: b2fe c83a 2877 d43a a58d 02bc 431f 9e3b
