Assets/results/VikramRover6/VikramRover/checkpoint.pt (torch, 859435 bytes, 51 tensors)

network_body._body_endoder.seq_layers.0.weight f4 [128, 10]
00000000: 8825 08bf ae25 82be 56b2 083d f916 b7be
00000010: 473f 1a3d d486 213f 94f5 873e 0fdd 683e
00000020: c58f 46bd 833e 1cbf 2916 efbe a853 573e
00000030: 5d46 c7bd d6b8 14be e02a ef3e 0f3e 74be
00000040: 6deb 133f 73ff cabe a9da 1f3e 1ea4 fd3c
00000050: cc1d b13d d9c0 efbe 3ea4 7e3e d2f5 94be
00000060: c8b4 16be 8603 db3c 57aa 203c 92b9 2e3d
00000070: 50be 93be 46f9 25be fad1 23be 8071 44bd
00000080: ec4c d13d 82ed 063f f16b 8e3d 683e 8c3e
00000090: f699 5ebe 9d10 b23e 2ff5 debc 9f37 cebe
000000a0: c86a b53d 5678 bdbe 62bc 9dbe df2a b7bd
000000b0: ed6c 95be 6908 3a3f 3b5c 943e 4210 7d3e
000000c0: 44cd 0abf 376b 8fbc ab54 3bbd 1a36 13bf
000000d0: af9d 0dbe 1870 48be 5bc5 c5be 3b72 0cbe
000000e0: bcd3 3a3e a101 83be 5820 bc3b 2e94 95be
000000f0: c3f6 313d e561 36be b334 253e 5ccd 35bc
00000100: 7a14 e63e b3e9 d13e 8763 2fbd 2a21 00be
00000110: 1211 30be b047 c8be 4e9f 053e 5d45 713e
00000120: b554 07be 265d 033e 962f ef3e bfc7 df3e
00000130: c6a4 49be f7b2 b0be 12a2 1abe d56f 74bd
00000140: e99e b5be 3f7f 24be 86d5 5d3c 4652 383c
00000150: 9e61 1b3f 9dfd 723e 2f16 533e eb09 c0bd
00000160: 0781 553e 93ff adbe 70da 543e 826f 1fbe
00000170: 4ba9 7ebe 0aae dfbd b311 91be 9fa0 1fbf
00000180: 9ce1 1b3d 914b 1dbe e7c7 9a3e 7f8f b8bd
00000190: 37cc 9abe fdb3 01bf 5fe2 153f ca04 1c3e
000001a0: e740 debe 2ad4 86be 8d1f 95bd 8d94 4dbe
000001b0: e6a1 033f ac1b 58bd 7cd7 01bf 993d 8a3e
000001c0: 5fdb 3c3f 4253 5f3e 5149 d0bc 4262 2e3e
000001d0: 5dd7 bfbe ab16 333f ee20 853e 694b ddbe
000001e0: c10e e0bd 458e 3dbe 8b09 053f 99c2 173e
000001f0: 6634 453d fb56 51be 8227 e23e ef15 0dbe
00000200: df38 64be 623d 0a3d 704a b13e d8b3 ca3d
00000210: 5789 1fbf 2a22 fc3e a0db 933c 7acd 993e
00000220: df47 92be b6e4 1cbe bb9e d6bd 4a8c c4bd
00000230: 5019 833e ab58 423e bcd5 ebbd fe2a 343e
00000240: ccc2 703e 69a4 0bbe cab8 90bc 18f9 dabe
00000250: e6a6 28bd b624 ab3d 93ff 3cbf 115c ebbc
00000260: 614b 6a3d 9ddb 1fbf dd6d 39be f070 073e
00000270: 2bb6 1b3d 77cc 673e ae20 f7bb fe5e 4b3e
00000280: 8470 123f f69a 07bf 4fac 933e 007f 733e
00000290: cbbe f63e 354b 963e 433e 83be b006 a5bd
000002a0: 2a2d 0dbf 86d8 a9be b236 8dbe 7c6f 93bc
000002b0: 3315 813e c5f0 623e db0d bbbd f126 713d
000002c0: ad30 1e3f b191 40bf 54d2 97be b17b 7abe
000002d0: 0931 fb3e d04e 393f bc3b 80be db7d 823e
000002e0: 00ef 343e dec6 e03d 8802 aabe 36f9 b63e
000002f0: 24d6 63bd 6913 59bd 4b6c a53e 45ae c83e
00000300: 5a0c 12be 7206 33be c369 ea3e dc47 52be
00000310: 883f 12be 4db5 bdbd bc06 7bbe eee9 f0bd
00000320: 9e3a d33e c320 b23e 02b2 55bd 02a2 c23d
00000330: 1367 203f e823 24be e984 523e fab6 2a3d
00000340: 4334 12be 1af0 05bf 3f60 ecbd 9dec 69bd
00000350: 34dd 0ab8 017f 443e a42f 7d3e 93af 87bd
00000360: adff d5be 46e2 e13d 4dca 243f 511c bebe
00000370: f9d0 df3d fb89 cf3e ced6 b23e 883a 60be
00000380: 7ca1 96be 9878 1e3f 5b62 04bc c6c7 863d
00000390: 9d71 e7bd 0983 c0be 1a7d b6be 8787 a83c
000003a0: e12a eb3e 9f82 1c3e 3539 f5bd 3f5a 92be
000003b0: 266f debe 153c 94bb c4be aabe 273b fbbe
000003c0: 2abd d43d 6ebc 68bd e7eb c03d 9799 0f3e
000003d0: f594 fdbd db13 2ebe 6333 5abe 2d42 e33e
000003e0: 78b7 2bbf 0c79 21be 8db1 ce3d 6684 0d3e
000003f0: 5a06 08be b34e 05bf ca17 183e 3ff8 d8be
-0.5318227 -0.25419372 0.0333732 -0.35759714 0.037658002 0.63096356 0.2655455 0.22740577
-0.048476953 -0.61032885 -0.46696594 0.21028006 -0.097302176 -0.14523634 0.467124 -0.23851798
0.57781106 -0.39648017 0.15610756 0.030962046 0.086482614 -0.4682682 0.24867341 -0.29093796
-0.147174 0.026735079 0.009806237 0.042657442 -0.28856134 -0.16208372 -0.15998068 -0.047959805
0.1021975 0.5270616 0.06954182 0.27391362 -0.21738419 0.347783 -0.027216522 -0.4027681
0.088582575 -0.37005872 -0.30807787 -0.08943724 -0.29184666 0.7266908 0.28976616 0.24713233
-0.5421946 -0.017507179 -0.045735043 -0.5750443 -0.13829683 -0.1957401 -0.38627133 -0.1371545
0.18244833 -0.2558718 0.0057411604 -0.29214615 0.04344822 -0.17810781 0.16133384 -0.011096325
0.44937497 0.4099861 -0.042819526 -0.12512651 -0.17194012 -0.39117193 0.13049051 0.23561616
-0.13215907 0.12828502 0.46715993 0.43707082 -0.19691762 -0.3451154 -0.15100887 -0.059676964
-0.354728 -0.16064166 0.0135396775 0.011250084 0.60695827 0.23729558 0.20613931 -0.09376892
0.20850001 -0.3398405 0.20786452 -0.1556988 -0.24869268 -0.10921867 -0.28333816 -0.62354463
0.038056955 -0.15360858 0.30230638 -0.09011745 -0.3023393 -0.50665265 0.5854854 0.15236202
-0.43408892 -0.26333743 -0.072814085 -0.20076199 0.5141891 -0.052760765 -0.5071943 0.2700012
0.73772234 0.21809104 -0.025425585 0.1702967 -0.37468997 0.69956464 0.26001686 -0.43221596
-0.10940314 -0.18511303 0.51967686 0.14820327 0.048145674 -0.20443337 0.44170767 -0.13777898
-0.2228732 0.033749945 0.34627104 0.09897584 -0.6231894 0.49244815 0.018049061 0.3003958
-0.28570458 -0.15321621 -0.10479494 -0.095970705 0.2560525 0.18979137 -0.11515376 0.17594525
0.23511809 -0.13636936 -0.01766624 -0.42768168 -0.04117479 0.083566114 -0.73827475 -0.028730424
0.057200793 -0.6244448 -0.18108316 0.13226676 0.038015526 0.22636591 -0.0075417375 0.19860455
0.57202935 -0.52970827 0.288424 0.23778915 0.48192438 0.29354253 -0.2563344 -0.08057916
-0.5514704 -0.33173007 -0.27580792 -0.017997496 0.25211486 0.22162159 -0.09133502 0.058875028
0.61793023 -0.7522231 -0.29652655 -0.24461247 0.49060848 0.72385883 -0.25045574 0.25486645
0.17669296 0.10975431 -0.33205056 0.35737008 -0.055624142 -0.052997027 0.32309183 0.39195457
-0.14262524 -0.17482927 0.45783815 -0.20535225 -0.14282048 -0.09263096 -0.24514288 -0.117633685
0.4125566 0.3479062 -0.052171715 0.09503557 0.6265728 -0.16029322 0.20558514 0.041678406
-0.14277749 -0.5231949 -0.11541795 -0.057110418 -3.3107775e-05 0.19189073 0.24725205 -0.06625285
-0.41796628 0.11029486 0.64371186 -0.3713098 0.1092853 0.40534958 0.34929508 -0.21897328
-0.29420078 0.6190276 -0.00808009 0.065810725 -0.11300967 -0.37599972 -0.3564232 0.020572437
0.45931152 0.15284203 -0.11973802 -0.28584477 -0.43444175 -0.004523764 -0.33348668 -0.49068567
0.10387643 -0.056820326 0.09419995 0.14023434 -0.12381927 -0.16999762 -0.21308665 0.44386426
-0.67076826 -0.15768832 0.10092459 0.13820037 -0.13283673 -0.5207321 0.14852825 -0.42376897

network_body._body_endoder.seq_layers.0.bias f4 [128]
00000000: fd96 223c a795 c09b e165 4ebc b5a0 0fbd
00000010: 1bd7 913b 35f4 072a 93cb 73bc 83f8 9cbc
00000020: e247 45bb f8b9 6e3c c385 773c a8d1 983c
00000030: 48f5 e9bc 3c37 02bc e581 0cbd 0000 0000
00000040: a813 08bd 1ad3 87bc d194 fbbc d4ba 0e3c
00000050: 7c11 a3bc 68be 073c d5f5 f3bc ac78 063b
00000060: f39d 2dbd 3688 db3b e167 77bc 8061 ae3a
00000070: c09b f81d 4c56 703c b66c 60bd 2fb7 68bc
00000080: b038 c0bc db6a 8f3b 05b4 013b bf7b 23ba
00000090: d686 c8bb f857 c7bc 35dc 223c 653a 63bc
000000a0: ab6e c69a 97f6 4fba 6897 493c 66c0 1cbc
000000b0: 7ff1 47bc 574b 88bc 99b4 75bc 46e8 8d0a
000000c0: e85f a3bc 8c9d 9abc 8267 a3bc 843b 4ebb
000000d0: 5901 a9bc 1631 83bc 9c9f 4ebb 4671 c0bc
000000e0: 17e0 0e3c 5aa5 51bc 0000 0000 3a20 48bc
000000f0: b04c 813c 1734 e6a2 b833 9dbc b6fa 44bd
00000100: ef3b 7dbc 16aa bebc 9afd babc 42e7 163a
00000110: a195 843b 1b8e 7a3c 14b6 62bc c64f 37bb
00000120: efad 36bc 0000 0000 e93d c2bc f527 4cbd
00000130: 97c4 9106 2bdb 6629 25c0 9ebc 122b aebc
00000140: d085 1536 c88c 93bc be67 d0bb 60da 3cb9
00000150: 9376 d7bb 9c69 36bc c5a0 b7bc 4940 12bd
00000160: b413 7fb8 9883 8c26 87fb a9bc 0000 0000
00000170: 5594 cdbb 4ce6 1bbd 609d b93b c83e e7bc
00000180: e374 f234 2788 ba3b 61e0 2bbd ca43 81bb
00000190: 5236 67bc f3fa af3c 809c 34bb 2256 63bc
000001a0: 6f34 16bd 193a 22bc 984a 139f 2f84 09bc
000001b0: 794f b7bc 880e ba3c 9abb 6fbd 5426 bcbc
000001c0: 6fa5 ddbb 554b 9fbc 082c 3918 f9d4 8cbc
000001d0: c09f 351e 522a 8abb 3153 4bbd 0458 d43c
000001e0: 8deb 00bb fbd4 a3bc d1ad 5fbc 5a5e a4ba
000001f0: f65f 1b11 3e23 573b b14b 8c9b 058c 58bc
0.009923694 -3.1860446e-22 -0.012597532 -0.03506537 0.0044506914 1.2075135e-13 -0.014880079 -0.019161468
-0.003010266 0.014570706 0.015107575 0.01865466 -0.028559342 -0.007947739 -0.034303565 0.0
-0.03322187 -0.016580153 -0.03071061 0.0087115355 -0.019905798 0.0082851425 -0.029780308 0.0020518703
-0.04238696 0.006699587 -0.01510045 0.0013304204 6.5806095e-21 0.014669012 -0.054791175 -0.014203831
-0.02346453 0.004376752 0.0019791138 -0.0006236396 -0.0061195893 -0.024333939 0.009940197 -0.013868903
-8.2069674e-23 -0.0007933168 0.0123041645 -0.009567356 -0.012203573 -0.016637487 -0.014996671 1.3665178e-32
-0.019943193 -0.018873952 -0.019946817 -0.003146858 -0.020630525 -0.016014617 -0.003152824 -0.023491513
0.008720419 -0.012795771 0.0 -0.012214715 0.015783638 -6.2396777e-18 -0.0191897 -0.04809066
-0.015456184 -0.023274463 -0.022826005 0.0005756506 0.0040461575 0.01529267 -0.013837356 -0.0027971133
-0.011149867 0.0 -0.023711162 -0.049842793 5.48318e-35 5.1260357e-14 -0.019378731 -0.021260772
2.228062e-06 -0.018011466 -0.0063600233 -0.00018010428 -0.0065754144 -0.011133578 -0.022415528 -0.03570584
-6.0815088e-05 9.75012e-16 -0.02074982 0.0 -0.006273786 -0.038061425 0.0056645125 -0.028228179
4.516106e-07 0.0056925 -0.04196203 -0.0039448487 -0.014112072 0.021481967 -0.0027559102 -0.013875516
-0.0366711 -0.009901547 -3.1190163e-20 -0.008393331 -0.022376763 0.022712007 -0.05852852 -0.022967495
-0.006764106 -0.0194451 2.393292e-24 -0.017191397 9.615096e-21 -0.0042164708 -0.049639884 0.025920875
-0.001967165 -0.019999018 -0.013652281 -0.0012540326 1.2256914e-28 0.0032827402 -2.3209972e-22 -0.013216977

network_body._body_endoder.seq_layers.2.weight f4 [128, 128]
00000000: b857 cb3a 21b9 d73d d730 a13d a357 e03d
00000010: 7b52 203d 4cd2 c63d 99a9 443e 7c8a c6bd
00000020: 938b ca3d d7d3 13bc bd86 043d 5434 aebc
00000030: df72 a6bd 0e84 973b 7b04 82bd 4beb 40be
00000040: fcf4 4c3d b352 5bbe 4a16 f2bc 76af 92bd
00000050: e1d4 01be 280c 50be 0e14 913d 69a8 be3d
00000060: 2f67 89bd a9c7 c2bc 4ba5 59bd fa29 e7bd
00000070: bc00 4abd 5f7d cc3d 8c23 e13b 55af cf39
00000080: 896d 233c 2df1 2f3e bf53 843d 8dc9 d23c
00000090: 9621 09be 2738 3e3c b225 fa3d 40ac 463d
000000a0: 7513 14be 341d 7f3c 17cd 5cbd 4afd 583d
000000b0: 4b74 88bc fab0 4cbe 7457 093d 9c49 143e
000000c0: 25b4 2f3d 31aa 96ba 8ed7 09bd 4e12 54bc
000000d0: 82d0 c8bc 1a60 ddbd 815d ee3b cb3a c53d
000000e0: c4d6 75bc c212 52be 0a9d bebd 2200 02be
000000f0: 998a 713d b607 5d3c 253e 7abd 16ff 0fbe
00000100: 8e1f f3bd 2e35 913d 6e5d a93c 2d72 543d
00000110: 15f9 2abd 3dad de3d 1529 42bd 8ce8 c6bd
00000120: e280 5ebd 6fb8 233d 33d8 b2bd fc35 0d3d
00000130: 1f6c ba3c 6b45 e5bc 5d37 afbc 6ce2 833c
00000140: dc07 d5bc 15f1 5e3e c810 26bd a378 68bd
00000150: 15d1 9fbd a955 9abd b305 c6bd 428d e83c
00000160: 6bcb e73b d96c 5abe 5986 debd 80cb 79bd
00000170: d160 15bd cbf8 fbbb e9a2 c2bb 6577 723b
00000180: 5abd b4bd bb7a 4abb 934b 043d 7337 67bc
00000190: f9bf 843c eee9 6abe 2c5a 0bbd 38e4 d9bd
000001a0: 162a 50bd 86e6 453d f7f0 09bc fe35 513d
000001b0: be0d 203e ce35 56bd cefe e03d 5aaf b23d
000001c0: b0b7 9abd 713e f8bd 86e6 20bd 09f9 bebc
000001d0: ea29 b13d 2e02 3c3d fc51 633d 63c8 f0bd
000001e0: e96c 903c 873f 203e 399b f1bd 727a 93bd
000001f0: 183a f83c e0d9 20bd a73c 96bc de74 69bd
00000200: f4e6 4d3d 23b0 b6bc 43db a03c 6e4a 16be
00000210: 3f3e 92bd dc62 ea3d 7ed6 56bc 5ab3 5cbd
00000220: 1930 a83d 9ccb 52bd abc5 d8bd 4380 c5bd
00000230: fbfe e1bc a2d1 9bbc 158f de3d d989 e53d
00000240: 6ea0 85bd 832d 763c 0f44 6d3d d61a 333d
00000250: bbe5 133d 6ce6 483d 1b9f 09be 6b2e a83b
00000260: d269 6c3d 706d 9fbc 10d9 d6bd 18ca c7bd
00000270: b7ca 0fbd 8370 8f3d 5735 be3d 9f1a 74bc
00000280: 8081 c23d 0bb9 ce3d b90f 4e3c f72d 6e3b
00000290: 7138 3e3e 16da 21be b449 f8bd 4a30 f2bd
000002a0: ac64 d53d eba1 97bd 2bc9 33bd 4d74 90bd
000002b0: 3a79 06bd ff4b 6bbb 5bb1 293d 8ad7 6b3c
000002c0: caa7 a5bc 9207 c3bc 0bd2 213e 45ff 57bc
000002d0: 98b9 2d3e ff7f 8ebc 303f 913c 1d25 723d
000002e0: 8816 083d effd b93d 5b39 393d 832b 0bbc
000002f0: 2df2 e93d ca02 5a3c f37d 8bbc 4c55 9b3d
00000300: 4504 123d 7606 473d 1f5e bebc b409 8b3d
00000310: 3fc5 efbb 4942 023d 061b 1a3d f2b7 f3bb
00000320: ef84 65bd dba2 133c 9d47 d3bd 172d 023d
00000330: 25d3 cc3d b04d f7bd 469a ff3d 45d9 3cbe
00000340: 4ea7 5a3d 803c 9abd 4338 87bc b6ac 053d
00000350: a122 8a3d c03e d5b9 707f 44be be1c a3bd
00000360: 0777 15bd b06d d13d 9fd0 4fbd 52a1 48bd
00000370: ebd7 a8bd 207f 9a3d 5bcb a4bd 963f 50bc
00000380: 86e7 873d f32e 013d 010e 2abd a45a 9dbd
00000390: f228 9abd a912 153e cb3f 94bc b4eb 8b3d
000003a0: 23de a23a 59f3 14be e0f2 00bd df10 23bc
000003b0: 059e 86bd 01cc 583d 3e56 f2b9 19da 05bc
000003c0: 5ec1 243d 0139 943c ca62 403d 522c 6dbd
000003d0: a2f0 2abd 61de 87bb 1591 45be f655 b7bd
000003e0: a207 b23b 2fa4 913d 3257 0e3c ff01 1cbd
000003f0: a7fb 65bd 086e 5a3e 85e0 193d 0cc6 25be
0.0015513813 0.105333574 0.078706436 0.109542154 0.03914116 0.0970808 0.19205321 -0.096943825
0.09889903 -0.0090226745 0.03235506 -0.021265186 -0.08127379 0.0046238964 -0.06348511 -0.18839757
0.050038323 -0.21418266 -0.029551644 -0.07162373 -0.12678863 -0.20317137 0.07083903 0.093094654
-0.06709134 -0.023776846 -0.05313615 -0.11287303 -0.049317107 0.0998485 0.0068706926 0.0003961275
0.009974846 0.17181845 0.06461286 0.025730873 -0.13391718 0.011610067 0.12214221 0.048504114
-0.14460547 0.015570927 -0.053906526 0.05297593 -0.016657015 -0.19989386 0.033530667 0.14481205
0.04289641 -0.0011494813 -0.033652835 -0.012943817 -0.024513487 -0.108093455 0.00727433 0.096303545
-0.015004817 -0.20514968 -0.093072966 -0.12695363 0.058970068 0.013490608 -0.061094422 -0.14062151
-0.11871253 0.07090221 0.020674434 0.0518667 -0.04174145 0.10872886 -0.04740246 -0.097123235
-0.05432213 0.03997081 -0.08732643 0.03447531 0.022756634 -0.027987203 -0.021388704 0.016099177
-0.026004724 0.21771653 -0.040543348 -0.056755673 -0.07803551 -0.0753587 -0.09669056 0.02838767
0.00707381 -0.21330585 -0.108654685 -0.06098509 -0.036469284 -0.0076895705 -0.0059398306 0.0036997434
-0.088251784 -0.0030895907 0.032298636 -0.014112341 0.016204821 -0.229408 -0.03402154 -0.106392324
-0.050821386 0.048315547 -0.008419267 0.05107688 0.15630242 -0.052297406 0.109861 0.08724852
-0.07554567 -0.12121285 -0.039282344 -0.023312109 0.086505726 0.045900516 0.05549811 -0.11756971
0.017630057 0.15649234 -0.117971845 -0.07201089 0.030301139 -0.03927028 -0.018339468 -0.05699622
0.050269082 -0.022300785 0.019635802 -0.1467683 -0.07140779 0.11444637 -0.013112662 -0.05388198
0.08212299 -0.05146371 -0.10584577 -0.096436046 -0.027587404 -0.01902086 0.108671345 0.11207933
-0.0652474 0.015025499 0.057926234 0.043726765 0.03610776 0.049047872 -0.134396 0.0051324866
0.057718106 -0.019461364 -0.1049062 -0.09755343 -0.035105433 0.07003882 0.092875175 -0.014898925
0.094973564 0.10093888 0.012576991 0.0036343315 0.18576218 -0.1580585 -0.12123433 -0.11825617
0.10419592 -0.0740393 -0.04389302 -0.070534326 -0.032830454 -0.0035903451 0.041428905 0.01439465
-0.02022161 -0.02380732 0.15802781 -0.01318342 0.1696533 -0.017395018 0.017730325 0.059117425
0.033224612 0.09081637 0.045220714 -0.008494261 0.114231445 0.013306329 -0.01702783 0.075846285
0.035648603 0.048590146 -0.02323824 0.0678896 -0.0073172147 0.031801496 0.037623428 -0.0074376995
-0.05603498 0.009010996 -0.103163935 0.031781282 0.1000121 -0.120753646 0.12480597 -0.18442257
0.05338221 -0.07531071 -0.01650632 0.032635413 0.06744886 -0.00040673278 -0.19189239 -0.079644665
-0.036490466 0.10225999 -0.050736066 -0.048981972 -0.08244308 0.075437784 -0.080465995 -0.012710473
0.066359565 0.031538915 -0.04151726 -0.07683304 -0.07527341 0.145579 -0.018096825 0.06832066
0.0012425821 -0.14545955 -0.031481624 -0.009952753 -0.065731086 0.05292893 -0.00046222092 -0.008169674
0.04022347 0.018093588 0.046969213 -0.057903595 -0.04173339 -0.0041463827 -0.19293626 -0.089519426
0.005433039 0.07111394 0.008687781 -0.03808784 -0.056148198 0.21331036 0.037567634 -0.1618883

network_body._body_endoder.seq_layers.2.bias f4 [128]
00000000: bc01 08bc 45d3 34b9 8139 aabc d4c0 abbc
00000010: ee39 00bc 6d36 00bd 84de c7bb f5f5 3abc
00000020: 7ab7 06a9 d02d b63b ba6a faba df74 ebbc
00000030: 177f 77bc 892b babb c5ec dbbc a631 dd3b
00000040: e0d9 47ac 8e1d 1fbc eb2d 55bc 4e71 49bb
00000050: 10df 35bc cca3 72bc c268 d53a f2c9 bdbc
00000060: 0158 27bc 03ff e8bc 6e6a 113c 35cd 7abc
00000070: de99 51bc d00d 94bb 348d 6bbb 7d0b 75bc
00000080: 3141 debb cb10 12bc 6752 0298 760c acba
00000090: 53b6 12ba 8626 94bb 16bc 39b8 4c28 b8bb
000000a0: 455b 073a 0d06 84bc 6c51 44bc dd9b 40bc
000000b0: f6fc 04bc 2e0f 32bc 5e6a 6838 db3e 06bc
000000c0: 0bbb 5326 58d9 c2bb 578c 50bb 4dd3 a12d
000000d0: a0a0 bcbb d240 d33a 57af 093b e880 11bc
000000e0: 1280 46bc c7d6 2abc 7c8d 8e3a 1a24 55bc
000000f0: f979 febc 1af3 90bb bbd5 3b3b a0ba 7ebc
00000100: 26c3 98bb eee2 25bc 795e d8bc 311f 743c
00000110: d644 f5bb 1e38 cbba 5240 abbb 5f05 4dbc
00000120: 9c6c 14bb acc9 c4b9 7736 0dbc 6d3a fdbb
00000130: 3400 52bc a0a9 5ebb d6d2 83bb 32aa 46bc
00000140: bc32 3b29 0cd1 57bc 36ca 4ab2 2360 f33b
00000150: 6735 bebb 02ea 0bbc 11c1 8bbc 89b6 95bc
00000160: 55e9 cebc dda8 90bb ec03 28bc 9d32 8ebc
00000170: 4306 a3b5 5070 6dba 81f4 4c3b 9fb3 d9b8
00000180: 13bd 0ea7 5918 89bc 3fc2 3fbc dca6 1817
00000190: 671f 8fbc a1ef 91bc a31b a0ba d46b 5ebc
000001a0: 020e 35bc ba87 b0bb 4167 99bc 3e11 b4bc
000001b0: a273 84bc 511a e61b 00be 83bc 527d 2c30
000001c0: d895 fdb8 4cc4 acbc a441 41bc f84b babc
000001d0: 645c 42b7 cb11 f2b9 c430 60b9 8237 02bd
000001e0: 9f35 b03a c9b7 1abc 0191 c3bb 2908 34bc
000001f0: 13d7 39bc 9e8f a43b bad2 02bc 4b87 89bc
-0.008301195 -0.00017244842 -0.020779373 -0.020965971 -0.0078263115 -0.031301904 -0.006099524 -0.01141118
-2.9913118e-14 0.0055596605 -0.0019105293 -0.028742252 -0.015105984 -0.0056814593 -0.026846299 0.0067503033
-2.8400546e-12 -0.009711636 -0.013011436 -0.00307377 -0.0111005455 -0.01480956 0.0016281831 -0.023167584
-0.010213853 -0.028441912 0.0088754725 -0.015307714 -0.012793032 -0.004518248 -0.0035942318 -0.014956352
-0.0067826738 -0.008915137 -1.6843709e-24 -0.0013126272 -0.00055966264 -0.004521194 -4.4282606e-05 -0.005620038
0.00051634415 -0.016116166 -0.011982303 -0.011755911 -0.008116951 -0.010867877 5.5412173e-05 -0.008193697
7.345882e-16 -0.0059463196 -0.003182193 1.8397417e-11 -0.0057564527 0.001611734 0.0021009052 -0.008880831
-0.012115495 -0.0104271835 0.0010875906 -0.013009096 -0.03106402 -0.004423511 0.0028661329 -0.015547425
-0.0046619354 -0.010124905 -0.026412236 0.014900015 -0.0074850125 -0.0015504395 -0.0052261734 -0.012513488
-0.0022647744 -0.0003753429 -0.008618942 -0.007727912 -0.012817431 -0.0033975616 -0.0040229363 -0.012125539
4.1566346e-14 -0.013172399 -1.1803925e-08 0.007427232 -0.005804706 -0.0085396785 -0.017059835 -0.018275516
-0.025257746 -0.0044146613 -0.010254841 -0.017358119 -1.2146269e-06 -0.00090575684 0.0031273665 -0.000103808234
-1.9808956e-15 -0.016735243 -0.011704027 4.9324455e-25 -0.017471028 -0.01781446 -0.0012215268 -0.013575513
-0.011050703 -0.0053872736 -0.018725993 -0.021980878 -0.01616842 3.8067315e-22 -0.01608181 6.2751326e-10
-0.00012091891 -0.021089695 -0.011795435 -0.022741303 -1.15848125e-05 -0.00046171094 -0.00021380471 -0.031791218
0.0013443715 -0.009443232 -0.0059682135 -0.010988274 -0.011342782 0.0050220033 -0.007984811 -0.016788146

network_body._body_endoder.seq_layers.4.weight f4 [128, 128]
00000000: 0c5f ffbc ddd0 473d 0c40 0a3e 86be 1f3d
00000010: 463c 313e ebb0 193d 5f10 bdbc 2167 a93d
00000020: 0c86 093d 2e65 ea3d 571f 41bc 6e9d cbbc
00000030: f4df a33d 0dcc 0a3e 5006 44bd 3e1b 56bd
00000040: 046e a63c 2918 0d3d 2c3e 8e3d 3b06 d33c
00000050: 78f8 f13d 2cff dcbc e211 193d 4363 b7bd
00000060: 6027 943d 3c79 e03d 22b1 b1bd d577 da3c
00000070: 2433 19be 83b3 f23d 7336 b13d 302a c1bd
00000080: 2d6c 2f3d 129c 82bd d1af 3abd 7c83 8f3d
00000090: 0ed8 95bd 1e85 0ebe 7c12 763c 18f4 dbbd
000000a0: 3fab 563d 7cb0 8bbd 1071 cbbd f665 60bc
000000b0: 8229 b7bd c517 793d 61f3 2c3e 22d5 343c
000000c0: c10c c93c f8ac 8f3c 82e5 d33d ed8b ecbc
000000d0: fbcd adbd a38e 04bd b478 b93d a25e 55bd
000000e0: e4b9 c43d be1d d4bc 3541 be3c b5a0 0ebe
000000f0: 6854 773d 235b 22bd 4142 373e 9d2f e7bc
00000100: d640 d23d 85b6 7cbd eb8a c03d 785b 0f3d
00000110: 2a0b 023e 1ac1 493d 7d22 b6bd 823e be3c
00000120: 9c04 cb3c d5eb 97bc cb84 1a3e 9849 cbbc
00000130: d842 143d 7c70 8ebc 8b7e a9bd 92b0 aebd
00000140: 2b51 e33d fe4e b3bd da47 85bb b479 9dbd
00000150: 9512 01bc 2909 0bbd 4c7c 0d3e 4564 a53d
00000160: fbed 5dbe 7614 bc3c 8118 76bc 3cb1 29be
00000170: 7e2d 803e ed07 c5bd 8047 3ebe f6b3 a53d
00000180: feeb b23c 8034 913d 2130 22bd ad04 7b3d
00000190: 3199 dbbc 180b 763c fb71 e43d fbbc 9ebc
000001a0: d75e b2bd b839 87bd 4928 8f3d 16b5 56bd
000001b0: bf0e 723d 0c42 373b 00dd 1c3c bfb4 47be
000001c0: 7912 c6bd a2a2 04bd 9b31 73bd d10a de3d
000001d0: 7d65 febd ffb2 3c3e 97f9 7d3d d99e 743d
000001e0: 2d4e 9e3d 2d6a bebd 3623 8a3d 784b ad3d
000001f0: 5f9c 02bd 53d1 ca3c 6f20 b23d fb96 a8bc
00000200: 6d58 393c 47a0 22be 91bc bbbb 1fbd 783d
00000210: 13b7 303d 12b0 4c3d c154 cfbd 3dc2 303d
00000220: 6bf9 08be 3b56 553d 56e3 53bd 8cff 3eb9
00000230: 5c77 c43d ea80 b13d 99e8 f8bd f8fe 1dbd
00000240: 7a2d e3bc e142 103e 66cd 833c 3694 cebd
00000250: 6127 93bd 1773 723e 2f1d 58bd 9415 483d
00000260: b818 02bd 6cce 8abd 32be 663c d285 0c3d
00000270: 73c0 5ebc acf9 c33d 7533 2a3b 4af0 91bd
00000280: 09ea 06be 28a2 0dbc 51ec 733d 3e77 d33d
00000290: 5602 0f3e 7ae4 9bbc b971 513d cf0f 80bd
000002a0: 1a86 113e b491 0cbd 567d 163c 31db 9dbc
000002b0: b1c3 143e 8118 d4bd 9880 093d 055a 0e3d
000002c0: 564b 39bd 3fc4 183e d0ea 273e 46a9 e03d
000002d0: 0d81 b53c 77a5 14bd 73c3 fd3c 57c1 e2bc
000002e0: 4549 a33d d6dd 48bc c639 e8bd 64af 543c
000002f0: be7e dabc fa3c a5bd 4690 e1bc be3a 12bc
00000300: 4e7c 20bd 58e6 353e 4260 68bd e499 f53d
00000310: 2c66 8e3d 25c7 01bd 76d1 fa3d aba9 46bd
00000320: ede7 dabd 42e0 c3bd 0101 61bd 2a38 da3d
00000330: e80c 5a3d cb61 e53d 390d bc3c 0095 63be
00000340: 03ea d23c a3cd 8ebd c596 67bd 4e9f 28be
00000350: 7135 cabc 47d6 0abd 3fc4 c0bc 14a9 c43d
00000360: c432 debd 2791 563d ed8d 2fbc 4c0e 803d
00000370: e127 ad3d f7dd 54bd a8e1 a8bd 0f04 f7bd
00000380: e5b8 1c3e 323d fbbc c081 4b3d a470 0dbe
00000390: 89ac 65bc 6d05 133d 7230 aabd 1169 f53d
000003a0: 97bf 9c3d bdeb 173e 1c41 cbbd 8ede 6cbd
000003b0: 0a5d 45be 7b64 2cbd a790 e23c 82b5 a23c
000003c0: f1a1 183e 71e3 9c3d 9af8 f13c cb01 aa3c
000003d0: 3840 863d 920e 1dbe a70a 72bd 68f5 e6bd
000003e0: 78a3 a0bd ff54 7d3c 7e15 ad3d b182 ae3d
000003f0: de6e 0b3d 6a93 bd3c c2f2 a5bd 5a6a 933d
-0.031173252 0.048783172 0.13500994 0.039000057 0.17308149 0.037522238 -0.023079095 0.082716234
0.033575103 0.1144508 -0.011787257 -0.024855342 0.080017 0.13554402 -0.047857583 -0.052272074
0.020316131 0.03444687 0.06945452 0.025759807 0.1181497 -0.026977144 0.03737057 -0.089544795
0.07234073 0.109606236 -0.086763635 0.026668468 -0.14960915 0.118506454 0.086529635 -0.09431875
0.042827774 -0.06377424 -0.045577828 0.070075005 -0.073166 -0.13917968 0.015019055 -0.107399166
0.052409407 -0.06820771 -0.09933674 -0.013696184 -0.08943464 0.060813684 0.16889717 0.011037143
0.024542214 0.017538533 0.103465095 -0.028875316 -0.08486553 -0.03236259 0.090562254 -0.052092202
0.09605768 -0.025893088 0.023224453 -0.13928492 0.06038323 -0.039637696 0.17896368 -0.028220946
0.10266273 -0.0616975 0.094014965 0.03499934 0.12699571 0.04925642 -0.08893297 0.023223165
0.024782471 -0.01854507 0.15089719 -0.024815366 0.03619656 -0.017387621 -0.08276089 -0.08529772
0.11099466 -0.08755301 -0.0040674033 -0.07689229 -0.007877965 -0.033944283 0.13816947 0.080757655
-0.21672814 0.022958975 -0.015020491 -0.16571516 0.25034708 -0.09620652 -0.18581963 0.080909654
0.021841045 0.07090092 -0.03959668 0.061283756 -0.026806446 0.015017293 0.111545525 -0.019377222
-0.087094955 -0.06602806 0.06990106 -0.05241879 0.059096094 0.002796295 0.009574175 -0.19502543
-0.09671492 -0.03238166 -0.05937348 0.10841907 -0.12421701 0.18427657 0.062005606 0.0597218
0.077297546 -0.09297595 0.06744997 0.0846166 -0.03188741 0.024758017 0.086975925 -0.020579806
0.011312586 -0.15881453 -0.005729266 0.060727235 0.043143343 0.0499726 -0.101235874 0.04315399
-0.13376395 0.05208419 -0.051730476 -0.0001821501 0.095930785 0.086671665 -0.121537395 -0.038573235
-0.027731646 0.14088012 0.016089153 -0.10086863 -0.07185245 0.23676716 -0.052762207 0.048848704
-0.031761855 -0.06777653 0.014083432 0.03430731 -0.013595688 0.095691055 0.0025970612 -0.071259096
-0.13175215 -0.008644618 0.05955154 0.10325478 0.13965735 -0.019029845 0.051133845 -0.06253015
0.14211312 -0.03431864 0.009185156 -0.019269558 0.14527775 -0.10356236 0.033569902 0.034753818
-0.04523786 0.14918612 0.16398168 0.10969786 0.022156263 -0.036290612 0.030976987 -0.027680082
0.079729594 -0.012259921 -0.113391444 0.0129812695 -0.026671764 -0.08068271 -0.027534615 -0.008925138
-0.039181046 0.1776365 -0.056732424 0.11992243 0.069530815 -0.03168406 0.12246983 -0.04850165
-0.106887676 -0.09564258 -0.054932598 0.10655244 0.053234965 0.11200293 0.022955524 -0.22224808
0.025746351 -0.06972816 -0.05654027 -0.1646702 -0.024683686 -0.033895757 -0.023531077 0.096025616
-0.108495265 0.05238452 -0.01071499 0.06252727 0.08454872 -0.051969495 -0.082461655 -0.12061321
0.15304907 -0.030668829 0.049684286 -0.138125 -0.014018186 0.035893846 -0.083100215 0.119829305
0.0765373 0.14836021 -0.09924528 -0.057829432 -0.19273773 -0.042088013 0.027656866 0.01986194
0.14905526 0.076605685 0.029537488 0.020752808 0.065552175 -0.1533759 -0.05909219 -0.11277276
-0.07843679 0.015462159 0.08451365 0.08521021 0.034041278 0.023141582 -0.08102943 0.07198019

network_body._body_endoder.seq_layers.4.bias f4 [128]
00000000: b01a e7bb bc5b b6bc fb91 083c b098 b0bc
00000010: 2f8c 083c c6a7 17bc 86e7 91bc 8eee 47bc
00000020: bde2 743b a5ef 9fbc e4bd 8fbc 9448 e03b
00000030: fb51 6aba fbb0 63bc 3a17 01bd be88 d4bb
00000040: 208c f1bb 230e 89bc 2a66 00bc 52e9 88bb
00000050: 7841 223a 0a96 3abb e132 1db8 648c a1bb
00000060: 8770 fcbb a77c 19bc 1ebe 0fbd 45b9 973a
00000070: a169 873b 9a13 39ba cdd4 d6ba 2bb1 35bc
00000080: 1343 5aba b4c7 cabb 4b6b fa3c 1f1e 24bb
00000090: a06e 61bc f5df bfba 1cb6 d0bc 7c28 73bc
000000a0: 6521 423b 74a8 60bc 6da0 13bc a020 2abc
000000b0: 8439 223b ab21 54bc 5714 45bc 669b 8ebc
000000c0: 7552 b7bc aca5 4fbc 5ecc 3bbb 3764 36bc
000000d0: d2ce babc 8a41 7bbc 6d88 a8bb 3e67 7b3b
000000e0: 7427 fdbb aeee c3bc d4c8 66bc 26fc e2ba
000000f0: 3838 aa3b 0ef6 7abc b717 113b b19f 8abc
00000100: 28ad da3a c8de 8bbc e0a4 d4bb 359e 52bc
00000110: eea5 83bc 4ea6 1cba 1959 5e3b 3837 97bb
00000120: e6e9 27bc add6 0a3c bc1b 3abc adb1 5abc
00000130: 84b3 01b8 dd44 29bc 84ce 14ba 0a1f 063c
00000140: f03b c5ba 8569 bebc 861f 29bb 3a8e b2bb
00000150: b0f0 9bbc f456 50bc e59c 06bc f7c4 9abc
00000160: 7df1 383c bb5c 19b6 5497 e239 1541 f43a
00000170: 6a54 3fbc c474 43bb 6576 14bc 1408 0ebc
00000180: 2154 89bc 2164 753c 3c61 79bc 52c6 abbc
00000190: d033 aebc a526 1abd c99b 01bc ea8c f1ba
000001a0: 0734 b8bb e2c7 9ebc ea19 b4ba 4788 abbc
000001b0: b1c4 173c 3a14 90bc 713b 2e3b beed 99bc
000001c0: 44a6 883b 91e6 ef3b e0dc 2fbc 2ab2 76bb
000001d0: 98ce 8636 47ed fcbb da8e 02bb 3636 fabb
000001e0: 49ef cdb1 77dd a9bb 9a4e 6b3a 7c52 7abc
000001f0: 2c7b fcbb 62f3 98bc 9fd9 41bc dee5 083a
-0.007052742 -0.02226054 0.008335586 -0.021557182 0.008334204 -0.009256309 -0.017810594 -0.012202872
0.0037366592 -0.019523451 -0.017546602 0.0068445895 -0.00089386076 -0.013897176 -0.03151629 -0.0064860275
-0.0073714405 -0.016730374 -0.007836858 -0.0041782046 0.0006189565 -0.0028470778 -3.74791e-05 -0.004930066
-0.007703844 -0.009368098 -0.03509342 0.00115756 0.004132465 -0.0007060111 -0.0016390324 -0.011089603
-0.0008326035 -0.0061883572 0.03056874 -0.0025042368 -0.013759285 -0.0014638888 -0.025477462 -0.014841195
0.0029621955 -0.013712037 -0.009010416 -0.010383755 0.002475352 -0.01294748 -0.012028775 -0.017408084
-0.022378186 -0.012673777 -0.0028655748 -0.0111322915 -0.022803698 -0.01533545 -0.0051432163 0.0038361098
-0.0077256504 -0.023917522 -0.014085967 -0.0017317578 0.00519469 -0.015317453 0.002213938 -0.01692185
0.0016683685 -0.017074004 -0.006489381 -0.012855102 -0.016070332 -0.0005975709 0.0033927618 -0.004614737
-0.010248637 0.008474034 -0.011359151 -0.013348025 -3.0923184e-05 -0.01033136 -0.0005676525 0.008186111
-0.001504777 -0.023243675 -0.0025806143 -0.0054490836 -0.019035667 -0.012716044 -0.0082161175 -0.018892748
0.011288044 -2.2852753e-06 0.00043218827 0.0018635119 -0.011677841 -0.0029824236 -0.009061431 -0.008668918
-0.016763749 0.014977486 -0.015220936 -0.02096859 -0.02126494 -0.03763451 -0.007910677 -0.0018428836
-0.0056214365 -0.01938242 -0.0013740633 -0.020939006 0.0092632035 -0.01758777 0.0026585723 -0.018790122
0.004170211 0.007321187 -0.010733813 -0.0037642815 4.017562e-06 -0.0077187154 -0.0019921572 -0.007635857
-5.993489e-09 -0.0051838714 0.0008976251 -0.015278455 -0.007705113 -0.018670741 -0.01183167 0.0005222241

action_model._continuous_distribution.log_sigma f4 [1, 2]
00000000: f56c ea3d e8e4 ae3d
0.11446563 0.08539754

action_model._continuous_distribution.mu.weight f4 [2, 128]
00000000: 9e2a 8dbb 4ba0 93ba 6085 933c e05d cbba
00000010: f7bf 0f3d 6195 aebc bf28 a13d 9e64 0939
00000020: be81 113c 16e3 9cb9 500e 003d c2e7 683c
00000030: 8bcd 82bc 8f00 97bc cb8d 74b9 fda9 48bc
00000040: 347a a8bc e2a1 05bc 055f 4bbc ab8c 64bb
00000050: 5e6c dc3c d659 763d 35af b93c 4899 f73c
00000060: 73e9 90bc 9476 a53b 8717 88bb 91db 8dbc
00000070: cca7 9f3c f5fe bd3b 6645 2d3c 1d54 ec3c
00000080: 89a2 91bc 02be 0b3c 0070 1f3c d69b c63b
00000090: 8009 a33b 2f98 04bd ade9 ab3c 7d38 143c
000000a0: 7410 24bc 954e 7e3b 0404 bcbb 92f8 8cbc
000000b0: f5e8 b6bc b708 02bc 53d0 4e3c 3ccc 99bc
000000c0: ed38 bbbb 392d c9ba ecbb 043d 3f84 90bc
000000d0: 4bc5 26bb 972c ebb9 d980 383c 0935 d3bb
000000e0: 681c 0c3c 9722 ffbb 7bda d33c 3dc3 f73b
000000f0: fc3b 383c 761f fdbc e0e1 603c acdd 9abc
00000100: 190f 863c 0f77 9c3b beca 12bd af8d 2c3b
00000110: 7104 113c f3de ce3b 167e 2a3c 1ee6 233d
00000120: cc7d 7fbb 1529 3abc 03b3 123b 8053 ba3b
00000130: 42fc 8e3b 8250 f4b7 9fd5 05bc 255b ef3b
00000140: 191b c3bc 762b ee3b e8ed 3a3a 64bd 043b
00000150: 80f6 83bc d5b7 c1bc 188d 09bb 987a dab9
00000160: 6bbb c2bb 6ad2 5139 c4b7 193c 6a59 c6bc
00000170: 6e5c 86bc 1a3c 0bbc 30b9 333c 6395 16bc
00000180: 98ea 5bbc c557 e43c 64ff 83bb facf 24bc
00000190: 60c3 eabb 0a42 b2bb cfbf 4a3c ca94 1d3c
000001a0: e16c b43c 63f1 e2bb 0a9b b7bb e9ec 24bc
000001b0: dea5 473c 3279 053c 27b1 b03c 62ea 253c
000001c0: 0637 253d ee7d a53b d1e5 06bc be51 6d3b
000001d0: 7d39 4abc d34f c9bb 9d0a 0abc b614 343c
000001e0: b408 583c c5cf ae3b b9a5 2bbc 0b79 133b
000001f0: ab10 ca3a bb4e 6fbc 5ef3 3abc 829f 31bb
00000200: ac70 58bb 2922 813a 6648 9ebc 5e0b 39bc
00000210: f5d3 d2bc c6e9 ddbb 8513 353c 5a5e a13c
00000220: c5cd ecbb 473f 393a 4b92 d53b ea33 8fbc
00000230: 3b48 08bb a30a 3a3b ff18 80bb ad81 fb3b
00000240: 96b7 f6bc 3e9b 803c f042 13bb 7fe4 0fbc
00000250: 9f86 8ebc a333 553c 371c 2ebc 91af 27bc
00000260: 6b6b aebb 50e1 cf3b 0f73 34ba de43 23b9
00000270: 2bb2 51bc 2e63 c83c 05cf 7cbc 8d36 8abc
00000280: 8ee9 96bc 9e47 7b3a 4e6b 68bd 820f 293c
00000290: 9714 a3bc bfdf 043c ea45 543c f49f a03b
000002a0: 9ae6 2b3d c317 863c 7dd1 7bbb 9466 c1bb
000002b0: 0729 babc bc54 0a39 354e 903c 9e4d eabc
000002c0: 39d3 c23b ef7a 2abc ba31 923c efed f3bb
000002d0: d259 43bc 6c3c f9b9 9a56 dd3c 07e8 213b
000002e0: f0f3 613b 1cd3 e0ba 9aa2 333b f582 33bc
000002f0: 9390 573b 876b 753c 857c 7c3c d69c 24bc
00000300: 641f 44bc ce4a 1fbc 9c2f fd3b d764 1cbb
00000310: fd96 8a3c 3df7 17bc 7a77 e6bc 9774 bf3b
00000320: 691a e6bc 11e4 eb3c 4684 f2bc 9b52 103c
00000330: b683 833c 1cd4 c5bb 6e4e a6ba 4e8a 26bc
00000340: d578 2ebc bfc9 9abb 5b46 e2bc 8456 733c
00000350: 8c9d 873b 4615 8d3c e30b fa3b d967 dcbb
00000360: c9d1 3abd d327 f53c 14d8 abbb cc52 203b
00000370: af7c 4f3a ae90 18bb 1db6 8f3c ca85 383b
00000380: f7ac 94ba 3c7c b5bc b46e c23b aa21 4b3c
00000390: 59c3 353b 72a7 fb3a dfcd 253d 4805 333c
000003a0: e9de 2cbd 2303 c138 dd05 babc b992 1cbc
000003b0: d176 7abc 8a46 2c3c 840d 02bc 799d 82bb
000003c0: 1865 43bb b7a4 aebb 7591 9bbb 2cc6 a4bb
000003d0: 54ca 06bc cf8c e939 db33 d7bb ac7d b0bc
000003e0: 262b 87bb d516 b3bc 0f73 80bc 2686 26bc
000003f0: 26ac 9b3b c11b 6abc f682 63bc 1cb1 a6bc
-0.004308059 -0.0011262981 0.018007934 -0.0015515648 0.03509518 -0.021311464 0.078691 0.00013102821
0.008881031 -0.0002992383 0.03126365 0.014215412 -0.015967151 -0.018432884 -0.00023322475 -0.01224756
-0.020566083 -0.008156272 -0.012412791 -0.0034873884 0.026907142 0.060144268 0.022666553 0.030224457
-0.017689442 0.005049536 -0.0041531953 -0.017316611 0.019489191 0.0057982155 0.010575628 0.028848702
-0.017777698 0.008529188 0.009731293 0.0060610576 0.0049754977 -0.032371696 0.020985449 0.009046671
-0.010013688 0.0038804163 -0.0057377834 -0.017208371 -0.02232788 -0.007936648 0.012622911 -0.018774144
-0.005713573 -0.001534856 0.03240578 -0.017641185 -0.0025447186 -0.00044855915 0.011261188 -0.0064455313
0.008551694 -0.007786106 0.025861016 0.007561116 0.01124477 -0.03089879 0.013725728 -0.01890453
0.016364621 0.004774935 -0.03583788 0.0026329567 0.008851157 0.0063131987 0.010406038 0.04001438
-0.0038984893 -0.011362334 0.0022384531 0.0056862235 0.0043635676 -2.9124556e-05 -0.008168607 0.0073045664
-0.023816632 0.0072683645 0.00071307877 0.0020254487 -0.016108751 -0.023647228 -0.002098864 -0.0004167154
-0.005942752 0.00020010179 0.009382192 -0.024212558 -0.016401496 -0.008498216 0.010969445 -0.00919089
-0.013422631 0.027873883 -0.0040282477 -0.010059351 -0.007164404 -0.0054400014 0.012374832 0.009617994
0.022024574 -0.006925748 -0.005603199 -0.010066249 0.012185542 0.008146571 0.021568848 0.010126682
0.040335678 0.0050504124 -0.008233503 0.0036212052 -0.012342808 -0.006143549 -0.008425382 0.010991266
0.013185669 0.0053348267 -0.010476523 0.0022502567 0.0015416344 -0.014606173 -0.011410562 -0.002710313
-0.0033026142 0.00098521 -0.019321632 -0.011294214 -0.025735835 -0.0067722527 0.011052017 0.01969831
-0.007226678 0.0007066619 0.0065176836 -0.01748081 -0.0020795006 0.0028387688 -0.0039092298 0.0076753707
-0.030116837 0.015699025 -0.0022470318 -0.008782505 -0.017398177 0.013012799 -0.010626844 -0.010234729
-0.005322864 0.006343998 -0.00068836 -0.00015570174 -0.012798826 0.024461355 -0.015430217 -0.016871715
-0.018421914 0.0009585562 -0.05674296 0.010318639 -0.019907279 0.008109986 0.012956122 0.0049018804
0.041967966 0.016368752 -0.0038424425 -0.005902121 -0.022724641 0.00013192272 0.017615417 -0.028601464
0.00594559 -0.010405286 0.017845977 -0.0074441354 -0.01192327 -0.00047538 0.027018834 0.002470495
0.0034477673 -0.0017152759 0.002741015 -0.010956516 0.003289257 0.01497925 0.015410547 -0.010047158
-0.011970375 -0.009722425 0.0077266227 -0.0023863816 0.0169177 -0.009275255 -0.028133143 0.005842756
-0.028088765 0.028795274 -0.029604089 0.008808757 0.016054016 -0.0060372483 -0.0012688169 -0.01016481
-0.010648926 -0.004723757 -0.027621439 0.01485217 0.004138654 0.017222058 0.0076308115 -0.006726247
-0.045610223 0.029926216 -0.0052442644 0.0024463413 0.00079150026 -0.0023279595 0.017542893 0.0028155916
-0.0011343051 -0.022153966 0.005933607 0.012398163 0.0027734844 0.0019199683 0.040479537 0.010926552
-0.04220477 9.2035414e-05 -0.022707874 -0.009556466 -0.015287117 0.010514865 -0.007937793 -0.0039860574
-0.0029814895 -0.005329694 -0.0047475644 -0.0050285067 -0.00822695 0.00044546134 -0.006567461 -0.0215443
-0.0041250167 -0.021861473 -0.015679864 -0.010163819 0.0047507463 -0.014288844 -0.013886204 -0.020348124

action_model._continuous_distribution.mu.bias f4 [2]
00000000: 006e 513c 7ef6 80bc
0.012782574 -0.015742537

action_model._discrete_distribution.branches.0.weight f4 [1, 128]
00000000: f4ce 073c 371f 87bc 9a2f 59bc 38f2 863c
00000010: 08a0 2abc 57a3 a7bb 83eb d0bb fb7b c5bb
00000020: 7b6b 13bc 6011 fa3b cb71 a0bc 6594 543c
00000030: 94fa bdbb 0d8f 40bc 0a49 85bc 22cc 93bb
00000040: dade 843b 7570 61bb 31d9 203c fa52 f33a
00000050: 038a d03b 1a40 3a3c c0e8 843b ad36 283c
00000060: d87d 513b bac5 77bc 1bd1 da3c ab93 a1bb
00000070: 93ea 3ebb f782 a6bc df64 d13b a595 2e3c
00000080: 68a9 5b3c 4b90 2bbb 89f0 163c fb99 533c
00000090: 4830 60bb 0360 8cbb 457a 7cbb 058f d93a
000000a0: 87e7 b53b b824 fa39 4371 41bc f837 e1bb
000000b0: 8777 e03b 3631 0d3c 866d 19bc bff8 cbbc
000000c0: ba5e e3bc 5806 d4ba 0cf8 2abb 8b09 613c
000000d0: fb43 b3ba d3d9 b6ba e0fd f0bb 85ce ed3b
000000e0: 0a15 aa3b 078b aabb 9acb 84ba 09b1 09bb
000000f0: 2bdc e6bb e1fa 9fba e8bf 943a 671f dc3b
00000100: e945 a6bb 9a86 7fbb e036 72ba f1bf bdbb
00000110: d324 213b da1e 723a c392 293b b281 8f3c
00000120: 65e6 b9b8 9def 853c 1d33 113b 6021 61bb
00000130: 43a4 e73b 938e 03bc 5844 79bb 1667 3fbb
00000140: 83dc 383b 8ebf 1bbc a7b2 043c ff3d acbb
00000150: f13b 893b 3fef 5e3c 3b7b 86b8 1a25 30ba
00000160: 8741 473c 6f6d 1abb a0f1 59bc d20e 613b
00000170: 42a3 5d3c fd20 ea3a 882f 90bb 74b6 07bb
00000180: 2f08 963a ea41 0e3c 77cf b4ba 0ace 52bc
00000190: ec13 1a3c d3aa 1fbc 9b30 933b 2309 b5bb
000001a0: ac83 a4ba 191f 9339 92a7 de3b 1435 13ba
000001b0: 17c8 38ba 8f53 333b 190d 98bc 33de fd39
000001c0: 57f1 27bc ab7e 5cbc 5f13 dd3b 0ab5 4d3c
000001d0: 95b1 5c3c 49fb 2a3b 140f 363b abf0 c83b
000001e0: 4a99 8b3c ebcb ee3b 2f08 78bb d346 8f3c
000001f0: bbea e5ba 5c85 41bc 9229 07bc 7f18 dfbb
0.008289088 -0.016494377 -0.013255978 0.01647292 -0.010414131 -0.005115907 -0.0063757314 -0.0060267425
-0.008997793 0.007631466 -0.01958551 0.012974833 -0.0057976935 -0.011752856 -0.01627018 -0.0045104185
0.0040548863 -0.0034399305 0.0098174075 0.0018564158 0.0063641085 0.011367822 0.0040560663 0.010266942
0.0031965878 -0.015122825 0.026711037 -0.0049309335 -0.0029131516 -0.02032612 0.0063901986 0.010655795
0.013407089 -0.0026178535 0.0092126215 0.01291513 -0.0034208465 -0.0042839064 -0.0038525027 0.0016598409
0.005551282 0.00047711073 -0.011806789 -0.006873127 0.0068501863 0.00861769 -0.009364491 -0.024898885
-0.02775513 -0.0016176207 -0.002608779 0.013735185 -0.0013676876 -0.0013950415 -0.007354483 0.007257285
0.0051904963 -0.0052045616 -0.0010131479 -0.0021010062 -0.007045289 -0.0012205505 0.0011348696 0.0067176106
-0.005074252 -0.003899014 -0.00092397444 -0.0057907035 0.00245886 0.00092361646 0.002587483 0.017517898
-8.864402e-05 0.016349608 0.002215571 -0.0034352168 0.007069142 -0.008029598 -0.003803512 -0.002920573
0.0028207607 -0.009506119 0.008099235 -0.005256414 0.004188054 0.013606845 -6.4125714e-05 -0.0006719396
0.012161619 -0.0023563763 -0.013302237 0.003434111 0.013527693 0.0017862614 -0.0044001974 -0.0020708116
0.0011446531 0.008682707 -0.001379474 -0.012866506 0.009404164 -0.0097453175 0.004491878 -0.005524771
-0.0012551448 0.00028061194 0.0067948783 -0.0005615514 -0.00070488587 0.0027363037 -0.018560933 0.00048421472
-0.010250411 -0.013457934 0.006746694 0.01255537 0.013470073 0.002608972 0.0027779983 0.0061322055
0.017040867 0.0072874925 -0.0037846675 0.017489826 -0.0017541269 -0.0118115805 -0.008249657 -0.00680834

exp_avg f4 [128, 10]
00000000: e5fe 1218 3cdb ac16 a020 8e17 9860 1f17
00000010: e6b6 6416 f97d ff17 1902 2113 ffa9 2714
00000020: 0000 0000 0000 0000 0400 0080 0400 0080
00000030: 0400 0080 0400 0000 0400 0080 0400 0080
00000040: 0400 0080 0400 0000 0000 0000 0000 0000
00000050: abd3 3f39 8631 d637 201c bb38 6c54 d438
00000060: 5c40 c535 c896 b538 b2c5 dc2e fa7d 9330
00000070: 0000 0000 0000 0000 fb82 8dbb 5798 36ba
00000080: 333f 07bb 12ea 4ebb 5cdb 26b8 42e2 00bb
00000090: 85ca 9c33 de3f 5833 0000 0000 0000 0000
000000a0: 9672 06bd 6fd0 92bb cca0 72bc faa3 95bc
000000b0: 7785 87b9 a2bb 70bc 20dd f233 1f57 7bb3
000000c0: 0000 0000 0000 0000 627d ae09 ef16 4908
000000d0: d20f 2409 4ef3 8808 082e 6707 3214 ba87
000000e0: ef1e 0280 a613 0980 0000 0000 0000 0000
000000f0: 798c 37bc 956f e6ba 7bbe aebb edd6 05bc
00000100: 7202 d3b8 4f1a 9cbb 742c 1f34 552e d233
00000110: 0000 0000 0000 0000 70c8 d1bc 7df2 6bbb
00000120: a46a 3fbc f21b 77bc 8363 59b9 d1d1 3abc
00000130: e904 1734 9194 6532 0000 0000 0000 0000
00000140: 7a36 9c9b 42cf 3b9a 69f4 179b afad 439b
00000150: 0557 3098 df77 159b 2328 0e14 1bff a792
00000160: 0000 0000 0000 0000 8525 982c d415 2f2b
00000170: efd1 0e2c b572 3c2b b09b 052b 147a dd29
00000180: 1d2c 38a5 c3dc c7a4 0000 0000 0000 0000
00000190: cd4b 5631 14d5 fa2f 8f59 d430 3ffb 1331
000001a0: 2a24 e62d df58 a530 5079 f327 b267 ef25
000001b0: 0000 0000 0000 0000 022e 46ba a0b6 90b9
000001c0: ce9d 54ba ca02 e5ba fe11 7fb7 4f68 94b9
000001d0: 6d72 0633 1cd2 9c33 0000 0000 0000 0000
000001e0: e595 163d 5c4e ad3b f842 8a3c 55dc b83c
000001f0: b56f 9f39 05dd 853c 6e73 8db4 f3c8 c2b3
00000200: 0000 0000 0000 0000 b094 a9bb 8701 bfb9
00000210: 16d7 baba 35e4 a7b7 90af bbb7 f55b 2ebb
00000220: e21b 97b2 cb92 ddb3 0000 0000 0000 0000
00000230: de18 2ebc a6d4 b7ba ed98 85bb fab4 a6bb
00000240: 5550 aab8 5b5f abbb b00d 4c34 7386 a333
00000250: 0000 0000 0000 0000 0000 0000 0000 0000
00000260: 0000 0000 0000 0000 0000 0000 0000 0000
00000270: 0000 0000 0000 0000 0000 0000 0000 0000
00000280: 4b9d 283c 67cf e03a 036f a53b 5b9c 063c
00000290: 7128 cd38 4335 903b d2d5 2cb4 8e80 10b4
000002a0: 0000 0000 0000 0000 30ff 2ebc c603 d2ba
000002b0: f897 a6bb d8e5 eebb aee5 c0b8 f054 93bb
000002c0: 299d d433 8f3f ac32 0000 0000 0000 0000
000002d0: efc1 78bc 38fe 10bb 24b2 ecbb 26cb 1dbc
000002e0: b442 05b9 c9b8 d9bb a1c3 8633 fcba 1d32
000002f0: 0000 0000 0000 0000 006c f9bb 325e a2ba
00000300: 8d71 7ebb 3fb8 c3bb 9847 94b8 28c3 4dbb
00000310: 82a2 8733 dca2 8233 0000 0000 0000 0000
00000320: 79bf 57bb 67de d8b9 b694 bdba c58d d1ba
00000330: 9c65 c9b7 fa4c bdba fc34 35b2 32f7 3ab3
00000340: 0000 0000 0000 0000 f894 153a 9279 b338
00000350: 9914 a139 3580 cd39 ff21 a436 6e26 7939
00000360: a3bc e531 6585 0031 0000 0000 0000 0000
00000370: 63dd d1bb 6b56 45ba 7be8 41bb 81ba 34bb
00000380: 1fbc 37b8 e037 36bb 8666 a0b3 6bcf ddb3
00000390: 0000 0000 0000 0000 7b8e 152a 002a b128
000003a0: 668b 9629 433c c829 3dd6 a526 d2a2 6929
000003b0: 27eb c9a3 2d31 85a3 0000 0000 0000 0000
000003c0: e515 e6b8 9622 c538 67d7 b238 218c 343a
000003d0: a067 a736 2f90 2b36 f22e 49b3 5959 87b3
000003e0: 0000 0000 0000 0000 77e3 c22a 1527 6029
000003f0: 11f7 362a c805 6429 4854 2229 31b0 c327
1.8998747e-24 2.7926455e-25 9.184771e-25 5.149759e-25 1.8475406e-25 1.6510789e-24 2.0322091e-27 8.464871e-27
0.0 0.0 -6e-45 -6e-45 -6e-45 6e-45 -6e-45 -6e-45
-6e-45 6e-45 0.0 0.0 0.00018294032 2.553385e-05 8.9220935e-05 0.000101246726
1.4696375e-06 8.658838e-05 1.00395595e-10 1.0731462e-09 0.0 0.0 -0.0043185926 -0.00069654494
-0.0020637035 -0.0031572622 -3.978178e-05 -0.001966611 7.301154e-08 5.0349506e-08 0.0 0.0
-0.03282412 -0.0044804136 -0.014808845 -0.018266667 -0.00025848646 -0.014693173 1.13092256e-07 -5.8519728e-08
0.0 0.0 4.2006886e-33 6.0513196e-34 1.974822e-33 8.242403e-34 1.7392036e-34 -2.799804e-34
-1.94768e-40 -8.33568e-40 0.0 0.0 -0.011202925 -0.0017580861 -0.0053327656 -0.008168918
-0.000100617195 -0.0047638784 1.4824201e-07 9.787315e-08 0.0 0.0 -0.025608271 -0.0036002689
-0.01168314 -0.015082346 -0.00020731804 -0.011402563 1.4064757e-07 1.3363334e-08 0.0 0.0
-2.584324e-22 -3.8838115e-23 -1.25694e-22 -1.6186142e-22 -2.27914e-24 -1.2363724e-22 7.1770835e-27 -1.060207e-27
0.0 0.0 4.3242653e-12 6.220278e-13 2.029595e-12 6.6950205e-13 4.746715e-13 9.835549e-14
-1.5974402e-16 -8.667648e-17 0.0 0.0 3.1184186e-09 4.5626136e-10 1.5450484e-09 2.1534132e-09
2.6164033e-11 1.2030589e-09 6.7577576e-15 4.1530158e-16 0.0 0.0 -0.0007559956 -0.00027601887
-0.0008110673 -0.0017472145 -1.5203374e-05 -0.00028306476 3.1303376e-08 7.302535e-08 0.0 0.0
0.036764044 0.005288882 0.016877636 0.022566 0.00030410071 0.016340742 -2.6347283e-07 -9.0703814e-08
0.0 0.0 -0.0051751956 -0.00036431497 -0.0014254774 -2.0014219e-05 -2.237389e-05 -0.0026605104
-1.7591393e-08 -1.0317816e-07 0.0 0.0 -0.010626046 -0.0014025166 -0.004077068 -0.005087492
-8.121195e-05 -0.005229873 1.900396e-07 7.614735e-08 0.0 0.0 0.0 0.0
0.0 0.0 0.0 0.0 0.0 0.0 0.0 0.0
0.010291408 0.0017151654 0.005048634 0.008215989 9.7826945e-05 0.0044008805 -1.6096536e-07 -1.3457813e-07
0.0 0.0 -0.010680959 -0.0016022853 -0.005084034 -0.007290583 -9.1980546e-05 -0.0044962093
9.9006066e-08 2.0052338e-08 0.0 0.0 -0.015182956 -0.0022124182 -0.0072233845 -0.009630954
-0.00012708717 -0.0066443426 6.275446e-08 9.181118e-09 0.0 0.0 -0.0076117516 -0.0012387692
-0.0038825006 -0.0059728916 -7.070525e-05 -0.003139684 6.3159874e-08 6.083221e-08 0.0 0.0
-0.0032920523 -0.00041364433 -0.0014463875 -0.0015987685 -2.4008383e-05 -0.0014442496 -1.0547634e-08 -4.3531323e-08
0.0 0.0 0.0005706097 8.5580294e-05 0.0003072366 0.0003919617 4.8915385e-06 0.00023760807
6.6862227e-09 1.8702278e-09 0.0 0.0 -0.006404565 -0.0007527831 -0.0029588032 -0.0027576985
-4.38058e-05 -0.00278043 -7.4692295e-08 -1.03288436e-07 0.0 0.0 1.3283291e-13 1.9669162e-14
6.68552e-14 8.892238e-14 1.1507244e-15 5.1877617e-14 -2.1892055e-17 -1.4440716e-17 0.0 0.0
-0.00010971333 9.400134e-05 8.527823e-05 0.0006887336 4.9890514e-06 2.5564912e-06 -4.6841656e-08 -6.3026796e-08
0.0 0.0 3.4619158e-13 4.977189e-14 1.6250566e-13 5.0631184e-14 3.604433e-14 5.43144e-15
