Assets/results/VikramRover12/VikramRover/VikramRover-3059.onnx (onnx, 147290 bytes, 10 tensors)

network_body._body_endoder.seq_layers.0.weight f4 [128, 10]
000000 4e d5 d1 be 8c 79 a0 be 7c 65 d4 3e a2 7b 32 3e
       -0.4098305 -0.31342733 0.41483676 0.17429975
000010 a9 66 32 bf 88 db 8b 3e a4 cd 65 3c d1 81 5c bd
       -0.69687897 0.27315927 0.014026079 -0.05383474
000020 6b 38 0c be 07 4d ce bc 11 d7 1a bf 3b 1c cf 3e
       -0.13693397 -0.025183214 -0.60484415 0.40451226
000030 6e ea db 3e 43 dc bd 3e be cc 12 bd 49 16 4d bd
       0.42952293 0.3708211 -0.03583979 -0.05007008
000040 35 60 27 3e f7 28 b9 be 7f 3f c2 be 26 1a 4d 3f
       0.16345294 -0.36164066 -0.3793907 0.80118024
000050 78 eb 49 bc 10 fc 07 bf d6 b7 fe bd 60 8f ee 3d
       -0.0123242065 -0.5311899 -0.12437408 0.1164844
000060 9c 46 d6 bd 02 f4 c7 be f0 56 6b bf c2 63 4f 3e
       -0.104626864 -0.3905335 -0.9192953 0.20252898
000070 93 25 b2 bd 7e 88 8d be c4 63 2d 3e 17 2e 1f bd
       -0.08698573 -0.27643198 0.16932589 -0.038862314
000080 e3 6f 92 3e c6 80 97 3e 71 ec 27 3e 8f c4 56 bf
       0.28600988 0.29590434 0.16398789 -0.83893675
000090 02 b7 61 bd 56 7c 89 3c e6 6d c5 3c 02 05 24 3e
       -0.05510617 0.01678292 0.024100255 0.16017535
0000a0 e7 cd 00 be ff 3b 10 3f 1e ae 62 be 5e 40 cf bd
       -0.12578546 0.56341547 -0.22136733 -0.10119699
0000b0 b6 f6 1c 3f 1d 9c 6f 3d 37 bf 8a be 21 b2 70 be
       0.6131395 0.05849849 -0.2709901 -0.23505451
0000c0 3f 6d 35 bd 37 4e 83 be 62 c2 5b 3e c6 ce eb 3d
       -0.04429364 -0.2564561 0.2146087 0.11514048
0000d0 fc 94 9e 3e 34 ab 55 3e a6 2e 0d 3f f9 41 c8 be
       0.3097304 0.2086609 0.55149305 -0.39112833
0000e0 03 e0 d5 3d 0f 9f fd be 62 2d a3 bc 49 f0 2d be
       0.104431175 -0.49535415 -0.019919101 -0.16986193
0000f0 d7 0c 00 3f c7 1b b4 bd a7 8f 1d 3e a0 05 b8 3e
       0.5001959 -0.087943606 0.1538683 0.35941792
000100 90 8d 13 3d 41 0d fb bd 71 2a 46 3c 14 68 90 3e
       0.036023676 -0.12258387 0.01209508 0.28204405
000110 73 3a 7c be 6f 96 06 3f 46 8a b4 3e fb fe 11 be
       -0.24631672 0.52573293 0.35261744 -0.14257424
000120 7c b3 8a be 1b 2b 79 be d3 90 20 3d aa 93 4d 3e
       -0.2709006 -0.2433285 0.039200615 0.2007586
000130 2f d9 28 be 4e e4 62 be 2f b7 eb bd 49 07 75 3e
       -0.16489099 -0.22157404 -0.11509549 0.2392856
000140 9c eb f3 bd b1 6f ff be fa 97 7c be 93 4c 3e 3e
       -0.11910173 -0.498899 -0.2466735 0.18583898
000150 cf 54 53 3e ac 7f 01 3f 74 81 59 be 4e 98 1e 3e
       0.2063782 0.50585437 -0.21240789 0.15487787
000160 64 d9 36 be fb e1 ca 3e f9 a3 b3 3e 2b 95 eb be
       -0.17856365 0.39625534 0.3508604 -0.46012244
000170 4b 8b 86 3d 77 a4 84 be 67 8c d0 be d4 c5 1e 3e
       0.06569537 -0.25906727 -0.40732118 0.15505153
000180 ec 5f e6 be db 5e 61 bd f5 a8 4d 3e c9 e7 60 be
       -0.44995058 -0.0550221 0.20083983 -0.21963419
000190 28 21 04 3e 30 9a 80 3e f1 48 d1 be b2 ab 2c 3f
       0.12903273 0.25117636 -0.40875962 0.67449486
0001a0 75 64 2a bc 2c de dd 3a f9 7a 77 3d b0 94 92 3d
       -0.010399927 0.0016927174 0.06042001 0.07157266
0001b0 f5 8d d3 be 98 9e 8f 3e 9c 2d ad be e2 1e e4 3e
       -0.41319242 0.28050685 -0.3382386 0.44554812
0001c0 d0 ed b5 be a3 5a 2b 3f c9 0e 34 be df 31 f4 bc
       -0.35533 0.66935176 -0.17583765 -0.029808937
0001d0 fb f8 cd bd 61 d9 16 3e 9a dc f7 3d 24 3d 70 3e
       -0.10057255 0.14731361 0.12102623 0.23460823
0001e0 d8 79 9c be b8 6d b3 3c fc 42 b6 3e 7e fc 11 bf
       -0.3056171 0.021902904 0.3559798 -0.570259
0001f0 93 39 05 3e 28 dd c2 bd 3d f5 11 be 23 82 e8 3d
       0.13010244 -0.095148385 -0.14253707 0.113529466
000200 15 f2 68 3e 52 9f 57 be a9 33 72 3d b4 17 46 3c
       0.22748597 -0.2105687 0.0591313 0.012090612
000210 3e 63 ab bd 39 be d3 3d 90 7e 0c bf 08 1f 0e 3e
       -0.08368538 0.103390165 -0.5488062 0.13879025
000220 d4 f0 e8 3d ea b6 85 3e 5b b7 7e bd 42 13 28 3e
       0.11374059 0.26116115 -0.06218658 0.16413596
000230 4c 30 c9 3e 43 9b 30 3e 22 e1 81 be f5 20 a1 3e
       0.3929466 0.17246728 -0.25367075 0.31470457
000240 88 46 45 be 7f dd 13 be 9d a9 ab bd c4 04 e0 bd
       -0.19265187 -0.14439963 -0.083819605 -0.10938409
000250 88 ee a5 3e ef 14 c1 3e 15 de 10 be 44 dd 86 bb
       0.32408547 0.37711284 -0.14147218 -0.0041157324
000260 dc f8 ce bd b8 de 62 3e 89 88 1b 3e 04 84 d9 3d
       -0.1010606 0.22155273 0.15188803 0.10620883
000270 cb b9 9e be 1a 42 69 3e 3c 7d d4 bd 55 ed 31 3f
       -0.31001124 0.22779122 -0.10375449 0.69502765
000280 e0 68 d9 be 8f c8 25 be 0f 20 8d 3e 1d de f0 bd
       -0.42462826 -0.16189788 0.2756352 -0.11761115
000290 ec a0 29 3d 62 14 ef be 1b 7e 43 be 8d db 61 3e
       0.041413233 -0.46695238 -0.19091074 0.22056408
0002a0 3d c7 1a be b2 65 20 bf 79 ca ce 3e 13 0b 20 3c
       -0.15115066 -0.62655175 0.4038885 0.009768265
0002b0 34 d6 64 3e 10 e9 ba 3e 11 6c e6 bd e6 2b 2d 3b
       0.22347337 0.36505938 -0.11251081 0.002642387
0002c0 97 86 ea be 65 15 0b 3e 35 62 b7 3d 76 f0 99 bc
       -0.4580581 0.1358238 0.089542784 -0.018791419
0002d0 e8 54 92 bd 87 95 18 3e ad 68 de be af 9a c6 3d
       -0.07145101 0.1490079 -0.43439236 0.09697472
0002e0 fc cc a2 be ee e9 12 bf f2 7b 00 be 21 e9 34 3f
       -0.31797016 -0.573882 -0.12547281 0.70668226
0002f0 37 53 4c 3e a6 0b 3c be 77 2c 3f be 96 d6 08 be
       0.19953619 -0.18363819 -0.18669306 -0.13363108
000300 6c 16 55 bf a0 59 76 3e 2e 0b e8 3e f6 fe 50 be
       -0.8323734 0.24057627 0.4532103 -0.2040976
000310 3d f8 b7 3c f1 66 b0 be 82 8a f8 3e 04 fb a2 be
       0.022457236 -0.34453538 0.48543173 -0.31832135
000320 2c d7 d3 3e 9f d6 08 3e 52 dd d6 3e e6 a5 b0 3e
       0.413751 0.13363121 0.4196573 0.3450157
000330 e7 4f 4c bc 9d e1 2a 3d 73 95 2c bf 30 2c f6 3e
       -0.012470222 0.041719068 -0.6741554 0.48080587
000340 e0 b6 97 3e ae ed 5f 3e 90 8d 60 3d f3 79 88 be
       0.2963171 0.21868011 0.054822505 -0.2665554
000350 9b c2 d7 3d f9 9c 52 bf 02 46 cd 3e 7b 6e bc 3e
       0.10535165 -0.8227077 0.40092474 0.3680304
000360 cd a4 6a 3d 08 d0 16 bf 26 d2 39 be f0 8e c5 be
       0.057286073 -0.5891118 -0.18146572 -0.38585615
000370 cc dd db 3e e6 b2 28 be 81 94 42 be f7 f0 e2 be
       0.42942655 -0.16474494 -0.19001962 -0.44324467
000380 20 53 52 3d c3 93 4a bd b0 5f 58 3d 1c e6 0c 3d
       0.051348805 -0.049457323 0.05282563 0.034399137
000390 de 00 71 be 30 4f aa 3e c7 52 79 3e 7e bc 05 bf
       -0.23535487 0.3326354 0.24347983 -0.5224074
0003a0 ea 27 87 3e 75 c8 7a 3e 60 7d c2 3e 67 62 4a 3c
       0.2639764 0.24490531 0.3798628 0.0123525625
0003b0 44 ac af 3e ec 6d e7 bd 06 75 c9 3c e7 18 21 bd
       0.34311116 -0.11300263 0.024591934 -0.03933039
0003c0 a8 28 27 3d a2 29 21 be 48 7e 10 bc b6 03 14 bc
       0.040810257 -0.15738538 -0.00881917 -0.009034088
0003d0 96 a2 b5 bd a1 33 8a 3e bc 43 19 be 0c 65 83 be
       -0.088689014 0.26992515 -0.14967245 -0.2566303
0003e0 6a e6 8c 3e f7 cd aa 3e ee e2 15 3e c3 76 29 3f
       0.27519542 0.33360264 0.14637348 0.6619684
0003f0 7a 92 af be 7e 1c 6c 3e 10 0d f6 3e 54 a8 5b 3e
       -0.3429144 0.23057744 0.4805684 0.21450931

network_body._body_endoder.seq_layers.0.bias f4 [128]
000000 12 30 f6 bb c0 ed 0a ba 23 b8 96 bc 17 2b f4 3a
       -0.0075130546 -0.000529971 -0.01839835 0.0018628564
000010 8b c0 53 3c a9 e1 55 bb cb 0e 54 bb 32 a2 dc bb
       0.012924324 -0.0032635725 -0.003235745 -0.0067332024
000020 f6 f8 1f bb 6f b3 87 bb ee 2a ce bb ad 0a b0 bb
       -0.0024409867 -0.004141263 -0.0062917387 -0.0053723664
000030 74 4a cd bc 50 23 a2 3b 59 6d 4d 3b 3f 35 bb 3b
       -0.025059916 0.0049480572 0.0031345694 0.0057131345
000040 b6 8e 0d bc 57 68 cc bb 00 00 00 00 45 81 58 3b
       -0.008639982 -0.006238024 0.0 0.0033036035
000050 1b 37 1d 3b 30 6a 28 3a 71 c2 8e 3b 97 87 40 ba
       0.0023989144 0.00064245146 0.0043566753 -0.0007344423
000060 8b e7 d8 bb b6 ff 23 3b 86 63 e9 bb 7b ea a5 bc
       -0.006619399 0.0025024242 -0.00712246 -0.02025341
000070 d1 2b 5c 3b b8 8e 05 bc 83 ab 07 3b ce 52 d1 22
       0.0033595453 -0.008151703 0.0020701594 5.6737236e-18
000080 85 68 d1 bb ba dc ce 3b af e0 7d bc 0d 99 e6 3a
       -0.0063906335 0.0063129338 -0.015495463 0.001759322
000090 8f 8d a3 39 9f 02 f5 ba bb d8 b6 bb d0 25 32 bc
       0.00031195252 -0.0018692798 -0.0055800355 -0.010873273
0000a0 cc 1f be bb 02 91 54 3c 09 b0 7a 3a 12 1d 38 ba
       -0.0058021303 0.012974026 0.00095629744 -0.0007023375
0000b0 51 97 1e 3c 92 af 52 3b a2 9f d8 39 db ae 00 3b
       0.009679631 0.0032148105 0.00041317666 0.0019635472
0000c0 f9 69 ca 3a 32 0d 1f a3 da 54 ce bb ce e5 27 bc
       0.0015442959 -8.6222015e-18 -0.006296736 -0.010247661
0000d0 67 56 8e bc dc 2a ab ba 7e ea a3 ba 00 00 00 00
       -0.017375184 -0.0013059038 -0.0012505797 0.0
0000e0 0f c8 c7 3b 5c 31 cd 3b 7f 5a dc bb 85 41 8e bb
       0.006096847 0.0062619876 -0.006724655 -0.0043413066
0000f0 2d d1 6c 88 fb 74 df ba 00 00 00 00 ee 68 7b bb
       -7.126455e-34 -0.0017048413 0.0 -0.0038362104
000100 70 e7 c6 bb 14 b1 07 3b 36 c8 62 bb 86 0f d3 ba
       -0.00607007 0.0020704912 -0.0034604198 -0.0016102649
000110 f4 26 12 b9 b4 c7 fe 3b ef df 0c bc a1 b5 0b 3c
       -0.00013938156 0.0077752713 -0.008598312 0.00852719
000120 ba f3 91 25 82 d9 2b bc fc d6 1c 3b f9 85 9d bb
       2.5318646e-16 -0.01048887 0.0023931852 -0.0048072306
000130 0c 8d 16 3b 48 9a 20 3c 24 1c 1b b1 73 eb 8e ba
       0.0022972254 0.0098024085 -2.2571465e-09 -0.001090391
000140 00 00 00 00 ef 14 23 3b 3e 74 38 3b cd 25 c9 bb
       0.0 0.0024884304 0.0028145458 -0.0061385394
000150 2e 25 7c bb 4b 15 22 bc 47 f7 9b 3a d8 20 80 3b
       -0.003847431 -0.009892772 0.0011899256 0.0039101653
000160 46 21 99 bb 43 5c 0d bb a8 6e 18 bc 66 3b 07 ba
       -0.004673156 -0.0021569885 -0.009303726 -0.00051586924
000170 c1 6b bb bb 17 47 78 bb 50 6a 5b bb e6 fd 61 bc
       -0.0057196324 -0.003788417 -0.0033480115 -0.013793444
000180 bd bf 15 3c c3 55 a8 bb a5 67 bd bb 3d a6 14 bc
       0.009139952 -0.0051371767 -0.0057801777 -0.009072837
000190 b8 31 3e bb d2 6c 6d 3c a3 65 30 bb b0 18 91 bb
       -0.0029021334 0.014491277 -0.002691605 -0.004427992
0001a0 fc 80 03 3c e3 68 ac 3b 3c c7 96 bc c0 5a 7b ba
       0.008026358 0.005261527 -0.01840555 -0.0009588413
0001b0 38 84 aa bb f2 85 a5 3b 92 2f ba 3a 6f 9b 37 ba
       -0.00520375 0.005051368 0.0014204851 -0.00070040574
0001c0 a5 63 25 bb 8e fe 07 3c 76 97 0f bc d8 ed e7 3b
       -0.0025236395 0.008300437 -0.008764138 0.0070779137
0001d0 6f 30 4b bb 61 c5 c9 28 ec 10 63 bb 7f 60 2a ba
       -0.003100421 2.2401082e-14 -0.0034647537 -0.00064993644
0001e0 e6 fe a1 b8 61 8d 12 b0 4e 80 2f bc 55 b9 1b bc
       -7.724557e-05 -5.33154e-10 -0.010711743 -0.009504636
0001f0 3c eb ea 3a 5a d9 02 bc c8 18 ce bb 5f 9a 23 bc
       0.0017922889 -0.007986391 -0.0062895752 -0.009985535

network_body._body_endoder.seq_layers.2.weight f4 [128, 128]
000000 79 8b fb 3d 7a bf 02 3e 8f 91 2e bd 46 6f 3d bd
       0.12282462 0.12768355 -0.042619284 -0.046248697
000010 a2 86 5f bd fd 7a 29 bd 57 91 da 3d ee 69 fb 3d
       -0.054571755 -0.041377056 0.106722526 0.12276064
000020 31 41 3d 3d 9d 30 0a bd fe 1a d1 bc 1a 90 40 3c
       0.04620475 -0.033737767 -0.025525566 0.0117531065
000030 b6 42 3b 3d 6d 8c a9 bc 4d 66 c9 3d e1 b7 82 3d
       0.045717917 -0.020696843 0.098339655 0.06382728
000040 9d a7 a3 3d 80 16 60 bd 66 99 96 bb c7 54 dc bc
       0.07990954 -0.054708958 -0.0045959232 -0.026895894
000050 98 ed 16 be 0c b7 c3 3d 31 c3 ee 3b c9 5d 5b bd
       -0.14739072 0.09556398 0.007286452 -0.053556237
000060 a7 3e 2d bd 55 7d 86 bd f5 64 8a bc 02 c9 b5 bd
       -0.042296078 -0.06566874 -0.016893843 -0.0887623
000070 ed 43 f7 3d bc d2 54 bd de 55 2e bd 30 62 26 bc
       0.12073503 -0.051958784 -0.042562358 -0.010155246
000080 ba 73 7e 3d 1d 11 aa bd 34 db 33 bd 7f 29 da bb
       0.062122084 -0.08304045 -0.04391022 -0.0066577788
000090 ae 37 7a 3d 13 19 12 3e 3c 70 a9 bd 12 2f 9d bc
       0.061088257 0.14267378 -0.0827336 -0.019187484
0000a0 7c d4 18 3e 45 81 a6 bd 16 29 73 bd fa 00 27 3d
       0.14924806 -0.08130125 -0.059365354 0.040772416
0000b0 2c d8 10 bd 32 5a f1 bd ab b1 7b 3c 7e 47 bd 3d
       -0.035362408 -0.117847815 0.015362184 0.09242152
0000c0 43 c1 a3 3d ce 05 0e 3e 72 29 9d bd 1d 1c 12 3d
       0.07995846 0.13869402 -0.07673921 0.035671342
0000d0 dd 8c bb 3a a4 5a 84 3d 88 58 7f 3a bd 19 16 bd
       0.0014308948 0.06462601 0.000974067 -0.03664564
0000e0 1f 80 62 3c ab 31 d9 3b 37 5d 07 be c1 e9 8e bd
       0.013824492 0.0066282353 -0.13219152 -0.06978179
0000f0 44 3e 8b bd 02 4e d2 bd 98 25 75 3d a1 fb 5b 3d
       -0.067989856 -0.10268785 0.059850305 0.05370677
000100 b1 2b bc bd 56 1b 4b 3d 5c aa b0 3d 01 5d 6b bd
       -0.09188021 0.049586616 0.086262435 -0.057461742
000110 3e bd f7 bb 30 39 32 3e 8f 4b c1 3c ec 84 58 3d
       -0.007560401 0.17404628 0.0235956 0.05286114
000120 93 e9 77 bd 69 d6 a3 bd bd ae 0d 3e be 5d f9 bc
       -0.060525488 -0.0799988 0.13836189 -0.030440208
000130 9a 93 57 3d d2 47 9d bd 31 fd 6d bc a5 62 78 bd
       0.052631 -0.07679714 -0.014525698 -0.06064095
000140 bd 43 9d 3d 30 d7 8b 3d 03 2e 0a 3d d3 ce 29 3c
       0.07678936 0.06828153 0.033735286 0.010364252
000150 c8 e5 8e bd 9f df 12 bd 76 ce a8 3d 8d 10 56 3d
       -0.06977421 -0.035857793 0.08242504 0.052261878
000160 1b e3 c3 bc 3b da 13 3e b5 15 27 3d 62 0f 96 bc
       -0.023912003 0.14438717 0.040792186 -0.018317882
000170 89 9a 25 3e 71 f0 c7 3d f8 14 af bd 88 e7 cd 3d
       0.16172232 0.097626574 -0.08548921 0.10053927
000180 82 64 cf bb c2 32 73 b8 76 83 66 3d 16 f7 58 3d
       -0.00632912 -5.7982987e-05 0.056277715 0.052970015
000190 c1 e3 98 bb 39 c0 3c bd 24 0b 58 bd e1 90 a7 bc
       -0.0046658223 -0.046081755 -0.052745 -0.020454826
0001a0 63 e4 7f 3d e5 65 43 bd 58 7d b5 3c 4d fc 0c 3d
       0.062473666 -0.047704596 0.022154495 0.0344203
0001b0 a3 8f 4b 3d 91 24 f8 bd 0d 49 0c 3b 92 57 05 bc
       0.04969753 -0.121163495 0.0021405846 -0.008138554
0001c0 4a 91 db bd 99 08 e3 bd 2d f6 2d 3d aa 93 b1 3c
       -0.10721071 -0.11085624 0.0424711 0.021676857
0001d0 c8 41 aa 3c b1 0f d3 3d 4e 85 c9 bd c7 28 b7 3c
       0.02078332 0.10305727 -0.09839879 0.022358311
0001e0 1d 29 1c be fe 76 d0 bd ea 73 ed 3d c2 da 16 3e
       -0.15250058 -0.10178946 0.115943745 0.14731887
0001f0 20 ed 5b bc 31 36 ac bd 66 22 02 3d c1 e8 84 3d
       -0.013423234 -0.08408774 0.031771086 0.06489707
000200 6b 1b 56 bc 9a ba a4 3d 5e f3 1c bd 93 be ff 3a
       -0.01306806 0.08043404 -0.03831803 0.0019511752
000210 b6 3f 40 3d 5f 8f 0e 3c cd c8 25 bd 72 ed 28 3d
       0.04693576 0.0087011745 -0.0404747 0.04124207
000220 14 e3 8f 3d 27 29 b0 3c 9c d8 16 3c c7 0c c2 bd
       0.070257336 0.021503998 0.009206917 -0.09475093
000230 c3 46 3f 3d e1 3d d2 3d 13 19 93 3c 1e ad 7b 3d
       0.046698343 0.10265709 0.017956292 0.061444394
000240 a1 f0 3f bc 7c 4f 29 3e ee 02 22 3e af 65 0b 3e
       -0.011715085 0.16534227 0.1582143 0.13613008
000250 ce f2 6d 3d d5 4a 49 3e 86 88 0a 3e dc 6a 8e 3b
       0.058092885 0.19657452 0.13528642 0.0043462347
000260 bd 48 1b 3e a5 bc f5 bd 02 63 bf bd c8 f2 11 be
       0.15164466 -0.11998872 -0.09345056 -0.1425277
000270 41 3f 90 3d da c0 41 3d 0a 52 81 be 76 42 b8 3d
       0.07043315 0.04730306 -0.25257903 0.089970514
000280 c4 72 af 3c 74 bc 91 3d 63 0b b9 bd ad 47 d4 3d
       0.02141703 0.07116023 -0.09035375 0.103652336
000290 97 ae 53 3c 9b 61 62 bd f2 65 8f bd e5 72 1d be
       0.012920043 -0.055268865 -0.070018664 -0.1537586
0002a0 71 30 60 3c 44 fc 0e be 88 89 94 3d 26 5f d0 bb
       0.013683424 -0.13963419 0.072527945 -0.006358999
0002b0 76 95 db bc 71 48 23 be ea 0b ff 3d 2c 42 57 3d
       -0.026804667 -0.15945603 0.12453444 0.05255334
0002c0 1e a9 b4 bd 94 f6 67 3e 54 87 17 3e fa 0c 0f 3c
       -0.08821319 0.22652656 0.14797717 0.008731121
0002d0 b3 3f 7d 3d bf 3f af bd cc 44 3e 3d a7 29 f6 bc
       0.061828326 -0.085570805 0.04645233 -0.030049158
0002e0 91 18 25 be 2c 11 ec bc 5e b2 8f 3d f7 cd 1b 3e
       -0.16122653 -0.028816782 0.07016443 0.15215288
0002f0 c0 5a 6b 3d 6c cb 53 3d e3 7b cf bd 4a 8d ba 3d
       0.057459593 0.05170767 -0.101310514 0.0910898
000300 b4 7c 17 3e 78 56 2a bc b5 13 6b 3d 9c 2f 82 bd
       0.14793664 -0.010396592 0.05739184 -0.06356737
000310 54 16 da bd 48 e1 08 3d 98 56 29 be 20 58 2f be
       -0.1064879 0.03341797 -0.16536939 -0.17123461
000320 56 a9 f7 bc 54 ef 1a be da 82 dc bd cf 42 b2 bd
       -0.030232113 -0.15130359 -0.107671455 -0.08704149
000330 d8 8c 4a be 95 35 83 bc 50 04 1c 3d 74 97 01 3e
       -0.1978029 -0.01601676 0.03809005 0.12655431
000340 6d 94 08 be 52 6b 9b 3d 88 aa b8 bd 77 1b 74 3d
       -0.1333787 0.07588829 -0.09016901 0.059596505
000350 05 3b ea 3d 98 b2 38 3c e0 25 fe bd 1e f2 bd bc
       0.11437038 0.011273049 -0.12409568 -0.02318674
000360 05 26 0f 3d 1b 29 95 3d a3 b6 8d 3c 41 ec 82 bd
       0.034948368 0.07283231 0.017299002 -0.06392718
000370 a5 fa ab 3d 61 28 fa bd 3d 5b 25 3d 7f 39 24 3d
       0.08397416 -0.12214733 0.040370215 0.040093895
000380 17 30 fb bd ac 72 0c bd 3d a9 d2 3b 1d 65 15 be
       -0.12265032 -0.034289047 0.006428866 -0.14589353
000390 ff fe eb bd f7 a3 92 3d f8 88 a6 bd 8a a1 ef 3d
       -0.11523246 0.0716018 -0.081315935 0.11700733
0003a0 71 83 9f 3d 14 64 05 be f4 61 4a bd d5 ca 69 bd
       0.07788742 -0.13026458 -0.04940982 -0.0570782
0003b0 92 1c eb 3d 2b 67 8e bc c0 4f ef 3d 43 dd be 3c
       0.11480059 -0.017383179 0.11685133 0.023298865
0003c0 bb 22 4e bd 9e 2e 01 3e 8c cd 2e 3c e9 90 12 be
       -0.05032609 0.1261544 0.010669123 -0.14313091
0003d0 e0 68 32 3d 03 9c 95 bd 32 2f 92 3d 24 46 4f 3d
       0.043557048 -0.073051475 0.07137908 0.050604
0003e0 6b 48 2b 3e c0 c2 32 3c 94 d0 09 3e 52 db b3 bd
       0.16726844 0.01091069 0.13458472 -0.087820664
0003f0 11 d7 f3 3d 2a 5a e9 3c eb cd a5 bc ff 82 a4 bd
       0.11906255 0.028485376 -0.02023979 -0.08032798

network_body._body_endoder.seq_layers.2.bias f4 [128]
000000 f7 b8 3c bb f1 aa af 3b 46 d4 4e bb 64 d1 84 3a
       -0.002879677 0.005360954 -0.003155963 0.0010133204
000010 94 36 5a bb 76 a6 f2 bb 2f c5 c4 bb 9d 3c 86 3a
       -0.0033296691 -0.0074050976 -0.0060049514 0.0010241453
000020 82 55 d9 bb 7a 38 72 bb 58 0e eb bb 54 b2 2b 1e
       -0.006632508 -0.0036959932 -0.007173341 9.089542e-21
000030 f0 2a 7f bc d0 55 1c 3b 8c dd 8c 3a 00 00 00 00
       -0.015574202 0.002385486 0.0010747178 0.0
000040 10 f8 53 3c 0a 3f 96 bb 45 ae 1f 3c 01 fe f4 bb
       0.012937561 -0.0045851516 0.009746139 -0.0074765687
000050 fd ef 99 bb 0b 84 4f bb d0 38 18 9f 74 c7 a4 3b
       -0.0046977983 -0.0031664397 -3.2234246e-20 0.0050286595
000060 4c 43 95 bb 96 63 79 bb 1d 31 5d 1b ba 81 ab 3a
       -0.0045551416 -0.0038053743 1.8296561e-22 0.0013084926
000070 02 e9 5a bb a5 00 2a bb 86 2a 96 3b 9e 09 8e bb
       -0.0033403044 -0.0025940326 0.004582706 -0.0043346426
000080 ee 97 1e ba d4 2f 95 bb d0 18 18 bc c2 60 02 3b
       -0.0006049861 -0.0045528207 -0.0092832595 0.0019894098
000090 00 00 00 00 71 4e 10 3c 12 bc 24 3a 00 00 00 00
       0.0 0.008807764 0.0006284128 0.0
0000a0 b3 9b 03 3b 12 4d f0 ba 1e 37 4f bb 15 6e 21 39
       0.0020081818 -0.0018333516 -0.0031618546 0.00015395165
0000b0 33 05 e3 3b 00 00 00 00 e1 19 93 bb 00 00 00 00
       0.00692811 0.0 -0.004489169 0.0
0000c0 d1 04 46 3b 2e ee d8 3b c4 6d 80 b9 cc cc 9f 39
       0.0030215273 0.00662019 -0.00024495844 0.0003047943
0000d0 ae e0 63 bc 00 00 00 00 49 51 1b bb 6c ec b0 bb
       -0.013908548 0.0 -0.0023699573 -0.0053992774
0000e0 a6 f1 33 32 f4 2c 64 bb 64 cd 40 bb 28 53 23 bc
       1.0474116e-08 -0.0034816833 -0.0029419297 -0.009968556
0000f0 77 fc 6f 3b ea 1b 02 bc 79 2c 96 3b 89 d1 21 3a
       0.0036618987 -0.007941226 0.0045829383 0.0006172886
000100 59 ce 7c bc 0c 24 35 bb f3 12 db ba 6b 13 ff 3a
       -0.0154300565 -0.0027639894 -0.0016714021 0.0019460743
000110 14 f9 99 39 ae 2d 9e 3a 8c 47 0f 3b b4 17 e2 3a
       0.00029368012 0.0012068057 0.0021862714 0.0017249496
000120 a6 75 0f 3a df fa fb 3a f4 5e 21 3a f5 c7 64 30
       0.0005472548 0.0019224546 0.0006155812 8.3230073e-10
000130 ad 2c d0 bb 8f 09 a1 ba 77 9a 02 bc 21 bd 7f bb
       -0.006352982 -0.0012286174 -0.007971398 -0.0039022642
000140 8d 2c 5d bc 69 4c b2 3b 8b 3f a8 3b a9 35 fb bb
       -0.013499391 0.0054412377 0.005134528 -0.007666309
000150 0b 44 25 bb fc f6 26 3b ee 76 fb ba e2 11 97 bb
       -0.0025217559 0.0025476804 -0.0019185224 -0.004610286
000160 89 b5 c4 bb 76 bd 5e b9 73 8d 02 bc 75 21 17 3c
       -0.006003086 -0.0002124215 -0.007968294 0.009224285
000170 99 df cf 3a e1 73 f7 bb e2 57 fe 3b ed 77 a8 b9
       0.0015859484 -0.0075516556 0.0077619413 -0.0003213281
000180 a0 25 d3 bb bd 88 96 bb b2 50 99 2a b7 c9 82 3b
       -0.0064436942 -0.004593937 2.7234253e-13 0.0039913314
000190 79 5c 34 bc fe 9f ae b3 36 5d 1d 3b 08 f4 93 3b
       -0.011008375 -8.131609e-08 0.0024011857 0.004515175
0001a0 d7 d6 a8 bb 4a 62 ba bb 6e 95 3c bb 19 96 1a bb
       -0.005152564 -0.0056879865 -0.002877559 -0.0023588
0001b0 28 df b4 ad ad 75 ab 3b 18 01 21 ba 56 8d e2 b9
       -2.0562732e-11 0.005232534 -0.00061418256 -0.00043211383
0001c0 55 26 33 3b c8 f4 7b bc ab 3f 02 bc c4 d4 e3 bb
       0.002733608 -0.015378185 -0.00794975 -0.006952854
0001d0 66 7c 52 aa 00 00 00 00 0f 70 ef 2a 9f 59 12 bc
       -1.8694906e-13 0.0 4.2532685e-13 -0.0089325
0001e0 3b 84 ee ba f1 65 1a bb 02 36 39 bb d2 50 3b bb
       -0.0018197367 -0.0023559297 -0.002826095 -0.0028582108
0001f0 76 2d 24 3c 4a 2f 61 3a 5a d0 cb bb 6c e5 8c bb
       0.010020604 0.00085901155 -0.006219906 -0.00429981

network_body._body_endoder.seq_layers.4.weight f4 [128, 128]
000000 d2 ed e7 bd 19 f0 96 bc 48 3e a0 bd 59 0d c5 3d
       -0.113246575 -0.018425034 -0.07824379 0.096216865
000010 03 6a de bd ca fd 53 bc 77 ab 9b 3d 58 84 58 bd
       -0.10860064 -0.012938926 0.07601064 -0.052860588
000020 2f 20 f1 bc 72 c4 15 bd 52 e1 7c 3d 72 14 e5 38
       -0.029434292 -0.036564298 0.06173832 0.00010923379
000030 7b 9b a7 bc 78 e2 19 3e 0c 1d ad 3d 5c dc e9 3d
       -0.020459881 0.15027797 0.08452806 0.11418983
000040 61 1c 92 3c 68 4d a0 3d 43 16 0c be cb c3 bd 3c
       0.017835798 0.07827264 -0.13680367 0.02316465
000050 ea 01 fa 3d 42 7a 2b bd 77 ea 41 3e 31 35 6e bb
       0.12207396 -0.04186464 0.18937097 -0.0036347623
000060 fe 1f 48 3d a3 27 c4 3d a4 0f 17 bc db f1 a2 bd
       0.048858635 0.095778726 -0.009220038 -0.079562865
000070 00 c9 31 bd 92 ab 75 3d 09 01 45 be 65 24 92 bc
       -0.04340458 0.059978075 -0.19238676 -0.01783962
000080 e2 6a 2a bd cb fc 85 3d 25 3e c5 3c 30 2c 4f 3d
       -0.041605838 0.06542357 0.024077484 0.05057925
000090 48 09 46 3d 5d ae e1 bc 77 ce 60 bd 6b 90 b2 bc
       0.048348695 -0.027548963 -0.0548844 -0.02179738
0000a0 54 4c cf bd 82 6a 69 bb 7b 5c 0a be 16 bc a9 ba
       -0.1012198 -0.0035616462 -0.13511841 -0.0012949731
0000b0 1c 82 c2 3d aa c1 90 bc 5d 2f 3f 3d 36 66 4b be
       0.09497473 -0.017670471 0.04667603 -0.19863209
0000c0 88 53 c8 bd 06 5d ee 3d c1 08 46 bd 00 fd d2 3c
       -0.09781557 0.116388366 -0.048348192 0.025755405
0000d0 b7 ca 84 bd e5 ff 36 3e 05 95 39 3e db c3 5d bd
       -0.06483977 0.17871054 0.18123253 -0.05414186
0000e0 72 85 7f 3d 8d f4 ff bd 35 c0 37 3d 49 f9 ea bd
       0.062383123 -0.12497816 0.044861037 -0.114733286
0000f0 b6 98 54 ba 9b 34 2e 3c ff ce ab bd e6 d4 d8 3d
       -0.0008109914 0.010632659 -0.08389091 0.10587482
000100 24 90 ff 3b 27 10 4e 3e 2a ad 23 be 76 35 39 3d
       0.0077991653 0.20123349 -0.15984026 0.045217
000110 e8 d5 d4 3c 83 fc 54 bc fe c7 53 bc fd 91 a6 3d
       0.025980905 -0.012999657 -0.0129261 0.08133314
000120 a2 9b d4 bb cc c8 20 3c 77 00 1a bd b5 6d 82 3c
       -0.0064882794 0.009813499 -0.0375981 0.015921453
000130 95 f7 fa bd aa 70 68 bc ba 8b 10 3e e4 39 10 bd
       -0.12254254 -0.014187017 0.14115801 -0.03521146
000140 a1 01 cc bb 90 61 56 bd 4a c7 b8 3d 62 1a c1 ba
       -0.00622578 -0.052339137 0.09022386 -0.0014732594
000150 a0 d5 c8 3b b6 8f 9d 3d fe 59 1f 3d 05 86 80 bc
       0.0061289817 0.07693426 0.038904183 -0.015688905
000160 59 e8 29 bd 61 f7 63 bd 38 6d c2 3d 6a e6 9a bd
       -0.04148135 -0.05565584 0.09493488 -0.07563479
000170 4d 15 6b 3d 5c 4d 56 bc ff be f4 3d bf a3 27 3e
       0.05739336 -0.013079967 0.11950492 0.16371058
000180 44 e2 ba 3c 93 00 ed 3d b0 13 b1 3d 16 6c 5c bd
       0.02281297 0.11572375 0.08646333 -0.053814016
000190 21 1f 86 3d 88 0c 89 bd 8f cf 2a bd bc 82 ec 3b
       0.06548906 -0.06691843 -0.04170185 0.007217733
0001a0 68 8a 97 bc 97 c2 53 3d 28 2c 9f bd 80 f8 c9 3b
       -0.018498614 0.051699247 -0.07772094 0.0061636567
0001b0 b6 e1 18 3d 91 09 56 3d 3c 4f 79 3c 25 a2 6c 3c
       0.03732463 0.052255217 0.015216645 0.014442955
0001c0 75 95 52 3d ff d0 97 3d 6c f4 70 3d 2f 27 0e 3d
       0.051412065 0.0741291 0.05882685 0.034705337
0001d0 58 4e 2b 3d 52 c3 69 bd 02 fa 83 3d b2 40 b4 3d
       0.04182276 -0.057071038 0.064441696 0.08801402
0001e0 17 0b 8d 3c e4 4c ec 3c d7 79 9d 3c a2 bb 3a 3d
       0.017217202 0.028845258 0.019223137 0.045589097
0001f0 1b 5e 30 bd 73 59 ac 3d 55 82 9a 3d 86 89 ce 3d
       -0.043058496 0.084154986 0.0754439 0.10084824
000200 34 28 f7 bd 68 9b 01 3d 08 f1 12 be 73 aa a9 bd
       -0.12068215 0.031642348 -0.14349759 -0.08284464
000210 7b 7c 11 3e 80 00 d1 3b d4 3d 8c 3d 72 a9 79 bd
       0.14207642 0.0063782334 0.0684773 -0.06095261
000220 e4 f0 4b ba da 76 08 bd fc 97 ae 3d c3 e5 6b 3e
       -0.0007779731 -0.03331647 0.085250825 0.23036866
000230 61 4c 7c 3d f5 cc 99 3d 40 bf 06 bd a8 59 80 be
       0.061596278 0.075097956 -0.032897234 -0.25068402
000240 02 86 98 bd ec b4 60 3e 2f c0 e4 bc 50 c5 74 be
       -0.07447435 0.21944016 -0.027923672 -0.23903394
000250 f4 d5 ae bd ec a6 ef 3d b2 8e 7f bd 86 ca a6 3d
       -0.08536902 0.1170176 -0.062391944 0.08144097
000260 24 ef de bc 80 6c 09 bd c8 90 cb 3d a1 29 b1 bc
       -0.02721364 -0.03355074 0.09939724 -0.021626296
000270 65 d2 3c be 48 e4 15 bd 79 e4 1e be af 9f 11 bc
       -0.18439634 -0.03659466 -0.15516843 -0.008888169
000280 c0 74 a8 3d 27 6e fe 3b 53 dd b4 3d 44 c8 57 be
       0.08225393 0.007764596 0.08831277 -0.21072489
000290 5b 7b b8 bd 98 a0 93 bd ef ce 4c be 51 21 00 3e
       -0.09007903 -0.07208365 -0.20000814 0.12512709
0002a0 ab ce 9c bd 44 3a 00 be 73 11 8f bd c5 63 fa bd
       -0.07656606 -0.12522227 -0.0698575 -0.12226061
0002b0 2e 03 8e bd 72 6a 0f ba c2 fa 2d 3d 5a 81 0c bd
       -0.069342 -0.00054708787 0.04247547 -0.034303047
0002c0 75 70 3a bd eb 90 e9 bd 52 37 f7 bd 21 ff 27 bb
       -0.045517404 -0.11404594 -0.120710984 -0.0025634246
0002d0 6d 0d 98 3c 30 5e c5 bb 72 aa 6e 3d c0 ae f2 3d
       0.01856109 -0.006023191 0.058268018 0.11849737
0002e0 e7 1b 36 3d 7b 51 d3 bc 48 69 16 bd 73 bc 1c be
       0.044460203 -0.025795689 -0.036721498 -0.15306263
0002f0 67 8a 35 bd 35 c0 5e 3d 19 8a 50 bd 00 9a a7 bd
       -0.044321444 0.05438252 -0.05091295 -0.0818367
000300 5f 84 93 be 3c 52 db bd 88 b6 82 3d c8 7d 3e be
       -0.2881193 -0.10709044 0.06382471 -0.18602669
000310 04 19 e1 bd 86 23 99 3d 88 64 bb 3d 11 7c d0 3d
       -0.109910995 0.07477479 0.09150034 0.10179914
000320 82 d7 2e 3b a0 5d d3 3b 7c 4d c0 bd 95 7e 40 3e
       0.0026678746 0.00645037 -0.09389779 0.18798287
000330 f0 87 04 be c9 49 cc bc 84 ff b8 3b 13 50 81 3d
       -0.12942481 -0.024937527 0.005645694 0.06314101
000340 84 a1 4f 3c 6f 17 0b be 06 54 1b be 61 03 dd ba
       0.012672786 -0.13583158 -0.15168771 -0.0016861969
000350 27 75 82 bd 5e b0 34 3c 3f ee f6 3d 1f fd 8c 3d
       -0.06370001 0.011028377 0.120571606 0.068842165
000360 6f ae 87 3d 51 a7 ae 3d 0a 14 26 3e 93 93 ba 3d
       0.066250674 0.08528007 0.16218582 0.09110179
000370 f8 0b 72 3d c5 87 5e bc 23 78 21 3d 85 f5 1a be
       0.059093446 -0.013582175 0.039421212 -0.15132721
000380 29 5c de 3c e1 89 5c bd 58 fc b6 bc 73 a0 dd bd
       0.027143555 -0.05384243 -0.022337124 -0.10821619
000390 10 6a 0a be e7 0e a3 3d c0 59 eb bc 3f 20 5a bb
       -0.13517022 0.07961827 -0.02872932 -0.003328338
0003a0 30 7e ed bd e2 11 17 bd 98 87 44 3d 3f 27 d0 bc
       -0.11596334 -0.03688229 0.047980875 -0.025409339
0003b0 fd 2b 21 be d3 87 98 bc 0a f3 03 bd 60 ba 03 3e
       -0.15739436 -0.018619454 -0.032214202 0.12864065
0003c0 63 28 46 bc b8 43 82 3d 9e 19 9f bc 6a 4e d2 bd
       -0.01209459 0.063605726 -0.019421395 -0.102688625
0003d0 af e4 24 bc 3a 05 66 bd 56 42 85 3c c4 c0 3a 3d
       -0.010064288 -0.05615733 0.016266983 0.045593992
0003e0 94 2d 91 bc 05 cb 7c 3b 55 c2 aa 3d fc 94 a2 bc
       -0.017721929 0.0038573158 0.08337847 -0.019846432
0003f0 3a cd ac 3c 47 2f 19 3e e5 21 2e 3d fe 27 d3 bd
       0.021093953 0.14959441 0.042512793 -0.10310362

network_body._body_endoder.seq_layers.4.bias f4 [128]
000000 da 2a 8f 3a da 24 74 bc 06 f4 0b bc ab 4a ad 3a
       0.0010922805 -0.014901364 -0.008542066 0.0013221105
000010 25 9d b2 bb 90 2f 66 bb 0f 93 b3 bb c1 2a 7c bb
       -0.005450862 -0.0035123564 -0.0054801772 -0.0038477632
000020 c8 a2 5d bb 00 1a 3c ba 3f 0c 38 bb 09 f6 45 bb
       -0.003381895 -0.0007175505 -0.002808347 -0.0030206463
000030 e9 7f 81 ba 3b 41 3c bb bc 40 f6 ba 00 90 c7 ba
       -0.0009880039 -0.0028725404 -0.0018787603 -0.001522541
000040 db 28 c5 ba b5 d4 55 3a 0b c8 54 ba 38 7e 0a 3b
       -0.0015042083 0.0008157001 -0.0008116967 0.002113236
000050 80 0c 33 bc de 10 85 bb 73 86 a1 b9 3a 63 f9 b7
       -0.010928273 -0.0040608486 -0.00030808485 -2.9729319e-05
000060 29 72 e4 bb 58 27 8a 3b a9 72 d4 3a 32 1c b6 bb
       -0.0069716168 0.004216116 0.0016208488 -0.0055575604
000070 b1 91 31 3b 02 09 4a b9 d5 ab 6d 3c 9f 97 b0 bb
       0.0027094895 -0.00019267577 0.0145063 -0.0053891684
000080 00 00 00 00 57 6e db bb a8 0c 30 bc ba 43 c9 ba
       0.0 -0.006696503 -0.010745205 -0.0015355267
000090 3d 23 91 3a 00 00 00 00 65 e7 d9 bb da d6 9a b9
       0.0011073124 0.0 -0.006649899 -0.00029533246
0000a0 03 00 d0 bb 74 8b cd bb 48 27 ef 38 ef dc 7c bb
       -0.0063476576 -0.0062727276 0.00011403725 -0.0038583835
0000b0 df 9f 3e 2b 33 96 9f b9 6b 92 be bb 52 58 d4 bb
       6.7723426e-13 -0.0003043875 -0.005815794 -0.006480255
0000c0 67 b1 c1 3b cd 01 00 b8 05 5c 96 bb 69 03 c7 38
       0.0059110406 -3.0519255e-05 -0.0045886063 9.489695e-05
0000d0 95 8b d2 ba c7 e9 83 2f 2b 17 d7 bb 71 a2 1d bb
       -0.0016063327 2.399487e-10 -0.006564041 -0.0024053121
0000e0 50 d9 b1 bb 3a 41 12 bb a0 eb 0d ae bd 31 22 3c
       -0.005427517 -0.002231671 -3.2268965e-11 0.009899554
0000f0 b3 80 9f bb c8 cf 63 3b 9a 1e 5e ba 1d 15 81 bb
       -0.004867637 0.0034761298 -0.0008473188 -0.0039392845
000100 b7 1f 51 bb eb c4 fa bb ef 92 41 bc 57 bf 20 bc
       -0.0031909773 -0.007652869 -0.011814817 -0.009811244
000110 b2 18 6b bb 0a 46 09 bb f9 44 a5 bb b7 7e 60 bb
       -0.0035872874 -0.0020946288 -0.0050436226 -0.0034255215
000120 ba 41 ed bb 6b a5 d9 bb 49 8d 0d 3b 9b f3 ab b9
       -0.007240501 -0.006642034 0.0021599105 -0.00032797162
000130 e6 28 7f 3b 09 6b 21 bb 00 df a9 3b eb 92 0c bb
       0.003893429 -0.0024630448 0.0051840544 -0.0021449875
000140 75 4b 88 bb 70 03 47 bb 11 4e a9 bb 0e 4b 81 08
       -0.004159386 -0.003036704 -0.005166777 7.78155e-34
000150 79 e5 c7 b9 73 7c a7 0b e3 b9 8f ba 6f 5d 3f bb
       -0.00038127208 6.451331e-32 -0.0010965433 -0.0029199978
000160 83 26 58 3b 38 32 18 3b b1 00 47 bc 3d 8f 1d bb
       0.003298194 0.0023223292 -0.012146161 -0.0024041675
000170 85 48 54 bb 6e f1 6f bb 64 51 84 bb 89 d2 5a bc
       -0.0032391858 -0.003661241 -0.004038023 -0.01335586
000180 7b 55 db 3a 56 96 c5 39 c1 42 e8 3b 23 20 27 17
       0.0016733849 0.00037686777 0.007088036 5.4001173e-25
000190 7f 79 39 bc a5 fc d7 bb 9e c4 52 bb b5 89 b0 bb
       -0.011320471 -0.006591397 -0.003216065 -0.0053875097
0001a0 2a 19 3c 3b f0 93 b4 bb e7 08 c6 b3 db 01 ee bb
       0.0028701522 -0.0055107996 -9.221713e-08 -0.007263405
0001b0 4d de a4 ba 2a 98 0a bc 80 aa 1d 3b 13 88 d4 bb
       -0.0012578458 -0.00845913 0.0024057925 -0.006485948
0001c0 62 4c c1 bb 4c b9 a6 3a 25 c9 09 2a eb 52 1b bb
       -0.005898998 0.0012720018 1.223783e-13 -0.0023700546
0001d0 54 6f 0f bc 10 f5 d0 ba 62 1e 28 ba 89 5a 0b b3
       -0.00875457 -0.0015942175 -0.0006413219 -3.24458e-08
0001e0 61 5e c9 bb 96 bf 20 3b 12 85 1a 3b 6f 79 f4 b7
       -0.006145284 0.0024528257 0.0023577851 -2.9143614e-05
0001f0 ce 06 56 bb 60 1f d3 3a 64 b7 ba 39 66 cb 5a 21
       -0.0032657865 0.0016107373 0.0003561332 7.413047e-19

action_model._continuous_distribution.log_sigma f4 [1, 2]
000000 a9 c3 65 3d fa c1 54 3d
       0.0560948 0.051942803

action_model._continuous_distribution.mu.weight f4 [2, 128]
000000 4b 8d d6 bb 16 4f 92 bb 5d 13 5d 39 cd 71 c1 39
       -0.006547605 -0.004464994 0.00021083416 0.00036896617
000010 43 bd d4 3c 36 32 93 3c e8 86 9f 3c 43 2b e0 3b
       0.025969153 0.017968278 0.019473508 0.0068410947
000020 0b 3d da 3c 91 c5 5d bd bb 77 17 3c bd 55 9c bb
       0.026640436 -0.054143492 0.009244855 -0.004770963
000030 fc 80 26 bc aa c0 f5 bb 91 50 82 bc 0e b9 15 bc
       -0.010162588 -0.007499774 -0.015907558 -0.009138359
000040 cc e1 12 bc 32 e2 cf bc 2d 0d bc bb 8c b8 c3 3a
       -0.008964967 -0.025376413 -0.0057388754 0.0014932319
000050 3f bd b8 3b b8 8f 88 3b 76 83 69 bc a6 fa 45 bc
       0.0056377943 0.0041675232 -0.014252534 -0.012083685
000060 35 46 66 bc 4f a1 51 3b b0 22 bc bc fc 4d 07 bb
       -0.014054825 0.0031987017 -0.022965759 -0.0020645848
000070 67 ea 9f bc fe a4 99 3c c8 45 00 3d 22 70 b7 ba
       -0.019520951 0.018755432 0.03131655 -0.001399521
000080 ca 75 8f 3c 53 17 84 3c 29 f2 de 3b 15 2d 27 3a
       0.01751222 0.016124403 0.00680377 0.0006377262
000090 6a 11 34 3c b4 19 14 bc fd bc ff bb 64 70 dd 3c
       0.01099048 -0.009039331 -0.0078045116 0.027031131
0000a0 54 3c bf bc 45 57 3a bc 6d 24 66 ba fe 3a 19 3c
       -0.023344196 -0.011373346 -0.00087792316 0.009352444
0000b0 4f 75 4e 3c 7a 32 d4 3b 13 34 7b bc 46 ec d7 38
       0.012601211 0.006475744 -0.01533224 0.00010296008
0000c0 35 d0 4f bc a8 f9 95 3b ed 50 9c 3a ac ae 8d bc
       -0.012683918 0.0045768805 0.0011925973 -0.017295204
0000d0 cd 14 b4 3c 5b 10 5a 3b 55 f2 05 bb 2d 94 07 3d
       0.021982575 0.0033273909 -0.002043863 0.033100296
0000e0 9e 7c 54 3b f2 a7 a0 bb 4d 10 38 bc a3 e1 83 bc
       0.003242291 -0.004902833 -0.011234355 -0.016098803
0000f0 5f d3 18 3c a9 84 e1 bc c5 d4 f5 3b 3b e8 ca bb
       0.009327739 -0.027529078 0.0075021707 -0.006192235
000100 12 6c 03 3b a5 35 07 ba 13 ba 0a 3c 9c 51 40 3c
       0.0020053429 -0.0005157835 0.008467215 0.011738207
000110 8f 80 83 3c b9 f0 f1 3b 3a 83 a9 bb ba 38 d3 3a
       0.016052512 0.0073834327 -0.005173114 0.0016114928
000120 8b 0f 5b bc 46 92 13 3c 5d bf fc bc 81 fd 9b bc
       -0.013370405 0.009007042 -0.030852968 -0.019041779
000130 40 39 b5 bc 22 bf 25 bb 69 61 96 3b 7c 71 83 3c
       -0.022122025 -0.0025290926 0.004589249 0.016045325
000140 fe de e1 bb 4b f8 ae 3c d0 d5 b2 3c 73 23 70 bc
       -0.006893038 0.02135863 0.02183047 -0.014656889
000150 50 92 01 3c 05 72 d5 bb 64 53 a9 ba 12 02 82 39
       0.007908419 -0.0065138363 -0.0012918529 0.00024797075
000160 25 1d 82 3a 8c 16 03 bd 22 49 ad bb cd 08 a2 3c
       0.0009926899 -0.032003924 -0.005288259 0.019779587
000170 eb e4 fb 3c e8 45 5f 3c 31 86 77 bc dd 88 53 bc
       0.030748805 0.013627507 -0.015107677 -0.012911049
000180 7d de 16 bb 41 b4 e6 bc 5c 6a e7 bb df 86 1c 3c
       -0.0023020797 -0.028162124 -0.0070622396 0.00955364
000190 e0 02 68 3c 3e 1f 06 bd b2 61 a1 3a 23 57 16 ba
       0.014160842 -0.03274464 0.0012312441 -0.000573503
0001a0 2f ee 96 bc 1d 63 da ba f4 30 b6 bc a3 61 0b 3c
       -0.018424122 -0.0016661618 -0.02224014 0.008507165
0001b0 30 66 a0 3c b4 ef 2f 3c 96 b3 e8 bc 13 f6 c6 3a
       0.019579977 0.010738302 -0.028405946 0.0015179537
0001c0 f4 0f 12 3d 3a 5a 45 bc 5f 95 07 3d 29 4e a9 3a
       0.035659745 -0.0120454375 0.033101436 0.001291697
0001d0 de be f8 bb 10 99 54 3b 05 e9 34 bc f3 cf 04 3c
       -0.0075911125 0.0032439865 -0.011041884 0.00810622
0001e0 cb 2c 81 3c d1 17 e1 3b 5a 02 d2 bb 51 01 a2 39
       0.01576843 0.006869294 -0.0064089717 0.0003090003
0001f0 c8 de ee bc 41 1c 2d bc 66 8a 13 bd 12 da 82 bc
       -0.029158965 -0.010565818 -0.03602066 -0.015973125
000200 d9 32 61 bc af 5a 23 bc f5 f7 8c 3b 3f 18 55 3c
       -0.013745033 -0.009970351 0.0043020197 0.013006269
000210 21 7a 61 bb 0d 02 0b 3c 4c 7f b6 3c 9e 69 87 3c
       -0.003440507 0.008484376 0.022277497 0.016529854
000220 07 e9 a5 3a 8d f1 85 3b 49 63 63 3d 73 4c 8f bb
       0.0012657949 0.004087633 0.055514608 -0.004373127
000230 43 c3 4a 3c cd 07 1a bd cf 58 a2 3a ab 75 51 3c
       0.012375656 -0.037605096 0.0012386086 0.012784402
000240 73 a4 62 3c 9f 89 51 3c 39 a8 9e 3c ab 03 53 bc
       0.013833153 0.012789159 0.019367324 -0.0128792925
000250 c6 9c a5 bc 51 99 1f bc db 53 ca bb 2c ce 8b bc
       -0.020216357 -0.009741143 -0.006174547 -0.017066084
000260 42 d3 67 bc 30 43 ab 3c f1 d8 d9 38 b4 78 50 bc
       -0.014149489 0.020906061 0.00010387775 -0.01272409
000270 17 1f 64 bc 04 25 05 3d 2e 73 9c bb 7a b6 d8 3a
       -0.013923428 0.032506004 -0.0047744727 0.0016533874
000280 79 aa 27 bc 47 f1 f5 ba 43 3d 01 3d 99 b1 29 3c
       -0.010233515 -0.0018763923 0.031552564 0.010357284
000290 56 ce 2f 3b a0 b8 39 3a bc 39 e0 bb 7f 54 71 3c
       0.0026825867 0.0007084701 -0.00684282 0.014729618
0002a0 5b 69 80 bb d5 50 28 bc 25 d1 6a bc 86 b2 25 3c
       -0.0039188094 -0.010273178 -0.0143320905 0.010113364
0002b0 bb 62 5c 3c a2 f7 b1 bc 63 18 28 3c 59 3c 9b bc
       0.013451274 -0.021724526 0.0102597205 -0.018949674
0002c0 02 7f bd bc 5a ed aa bb 6d 90 42 3c 9c 4f 81 3b
       -0.023131851 -0.005216283 0.011875254 0.0039462578
0002d0 58 d9 0a bd eb f2 5b bb e3 51 13 3c 8c ab 73 bc
       -0.03389868 -0.0033561538 0.008991691 -0.014872443
0002e0 4f f6 22 bc cb 96 43 3c a5 2b f9 bc 8a 06 7e 3c
       -0.00994642 0.011937807 -0.03041632 0.015504489
0002f0 4f 62 f9 bc e6 29 7a bc e1 33 d3 3c 69 e4 83 3b
       -0.030442385 -0.015268778 0.025781574 0.0040250313
000300 10 48 9d bb fa c6 91 3b e1 6a 09 3a 0e f0 69 3c
       -0.0047998503 0.0044487687 0.00052420615 0.014278425
000310 57 45 97 bb 17 ac a6 bb f5 d1 49 bc 0d de bf 3c
       -0.0046164203 -0.0050864327 -0.012318124 0.023421312
000320 17 18 b1 bb 25 b9 ee 3b 7e 82 59 bb 84 b0 24 3c
       -0.005404483 0.0072852545 -0.0033189352 0.01005185
000330 94 36 f1 3a 3a b3 97 ba d6 e1 4b 3c 82 50 99 bc
       0.0018403106 -0.00115738 0.01244398 -0.018715147
000340 23 a0 06 bc 57 94 13 3c 22 2c a2 3c 4f 89 95 bc
       -0.0082168905 0.009007535 0.019796435 -0.01825395
000350 06 ca 08 bc e3 88 27 3c ac f5 c8 bb 88 be 49 3c
       -0.008348947 0.010225507 -0.006132802 0.012313493
000360 05 c0 97 3b e7 5e 27 3a b8 67 68 3a 43 b9 8e bb
       0.004631045 0.0006384686 0.0008865553 -0.004355581
000370 d4 da 5a 3b 0e 15 42 bb 6e 52 9e bc 16 51 6e bc
       0.0033394592 -0.00296146 -0.019326415 -0.0145457
000380 f8 23 99 3c fd 50 5f bc 23 36 e2 bb 29 80 93 bc
       0.018693909 -0.013630149 -0.0069034263 -0.018005447
000390 dd df 4e 3c aa 30 24 bc 28 2c f0 3b 2f 57 2b 3b
       0.012626615 -0.010021368 0.0073294826 0.0026144495
0003a0 ac 9b c1 bb 13 01 8f 3b 14 cc de 3c e1 96 09 3c
       -0.00590845 0.0043641417 0.027196921 0.008397789
0003b0 20 7d 23 3d 44 25 1e 3b 96 d5 30 bc d0 66 5e ba
       0.03991425 0.0024131099 -0.01079311 -0.0008483948
0003c0 96 81 ca 3b b2 da b5 bb c2 e9 16 3b ff 19 e7 3c
       0.0061799986 -0.005549752 0.0023027514 0.028210638
0003d0 4d 44 c7 3b de 1d 0e bc e1 f6 17 3c b5 79 8b bb
       0.00608114 -0.008674113 0.009275169 -0.004256452
0003e0 bb a5 5e bc 4c ba 9c bc db 77 e3 bc 70 50 88 bc
       -0.013589318 -0.019131802 -0.027767112 -0.016639918
0003f0 91 34 8c bb 27 70 04 bb 1d 50 58 bc 8b 23 d9 bb
       -0.0042787273 -0.002020845 -0.013202694 -0.0066265515

action_model._continuous_distribution.mu.bias f4 [2]
000000 24 d4 36 bb d5 ef dc ba
       -0.0027897442 -0.0016856143

action_model._discrete_distribution.branches.0.weight f4 [1, 128]
000000 51 10 30 bc e3 f9 e1 3b c8 3e a2 36 79 c2 1b 3c
       -0.010746078 0.006896244 4.835285e-06 0.009506815
000010 7d 48 66 3c ca 02 ee bb cc 45 05 bc d9 05 02 bc
       0.0140553685 -0.007263516 -0.008134317 -0.0079359645
000020 d7 04 d1 3b 02 0a 6b ba c4 21 c3 bb e3 56 63 bc
       0.006378751 -0.000896603 -0.005954953 -0.013875696
000030 f5 0d b9 bb ef 20 29 bb f0 ae 16 3b cf a3 43 3a
       -0.0056474158 -0.0025806983 0.0022992454 0.0007463069
000040 f2 c4 7f 3b 07 5d ea 3b 4b a5 ed 3b e7 ae cf 3b
       0.00390273 0.007152203 0.0072523705 0.0063379887
000050 8b 3b 9e 3a 32 1b 62 bc f7 28 29 bb 5f 61 3b 38
       0.0012072189 -0.013800429 -0.002581177 4.467496e-05
000060 6b 4b 65 bb 73 7e 74 bb ca 4b ce 3b c3 9b 5f 3c
       -0.003498758 -0.0037306815 0.006295656 0.013647976
000070 7b 6d 18 bc f5 d0 c9 bb 57 de ba 3b bf 96 0b bc
       -0.009303446 -0.006158943 0.0057027745 -0.008519827
000080 3f e3 ba bb e3 5a a2 3b 9e 66 94 3b 32 35 76 bc
       -0.0057033594 0.004954682 0.0045288345 -0.015027331
000090 eb 09 04 bc 54 7f 96 3b a7 8a 03 3a 99 e4 32 bc
       -0.008059005 0.0045928154 0.0005017914 -0.01091876
0000a0 97 28 b6 bb 93 68 9e bb 55 b3 e3 bb ae bd 1a bc
       -0.005559038 -0.0048342436 -0.0069488683 -0.009444637
0000b0 98 68 50 bc 8a 6e a5 3b 6a 35 1e 39 47 10 c9 bb
       -0.01272025 0.0050485777 0.00015087952 -0.0061359736
0000c0 2d 50 a3 38 63 84 a9 3b 66 ac 96 bc 33 4e 96 bb
       7.7873796e-05 0.0051732524 -0.018392753 -0.004586959
0000d0 8b 7c 80 3c 27 2e 2d bc d8 2f 50 ba c0 c4 29 bc
       0.015684387 -0.010570086 -0.00079416996 -0.01036185
0000e0 22 c1 78 3b 4b 79 85 3c 2b 90 e2 b8 75 14 05 3a
       0.0037956913 0.016293189 -0.00010803373 0.00050765957
0000f0 c8 0e 1b 3c 68 2d 55 bc f0 72 d9 3b 4a a3 59 3b
       0.009463973 -0.013011314 0.006636016 0.00332089
000100 3f 6d 4b bb bf e2 9d bc cf ac 5a 3b 54 cd 92 3b
       -0.0031040458 -0.01927316 0.0033367162 0.0044800434
000110 23 09 7e 3b 0f 9a 66 3c 66 2f 26 bc 8d 69 92 3b
       0.003876277 0.014074816 -0.010143137 0.004468149
000120 5b 0f 14 3c da 64 63 bc 5c 7c 27 3c b3 d3 35 3c
       0.009036864 -0.013879025 0.010222521 0.011097836
000130 06 15 c6 3b 37 3c 2f 3c 24 71 2c bc af b5 93 3c
       0.0060449867 0.010695509 -0.010525022 0.01803097
000140 ef 0e f8 ba a0 74 d6 bb 32 cc 25 bc d6 f2 ba bb
       -0.0018925349 -0.0065446645 -0.010119485 -0.005705218
000150 0d 40 71 bc f0 a0 99 3b 6e 0a 30 bc ba b1 7a 3c
       -0.014724744 0.0046883747 -0.010744674 0.015301162
000160 25 17 41 bc 2f 04 7b bb ef 66 9d bc de 00 bf ba
       -0.011785303 -0.0038302054 -0.019214122 -0.0014572402
000170 5a ab e7 3b 78 11 d9 3b 41 11 86 3b ad b7 72 bb
       0.0070699872 0.006624397 0.0040914123 -0.0037035749
000180 e7 15 35 bc 9c e9 04 3c f9 02 b8 b9 75 20 11 3c
       -0.011052585 0.008112337 -0.0003509743 0.008857836
000190 13 6f 2c bc a0 1e 69 bc ad a9 73 3c 5f c7 bb 3b
       -0.010524529 -0.014228493 0.014871997 0.005730554
0001a0 f7 bf b5 3c 9a 52 f5 3b 52 61 d2 3b a1 4f 26 bc
       0.022186263 0.0074866535 0.006420293 -0.010150821
0001b0 09 ba 16 bb 4c 85 13 bc 1f 3d e3 bb a5 9e 8e 3c
       -0.002299907 -0.009003948 -0.0069347764 0.017409632
0001c0 97 06 28 bc 69 82 81 3c 31 9b 11 3c a7 d7 7e 3b
       -0.010255477 0.015809255 0.008887098 0.0038885863
0001d0 9c bf 2d ba 72 17 42 3c b0 a8 e1 3b 3b 85 c6 ba
       -0.00066279783 0.01184641 0.006886564 -0.0015145907
0001e0 d7 09 af bb 1d 4d 7a 3b 05 cd 38 bb 63 bb 17 39
       -0.005341749 0.0038192936 -0.0028198373 0.00014470289
0001f0 29 e6 33 bc de e0 27 3b e2 ef 58 3a e5 2e 89 ba
       -0.010980167 0.002561621 0.00082754914 -0.0010466246
