Assets/results/VIkramRover2/VikramRover/checkpoint.pt (torch, 858283 bytes, 51 tensors)

network_body._body_endoder.seq_layers.0.weight f4 [128, 10]
000000 e0 37 97 be e3 6e 49 3e 96 39 92 be 6a fb a7 3c
       -0.29534817 0.19671206 -0.2855956 0.020505626
000010 8c 4d 0e 3d 54 d2 f4 bd 49 2f 41 3c 11 5e 51 3e
       0.034741923 -0.119541794 0.011791059 0.2044604
000020 bc 5d de bd 24 34 e8 be bd 8c 25 3f 95 45 b5 3e
       -0.10857722 -0.4535228 0.64667875 0.3540465
000030 17 f4 b1 3e 04 7a 71 bd 17 9a 35 3f 1d 4c 03 3f
       0.34756538 -0.058954254 0.7093825 0.51288015
000040 b0 19 6b 3e a8 b0 a2 3e f0 dc 86 3e e7 e6 a7 3e
       0.22959018 0.31775403 0.26340437 0.32793352
000050 75 52 a7 be 6f 83 0e 3f 9b 3c 06 3f 60 74 04 be
       -0.32680097 0.556693 0.52436227 -0.12935019
000060 d4 3d a9 3e 68 35 c2 be 37 c2 83 3e 06 a3 4d be
       0.33054984 -0.3793137 0.25734112 -0.2008172
000070 8e 93 d7 3e 11 c4 ba 3d 74 0e 16 bc 00 25 88 bd
       0.42104763 0.09119428 -0.009158719 -0.06647682
000080 af c5 3c bc 79 c7 48 3e ab b2 10 bf d3 0e bc 3c
       -0.011521741 0.19607343 -0.56522626 0.022956287
000090 a3 47 88 3e 59 d8 d1 3e 8f 83 d8 be e5 9d 83 3e
       0.26617154 0.40985373 -0.4228787 0.257064
0000a0 2f cd 7b bd 7e 9d ff be 19 34 13 3f 40 34 5c 3e
       -0.061474975 -0.49924845 0.5750137 0.21504307
0000b0 3e f7 26 3e 4b 5f ba bd 39 8b a6 be 3e 4c 94 bb
       0.16305253 -0.09100207 -0.32528093 -0.0045256903
0000c0 0a 0c 91 bf 3b db 01 3e 85 c6 de be 21 e6 a4 3e
       -1.1331799 0.12681286 -0.43510833 0.32206824
0000d0 ab f4 5b be ef 7b 91 3c 16 78 e0 3b 16 16 27 3e
       -0.21480052 0.017759291 0.006850253 0.16317019
0000e0 e5 10 2b bf 7e 8e b0 3e b1 ce a3 3c ad 6b ee bd
       -0.66822654 0.34483713 0.01999602 -0.11641631
0000f0 45 e2 9f bd db fe 86 be cf be fd bd 21 19 d6 bd
       -0.07806829 -0.26366314 -0.123899095 -0.10454012
000100 d8 93 60 3e 06 97 f7 3d 77 b4 2c 3e 07 50 d2 be
       0.21931398 0.12089352 0.16865717 -0.4107668
000110 af e2 69 3e 48 66 e5 be e7 8b 00 3f 98 8f 05 bf
       0.22840379 -0.44804597 0.50213474 -0.5217223
000120 e4 b5 77 3e d1 96 4a 3e 67 12 ad bc 50 91 11 bf
       0.2419048 0.19784094 -0.021126939 -0.56862354
000130 90 a5 84 bd b9 9e bb 3d df d9 4e 3c a1 5b c4 3e
       -0.06476891 0.09161133 0.012625187 0.38351157
000140 0d 81 c3 3e 18 ca 05 3e 24 a2 66 be 62 b8 e5 be
       0.38184395 0.13065374 -0.22522789 -0.44867235
000150 36 76 8d 3c 50 15 00 be 7f d3 a7 3e 34 1a 5f 3e
       0.017268281 -0.1250813 0.32778546 0.2178734
000160 ba de 0f 3f 72 1e c0 3c 22 26 b4 be 9e 8f df be
       0.5619923 0.023452017 -0.35185343 -0.4366426
000170 c0 b1 2a bd a1 ec 59 be fa 48 f6 bd a3 0d da 3d
       -0.04167342 -0.21281673 -0.12025638 0.10647132
000180 b6 95 03 bf 79 bc 9d 3e bc b7 37 bd 3f cb 4f 3e
       -0.51400316 0.30807856 -0.044852957 0.20292376
000190 70 91 73 be 12 95 ab be fd 10 fd bc fe 0f 12 3e
       -0.23785949 -0.3351217 -0.03089189 0.14263913
0001a0 eb 74 88 be 7f aa 6f 3d 79 67 01 3d a6 84 c9 3d
       -0.266517 0.058512207 0.03159282 0.09839754
0001b0 66 77 87 3e a8 8f 8f bd c2 58 e1 3d 30 a0 f8 bd
       0.2645828 -0.07009822 0.11003257 -0.12139928
0001c0 31 43 2d 3e 5a 23 14 3f 2e 19 2e 3d cc 67 85 be
       0.16920163 0.5786644 0.042504482 -0.26055753
0001d0 f3 51 92 3e 73 54 4c be cd 99 99 3e 77 44 ba 3e
       0.28578147 -0.1995409 0.30000153 0.3638036
0001e0 44 fc 46 bf de d0 d0 be 03 66 02 bf f4 de b3 bd
       -0.77728677 -0.40784353 -0.5093691 -0.08782759
0001f0 31 4a a9 be 51 d9 24 bc 13 e7 2a be b6 f1 2d be
       -0.33064416 -0.010061578 -0.1668971 -0.16986737
000200 fe 85 ca 3d 98 91 86 bc e8 92 d4 3e ac df c6 be
       0.09888838 -0.016426846 0.4151833 -0.38842523
000210 25 1f b6 3b 2d df 12 bf 87 ec 92 be a4 b1 fd be
       0.005557912 -0.5737179 -0.2869608 -0.49549592
000220 0d 63 b1 be c5 3c fd be 3f 19 e8 3e 4e 44 6a be
       -0.34645882 -0.49460426 0.4533176 -0.22877619
000230 c4 f8 49 bf fc 5e 12 bf 96 00 59 3e af 7c c6 3d
       -0.7889521 -0.57176185 0.2119163 0.0969175
000240 76 d5 09 bf b3 1b 88 b9 be 97 1b be 3d 91 42 bf
       -0.5384134 -0.0002596058 -0.15194604 -0.76002866
000250 ab 4f ce 3d 07 15 3c be 27 40 55 be fb 6e 56 be
       0.10073789 -0.18367396 -0.20825253 -0.20940773
000260 11 5c bc be 9c 0a 42 3e 76 b7 53 3e 45 c0 19 bf
       -0.3678899 0.1894936 0.20675454 -0.60059005
000270 06 eb b8 3d a8 8b 87 3d e4 a4 15 be 5b 08 a9 3e
       0.09029202 0.06618434 -0.14613682 0.33014187
000280 67 1c c7 be 95 42 a0 be 2e bc df be 22 b5 6b 3e
       -0.38888857 -0.31300798 -0.43698257 0.23018315
000290 66 d9 55 be 2f 3b 67 be 8a 99 e3 be e4 fc 64 bd
       -0.20883712 -0.2258117 -0.44453079 -0.055905238
0002a0 bb 65 dd bd dc 2d 96 3d 6f 1e 0a 3d 50 4f e0 bc
       -0.10810419 0.07332966 0.03372043 -0.02738157
0002b0 40 26 ae 3e 72 2c 2f 3e 09 5b c5 bc b0 ad 0a be
       0.34013557 0.17106798 -0.02409126 -0.13542819
0002c0 70 d7 71 3e 3d f1 46 3e 95 ad 7d 3e 4b 2e 9c be
       0.23617339 0.19427963 0.24773248 -0.3050407
0002d0 fe ab 1b 3f d1 5b 1b bf b9 1a f9 be 46 e1 1c bf
       0.60809314 -0.60686976 -0.486532 -0.6128124
0002e0 9f 45 82 be 23 11 6f 3d 63 66 9d 3e 68 23 ae 3d
       -0.25443742 0.058365952 0.30742177 0.08502847
0002f0 d7 05 89 3e 82 60 c8 3b 93 77 2c 3e 25 fc a3 3d
       0.26762268 0.0061150203 0.16842489 0.08007077
000300 f4 e3 1c 3f 48 9d 79 3e 88 d8 ef bd 5a 4e db bd
       0.6128533 0.24376404 -0.11711222 -0.10708304
000310 a3 05 0e be d1 ff b5 be 25 db bb 3d eb 9a 83 bd
       -0.13869338 -0.35546735 0.09172658 -0.06426033
000320 d8 16 fe be aa 7c 8d be c3 7a ab 3e 98 e0 c4 3e
       -0.49626803 -0.27634174 0.33492097 0.384526
000330 86 55 6b 3e fc 3f a6 3e 2b 43 95 3e 87 1f 20 3e
       0.22981843 0.3247069 0.29152808 0.15637027
000340 c6 94 47 bd 06 1e 93 3e aa aa 13 3e 81 83 45 be
       -0.048725866 0.28733844 0.14420572 -0.19288446
000350 ca e4 5c be 87 16 11 bd 0a 06 56 bf ed b6 b6 be
       -0.21571651 -0.035421874 -0.83602965 -0.35686436
000360 ab 5e 31 bf af d3 bd bd 3d f1 9a bd b2 22 1e 3d
       -0.69285077 -0.09268891 -0.07565544 0.038607307
000370 32 ce 7f be 71 db cf bd 7b d4 c1 be 2e 08 95 bd
       -0.24981001 -0.10149277 -0.37857422 -0.07276951
000380 bc 0b b0 3e 62 10 71 bb 09 45 86 3e 46 f1 fd 3b
       0.34383953 -0.0036783447 0.26224545 0.0077497093
000390 ce f8 23 be af 9b 39 3e c4 38 a0 3d 7f 06 8c be
       -0.1601288 0.18125795 0.07823327 -0.27348706
0003a0 e3 e6 2b 3e a6 cc b9 bc 05 97 a6 3e 15 0b 18 bf
       0.16787295 -0.022680592 0.32537094 -0.5939191
0003b0 5d cc b9 be b1 9d 04 be fd a3 fb 3d 66 e2 a8 bd
       -0.3628873 -0.1295078 0.12287138 -0.08246307
0003c0 60 e5 57 be ae db cf 3d d7 eb 1e 3f 1f 0a 34 be
       -0.21083593 0.101493225 0.62078613 -0.17581986
0003d0 df 38 25 3e df 07 b9 3d c8 33 26 3e 63 29 70 3d
       0.16134976 0.090347044 0.1623069 0.05863322
0003e0 5d 3f 6a 3e 51 af c9 be f8 15 6e be 90 b2 95 3c
       0.22875734 -0.39391568 -0.23250568 0.018273622
0003f0 df b2 0f 3f b2 a2 93 be 18 8f da 3c 21 c1 ea 3e
       0.5613231 -0.28835064 0.02667956 0.4585047

network_body._body_endoder.seq_layers.0.bias f4 [128]
000000 fc f9 b7 0f 9b 03 bd bb b6 be a6 bb 80 e0 15 3c
       1.8141484e-29 -0.005768252 -0.0050886525 0.009147763
000010 2b 68 02 bc 6f fa d6 26 6f 3d 9b b8 89 5f c0 bb
       -0.007959406 1.4917113e-15 -7.402419e-05 -0.0058707637
000020 8e c7 41 3c 4b a7 ca 85 2b 08 0d b8 5a 7e 58 ba
       0.011827363 -1.9057442e-35 -3.3624627e-05 -0.0008258574
000030 00 00 00 00 ba 17 e7 bb 00 00 00 00 fc 95 65 a0
       0.0 -0.007052389 0.0 -1.944668e-19
000040 86 de f5 05 7c 27 0d bc ca db 8b 3b 71 70 41 3c
       2.3121431e-35 -0.008615371 0.0042681443 0.011806593
000050 c3 48 8e bc aa 50 3c 3c f5 02 15 87 0e 68 c5 bb
       -0.01736868 0.011493841 -1.1210383e-34 -0.006024367
000060 7a 75 b6 ba 3f 5a 5a bc 01 09 8c bc dc ab 26 3b
       -0.0013920509 -0.01332718 -0.017094137 0.0025432026
000070 d7 ed 8f bc 95 b8 fa 3b 75 30 b9 3b e9 03 de 09
       -0.017569466 0.0076513984 0.0056515285 5.3448233e-33
000080 b2 f3 df 8c 99 96 5b 9c a3 da 86 ba 08 fc 3d bc
       -3.450526e-31 -7.2655665e-22 -0.0010288547 -0.011595733
000090 9a 74 52 bc 13 b9 e8 bb a0 39 c3 3c 37 fe 2a 1d
       -0.012845183 -0.0071021407 0.023831189 2.2630739e-21
0000a0 00 00 00 00 af d8 49 24 7c ec 32 bc fb ca 8b 3a
       0.0 4.3768465e-17 -0.01092064 0.0010665351
0000b0 50 3b 93 b0 53 3f 84 3b 1e 73 67 91 7c 9b 3f bc
       -1.0712515e-09 0.004035869 -1.825816e-28 -0.011694785
0000c0 01 ae 31 bc 69 dd e3 bb 1b 50 a0 3b 71 a6 9a bc
       -0.010844708 -0.0069538844 0.004892362 -0.018878194
0000d0 c1 00 c7 bb 00 00 00 00 8d f2 5f 3b 8c a1 b4 bc
       -0.006073088 0.0 0.003417167 -0.022049688
0000e0 f7 03 01 bb 78 10 a6 bc a6 38 f3 bb c1 5e 59 bb
       -0.00196862 -0.020271525 -0.0074225245 -0.003316805
0000f0 64 f5 ad bb 6a 43 ec 34 76 b6 1c bc 60 30 9c bc
       -0.005308794 4.4007476e-07 -0.009564986 -0.019066036
000100 b0 f4 c7 3a a3 df fa bb 43 55 a6 bb a4 4f 62 07
       0.0015255418 -0.007656054 -0.005076082 1.7025755e-34
000110 cd c4 ac af 9a 4f 14 bc 40 27 08 bc b5 39 0c bb
       -3.1426453e-10 -0.009052182 -0.008310139 -0.00213967
000120 e5 f0 0c bc 53 b7 93 bc 00 00 00 00 e7 63 0b 3a
       -0.008602356 -0.018031752 0.0 0.0005317316
000130 10 a7 0b bc 00 00 00 00 1c 9f a4 bc fb 2a 12 bc
       -0.0085237175 0.0 -0.0200954 -0.00892138
000140 b9 d9 04 3c ac 91 c3 3a bd c0 48 3b 7e 34 b8 ba
       0.00810855 0.0014920733 0.003063246 -0.001405373
000150 ef ea a0 26 40 86 56 12 00 00 00 00 40 36 75 bb
       1.1165909e-15 6.769197e-28 0.0 -0.0037416369
000160 ed 1f dc bb 00 00 00 00 09 08 1e bc 9e 6b 06 2c
       -0.006717673 0.0 -0.00964547 1.9102285e-12
000170 61 a7 5e bb 81 13 13 35 d3 54 8d bb 81 f9 86 3c
       -0.0033974277 5.479015e-07 -0.0043130904 0.016476395
000180 63 db 6f 3c f5 0a 76 bc f6 4c 0a 3c 00 00 00 00
       0.014639708 -0.015017261 0.0084412005 0.0
000190 1f e0 ac 3a 1a 3c 65 3c 6f a4 8d 3d 0b b0 82 12
       0.0013189352 0.01399138 0.06916129 8.247551e-28
0001a0 a4 0e 79 3b e8 13 3c b9 0e f2 59 1d cd 22 dc bb
       0.0038003111 -0.00017936493 2.884485e-21 -0.0067180158
0001b0 b7 40 9f b5 da 3e 3b b0 4f 58 81 bc 58 0a b1 3c
       -1.1865258e-06 -6.811952e-10 -0.01578918 0.021611378
0001c0 a6 94 08 3c 5d f6 f7 bb 0b 74 0c bc 00 00 00 00
       0.008336222 -0.0075672106 -0.008572589 0.0
0001d0 32 46 5c bb 11 2e 13 bc e7 76 06 39 c5 ea 08 bc
       -0.0033611176 -0.008983151 0.0001282353 -0.008356755
0001e0 27 44 cc 3b 62 a6 65 3b 49 1c dd bb 51 6c 7e 3c
       0.0062337103 0.00350418 -0.0067477566 0.015528754
0001f0 bf 7b 9e bc e0 d2 d3 a3 90 bd 18 ba 6f c9 65 ba
       -0.019346116 -2.2965975e-17 -0.0005826587 -0.00087656727

network_body._body_endoder.seq_layers.2.weight f4 [128, 128]
000000 76 ac ae 3d 83 86 d1 3d 39 bd fd 3c a5 d9 e4 bc
       0.08528988 0.10230734 0.030974017 -0.027935812
000010 fd 35 38 3d 88 5b 9d bd ec 49 0a 3d e4 d0 f5 3d
       0.044973362 -0.07683474 0.033761904 0.12002733
000020 7e 20 91 3d a1 2f a6 3d c4 c2 ce bd 03 10 51 bd
       0.070862755 0.08114553 -0.10095742 -0.05104066
000030 75 32 5a 3d 36 04 03 bd 7a 3a 13 3c 55 59 9d 3c
       0.053270776 -0.031986438 0.00898611 0.019207636
000040 79 7e c7 bd 6c 43 cc bd d0 f6 98 3d 67 43 55 3d
       -0.097409196 -0.09973797 0.07468951 0.052066233
000050 b9 c0 20 3c da 40 d9 bc 5a 43 59 bd fd 0d 48 3d
       0.009811574 -0.026520181 -0.053042747 0.048841465
000060 2c e4 1d 3e 49 2f 77 bd 20 10 1f 3d f3 d6 82 bc
       0.15419072 -0.06034783 0.038833737 -0.015971636
000070 3e 6d 9b bd 6a 2a 83 3d 56 aa 6b 3e 5a bb 62 bd
       -0.07589196 0.06404574 0.23014197 -0.055354454
000080 a7 54 2e 3d 2b 8f c8 3c ec 70 20 be d5 81 50 bd
       0.0425612 0.02448233 -0.15668076 -0.050905067
000090 93 e4 c5 3c cd 24 07 3d 3f 26 1e be 00 e9 8b 3d
       0.024156844 0.03299408 -0.15444277 0.068315506
0000a0 1b 31 f9 3d d0 20 2a 3e d3 6a 41 3e e1 03 e9 3c
       0.12167569 0.1661408 0.18888406 0.028444232
0000b0 85 49 f8 3d 39 17 c7 bd 2b 94 f5 3b cc 86 e2 bb
       0.12123398 -0.09721226 0.0074944696 -0.0069130417
0000c0 02 22 dc bd 46 09 a1 3d 68 11 03 bd dd 74 5f bd
       -0.10748674 0.07863097 -0.03199902 -0.05455481
0000d0 88 96 ef 3d d0 4d 13 3e ad d7 3a bd 7d 38 62 3d
       0.116986334 0.14385152 -0.04561584 0.055229653
0000e0 e5 46 d8 3d 73 3f 23 bd 5f 46 82 be eb 93 60 bc
       0.10560397 -0.03985543 -0.25444314 -0.013707141
0000f0 6e 6a 62 3d d3 e0 68 3e 99 73 25 3d 0a 34 38 3d
       0.05527728 0.22742014 0.040393446 0.044971503
000100 72 67 6a 3d 20 3a bc 3d c6 a0 ef 3c 9b 58 05 3e
       0.05722756 0.09190774 0.029251467 0.13022082
000110 ac de 9a 3d 33 58 a3 3d a9 00 b4 bd 58 c0 10 bd
       0.075620025 0.07975807 -0.087891884 -0.035339683
000120 d4 4f e5 3d 8a 99 c6 3c f9 89 95 b8 d7 99 98 3d
       0.11196867 0.024243135 -7.130573e-05 0.074512176
000130 10 1e 38 3d f6 d0 b8 3b 1b 98 9e bd b2 ee 01 3e
       0.044950545 0.0056401445 -0.077438556 0.12688711
000140 6d 0b 04 39 56 d8 8b bd 72 7e 86 3d c2 96 29 3d
       0.00012592757 -0.06828372 0.06567086 0.04140354
000150 e3 dc 98 bc 54 49 86 3d 1b a7 ad 3d 93 45 7b 3c
       -0.018660014 0.06556955 0.084791385 0.015336412
000160 f9 ee 25 bd 2d d9 c6 bc b1 a8 a2 ba 74 dc ac 3d
       -0.040511105 -0.02427348 -0.0012409893 0.084404856
000170 ac 27 1e bc d4 4d d9 bd b2 d2 d3 bd 1a 54 bc 3d
       -0.009653013 -0.10610548 -0.10342921 0.091957286
000180 d9 88 d5 3d f5 87 b4 3b 51 03 f7 3d f2 18 c0 bb
       0.10426492 0.0055093714 0.120611794 -0.0058623487
000190 07 f9 b9 3d 58 56 12 be 07 0d b1 3a 8a 4d 8c bd
       0.09080701 -0.1429075 0.0013507911 -0.06850727
0001a0 b1 33 da bd f1 66 4d be 13 e8 61 3a 7f 32 41 3d
       -0.106543906 -0.200588 0.00086176506 0.047167297
0001b0 a4 09 b1 3c a1 e3 13 bd 48 ec 6e 3c 07 ea ba bd
       0.021611042 -0.036105756 0.014582701 -0.091266684
0001c0 fb e4 91 bd 1a 63 5e 3d 00 77 ae 3b dc 57 07 bd
       -0.07123753 0.05429373 0.0053242445 -0.033042774
0001d0 f6 b5 27 3d 8c 8b df 3c 42 b1 ff bb 31 8e 3e be
       0.040945016 0.02728822 -0.007803113 -0.18608929
0001e0 70 e6 2b be b2 12 c4 bc 4b 1b 6a 3b 07 07 36 3d
       -0.16787124 -0.023934696 0.0035721834 0.044440296
0001f0 d1 6a 03 be 68 99 54 3c 6a e4 6b bd ae c4 0e 3c
       -0.12833716 0.012976028 -0.05759088 0.008713884
000200 6f 05 52 3d 87 a8 87 bd 24 fa 02 3c 33 a8 20 bb
       0.051274713 -0.06623941 0.0079942085 -0.0024514317
000210 d5 c2 49 3d dc 8f 51 bd 42 b5 5a 3c 1f ac 0e be
       0.049258072 -0.051162586 0.013348879 -0.13932846
000220 14 c9 27 3d 9d b2 b2 bd 6b 56 e2 3d f2 32 2c 3d
       0.040963247 -0.08725474 0.11051639 0.042040773
000230 09 d2 2e 3d 28 ce 8c bd bf 5d bb bd 4f 4c 9c 3d
       0.042680774 -0.06875259 -0.0914874 0.07631742
000240 81 0e 89 3c 10 7d c8 bd ac ed 12 3e a7 9c 18 3e
       0.016730549 -0.09789479 0.14348477 0.14903508
000250 9a b3 a7 3c 1b b6 aa 3d ec 9f f9 bd 76 dc 87 bd
       0.020471383 0.08335515 -0.12188706 -0.066338465
000260 98 5f 6b bd eb bb 86 3c 29 99 c8 3c d6 13 bb bd
       -0.057464212 0.016447028 0.024487095 -0.09134643
000270 10 54 ae 3d ff e3 8f bd 2e ef a7 bd 2e 4f c6 3d
       0.085121274 -0.07025909 -0.08199917 0.09683071
000280 f1 8e 0e be 70 23 84 3d 9b f0 7a 3d be 55 2c b9
       -0.13921715 0.06452072 0.061264616 -0.0001643514
000290 2f e5 af bd 28 7c 59 bd 11 cb c5 3c 7d 3d a1 bd
       -0.08588635 -0.05309692 0.024144681 -0.07873056
0002a0 04 55 05 3e bd 7f ca bd 99 f2 3d 3d e8 d1 c4 3d
       0.13020712 -0.098876454 0.046373937 0.09610349
0002b0 21 50 9b 3d 85 59 4a 3e 1f bd 13 3c f0 41 83 bb
       0.07583643 0.19760711 0.009017258 -0.004005663
0002c0 bd 88 24 3d 6a aa 14 3e 1f bf ee 3c cc b7 8a 3c
       0.040169466 0.14518133 0.029143868 0.016933344
0002d0 5b df 28 b9 f2 85 dc bc fe bf 38 bd 9f 8d 98 3d
       -0.00016104935 -0.026919339 -0.045104973 0.07448887
0002e0 73 e9 86 bd 0c 37 df 3d b4 1f 34 bd 6f 61 cb 3d
       -0.06587496 0.10899171 -0.043975547 0.09930693
0002f0 65 82 65 3d 18 3b 20 3c 7c c6 a6 3d 2d 38 86 bd
       0.056032557 0.009779714 0.08143327 -0.065536834
000300 69 49 a0 bd 46 c5 3d bc 56 7f b3 3c c4 1f 0d be
       -0.07826502 -0.011582678 0.021911304 -0.13781649
000310 86 14 f9 bc bc 50 89 3d cc a8 e6 3c e4 65 3d 3e
       -0.030405294 0.06704852 0.02815666 0.184959
000320 dd 3c 09 be f8 95 c4 3d 59 b7 30 be 25 e8 76 bd
       -0.13402124 0.09598917 -0.17257442 -0.060279984
000330 43 c7 0f 3e a8 b7 aa ba 3b 09 58 3c 97 1a fa 3d
       0.14040856 -0.0013024705 0.013185794 0.12212103
000340 18 8f 4e 3e d1 27 ff bc 76 5d 05 3d 44 1f 61 bc
       0.20171773 -0.031146916 0.032559834 -0.013740364
000350 62 37 af bd 82 b8 1f 3c e7 fc ab bc 81 7f 6a 3b
       -0.08555485 0.00974858 -0.020994617 0.0035781565
000360 85 a3 51 bd 3d 1f d8 bc 44 7a 44 bd a6 f5 b7 3c
       -0.051181335 -0.026382083 -0.047968164 0.022456001
000370 85 fd af bd 53 ec e4 3c 35 8a af 3d c2 ec a9 3c
       -0.08593277 0.02794472 0.08571283 0.020742778
000380 a8 1c a8 3c 73 d0 7b bd c7 49 2c bc 9d 0f d3 bd
       0.020521477 -0.06147809 -0.010515637 -0.10305712
000390 09 b8 95 bd c6 66 7a 3d 48 a3 e4 3c 9a 72 8d 3d
       -0.073104925 0.06113317 0.02790989 0.06906624
0003a0 d1 a3 56 3d e2 0a 74 3d 9c 96 87 bd ef df 4e bd
       0.05240232 0.05958069 -0.06620523 -0.05050653
0003b0 ec fa cc bc 8b 45 1f bd 15 16 ea 3d 06 3c 58 3d
       -0.025021993 -0.03888468 0.11429993 0.052791618
0003c0 71 0b f6 3d 3f 06 7a 3c 1f c4 59 3d a2 f1 37 3c
       0.12013901 0.015260278 0.05316555 0.011227043
0003d0 89 0d 07 3d 09 21 50 3e 26 7a 97 3c 7c 8b c0 bd
       0.032971893 0.20325102 0.018490862 -0.094016045
0003e0 dd c7 ba 3c 9f 8b 74 3d ce 5d 45 bd a6 7a a5 bd
       0.02280038 0.059703466 -0.048185162 -0.08080034
0003f0 31 da f3 3d a8 ac df 3d 74 99 6f 3c 01 44 bd bd
       0.11906851 0.109216034 0.014623988 -0.09241486

network_body._body_endoder.seq_layers.2.bias f4 [128]
000000 33 0c 58 3a b6 33 03 3b 8f 8a a3 bb 71 04 cb bb
       0.0008241564 0.0020019836 -0.0049908827 -0.006195598
000010 8b 45 ab bb 33 ed e7 b3 b9 b6 2f a2 a3 06 34 bc
       -0.005226796 -1.0799922e-07 -2.3813655e-18 -0.01098791
000020 28 82 0f bc 7e ad 1a bc c7 a4 78 3b 85 65 30 ba
       -0.008759059 -0.009440778 0.0037940012 -0.0006728995
000030 10 cd 34 bc 34 01 be 3b b1 b3 28 bc 51 05 ba bb
       -0.011035219 0.0057984833 -0.010296748 -0.0056769033
000040 6f e6 73 b9 77 48 8b bc b8 1f 02 b9 3f f1 a2 ba
       -0.00023260129 -0.017002327 -0.00012409582 -0.0012431516
000050 b4 19 a4 bb 86 fe a9 bb 4f b7 8b 3b a5 63 4a bb
       -0.005007947 -0.0051878123 0.0042637954 -0.0030882147
000060 8c 79 da 39 07 4a d6 bb 76 e5 c1 bb 85 0b 62 bc
       0.0004167076 -0.0065395865 -0.0059172465 -0.013796692
000070 be 7c 42 bb 3b 11 26 bb 26 79 8d 3b ef ff 9e 3b
       -0.0029676403 -0.002533986 0.0043174205 0.004852287
000080 7c 0e 26 bc 0a 83 4f bc 27 66 c4 3a a4 13 f0 3a
       -0.010135289 -0.0126655195 0.0014984057 0.00183164
000090 3f 75 24 bb 3c c1 24 3c c7 8c 8c 3b df 41 60 ba
       -0.0025094298 0.010055836 0.004289243 -0.00085547374
0000a0 9e 91 bd bb 3b 5a 1e 36 c3 5f f3 bb 61 b5 af ba
       -0.005785181 2.3596356e-06 -0.007427187 -0.0013405496
0000b0 94 a6 3c bc 17 ba 5e bb db 17 6d bb a3 4a 9a 39
       -0.011514325 -0.003398543 -0.003617755 0.00029428778
0000c0 90 3c 28 bb 83 b3 b4 3b 2d 27 03 1b 02 6d 06 3b
       -0.0025670864 0.0055145635 1.0848724e-22 0.002051175
0000d0 a7 c0 20 ab 50 dc 4b 3b 8f 10 36 bb c4 02 80 bb
       -5.711078e-13 0.0031106658 -0.0027780866 -0.0039065797
0000e0 ad 6f 00 0d 52 5b 51 bc 48 3f ea bb 0a 05 47 3a
       3.957747e-31 -0.01277812 -0.007148657 0.00075919984
0000f0 bd f3 41 97 ab 2c c1 b8 f6 6e 10 bb 9b e0 df bb
       -6.2669304e-25 -9.211277e-05 -0.0022038794 -0.006832195
000100 0b ad fd ba b9 c9 b3 ba 75 67 0a bc 54 ba 10 2e
       -0.0019353939 -0.0013716734 -0.008447518 3.2907302e-11
000110 7d a1 e1 bb a2 b0 f1 b6 c7 91 d2 bb 0e 0e 92 3a
       -0.006885706 -7.2029225e-06 -0.0064260694 0.0011143105
000120 49 e7 ef 2d 80 06 9b b8 9b ed 4f bc 98 3a 52 3b
       2.7273865e-11 -7.392187e-05 -0.012690927 0.0032078382
000130 42 25 9a 3a f5 fa 89 bb 6b b1 79 3a 3c 8b b3 bb
       0.0011760371 -0.0042108246 0.00095250335 -0.0054792445
000140 1a f4 07 3b 93 87 c4 b9 fc a0 49 bb ef f3 a0 bb
       0.002074486 -0.00037485044 -0.003076612 -0.0049118917
000150 cf 87 e0 bb 38 d8 08 3b 0a 7c a0 bb d7 7d df b8
       -0.006852127 0.002088083 -0.004897599 -0.00010656908
000160 13 e5 cb bb 8b c9 32 b8 71 0b 82 3a 76 dd d0 2b
       -0.006222376 -4.262621e-05 0.0009921623 1.4840757e-12
000170 42 7a e4 ba 74 3c c3 bb 36 99 f2 bb 5b 60 ae bb
       -0.0017431455 -0.0059581343 -0.007403518 -0.005321545
000180 cf 62 9c bb 2b d1 da 30 2e 7c 79 bb 7b 72 b9 bb
       -0.004772521 1.5921037e-09 -0.0038068402 -0.005659399
000190 b7 2a c3 a9 88 08 b4 3a 14 5c 98 96 ce e5 0b b4
       -8.6671494e-14 0.0013735453 -2.4615034e-25 -1.3028986e-07
0001a0 a8 23 54 32 93 03 e2 bb 07 e5 ef 3a ff f3 08 bc
       1.2348131e-08 -0.0068973987 0.0018302508 -0.008358954
0001b0 67 78 89 b7 00 d8 99 3a 3d b2 18 2e 8a 98 63 bc
       -1.638774e-05 0.0011737347 3.4719106e-11 -0.013891349
0001c0 25 a5 c2 8f 28 a7 0a bc 99 2f 19 bb 58 59 4e a5
       -1.9193488e-29 -0.008462705 -0.0023374318 -1.7897923e-16
0001d0 a4 22 57 07 1e 89 45 9a c2 f3 12 bb 99 50 5d a9
       1.6184982e-34 -4.0849408e-23 -0.0022423123 -4.9141765e-14
0001e0 04 aa 03 bc 8a 7a b8 ba ee 2b 14 99 13 83 28 34
       -0.00803614 -0.0014074605 -7.660292e-24 1.5693904e-07
0001f0 5c 6b 35 bb 51 77 74 ba 00 00 00 00 3d f9 0c bc
       -0.00276824 -0.0009325641 0.0 -0.008604345

network_body._body_endoder.seq_layers.4.weight f4 [128, 128]
000000 22 a2 e6 3d 9b df ae 3d e3 b2 b5 bd 53 86 8c 3d
       0.11261393 0.08538743 -0.088720106 0.06861558
000010 b5 a1 55 3e 20 14 84 3d d1 0b 38 be 72 21 f1 3c
       0.20862468 0.06449151 -0.17973258 0.029434893
000020 e5 ce 47 bd 93 1c 0f bd 68 3f 50 bd d2 9f ea 3d
       -0.048781294 -0.03493936 -0.05084172 0.114562646
000030 eb 5b fb bd 33 a3 0e 3c a1 04 8f 3b 0c 89 95 bd
       -0.12273391 0.008705902 0.0043645655 -0.0730153
000040 e0 ea b1 3d cb d7 b8 bc c1 1f 03 be eb ab 78 3d
       0.08687377 -0.022563836 -0.12805082 0.06071083
000050 22 4b 82 3d c2 ab e0 bc ce 7c 17 be 25 fb 8d 3e
       0.06361987 -0.02742565 -0.14793703 0.2773067
000060 2d f5 b0 3d df 84 cc bd 94 f0 ed bd 55 a2 d1 bd
       0.086405136 -0.09986281 -0.11618152 -0.102360405
000070 cf 9d 1c be c4 34 08 be 82 ea b0 3d f2 9d c6 bd
       -0.15294574 -0.13301378 0.08638479 -0.096980944
000080 ee 83 8e 3d 54 4c 66 3c ba 0f 8d 3c 87 aa aa 3c
       0.06958757 0.014056284 0.017219413 0.020833267
000090 45 69 46 bc 55 44 08 3d f6 0f 87 bd af 3b 63 bd
       -0.012110059 0.03326829 -0.06594841 -0.05547684
0000a0 b9 50 bc bb 4d af a1 3d 39 37 07 be 93 dc 7d bd
       -0.0057469276 0.07894764 -0.1320466 -0.061977934
0000b0 13 3a 55 bd 41 b9 91 3d 66 69 93 bb 6e 9a 43 3d
       -0.052057337 0.071154125 -0.0044986485 0.047754698
0000c0 e5 19 12 bd ea 60 93 bc 67 34 9c 3c df 13 fb bc
       -0.035669226 -0.017990548 0.019067956 -0.030649124
0000d0 4d 50 25 3c e4 31 76 3d 8e 5d a9 3d 43 38 87 bd
       0.010089946 0.060106173 0.08269797 -0.06602528
0000e0 54 fa a1 bd fe 27 8b 3e 6a 0f c6 3d ca e6 1f 3c
       -0.079090744 0.2717895 0.09670909 0.009759614
0000f0 16 63 db bd 83 e3 bf 3d 10 15 08 bd e7 d7 68 bc
       -0.107122585 0.09369566 -0.03322321 -0.014211631
000100 7f f7 28 be 21 e7 ca 3d 87 99 6a bd c7 84 64 3d
       -0.16500662 0.099073656 -0.05727532 0.05579069
000110 57 a4 0d 3d 77 b2 71 bd 2f 7a 27 be 18 56 0a be
       0.034580555 -0.059008088 -0.16355203 -0.13509405
000120 96 c1 36 be b7 ba 81 3b 51 b9 5a be 2a 89 15 3c
       -0.17847285 0.0039590257 -0.21359755 0.009126941
000130 03 b8 ca bd 3d 1d 1f 3e 09 d6 bb bb 34 11 54 bc
       -0.09898379 0.15538497 -0.005732302 -0.012943555
000140 c5 cf 1f bc 6c bd bf 3b 88 e9 26 bc 50 ec 0c 3e
       -0.009754126 0.0058514383 -0.010187514 0.13762021
000150 2b fc ab 3d 7e 0e ba bb 25 5e 20 3b 51 c5 7e 3c
       0.083977066 -0.005677997 0.0024470177 0.015549974
000160 12 dc cb 3d ea 26 a8 ba 8c f1 9d bd 4e b5 15 bc
       0.099540845 -0.001282898 -0.07712087 -0.009137465
000170 e5 56 c2 3c 1a fe 3b bd 12 2e 2d 3b 48 88 c4 3d
       0.023723075 -0.045896627 0.0026425165 0.09596306
000180 1d 03 99 bc 91 50 9a bd 97 0c c8 3c 8c 79 e4 bd
       -0.018678242 -0.07534898 0.024420066 -0.11155996
000190 91 56 07 be b3 00 52 bd 86 f0 ae 3d 6e 9d 3f 3d
       -0.13216616 -0.051270198 0.0854197 0.046780996
0001a0 60 61 19 3d 83 bd 12 3d 72 63 1a 3e 53 ce d5 3c
       0.03744638 0.035825264 0.15076998 0.02609936
0001b0 35 fe 86 3d b3 41 b1 3d 31 3a 19 be 80 d7 4e 3e
       0.06591455 0.08655109 -0.14963605 0.20199394
0001c0 fe 2a 61 bd 76 26 12 3d f5 93 ee 3d 32 84 0e 3e
       -0.05497264 0.03568121 0.11649314 0.13917616
0001d0 06 a6 d2 3d 8b 52 2f 3d ec 65 43 3d d7 71 c1 bc
       0.10285573 0.04280333 0.047704622 -0.023613853
0001e0 f8 3d bb bd d4 a9 0b 3c af cc 55 bd b6 28 8b bc
       -0.09142679 0.008524377 -0.052197155 -0.016987186
0001f0 1f e9 7e 3d 51 b3 1b 3e 03 ef c6 3d b5 87 16 bd
       0.06223404 0.15205123 0.097135566 -0.036750514
000200 e9 f5 9c bc e9 65 bf 3d 60 12 3e be 7c 4c 09 3e
       -0.019160228 0.0934561 -0.18561697 0.13408083
000210 eb 59 7e bd 53 b9 b6 bd 44 c4 d7 3d 3e 71 02 3d
       -0.06209747 -0.089220665 0.105354816 0.031846277
000220 08 98 0f 3d 74 69 ea 3d 85 89 5e 3d 82 5b 18 3d
       0.035057098 0.11445895 0.054330368 0.037196644
000230 a9 b7 16 bd 5e 9a c1 3c 9d 5b b7 3c 42 0d 8b 3c
       -0.036796246 0.023633178 0.022382552 0.016974095
000240 c9 65 be bd fe f2 00 be 18 bc 23 be 41 ff 88 bd
       -0.09296758 -0.12592694 -0.15989721 -0.06689311
000250 ee 77 41 be c2 d8 6b 3d 75 93 18 be 39 9a 8f bc
       -0.18893406 0.057579763 -0.149 -0.017529594
000260 a9 f3 2c bd 91 75 18 bd 6f 42 96 3d 92 88 2f 3d
       -0.04222456 -0.037221495 0.0733689 0.042854853
000270 18 f6 da 3d ae a6 b3 bd b6 93 ab 3c 1c e9 b3 3d
       0.1069147 -0.08772026 0.020944458 0.087846965
000280 d8 66 a2 bd e8 24 c3 bd bc f7 97 3d 83 65 6e 3d
       -0.07929772 -0.09528524 0.074202985 0.058202278
000290 ac 68 0b be ac fd 4e bd 2f e7 d5 3c e7 9b ad bd
       -0.13614148 -0.05053489 0.026111213 -0.08477002
0002a0 de b1 8a 3d b3 8a 4b be e7 69 3c bd 7d 39 09 3d
       0.06772207 -0.19877128 -0.045999434 0.03350209
0002b0 7d ff 2e bd 38 f8 0e be 07 f0 d0 3d 69 89 28 be
       -0.04272412 -0.13961875 0.102020316 -0.16458668
0002c0 ea c5 98 bb 32 45 21 3e a5 7b d0 bc 83 d8 51 bd
       -0.004662265 0.15749052 -0.025449583 -0.051231872
0002d0 59 58 67 bd 64 2f 72 bd 4a de a9 bd f2 72 c5 bd
       -0.05648074 -0.059127226 -0.082943514 -0.09641065
0002e0 a4 e7 c6 3b bd b1 e3 bd 82 f0 93 be 7d 96 be bd
       0.006070094 -0.11117885 -0.2889443 -0.09306047
0002f0 6d d8 8e bc 18 e0 bd bd 58 bf 11 3c 56 df 35 3c
       -0.017437184 -0.09271258 0.008895718 0.011100611
000300 2c 70 83 3d 0d 30 e5 bb 43 ce 92 bd 56 dd 2d bd
       0.064178795 -0.0069942535 -0.071682476 -0.04244741
000310 7e 14 bc bd a0 ca 49 3d 9b 2e 25 3e 67 18 be bd
       -0.09183596 0.049265504 0.1613106 -0.09281998
000320 c9 2d 4f 3e 28 ec 2d be ab 87 da 3b f2 e8 20 bd
       0.2023231 -0.16984618 0.006669005 -0.039284654
000330 5c 89 c0 3d 54 1a 26 3e c2 f2 8f bc 38 f1 0e be
       0.09401199 0.16220981 -0.01757181 -0.13959205
000340 ec c8 47 bd 93 fc 4e be 45 b6 75 bd 5f 7b e1 3b
       -0.0487756 -0.20213537 -0.05998828 0.006881162
000350 24 51 76 3d 96 31 7c bc 52 41 b5 3d cc e8 8f bd
       0.060135975 -0.015392682 0.088503495 -0.07026824
000360 31 9c 4a be f5 ab ea bd ce 6d ef bc f8 e7 e1 bc
       -0.19786145 -0.114585795 -0.029227164 -0.027576432
000370 5c d1 e2 3a a9 57 29 be 3e 18 52 3d ca 82 84 bd
       0.0017304826 -0.16537346 0.05129265 -0.064702585
000380 54 93 47 3e a6 c0 36 bd dd b5 0d bc 78 0f 10 3e
       0.19489795 -0.044617318 -0.008649317 0.14068401
000390 71 03 b6 bc a9 78 93 bd 34 a4 63 3d 32 30 d5 bd
       -0.022218438 -0.072007485 0.05557652 -0.10409583
0003a0 a4 bf ea 3b 88 ae 9d 3d 92 e6 f4 bc 4e 6d 02 3d
       0.0071639586 0.07699305 -0.0298951 0.031842522
0003b0 e1 ad a0 3d b9 ba 27 3d 09 39 11 bd 09 24 d1 bd
       0.07845665 0.040949557 -0.035454784 -0.10211951
0003c0 45 bf 04 bd 5b 4d e5 bd c9 f8 57 be 04 a5 9c bd
       -0.03240897 -0.11196395 -0.21090998 -0.07648662
0003d0 8c c0 d3 bb b3 66 e6 3c 56 10 ec 3d 9f e0 99 3a
       -0.0064621624 0.028125143 0.11526553 0.0011739916
0003e0 48 38 2d bd 22 b5 86 bd fd 6a e0 bd 24 1b b7 3b
       -0.042290002 -0.06577517 -0.109579064 0.005587952
0003f0 ec 36 37 be f0 e0 0c bd 22 8e 05 3e 5d d0 dd bd
       -0.17892045 -0.034394205 0.130425 -0.10830758

network_body._body_endoder.seq_layers.4.bias f4 [128]
000000 fe 42 b8 bb 84 a7 11 ba f7 f9 a1 b7 38 8b cc bc
       -0.0056232205 -0.0005556273 -1.9309095e-05 -0.024968728
000010 26 0f 8c bc 45 79 7d 3a 6f c4 95 32 af 13 59 3c
       -0.017097067 0.00096692547 1.743521e-08 0.013249322
000020 bd c6 95 bc 8c 41 1f b8 b9 43 0f bc f7 97 4d b9
       -0.018283242 -3.79696e-05 -0.008744174 -0.00019606935
000030 b8 69 bc 3b 33 4c a8 bc 52 0d 5b bb ce 60 dc b6
       0.0057499073 -0.020544147 -0.0033424688 -6.5677805e-06
000040 6f 0a b7 bb 8a 1e d6 bb bd 8a c6 bb 99 bc a6 bb
       -0.0055859606 -0.0065344023 -0.0060590194 -0.0050884006
000050 4d 44 ee bb 17 f2 fb bb b8 dc 62 23 50 0f 07 bc
       -0.0072713257 -0.0076887715 1.22982236e-17 -0.008243397
000060 d7 42 6d 3b c7 a9 1e bc 94 0c dd bb f6 b4 1a 3c
       0.003620317 -0.009684033 -0.006745884 0.0094425585
000070 e1 13 92 b8 44 f5 8e bb e3 2c 00 b9 6b f8 a0 b6
       -6.965525e-05 -0.004362734 -0.00012223753 -4.7972912e-06
000080 dd 00 b3 bb c7 2a 7f 3a 06 c0 14 bb 7b 0e c3 3a
       -0.0054627494 0.00097338523 -0.0022697463 0.0014881635
000090 98 49 93 bc 6b 7f 1d bb ab 79 5d 34 4b 5c 2f 3b
       -0.017979428 -0.0024032246 2.0626491e-07 0.0026757892
0000a0 fc c6 f1 bb 89 a8 53 b8 53 02 45 bc 0a 60 9c bb
       -0.007378457 -5.046328e-05 -0.01202448 -0.004772191
0000b0 b8 08 bc bb 3e e0 62 bc 30 4c b1 bb f1 17 3b ba
       -0.005738344 -0.013847409 -0.0054106936 -0.00071370514
0000c0 e1 5e 30 22 22 43 16 bc f1 bf d1 ba 98 ff 2c bb
       2.3902676e-18 -0.009171279 -0.0016002638 -0.0026397463
0000d0 4e 40 85 bb 0b 00 27 3b e8 aa 24 bc 2a fd d4 bb
       -0.0040665036 0.0025482203 -0.010050513 -0.006499906
0000e0 46 63 bf 3b 19 ca d5 bb cc 9c 78 bb 74 16 c1 3b
       0.0058406917 -0.006524336 -0.0037935255 0.005892569
0000f0 07 55 d2 bb 60 06 0f bc e5 f1 70 2a 94 b0 af bb
       -0.0064188275 -0.008729547 2.1400206e-13 -0.005361626
000100 03 a0 fa 3a 16 d8 d8 bb e9 33 2a bb 17 e7 ba bb
       0.0019121174 -0.0066175563 -0.0025970882 -0.0057038176
000110 b7 ce 17 bc dd 94 78 3b 33 fc cb b1 85 7d 1f bc
       -0.009265593 0.0037930526 -5.9367493e-09 -0.009734516
000120 d1 01 b2 3b 83 39 2f bc 51 7a 07 ba a7 a9 05 3c
       0.0054323454 -0.010694864 -0.0005168068 0.008158124
000130 0f 26 30 ba e7 33 d3 2d 8c 70 65 bc 51 9f 2b bb
       -0.00067195384 2.4010972e-11 -0.014003884 -0.002618749
000140 b7 51 80 bb 8d 00 72 b9 a0 4a d2 2c d2 ae e2 ba
       -0.003915991 -0.00023079124 5.976844e-12 -0.0017294532
000150 11 06 4e ba 5b 23 a5 bb 31 2b d0 ba f2 4a a7 3b
       -0.00078591803 -0.005039615 -0.0015882013 0.0051053697
000160 5d 12 d8 bb 57 c3 20 bc 67 3f 2f 2f d4 7a 13 bc
       -0.006593986 -0.009812198 1.5938682e-10 -0.0090014525
000170 01 d1 1a 3b ac a8 1d 3c 3d de 36 3b f9 58 34 3c
       0.0023623111 0.009622734 0.002790346 0.011007541
000180 7e 3a 7a bb e6 59 26 bc 5b 69 10 3a 03 8c fa 3b
       -0.0038181837 -0.010153269 0.0005508863 0.007646085
000190 e6 ad 2d b2 c7 da 00 bc 10 21 fc bb 6e 28 83 bc
       -1.0109465e-08 -0.007864661 -0.007694371 -0.01601049
0001a0 84 f0 1f bc 71 f8 09 af 49 c1 02 bc 59 b9 ef 3b
       -0.009761933 -1.2548342e-10 -0.007980653 0.0073157963
0001b0 d2 2d 40 bb 20 f3 73 bb a9 17 07 bc e3 bf c0 bb
       -0.0029324186 -0.0037223771 -0.008245387 -0.0058822497
0001c0 83 ad 8a bb b2 ce 3c 2b b2 9c b6 ba 57 72 e4 bb
       -0.00423211 6.7077865e-13 -0.0013932197 -0.006971638
0001d0 47 bb f7 bb e0 dd e7 bb a3 16 07 bc 04 22 c3 3b
       -0.007560167 -0.00707601 -0.008245143 0.0059549827
0001e0 93 54 bb b1 dc 24 ea 31 2d c7 0e bc 19 6e cd ba
       -5.4520313e-09 6.8144868e-09 -0.008714479 -0.001567307
0001f0 c6 cf 6f bb fb d9 95 bc 79 31 99 bc 10 82 e9 3b
       -0.0036592348 -0.018292418 -0.018700348 0.0071261004

action_model._continuous_distribution.log_sigma f4 [1, 2]
000000 9d 82 15 3e e7 b3 f0 3d
       0.14600606 0.11753064

action_model._continuous_distribution.mu.weight f4 [2, 128]
000000 cb 25 c0 3b 19 d3 58 3c ef 69 b7 3c 39 5f 95 ba
       0.0058638803 0.013233923 0.02238938 -0.0011396176
000010 13 ed af 3b 89 89 9c bc 39 5b 82 3c c2 91 f4 3c
       0.0053688376 -0.01910855 0.015912639 0.029854659
000020 37 b5 4c 3c b5 0a c2 bc 23 e7 f0 ba 5f be 6d bc
       0.012494377 -0.023686746 -0.0018379431 -0.01451072
000030 7b ef 92 3c 1f 31 00 3b 8e f0 34 bb be 30 c1 bc
       0.017936459 0.0019560528 -0.0027609202 -0.023582812
000040 58 29 77 3c f3 31 28 bc 9e f5 a7 b8 45 2e bf 3b
       0.015085541 -0.010265815 -8.00893e-05 0.005834373
000050 bc 81 8e 3c b8 e3 a3 bb 16 9e 26 3c 6e 04 5e 3c
       0.017395847 -0.0050015114 0.010169527 0.013550861
000060 7c c5 16 bb 6d 04 a2 bc dc e6 f4 bb 4b 64 7f 3c
       -0.0023005893 -0.019777501 -0.0074738096 0.015587877
000070 0a dd 8f 3c f0 e2 de bb c7 e9 71 3d 15 71 98 bc
       0.017561454 -0.0068019554 0.059060838 -0.01860861
000080 a9 72 4b bc 42 0c 1d 3d 27 f2 e5 bb c5 cd db 3a
       -0.012417474 0.038341768 -0.007017392 0.0016769698
000090 94 8a 37 bb 1a c3 7e 3c 4d c7 19 bc 1c 18 dc 3a
       -0.0028006183 0.0155494455 -0.009385896 0.0016791853
0000a0 74 38 14 bb d7 b2 52 ba f9 67 43 3c 42 f0 ec 3c
       -0.0022616656 -0.00080375135 0.0119266445 0.028923158
0000b0 cb 2f 08 3a 0d f8 39 bc ec 24 64 3c ba cf 61 3c
       0.000519511 -0.011350644 0.0139248185 0.013782436
0000c0 1b fc 2e bc 97 f2 1b 39 6a 11 b0 3b a0 1c 52 3c
       -0.010680224 0.00014872324 0.0053731697 0.012824208
0000d0 65 66 5d bb 3e 30 2d 3d a0 bd 30 ba 59 42 7f 3b
       -0.0033782956 0.042282335 -0.00067421235 0.0038949458
0000e0 c0 40 c4 3b ff 88 ef 3b c6 d1 01 bb fa 72 23 3c
       0.005989164 0.0073100324 -0.0019808873 0.009976143
0000f0 9d 52 b0 bc 05 d5 ab bc 4d 3c 69 3c e3 74 12 3b
       -0.021523768 -0.020975599 0.014235568 0.0022347502
000100 fd 5a 80 3c 02 1c 15 bd d9 8b 16 bd 45 f6 11 bb
       0.015668387 -0.036403663 -0.036754463 -0.0022272032
000110 4c 3f 48 3c e1 2b dd 3c a5 46 09 bb b3 60 e0 bb
       0.012222122 0.026998462 -0.0020946648 -0.006847465
000120 7e c4 7a 3c be 13 59 ba da de 2b 3c a2 34 0d bb
       0.015305636 -0.0008280835 0.010490144 -0.0021546264
000130 5a dc b5 3b 0b 19 95 bc 50 1b 08 bb 99 c8 e7 bb
       0.0055499496 -0.018200418 -0.0020768233 -0.0070734737
000140 18 9d bb 3c 15 91 b8 bb 53 d2 0c bb ae 32 d7 3c
       0.022902057 -0.0056325295 -0.0021487668 0.026269283
000150 8e b4 4a bc 2a d7 48 3c e9 b8 d0 bc eb 0c e7 3c
       -0.012372149 0.01225833 -0.025478797 0.028204402
000160 15 1b 0b bc a8 51 2b 3c 0d a0 7f bc bb 50 38 bb
       -0.008490344 0.01045648 -0.015602124 -0.002812429
000170 3e d7 d0 3c 9e a7 10 3c 73 1c c6 3a aa 53 99 3c
       0.02549326 0.008829026 0.001511468 0.018716652
000180 6e e8 f5 bc e2 14 b2 3c 76 09 40 3c 21 af 00 3c
       -0.030018058 0.021738473 0.011721006 0.007854254
000190 9e 76 4c 3c 37 dd a4 3c 5f ab 41 bc cc 2a 6f 3c
       0.012479452 0.020125015 -0.011820643 0.014597606
0001a0 58 da ad 3c 05 b7 d0 3b 06 7e 32 bc f1 f2 61 3c
       0.021222278 0.006369474 -0.010894304 0.013790832
0001b0 66 35 3f 3c 81 f4 78 3c 73 d6 86 bb 96 35 42 bd
       0.011670446 0.015195013 -0.00411492 -0.047414385
0001c0 25 bf 2f bb 11 c7 bc 3c 71 09 25 3d 46 ab 8e 3b
       -0.0026816812 0.023044141 0.040292207 0.0043539135
0001d0 d1 8c 66 bb 99 34 14 bc 08 e1 92 ba 8c d6 5b bb
       -0.0035179148 -0.009045743 -0.001120598 -0.0033544628
0001e0 0a 37 6d bc bd 0a 60 3c e5 e7 07 3c 09 db 44 3c
       -0.014478454 0.013674435 0.008295034 0.012015113
0001f0 d5 79 d9 3c bd 57 73 3b 27 05 96 bb 98 4e e0 3b
       0.026547352 0.0037131154 -0.004578251 0.0068453066
000200 12 b1 b4 bb 1e 36 97 b8 6c a5 b1 3c da 04 bc b7
       -0.0055142725 -7.210321e-05 0.021685325 -2.2413606e-05
000210 3d ab 89 bb 7c 99 1d 3c 9e c0 09 bc 59 3b 6b 3c
       -0.0042013214 0.009619113 -0.00840774 0.014357411
000220 af 5c 8e 3c 6c 35 86 bc a7 2b 12 bc 2b 83 8a 3c
       0.01737818 -0.016382895 -0.00892154 0.016908249
000230 8e c3 8b 3c 75 0b bf 39 ae 0e b0 bb 5b 2e 85 bb
       0.017061021 0.00036438895 -0.0053728437 -0.004064364
000240 99 36 df 3a b9 8a b3 bc 78 8b 80 3c 21 c6 05 3c
       0.0017029821 -0.021916734 0.015691504 0.008164913
000250 9a 77 35 ba e2 16 71 bc 18 19 fb bc 6f d9 a8 3b
       -0.0006922424 -0.014714928 -0.030651614 0.005152873
000260 ef de 63 3c 9c 96 89 bc 72 75 3f bc 55 64 06 3d
       0.013908132 -0.016795449 -0.011685716 0.032810528
000270 7f dd 1a 3c 61 6b 18 bb 03 88 df bb 18 29 b0 3c
       0.009452223 -0.0023257362 -0.006821634 0.02150397
000280 4b bf 74 3b 65 9c e8 3c 26 5e 22 b9 2e f7 e1 3b
       0.0037345465 0.028394887 -0.00015484597 0.006895921
000290 26 1e 19 bc 8c 7d 1e 3b 62 47 e9 3a f0 23 53 3c
       -0.009345567 0.0024183718 0.0017797763 0.012886986
0002a0 b4 e1 dc 3a f0 a8 1c 3c 92 8d 71 3c ba 7c eb bb
       0.0016851933 0.009561762 0.014743226 -0.0071864994
0002b0 de d4 90 bc 60 ca 27 bc 81 20 78 3c b2 ba f7 bc
       -0.017679628 -0.010241121 0.015144468 -0.03024039
0002c0 af b2 87 bc d5 c1 7c 3b c6 0b d6 3b e2 28 77 3c
       -0.016564695 0.0038567681 0.006532165 0.015085431
0002d0 78 5e e2 bc 7d 8e 67 3c 3f 39 46 b9 24 f8 26 3c
       -0.027632937 0.014133093 -0.00018904077 0.010190997
0002e0 66 6e 94 3c e8 63 b9 b9 f0 70 05 3d 48 a8 85 3c
       0.018119048 -0.00035360386 0.03257841 0.016315594
0002f0 49 11 1f 3c a4 c7 17 3b fc 6d 88 bc 5c 18 d1 3c
       0.009708711 0.0023159767 -0.016654007 0.02552431
000300 70 a5 50 3c e9 a8 78 3c c5 25 5a 3c 9a bd 71 39
       0.012734756 0.01517699 0.013314669 0.00023054183
000310 4b c7 95 bc fe b7 8a 3c f9 1a 10 3c 97 9b a8 3c
       -0.018283507 0.016933437 0.008795493 0.020582004
000320 7e 61 18 bc 17 fd 3b 3c 32 96 96 3b 58 28 12 3d
       -0.009300588 0.011473916 0.0045955414 0.035683006
000330 94 c4 bc 3c 93 c9 03 bd e3 b0 82 bc 9e 80 6d bc
       0.023042955 -0.032174658 -0.015953487 -0.014495997
000340 4d ea 3b 3b f2 4b ce 3b 5f 3c f7 3c f1 fb c1 3c
       0.002867359 0.0062956745 0.030180154 0.023679705
000350 ff 91 0c 3c e3 32 c2 bb 71 8e 21 bc ab a1 b2 3c
       0.00857973 -0.0059264763 -0.009860621 0.021805605
000360 27 a7 85 3c 7b ab 18 ba 0b 4b 7a bb 72 58 4e 3b
       0.016315056 -0.00058238924 -0.0038191702 0.0031485823
000370 e9 8d 12 3c 30 b2 2d 3d a1 2d 79 3c 03 05 0c 3d
       0.008944967 0.04240626 0.015208633 0.034184467
000380 9d 2e 32 bd 6f d0 94 3b 7c 7b a6 3a d5 e5 bb 3c
       -0.043501485 0.004541449 0.0012701596 0.02293674
000390 a6 99 9d ba 0f 6a 97 ba 87 09 83 bb aa ff f5 39
       -0.001202394 -0.0011551994 -0.0039989385 0.00046920526
0003a0 82 ce be bc a5 43 fd bc 15 c7 32 bc 34 e6 d3 3c
       -0.02329183 -0.030916044 -0.010911723 0.025866605
0003b0 09 4d ad bc 64 15 93 3b de e4 45 bb 1e 92 df 3b
       -0.021154897 0.004488634 -0.003019623 0.0068228384
0003c0 7e b4 e5 3c 94 78 9f bc 09 ee 77 3c 67 e4 96 bc
       0.028040167 -0.019466676 0.015132436 -0.018419458
0003d0 51 93 1e bc 78 90 67 ba 07 5a c5 ba 9a 52 cc 3c
       -0.009678678 -0.0008833478 -0.0015056737 0.024941731
0003e0 8d 50 b4 bc 68 03 68 3c 08 d5 36 3b eb ae e8 3b
       -0.022011066 0.014160968 0.0027897973 0.00710093
0003f0 00 3d 80 ba 64 ff 6d 3a 61 d0 c0 ba 4c a5 bc 3c
       -0.0009783804 0.00090788887 -0.0014710539 0.023028038

action_model._continuous_distribution.mu.bias f4 [2]
000000 d8 8b 31 3b 52 d8 3f 3c
       0.002709141 0.01170929

action_model._discrete_distribution.branches.0.weight f4 [1, 128]
000000 f7 e5 80 bb 25 d7 2e 3b 54 dd 3f bc fb 3b 12 bb
       -0.003933664 0.002667853 -0.011710484 -0.0022313583
000010 3c af 8c 3c 81 6d 90 3c a4 ae 11 3b f1 c8 3d 3a
       0.017173402 0.01763034 0.0022229338 0.00072397204
000020 67 68 14 3b dd 50 d7 3b bf 37 e9 bb 4b c1 97 3b
       0.0022645236 0.006570919 -0.007117241 0.0046311966
000030 68 25 2e 3c a9 c0 97 bb f1 01 1e bc 37 1c 67 3b
       0.0106290355 -0.004631121 -0.009644018 0.003526462
000040 86 f1 3d b8 a7 aa 39 3b e3 17 8f bb df 08 3d 3b
       -4.5286048e-05 0.0028330476 -0.004366861 0.00288444
000050 73 28 54 bc 57 26 66 3c 12 69 b2 ba aa f3 02 bc
       -0.012949097 0.014047227 -0.0013611636 -0.007992664
000060 b5 e1 28 3c 82 15 68 bb ef e7 86 3b ad e9 0c 3c
       0.010307719 -0.003541321 0.004117004 0.0086006345
000070 df 37 6e 3b 59 11 32 38 67 36 0b bb 4f 4b 91 bb
       0.003634922 4.2454663e-05 -0.0021242143 -0.0044340263
000080 73 39 af 3c bf dc b7 bb 87 e3 1f 3c 92 62 64 3b
       0.021389699 -0.005611032 0.009758837 0.0034848792
000090 45 c5 37 3b 87 38 62 bb 8b 1a 8b bb 03 33 58 bc
       0.0028041166 -0.0034518556 -0.0042451075 -0.013195756
0000a0 98 ee 46 bb 5b 5d 84 3c 22 c6 fc bb 49 a2 b5 bc
       -0.0030354615 0.016157797 -0.007714049 -0.02217211
0000b0 0d 4e 78 3c 07 89 e7 3b 3f ae b6 3a ba 48 f0 ba
       0.0151553275 0.0070658955 0.0013937427 -0.0018332221
0000c0 fb 7d 00 39 5f b6 b9 3b 19 97 33 bc bf 6a bb bb
       0.00012253963 0.0056674923 -0.010961317 -0.0057195122
0000d0 67 9a a2 b9 08 8f 2c 3c cf da 63 3a ed 72 93 bb
       -0.00031014087 0.010532148 0.0008691968 -0.004499784
0000e0 d5 72 8d bb 12 ca c3 b9 ec 24 c3 3a 0a 9d 35 bc
       -0.0043166676 -0.00037343852 0.0014888323 -0.011084804
0000f0 d7 01 47 bc d8 35 64 ba 8f a8 9f bc 1e ab a8 bb
       -0.012146435 -0.0008705533 -0.019489555 -0.005147352
000100 48 bb 6e bc 20 fb 93 3b b4 04 1a 3c bf 62 0c 3c
       -0.0145710185 0.0045160204 0.009400535 0.008568465
000110 50 af 82 bc 5d a4 b4 bb a8 ce 5d 3b 4b d9 ed 3b
       -0.015952736 -0.0055127577 0.00338451 0.0072585694
000120 a3 bf ce bc e2 b9 a8 3b 3f 12 eb ba ec cb 0a 3c
       -0.025237864 0.005149112 -0.0017934515 0.00847147
000130 d1 8e 12 3b a5 d3 cb ba 7f 73 be bb be 4e 10 bb
       0.0022362957 -0.0015550746 -0.005812108 -0.002201959
000140 69 a5 21 bc 52 d8 58 3b 47 52 0f bc 19 fb 9a 3b
       -0.009866097 0.0033087921 -0.008747644 0.00472964
000150 e9 e6 17 3c 47 18 df 3b 37 9c af ba a7 d7 95 3a
       0.009271362 0.006808314 -0.0013397996 0.0011432067
000160 62 f2 93 3b 9f aa b2 bb c7 b0 81 3a c9 b5 02 bc
       0.0045149783 -0.0054524685 0.0009894603 -0.007977911
000170 6d 6e 70 3b a0 3b 5f bb 0d d9 53 3b 2e 11 0b bb
       0.0036686913 -0.003406264 0.0032325417 -0.0021219957
000180 03 f3 5d 3b 68 d8 f5 bb 1b 9f e4 39 3b ad 0e bc
       0.003386677 -0.0075026043 0.00043606092 -0.008708294
000190 21 c5 96 bc 35 f9 d9 bb 52 99 73 bc 50 e9 e8 bb
       -0.018404545 -0.0066520222 -0.014868097 -0.007107891
0001a0 6b 0a 16 bb a4 02 23 3c a3 39 07 bc ab 32 63 3c
       -0.0022894393 0.00994936 -0.008253488 0.013867061
0001b0 b4 4e bb bb eb ca a9 39 b3 1d 1d bc 49 f3 02 3c
       -0.0057161693 0.00032385378 -0.0095896 0.007992574
0001c0 22 89 d0 ba 63 f6 4c 3b 15 18 26 bc 7e b3 aa 39
       -0.0015910009 0.0031274788 -0.010137578 0.0003255866
0001d0 83 eb 0e 3c fa 62 55 3b e1 72 2f 3c 15 8e d8 3b
       0.008723143 0.0032560215 0.010708542 0.0066087344
0001e0 cd 45 67 bb 19 45 b4 3b dc bb 1c 3c f6 c0 35 b8
       -0.0035289407 0.005501401 0.009566274 -4.333347e-05
0001f0 df b6 a7 ba 5f e3 13 3c f0 69 68 ba 82 25 d7 39
       -0.0012795589 0.009026377 -0.00088658836 0.0004103594

exp_avg f4 [128, 10]
000000 da fa 27 84 6e 57 29 83 65 bd a2 83 b0 8a 03 84
       -1.9745941e-36 -4.9765e-37 -9.564987e-37 -1.5462658e-36
000010 c1 40 51 82 c4 d4 f1 82 70 00 00 80 02 12 00 80
       -1.5373478e-37 -3.5533889e-37 -1.57e-43 -6.46e-42
000020 00 00 00 00 00 00 00 00 ac 43 e6 bb a8 24 fe ba
       0.0 0.0 -0.00702711 -0.0019389587
000030 8c 71 70 bb 0e 7c 07 bb ef b4 da b9 d2 71 b8 bb
       -0.0036688773 -0.0020673308 -0.00041715006 -0.005628803
000040 f8 17 8c b8 a2 b6 55 b9 00 00 00 00 00 00 00 00
       -6.680185e-05 -0.00020381299 0.0 0.0
000050 24 c7 4b b4 c6 f6 4b b3 e8 5c c7 b3 ea 70 1b b4
       -1.8978295e-07 -4.748906e-08 -9.283559e-08 -1.4476578e-07
000060 f2 08 9e b2 83 81 06 b3 c8 ea 52 9d d2 6c 0c 1e
       -1.8397689e-08 -3.1317096e-08 -2.7914648e-21 7.434042e-21
000070 00 00 00 00 00 00 00 00 04 41 93 bc 98 6b 8e bb
       0.0 0.0 -0.017975338 -0.0043463223
000080 9d b1 0e bc 6d 9c 16 bc 6a 05 0b bb 0f 75 66 bc
       -0.0087093385 -0.009192568 -0.0021212944 -0.014065995
000090 b6 58 8b 38 0f 67 4f 39 00 00 00 00 00 00 00 00
       6.64456e-05 0.0001977945 0.0 0.0
0000a0 b2 3e b5 bb 2e ec cb ba f2 34 43 bb 90 42 ec b9
       -0.0055311555 -0.0015558058 -0.0029786197 -0.0004506302
0000b0 dd 7f d5 b9 a8 ba a9 bb ae d9 99 b8 c6 75 66 b9
       -0.0004072179 -0.005179722 -7.3361545e-05 -0.00021978383
0000c0 00 00 00 00 00 00 00 00 25 19 a4 9c 34 2d aa 9b
       0.0 0.0 -1.0859109e-21 -2.8153353e-22
0000d0 a4 47 27 9c e0 86 0a 9c cb 2f 43 99 17 2b db 9c
       -5.534826e-22 -4.583469e-22 -1.00909154e-23 -1.4503343e-21
0000e0 a8 78 83 98 00 9e 1d 98 00 00 00 00 00 00 00 00
       -3.3984538e-24 -2.0371544e-24 0.0 0.0
0000f0 4f 7a b1 b0 d1 4b b9 af 5f 25 36 b0 3e 64 16 b0
       -1.2913207e-09 -3.3705175e-10 -6.626432e-10 -5.4712135e-10
000100 a6 08 e6 2c fd 0e f6 b0 3c 08 fa ac a8 48 21 ad
       6.5379533e-12 -1.7903116e-09 -7.1063416e-12 -9.167923e-12
000110 00 00 00 00 00 00 00 00 6f 6d 32 3c 54 48 32 3b
       0.0 0.0 0.010890349 0.0027203755
000120 99 c7 ae 3b 83 f8 01 3c 28 52 98 3a b7 02 38 3b
       0.0053338525 0.007932785 0.0011621164 0.002807779
000130 b0 3b 7b 34 0c 27 47 b5 00 00 00 00 00 00 00 00
       2.3397911e-07 -7.41901e-07 0.0 0.0
000140 d4 f6 5b 3c 15 b2 5d 3b 92 6e da 3b ba df 6c 3b
       0.013425548 0.003382807 0.006666013 0.0036144094
000150 7f 24 d6 3a 8d 50 5b 3c 61 d7 77 38 e4 c2 f0 38
       0.0016337781 0.013385904 5.9089976e-05 0.00011480393
000160 00 00 00 00 00 00 00 00 50 07 84 00 76 37 22 00
       0.0 0.0 1.2124909e-38 3.142303e-39
000170 9c 4e 43 00 3e be 37 00 8f 44 01 00 37 3c b0 00
       6.181178e-39 5.119198e-39 1.1643e-40 1.6184648e-38
000180 ea 69 00 00 6b 3f 00 00 00 00 00 00 00 00 00 00
       3.7995e-41 2.275e-41 0.0 0.0
000190 84 69 fe 9d 14 48 a9 9c f8 ec 5b 9d b4 a7 a9 9d
       -6.734234e-21 -1.1202114e-21 -2.9106919e-21 -4.490733e-21
0001a0 e4 54 bb 1c 85 0b ed 9f f8 10 d8 9c 48 0d e3 9b
       1.2396566e-21 -1.0039246e-19 -1.4298067e-21 -3.7562583e-22
0001b0 00 00 00 00 00 00 00 00 50 81 93 ba b8 2a fc b9
       0.0 0.0 -0.0011253748 -0.00048097013
0001c0 50 d7 43 ba c0 93 f1 3a 88 58 03 b9 80 20 4b ba
       -0.0007470744 0.0018430874 -0.00012526114 -0.00077486783
0001d0 c6 68 c0 b8 d0 8c 9b b9 00 00 00 00 00 00 00 00
       -9.174789e-05 -0.00029668817 0.0 0.0
0001e0 00 00 00 00 00 00 00 00 00 00 00 00 00 00 00 00
       0.0 0.0 0.0 0.0
0001f0 00 00 00 00 00 00 00 00 00 00 00 00 00 00 00 00
       0.0 0.0 0.0 0.0
000200 00 00 00 00 00 00 00 00 25 ca 98 9f 6d 23 9b 9e
       0.0 0.0 -6.4708924e-20 -1.6425915e-20
000210 df 6c 16 9f 6b e6 53 9d 6f 14 eb 9d 11 5b 5e 9f
       -3.185379e-20 -2.804474e-21 -6.222511e-21 -4.7085657e-20
000220 7f 4f 77 11 69 65 a8 10 00 00 00 00 00 00 00 00
       1.9509361e-28 6.6420563e-29 0.0 0.0
000230 00 00 00 00 00 00 00 00 00 00 00 00 00 00 00 00
       0.0 0.0 0.0 0.0
000240 00 00 00 00 00 00 00 00 00 00 00 00 00 00 00 00
       0.0 0.0 0.0 0.0
000250 00 00 00 00 00 00 00 00 d9 30 a1 06 ba 56 a1 05
       0.0 0.0 6.0633244e-35 1.5172226e-35
000260 8f b2 1d 06 3f e2 75 06 1c dd f9 04 32 ad 54 05
       2.9659602e-35 4.6245598e-35 5.8742676e-36 1.0000003e-35
000270 04 00 00 80 04 00 00 00 00 00 00 00 00 00 00 00
       -6e-45 6e-45 0.0 0.0
000280 04 00 00 80 04 00 00 80 04 00 00 80 04 00 00 80
       -6e-45 -6e-45 -6e-45 -6e-45
000290 04 00 00 80 04 00 00 80 00 00 00 00 00 00 00 00
       -6e-45 -6e-45 0.0 0.0
0002a0 00 00 00 00 00 00 00 00 65 1a c3 bb 97 89 ca ba
       0.0 0.0 -0.005954074 -0.0015452382
0002b0 90 ff 43 bb 73 12 cf ba ed d1 10 ba 5d 3b c3 bb
       -0.0029906966 -0.0015798345 -0.00055244454 -0.0059580044
0002c0 28 7a d5 b7 48 fc 8b b8 00 00 00 00 00 00 00 00
       -2.5448462e-05 -6.6750275e-05 0.0 0.0
0002d0 a6 88 82 3c 2c f3 87 3b 95 ac 05 3c f7 df b1 3b
       0.0159343 0.0041488614 0.008158823 0.00542831
0002e0 e1 ec 11 3a ca 36 a8 3c 59 53 f9 38 40 f6 58 39
       0.0005566609 0.020533938 0.0001188877 0.000206911
0002f0 00 00 00 00 00 00 00 00 2b 90 0b 3b 87 32 1f 3a
       0.0 0.0 0.0021295648 0.0006072898
000300 57 c8 98 3a c0 52 12 3a 84 97 40 38 f4 db e8 3a
       0.0011656386 0.0005581789 4.5917477e-05 0.0017765746
000310 5a bb c9 37 3f 91 99 38 00 00 00 00 00 00 00 00
       2.404831e-05 7.322663e-05 0.0 0.0
000320 9c e1 c0 3b 71 80 bb 3a bb fd 3b 3b 5d 98 88 3b
       0.0058862697 0.0014305246 0.002868517 0.0041685537
000330 2b 09 ee 39 82 3b 3f 3b 18 93 2b b6 16 a8 f9 b7
       0.00045401728 0.0029179757 -2.5566605e-06 -2.9761384e-05
000340 00 00 00 00 00 00 00 00 fc 50 92 a8 4c ed 95 a7
       0.0 0.0 -1.6244378e-14 -4.1613085e-15
000350 02 a9 0a a8 a3 73 7e a8 70 64 a9 a5 48 7b 96 a7
       -7.697187e-15 -1.4124907e-14 -2.9384886e-16 -4.1767025e-15
000360 42 3b fc 9c 01 3f 1a 1d 00 00 00 00 00 00 00 00
       -1.6691279e-21 2.0414303e-21 0.0 0.0
000370 04 00 00 00 04 00 00 00 04 00 00 00 04 00 00 00
       6e-45 6e-45 6e-45 6e-45
000380 04 00 00 00 04 00 00 00 04 00 00 80 04 00 00 00
       6e-45 6e-45 -6e-45 6e-45
000390 00 00 00 00 00 00 00 00 ed ae dd 3a bd e2 dd 39
       0.0 0.0 0.0016913094 0.00042321338
0003a0 5f e1 58 3a 6c e5 a8 3a a6 bc 2d 39 25 83 91 39
       0.0008273329 0.0012885756 0.00016568843 0.00027754265
0003b0 00 b7 06 9f f8 4f a8 1f 00 00 00 00 00 00 00 00
       -2.8526978e-20 7.1283065e-20 0.0 0.0
0003c0 97 81 32 3c 6c c2 34 3b 1e 25 ac 3b 3b 1d 1a 3c
       0.010895154 0.0027581705 0.005253448 0.009406383
0003d0 61 7b 28 3a a9 dc 80 3a 14 95 33 36 8e f0 c7 37
       0.00064270763 0.0009831387 2.6759853e-06 2.3834666e-05
0003e0 00 00 00 00 00 00 00 00 07 97 9d bb 52 fe b5 ba
       0.0 0.0 -0.0048092636 -0.0013884997
0003f0 83 2b 2a bb f0 e0 56 39 c8 22 73 38 48 5d ed bb
       -0.0025965876 0.00020492426 5.7968107e-05 -0.007243786
