Assets/results/VIkramRover2/VikramRover/VikramRover-1080.pt (torch, 858793 bytes, 51 tensors)

network_body._body_endoder.seq_layers.0.weight f4 [128, 10]
000000 6a 4e cb bd f7 e4 85 be 1c 33 85 3e 88 85 65 3e
       -0.09927066 -0.2615125 0.26015556 0.2241422
000010 49 fa b1 be 7b 24 f9 bd 5f 5c 76 bd 34 03 ed 3e
       -0.34761265 -0.12165161 -0.060146686 0.46291506
000020 80 b4 92 3e 62 20 02 3f 08 6b d2 be 6e 2b 58 bd
       0.28653336 0.5083066 -0.41097283 -0.052775793
000030 eb e3 82 3d 18 3f 76 3d f8 c6 f2 3e ce 55 fb 3d
       0.06391128 0.060118765 0.47417426 0.12272225
000040 a7 78 43 3e e5 93 51 3a 87 3b 51 3f 01 0e 32 bf
       0.19088994 0.0007994755 0.81731457 -0.6955262
000050 c9 6f f8 3e b0 8d 85 bd 73 e9 a7 3e e0 3b 77 3e
       0.48522785 -0.06521165 0.32795295 0.24143934
000060 a0 00 29 be a8 d8 a9 3e 3c 7a ca 3e 1b 73 3f be
       -0.16504145 0.33173108 0.39546382 -0.18696253
000070 8c cb fa be 93 4b e6 be 8e 79 0f 3f 78 35 a1 3a
       -0.4898342 -0.44979534 0.5604485 0.001229926
000080 0c 8a e3 3d 59 c0 0e bf b5 3c c9 3d bb 3e b1 3e
       0.11110315 -0.5576225 0.09826032 0.34618172
000090 15 ab 92 be 81 f0 22 be bc a6 0d 3e 89 88 3c 3e
       -0.2864615 -0.15912057 0.13833135 0.18411459
0000a0 7a 55 07 bd 41 74 03 bf 0a 7f 40 bc 3c f5 c7 3d
       -0.0330405 -0.51349264 -0.0117490385 0.097635716
0000b0 fd 6d 49 be 98 4d f0 bd 01 3b ad 3e f3 f3 fb 3d
       -0.19670863 -0.1173355 0.3383408 0.12302389
0000c0 6c fa 9f bd d7 48 05 3f 0f 76 1d bf 55 83 d5 bb
       -0.07811436 0.5206427 -0.6150827 -0.0065159
0000d0 e0 eb 3e 3f 98 64 7c bd 7c c0 7b 3d be 25 a2 be
       0.74578667 -0.06161937 0.061462864 -0.3166942
0000e0 09 e2 79 bd cc 4e 64 3e 38 31 10 be 43 d3 25 bf
       -0.06100658 0.22295684 -0.14081275 -0.64775485
0000f0 b4 a8 3b bf af 31 47 3e 37 96 3f be 4c 3b ee 3e
       -0.73304296 0.19452547 -0.18709646 0.46529615
000100 da 82 aa 3e 9a 54 02 bf ca ee 83 3e f3 ce 64 be
       0.33302957 -0.5091034 0.2576812 -0.2234457
000110 8e df b2 be f0 86 b7 bd a5 fd d2 bd 83 b2 91 3e
       -0.34936184 -0.08961284 -0.10302285 0.28456506
000120 97 35 2f 3e 4a 0e 33 be 50 d9 0f 3d 7b c1 9f bd
       0.17110287 -0.1748592 0.035119355 -0.07800575
000130 98 a7 43 3d 18 52 8b be 63 85 2d bf af 9a 0a 3f
       0.04776725 -0.2721107 -0.67781657 0.5414228
000140 06 b1 71 3e 7a a3 aa be 87 b8 61 bc 24 77 b5 3e
       0.23602685 -0.33327848 -0.013776905 0.3544246
000150 c0 95 9c 3e 32 68 fd be 76 73 a4 3e 55 05 d4 be
       0.30583 -0.49493557 0.3211934 -0.41410318
000160 c7 5a 79 bd 35 26 22 3e dc d8 6c be 90 d3 d4 be
       -0.060877588 0.15834887 -0.231296 -0.4156766
000170 b5 16 9d be 59 46 46 3e 50 38 d1 3e 7a 55 5a be
       -0.30681387 0.19362773 0.40863276 -0.21321669
000180 a2 2e 62 3e f8 5b 94 be fa a6 05 3e 3a 9e 11 be
       0.22088102 -0.28976417 0.13051978 -0.14220515
000190 36 2d 0f bd e3 b8 dd bd ad 52 99 3e 4e 5f 88 be
       -0.034955226 -0.1082628 0.2994589 -0.26635212
0001a0 d4 92 ba bc 2f 29 97 3e 3e 35 ee 3d f6 9d 8c 3d
       -0.022775091 0.29523608 0.11631249 0.06866066
0001b0 88 67 5d be f7 c3 3f 3f 8a e7 f7 bd 7c 63 f8 bd
       -0.21621525 0.74908394 -0.121047094 -0.1212835
0001c0 3e 95 0f be ad 6d f4 bd 4a 1e 32 3e 05 cb 0b bf
       -0.14021775 -0.119349815 0.17394367 -0.5460666
0001d0 9e 09 1f bf dc 76 75 bf 36 a6 7e 3e b9 6f 1b be
       -0.6212405 -0.9588449 0.24868092 -0.15179338
0001e0 ef e3 20 3f 27 5a 93 be 1c ac 9f 3e 43 4d 15 3f
       0.628478 -0.28779718 0.31185997 0.5832102
0001f0 63 f3 25 3e 69 5a 44 be c4 bb ca 3d 9b ab 04 3e
       0.16206126 -0.19175114 0.09899095 0.12956087
000200 85 26 61 3e e9 71 44 bd 0d 8c 40 bb f6 de 7a 3e
       0.2198735 -0.047960196 -0.0029380352 0.24499115
000210 c9 30 05 bd 41 2d 7a be a5 91 4e 3e 3e 3b c2 3e
       -0.03251723 -0.24431325 0.20172746 0.37935823
000220 93 e3 ee be f9 cf 09 bf 64 2c 18 3e b5 96 a0 be
       -0.46658 -0.53832966 0.14860684 -0.3136498
000230 bc 93 2e bf 3b 25 6a be 0a 61 15 bd b7 7a 82 3e
       -0.68194175 -0.22865765 -0.036469497 0.2548425
000240 de 97 db bd 30 65 8d be 55 a9 d4 3d 9d 9f 8f 3c
       -0.10722326 -0.27616262 0.1038386 0.017532164
000250 cc 15 1b be ad f2 67 3e 29 53 c7 3e 59 13 cc be
       -0.15145034 0.22651167 0.38930634 -0.3985851
000260 56 08 8c bd c8 ff c4 3e 5d 79 53 be ff 45 48 bf
       -0.068375275 0.38476396 -0.20651765 -0.78231806
000270 cd 1e 4c 3d 0f ff 43 bf 5f 34 23 be 39 b7 90 3d
       0.04983406 -0.76561064 -0.15937947 0.07066197
000280 c3 49 1e bf c1 97 81 3c 0e 45 61 3e 1e 85 b0 3c
       -0.618313 0.015819432 0.21998999 0.02154785
000290 bd 28 38 3e 5c f6 1d bf c7 61 24 3f 50 cd b6 3e
       0.1798429 -0.6170404 0.64211696 0.35703516
0002a0 f2 f6 17 3e 74 9b 8e bd 2d ce 2e be ae a4 a3 bd
       0.14840296 -0.06963244 -0.17070837 -0.079903945
0002b0 b8 a8 9a 3d 96 e8 02 3f 99 76 b7 be c1 87 28 3f
       0.07551712 0.5113615 -0.3583267 0.65832144
0002c0 79 cd d9 be 71 e9 8e be 04 bb 10 be 2f f9 a7 3c
       -0.42539576 -0.27912477 -0.14133841 0.020504562
0002d0 c4 c2 8c be 49 64 3b bf 4e 83 35 3f db 80 f7 ba
       -0.27492344 -0.731999 0.7090348 -0.0018883006
0002e0 fa e0 85 be d9 51 4a 3e 2b db b9 be a7 cf 1e 3e
       -0.26148206 0.19757785 -0.36300024 0.155089
0002f0 eb 9b c7 bd f3 be 0c be f1 8f a2 bc 7f 1a 86 3e
       -0.09746536 -0.13744716 -0.019844027 0.2619209
000300 ae 49 74 3e a1 ed 0f be f2 e4 87 be f5 94 f4 be
       0.23856232 -0.14055492 -0.2654186 -0.47769895
000310 08 77 09 3d 89 1a 17 be b2 2f 92 3e 27 d4 20 be
       0.033560783 -0.14756216 0.28552014 -0.1570593
000320 48 61 15 bf 58 9a 38 3e 84 7f 1b 3e 29 d9 66 3e
       -0.58351564 0.18027627 0.15185362 0.22543778
000330 ce 8f 6a be f3 6a d1 be cd c8 f8 3c 18 c1 e4 3d
       -0.2290642 -0.40901908 0.030369187 0.11169642
000340 e4 d5 2e be 57 80 3d 3d 31 83 41 be 37 bb af 3e
       -0.1707378 0.046264973 -0.18897702 0.3432252
000350 cb 5d c0 3e e0 25 85 be ab fe 77 be 3f b9 45 be
       0.37571558 -0.2600546 -0.24218242 -0.19308947
000360 7e d1 82 be d3 ee 23 be 96 78 15 be d1 7d 6d 3e
       -0.25550455 -0.16009073 -0.14596781 0.23192526
000370 a9 6e f5 bc cd d7 a7 3e e4 3c 62 3e 0f 03 e9 bd
       -0.029959993 0.3278183 0.2209354 -0.113775365
000380 d1 90 2f bf 15 6d f5 3c 5c e9 9e 3e e4 3b 08 3d
       -0.6858035 0.02995924 0.31037414 0.03326024
000390 48 c3 4a be 4e 6e d7 be 9d e2 12 3f 25 10 d6 bc
       -0.19801056 -0.42076343 0.57377034 -0.026130745
0003a0 8b 48 b6 3e 7e 40 80 be b2 57 b6 bc be 46 09 bf
       0.3560222 -0.25049204 -0.022258613 -0.5362357
0003b0 e0 bc fc be a2 09 f4 bc 4b 7c e2 3c df 62 b7 be
       -0.4936285 -0.02978975 0.027647158 -0.3581762
0003c0 71 ad 49 3e 80 be c8 3d 4b 9c e9 bd 98 fd 7c 3e
       0.19695069 0.0980196 -0.11406764 0.24706113
0003d0 17 3c 10 3d 44 83 d9 be df be 2f 3f 16 ef 48 3e
       0.035213556 -0.4248296 0.6865062 0.19622454
0003e0 fc e7 b0 be ca b6 a9 bd 01 7b 84 3d 0e f8 f8 3e
       -0.3455199 -0.08286817 0.06468774 0.4862675
0003f0 5a b2 2d 3e bf 8a 9e be 78 87 b0 bd 8c 35 8d bb
       0.16962567 -0.3096523 -0.086195886 -0.004309362

network_body._body_endoder.seq_layers.0.bias f4 [128]
000000 4a cf 23 bb 75 9e 81 28 5b 93 04 bc 02 24 6d ba
       -0.002499538 1.4390597e-14 -0.008091773 -0.0009046198
000010 3f df 91 b8 2d f9 7e 20 1f 96 10 93 66 da 0a 3c
       -6.9557216e-05 2.1597082e-19 -1.824937e-27 0.008474922
000020 be 61 8f 3b 79 74 66 19 cb 62 97 bc fd e2 6c a8
       0.0043756654 1.1914243e-23 -0.018479725 -1.3149852e-14
000030 1a 67 8f bb c5 58 27 bb 00 00 00 00 0c 38 db 3b
       -0.0043763043 -0.0025535088 0.0 0.006690031
000040 00 00 00 00 a8 c0 06 bc ff f2 fe bb 5f 29 8c 3c
       0.0 -0.008224644 -0.0077804322 0.017109571
000050 a0 c5 f0 1c 65 33 da 3b 75 1d b3 bb bb 84 e8 bb
       1.5932953e-21 0.0066589587 -0.005466158 -0.007095901
000060 13 83 1a 3b d3 c5 46 bc 14 89 37 bc 32 9d b0 9d
       0.0023576661 -0.012132126 -0.011202116 -4.674935e-21
000070 c8 5c 9f bc 00 00 00 00 00 00 00 00 b5 29 28 3c
       -0.019453421 0.0 0.0 0.01026385
000080 5b 2b 82 bc 00 00 00 00 8c 7f a8 37 f1 3b f4 31
       -0.015889814 0.0 2.0086554e-05 7.108149e-09
000090 f9 8c 73 bc fc 4b 2e bb 46 5a 82 bb 49 7c 92 bb
       -0.0148651535 -0.0026595583 -0.0039780466 -0.0044703824
0000a0 e3 aa ba 37 df 91 43 1f 58 e3 6c 3c fd 67 a4 bb
       2.2252503e-05 4.1413518e-20 0.0144585 -0.005017279
0000b0 c3 c3 a1 3b 66 cb 07 3c e8 d4 02 3c 03 2b 46 a0
       0.0049366667 0.00828824 0.007985331 -1.6785484e-19
0000c0 f5 01 0e bc 88 2d 38 bc 6f 9c 60 bb a6 45 93 bb
       -0.008667459 -0.011241324 -0.003427293 -0.0044943867
0000d0 ee 53 fc ba 2d d0 30 a0 e0 7e 73 3b 56 ca 3c ba
       -0.0019251087 -1.497666e-19 0.003715448 -0.0007201781
0000e0 84 dd e4 3b b8 92 7b bb 43 85 4f 3b ca 66 d2 bb
       0.0069844145 -0.0038387012 0.0031665124 -0.006420945
0000f0 58 b4 2b bb e8 00 a1 bc b1 86 8e bb 57 84 3d 31
       -0.0026200023 -0.019653752 -0.0043495526 2.7578346e-09
000100 a4 d1 d0 bb 13 70 c7 3a 12 bb 0e 3c 17 c0 15 bc
       -0.0063726474 0.0015215896 0.008711593 -0.009140036
000110 f4 a3 85 3b 77 a5 7b 8a 27 80 13 3b d3 72 fb 3a
       0.0040783826 -1.2116331e-32 0.0022506805 0.0019184
000120 d2 63 f0 91 2c b1 96 bb 9c ba 8f 3c 7b 27 d5 bb
       -3.7926842e-28 -0.0045987573 0.017545037 -0.0065049506
000130 00 00 00 00 06 a2 ab 3b a4 3e da 3c 40 a5 67 aa
       0.0 0.0052378206 0.026641198 -2.0574254e-13
000140 09 89 c2 3b 49 7a 48 9b c5 96 13 bc 5f cd 87 bb
       0.005936746 -1.6583125e-22 -0.009008114 -0.004144355
000150 29 27 5e bb 73 7d c4 ba d6 94 7c bb 5a 53 4b bc
       -0.0033897853 -0.0014991 -0.0038540862 -0.012410009
000160 65 fd 63 16 3b 0f 99 bb 8b 40 0a b8 82 12 de bb
       1.8416871e-25 -0.004671005 -3.2961874e-05 -0.0067771086
000170 11 3f be bb 34 06 9e b6 c9 f0 b9 3c f2 21 1e 3b
       -0.005805858 -4.709489e-06 0.022697823 0.002412912
000180 00 00 00 00 7e 47 22 3b f6 58 fb 37 3e 9b 9f 23
       0.0 0.002476185 2.9962957e-05 1.7304562e-17
000190 00 00 00 00 d9 81 5b bc bd ab 44 bb 82 9c b8 3b
       0.0 -0.013397657 -0.003000959 0.0056338916
0001a0 fe 29 3e bc 23 ce 8f b9 cd 4f 67 bc fd fa 6b ba
       -0.011606691 -0.0002742867 -0.014118147 -0.0009001939
0001b0 dd f5 57 b9 9a 18 2d bc b2 72 11 bb 29 8f d3 bb
       -0.00020595589 -0.0105649475 -0.0022193608 -0.006456275
0001c0 04 48 6e bb 57 75 99 b9 22 35 b6 3a de 0a b4 3b
       -0.0036358843 -0.0002926986 0.0013901333 0.0054944595
0001d0 56 0f 1d 3b ed 24 de bb a1 58 9c 08 00 29 c8 bb
       0.002396544 -0.0067793042 9.409745e-34 -0.006108403
0001e0 bd b5 f0 1d 95 be 12 12 fc 7d 10 3c 81 2b de bb
       6.3715384e-21 4.6304387e-28 0.0088190995 -0.0067800884
0001f0 80 5e bc bb ff bf 61 bc b1 13 98 9f 36 7b 83 3c
       -0.00574857 -0.013778686 -6.440708e-20 0.016049962

network_body._body_endoder.seq_layers.2.weight f4 [128, 128]
000000 a8 90 09 3d bf e2 3f bd c7 ab 03 bc 58 f3 7d 3d
       0.03358522 -0.0468471 -0.00803656 0.06199965
000010 eb 96 83 bd 51 71 57 bc e6 79 de bc 5e 2f f5 3c
       -0.0642527 -0.013149575 -0.027157735 0.029929813
000020 db a6 78 3d 3a 4a 80 3d 3b 00 2e bd a3 87 9a bd
       0.060706 0.062641576 -0.04248069 -0.07545402
000030 72 f0 f9 bc b5 ef 97 bd b3 1d a3 bc 8b d8 35 ba
       -0.030510161 -0.07418767 -0.019911623 -0.00069368695
000040 d6 92 ca bc 81 25 3a bd 43 79 f3 3b f8 3c 79 3e
       -0.02472822 -0.045445923 0.007430227 0.24339664
000050 3e 06 44 bd f9 5b 78 bd f2 91 ba bc b8 bd 65 bd
       -0.047857516 -0.060634587 -0.02277467 -0.056089133
000060 9e 75 7e bc 85 0e d0 bd 7f 2f b9 3d 47 b3 36 bd
       -0.015530972 -0.101590194 0.09042262 -0.044604566
000070 1f 7c 3f be a1 a2 12 3d 87 a6 34 bd 5d d8 83 bd
       -0.18699692 0.035799626 -0.044104125 -0.064377524
000080 2d cb a9 bd d5 3d ce 3d c8 ef 32 3d fc bb 10 be
       -0.08290706 0.10070387 0.043685704 -0.1413421
000090 6a 09 a9 3d 1f 80 87 3d 8a 0e 9c bd 62 76 b7 bd
       0.08253749 0.06616234 -0.076199606 -0.089581266
0000a0 67 ca 4e 3c b7 11 5c bd b2 d0 64 3e c8 8f 28 be
       0.012621499 -0.05372783 0.22345236 -0.16461098
0000b0 9d 2a af 3d a8 f2 cc bd a9 1a 1a 3e 50 00 c7 bd
       0.0855305 -0.100072205 0.15049233 -0.097168565
0000c0 cb 81 9b bd 5e 1c 3c 3d 5a 2a 8c 3c e4 6d 17 3e
       -0.075931154 0.04592549 0.017110039 0.14788014
0000d0 f6 c4 e9 bc bf dd 3e be ce 46 d1 bc 2c f2 02 3e
       -0.028536301 -0.18639277 -0.025546458 0.12787694
0000e0 67 1a 85 3c 46 98 1f 3d 3a 63 ec 3a cf 18 45 be
       0.016247941 0.03896358 0.0018034943 -0.19247745
0000f0 91 51 01 3e 70 ac e9 bd d7 e6 0c bc 53 49 78 bd
       0.12628771 -0.11409843 -0.008599958 -0.060616802
000100 49 df 05 3d 16 8d 56 3d 31 ac 95 bd f3 93 02 3d
       0.032683644 0.052380644 -0.073082335 0.031879377
000110 8a 47 23 3e 58 11 da 3c 58 29 12 3e 0f b0 e5 bc
       0.15945259 0.026619598 0.14273584 -0.028038053
000120 22 98 48 bd 3f 37 7e bb 76 45 07 bd 1f c4 2e bd
       -0.04897321 -0.0038790253 -0.033025227 -0.042667504
000130 b0 b9 2f bb ad 65 78 bd 70 c4 0a 3e 3c 62 40 3d
       -0.002681356 -0.06064384 0.13551497 0.046968684
000140 83 b4 1d 3e af be b4 3d 21 82 04 be a1 06 04 be
       0.15400891 0.088254325 -0.12940265 -0.12893154
000150 34 38 d5 bd 4c 8a da 3d 15 43 13 bd 7a 94 15 be
       -0.104111105 0.10670909 -0.035952646 -0.1460742
000160 ec 16 10 bd a4 21 f7 3d 29 20 e8 3d a1 16 44 3d
       -0.03517811 0.12066963 0.11334259 0.047873143
000170 5b 52 99 bd 0c 64 8b 3d 9c bc f2 3d 23 bf 27 3d
       -0.07486411 0.06806192 0.11852381 0.040953767
000180 fb 4e 0a bd 8d 32 a0 3d 64 26 f8 bc bf ed 03 bd
       -0.033766728 0.07822142 -0.030291744 -0.032209154
000190 9f 1c 0e 3d 9d 8e 48 3e 06 c8 bd bd 85 54 fd 3c
       0.034695264 0.19585653 -0.09266667 0.030924091
0001a0 b6 5c ad bd 47 a2 36 be 19 cd 89 3d 1a 8f 07 3d
       -0.08464949 -0.17835341 0.067285724 0.033095457
0001b0 94 69 3c 3d 79 c7 5c be e5 13 be bc 48 9c 01 3e
       0.045999125 -0.21560468 -0.023202846 0.12657273
0001c0 54 18 c7 bc 06 58 fa 3c 62 fd be bd 7a aa 03 3e
       -0.024303593 0.030559551 -0.09325673 0.12858
0001d0 1f 84 4a 3e 66 6e 34 3e 98 9f c8 3d 1f 81 bb 3d
       0.19776963 0.17620239 0.09796065 0.09155487
0001e0 6d df f5 3b 2b 53 fb 3d 8b 92 be bd 78 60 95 bd
       0.007503441 0.122717224 -0.093052946 -0.072937906
0001f0 f7 12 96 bb e1 db 0c 3d f1 f0 b7 3b e0 8b 80 3b
       -0.0045798975 0.03438938 0.0056134393 0.0039229244
000200 3a fb 37 be ae aa cd 39 8f a2 5e bd 2c 0f 18 bd
       -0.17966929 0.00039227813 -0.054354247 -0.037123844
000210 c0 b3 52 3d cf 04 9c 3c 0e 76 ad bd e8 e1 8a bc
       0.051440954 0.019045262 -0.08469783 -0.016953424
000220 da 41 ab bd 40 9f c0 ba f8 d4 ef bd a1 0a bc bc
       -0.083621696 -0.0014695898 -0.117105424 -0.022954287
000230 cf 92 be 3c 92 21 f8 3c 8e 40 c2 3a 07 de 21 3e
       0.023263363 0.030289445 0.0014820264 0.15807353
000240 58 76 65 3d 79 57 13 bc 1b 27 ce bc 2f 59 17 be
       0.056021065 -0.008993023 -0.025165131 -0.14780115
000250 2c 63 0d be 99 5b 27 be 60 9b e1 3d e0 46 44 3b
       -0.13807362 -0.16343535 0.110159636 0.0029949471
000260 c0 56 b2 3d f8 2f a5 bd 2b bd 78 3d 8e 15 d7 bc
       0.087079525 -0.0806579 0.06072728 -0.026255395
000270 33 57 1b 3e 63 96 15 bd 71 1e 01 be 5a f7 f0 3d
       0.15169983 -0.036520373 -0.12609269 0.117659286
000280 24 89 df bd 14 67 2a 3d 54 a2 92 3d 5b 97 27 be
       -0.109148294 0.04160221 0.07159868 -0.16366331
000290 d8 a2 17 3e 2e 44 48 3d 42 52 f0 3c 94 7d 1a bc
       0.14808214 0.048893146 0.029336099 -0.009429354
0002a0 52 1f 59 3e 20 9c a0 3d 98 3e 92 3d cf 36 cb bc
       0.21203354 0.078422785 0.07140845 -0.024806408
0002b0 84 49 18 3c c4 c0 ad 3c da 2f 0c 3e 95 22 45 3d
       0.009294871 0.021210082 0.13690129 0.048128683
0002c0 f2 5d f8 bc 40 fd a3 3d 48 87 67 3e e9 52 f8 bd
       -0.030318234 0.08007288 0.226102 -0.12125189
0002d0 4d a6 21 3d 8e 60 fd 3d e5 cd 1a 3b dd ae 9d 3d
       0.039465237 0.12371932 0.0023621258 0.07699368
0002e0 23 0d 54 3c d2 e2 77 bd ae 12 a4 3c 63 1c 0f be
       0.012942585 -0.060519047 0.020028438 -0.13975672
0002f0 85 f6 77 bd 8e 2a 32 3d de 35 39 bc e6 0e 32 3e
       -0.060537834 0.043497615 -0.011304347 0.17388496
000300 9c 90 27 3b b6 06 34 bc f4 22 38 bb c1 3e 51 be
       0.0025568372 -0.010987928 -0.0028097006 -0.20434095
000310 97 ff a9 bd 58 d8 1c bd dc ee 1a 3e d1 48 7c 3d
       -0.08300703 -0.03829226 0.1513018 0.06159288
000320 d4 44 8a bd c6 ab 92 3d 67 89 2b be fb f1 63 3b
       -0.06751409 0.071616694 -0.16751634 0.0034781683
000330 17 30 97 3d 76 40 12 bd 75 79 04 3e d3 de 6b bd
       0.07382219 -0.035706006 0.12936957 -0.05758555
000340 e0 46 9b bd dd dc a3 bd 75 8c 08 be 99 24 00 3e
       -0.07581878 -0.08001111 -0.1333483 0.12513961
000350 6b 4a 5b 3b c1 01 17 be d2 dc 02 3d c5 cf 04 3e
       0.0033461105 -0.14746763 0.031948872 0.12969883
000360 b0 bf e3 bd 09 69 fe bc 7a 98 5e 3c 06 b8 bc bd
       -0.11120546 -0.031055944 0.013586158 -0.09214787
000370 07 df 38 3d 72 bf 38 3e c7 c4 3c be ed 16 ce bd
       0.04513457 0.1804178 -0.1843444 -0.100629665
000380 49 50 04 3c 92 e4 17 bb e6 2c 3c bd 43 39 03 3d
       0.008075782 -0.002317701 -0.045941256 0.03203703
000390 ce 9a ea 3c 23 20 b0 bd b1 90 4f be da 02 85 bd
       0.02863827 -0.085998796 -0.20270039 -0.064946845
0003a0 dc 20 e4 bd 57 65 b9 3d 0d 75 d0 3d 27 d1 ca ba
       -0.1113908 0.09052532 0.10178576 -0.0015473709
0003b0 93 59 8a 3d 22 03 cf 3d 31 7d 77 3d e0 2a 19 bd
       0.06755366 0.101080194 0.060422126 -0.037394404
0003c0 bd 8b 28 3d de b1 af bc 97 f5 8d 3b 4b b2 60 3c
       0.04114889 -0.021447118 0.004332255 0.013714383
0003d0 5c 73 05 3e 06 79 e9 bd 68 8c 4e be 3d ad e2 bd
       0.13032287 -0.114000365 -0.20170748 -0.11068199
0003e0 83 cb c2 bc 1d 4d 4f 3d 0c 1e 63 3d 4e 51 b5 bd
       -0.023778683 0.05061065 0.055448577 -0.08853398
0003f0 6c c6 53 be fa 60 af bd b3 37 97 3d e4 3f 4a 3c
       -0.2068116 -0.08563419 0.07383671 0.012344334

network_body._body_endoder.seq_layers.2.bias f4 [128]
000000 51 2f 12 3c f7 75 a4 bb 64 20 6d 3a 31 25 00 bc
       0.008922414 -0.0050189453 0.0009045659 -0.007821367
000010 06 ae 0f bb fc 9e 33 3c 4b ac 0e 1c b0 96 82 bc
       -0.0021923794 0.010963198 4.720654e-22 -0.015940994
000020 00 00 00 00 93 31 30 3b d7 d8 24 b7 62 51 a3 3a
       0.0 0.0026885017 -9.825649e-06 0.0012460167
000030 b5 17 3b bb c5 a6 f5 3b e4 25 71 3c 31 68 83 92
       -0.0028548066 0.007496687 0.0147185065 -8.292947e-28
000040 29 3c 94 bb ef d8 4e 3b 18 94 1c 32 2c 8f cd bb
       -0.004523773 0.0031562408 9.114068e-09 -0.006273171
000050 0e 05 98 3b ac 79 a6 3b 1d 2c b2 bb ab 22 47 3c
       0.0046392744 0.0050804224 -0.0054373876 0.012154262
000060 ed 44 ca bb ed 0b 5e bb 17 76 e4 bb b1 de 94 3a
       -0.0061727674 -0.003388162 -0.006972085 0.0011357871
000070 9e 93 a6 bb 18 24 26 bc 20 a3 ba b7 ac 6c cd bb
       -0.0050835153 -0.010140441 -2.2248889e-05 -0.006269058
000080 c9 ae 8d bb e9 d9 cc bb f8 86 08 3a 64 d6 97 ba
       -0.0043238145 -0.006251563 0.00052081 -0.0011584279
000090 ff ba 53 bb 00 00 00 00 b8 b8 06 bc 7b 0c fc bb
       -0.0032307503 0.0 -0.008222751 -0.0076919175
0000a0 ce 39 40 3b 16 07 e0 bb 3d a9 98 bb 94 69 74 39
       0.002933133 -0.006836782 -0.0046588467 0.00023308984
0000b0 68 7f 03 bc d1 a2 4c bb 34 f4 b3 bb 38 aa 64 bb
       -0.0080259815 -0.0031224976 -0.0054917578 -0.0034891497
0000c0 dc b7 13 bb b8 7b a6 3a 30 b5 14 bc a6 94 b2 b9
       -0.0022540009 0.0012701666 -0.009076402 -0.00034061557
0000d0 2f 27 74 b7 d2 84 11 bc 9f 8f 06 bc 21 8e 70 b8
       -1.45526565e-05 -0.0088817645 -0.008212953 -5.7352827e-05
0000e0 9f 18 33 8a 39 14 cd 3b d2 53 c1 3a 7b b5 54 bc
       -8.623167e-33 0.0062585142 0.0014749712 -0.012982721
0000f0 d7 a3 15 b3 62 a2 01 bc a2 2c a3 bb f7 48 02 bc
       -3.4840777e-08 -0.00791225 -0.004979686 -0.0079519665
000100 64 8a 73 3b fc 80 b5 bb a7 f3 c9 bb c0 98 88 3b
       0.0037161345 -0.005539058 -0.006163079 0.0041686
000110 51 56 93 bb 85 dd 14 bc 51 43 d9 b5 13 1f 02 3b
       -0.0044963737 -0.0090860175 -1.6187352e-06 0.0019854947
000120 9e a4 8b 2f f5 b7 5f bc 00 00 00 00 6b 06 23 bc
       2.540092e-10 -0.013654699 0.0 -0.009950261
000130 87 46 9d 3b bd 08 45 b8 39 cb e4 bb 95 bb 87 3b
       0.0047996673 -4.69766e-05 -0.006982234 0.0041422346
000140 7b 5a 48 3b bf f6 8b 3c 74 a0 ec 3a ca d2 e6 ba
       0.0030571509 0.017085431 0.001805319 -0.0017610427
000150 8c 70 86 39 7a 70 bd ba 05 c5 2f 39 0d 69 3a 3b
       0.00025642326 -0.0014453076 0.00016762696 0.0028443963
000160 53 f0 5e bc f9 94 73 b7 10 72 a1 3b 27 e4 ac 93
       -0.013607102 -1.4518614e-05 0.0049269274 -4.364388e-27
000170 b8 df 6f bb b2 ee 95 8d 3c 62 66 b7 32 e6 96 bb
       -0.0036601853 -9.240298e-31 -1.373194e-05 -0.004605078
000180 45 9d ed bb c9 25 ab bb 3a 70 d1 39 d1 0d 15 3b
       -0.007251414 -0.00522301 0.00039947202 0.002274383
000190 7e 92 07 bb 38 90 c7 bb 08 46 0b bc 52 8f a3 bb
       -0.0020686681 -0.0060901903 -0.0085005835 -0.0049914503
0001a0 ea 21 41 3c 58 cb be bb 31 92 91 bb d7 5f 03 bb
       0.011787871 -0.0058225803 -0.004442476 -0.0020046139
0001b0 12 4f 71 3a e3 d5 80 3c c5 db 4f bb 92 dc 26 bc
       0.0009205203 0.01572699 -0.0031716686 -0.010184424
0001c0 83 8f fa bb 11 03 2d bb 81 73 97 b9 ef 81 e1 39
       -0.0076465025 -0.0026399533 -0.00028887021 0.00043012152
0001d0 38 18 03 ba 0b 0e b3 a0 7c 6b 9c bb 0f b3 9a bb
       -0.00050008623 -3.0333072e-19 -0.0047735553 -0.0047210525
0001e0 94 e9 d3 a8 60 08 df 9e 78 21 51 bb 7c 32 bd 3b
       -2.3527004e-14 -2.3614507e-20 -0.0031910818 0.0057738405
0001f0 75 35 06 bc 05 a1 7c bb 90 9f 29 b8 07 a3 60 3b
       -0.008191456 -0.0038548124 -4.0441344e-05 0.003427686

network_body._body_endoder.seq_layers.4.weight f4 [128, 128]
000000 34 71 8e 3c 9b da 04 be 91 8b eb bc 64 76 ac 3d
       0.017387964 -0.12974016 -0.028753074 0.08421019
000010 15 e2 c6 bb 6d 59 b7 3d 1c f5 20 bc 3b 77 19 3d
       -0.0060694315 0.089526035 -0.009824064 0.037467223
000020 b3 5c a9 3c b4 1e 87 bd ff 27 02 3c a0 90 08 bd
       0.020674085 -0.06597653 0.007944106 -0.03334105
000030 ee 3e 48 bc e0 f5 73 bc 64 4c 6c 3e d1 1d 1e 3d
       -0.012222035 -0.014890164 0.23076016 0.038602654
000040 6e 45 7e 3d e6 0f e9 3d a3 63 ba bd bd b4 8d 3d
       0.062077932 0.113799855 -0.091010354 0.06919239
000050 a1 e2 e1 bc a8 26 a1 bd 5b 65 89 bd 7e ed ba bd
       -0.027573885 -0.07868701 -0.06708785 -0.09127329
000060 4c d8 15 be b2 7e db 3c c7 74 f1 bd 4b 81 a3 bd
       -0.14633292 0.026793811 -0.11789852 -0.07983645
000070 75 52 12 bd 32 23 15 3e 8b d9 e9 bc a3 c5 0d bd
       -0.03572317 0.14564207 -0.028546115 -0.03461231
000080 cf c4 a0 bd 92 7a 0e 3d e6 8f 00 bd 56 5e 6a bd
       -0.07850038 0.03478486 -0.031387232 -0.057218872
000090 74 d4 83 bd fe c5 6d bd 01 48 01 bc ed 98 2c bd
       -0.064370066 -0.05805015 -0.007890702 -0.04213803
0000a0 2f 72 c1 3d 43 5d 6e be 0e 71 0e bc a8 79 47 bd
       0.09445607 -0.23277764 -0.0086939465 -0.048700005
0000b0 ab 75 d3 3d fa f4 30 bd 61 b7 f5 3d d1 d9 e6 3c
       0.10325178 -0.043202378 0.119978674 0.028180035
0000c0 c9 8b 2d be 72 86 9e bc 59 02 f9 bd 54 32 a8 bc
       -0.16947855 -0.019351218 -0.12158651 -0.02053181
0000d0 ec 90 c5 3c ee 01 cf bc a3 ab b4 3d 8c b7 21 3e
       0.024116956 -0.025269475 0.088217996 0.15792674
0000e0 9a 44 c2 bd 2b 5d a4 bc 83 10 05 3c f6 64 0d be
       -0.09485741 -0.020063957 0.0081216125 -0.13808045
0000f0 88 93 9b 3c 3e 8c 5f 3d 91 d0 d7 3d f4 d7 64 bb
       0.018991247 0.054577105 0.10537828 -0.0034918757
000100 4f ad 8c bd 9b b4 06 3e be 2c 31 3d 63 bd 23 3c
       -0.068689935 0.13154833 0.04325556 0.009993884
000110 1c e5 1e bc 08 81 7c 3d 82 51 d5 3c 5f 0d 5d 3d
       -0.009698179 0.06164649 0.026039843 0.05396783
000120 15 34 a3 bd d3 8a a1 3c 52 62 f3 3d 19 0f ef bd
       -0.07968918 0.019719517 0.118839875 -0.116728015
000130 cd 57 1e bd b1 61 e4 bd 4e ab 8a 3d 87 af 87 3d
       -0.038657952 -0.11151446 0.06770955 0.06625276
000140 fc 78 44 3d ae 45 15 be 75 25 4a bd 5c eb 82 bc
       0.047966942 -0.14577362 -0.049352128 -0.015981369
000150 97 5a d1 bd 81 02 82 3c dc 76 c6 bd 17 9e 2c 3d
       -0.10222357 0.015870335 -0.096906394 0.042142954
000160 22 f6 17 bd ca 7f 05 3e 59 a7 a7 bd 15 51 b3 bc
       -0.037099965 0.13037029 -0.08186216 -0.021889249
000170 69 c5 43 3d 2d 6f 6d bd b4 4e 86 3e d8 d2 8f 3d
       0.047795687 -0.057967354 0.2623192 0.07022637
000180 a5 1a 2c 3d de aa 58 be f5 6c 54 3d 16 89 d8 ba
       0.042017598 -0.2115893 0.051861722 -0.0016520347
000190 5c f7 18 be 59 f5 b7 bd 3c 81 70 bb 7d fc 7c bb
       -0.1493811 -0.08982343 -0.0036698123 -0.0038602643
0001a0 cc d5 be bd a8 09 42 3d 4e 52 dc 3d 03 07 0f bc
       -0.09318122 0.04737249 0.10757886 -0.008729699
0001b0 05 0d 76 3d 9e dd d2 3d 49 28 fd bd b1 59 a2 bd
       0.06007101 0.102961764 -0.123611994 -0.079272635
0001c0 a1 eb fa 3d cf b5 09 3d d3 1d b2 bd 51 7f 8c be
       0.12251974 0.03362065 -0.08697095 -0.27440885
0001d0 53 8f 85 3d bc f6 a8 bc 2c 01 e1 bb 47 84 32 bd
       0.065214776 -0.020625465 -0.006866595 -0.04358318
0001e0 ce f9 be bd 22 fa 07 be f3 3c 4b 3d 26 07 a9 3d
       -0.0932499 -0.13279012 0.049618673 0.082533166
0001f0 a4 a8 26 3d db 46 3b 3d 3f a7 ab bd f4 4f df bd
       0.040688172 0.04572187 -0.08381509 -0.10903922
000200 44 4a a0 3d d9 00 0e bd 9e e3 c8 3d ce 1c aa 3c
       0.07826665 -0.034668777 0.098090395 0.020765688
000210 f2 7f dc 3d fd 34 0a bd 0f e7 a8 bd ba 8b 91 3d
       0.10766591 -0.03374194 -0.08247196 0.07106729
000220 1b fb 28 3d ec 3b 82 3d 4a 59 99 bc 24 fe 25 bd
       0.041255098 0.063590854 -0.018719334 -0.04052557
000230 9e da 7b bd b9 20 37 3e 2c 70 45 3c bf 32 5d 3d
       -0.061487786 0.17883576 0.01205067 0.054003473
000240 7c 80 46 3d 9b 2f 19 3d af b7 b1 bd d3 ae 8b 3d
       0.048462376 0.037398916 -0.08677613 0.068204544
000250 19 01 fe 3d 86 43 c8 3b 97 38 8f bc 8c c0 e4 3c
       0.12402553 0.006111565 -0.017483039 0.027923845
000260 99 e7 04 3d 3c 6b 2f bd cb 29 03 bd 70 49 cc 3c
       0.03244743 -0.042826876 -0.03202228 0.024937361
000270 80 6b 82 3d 3c ad 90 bd 9e 29 50 bd fc 1e bc bd
       0.0636816 -0.07064292 -0.05082094 -0.09185597
000280 8b 19 31 3c 50 04 0a 3e d9 ff 3d 3d 7d 0d d2 3d
       0.010809313 0.13478208 0.046386573 0.10256479
000290 e4 5c c6 3c 5e 2d ad 3d 89 d7 64 bb d7 bf 72 3d
       0.024214216 0.08455919 -0.0034918508 0.059264984
0002a0 40 ce 64 3c ec c6 95 bc 13 9a 20 be 80 ab 41 3d
       0.013965189 -0.01828333 -0.15683775 0.047282696
0002b0 f2 07 09 be e8 4b 8f 3d 99 7b 53 bd 98 46 a7 bc
       -0.13381937 0.069969 -0.051631544 -0.020419404
0002c0 08 1a 02 be 82 a3 8b 3d f9 1c 26 bd 88 57 91 bd
       -0.12705243 0.06818296 -0.040554974 -0.070967734
0002d0 26 69 34 bd f8 71 85 bd 57 bb 13 be 90 1e 38 3d
       -0.04404559 -0.065158784 -0.14426933 0.04495102
0002e0 7a 2e 36 bd bd 3a 7f bc f6 1a 11 be 9e d9 8a bc
       -0.044477917 -0.015577969 -0.14170441 -0.016949471
0002f0 1d 9a 44 3e 26 a7 2c be 00 db a6 3d bd 0f cc 3d
       0.19199415 -0.16860637 0.0814724 0.09963939
000300 85 6d ef bd 46 e5 3f be 75 f7 37 bc a7 ad 9f 3c
       -0.11690811 -0.18739805 -0.011228432 0.019491984
000310 af 6d 85 3d 2b 1e 1d bd 63 40 c9 3c ce 6c 89 bd
       0.06515061 -0.03835885 0.024566835 -0.06710206
000320 22 e8 a3 3d 11 c6 89 bd 22 17 bc 3d aa 97 45 3b
       0.0800326 -0.06727231 0.091841 0.0030150213
000330 35 26 7a 3e c7 96 51 be f0 62 c5 bd 56 89 43 bd
       0.24428637 -0.20467673 -0.096380115 -0.047738396
000340 e3 d0 9e 3d 30 8d b1 bc 10 71 66 bd 66 e7 fe 3c
       0.07754686 -0.021673769 -0.05626017 0.031116199
000350 e7 ad ee 3d e4 c0 8f 3c e6 f0 14 3c b7 36 84 bd
       0.11654263 0.017548032 0.009090638 -0.064557485
000360 82 23 cf bc 82 0d 8f bc c1 2b d1 3d 93 b2 2e bd
       -0.025285486 -0.017462496 0.102134235 -0.04265077
000370 96 6e ce bb 1f a7 54 bd f3 a8 87 bd df df 8f bd
       -0.006299804 -0.05191719 -0.066240214 -0.07025122
000380 86 e8 1c 3e 80 f9 2c bd 30 dd 05 3e d1 a8 e2 bd
       0.15323076 -0.04223013 0.13072658 -0.110673554
000390 e9 98 11 3d 2f bb f3 bd d7 8a d4 3c a6 26 30 3e
       0.035546217 -0.11900937 0.02594511 0.17202243
0003a0 f5 0b 2f bd 31 a2 fa bc 77 14 c9 bc 0a a1 2b 3d
       -0.042736012 -0.030594917 -0.024545891 0.041901626
0003b0 f3 7e ac bd 13 82 e6 3c d7 c9 18 be c6 b9 b6 3d
       -0.08422651 0.028138196 -0.14920746 0.08922152
0003c0 19 48 93 bd ad 73 2d 3d 16 cc 90 bc 5b 94 37 bd
       -0.07191486 0.042346645 -0.01767544 -0.044819217
0003d0 e8 b5 90 3c c2 6e 30 3d 32 df 37 bd 1a 1d 73 3c
       0.017664865 0.043074377 -0.04489059 0.014838481
0003e0 74 fa 4a 3c 76 0b f2 bb f1 15 80 bd e3 f6 80 3d
       0.012388814 -0.00738662 -0.06254185 0.0629709
0003f0 6f a7 00 be ff 8c 8e bd 59 3f 18 3d 6b 5d 3d bd
       -0.12563871 -0.069604866 0.037169788 -0.04623167

network_body._body_endoder.seq_layers.4.bias f4 [128]
000000 10 49 0d bc cd b2 74 3b 40 b9 e2 39 84 88 b1 bb
       -0.0086233765 0.003733802 0.000432441 -0.0054178853
000010 91 50 8d 3b be 70 15 bc 41 37 17 bc 88 aa 34 bc
       0.004312583 -0.009121118 -0.009229482 -0.011026986
000020 e8 3d 89 bb 91 66 ff 3b 08 02 d5 bb 23 49 44 bb
       -0.004188288 0.0077942093 -0.0065004863 -0.002995082
000030 bd cc 12 3a e3 3c 5c 3c 68 72 8b bb b4 2a 95 b8
       0.00055999664 0.013442251 -0.0042555816 -7.112828e-05
000040 05 f2 e5 39 df 43 dc 3b f3 64 8c bb a4 6e d6 3b
       0.00043858602 0.006721958 -0.004284495 0.006543951
000050 77 a6 ae ba 93 c7 9e b3 a3 51 4e ba 43 73 b6 3b
       -0.0013324757 -7.393751e-08 -0.0007870441 0.0055679395
000060 14 3e 84 ba 33 cd 93 ba 27 ad 4c bc 41 29 07 b9
       -0.0010089302 -0.0011276364 -0.012492455 -0.00012889972
000070 45 b5 ad bb 06 88 9a ba db 6f b7 3a 49 df 8d bb
       -0.00530115 -0.0011789806 0.0013995128 -0.004329596
000080 33 a5 7d bb 3d 71 fd bb 9e 9b 3a 3c bd 77 17 bc
       -0.0038703203 -0.0077344463 0.011389641 -0.009244856
000090 7c b0 68 bc b7 02 00 bb 8b 61 8c bb d3 8e 57 bb
       -0.014202233 -0.0019532868 -0.004284089 -0.0032891526
0000a0 ed c3 63 a6 e5 57 b8 3b 44 60 4c 3b 77 4b 45 bc
       -7.9021975e-16 0.005625712 0.0031185308 -0.012041918
0000b0 f4 3e 9b b9 83 93 07 3c f2 b5 07 3c c2 c8 8d bb
       -0.00029610808 0.008274916 0.008283125 -0.0043269107
0000c0 42 27 7a bb 1b cb 4c bb 23 b1 78 3c 9d ce e1 3a
       -0.0038170372 -0.003124899 0.015178951 0.0017227713
0000d0 fc b9 a4 3b c0 5a 91 3b 75 45 f9 bb f3 e2 30 bc
       0.005027054 0.004435867 -0.007607157 -0.010796296
0000e0 81 a9 1c bb 35 42 1c bc 3b e3 e5 3b 20 72 62 3a
       -0.0023904743 -0.009537269 0.0070156134 0.0008638222
0000f0 ed 48 ff ba a4 33 f1 3b a3 4a dc ba c5 17 cb ba
       -0.001947669 0.0073608924 -0.0016806911 -0.0015494755
000100 f9 de 88 bb 83 30 b2 bb 81 40 2e bc e6 8c 1d af
       -0.004176971 -0.005437912 -0.010635496 -1.4329124e-10
000110 6a e6 67 bb 79 b3 e2 3b 44 e7 f2 3a d7 e3 c0 bb
       -0.003538514 0.0069183675 0.0018532057 -0.0058865356
000120 42 7e 14 bc 85 87 42 bc 19 b3 90 bb b2 4e 6d 3b
       -0.009063305 -0.011873131 -0.0044158814 0.0036210236
000130 5a 02 08 bc d1 1f 4a 3b db 19 a9 bb dc c8 10 3c
       -0.008301342 0.0030841718 -0.005160553 0.008836951
000140 2d 1f 6a 3b 7d 34 d4 bb 56 a3 5b 3b 4b 73 99 bb
       0.0035724149 -0.0064759837 0.0033514104 -0.0046829334
000150 cb 76 61 bc f5 fd 36 ba c3 2a d1 bb 82 c9 46 bc
       -0.013761233 -0.00069805916 -0.0063832714 -0.012133004
000160 cb 8f cd 3a 22 d6 42 bc f6 c0 a4 39 71 10 7d bb
       0.0015683112 -0.011891874 0.00031424285 -0.0038614536
000170 f7 75 1b bc 5c 94 f4 3b 6d 54 9d 39 cf d0 8b 3b
       -0.009488574 0.007463975 0.00030008276 0.0042668353
000180 85 72 3f bb 82 c8 c1 3b c4 db 53 bb 9d 23 10 bb
       -0.0029212546 0.005913795 -0.0032327035 -0.0021993883
000190 29 e9 8a bb a6 37 94 bb cd e6 00 3a 72 10 99 28
       -0.0042392206 -0.0045232354 0.00049172045 1.6993544e-14
0001a0 27 8b 5e bb 43 99 7f 39 fd d1 27 3a 7a 96 3f ba
       -0.0033957453 0.0002437579 0.0006401835 -0.00073084945
0001b0 79 9c 34 bc 50 3f ee bb 4a 4b b1 39 d7 26 07 3c
       -0.011023634 -0.007270731 0.00033816166 0.008249006
0001c0 dd e5 55 bb 05 fe 10 bc 0d 44 bd bb cd f8 26 b8
       -0.003263823 -0.0088496255 -0.0057759346 -3.9809198e-05
0001d0 50 30 95 3b 87 03 c4 bb 9d 29 8d b3 4a aa e5 bb
       0.0045528784 -0.005981866 -6.5733936e-08 -0.0070088254
0001e0 61 af a3 ba 83 a7 a0 3b a9 ab 5e bb 8c 07 d9 36
       -0.001248818 0.0049027815 -0.003397683 6.4679825e-06
0001f0 a9 d4 6a 1e 0d 26 e9 bb e7 28 3f 3b 49 74 ed 3a
       1.2431834e-20 -0.0071151317 0.0029168667 0.0018116321

action_model._continuous_distribution.log_sigma f4 [1, 2]
000000 c3 b6 24 3d 5d f2 3c 3d
       0.040213358 0.046129573

action_model._continuous_distribution.mu.weight f4 [2, 128]
000000 a3 76 d1 3c 50 4f 98 bc e8 6d f7 3c e2 b9 22 bb
       0.025569266 -0.018592507 0.030203775 -0.0024830033
000010 9b c2 42 bc eb 1a 9e ba 2f 55 ac bc db bc fb bb
       -0.011887218 -0.0012062466 -0.021036712 -0.0076824254
000020 6a 95 33 3c 18 46 53 bc c0 a6 8a 3c 99 73 85 bc
       0.010960916 -0.01289513 0.016925216 -0.016290473
000030 8a 34 87 bc ea bd d6 bc 93 14 11 3c fa 7d 61 bc
       -0.016504545 -0.026213605 0.008855003 -0.013762945
000040 04 f8 71 3c 4d 7d 82 bc f3 e9 0e 3c 22 3a 9d 3b
       0.014768604 -0.015928889 0.00872277 0.0047981897
000050 f7 4e d4 3a 10 b1 ee b9 66 26 1a 3d a4 9e 92 bc
       0.001619785 -0.0004552682 0.037634276 -0.017897911
000060 96 60 b7 3b 53 cf 28 bc 91 65 e1 bb 61 5d 7e 3c
       0.0055962307 -0.010303336 -0.0068785627 0.015525193
000070 77 61 1f 3b 38 ae 2f bc 45 7b e9 3b 7f 41 f7 3b
       0.0024319568 -0.010722689 0.0071252906 0.0075456495
000080 f8 d5 2c 3c f2 b2 09 3a 3e 16 c7 bb ad f3 44 3c
       0.010549061 0.00052528 -0.0060756495 0.012020987
000090 5d 3d 94 3c 40 80 0f bd b2 02 c6 3c de eb ca 3c
       0.018095667 -0.035034418 0.024171207 0.024770673
0000a0 9f 93 1e 3c db 24 0d 3c 0d da 26 bd 9c 1b b2 3b
       0.00967875 0.008614744 -0.040735293 0.00543542
0000b0 70 e4 90 bc d8 90 b5 bc 63 c3 59 3b 40 09 dc ba
       -0.017687052 -0.022163793 0.0033228032 -0.0016787425
0000c0 b1 2b d5 bc 58 84 c5 bc 42 e4 ba 3c 22 a0 47 bc
       -0.02602181 -0.024110958 0.02281392 -0.012184175
0000d0 c1 bb ca bb d9 19 8d 3c a3 11 81 ba 08 a9 fc bb
       -0.006186933 0.01722424 -0.0009847175 -0.00771058
0000e0 ee ae fb 3c 22 52 08 3b 68 d4 76 bc a6 06 71 bc
       0.030723061 0.0020800908 -0.01506529 -0.014711058
0000f0 75 e6 c4 bc 82 1e 1d bc 4f ee 71 bc cb 31 b9 bc
       -0.024035672 -0.009589793 -0.01476629 -0.022606751
000100 a5 55 80 3c fa 19 14 b8 41 99 2e b9 55 4f 8d 3b
       0.015665838 -3.5310142e-05 -0.00016651025 0.0043124356
000110 31 34 8b 3c 82 91 6f bc 02 b4 e9 3c 66 a9 96 bb
       0.01699266 -0.014622094 0.028528217 -0.0045978306
000120 b9 2a 3c bd 15 8c f5 bb bb 97 ab bb d0 a1 08 bd
       -0.04593918 -0.0074935057 -0.0052365935 -0.03335744
000130 15 ce 66 39 70 0a 43 3c 39 fa cf bb 2e 5c af bc
       0.00022011281 0.011904344 -0.0063469675 -0.02140626
000140 0e c8 5d ba 82 0d bb 3b 66 2f 23 bc a7 fc e2 3b
       -0.00084602914 0.0057083974 -0.009960031 0.006927091
000150 10 ec 42 3b 0b 8a a0 3c 89 23 0b bc 65 90 5b bb
       0.0029742755 0.019597074 -0.008492359 -0.0033502814
000160 ef a0 69 bb f2 22 87 3b 6c 45 57 3c b1 f5 76 bc
       -0.0035648902 0.004124039 0.01313911 -0.015073226
000170 c2 fe 1a 3c d0 5a 36 bc ac 4c d9 3c 23 16 95 3c
       0.009460153 -0.01113005 0.026525818 0.018199032
000180 76 8a d8 ba ed 27 a5 3c ee b0 82 bb 55 6e 2b 3d
       -0.0016520757 0.02016064 -0.003988377 0.041853268
000190 97 f7 01 3d 93 7a 5e 3b d5 07 de bc f3 d1 0c bd
       0.03173026 0.0033947572 -0.027103344 -0.03437991
0001a0 c7 05 d8 bb e3 71 09 3b 46 df e0 3b 3a df d7 3c
       -0.0065924856 0.0020972423 0.006862554 0.02635156
0001b0 19 fc 52 ba 4e a3 59 bb 06 fd d2 bb af 39 60 bc
       -0.000804843 -0.003320891 -0.006438854 -0.013685628
0001c0 fc 44 0a 3d ec fd 33 bc 63 22 98 bc 8a ab 07 bc
       0.033757195 -0.010985833 -0.018571084 -0.008280644
0001d0 72 c3 39 bc 3e 4c 3e 3d 6e e9 4c 3c c2 51 61 bc
       -0.011338102 0.04645943 0.012506826 -0.013752403
0001e0 96 33 f5 bc 7e b2 a0 bb a7 57 3d 3c 7f 44 e3 bc
       -0.029931825 -0.0049040904 0.0115565425 -0.027742622
0001f0 7f 34 02 3c 43 29 38 bc 3b 54 be 3c 70 61 88 bc
       0.007947086 -0.011240306 0.023233524 -0.016648024
000200 76 c3 35 3c 9c 48 69 bc ab 3a 8b bc 48 ca ad 3c
       0.011093965 -0.014238503 -0.016995749 0.02121462
000210 5e 80 17 bc 69 cd 20 3d cc 5a bd 3b 64 f5 4f 3b
       -0.009246914 0.039258394 0.005778646 0.0031731958
000220 41 10 3d bc 3c 53 c1 bc f2 3d 07 bc 8f 8b c2 b9
       -0.01153952 -0.02359926 -0.008254515 -0.00037106543
000230 1c fb 64 3a 17 c8 34 3c 1d 0a 85 bc 78 c1 2d 3d
       0.0008734928 0.011034033 -0.016240174 0.042420834
000240 b1 cc 4e bc f7 87 ea 3c d4 49 16 3b 5f 30 e7 bc
       -0.012622044 0.028629286 0.0022932189 -0.028221307
000250 9d be a4 bb 26 2f f4 b9 46 82 da 3a b5 65 3a bc
       -0.0050276057 -0.00046574435 0.0016670905 -0.011376788
000260 1e ef 00 bb 72 a1 87 bb 16 ea ad 3b 1c 57 4e bc
       -0.0019673775 -0.004139119 0.0053074462 -0.012594011
000270 27 df d0 bb 01 98 bd bb 2c 8d a0 bc 39 44 c9 3c
       -0.006374258 -0.0057859425 -0.019598566 0.024568664
000280 de 13 4a 3c b3 32 9b bb a1 c2 f3 bc 92 16 06 3c
       0.012333838 -0.0047362684 -0.029755892 0.008184092
000290 47 cd 46 bb a1 78 39 3b de 1c a9 bb 2e 75 8c 3c
       -0.0030334757 0.002830066 -0.005160912 0.01714572
0002a0 7a f0 a8 bc 25 d0 c9 bc 11 d7 df ba 69 15 65 3b
       -0.02062248 -0.024635384 -0.0017077645 0.0034955388
0002b0 02 30 c9 bb 03 3f f3 bc f6 d6 ad bc 1e ee 5a bb
       -0.006139756 -0.029693132 -0.021220665 -0.003340609
0002c0 ee 07 ac 3a 43 c4 2f 3c b3 81 04 bd b4 69 20 bc
       0.0013124922 0.010727945 -0.032350253 -0.009790827
0002d0 99 9c 3b bc 76 42 d4 bc bd 00 08 3c 20 b4 ab 3c
       -0.01145091 -0.025910597 0.008300957 0.020959914
0002e0 b2 8b 78 3b aa df ed 3b 26 ed a5 bc e3 5f f2 3c
       0.0037925062 0.007259329 -0.020254683 0.029586738
0002f0 12 74 bd ba e0 ed 73 bb 83 e1 fc 3c 9e ae e5 3c
       -0.0014454147 -0.0037220642 0.030869251 0.028037366
000300 26 bf fc bb 9a a2 a3 3c 36 a7 d9 b7 6e bd 5d bb
       -0.0077132164 0.019974995 -2.594628e-05 -0.0033834833
000310 5f 2f 88 3c 56 f4 db bc 21 f2 0f bc a9 07 b6 b9
       0.01662415 -0.026849907 -0.008785755 -0.00034719452
000320 35 df c6 3c 2f 6a b3 3b c1 73 a4 bc c8 0f 3c 3a
       0.024276355 0.0054753046 -0.020074727 0.00071739824
000330 68 1b 91 bc 41 79 cc bc c1 ec 92 3a a8 3c 0f bd
       -0.017713264 -0.024960162 0.0011209474 -0.034969956
000340 3a 5a 71 bc cb 5c 62 ba 35 83 0a 3c 57 45 4a 3c
       -0.014730984 -0.0008635043 0.008454134 0.0123456335
000350 3c 2e d6 ba 75 01 9e bc ef eb 6a 3a 15 72 dc 3b
       -0.0016340683 -0.019287804 0.00089615484 0.006727467
000360 d1 01 16 ba f2 1d 52 3c 17 40 31 3b 1d db 57 3c
       -0.00057223166 0.012824522 0.0027046257 0.013174799
000370 88 f7 de 3a 07 d3 97 bc bf 3f 0e 3a 8a bd d0 bc
       0.0017011026 -0.018533243 0.0005426369 -0.025481004
000380 84 1f 5a bc 97 ac af bb 08 ab 37 bb 83 5f 23 bb
       -0.013313178 -0.0053611505 -0.0028025527 -0.0024928756
000390 d9 66 6d 3b a3 27 08 3c 50 cc 33 bb 82 ae db 3b
       0.0036224632 0.008310231 -0.0027435012 0.0067041526
0003a0 de da c6 3b 5b 72 c4 3c 6f db 23 bc 06 14 81 bc
       0.0060685715 0.02398031 -0.0100010475 -0.015756618
0003b0 57 30 2a bb d7 2b 09 3d 80 20 d2 bb d0 b1 c9 bc
       -0.0025968754 0.033489075 -0.0064125657 -0.02462092
0003c0 60 1a a9 bb e7 29 79 3c 0e 11 89 3c f7 18 8a bc
       -0.005160615 0.015207744 0.016731765 -0.016857607
0003d0 c2 fa 55 bc e8 9c df 3c a2 70 7c bc 7b 27 6c 3b
       -0.013060274 0.027296498 -0.015407713 0.0036034274
0003e0 2a 67 fa 3b 83 a8 81 bc 59 b5 e5 3c ee 99 20 bd
       0.0076416926 -0.015827423 0.028040575 -0.0392093
0003f0 a8 7b da 3b 90 77 a4 3c ac ca b9 bc a3 12 1e bc
       0.006667573 0.020076543 -0.02267965 -0.009647998

action_model._continuous_distribution.mu.bias f4 [2]
000000 e9 9e 11 bb c1 f7 1b bc
       -0.0022219962 -0.009519518

action_model._discrete_distribution.branches.0.weight f4 [1, 128]
000000 a3 6a 0b 3a cb 21 37 ba 10 19 a5 39 38 0a d6 3a
       0.00053183193 -0.00069859315 0.00031489925 0.001632995
000010 7a b3 35 bb 14 b5 0a 37 1f 2b 06 bb 45 02 57 bc
       -0.0027725385 8.2676015e-06 -0.002047248 -0.0131231
000020 aa c8 fa bb d8 a8 1b bc e8 c1 ef bb 5a 6a 61 bb
       -0.0076533156 -0.009500705 -0.0073168166 -0.0034395666
000030 f4 e6 0f 3c 2b c2 5b 3c fa dc 55 3c 7b 25 c3 ba
       0.008783091 0.0134129925 0.013053173 -0.0014888489
000040 9a 3a 78 b9 f8 92 1f 3b 03 07 af 3b 1b f8 40 bc
       -0.00023672954 0.0024349075 0.005341412 -0.011777903
000050 e4 7c 04 3b 5b b4 6d bb 3b 53 70 3c 50 21 20 bb
       0.0020216042 -0.003627083 0.014668281 -0.0024433918
000060 38 1b d2 bb 5d 00 5f bc 85 18 de 3a d8 f4 4e ba
       -0.006411936 -0.013610926 0.0016944563 -0.0007894761
000070 2d d7 27 3c ad cc 58 bc f2 0d d6 ba 83 24 3c bc
       0.010244173 -0.013232392 -0.001633106 -0.011483314
000080 07 a1 fc 3b 77 ca 2c bc e6 da 1f 3c db e9 41 3c
       0.0077096256 -0.010546318 0.009756779 0.011835541
000090 f8 fd d7 3a 7b 1f 92 3b e7 fe 7b 3b b7 88 13 39
       0.0016478887 0.004459319 0.0038451494 0.00014069943
0000a0 93 97 65 bb 89 25 9e 3a 30 cf 5c 3b d3 04 2d 3c
       -0.0035032972 0.001206563 0.003369283 0.010560232
0000b0 7b f8 0d 3c 97 ce 79 bc ed 59 95 3c d4 bc 43 3b
       0.008665199 -0.015247009 0.018231357 0.002986719
0000c0 42 a9 28 3b ef 97 94 bb df c7 4c 3b 8e d8 3e 3c
       0.002573565 -0.0045347135 0.0031247062 0.01164831
0000d0 c2 b2 56 bc 67 cd 2f 3c 96 c9 0f 3c 97 f2 30 3c
       -0.013104143 0.010730124 0.008776089 0.010800025
0000e0 15 e1 58 bc cb fe 4f bc a8 42 74 3c e9 06 17 bc
       -0.0132372575 -0.012695025 0.01490847 -0.009217956
0000f0 d5 61 79 ba 8a bf ab bb 70 ce 54 3b 77 f3 07 3b
       -0.00095131743 -0.005241339 0.003247168 0.0020744482
000100 6f b2 db bb 77 c2 28 3b e3 18 8f 3a 52 b1 a2 3b
       -0.0067046206 0.0025750676 0.0010917451 0.004964986
000110 dd 56 32 bc d9 7b 1f 3b 32 11 f3 3b e3 e4 55 ba
       -0.010884968 0.0024335294 0.0074178213 -0.0008159412
000120 87 9d c4 bb d3 31 88 39 f2 03 9e bc c2 67 da 3a
       -0.006000224 0.00025977063 -0.01928899 0.0016663002
000130 68 dd cb 3b ba 52 46 3b bd 32 ea 3b 80 18 bc 3b
       0.006221462 0.0030261711 0.0071471618 0.0057402253
000140 7b 3d 4a bb 96 28 35 bb e3 c5 da 3b df 5e 94 bc
       -0.00308594 -0.00276426 0.006676422 -0.018111644
000150 d7 dd ef bb fb 2e 09 bc 54 b5 24 bc bb 86 93 bb
       -0.0073201465 -0.008373017 -0.010052998 -0.004502145
000160 e8 c7 f2 ba 7d 43 7a 3c 58 e0 71 3b 2b ad 9d bb
       -0.0018522711 0.0152748795 0.00369074 -0.004811903
000170 b3 cd dd bb 4e b1 13 bc 43 6a 2c 3b 33 e5 05 3c
       -0.006768906 -0.009014441 0.0026308454 0.008172321
000180 2e 65 b0 3a 6b ae a6 bb 5a 5d 53 3c 5a d2 69 bc
       0.0013457888 -0.00508671 0.012900675 -0.014271343
000190 86 e1 2a 3c ab 5c 0b bc c0 2b 59 3b 2f c1 68 bb
       0.010429746 -0.0085059805 0.003313765 -0.0035515537
0001a0 78 0c 39 3c 02 f5 30 3c 64 15 2f 3c 73 0b 14 bb
       0.011294477 0.010800602 0.010686252 -0.0022589832
0001b0 80 79 6c 38 67 46 d9 3b e3 b5 c6 bb db e6 2d 3c
       5.637994e-05 0.006630707 -0.006064163 0.010614122
0001c0 c5 7b 6e bc 84 a0 83 3a 25 4a 9a bb c8 f4 d3 3c
       -0.014555876 0.0010042344 -0.0047085457 0.025873557
0001d0 f6 9a 38 3b 6d 45 95 3a 5f fd 88 3a bb 47 e2 bb
       0.0028168536 0.0011388488 0.0010451487 -0.0069055236
0001e0 8a 87 35 bc 10 67 74 3b 5f 36 cd bb e1 38 1a 3c
       -0.011079678 0.0037292875 -0.006262585 0.009412975
0001f0 85 d4 74 3c 12 75 70 3c d7 74 bf 3c c5 a5 ad bb
       0.014943247 0.014676349 0.023371143 -0.0052993023

exp_avg f4 [128, 10]
000000 5c a7 11 3c de 7a 17 3b 21 ea 88 3b 49 4b 1f 3c
       0.008889999 0.0023114006 0.004178301 0.009722539
000010 b6 a3 52 3a 6d 52 18 3b 88 3c de 37 8c 04 53 b7
       0.0008035259 0.002324249 2.649265e-05 -1.2577639e-05
000020 00 00 00 00 00 00 00 00 09 d8 a3 1a ce 65 aa 19
       0.0 0.0 6.7764244e-23 1.7618707e-23
000030 65 03 1a 1a cc cc b5 1a 15 03 06 19 9f 21 fc 19
       3.1849196e-23 7.519071e-23 6.92826e-24 2.6069769e-23
000040 c4 9f 66 95 18 18 1f 15 00 00 00 00 00 00 00 00
       -4.6574163e-26 3.21288e-26 0.0 0.0
000050 f4 b8 6a 3c 83 1c 74 3b 9e a3 dc 3b f9 58 77 3c
       0.014326323 0.003724844 0.006733372 0.015096896
000060 b8 0b a4 3a 55 8e 27 3b b2 85 ec 37 94 b5 be b7
       0.00125157 0.0025567014 2.8195649e-05 -2.2734319e-05
000070 00 00 00 00 00 00 00 00 c6 02 16 3c e0 02 1c 3b
       0.0 0.0 0.009155935 0.0023805425
000080 9a 02 8d 3b c8 7f 45 3c c0 a1 95 3a d0 4e 70 3b
       0.0043032886 0.012054391 0.0011416003 0.003666807
000090 cb 91 2c 38 fd fc d9 b7 00 00 00 00 00 00 00 00
       4.1143776e-05 -2.5986223e-05 0.0 0.0
0000a0 0a dc 90 2f 66 a7 96 2e fd 2a 08 2f f3 f0 6d 2f
       2.6349795e-10 6.850946e-11 1.23844e-10 2.1640627e-10
0000b0 bf 5c 78 2d cd fe 97 ab f0 8d 11 aa 31 0e 1b a9
       1.4117762e-11 -1.0799917e-12 -1.2927832e-13 -3.4429223e-14
0000c0 00 00 00 00 00 00 00 00 77 c0 45 92 73 a9 4d 91
       0.0 0.0 -6.239947e-28 -1.6223864e-28
0000d0 fe e2 b9 91 4c cf 1b 92 9a ba 0e 90 7b eb f6 0f
       -2.9327748e-28 -4.916489e-28 -2.8148315e-29 2.4348177e-29
0000e0 07 ed 83 0d 38 53 a5 0b 00 00 00 00 00 00 00 00
       8.130561e-31 6.36809e-32 0.0 0.0
0000f0 ec df 99 0a 97 07 a0 09 67 a4 10 0a 8c e8 92 0a
       1.4817594e-32 3.8525736e-33 6.9642684e-33 1.4146763e-32
000100 2c f9 ce 08 e5 31 14 09 12 ed d3 85 bf 91 54 04
       1.2456754e-33 1.7838312e-33 -1.992943e-35 2.4987404e-36
000110 00 00 00 00 00 00 00 00 b2 3f 16 34 3c 42 1c 33
       0.0 0.0 1.3993011e-07 3.638182e-08
000120 de 3b 8d 33 39 84 ae 33 73 f5 f5 30 86 7c a9 32
       6.576714e-08 8.1265576e-08 1.7895857e-09 1.9730816e-08
000130 c8 cc 64 2f 8c 86 f6 2f 00 00 00 00 00 00 00 00
       2.0809232e-10 4.484274e-10 0.0 0.0
000140 a4 c2 6e 3c 8c 4f 78 3b 49 6f e0 3b 63 da 7b 3c
       0.014572773 0.003788921 0.0068492037 0.015371892
000150 f3 45 ab 3a 0b d4 9e 3b 0a 38 14 38 de 7e 10 b6
       0.0013067111 0.004847055 3.533814e-05 -2.1531519e-06
000160 00 00 00 00 00 00 00 00 b6 4a ed 94 98 c8 f6 93
       0.0 0.0 -2.3960353e-26 -6.229693e-27
000170 e5 0d 5f 94 11 1d d7 94 52 8a 26 93 58 23 d2 92
       -1.1261363e-26 -2.1720917e-26 -2.1020343e-27 -1.3261576e-27
000180 a6 21 20 11 7a 5b 21 90 00 00 00 00 00 00 00 00
       1.2632143e-28 -3.1822122e-29 0.0 0.0
000190 ad 88 52 b7 8f f4 5a b6 de e6 c5 b6 da 30 f1 b6
       -1.2548798e-05 -3.2626883e-06 -5.897934e-06 -7.1880468e-06
0001a0 4a a7 36 b4 22 78 f9 b5 50 1c 02 b3 e7 17 7f b3
       -1.701093e-07 -1.8586909e-06 -3.0293734e-08 -5.9393553e-08
0001b0 00 00 00 00 00 00 00 00 01 0b 11 16 3f d8 16 15
       0.0 0.0 1.1716479e-25 3.0462847e-26
0001c0 26 57 88 15 80 a3 dd 15 9d 5a 8f 13 d3 02 10 94
       5.506746e-26 8.9519147e-26 3.6187627e-27 -7.270699e-27
0001d0 7b a0 50 91 1a 84 a0 8f 00 00 00 00 00 00 00 00
       -1.6457759e-28 -1.5828102e-29 0.0 0.0
0001e0 d0 a1 87 3b ac 0e 8d 3a 06 fd fe 3a fb fc 52 3b
       0.0041391626 0.0010761819 0.0019454069 0.0032194245
0001f0 7d 66 42 39 6b dc be b9 70 da 29 b5 63 c1 9c b6
       0.00018539462 -0.00036403848 -6.3275274e-07 -4.6716755e-06
000200 00 00 00 00 00 00 00 00 6f 0a 30 b5 1b 15 37 b4
       0.0 0.0 -6.558029e-07 -1.7050881e-07
000210 72 7a a5 b4 1f db ab b4 06 95 17 b1 31 05 c9 b3
       -3.0822736e-07 -3.2010664e-07 -2.2058102e-09 -9.360736e-08
000220 b1 bb 2c b1 9d 1e 9e b1 00 00 00 00 00 00 00 00
       -2.5135984e-09 -4.6018855e-09 0.0 0.0
000230 00 00 00 00 00 00 00 00 00 00 00 00 00 00 00 00
       0.0 0.0 0.0 0.0
000240 00 00 00 00 00 00 00 00 00 00 00 00 00 00 00 00
       0.0 0.0 0.0 0.0
000250 00 00 00 00 00 00 00 00 de 62 5c 3c a2 33 65 3b
       0.0 0.0 0.013451306 0.0034973403
000260 be 29 cf 3b 89 ab 89 3c 87 e7 c1 3a df e1 9a 3b
       0.0063221147 0.016805427 0.0014793732 0.004726633
000270 73 63 91 38 84 c3 1e b8 00 00 00 00 00 00 00 00
       6.932663e-05 -3.7852224e-05 0.0 0.0
000280 00 00 00 00 00 00 00 00 00 00 00 00 00 00 00 00
       0.0 0.0 0.0 0.0
000290 00 00 00 00 00 00 00 00 00 00 00 00 00 00 00 00
       0.0 0.0 0.0 0.0
0002a0 00 00 00 00 00 00 00 00 02 1a ca bb 89 2f d2 ba
       0.0 0.0 -0.006167651 -0.0016035895
0002b0 b9 f9 3d bb e2 22 15 bc d4 33 5c ba d5 ce 2f bb
       -0.0028987958 -0.009102555 -0.0008400057 -0.0026826162
0002c0 e2 0a 4b b8 42 72 fe 37 00 00 00 00 00 00 00 00
       -4.8409107e-05 3.0332365e-05 0.0 0.0
0002d0 24 7b 50 b0 00 d2 58 af dd f8 c3 af 7f b1 db ae
       -7.584495e-10 -1.9719693e-10 -3.564712e-10 -9.9904966e-11
0002e0 75 b1 cd 2d 27 06 f6 af de 86 1d 2a c8 d8 b6 a9
       2.3384608e-11 -4.475151e-10 1.3991193e-13 -8.120029e-14
0002f0 00 00 00 00 00 00 00 00 92 c8 59 3b ac 7e 62 3a
       0.0 0.0 0.0033231121 0.00086400914
000300 6a b7 cc 3a 45 5b 43 3b 29 74 78 39 c0 98 3b b9
       0.0015618626 0.002980904 0.00023694396 -0.00017890614
000310 f4 87 b5 b6 c0 5d 8f b6 00 00 00 00 00 00 00 00
       -5.4100474e-06 -4.272646e-06 0.0 0.0
000320 4d d8 95 94 b8 d6 9b 93 b3 da 0c 94 e6 df 6b 94
       -1.5130471e-26 -3.933923e-27 -7.1113245e-27 -1.1908624e-26
000330 91 69 3f 92 cd a0 3d 12 45 c4 a9 0f f6 e7 1f 0d
       -6.0399094e-28 5.9836087e-28 1.6740287e-29 4.927487e-31
000340 00 00 00 00 00 00 00 00 df b0 72 2e 0a 66 7c 2d
       0.0 0.0 5.5181523e-11 1.4347199e-11
000350 23 21 e4 2d 39 e8 0c 2e 25 db 4e 2b 3e fb 07 2d
       2.5935315e-11 3.203857e-11 7.3490026e-13 7.7296485e-12
000360 18 2f c4 29 75 b2 4f 2a 00 00 00 00 00 00 00 00
       8.712318e-14 1.8447208e-13 0.0 0.0
000370 1a 60 9e 39 e6 b5 a4 38 61 df 14 39 8e 19 d9 3a
       0.0003020771 7.8540106e-05 0.00014197595 0.0016563402
000380 4f 00 98 39 35 31 ae ba 97 c7 d7 b7 8e 24 ac b7
       0.0002899193 -0.0013289811 -2.5722939e-05 -2.052102e-05
000390 00 00 00 00 00 00 00 00 2c fb 9c 3b b0 42 a3 3a
       0.0 0.0 0.004790684 0.0012455788
0003a0 f4 8f 13 3b 63 92 db 3b 68 6a 20 3a ec 39 c3 3a
       0.0022516223 0.0067008003 0.00061193714 0.0014894581
0003b0 5e c9 04 38 ba f8 d0 b7 00 00 00 00 00 00 00 00
       3.165879e-05 -2.4911355e-05 0.0 0.0
0003c0 bc cc 89 3b d4 4f 8f 3a 23 88 01 3b 73 00 e2 3b
       0.0042053144 0.0010933825 0.0019764982 0.006897026
0003d0 aa 8e 27 3a 5e 61 2e 3b 22 a4 57 38 31 33 e3 b7
       0.0006391803 0.0026608328 5.1412855e-05 -2.7084347e-05
0003e0 00 00 00 00 00 00 00 00 d6 b4 7e ba 7b 72 84 b9
       0.0 0.0 -0.0009716278 -0.00025262297
0003f0 8b 6c ef b9 5d 7a 16 bb 70 2a b0 b9 59 73 7e 3a
       -0.00045666503 -0.0022961118 -0.00033600954 0.0009706519
