Assets/results/VikramRover20-ppo/VikramRover/VikramRover-499954.onnx (onnx, 147290 bytes, 10 tensors)

network_body._body_endoder.seq_layers.0.weight f4 [128, 10]
0	0x3ea1616d	0.31519642
1	0x3f41fb0a	0.7577368
2	0xbe6d14db	-0.23152487
3	0xbdac62c6	-0.08417277
4	0x3ef8b666	0.4857666
5	0x3e5dcf3b	0.21661083
6	0x3eda4ec6	0.42638224
7	0xbf6260de	-0.8842906
8	0x3e6fd546	0.23421201
9	0x3e83f15a	0.25770074
10	0xbea5c7e4	-0.32379067
11	0x3f65eb07	0.8981175
12	0x3e03d2e0	0.12873411
13	0x3da838d2	0.082139626
14	0x3e4b80e7	0.19873391
15	0x3efaa25c	0.48951995
16	0x3f29bcc8	0.6630368
17	0xbef6b8e5	-0.48187938
18	0x3f2fb4bd	0.6863516
19	0x3ef74f36	0.4830262
20	0xbec61df6	-0.38694733
21	0xbf1521ad	-0.5825451
22	0x3d98e9e1	0.07466484
23	0xbb880e59	-0.004152101
24	0x3d4ec07e	0.050476544
25	0x3e56b05c	0.20965713
26	0xbf6df7e3	-0.9295637
27	0x3ebadb43	0.36495408
28	0xbe7efdcc	-0.24901503
29	0x3cf9e5df	0.030505119
30	0xbeab0505	-0.33402267
31	0x3f0dcbf8	0.55389357
32	0xbec1ee0c	-0.37876928
33	0x3d9c0f07	0.07620054
34	0x3ece2c63	0.4026824
35	0x3e13bfd9	0.14428653
36	0x3daef6ba	0.08543153
37	0x3eb10413	0.3457342
38	0x3e1949fb	0.14969628
39	0xbe83aa68	-0.25715947
40	0xbd08380d	-0.03325658
41	0xbbeb419a	-0.007179451
42	0xbe15936b	-0.14607017
43	0x3eb0315d	0.3441266
44	0x3e59502b	0.21221988
45	0xbdbd9c5d	-0.092583396
46	0x3ed895fd	0.42301932
47	0xbe211779	-0.1573161
48	0x3ec60981	0.38679126
49	0xbecc79aa	-0.39936572
50	0x3e0f66a2	0.14003995
51	0xbf7e9dde	-0.99459636
52	0xbd9dc237	-0.07703059
53	0xbe0e8766	-0.13918838
54	0xbdabf220	-0.08395791
55	0x3f073d77	0.5282816
56	0xbf24e299	-0.6440826
57	0x3f26d02b	0.6516139
58	0xbec9256d	-0.39286366
59	0xbe53e6b9	-0.20693482
60	0xbdace40f	-0.08441936
61	0x3e1716c9	0.14754786
62	0x3e153042	0.1456919
63	0x3db3c01a	0.08776875
64	0xbea23a07	-0.31684896
65	0xbe0fd870	-0.14047408
66	0xbe6491a5	-0.22321184
67	0x3e800ae7	0.25008318
68	0xbdc2dee9	-0.09515173
69	0xbe52aec6	-0.20574483
70	0x3f09d3a2	0.5383855
71	0xbe338e85	-0.17534836
72	0xbebbb981	-0.36664966
73	0xbd799e71	-0.060942117
74	0x3eaf3654	0.34221137
75	0xbf320c41	-0.6954995
76	0x3e1fdee8	0.15612376
77	0xbe8d9a63	-0.2765685
78	0x3e1c4676	0.15261254
79	0x3ec50ded	0.38487187
80	0x3dfcf5a0	0.12351537
81	0xbe8d431e	-0.2759027
82	0xbeecf9f2	-0.46284443
83	0x3e64dd52	0.22350052
84	0xbdcb03f8	-0.09912866
85	0xbdfd57f2	-0.1237029
86	0xbe230ca7	-0.15922795
87	0x3ef31f5b	0.4748486
88	0xbedb1a8c	-0.4279369
89	0xbed59a20	-0.4171915
90	0x3d54211f	0.0517894
91	0xbeaf55e3	-0.34245214
92	0xbe2a8fce	-0.1665642
93	0x3e445ca4	0.19175965
94	0xbd0843ec	-0.0332679
95	0x3d47df3e	0.048796885
96	0xbf105fdb	-0.56396264
97	0x3f774061	0.9658261
98	0xbf2f9734	-0.6859009
99	0xbee381f8	-0.44435096
100	0x3b6115bc	0.003434523
101	0x3e34d9bb	0.17661183
102	0xbdaff54f	-0.08591711
103	0xbefed339	-0.49770525
104	0x3d88b965	0.06675986
105	0x3d8b9b8c	0.068167776
106	0x3e9d3fc6	0.30712718
107	0x3bfbb0bd	0.007680981
108	0xbd87ac82	-0.066247
109	0x3e6d75d5	0.2318948
110	0x3ce48e46	0.027899873
111	0xbea1ce6e	-0.31602806
112	0x3d2ef3c6	0.04271295
113	0x3eb2c9a2	0.3491946
114	0x3f2fb563	0.6863615
115	0xbdeabe4b	-0.11462077
116	0x3ecc492f	0.39899585
117	0xbdcfb5a8	-0.1014207
118	0x3e2a26ab	0.16616313
119	0x3eb5b9b3	0.3549324
120	0x3d9e882c	0.077408165
121	0x3e58425a	0.21119061
122	0xbedcaa2d	-0.43098584
123	0xbe9221ed	-0.28541508
124	0xbda2ea5b	-0.07954856
125	0x3f1d3f86	0.61425054
126	0x3da41101	0.08011056
127	0xbf30a1f3	-0.68997115
128	0xbc367b83	-0.011137846
129	0x3ea2c36a	0.31789714
130	0x3d469b80	0.04848814
131	0xbe2c26d0	-0.16811681
132	0x3dd7eec6	0.10543589
133	0xbdf7edd6	-0.121059105
134	0xbdf3172a	-0.118696526
135	0x3cd9719f	0.026543437
136	0xbb09a2ad	-0.0021001503
137	0x3c7bffab	0.01538078
138	0x3dae5b78	0.0851354
139	0xbe42e1ef	-0.190315
140	0x3dd939e7	0.10606747
141	0xbe8a72fb	-0.27040848
142	0xbe512b8e	-0.20426771
143	0xbeaf68fc	-0.34259784
144	0xbe3893e5	-0.18025167
145	0x3c837c5c	0.01605051
146	0x3e2f79fa	0.17136374
147	0xbd814df7	-0.06313699
148	0xbd3f1bbe	-0.046657316
149	0x3daa313b	0.08310171
150	0xbea3d910	-0.32001543
151	0x3e0ad04a	0.13556018
152	0x3afe40a2	0.0019397924
153	0x3d0d4ae9	0.034495268
154	0xbe741f52	-0.23840073
155	0xbe80138b	-0.2501491
156	0x3ea3d5f8	0.31999183
157	0x3eed11ed	0.4630274
158	0xbf4d450c	-0.8018348
159	0x3eaf5dfe	0.34251398
160	0xbe6f809b	-0.23388903
161	0xbe32541a	-0.17414895
162	0x3f21f814	0.6326916
163	0x3e88cbcb	0.26717982
164	0xbe821031	-0.25402978
165	0x3dad56cd	0.084638216
166	0x3f641ab3	0.8910324
167	0xbe86fd5c	-0.26365173
168	0xbf4378d9	-0.76356274
169	0xbdfdd9fd	-0.123950936
170	0xbf499618	-0.7874465
171	0xbe660edd	-0.22466607
172	0x3e87990d	0.26483956
173	0x3ee7c402	0.4526673
174	0xbf303086	-0.6882404
175	0x3d61b7e9	0.05510703
176	0xbee7dda4	-0.45286286
177	0xbe8f6bd9	-0.2801197
178	0x3e81cbb1	0.25350717
179	0x3bd89bfc	0.0066103917
180	0x3e646525	0.22304209
181	0xbe04e6b3	-0.1297863
182	0x3f3b1b85	0.73088866
183	0x3ddb45e7	0.10706692
184	0xbed7f38e	-0.42178005
185	0xbef2c0ce	-0.47412723
186	0xbedba3bb	-0.42898354
187	0xbe80b443	-0.2513753
188	0x3e527512	0.20552471
189	0x3e077d49	0.13231386
190	0xbe318540	-0.17335987
191	0xbe4f0210	-0.2021563
192	0xbd491262	-0.049089797
193	0xbe072360	-0.13197088
194	0xbe8fdf68	-0.28100133
195	0x3e468568	0.19386828
196	0x3eb483ac	0.35256708
197	0x3e6e757e	0.23287007
198	0xbe21f644	-0.15816599
199	0xbc9f5095	-0.019447604
200	0xbde062cf	-0.10956346
201	0xbed29f82	-0.4113732
202	0xbd0cbdd4	-0.03436072
203	0xbf1d9992	-0.61562455
204	0xbd8601f0	-0.06543338
205	0x3f13c740	0.57725906
206	0xbc449e8c	-0.012000691
207	0xba8a6830	-0.0010559615
208	0x3ecbbf33	0.3979431
209	0xbe1c7dd1	-0.1528237
210	0xbe565502	-0.20930865
211	0xbf19e7c9	-0.601193
212	0xbbb28d8d	-0.005449003
213	0x3e580de2	0.21099046
214	0xbd7a4bc3	-0.06110741
215	0x3ddd9f23	0.108213685
216	0xbee768ba	-0.45197088
217	0xbd731233	-0.059343528
218	0x3df5a42c	0.11994204
219	0xbe623070	-0.2208879
220	0xbf12f446	-0.5740398
221	0xbe438025	-0.19091852
222	0xbf0cbd87	-0.54976696
223	0xbe8323bf	-0.2561321
224	0x3e637bf6	0.22215256
225	0xbe307bab	-0.17234676
226	0xbe3917e2	-0.18075517
227	0x3e5c194e	0.21494028
228	0x3dd69cbd	0.10479114
229	0x3f1c5547	0.6106762
230	0x3e416e2b	0.18889682
231	0x3da15412	0.07877363
232	0x3ef9db44	0.488001
233	0xbe17ca12	-0.14823177
234	0x3e8b0abc	0.27156627
235	0xbdc060af	-0.09393441
236	0x3e9ec452	0.31009156
237	0x3e86406a	0.2622102
238	0x3f4b948a	0.7952353
239	0x3efba969	0.49152687
240	0x3f02f616	0.5115675
241	0x3d6d2522	0.05789674
242	0x3e01a9d4	0.1266244
243	0xbe01b4cd	-0.12666626
244	0x3e69912c	0.22809285
245	0xbc4a368a	-0.012342105
246	0x3f50ddc1	0.8158837
247	0x3d928cd8	0.0715577
248	0xbf182c44	-0.59442544
249	0x3f04b632	0.5184051
250	0xbd90b10b	-0.07065018
251	0xbeccf96f	-0.40034053
252	0xbda3ade2	-0.0799215
253	0x3cb503e3	0.02209658
254	0xbd11a7ce	-0.03556042
255	0x3e6621dd	0.22473855

network_body._body_endoder.seq_layers.0.bias f4 [128]
0	0xbcd0d99e	-0.025494393
1	0xbd93e0e1	-0.072206266
2	0xbcaae889	-0.020862835
3	0x3905c6fa	0.00012757993
4	0xbda885a8	-0.08228618
5	0xbd9916fb	-0.07475086
6	0xbcf094f2	-0.029367898
7	0xbce03fa2	-0.027374092
8	0xbd6d0da3	-0.057874333
9	0xbdd7afe9	-0.10531599
10	0xbbc3b63c	-0.0059726518
11	0xbdc2559b	-0.09488984
12	0x3d3fb99d	0.046807874
13	0xbdaf5390	-0.0856086
14	0x35a72252	1.2452458e-06
15	0xbd06d99e	-0.03292238
16	0xbe8496f7	-0.25896427
17	0xbd288a40	-0.04114747
18	0x3c13ab1f	0.009012966
19	0xbe6fe8cf	-0.23428653
20	0xbc609745	-0.0137079405
21	0xbd92a55e	-0.071604475
22	0x00000000	0.0
23	0x3e0985a3	0.13429885
24	0x3dcf03c9	0.10108144
25	0xbe01a993	-0.12662344
26	0xbd9d992e	-0.07695232
27	0x3cb5d3b4	0.022195674
28	0x00000000	0.0
29	0xbe059766	-0.13046035
30	0xbc909ca4	-0.017652817
31	0x3d3e6621	0.046484116
32	0xbe24ea08	-0.16104901
33	0xbd0797c3	-0.033103716
34	0x3d6755f5	0.05647846
35	0x3cfbb372	0.030725215
36	0xbe125a9e	-0.1429238
37	0xbe0beb50	-0.13663983
38	0xbe1fa351	-0.15589644
39	0xbd805271	-0.062657245
40	0xbbff8103	-0.007797362
41	0xbd8cdfee	-0.06878649
42	0xbd60336b	-0.054736536
43	0x3d888c78	0.06667417
44	0xbbf44284	-0.0074542183
45	0xbe1c436d	-0.15260096
46	0xbbcc8077	-0.0062409
47	0x3d5171a6	0.051133774
48	0xbd57f59c	-0.052724466
49	0x3d2897be	0.041160338
50	0xbd8ac3e9	-0.06775648
51	0xbd6ff198	-0.05858001
52	0x9eca8b82	-2.1445281e-20
53	0x3db77b5d	0.089590766
54	0xbe47245d	-0.19447465
55	0xbd77f82d	-0.060539413
56	0xbdb08ec4	-0.086209804
57	0xbdad529e	-0.084630236
58	0xbd2271f9	-0.039659474
59	0xbdb5083f	-0.088394634
60	0xbd88eae7	-0.06685429
61	0xbdd9fcc8	-0.10643917
62	0x3bc5078d	0.006012863
63	0xbc537d07	-0.012908227
64	0xbdc6dca2	-0.09710051
65	0xbd8214f3	-0.06351652
66	0x3d2f953c	0.04286693
67	0x3dc435c8	0.095805705
68	0xbd6f590c	-0.05843453
69	0x92aa5ff6	-1.07521645e-27
70	0xbdee7312	-0.11643042
71	0xbbbd2341	-0.005772025
72	0xbe5a2462	-0.21302941
73	0xb2c7b0c9	-2.3247042e-08
74	0x3d1c7ee4	0.03820695
75	0x3d6aee00	0.05735588
76	0xbded39e7	-0.115833096
77	0xbc9b88ac	-0.018986069
78	0xbd63e2a6	-0.05563607
79	0x3d1a78bc	0.037712798
80	0xbc89e2fc	-0.016831867
81	0x92e584ea	-1.4484698e-27
82	0xbda484f7	-0.080331735
83	0x2b282221	5.9732953e-13
84	0xbdf575d9	-0.11985368
85	0xbe098d6a	-0.13432851
86	0x3d8a87ed	0.06764207
87	0xbc7eb3ba	-0.01554578
88	0x3a9ee3de	0.0012122353
89	0xbc6b99c7	-0.014379925
90	0xb4cac579	-3.7769112e-07
91	0xa708a82e	-1.8964962e-15
92	0xbd71b875	-0.059013803
93	0xbb992f67	-0.0046748403
94	0x99be2012	-1.9658493e-23
95	0xbdaa9109	-0.083284445
96	0xbddbfddb	-0.107417785
97	0x3d9a53f2	0.075355425
98	0xbc9b27b6	-0.018939834
99	0x3b8ce33e	0.0042995503
100	0x24c31a80	8.461266e-17
101	0xbdb1ec82	-0.086876884
102	0xbdfe88ac	-0.12428412
103	0xaa1a7bbb	-1.3720875e-13
104	0x3b90a5c6	0.004414293
105	0xbdde8af5	-0.10866348
106	0xbd635582	-0.05550147
107	0x3d139e27	0.036039498
108	0xbdb98a42	-0.09059574
109	0xbe26c881	-0.16287424
110	0xbbefdbd1	-0.0073199053
111	0x00000000	0.0
112	0xbe360289	-0.17774405
113	0xbd43eae4	-0.04783143
114	0xbd86d8eb	-0.065843426
115	0xac204eec	-2.2781178e-12
116	0xbdeff904	-0.11717418
117	0xbd933e8c	-0.07189664
118	0xba33eabd	-0.0006863287
119	0xa672b60c	-8.4207336e-16
120	0x08d2a02b	1.2676571e-33
121	0xbdfa6ddf	-0.122279875
122	0x3ca032ee	0.019555535
123	0x20547c08	1.7998137e-19
124	0x3693e2e3	4.4073545e-06
125	0x34ec3af0	4.4001308e-07
126	0x3b490c73	0.0030677586
127	0x921ce1f9	-4.9503453e-28

network_body._body_endoder.seq_layers.2.weight f4 [128, 128]
0	0xbcaf8437	-0.02142535
1	0xbc2f64aa	-0.0107051525
2	0xbd6e0a64	-0.058115378
3	0x3d868ed8	0.06570214
4	0xbe119636	-0.14217457
5	0xbde2f7a4	-0.1108239
6	0x3b228b86	0.00248024
7	0xbd5f2865	-0.054481883
8	0xbce8f394	-0.02843646
9	0x3d1736d4	0.036917523
10	0xbc9ffb42	-0.019528989
11	0xbe2523e3	-0.16126971
12	0x3dd12ae9	0.102132626
13	0x3df5d753	0.120039605
14	0xbd9533eb	-0.07285293
15	0x3e286c0f	0.16447471
16	0xbdf8cb69	-0.121481724
17	0xbccd2cdf	-0.02504581
18	0xbde1df71	-0.11028946
19	0xbd030b21	-0.031993035
20	0xbdcd1a19	-0.10014743
21	0xbd5d5e73	-0.054045152
22	0xbd85b1a3	-0.06528022
23	0xbe3d8ce4	-0.18510777
24	0x39bb4c6d	0.0003572436
25	0xbdeb9398	-0.11502761
26	0x3dac7f2a	0.08422692
27	0xbdb8cd2c	-0.090235084
28	0xbd250731	-0.04029006
29	0x3d3d428e	0.04620605
30	0x3e0f0b85	0.13969238
31	0x3df3f160	0.11911273
32	0x3b5164cd	0.003195095
33	0x3c8b7886	0.017025243
34	0x3e02f89b	0.12790148
35	0x3da4aec4	0.080411464
36	0x3d8b085a	0.06788702
37	0x3e20fb6d	0.15720911
38	0x3d5685e3	0.052373778
39	0x3da72167	0.08160668
40	0x3c90f69e	0.017695721
41	0xbe9d8072	-0.30762058
42	0xbd9610d3	-0.07327428
43	0xbb46fba2	-0.0030362387
44	0x3dd14d4d	0.10219822
45	0x3d08800f	0.03332525
46	0xbe29e99c	-0.16593021
47	0xbc939195	-0.018013755
48	0x3dc62439	0.09674878
49	0xbd4c6923	-0.049904954
50	0xbdb3a5cc	-0.087718576
51	0xbd86e1c5	-0.06586031
52	0x3e340e0c	0.17583483
53	0xbe4a680a	-0.1976625
54	0xbd1f6f9a	-0.03892479
55	0x3d8bcc0e	0.0682603
56	0xbde818ef	-0.11332881
57	0xbd825f8e	-0.06365882
58	0xbd0e9e19	-0.034818742
59	0xbe2a1fdd	-0.16613717
60	0x3b10f281	0.00221172
61	0x3df972c5	0.12180094
62	0xbcda005e	-0.026611503
63	0xbd301c8a	-0.042995967
64	0xbdea6c28	-0.114464104
65	0xbd4d1ab8	-0.05007431
66	0xba03a839	-0.00050223205
67	0x3c67a066	0.014137363
68	0xbe23c36d	-0.15992518
69	0xbdcd7c38	-0.100334585
70	0xbde2da7b	-0.11076828
71	0x3c30a229	0.0107808495
72	0x3d837e11	0.0642053
73	0xbc8663da	-0.016405035
74	0x3d6fab51	0.05851299
75	0x3d526233	0.05136318
76	0x3cafa542	0.021441106
77	0x3d2b82c4	0.041872755
78	0xbd9c2f44	-0.07626203
79	0xbd527ca2	-0.05138839
80	0x3d5399ba	0.051660277
81	0x3ded5f74	0.11590472
82	0xbb9fa7d3	-0.004872301
83	0x3df7a234	0.12091485
84	0xbd5c79c6	-0.05382707
85	0xbdb35975	-0.08757297
86	0xbcc5417c	-0.024079077
87	0x3da39a56	0.079884216
88	0x3dcc82e3	0.09985902
89	0x3d162e31	0.036665145
90	0x3e186501	0.1488228
91	0x3d4d72d5	0.05015834
92	0xbd32eb3c	-0.04368137
93	0xbd2cb4b8	-0.042164534
94	0xbdfdccc8	-0.123925745
95	0xbd61d326	-0.055133007
96	0x3da7b52e	0.08188854
97	0xbd71bf6d	-0.05902045
98	0x3dda112a	0.10647805
99	0x3d9b839b	0.07593461
100	0xbdfca7bc	-0.1233668
101	0x3d024a93	0.0318094
102	0x3db479f2	0.08812322
103	0x3d6b0531	0.057377998
104	0x3d35e4b7	0.044407573
105	0xbd6a894c	-0.057259843
106	0xbe5a0dc3	-0.21294312
107	0x3d237f19	0.03991613
108	0x3d98921c	0.07449743
109	0xbe2e8ac0	-0.17045116
110	0xbc53903e	-0.012912808
111	0xbcec1b4f	-0.028821616
112	0x3de602d4	0.11231008
113	0x3c0057d3	0.007833439
114	0xbd4cdf8f	-0.05001789
115	0x3b79ba19	0.0038105308
116	0x3e32d24a	0.17463031
117	0xbdd0854d	-0.10181675
118	0xbd0bce61	-0.034132365
119	0x3cfc3027	0.03078468
120	0xbe30c8a9	-0.17264046
121	0xbd8adcda	-0.06780405
122	0x3c6f4a11	0.014605061
123	0x3e3e6946	0.18594846
124	0xbd3e968e	-0.0465303
125	0x3bc2c95b	0.0059444136
126	0xbbab7d7f	-0.005233466
127	0x3d1f4fd5	0.038894493
128	0x3db37463	0.087624334
129	0x3cd7fc39	0.026365386
130	0xbb3358e8	-0.0027366225
131	0xbd91a1d7	-0.071109466
132	0x3da6bf5e	0.08141969
133	0xbc76d8d8	-0.015066348
134	0x3e12482e	0.14285347
135	0xbd62b5f7	-0.055349316
136	0xbd5c1c5c	-0.053737983
137	0x3de73afc	0.11290547
138	0xb8d8a977	-0.00010331248
139	0xbdd6d8a7	-0.10490542
140	0x3de3315e	0.110934004
141	0x3cbbb153	0.022911703
142	0x3d9ebf2b	0.07751306
143	0x3d32155e	0.04347741
144	0xbe0f8b47	-0.14017974
145	0xbdfee892	-0.12446703
146	0x3cf7ac12	0.030233417
147	0xbb130c76	-0.0022437847
148	0x3b770114	0.0037689852
149	0x3d9058f5	0.07048217
150	0xbe0529a2	-0.13004163
151	0x3d506158	0.050874084
152	0xbe26aeec	-0.16277665
153	0xbd1adcbc	-0.037808165
154	0xbc042e23	-0.0080676405
155	0x3cfd0f8e	0.030891206
156	0xbd95c3a9	-0.0731271
157	0x3d9de386	0.07709412
158	0xbd390463	-0.0451702
159	0x3de64471	0.11243523
160	0x3dca250f	0.098703496
161	0x3d056e3d	0.032575835
162	0x3c9cd7d5	0.019145885
163	0xbe0450a8	-0.12921393
164	0x3ccbfddf	0.024901329
165	0xbe3d59bc	-0.18491262
166	0xbe257de0	-0.16161299
167	0xbddbd489	-0.10733897
168	0x3c9f4aca	0.019444842
169	0xbe3a8c6d	-0.1821763
170	0x3e074882	0.13211253
171	0x3de106d2	0.10987629
172	0xbdf03243	-0.11728337
173	0x3bc3467a	0.005959329
174	0xbd950570	-0.07276428
175	0x3d4546fe	0.048163407
176	0x3d6d09c5	0.057870645
177	0x3b35f8a5	0.0027766612
178	0x3c5eea9d	0.013605741
179	0xbda56b23	-0.08077075
180	0xbda63456	-0.08115451
181	0x3d9f177d	0.07768152
182	0x3dc88aee	0.09792124
183	0x3d9b059d	0.0756943
184	0xbd16ee35	-0.036848266
185	0xbca5fb68	-0.020261481
186	0x3ddcddcd	0.10784493
187	0xbb62d0ff	-0.0034609435
188	0x3e231ba8	0.15928519
189	0xbd623dcf	-0.055234727
190	0x3c62f9e4	0.013853524
191	0x3cee55c2	0.029093627
192	0xbe151bc4	-0.14561373
193	0xbdafd8f0	-0.085862994
194	0x3d41064c	0.047125146
195	0x3cbd8298	0.023133561
196	0xbd5d8733	-0.054084014
197	0xbe104b17	-0.14091145
198	0xbdfe8851	-0.12428344
199	0xbc847032	-0.01616678
200	0x3cbe06d0	0.023196608
201	0x3c184f20	0.009296209
202	0x3e063d74	0.1310938
203	0x3e1579f4	0.14597303
204	0xbc97d4ce	-0.01853409
205	0xbcdebadc	-0.02718871
206	0xbdd2c6d4	-0.1029183
207	0x3c5a93ce	0.013340903
208	0x3d5e800b	0.05432133
209	0xbcc25fe8	-0.023727372
210	0xbd34c761	-0.044135455
211	0xbc6c4d2f	-0.014422699
212	0x3dca9659	0.09891958
213	0xbdcf2891	-0.10115159
214	0xbcaa8b5b	-0.020818403
215	0xbe0af9d9	-0.13571872
216	0x3e0b3780	0.1359539
217	0xbc6f3612	-0.014600294
218	0x3d69bc88	0.057064563
219	0xbd905338	-0.07047123
220	0x3d6bde86	0.05758526
221	0x3b82a11e	0.003986492
222	0xbda4049c	-0.08008692
223	0xbd7e421b	-0.06207476
224	0xbd44c830	-0.048042476
225	0x3d472e11	0.048627917
226	0x3d1d1b3d	0.038356055
227	0x3e16c196	0.14722285
228	0xbb516649	-0.0031951836
229	0x3cc81fc0	0.024429202
230	0x3db19367	0.08670693
231	0xbdfddad7	-0.12395256
232	0xbbcabe41	-0.006187231
233	0xbc4514f5	-0.012028922
234	0x3d382712	0.044959135
235	0x3ded7e44	0.11596349
236	0xbc03edae	-0.008052273
237	0x3d41a63b	0.04727767
238	0x3d87a5d7	0.06623428
239	0xbbc5809f	-0.0060272957
240	0xbe236d5e	-0.15959689
241	0xbd444e22	-0.047926076
242	0xbd807ef3	-0.06274214
243	0xbd8875ff	-0.06663131
244	0x3d834360	0.06409335
245	0x3dad924b	0.08475169
246	0x3c9622b3	0.018327093
247	0xbe52a67d	-0.20571323
248	0x3d4fc6e8	0.0507268
249	0xbdaa8c1d	-0.08327506
250	0xbe274695	-0.16335519
251	0x3c94cf4f	0.018165259
252	0x3d9de60f	0.07709896
253	0x3d40c1ca	0.04705981
254	0xbd0837e4	-0.033256426
255	0xbc5f1d46	-0.013617819

network_body._body_endoder.seq_layers.2.bias f4 [128]
0	0xba515502	-0.00079853844
1	0xbcdf4d1b	-0.027258446
2	0xbc7a5640	-0.015279353
3	0xb3149fbd	-3.4604216e-08
4	0xa32081cd	-8.701104e-18
5	0xbc46ced5	-0.012134274
6	0xbcad8659	-0.021182226
7	0xbcb8c7da	-0.022556234
8	0x1c2972c1	5.6065725e-22
9	0xbcc1061d	-0.023562485
10	0xa0a68c29	-2.8214244e-19
11	0xbbdf89e1	-0.0068218564
12	0xbd4c2838	-0.049843043
13	0xbc45773f	-0.012052356
14	0xbbe9970e	-0.007128603
15	0x3a3f04d8	0.00072867936
16	0x3d287405	0.04112627
17	0xbba58452	-0.005051174
18	0xbc5614cd	-0.013066483
19	0xba88ff79	-0.0010452113
20	0x32340066	1.047747e-08
21	0xbd2f15bc	-0.042745337
22	0xbd5d2f15	-0.05399998
23	0xbc025253	-0.007954198
24	0x3ae326b7	0.0017330264
25	0xbc823f4b	-0.015899321
26	0xbc47623d	-0.012169418
27	0xbcb6b588	-0.022303358
28	0xbd249cda	-0.040188648
29	0xbd168345	-0.036746282
30	0xbc929db1	-0.017897459
31	0xbc876648	-0.016528264
32	0xbc289982	-0.010290505
33	0xbcc94d8e	-0.024573114
34	0xbca56fed	-0.020194972
35	0xbc9df0d3	-0.019279873
36	0xbcc7cad6	-0.024388712
37	0xbc8e79ee	-0.017392125
38	0x36db23fb	6.5308973e-06
39	0xbb5d7860	-0.0033793673
40	0xbc84138e	-0.016122606
41	0xbb933d6a	-0.004493405
42	0x3aaa291d	0.0012982223
43	0xbd4bafff	-0.04972839
44	0xa050f0c2	-1.7697945e-19
45	0xbc754ced	-0.014971954
46	0xbbf32813	-0.0074205487
47	0x39d7800f	0.00041103407
48	0xbcdb078a	-0.026736993
49	0xbd7521e7	-0.059846785
50	0xbd04b68b	-0.03240065
51	0xbc86b945	-0.016445765
52	0xbc760bc1	-0.015017451
53	0xbc9f3e7c	-0.019438975
54	0x35941b18	1.1034745e-06
55	0xbcb02211	-0.02150062
56	0x3b0f7599	0.0021890162
57	0xba79c2f8	-0.0009527649
58	0xbcb7ecdd	-0.022451812
59	0xbcc9ff81	-0.024657967
60	0xbc54cce4	-0.012988303
61	0xbc9661e0	-0.018357217
62	0xbd078225	-0.0330831
63	0xbcf45d4e	-0.029829647
64	0xbcaf4e9c	-0.021399789
65	0xbcec3305	-0.028832922
66	0xb6a83e67	-5.0140548e-06
67	0xbd1c6b47	-0.038188245
68	0xbcf8c54d	-0.030367518
69	0xbc47421e	-0.01216176
70	0xbc936dde	-0.017996725
71	0xbc8105a8	-0.015749767
72	0xbcbbe204	-0.022934921
73	0xbc6ccf43	-0.014453712
74	0xbc616d1f	-0.013758927
75	0xb5952d05	-1.1114467e-06
76	0xbd2d740e	-0.042347006
77	0xbd01f41b	-0.031726938
78	0xbc96d2bb	-0.018411031
79	0xbc6a4f7c	-0.014301177
80	0xbc16aaab	-0.009195964
81	0xbc55704a	-0.01302726
82	0xbc0be73b	-0.008539016
83	0xbc88d452	-0.016702805
84	0xbcb789f1	-0.022404643
85	0xbc75ab53	-0.01499446
86	0xbc9557a3	-0.018230265
87	0xbc93bbdb	-0.018033912
88	0xbc3667c9	-0.011133143
89	0xbd2253a1	-0.039630536
90	0x2596a4ef	2.6132615e-16
91	0xbc6b517d	-0.01436269
92	0xbce2f5b1	-0.027705045
93	0xbcc0f4d6	-0.023554247
94	0xbd440438	-0.047855586
95	0xbc0b1e75	-0.008491148
96	0xbcdeb501	-0.027185919
97	0xbcb46c39	-0.02202426
98	0xbca623dc	-0.020280771
99	0xbcf755d4	-0.030192293
100	0xbc742b78	-0.014902942
101	0xbcc2a667	-0.023760987
102	0xbc48fab1	-0.012266801
103	0xbc8cc22d	-0.017182434
104	0xbc6a1ef4	-0.014289606
105	0xbc892809	-0.016742723
106	0xbd089bb2	-0.033351608
107	0xbc2bb942	-0.010481181
108	0xbd003992	-0.031304903
109	0xbbd12786	-0.0063828854
110	0xbd751c9d	-0.05984174
111	0xb9cf3869	-0.00039524146
112	0xbc0e2bde	-0.008677451
113	0xbd6e3a4f	-0.058161076
114	0xbc9502fe	-0.018189903
115	0xbd1f55bb	-0.03890012
116	0xbbfa7433	-0.0076432466
117	0xbce14d3a	-0.027502645
118	0xbc385f83	-0.0112532405
119	0xbc2aae1e	-0.010417489
120	0xbbe61bc9	-0.007022355
121	0x1175b296	1.9382123e-28
122	0xbcb5b332	-0.022180174
123	0xbca63bef	-0.02029225
124	0xbc57cbac	-0.013171118
125	0xbd05db42	-0.032679804
126	0xbc88bde5	-0.016692111
127	0xbcc7dd53	-0.024397528

network_body._body_endoder.seq_layers.4.weight f4 [128, 128]
0	0xbdeec0e9	-0.116578884
1	0x3c901e12	0.017592464
2	0x3c8ea754	0.017413773
3	0xbd326283	-0.04355098
4	0xbd89a5e3	-0.067210935
5	0xbcb31330	-0.021859735
6	0xbdc7d1d6	-0.0975682
7	0x3d6e9d8e	0.058255725
8	0x3d05c422	0.03265775
9	0x3d429a2f	0.047510322
10	0x3d77b341	0.060473684
11	0xbe3f2271	-0.18665482
12	0xbe156f52	-0.14593247
13	0xbd2c3178	-0.042039365
14	0xbda85e1e	-0.082210764
15	0x3c94a9b8	0.018147334
16	0x3e7c1c33	0.24620132
17	0x3c85fb10	0.016355067
18	0x3d0d42d6	0.034487568
19	0x3d27a4f1	0.040928785
20	0xb92f913f	-0.00016743409
21	0xbd55b504	-0.052174583
22	0xbe1d4d16	-0.15361437
23	0x3e35c931	0.1775253
24	0x3aa08540	0.0012246743
25	0xbcf701cb	-0.030152222
26	0xbd162e8b	-0.03666548
27	0xbd62490b	-0.05524544
28	0xbdbc2f60	-0.091887236
29	0x3d82fa50	0.063953996
30	0x3cad3fcf	0.02114859
31	0x3d316ea7	0.043318417
32	0xbde99149	-0.11404664
33	0xbd93a777	-0.07209676
34	0xbd8d5105	-0.06900219
35	0xbe2f1f51	-0.1710179
36	0xbd9b7850	-0.07591307
37	0xbcf772de	-0.03020614
38	0x3d4388a3	0.04773773
39	0x3db5f637	0.088848524
40	0x3d15a718	0.036536306
41	0x3c98bcdf	0.018644748
42	0x3d68d528	0.056843907
43	0xbb4b0ef2	-0.003098425
44	0xbda16eb0	-0.0788244
45	0xbdd59a94	-0.10429874
46	0xbdce2ac2	-0.10066749
47	0xbdd24749	-0.10267503
48	0x3d99da2c	0.07512316
49	0xbdbabfca	-0.09118612
50	0xbdb24d40	-0.087061405
51	0xbe0d12d6	-0.13776717
52	0xbd25545c	-0.040363654
53	0xbd67cccf	-0.056591805
54	0xbdd1fb36	-0.10252993
55	0xbc06523d	-0.008198318
56	0xbdf2e47d	-0.11859987
57	0xbdf99b22	-0.12187792
58	0xbd656129	-0.056000862
59	0xbca2a699	-0.01985483
60	0x3db70103	0.0893574
61	0x3dacd3fc	0.0843887
62	0x3d74b2bd	0.05974077
63	0xbdc4b419	-0.096046634
64	0x3be52c5d	0.006993814
65	0xbd0d4999	-0.034494016
66	0x3ddfee8f	0.10934173
67	0xbcd5feac	-0.026122414
68	0xbcb1f427	-0.021722866
69	0xbd2dd4a9	-0.042439137
70	0xbe02caf8	-0.12772739
71	0xbd195452	-0.03743393
72	0x3d81fae9	0.063466854
73	0x3d930587	0.07178789
74	0x3e386030	0.18005443
75	0x3df755b6	0.12076895
76	0x3d4a2939	0.04935572
77	0xbc455006	-0.012043005
78	0x3d8a1680	0.06742573
79	0x3c3e9233	0.011631536
80	0x3cd46b1e	0.025929984
81	0xbd087f60	-0.0333246
82	0xbb2eadf2	-0.0026653972
83	0xbbce73e8	-0.006300438
84	0x3a1caa02	0.0005976261
85	0x3ac9a00c	0.0015382781
86	0x3d6e41f5	0.05816837
87	0xbd8640b8	-0.06555313
88	0xbcb84f9e	-0.022498902
89	0xbdb8d708	-0.09025389
90	0xbd9661df	-0.07342886
91	0xbab20be0	-0.0013583861
92	0xbd2753d9	-0.040851448
93	0x3d8b0229	0.067875214
94	0x3d1bbf21	0.03802407
95	0x3c55911d	0.013035086
96	0xbd2f0996	-0.04273375
97	0xbd3d9875	-0.046287972
98	0xbe1975ba	-0.14986315
99	0xbda30915	-0.07960717
100	0x3d15bf12	0.036559172
101	0xbdb37ca3	-0.08764007
102	0x3cc76d59	0.024344133
103	0xbd8a645d	-0.06757424
104	0x3c956309	0.0182357
105	0x3e41e6d3	0.18935709
106	0xbd50cc81	-0.05097628
107	0xbe28f0a1	-0.16498043
108	0xba3c6985	-0.00071873545
109	0xbd03276a	-0.03202001
110	0x3ded665c	0.11591789
111	0x3de52d33	0.11190262
112	0xbd5fec42	-0.054668672
113	0x3e446c50	0.19181943
114	0xbddd2548	-0.107981265
115	0xbd479e91	-0.048735205
116	0x3dc524f0	0.09626186
117	0x3da75295	0.08170048
118	0xbcef5f9e	-0.029220399
119	0xbe59e667	-0.21279298
120	0xbe1b1c7d	-0.15147586
121	0x3ea7adc9	0.32749775
122	0x3c017902	0.007902386
123	0xbe64fff1	-0.22363259
124	0x3d9260b2	0.071473494
125	0xbe05f11c	-0.13080257
126	0xbe7a6480	-0.244524
127	0x3c9e66ba	0.019336093
128	0x3c0ae14a	0.008476565
129	0xbc84cb82	-0.016210321
130	0x3e0f0ac2	0.13968948
131	0xbcc92c95	-0.024557391
132	0xbd9560a8	-0.07293826
133	0x3dd35962	0.10319783
134	0xbdb5d8ca	-0.0887924
135	0xbd8142c8	-0.06311566
136	0x3d8f79db	0.07005664
137	0x3d183c9e	0.037167184
138	0xbe215f28	-0.15758955
139	0x3d3fe840	0.04685235
140	0x3e4d7072	0.20062426
141	0x3d296505	0.041356105
142	0xbcc26e2e	-0.023734178
143	0x3cf0db12	0.029401336
144	0x3cd02789	0.025409477
145	0xbce988e0	-0.02850765
146	0x3c6b7c9f	0.014372974
147	0xbe9931d1	-0.2992082
148	0x3e1a4352	0.15064743
149	0xbd1da190	-0.038484156
150	0x3aa9aec8	0.0012945766
151	0xbce2f28f	-0.027703552
152	0x3d801520	0.06254029
153	0x3c6df4df	0.014523714
154	0xbd30d733	-0.04317398
155	0xbd4af6c9	-0.04955176
156	0xbdd1d540	-0.10245752
157	0x3d9d3e64	0.07677916
158	0xbd9460b8	-0.0724501
159	0x3d4ac139	0.049500678
160	0xbd9ccb2a	-0.07655938
161	0x3cfe7099	0.03105955
162	0xbd730ca5	-0.05933823
163	0x3d007c6c	0.031368658
164	0x3dd9b8d5	0.10630957
165	0x3d2917ce	0.041282468
166	0xbd85d6f4	-0.0653514
167	0x3dceebf4	0.10103598
168	0x3d714db8	0.05891201
169	0x3d493e3c	0.049131617
170	0xbd205a46	-0.03914859
171	0xbda83dea	-0.08214934
172	0xbd0cf57a	-0.034413792
173	0x3e383944	0.17990595
174	0x3dd078ef	0.10179316
175	0xbe0322ff	-0.12806319
176	0x3e49e757	0.19717155
177	0xbe3ea923	-0.18619208
178	0xbcf55b39	-0.029950725
179	0x3dfc17b1	0.12309206
180	0xbdee0fa4	-0.11624077
181	0xbd370c78	-0.044689626
182	0xbdb33ff0	-0.087524295
183	0x3d36e179	0.04464862
184	0xbdca4043	-0.09875538
185	0xba264da0	-0.00063439645
186	0x3d249515	0.04018124
187	0x3daf73aa	0.08566983
188	0x3b7f6c24	0.003897437
189	0xbd969cb9	-0.07354111
190	0xbd8b1ef5	-0.06793014
191	0xbcd8a017	-0.026443524
192	0x3da02339	0.07819218
193	0xbd3d0b87	-0.04615357
194	0x3dbdfa89	0.092763014
195	0x3da0dae2	0.078542486
196	0x3e301375	0.17194922
197	0xbe0fd8e2	-0.14047578
198	0xbd21da55	-0.03951486
199	0xbb9f587f	-0.0048628445
200	0x3d737bb6	0.05944415
201	0xbcdd7d13	-0.02703718
202	0xbc033263	-0.008007619
203	0xbdf2148a	-0.11820324
204	0xbe006b9e	-0.12541053
205	0x3de5dcd7	0.112237625
206	0xbb12d9d9	-0.002240768
207	0xbdc79fb3	-0.09747257
208	0xbe4d3da1	-0.20043041
209	0x3e02289d	0.12710805
210	0xbdaa3398	-0.08310622
211	0x3c47fcdf	0.012206285
212	0xbe250901	-0.16116716
213	0x3d7e1670	0.062033117
214	0x3da6d8dc	0.081468314
215	0x3e12ab29	0.14323105
216	0x3da4991a	0.08037014
217	0xbcd85bbc	-0.02641093
218	0xbd0d314f	-0.034470852
219	0x3d412fe9	0.04716483
220	0xbd8a27c1	-0.06745864
221	0x3c2532ee	0.010082943
222	0x3c42d278	0.011891
223	0x3c466ed2	0.012111383
224	0x3be7e0b2	0.0070763463
225	0x3da6b368	0.08139688
226	0x3d89c916	0.06727807
227	0xbceb11e6	-0.028695058
228	0xbd03bd52	-0.03216297
229	0xbd430e04	-0.04762079
230	0x3d734c53	0.05939896
231	0x3db51350	0.08841574
232	0x3d882d44	0.06649259
233	0xbda864d0	-0.082223535
234	0xbd594ba0	-0.053050637
235	0x3df21caa	0.118218735
236	0xbe053dd9	-0.13011874
237	0xbcd3c517	-0.025850816
238	0xbe44a680	-0.1920414
239	0xbd821fce	-0.063537225
240	0xbc745b5d	-0.014914361
241	0x3c1fbe8f	0.009750023
242	0x3e0af99b	0.1357178
243	0x3e519af3	0.20469265
244	0x3e0d5277	0.13800989
245	0x3cda2b77	0.026632054
246	0xbce7cc6e	-0.028295722
247	0xbd541e2b	-0.051786583
248	0x3d050482	0.032475002
249	0x3da8b316	0.08237283
250	0x3e2ff309	0.17182554
251	0x3dd4b8a9	0.10386784
252	0xbd8f360b	-0.0699273
253	0xbc50d4fa	-0.01274609
254	0xbd0ec571	-0.034856264
255	0xbc930d76	-0.017950755

network_body._body_endoder.seq_layers.4.bias f4 [128]
0	0x3da03f8a	0.07824619
1	0xbda43806	-0.08018498
2	0x3d436753	0.04770596
3	0x3d4d55e4	0.05013074
4	0x3d6ed4dc	0.058308467
5	0xbd16913b	-0.036759596
6	0xbd3733bb	-0.04472707
7	0xbd4b5fbb	-0.049651843
8	0xbd476c69	-0.048687372
9	0xbceb6531	-0.028734775
10	0xbcaaedc7	-0.020865334
11	0xbd0262b6	-0.03183242
12	0xbda0e1a6	-0.07855539
13	0xbd0cc406	-0.03436663
14	0xbd97ce12	-0.07412352
15	0xbc4e7a51	-0.012602405
16	0xbdcc8f61	-0.09988285
17	0xbd29fa3d	-0.04149841
18	0xbd3096f7	-0.04311272
19	0xbcd21e02	-0.025649074
20	0xbc7b37ba	-0.0153331105
21	0xbdd50284	-0.104008704
22	0xbcb97fc3	-0.02264393
23	0xbd6def47	-0.05808952
24	0xbd651c5f	-0.05593526
25	0xbcba3ed8	-0.022735044
26	0xbe0a9258	-0.13532388
27	0xbce98a8b	-0.028508445
28	0x3c859da9	0.01631053
29	0xbbd83f8d	-0.0065993727
30	0xbd80afe6	-0.0628355
31	0xbd4c3754	-0.049857453
32	0xbd4693e0	-0.04848087
33	0xbd1cf2a6	-0.038317345
34	0xbd4792ae	-0.04872387
35	0xbd25b913	-0.040459704
36	0xbd2805fd	-0.041021336
37	0xbce4c20b	-0.027924558
38	0xbdbfd61c	-0.0936701
39	0x3b808931	0.0039226045
40	0xbcc69af4	-0.02424381
41	0xbcfca37b	-0.030839672
42	0xbdf5bd16	-0.11998956
43	0xbda2a888	-0.07942301
44	0xbd35d838	-0.044395655
45	0xbdc4e94c	-0.0961481
46	0x3cccc215	0.02499489
47	0xbda056af	-0.078290336
48	0xbd6a9dc6	-0.05727937
49	0xbbfc7cb2	-0.0077052945
50	0x3c9468da	0.018116403
51	0xbd904b9e	-0.07045673
52	0xbd2ea1de	-0.042634837
53	0xbdb3b794	-0.08775249
54	0xbbd7f447	-0.0065903994
55	0xbd40fa50	-0.047113717
56	0xba196ae8	-0.0005852417
57	0xbde272dd	-0.11057065
58	0xbd6b5afb	-0.057459813
59	0xbdc2aada	-0.095052436
60	0xbd871fd7	-0.0659787
61	0xbcce746e	-0.025202002
62	0xbd899dab	-0.06719526
63	0xbda53472	-0.08066644
64	0xbccec375	-0.025239686
65	0x3c26fdb0	0.01019232
66	0xbd4ad204	-0.049516693
67	0xbdc76d8b	-0.097376905
68	0xbd83166b	-0.0640076
69	0xbd36d75a	-0.04463897
70	0xbdb01af7	-0.08598893
71	0xbceeb05c	-0.02913683
72	0xbd5b0f05	-0.05348112
73	0xbca93980	-0.020657301
74	0x3ddcf781	0.10789395
75	0xbcc63225	-0.024193833
76	0x3b058f63	0.0020379655
77	0xbc7ee1c8	-0.01555676
78	0xbc829acc	-0.015942954
79	0xbc139a1b	-0.00900891
80	0xbd7701a7	-0.06030431
81	0xbce9f603	-0.02855969
82	0xbc785760	-0.015157551
83	0xb97ad3d9	-0.00023920777
84	0xbd2042c2	-0.039126165
85	0xbe072257	-0.13196693
86	0xbd5ac421	-0.0534097
87	0xbc30f3b0	-0.010800287
88	0xbda0920d	-0.07840357
89	0xbd2d6779	-0.042335007
90	0x3c9dcbc1	0.019262196
91	0xbd6708dc	-0.056404933
92	0xbd7b67e3	-0.06137837
93	0xbd878a7c	-0.06618211
94	0x3d8d49b3	0.06898823
95	0xbd4d653b	-0.05014537
96	0xbd613a21	-0.054987077
97	0xbc7c1094	-0.015384812
98	0xbd0e2844	-0.03470637
99	0xbdb0b97c	-0.08629128
100	0xbddbd271	-0.10733498
101	0xbd2077a0	-0.039176583
102	0xbda33f3d	-0.07971046
103	0xbc9a5747	-0.018840445
104	0xbd6402dc	-0.05566679
105	0x3d5ae8de	0.053444736
106	0xbc562392	-0.013070004
107	0xbd3c140d	-0.04591756
108	0xbcdeb77b	-0.0271871
109	0xbd820eb7	-0.06350463
110	0xbc94b3bf	-0.018152116
111	0xbd3bde46	-0.045866273
112	0xbce75705	-0.028239736
113	0xbcde3980	-0.027127028
114	0xbd685b33	-0.0567276
115	0xbc32f981	-0.010923744
116	0xbdb2828c	-0.08716306
117	0xbdfd0b46	-0.12355666
118	0xbc2ab418	-0.010418914
119	0xbd071515	-0.03297909
120	0xbcc6e69d	-0.024279887
121	0x3c7682c6	0.015045827
122	0xbcd74f06	-0.026282798
123	0x3dc45917	0.09587305
124	0xbc8077cd	-0.015682125
125	0xbd11b0b6	-0.035568915
126	0xbd5d8bd7	-0.05408844
127	0xbd20417d	-0.039124954

action_model._continuous_distribution.log_sigma f4 [1, 2]
0	0xbf245583	-0.6419298
1	0x3e92211b	0.28540882

action_model._continuous_distribution.mu.weight f4 [2, 128]
0	0x3e1a2b60	0.15055609
1	0x3a6221ce	0.0008626253
2	0x3c82bab0	0.01595816
3	0xbc3584d4	-0.011079032
4	0xbceb0f20	-0.028693736
5	0x3bc778cd	0.0060873986
6	0xbdce8279	-0.100834794
7	0x3d6a5321	0.057208184
8	0x3dc42d75	0.09578983
9	0xbb997fe5	-0.0046844357
10	0x38e47072	0.00010892832
11	0xbc100954	-0.0087912865
12	0x3aee0ab9	0.0018161155
13	0x3d873a21	0.06602884
14	0xbd8a79e2	-0.067615286
15	0xbba5f210	-0.0050642565
16	0x3d943a88	0.072377264
17	0x3d587e82	0.052855022
18	0xbcc49e33	-0.024001217
19	0x3d07a2fd	0.033114422
20	0x3c541b8f	0.012946024
21	0x3c50b5dd	0.012738672
22	0x3decb18f	0.11557304
23	0xbe017b73	-0.12644748
24	0xbb2cb073	-0.002635029
25	0x3d960fae	0.073272094
26	0xbdc55613	-0.09635558
27	0xbc8342e9	-0.016023116
28	0xbd91ec7d	-0.07125185
29	0x3dbe2ca5	0.09285859
30	0xbca9ae63	-0.020713037
31	0x3b83468a	0.0040062116
32	0xbcd7cdf3	-0.026343321
33	0xbbfe1107	-0.0077534947
34	0xbce13576	-0.027491312
35	0x3d28f0fa	0.04124544
36	0x3c2927e1	0.010324449
37	0x3d1a2096	0.037628733
38	0xbcbf5a99	-0.02335863
39	0x3d7e4de4	0.062086
40	0xbcd7623a	-0.026291955
41	0xbca6caf5	-0.02036045
42	0x3a352a3e	0.00069108966
43	0x3b53bd37	0.0032308826
44	0x3dd8b693	0.10581698
45	0x3d51abe9	0.051189337
46	0x3d46acf8	0.0485048
47	0xbdef3d1e	-0.11681579
48	0x3d1c3ead	0.03814571
49	0xbcc805d3	-0.02441684
50	0xbda2b4d3	-0.07944646
51	0x3c86d4fc	0.01645898
52	0x3aa47f60	0.0012550168
53	0x3c161c67	0.009162045
54	0x3cc548bf	0.02408254
55	0xbbe189fc	-0.006882904
56	0xbb54932f	-0.003243636
57	0x3d81373a	0.06309362
58	0xbbfc3d63	-0.0076977476
59	0x3d171d3d	0.03689312
60	0xbb2951e6	-0.0025836169
61	0xbde50259	-0.111820884
62	0x3c90552f	0.017618744
63	0x3b9e827e	0.004837333
64	0x3bc6e6be	0.006069987
65	0xbba32dbb	-0.0049798167
66	0xbcd63c68	-0.02615185
67	0xbcbbcb90	-0.022924215
68	0xbdbb964b	-0.091595255
69	0xbc0f220f	-0.008736148
70	0x3d1a93e1	0.037738685
71	0xbd472273	-0.048616838
72	0x3b97df48	0.0046347715
73	0xbcec9798	-0.02888088
74	0x3dd330ac	0.10312018
75	0xbc869564	-0.016428657
76	0x3d18c758	0.037299484
77	0xbb0514f8	-0.0020306688
78	0x3c1ebb72	0.009688245
79	0xbb457e4b	-0.003013509
80	0xbb9a022c	-0.004699966
81	0xbd423f0c	-0.047423407
82	0x3dacd705	0.08439449
83	0xbce0ada5	-0.02742655
84	0xbd8e2569	-0.06940729
85	0x3d62e110	0.055390418
86	0x3b8a7e5f	0.0042264904
87	0x3b6733e7	0.003527874
88	0xbd96ee57	-0.073696785
89	0xbde50856	-0.111832306
90	0xbd8a5a47	-0.067555
91	0xbd391cff	-0.04519367
92	0xbe09c246	-0.13453016
93	0xbe04f68b	-0.12984674
94	0xbdf45678	-0.11930555
95	0xbd2ebefb	-0.042662602
96	0x3bea5559	0.0071512875
97	0xbd268f2d	-0.040663887
98	0xbd068331	-0.032839958
99	0xbc88f3e5	-0.01671786
100	0xbca3a704	-0.0199771
101	0xb9abb48e	-0.00032750185
102	0xbd511977	-0.051049676
103	0xbc1929d1	-0.009348349
104	0x3a5e9085	0.0008490163
105	0x3d0122ff	0.031527516
106	0x3d9e97e1	0.07743812
107	0x3c921bbe	0.017835494
108	0xbc91971f	-0.017772255
109	0xbdababed	-0.083824016
110	0xbddb70f3	-0.10714903
111	0x3d1b009c	0.037842378
112	0x3caced4d	0.021109248
113	0xbc04118a	-0.008060822
114	0xbdbea4eb	-0.09308799
115	0xbb22997b	-0.002481072
116	0x3d6522bd	0.055941332
117	0x3ab4405a	0.0013752088
118	0xbc15d709	-0.009145507
119	0x3dde97ae	0.10868774
120	0x3de8e552	0.113718644
121	0xbda5a7d4	-0.08088651
122	0x3e56c4a9	0.20973457
123	0x3e1f8f66	0.15582046
124	0x3ccc9e48	0.024977818
125	0xbb121a68	-0.0022293571
126	0x3d4b84d5	0.049687225
127	0xb98ccfee	-0.000268578
128	0xbdd017eb	-0.10160812
129	0xbd9a53af	-0.07535493
130	0xbdaae990	-0.0834533
131	0xbda81d50	-0.08208716
132	0xbe23a6da	-0.15981618
133	0x3c19003f	0.009338438
134	0xbe4cc029	-0.19995178
135	0xbbeb0aac	-0.007172903
136	0xbe04724f	-0.1293423
137	0xbd01884e	-0.03162413
138	0xbcf136fa	-0.02944516
139	0xbb0b8fd2	-0.002129544
140	0x3cc3c2c8	0.02389659
141	0x3b0de48d	0.002165112
142	0x3d7b0936	0.06128808
143	0x3bccf82d	0.006255171
144	0x3e00fafb	0.12595741
145	0xbcbcfd94	-0.023070134
146	0xbc73c00d	-0.014877331
147	0xbd3207a3	-0.043464314
148	0xbdc0d6ae	-0.09415947
149	0x3cc762b4	0.024339058
150	0xbd89242f	-0.066963546
151	0x3c8d73ab	0.017267069
152	0xbc6168c7	-0.013757891
153	0x3d052202	0.032503136
154	0x3da00948	0.0781427
155	0x3d1a63b2	0.037692733
156	0xbc30961f	-0.010777979
157	0x3bc3b655	0.0059726634
158	0x3c1b6a6a	0.00948582
159	0xbd67790e	-0.05651193
160	0x3d5a3d72	0.053281255
161	0x3d4f16df	0.05055892
162	0xbd3aad29	-0.045575295
163	0xbc9b6489	-0.018968837
164	0xbdc0e83a	-0.09419294
165	0xbdcd9afc	-0.100393265
166	0x3cfa326b	0.03054162
167	0x3cfd1935	0.030895809
168	0xbc95b8dc	-0.018276624
169	0xbdb8cf19	-0.09023876
170	0x3cc1b85b	0.023647478
171	0x3d287518	0.041127294
172	0xbd6b6516	-0.05746945
173	0x3dad6c37	0.08467906
174	0xbe3b3828	-0.1828314
175	0xbc4600a8	-0.012085117
176	0xbd9c30e5	-0.076265134
177	0x3bacbf85	0.0052718543
178	0x3bff7893	0.007796356
179	0x3d73af55	0.05949338
180	0xbb160984	-0.0022893855
181	0xbca06128	-0.019577578
182	0xbce7a8c0	-0.028278708
183	0xbc13ab4b	-0.009013007
184	0x3c078ab9	0.00827282
185	0x3d10df40	0.035369158
186	0xbbc9826b	-0.0061495802
187	0xbdd29ce3	-0.1028383
188	0xbc12f2b5	-0.008968999
189	0xbdb9d201	-0.09073258
190	0xb8acd6c1	-8.2416e-05
191	0x3d529969	0.051415835
192	0xbe5c241d	-0.21498151
193	0xbdd01a7b	-0.10161301
194	0x3c9786c9	0.018496888
195	0xbad4127c	-0.0016179825
196	0x3dd5c08b	0.10437115
197	0x3a9d150e	0.0011984424
198	0x3cb86066	0.022506904
199	0x3ddb585c	0.107102126
200	0x3cb63b16	0.022244971
201	0xbd7826a3	-0.06058372
202	0x3a8a1219	0.0010533958
203	0xbd98c3a3	-0.0745919
204	0xbd4f52f8	-0.050616235
205	0xbbeaf39c	-0.007170154
206	0xbcf8965e	-0.030345138
207	0x3deecc8c	0.11660108
208	0x3dc5ffb6	0.096679136
209	0xbcfa30ae	-0.03054079
210	0xbdd80771	-0.10548294
211	0x3c0c82ba	0.0085760895
212	0xbd8fddef	-0.07024752
213	0xbd3f5a42	-0.046716936
214	0xbc96791f	-0.018368302
215	0xbdba48a4	-0.09095886
216	0x3d1cefc5	0.0383146
217	0x3d0a05e6	0.03369703
218	0xbdbb0a17	-0.09132784
219	0xbc8cbb8a	-0.01717927
220	0x3dcf8a1f	0.101337664
221	0x3d7f8c73	0.062389802
222	0xbd8c9198	-0.06863707
223	0xbbc22567	-0.005924869
224	0x3b1d378c	0.0023989407
225	0xbdd0e9ee	-0.102008685
226	0xbd2fb99f	-0.04290163
227	0x3d93279d	0.0718529
228	0xbd606b00	-0.054789543
229	0xbdf260c5	-0.118348636
230	0xbbbebfac	-0.005821189
231	0x3dac39f3	0.084094904
232	0xbd9a4053	-0.075318
233	0x3debf003	0.11520388
234	0x3e01d010	0.12677026
235	0xbbee1ba1	-0.007266477
236	0xbcc44e93	-0.023963248
237	0x3c6980f6	0.014251938
238	0xbd02521e	-0.031816594
239	0x3baab495	0.0052095153
240	0xbdac3250	-0.08408034
241	0xbbed369a	-0.007239175
242	0xbdb6f2ac	-0.08933005
243	0x3c22621a	0.009911085
244	0x3cf45726	0.029826712
245	0xbcf81757	-0.030284567
246	0xbbdeaba9	-0.006795366
247	0xbdad7ad6	-0.08470695
248	0xbdff2b6d	-0.12459455
249	0xbd8b6e35	-0.0680813
250	0x3c8b8bfb	0.017034521
251	0xbe2f3ed2	-0.17113808
252	0x3d817fd5	0.0632321
253	0x3c855364	0.016275115
254	0xbc58afcd	-0.013225508
255	0xbddee7cb	-0.10884055

action_model._continuous_distribution.mu.bias f4 [2]
0	0xbd711d6b	-0.058865946
1	0xbdce06d9	-0.100599

action_model._discrete_distribution.branches.0.weight f4 [1, 128]
0	0x3ba3e44b	0.00500158
1	0x3bd2cfba	0.0064334543
2	0xbb7bb54b	-0.003840762
3	0x3b221e5b	0.0024737332
4	0xbb5bc1d7	-0.0033532286
5	0xb8da8b23	-0.00010420966
6	0xbb32e457	-0.0027296746
7	0x3af7d9c7	0.0018909507
8	0x3accbfed	0.0015621163
9	0x3c05ca7f	0.008165955
10	0x3b424c27	0.002964744
11	0x3c5cc4c3	0.013474646
12	0x3c862788	0.016376272
13	0xba7d5b8f	-0.00096648274
14	0x3b87f5ef	0.0041491906
15	0xba870ea0	-0.0010304041
16	0xba9b1a53	-0.0011833407
17	0xba103b94	-0.0005502042
18	0xbadfcf8b	-0.0017075402
19	0x3c1512b8	0.009098701
20	0xbc421aee	-0.011847241
21	0x3bf0d368	0.0073494203
22	0x3c0e2a93	0.008677143
23	0x3a86a8d3	0.0010273702
24	0xbc1cba3d	-0.009565887
25	0xbc4a325a	-0.012341106
26	0xbc600aa0	-0.013674408
27	0xbb4088ce	-0.0029378417
28	0xbb6643a5	-0.0035135534
29	0xbc698693	-0.014253276
30	0xbc1352bf	-0.008991896
31	0x3cab8123	0.0209356
32	0x3bf2a0a2	0.007404403
33	0x3c894e5b	0.016760996
34	0xbc17ca7d	-0.009264586
35	0x3b53c8c2	0.0032315706
36	0xbc175a3d	-0.009237823
37	0xbc21a118	-0.009865068
38	0x3b8e4990	0.0043422654
39	0xbc865b45	-0.016400943
40	0xbb8f7746	-0.004378232
41	0xb87ccd70	-6.027281e-05
42	0xbac0080b	-0.0014650834
43	0x3b71f865	0.0036921736
44	0xbc7f8e60	-0.01559791
45	0x39d31c70	0.00040266244
46	0x3a89aac4	0.0010503163
47	0xbbce6408	-0.0062985457
48	0x3c684ce8	0.014178492
49	0xbb2d69b0	-0.00264607
50	0x3c022c5e	0.007945148
51	0xbb484487	-0.0030558424
52	0x3c4af43f	0.012387334
53	0xbb753eab	-0.0037421386
54	0xbc2e4dc7	-0.010638661
55	0x3b23797e	0.002494424
56	0x3b5e8cf7	0.0033958533
57	0x3c08779f	0.008329301
58	0x3c0e8c79	0.0087004835
59	0x3bbb2166	0.0057107685
60	0xbba2f9c3	-0.0049736216
61	0xbbab56d5	-0.005228857
62	0xbb6c27ca	-0.0036034458
63	0xbc5e03ad	-0.013550681
64	0x3c5d36c8	0.01350183
65	0xbc9a3fc7	-0.01882924
66	0x3bdaf050	0.0066814795
67	0x39bb225f	0.00035693028
68	0x3a1fce5c	0.00060961186
69	0xbc46d4ef	-0.012135728
70	0xbb48800f	-0.0030593907
71	0xbaa053a9	-0.0012231964
72	0x3b3dd6f2	0.0028967229
73	0xbbe44160	-0.006965801
74	0xbc81f357	-0.015863104
75	0x3c63401b	0.013870264
76	0x3b66af10	0.003519956
77	0xbad9b465	-0.0016609548
78	0x3bbde74c	0.005795395
79	0xbb2d839f	-0.0026476157
80	0x3b9f9aab	0.004870733
81	0xbae394c8	-0.0017363066
82	0x3b12b8ad	0.0022387907
83	0x3c0c16e6	0.008550381
84	0x3a9d8099	0.0012016475
85	0x3b292bdc	0.0025813496
86	0xbc71af38	-0.014751248
87	0xbb797585	-0.0038064432
88	0x3c54f0c7	0.012996859
89	0x3b1bd42c	0.0023777587
90	0xbba6e027	-0.005092639
91	0x3b08085c	0.0020756936
92	0x3c9eb413	0.019372975
93	0xbc47aaa4	-0.01218668
94	0x3c0034bc	0.007825073
95	0x3ae96615	0.0017806912
96	0x3b6730d7	0.0035276914
97	0xbc4cdafb	-0.012503381
98	0x3b50c47b	0.0031855393
99	0x3c1f10a3	0.009708556
100	0x3c46ea64	0.012140844
101	0xbb136319	-0.0022489487
102	0xbc1b7744	-0.009488884
103	0xbc572663	-0.013131711
104	0xb6ade69f	-5.1826496e-06
105	0xbba465cb	-0.0050170175
106	0x3883db6f	6.2874395e-05
107	0xbc275c02	-0.0102148075
108	0xbbff9a2b	-0.0078003607
109	0xbbaaee87	-0.005216423
110	0x3b4864b0	0.0030577593
111	0xbb4e1393	-0.0031444773
112	0x3c90f041	0.017692687
113	0x3be0311f	0.006841793
114	0x3acc1edd	0.0015573163
115	0x3ac669de	0.0015137752
116	0xb9ebe19d	-0.00044990788
117	0x3b315f07	0.0027064697
118	0x3ca47836	0.020076852
119	0xbbb9b430	-0.005667232
120	0x3b08f9bd	0.0020900809
121	0x3c284a01	0.01027155
122	0x3bcc29df	0.0062305774
123	0xbc02320f	-0.007946505
124	0x3aa32f27	0.0012449966
125	0x3c13d957	0.009023986
126	0xbb490751	-0.0030674527
127	0xb92ac4b2	-0.00016285738
