Assets/results/VikramRover20-ppo/VikramRover/VikramRover-771808.pt (torch, 860115 bytes, 51 tensors)

network_body._body_endoder.seq_layers.0.weight f4 [128, 10]
0.30217603 0.7091341 -0.24416883 -0.10768811 0.47208843 0.18504314 0.2496888 -0.97042215
0.21962768 0.25770074 -0.36575317 0.8416134 0.0985542 0.05252509 0.17176856 0.45482755
0.46291018 -0.59207076 0.6477146 0.4830262 -0.33985552 -0.50396657 0.068046 0.027733134
0.10098334 0.24526823 -0.74803585 0.32058215 -0.20564084 0.030505119 -0.31827572 0.53653336
-0.3659526 0.08688105 0.410793 0.14962585 -0.13476142 0.21016699 0.16056561 -0.25715947
-0.050473493 -0.05297853 -0.16068944 0.3295067 0.20093846 -0.11285606 0.26657578 -0.31312025
0.36967328 -0.39936572 0.15518807 -0.9957654 -0.08531642 -0.13823126 -0.063489534 0.5256755
-0.5626166 0.47625124 -0.38312775 -0.20693482 -0.1078776 0.12853003 0.13900398 0.06957076
-0.4169216 -0.16157399 -0.23168857 0.28168753 -0.10423165 -0.20574483 0.5383855 -0.17534836
-0.36664966 -0.060942117 0.34221137 -0.6954995 0.15612376 -0.2765685 0.15261254 0.38487187
0.08778361 -0.29504198 -0.5106897 0.17008084 -0.14785281 -0.17712624 -0.093813024 0.5795291
-0.47215423 -0.4171915 0.08459477 -0.3591665 -0.16446362 0.18366614 -0.022276046 0.037918113
-0.5726406 1.1332381 -0.666836 -0.44435096 0.003434523 0.17661183 -0.08591711 -0.49770525
0.06675986 0.068167776 0.30712718 0.007680981 -0.066247 0.2318948 0.011338826 -0.35262558
0.015251469 0.33022973 0.6890049 -0.1368857 0.44429886 -0.35118833 0.14664358 0.3549324
0.034447342 0.19517565 -0.41308203 -0.27730525 -0.07314657 0.61934096 0.0719314 -0.7818568
-0.03422535 0.31789714 0.037214454 -0.18007012 0.098759525 -0.12637475 -0.13478221 0.018134281
0.0068365345 0.0045896065 0.07707528 -0.190315 0.10606747 -0.27040848 -0.20426771 -0.34259784
-0.18025167 0.01605051 0.17136374 -0.06313699 -0.046657316 0.08310171 -0.32001543 0.13556018
0.001939793 0.034495268 -0.23840073 -0.2501491 0.31999183 0.4630274 -0.8018348 0.34251398
-0.2811915 -0.24200585 0.56727123 0.21329282 -0.2780436 0.031101612 0.793478 -0.077636205
-0.81592613 -0.123950936 -0.8255 -0.24806613 0.24482326 0.4182014 -0.74034667 0.02280154
-0.3792141 -0.17962399 0.2219284 0.0066103917 0.24343634 -0.13453934 0.75212115 0.12536734
-0.40397066 -0.4616807 -0.36885583 -0.08577319 0.23901747 0.13231386 -0.17476836 -0.21146189
-0.0552544 -0.13393949 -0.3023591 0.19071984 0.34861585 0.23538905 -0.17406094 -0.019447604
-0.10956346 -0.4113732 -0.03436072 -0.61562455 -0.06543338 0.57725906 -0.012000691 -0.0010559615
0.3979431 -0.1528237 -0.24389379 -0.6379985 -0.070464 0.18455939 -0.070192434 0.0875535
-0.37348115 -0.19049793 0.070701726 -0.2208879 -0.5740398 -0.19091852 -0.54976696 -0.2561321
0.22215256 -0.17234676 -0.18075517 0.21494028 0.10479114 0.6106762 0.25066888 0.13294597
0.517401 -0.11808024 0.30686414 -0.06646727 0.39649895 0.31465375 0.85181856 0.49152687
0.49781075 0.03993939 0.13780154 -0.14107521 0.22526762 -0.02815126 0.7177586 0.273735
-0.5906744 0.5184051 -0.10282476 -0.42719617 -0.092551045 0.015230695 -0.026588392 0.2144785
00000000: d1b6 9a3e d089 353f 6507 7abe 958b dcbd
00000010: 93b5 f13e f37b 3d3e 6cae 7f3e 966d 78bf
00000020: 14e6 603e 5af1 833e 0044 bbbe fa73 573f
00000030: c9d6 c93d 8c24 573d 19e4 2f3e 28df e83e
00000040: 9002 ed3e f391 17bf a0d0 253f 364f f73e
00000050: 8b01 aebe f403 01bf b45b 8b3d 9930 e33c
00000060: 5ad0 ce3d 9827 7b3e 477f 3fbf 5823 a43e
00000070: 8393 52be dfe5 f93c 09f5 a2be 405a 093f
00000080: 245e bbbe b1ee b13d 7653 d23e 8537 193e
00000090: e6fe 09be 0436 573e 506b 243e 68aa 83be
000000a0: 4bbd 4ebd 0400 59bd c68b 24be 1ab5 a83e
000000b0: d0c2 4d3e 1421 e7bd 9f7c 883e 4c51 a0be
000000c0: d145 bd3e aa79 ccbe 9fe9 1e3e 7bea 7ebf
000000d0: 60ba aebd 7f8c 0dbe cd06 82bd ab92 063f
000000e0: a407 10bf 34d7 f33e 5229 c4be b9e6 53be
000000f0: eeee dcbd 609d 033e 0f57 0e3e 1d7b 8e3d
00000100: bf76 d5be a773 25be c53f 6dbe 5939 903e
00000110: 6777 d5bd c6ae 52be a2d3 093f 858e 33be
00000120: 81b9 bbbe 719e 79bd 5436 af3e 410c 32bf
00000130: e8de 1f3e 639a 8dbe 7646 1c3e ed0d c53e
00000140: e5c7 b33d be0f 97be 8fbc 02bf ac29 2e3e
00000150: ba66 17be 9560 35be 0b21 c0bd 055c 143f
00000160: 33be f1be 209a d5be 0640 ad3d ace4 b7be
00000170: 2769 28be fa12 3c3e 417c b6bc 0650 1b3d
00000180: 9398 12bf f20d 913f c4b5 2abf f881 e3be
00000190: bc15 613b bbd9 343e 4ff5 afbd 39d3 febe
000001a0: 65b9 883d 8c9b 8b3d c63f 9d3e bdb0 fb3b
000001b0: 82ac 87bd d575 6d3e 7cc6 393c 578b b4be
000001c0: 4ce1 793c df13 a93e a062 303f c42b 0cbe
000001d0: 247b e33e f5ce b3be bc29 163e b3b9 b53e
000001e0: a818 0d3d 20dc 473e 7d7f d3be f4fa 8dbe
000001f0: decd 95bd 218d 1e3f c550 933d c427 48bf
00000200: e12f 0cbd 6ac3 a23e 2f6e 183d 4d64 38be
00000210: 6f42 ca3d 6268 01be 5904 0abe 588e 943c
00000220: 0205 e03b 6964 963b a5d9 9d3d efe1 42be
00000230: e739 d93d fb72 8abe 8e2b 51be fc68 afbe
00000240: e593 38be 5c7c 833c fa79 2f3e f74d 81bd
00000250: be1b 3fbd 3b31 aa3d 10d9 a3be 4ad0 0a3e
00000260: a740 fe3a e94a 0d3d 521f 74be 8b13 80be
00000270: f8d5 a33e ed11 ed3e 0c45 4dbf fe5d af3e
00000280: 55f8 8fbe 62d0 77be b038 113f 6f69 5a3e
00000290: bb5b 8ebe cfc8 fe3c 6021 4b3f bbff 9ebd
000002a0: 89e0 50bf fdd9 fdbd f853 53bf 0c05 7ebe
000002b0: f3b2 7a3e 7e1e d63e 5c87 3dbf 4cca ba3c
000002c0: 5a28 c2be 5aef 37be 3341 633e fc9b d83b
000002d0: 6047 793e aec4 09be 038b 403f 4c60 003e
000002e0: 3ed5 cebe 6a61 ecbe acda bcbe dba9 afbd
000002f0: ffc0 743e 497d 073e 7af6 32be 7789 58be
00000300: 7052 62bd 6f27 09be d0ce 9abe 104c 433e
00000310: c77d b23e d409 713e 083d 32be 9550 9fbc
00000320: cf62 e0bd 829f d2be d4bd 0cbd 9299 1dbf
00000330: f001 86bd 40c7 133f 8c9e 44bc 3068 8aba
00000340: 33bf cb3e d17d 1cbe 4bbf 79be df53 23bf
00000350: 6e4f 90bd 23fd 3c3e 0dc1 8fbd 404f b33d
00000360: ec38 bfbe e411 43be 11cc 903d 7030 62be
00000370: 46f4 12bf 2580 43be 87bd 0cbf bf23 83be
00000380: f67b 633e ab7b 30be e217 39be 4e19 5c3e
00000390: bd9c d63d 4755 1c3f ac57 803e fd22 083e
000003a0: 6474 043f 0ed4 f1bd 4c1d 9d3e fe1f 88bd
000003b0: e901 cb3e 4c1a a13e c810 5a3f 69a9 fb3e
000003c0: 0de1 fe3e 7c97 233d d91b 0d3e 0576 10be
000003d0: 8eac 663e 799d e6bc 07bf 373f fe26 8c3e
000003e0: 7036 17bf 32b6 043f ca95 d2bd 75b9 dabe
000003f0: 678b bdbd 2a8a 793c e6cf d9bc 40a0 5b3e

network_body._body_endoder.seq_layers.0.bias f4 [128]
-0.0400794 -0.11084963 0.022511926 0.01099636 -0.099407524 -0.06501636 -0.038452126 -0.027374092
-0.1021925 -0.0862577 -0.0059726518 -0.11440895 0.023720976 -0.092395455 1.2452458e-06 -0.03292238
-0.31132412 -0.07272532 0.0425056 -0.25138995 -0.0137079405 -0.12084451 0.0 0.1908747
0.10483141 -0.13672501 -0.13314383 0.036436126 0.0 -0.096534 -0.017653966 0.03840299
-0.22462496 -0.033103716 0.03436402 0.07768322 -0.123821534 -0.16099297 -0.25297642 -0.082129605
-0.007797362 -0.10490873 -0.16030715 0.064630106 -0.01695489 -0.18869458 -0.0062409 -0.02017037
-0.08674717 -0.026634129 -0.044869393 -0.058101907 -2.1445281e-20 0.090615995 -0.19447677 -0.06956458
-0.08518999 -0.0904033 -0.041284736 -0.11052785 -0.060314696 -0.12388252 0.006012863 -0.012908227
-0.10980558 -0.07716853 -0.04103099 0.15023322 -0.1260827 -1.07521645e-27 -0.14689222 -0.005772025
-0.21754329 -2.3247042e-08 0.076053426 0.06974217 -0.1514555 -0.04463929 -0.071374 0.06615896
-0.02402648 -1.4484698e-27 -0.12219608 5.9732953e-13 -0.12964436 -0.16470502 0.13451669 -0.015545801
0.0012122353 -0.014378004 -3.7769112e-07 -1.8964962e-15 -0.08938971 -0.0046748403 -1.9658493e-23 -0.097494826
-0.14940262 0.062200107 -0.018939834 0.0042995503 8.461266e-17 -0.091960944 -0.26854733 -1.3720875e-13
0.004414293 -0.13463025 -0.057190392 0.011138993 -0.11777857 -0.17642303 -0.0073199053 0.0
-0.28583583 -0.038777765 -0.06086198 -2.2781178e-12 -0.17408107 -0.10513733 -0.0006867037 -8.430178e-16
1.2848891e-33 -0.124335274 -0.015588099 1.7998137e-19 4.4073545e-06 4.4001308e-07 0.0030677586 -4.948853e-28
00000000: 4c2a 24bd 2105 e3bd ee6a b83c 142a 343c
00000010: 2c96 cbbd 4c27 85bd fa7f 1dbd a23f e0bc
00000020: 4d4a d1bd e1a7 b0bd 3cb6 c3bb 3d4f eabd
00000030: 7e52 c23c d439 bdbd 5222 a735 9ed9 06bd
00000040: e065 9fbe 03f1 94bd 5a1a 2e3d 2fb6 80be
00000050: 4597 60bc 547d f7bd 0000 0000 a874 433e
00000060: dab1 d63d a401 0cbe db56 08be 0c3e 153d
00000070: 0000 0000 9eb3 c5bd 0d9f 90bc 744c 1d3d
00000080: 1604 66be c397 07bd 49c1 0c3d 6118 9f3d
00000090: 2596 fdbd 57db 24be 2086 81be 9133 a8bd
000000a0: 0381 ffbb 63da d6bd 8f27 24be ca5c 843d
000000b0: fbe4 8abc 2739 41be 7780 ccbb 553c a5bc
000000c0: 80a8 b1bd d12f dabc f8c8 37bd 44fc 6dbd
000000d0: 828b ca9e e194 b93d eb24 47be e077 8ebd
000000e0: 1778 aebd 5e25 b9bd 2f1a 29bd 6d5c e2bd
000000f0: 8b0c 77bd 1eb6 fdbd 8d07 c53b 077d 53bc
00000100: bfe1 e0bd 890a 9ebd 1d10 28bd bdd6 193e
00000110: d31b 01be f65f aa92 ea6a 16be 4123 bdbb
00000120: abc3 5ebe c9b0 c7b2 e6c1 9b3d fcd4 8e3d
00000130: 2717 1bbe b0d7 36bd 882c 92bd 597e 873d
00000140: 2ed3 c4bc ea84 e592 f041 fabd 2122 282b
00000150: 7ec1 04be 6fa8 28be bebe 093e d1b3 7ebc
00000160: dee3 9e3a b891 6bbc 79c5 cab4 2ea8 08a7
00000170: f411 b7bd 672f 99bb 1220 be99 5eab c7bd
00000180: 00fd 18be 8ac5 7e3d b627 9bbc 3ee3 8c3b
00000190: 801a c324 0556 bcbd 097f 89be bb7b 1aaa
000001a0: c6a5 903b 83dc 09be 7940 6abd 5380 363c
000001b0: e435 f1bd 3da8 34be d1db efbb 0000 0000
000001c0: 1359 92be 6fd5 1ebd 694a 79bd ec4e 20ac
000001d0: 4f42 32be 3e52 d7bd e803 34ba bcfb 72a6
000001e0: 237d d508 7ea3 febd 3a65 7fbc 087c 5420
000001f0: e3e2 9336 f03a ec34 730c 493b ded5 1c92

network_body._body_endoder.seq_layers.2.weight f4 [128, 128]
-0.021490607 -0.0105772065 -0.058115378 0.06510549 -0.14341058 -0.1108239 0.0004905096 -0.054481883
-0.02843646 0.034388773 -0.019528989 -0.15365818 0.101372786 0.120039605 -0.07285293 0.16447471
-0.12365414 -0.02504685 -0.11028946 -0.031993035 -0.10014743 -0.054045152 -0.06528022 -0.18663727
-0.0013652082 -0.11502761 0.08422662 -0.090235084 -0.04029006 0.044615358 0.13969238 0.11680449
0.002928412 0.017025243 0.12595412 0.08041156 0.06722194 0.15730134 0.052373763 0.08160668
0.017695721 -0.30895427 -0.07433852 -0.0030362387 0.10219822 0.033337343 -0.16593021 -0.018013628
0.09674878 -0.051325385 -0.08946767 -0.06659774 0.17583483 -0.20123039 -0.03892479 0.067118175
-0.11332881 -0.06498681 -0.034818742 -0.16658862 0.00221172 0.12180094 -0.026611503 -0.042995967
-0.115504906 -0.05326136 -0.00050223205 0.013325878 -0.1625088 -0.100334585 -0.11076828 0.0107808495
0.0642053 -0.016405035 0.06628561 0.050558724 0.021537995 0.041872755 -0.06940329 -0.05138839
0.051660277 0.11590472 -0.0048705954 0.12091485 -0.05382707 -0.08823074 -0.02440345 0.079884216
0.09985902 0.036665145 0.1488228 0.05015834 -0.04368137 -0.042164534 -0.123925745 -0.056743518
0.08129741 -0.06176867 0.10647805 0.07593461 -0.1233668 0.029839613 0.08672766 0.057377998
0.044407573 -0.04966562 -0.21341252 0.038818415 0.07472217 -0.17045116 -0.012912808 -0.028821616
0.11231008 0.007306191 -0.05001185 0.0038105308 0.17364371 -0.10285332 -0.034132365 0.03078468
-0.17264046 -0.06780405 0.012884665 0.18594846 -0.0465303 0.0059444136 -0.005233466 0.038894493
0.101052694 0.047642365 -0.020899558 -0.038621485 0.09149156 -0.022830756 0.19825025 -0.055349316
-0.026418487 0.0922438 -0.00010331248 -0.12762369 0.12197016 0.022911703 0.07751306 0.04347741
-0.12486437 -0.053611655 0.0074547664 -0.0022437847 0.0037689852 0.047659546 -0.13004163 0.036282346
-0.20316534 -0.055524167 0.0012871578 -0.004888561 -0.0731271 0.124793515 -0.0451702 0.12203602
0.100844584 0.032575835 0.056963418 -0.119171895 0.030787667 -0.17538586 -0.103688866 -0.14801095
0.019444842 -0.15475531 0.136284 0.11099952 -0.10609528 -0.007416949 -0.07276428 0.048323076
0.057877634 0.018447155 -0.015899451 -0.06134832 -0.08115451 0.09888069 0.0979329 0.15467775
-0.036847692 -0.022027591 0.10784493 0.05429708 0.15928519 -0.055234727 0.013853524 0.029093627
-0.15072942 -0.11257301 0.010995328 0.027399337 -0.041857444 -0.14091145 -0.12428355 -0.01616678
0.023196608 0.009296209 0.17878285 0.15166272 -0.014195308 0.07115516 -0.122959256 -0.027502615
0.05434431 -0.023727372 -0.07824834 -0.014422699 0.05906698 -0.09815789 0.034644924 -0.13571872
0.1359539 -0.014600294 0.057064563 -0.07047123 0.05758526 0.003986492 -0.08008692 -0.0110227885
-0.040230565 0.023424568 0.038356055 0.14722285 -0.0031951836 0.057591815 0.13999787 -0.12395256
-0.006187231 -0.092988804 0.059985135 0.17107135 0.004713803 0.04727767 0.06623428 -0.0060272957
-0.15959689 -0.035616137 -0.0518365 -0.06663131 0.098597065 0.10463759 0.018327093 -0.20571323
0.0507268 -0.094623424 -0.12606457 0.018165259 0.07709896 0.04705981 -0.033256426 -0.013617819
00000000: 120d b0bc 054c 2dbc 640a 6ebd 0756 853d
00000010: 39da 12be a4f7 e2bd 8b95 003a 6528 5fbd
00000020: 94f3 e8bc 3edb 0c3d 42fb 9fbc 9258 1dbe
00000030: 899c cf3d 53d7 f53d eb33 95bd 0f6c 283e
00000040: 623e fdbd 0d2f cdbc 71df e1bd 210b 03bd
00000050: 191a cdbd 735e 5dbd a3b1 85bd d71d 3fbe
00000060: c9f0 b2ba 9893 ebbd 027f ac3d 2ccd b8bd
00000070: 3107 25bd 98be 363d 850b 0f3e 3137 ef3d
00000080: 9aea 3f3b 8678 8b3c 1efa 003e d1ae a43d
00000090: a8ab 893d 9a13 213e df85 563d 6721 a73d
000000a0: 9ef6 903c 412f 9ebe cb3e 98bd a2fb 46bb
000000b0: 4d4d d13d bd8c 083d 9ce9 29be 5191 93bc
000000c0: 3924 c63d 913a 52bd d33a b7bd 6564 88bd
000000d0: 0c0e 343e 570f 4ebe 9a6f 1fbd 4175 893d
000000e0: ef18 e8bd ce17 85bd 199e 0ebd 3596 2abe
000000f0: 81f2 103b c572 f93d 5e00 dabc 8a1c 30bd
00000100: d68d ecbd 9528 5abd 39a8 03ba c954 5a3c
00000110: b568 26be 387c cdbd 7bda e2bd 29a2 303c
00000120: 117e 833d da63 86bc c0c0 873d aa16 4f3d
00000130: 7370 b03c c482 2b3d 5023 8ebd a27c 52bd
00000140: ba99 533d 745f ed3d 8499 9fbb 34a2 f73d
00000150: c679 5cbd 51b2 b4bd bee9 c7bc 569a a33d
00000160: e382 cc3d 312e 163d 0165 183e d572 4d3d
00000170: 3ceb 32bd b8b4 2cbd c8cc fdbd e46b 68bd
00000180: 427f a63d 2501 7dbd 2a11 da3d 9b83 9b3d
00000190: bca7 fcbd 3472 f43c 459e b13d 3105 6b3d
000001a0: b7e4 353d 2d6e 4bbd d088 5abe 0f00 1f3d
000001b0: f007 993d c08a 2ebe 3e90 53bc 4f1b ecbc
000001c0: d402 e63d c668 ef3b 3ad9 4cbd 19ba 793b
000001d0: a8cf 313e c3a4 d2bd 61ce 0bbd 2730 fc3c
000001e0: a9c8 30be dadc 8abd 341a 533c 4669 3e3e
000001f0: 8e96 3ebd 5bc9 c23b 7f7d abbb d54f 1f3d
00000200: b7f4 ce3d a424 433d 8d35 abbc 9031 1ebd
00000210: ed5f bb3d 9107 bbbc 1d02 4b3e f7b5 62bd
00000220: 956b d8bc 51ea bc3d 77a9 d8b8 c9af 02be
00000230: 7ecb f93d 53b1 bb3c 2bbf 9e3d 5e15 323d
00000240: e4b8 ffbd e597 5bbd 1d47 f43b 760c 13bb
00000250: 1401 773b a836 433d a229 05be cc9c 143d
00000260: 930a 50be 4f6d 63bd d9b5 a83a 3930 a0bb
00000270: a9c3 95bd be93 ff3d 6304 39bd 05ee f93d
00000280: 9b87 ce3d 3d6e 053d 7952 693d 6510 f4bd
00000290: 6b36 fc3c 5a98 33be d45a d4bd 2f90 17be
000002a0: ca4a 9f3c 2d78 1ebe 088e 0b3e b753 e33d
000002b0: 7b48 d9bd e109 f3bb 7005 95bd 6bee 453d
000002c0: 1911 6d3d 7d1e 973c 913f 82bc 6048 7bbd
000002d0: 5634 a6bd f681 ca3d 0b91 c83d d863 1e3e
000002e0: 9bed 16bd 3573 b4bc cddd dc3d 9d66 5e3d
000002f0: a81b 233e cf3d 62bd e4f9 623c c255 ee3c
00000300: d058 1abe ae8c e6bd c025 343c 9374 e03c
00000310: b672 2bbd 174b 10be 6088 febd 3270 84bc
00000320: d006 be3c 204f 183c da12 373e 794d 1b3e
00000330: 7093 68bc ccb9 913d 10d2 fbbd 2a4d e1bc
00000340: 2498 5e3d e85f c2bc aa40 a0bd 2f4d 6cbc
00000350: 38f0 713d 0107 c9bd d6e7 0d3d d9f9 0abe
00000360: 8037 0b3e 1236 6fbc 88bc 693d 3853 90bd
00000370: 86de 6b3d 1ea1 823b 9c04 a4bd ed98 34bc
00000380: cec8 24bd e1e4 bf3c 3d1b 1d3d 96c1 163e
00000390: 4966 51bb 65e5 6b3d 9a5b 0f3e d7da fdbd
000003a0: 41be cabb ea70 bebd f9b2 753d 542d 2f3e
000003b0: 3f76 9a3b 3ba6 413d d7a5 873d 9f80 c5bb
000003c0: 5e6d 23be 3ae2 11bd 8352 54bd ff75 88bd
000003d0: 42ed c93d 3c4c d63d b322 963c 7da6 52be
000003e0: e8c6 4f3d edc9 c1bd 1217 01be 4fcf 943c
000003f0: 0fe6 9d3d cac1 403d e437 08bd 461d 5fbc

network_body._body_endoder.seq_layers.2.bias f4 [128]
-0.0072869477 -0.019117111 -0.030151734 1.237841e-07 -4.3690848e-06 -0.01360934 -0.021182226 -0.02967903
1.490672e-07 -0.02502212 -3.9305782e-18 -0.0068218564 -0.057475533 -0.012052356 -0.00713622 -0.012492163
0.057467055 -0.0050514136 -0.013066483 0.019517826 1.047747e-08 -0.04303707 -0.054699466 -0.014198015
0.0017330264 -0.015898801 -0.012169418 -0.022305928 -0.040188648 -0.03725479 -0.017897459 -0.022356624
-0.017843878 -0.03281702 -0.03027014 -0.026003452 -0.024388712 -0.021873163 -0.006117117 -0.0048247864
-0.02265785 -0.0046391324 0.0012724784 -0.050045174 -1.7697945e-19 -0.01546888 -0.0074324417 -0.03135329
-0.045067012 -0.10071992 -0.03240065 -0.02422469 -0.015017443 -0.019496074 1.1034745e-06 -0.02150062
0.002189024 -0.0009527649 -0.027794655 -0.024657967 -0.019449374 -0.018357217 -0.040249046 -0.029829647
-0.021416722 -0.036123373 -0.0048164884 -0.038188245 -0.03294247 -0.01216176 -0.018005142 -0.015749767
-0.022935124 -0.01445377 -0.019835351 -9.885388e-07 -0.042347006 -0.0491136 -0.026292624 -0.022548823
-0.012722742 -0.032611694 -0.008539016 -0.021037063 -0.022461848 -0.04536504 -0.024377458 -0.02323482
-0.011229442 -0.0526025 -4.34862e-14 -0.021954978 -0.030671054 -0.023554247 -0.067595206 -0.008491148
-0.027185965 -0.022029066 -0.020280771 -0.04151178 -0.014903018 -0.023760987 -0.0122688515 -0.01857201
-0.019608561 -0.023441305 -0.034930747 -0.010481181 -0.06821835 -0.007123482 -0.07104449 -0.00090632105
-0.008677448 -0.06736374 -0.018228361 -0.047065854 -0.0076432466 -0.027502645 -0.011275494 0.009689726
-0.007022355 -4.1279472e-23 -0.022180174 -0.02029449 -0.015126823 -0.032679804 -0.033427328 -0.024652543
00000000: 59c7 eebb 7d9b 9cbc c500 f7bc 84e9 0434
00000010: 279a 92b6 b6f9 5ebc 5986 adbc 7021 f3bc
00000020: 480f 2034 30fb ccbc 4303 91a2 e189 dfbb
00000030: 776b 6bbd 3f77 45bc f4d6 e9bb eeab 4cbc
00000040: 9362 6b3d 5486 a5bb cd14 56bc d9e3 9f3c
00000050: 6600 3432 a447 30bd 8c0c 60bd cb9e 68bc
00000060: b726 e33a 343e 82bc 3d62 47bc ecba b6bc
00000070: da9c 24bd 7b98 18bd b19d 92bc 3d25 b7bc
00000080: 532d 92bc 246b 06bd 16f9 f7bc 3105 d5bc
00000090: d6ca c7bc 592f b3bc 1972 c8bb 3e19 9ebb
000000a0: f59c b9bc dd03 98bb 4ac9 a63a 2bfc 4cbd
000000b0: c2f0 50a0 2f71 7dbc d78b f3bb 4f6c 00bd
000000c0: 3098 38bd 3f46 cebd 8bb6 04bd db72 c6bc
000000d0: b90b 76bc 3bb6 9fbc 181b 9435 1122 b0bc
000000e0: ba75 0f3b f8c2 79ba 9eb1 e3bc 81ff c9bc
000000f0: 4b54 9fbc e061 96bc 2fdc 24bd 4e5d f4bc
00000100: 1f72 afbc 1af6 13bd a2d3 9dbb 476b 1cbd
00000110: afee 06bd 1e42 47bc 857f 93bc a805 81bc
00000120: 71e2 bbbc 81cf 6cbc bf7d a2bc efad 84b5
00000130: 0e74 2dbd 582b 49bd a163 d7bc 4fb8 b8bc
00000140: 0c73 50bc d793 05bd 3be7 0bbc eb55 acbc
00000150: e901 b8bc b1d0 39bd 3cb3 c7bc f356 bebc
00000160: b2fb 37bc b875 57bd 2dd8 43a9 edda b3bc
00000170: dd41 fbbc d6f4 c0bc 5b6f 8abd 751e 0bbc
00000180: 1ab5 debc 4d76 b4bc dc23 a6bc 4208 2abd
00000190: ca2b 74bc 67a6 c2bc 4b03 49bc 5424 98bc
000001a0: 22a2 a0bc fb07 c0bc 8b13 0fbd 42b9 2bbc
000001b0: 10b6 8bbd 196c e9bb c67f 91bd 2d96 6dba
000001c0: db2b 0ebc 00f6 89bd a553 95bc 20c8 40bd
000001d0: 3374 fabb 3a4d e1bc d9bc 38bc a8c1 1e3c
000001e0: c91b e6bb 839d 479a 32b3 b5bc a140 a6bc
000001f0: 7fd6 77bc 42db 05bd 18eb 08bd 21f4 c9bc

network_body._body_endoder.seq_layers.4.weight f4 [128, 128]
-0.116578884 0.00826904 0.015159043 -0.04355098 -0.067210935 -0.021859728 -0.0975682 0.046775483
0.03265775 0.04229913 0.060473684 -0.18665482 -0.14593247 -0.042039365 -0.082210764 0.02183343
0.2378922 0.016349254 0.034487568 0.026720582 -0.00016743409 -0.0485943 -0.15361437 0.17077611
0.0012246743 -0.030154452 -0.03666548 -0.055178434 -0.091887236 0.063953996 0.02114859 0.049985617
-0.11417129 -0.0786913 -0.08083863 -0.1710179 -0.07591307 -0.028441513 0.0477375 0.088848524
0.04246618 0.020536438 0.05669536 -0.003098425 -0.0788244 -0.10429874 -0.10073691 -0.07596391
0.08045042 -0.10531945 -0.087061405 -0.13776956 -0.040363636 -0.056178723 -0.10252993 -0.008198327
-0.11859987 -0.12187792 -0.06900701 -0.01985483 0.089484066 0.0843887 0.05974077 -0.096046634
0.006993814 -0.034493767 0.11943525 -0.026122414 -0.032850232 -0.042439137 -0.12768131 -0.03743393
0.063466854 0.07178683 0.18005443 0.12076879 0.04935572 -0.023325065 0.06742573 0.011631536
0.0307419 -0.022372622 -0.0026653972 -0.006300438 0.0005977982 -0.038995948 0.06597745 -0.057834458
-0.022498902 -0.11157601 -0.07342886 -0.0013518396 -0.04776024 0.067875214 0.021753736 0.013035086
-0.04273375 -0.046287972 -0.14986315 -0.07228963 0.036559172 -0.08764007 0.024343185 -0.06757424
0.029946575 0.18935709 -0.04486433 -0.16498043 -0.023606407 -0.026934518 0.11591846 0.111955
-0.054668676 0.19895 -0.107981265 -0.048735205 0.09626186 0.08170048 -0.029311122 -0.2212681
-0.15147586 0.32749775 0.007902386 -0.2236216 0.06647166 -0.13080257 -0.31455454 0.02517023
0.008476565 -0.016210321 0.15531833 -0.024557391 -0.07293826 0.10319783 -0.0887924 -0.06311566
0.07005664 0.037167184 -0.15758955 0.04685235 0.20062426 0.041356105 -0.023734178 0.029401336
0.039573073 -0.02850765 0.014372974 -0.31134772 0.15064743 -0.038484156 0.0012945766 -0.027703552
0.06254029 0.014523714 -0.04317398 -0.04955176 -0.10245752 0.07677916 -0.0724501 0.049500678
-0.07655938 0.03105955 -0.05933823 0.031368658 0.10630957 0.041282468 -0.0653514 0.10103598
0.05891201 0.049131617 -0.03914859 -0.08214934 -0.034413792 0.17990595 0.10179316 -0.12806319
0.19717155 -0.19502054 -0.029950725 0.12309206 -0.11624077 -0.044689626 -0.087524295 0.04464862
-0.09875538 -0.00063439645 0.096520096 0.08566983 0.003897437 -0.07354111 -0.06793014 -0.026443524
0.07819218 -0.04615357 0.092763014 0.078542486 0.17194922 -0.14047578 -0.03951486 -0.0048628445
0.05944415 -0.02703716 -0.008007619 -0.11820324 -0.12541053 0.112237625 -0.002240768 -0.09747257
-0.20043041 0.12710805 -0.08310622 0.012206285 -0.16116716 0.051170144 0.081468314 0.14323105
0.08037014 -0.026410878 -0.034470852 0.04716483 -0.06745864 0.010082943 0.011891 0.012111383
0.0070763463 0.08139688 0.06727807 -0.028695058 -0.03216297 -0.04762079 0.05939896 0.08841574
0.06649259 -0.082223535 -0.053050637 0.118218735 -0.14645907 -0.025850816 -0.1920414 -0.063537225
-0.014914361 0.009750023 0.1357178 0.20469265 0.13800989 0.026632054 -0.028295722 -0.027742859
0.032475002 0.08237283 0.17182554 0.10386784 -0.0710323 -0.01274609 -0.03445318 -0.017950755
00000000: e9c0 eebd de7a 073c a25d 783c 8362 32bd
00000010: e3a5 89bd 2c13 b3bc d6d1 c7bd a697 3f3d
00000020: 22c4 053d da41 2d3d 41b3 773d 7122 3fbe
00000030: 526f 15be 7831 2cbd 1e5e a8bd 05dc b23c
00000040: 039a 733e dfee 853c d642 0d3d 1fe5 da3c
00000050: 3f91 2fb9 d10a 47bd 164d 1dbe efdf 2e3e
00000060: 4085 a03a 7806 f7bc 8b2e 16bd c802 62bd
00000070: 602f bcbd 50fa 823d cf3f ad3c b8bd 4c3d
00000080: a3d2 e9bd e728 a1bd b98e a5bd 511f 2fbe
00000090: 5078 9bbd 2dfe e8bc 6688 433d 37f6 b53d
000000a0: 04f1 2d3d 083c a83c 6539 683d f20e 4bbb
000000b0: b06e a1bd 949a d5bd 274f cebd f792 9bbd
000000c0: 31c3 a43d b9b1 d7bd 404d b2bd 7713 0dbe
000000d0: 5754 25bd a91b 66bd 36fb d1bd 4752 06bc
000000e0: 7de4 f2bd 229b f9bd 8c53 8dbd 99a6 a2bc
000000f0: 6c43 b73d fcd3 ac3d bdb2 743d 19b4 c4bd
00000100: 5d2c e53b 5649 0dbd 789a f43d acfe d5bc
00000110: f78d 06bd a9d4 2dbd e4be 02be 5254 19bd
00000120: e9fa 813d f904 933d 3060 383e a155 f73d
00000130: 3929 4a3d 3514 bfbc 8016 8a3d 3392 3e3c
00000140: 70d6 fb3c ca46 b7bc f2ad 2ebb e873 cebb
00000150: 8fb5 1c3a 37ba 1fbd 2f1f 873d d3e3 6cbd
00000160: 9e4f b8bc f781 e4bd df61 96bd 3630 b1ba
00000170: 3ea0 43bd 2902 8b3d e434 b23c 1d91 553c
00000180: 9609 2fbd 7598 3dbd ba75 19be 960c 94bd
00000190: 12bf 153d a37c b3bd 5c6b c73c 5d64 8abd
000001a0: 8552 f53c d3e6 413e a9c3 37bd a1f0 28be
000001b0: 3962 c1bc c7a5 dcbc a866 ed3d aa48 e53d
000001c0: 43ec 5fbd 8cb9 4b3e 4825 ddbd 919e 47bd
000001d0: f024 c53d 9552 a73d e11d f0bc 1b94 62be
000001e0: 7d1c 1bbe c9ad a73e 0279 013c 10fd 64be
000001f0: 4b22 883d 1cf1 05be 4b0d a1be cc31 ce3c
00000200: 4ae1 0a3c 82cb 84bc c50b 1f3e 952c c9bc
00000210: a860 95bd 6259 d33d cad8 b5bd c842 81bd
00000220: db79 8f3d 9e3c 183d 285f 21be 40e8 3f3d
00000230: 7270 4d3e 0565 293d 2e6e c2bc 12db f03c
00000240: 6017 223d e088 e9bc 9f7c 6b3c f868 9fbe
00000250: 5243 1a3e 90a1 1dbd c8ae a93a 8ff2 e2bc
00000260: 2015 803d dff4 6d3c 33d7 30bd c9f6 4abd
00000270: 40d5 d1bd 643e 9d3d b860 94bd 39c1 4a3d
00000280: 2acb 9cbd 9970 fe3c a50c 73bd 6c7c 003d
00000290: d5b8 d93d ce17 293d f4d6 85bd f4eb ce3d
000002a0: b84d 713d 3c3e 493d 465a 20bd ea3d a8bd
000002b0: 7af5 0cbd 4439 383e ef78 d03d ff22 03be
000002c0: 57e7 493e 77b3 47be 395b f5bc b117 fc3d
000002d0: a40f eebd 780c 37bd f03f b3bd 79e1 363d
000002e0: 4340 cabd a04d 26ba 54ac c53d aa73 af3d
000002f0: 246c 7f3b b99c 96bd f51e 8bbd 17a0 d8bc
00000300: 3923 a03d 870b 3dbd 89fa bd3d e2da a03d
00000310: 7513 303e e2d8 0fbe 55da 21bd 7f58 9fbb
00000320: b67b 733d 097d ddbc 6332 03bc 8a14 f2bd
00000330: 9e6b 00be d7dc e53d d9d9 12bb b39f c7bd
00000340: a13d 4dbe 9d28 023e 9833 aabd dffc 473c
00000350: 0109 25be c997 513d dcd8 a63d 29ab 123e
00000360: 1a99 a43d a05b d8bc 4f31 0dbd e92f 413d
00000370: c127 8abd ee32 253c 78d2 423c d26e 463c
00000380: b2e0 e73b 68b3 a63d 16c9 893d e611 ebbc
00000390: 52bd 03bd 040e 43bd 534c 733d 5013 b53d
000003a0: 442d 883d d064 a8bd a04b 59bd aa1c f23d
000003b0: 5ef9 15be 17c5 d3bc 80a6 44be ce1f 82bd
000003c0: 5d5b 74bc 8fbe 1f3c 9bf9 0a3e f39a 513e
000003d0: 7752 0d3e 772b da3c 6ecc e7bc fe44 e3bc
000003e0: 8204 053d 16b3 a83d 09f3 2f3e a9b8 d43d
000003f0: 6279 91bd fad4 50bc c71e 0dbd 760d 93bc

network_body._body_endoder.seq_layers.4.bias f4 [128]
0.0805821 -0.06937822 0.06872025 0.02697198 0.09923353 -0.04886977 -0.034075476 -0.049980395
-0.05828759 -0.028813148 -0.020865334 -0.03183242 -0.13580829 -0.032454193 -0.095107414 -0.023588352
-0.12802413 -0.08908267 -0.04311272 -0.025649074 0.030213129 -0.11148922 -0.0029489074 -0.0040687867
-0.055940587 -0.022735044 -0.13253975 -0.049144115 0.02004298 -0.03340078 -0.06283048 -0.05252009
-0.0649112 -0.038317345 -0.027052104 -0.03876026 0.0039306525 -0.027924558 -0.12169387 0.0039226045
-0.02424381 -0.07539923 -0.1279863 -0.055182658 -0.05020119 -0.09614902 0.099657156 -0.078290336
0.015797978 -0.007705096 -0.025310837 -0.07253312 -0.042658787 -0.10960805 -0.085111104 -0.056115758
-0.0058332626 -0.11289938 -0.05745982 -0.09507973 -0.0659787 -0.086296074 -0.06719526 -0.09523043
-0.115015484 0.049956564 -0.04958565 -0.09790787 -0.08146605 -0.044676315 -0.08599565 -0.0061178734
-0.053745948 -0.021477675 0.11626588 0.07917422 0.092291474 -0.015553222 -0.015943106 -0.062287018
-0.094136454 -0.04478142 -0.025254833 -0.0009693284 -0.08072594 -0.11627118 -0.05342917 -0.06612239
-0.09799049 -0.06523795 0.024675194 -0.069105506 -0.057295926 -0.08101749 0.033119112 -0.050145317
-0.054987077 -0.034933753 -0.041617703 -0.114469424 -0.09302586 -0.039176583 -0.08009086 -0.075115435
-0.04528788 0.011108716 -0.011025009 -0.04591756 -0.027187165 -0.07186149 -0.039643623 -0.09019727
-0.024409479 -0.02747218 -0.049313936 -0.010923744 -0.11132337 -0.11497739 -0.02601336 -0.03297909
-0.011699764 0.04158977 -0.05273903 0.118577704 -0.023407672 -0.035568915 -0.07915075 0.02525906
00000000: 3a08 a53d 2b16 8ebd 34bd 8c3d 58f4 dc3c
00000010: f33a cb3d ab2b 48bd ba92 0bbd 3eb8 4cbd
00000020: f8be 6ebd 8d09 ecbc c7ed aabc b662 02bd
00000030: 5411 0bbe b0ee 04bd adc7 c2bd 5c3c c1bc
00000040: c218 03be fa70 b6bd f796 30bd 021e d2bc
00000050: 8681 f73c 7654 e4bd 7542 41bb 7553 85bb
00000060: f521 65bd d83e babc 80b8 07be 574b 49bd
00000070: 2d31 a43c 42cf 08bd 44ad 80bd 4e1f 57bd
00000080: 2af0 84bd a6f2 1cbd 609c ddbc 14c3 1ebd
00000090: b4cc 803b 0bc2 e4bc a33a f9bd 3189 803b
000000a0: f49a c6bc e96a 9abd d70e 03be 3607 62bd
000000b0: c39f 4dbd c7e9 c4bd 0d19 cc3d af56 a0bd
000000c0: c36a 813c 087b fcbb ac58 cfbc 3f8c 94bd
000000d0: fbba 2ebd 2f7a e0bd bb4e aebd a3d9 65bd
000000e0: f424 bfbb ca37 e7bd fd5a 6bbd 29b9 c2bd
000000f0: d71f 87bd ffbb b0bd ab9d 89bd 2c08 c3bd
00000100: 3d8d ebbd 419f 4c3d 531a 4bbd ec83 c8bd
00000110: acd7 a6bd 83fe 36bd 7d1e b0bd 7178 c8bb
00000120: b624 5cbd f3f1 afbc ce1c ee3d 1826 a23d
00000130: 5003 bd3d f1d2 7ebc 1e9b 82bc ac20 7fbd
00000140: 9dca c0bd b96c 37bd 39e3 cebc 871a 7eba
00000150: a453 a5bd 961f eebd 8cd8 5abd 2d6b 87bd
00000160: 3daf c8bd 799b 85bd a223 ca3c 3087 8dbd
00000170: 22af 6abd 7fec a5bd e8a7 073d 2d65 4dbd
00000180: 213a 61bd b216 0fbd 5377 2abd f26e eabd
00000190: 5884 bebd a077 20bd ad06 a4bd 1fd6 99bd
000001a0: c97f 39bd 5501 363c 3da2 34bc 0d14 3cbd
000001b0: 9eb7 debc 1e2c 93bd 5a61 22bd 59b9 b8bd
000001c0: 63f6 c7bc 560d e1bc 69fd 49bd 81f9 32bc
000001d0: 82fd e3bd 4479 ebbd f819 d5bc 1515 07bd
000001e0: 5eb0 3fbc 095a 2a3d e204 58bd ded8 f23d
000001f0: 72c1 bfbc b6b0 11bd ca19 a2bd 17ec ce3c

action_model._continuous_distribution.log_sigma f4 [1, 2]
-0.8866282 0.5215382
00000000: 11fa 62bf 8783 053f

action_model._continuous_distribution.mu.weight f4 [2, 128]
0.13025805 -0.006276835 0.011454732 -0.031893514 -0.015718358 0.16846254 -0.08168056 0.05308853
0.11285971 -0.002800068 0.00010892832 -0.0087912865 -0.03594635 0.014577843 -0.06486785 -0.0008358101
0.051591936 0.013071208 -0.024001217 0.033114422 0.008014258 -0.039024543 0.0714205 -0.10286976
-0.00035821815 0.073272094 -0.057070673 -0.0039493465 -0.060482193 0.08631113 -0.02533256 -0.0040718005
0.0025815754 -0.0077534914 0.024294436 0.016349463 0.006943772 0.037628733 -0.013676397 0.062086
-0.026291639 -0.012931335 0.0021300444 -0.035650894 0.1280139 0.05080303 0.036399513 -0.11681579
0.064513825 -0.024424806 0.04211009 0.016064927 0.0003621861 -0.017469138 -0.052700967 -0.00521165
0.0017057039 0.061274856 -0.007693368 0.03601332 -0.0025836169 -0.083894745 0.017618744 -0.0029301806
-0.00034759747 -0.011822465 -0.026275188 -0.012683307 -0.07954289 -0.0041091405 0.037624545 -0.042775143
0.0022509266 -0.019747972 0.06733651 -0.009997865 0.022363162 -0.0014350378 0.009672305 -0.0075069834
0.009733719 -0.030863293 0.27873978 -0.013905744 -0.07368606 0.07220624 0.0042332704 0.003890288
-0.032494765 -0.107245825 -0.05707746 -0.017690418 -0.09061462 -0.11350333 -0.10544907 -0.04266454
0.007150981 -0.060021564 -0.026220743 0.01115772 0.029068552 -0.00032728247 -0.04483581 -0.0016452649
-0.00065177825 0.07523493 0.10220663 0.017835494 -0.017767807 -0.056774873 -0.116729274 0.023228068
0.038059957 -0.0013107257 -0.108735316 -0.002479695 0.06511547 -0.01044464 -0.03175197 0.10868774
0.15807186 -0.064200915 0.106212005 0.15632029 0.036416266 -0.0022296368 0.025109041 -0.06833803
-0.117808774 -0.07765333 -0.025446676 -0.04626208 -0.20766732 0.10756702 -0.23496643 -0.0094595365
-0.12261949 -0.029265152 -0.02944516 -0.002129544 0.00011423326 -0.059560396 0.039439764 0.05966916
0.073559836 -0.025467541 -0.014877331 -0.043464314 -0.124175265 -0.081247106 -0.08726943 0.029135346
-0.013661948 0.032503136 0.22085112 0.23391142 0.1102997 0.046035297 0.0010178104 -0.04931345
0.1143764 0.05055892 -0.088345595 -0.04994669 -0.11585911 -0.100393265 0.004177825 0.030895809
-0.018277133 -0.17051567 0.058916762 0.13884814 -0.044388644 0.0849027 -0.19584544 -0.012085219
-0.121952444 0.005274805 -0.0011852623 0.048589174 -0.00037740453 -0.08613689 -0.048782863 -0.010797583
0.077122875 0.009123764 -0.006146757 -0.102890596 -0.008968999 -0.043749936 -8.2416e-05 0.024193542
-0.17267153 -0.12979624 0.009405486 -0.0012928671 0.08811173 -0.004433359 0.0223923 0.10637967
0.015913315 -0.06766793 -0.024576966 -0.20600872 -0.065202706 -0.007962513 -0.030344041 0.1212395
0.05136832 -0.01556867 -0.097621866 0.019573206 -0.080226 0.0029009394 -0.017369693 -0.03321739
0.010538931 -0.034148287 -0.12613165 -0.08618427 0.08595394 0.09970327 -0.09863768 -0.0059251464
0.0024003203 -0.08008135 -0.028696321 0.09877991 -0.17012365 -0.118348636 -0.0023323162 0.14696153
-0.11573121 0.11389305 0.10093794 -0.007266477 -0.023962546 0.11547992 -0.030150473 -0.040462844
-0.09235092 0.007502623 -0.06491458 0.009910746 -0.070922025 -0.17499903 0.082949676 -0.08470695
-0.10756989 -0.16209109 -0.022782171 -0.19571957 0.11745552 0.016275086 -0.10897218 -0.13640127
00000000: 5e62 053e e9ad cdbb a1ac 3b3c c6a2 02bd
00000010: c9c3 80bc 7281 2c3e 2348 a7bd 5c73 593d
00000020: fe22 e73d 5881 37bb 7270 e438 5409 10bc
00000030: 7b3c 13bd e8d7 6e3c 6fd9 84bd 441a 5bba
00000040: 1152 533d 9f28 563c 339e c4bc fda2 073d
00000050: 3c4e 033c 33d8 1fbd e944 923d 61ad d2bd
00000060: 3acf bbb9 ae0f 963d f0c2 69bd 8569 81bb
00000070: 2dbc 77bd e4c3 b03d 3b86 cfbc bd6c 85bb
00000080: a62f 293b 0011 febb 2005 c73c 4fef 853c
00000090: 9588 e33b 9620 1a3d f712 60bc e44d 7e3d
000000a0: 9061 d7bc f3dd 53bc 3798 0b3b ac06 12bd
000000b0: 1316 033e d716 503d a817 153d 1e3d efbd
000000c0: d31f 843d 8816 c8bc a17b 2c3d 989a 833c
000000d0: cce3 bd39 701b 8fbc f8dc 57bd 7dc6 aabb
000000e0: ed91 df3a 58fb 7a3d a618 fcbb b482 133d
000000f0: e651 29bb 02d1 abbd 2f55 903c 4608 40bb
00000100: be3d b6b9 03b3 41bc 103f d7bc a5cd 4fbc
00000110: 62e7 a2bd f8a5 86bb 321c 1a3d fd34 2fbd
00000120: 4884 133b 80c6 a1bc b9e7 893d 16ce 23bc
00000130: f332 b73c e117 bcba 9678 1e3c 24fd f5bb
00000140: 2d7a 1f3c 04d5 fcbc fbb6 8e3e ebd4 63bc
00000150: b8e8 96bd dde0 933d 3fb7 8a3b 34f4 7e3b
00000160: 3b19 05bd b3a3 dbbd 0eca 69bd 7feb 90bc
00000170: 2894 b9bd 6f74 e8bd aff5 d7bd 03c1 2ebd
00000180: c752 ea3b 2cd9 75bd e2cc d6bc dfce 363c
00000190: 2c21 ee3c 1c97 abb9 c1a5 37bd eea5 d7ba
000001a0: 19dc 2aba c514 9a3d b651 d13d be1b 923c
000001b0: cb8d 91bc c58c 68bd c20f efbd ca48 be3c
000001c0: c2e4 1b3d a8cc abba 9fb0 debd 6182 22bb
000001d0: 425b 853d ff1f 2bbc 5b0e 02bd ae97 de3d
000001e0: 97dd 213e c57b 83bd ae85 d93d 6d12 203e
000001f0: 3929 153d 191f 12bb 7ab1 cd3c cff4 8bbd
00000200: ba45 f1bd b608 9fbd 8c75 d0bc 4f7d 3dbd
00000210: bea6 54be 194c dc3d 0a9b 70be 2cfc 1abc
00000220: ed1f fbbd 79bd efbc fa36 f1bc d28f 0bbb
00000230: 8490 ef38 9af5 73bd 978b 213d a667 743d
00000240: 8aa6 963d 4ea1 d0bc 0dc0 73bc a307 32bd
00000250: 9a4f febd e264 a6bd 51ba b2bd 40ad ee3c
00000260: 5dd6 5fbc 0222 053d cc26 623e 7a86 6f3e
00000270: cfe4 e13d 828f 3c3d 0d68 853a e6fc 49bd
00000280: 2d3e ea3d df16 4f3d 89ee b4bd e794 4cbd
00000290: 8b47 edbd fc9a cdbd 23e6 883b 3519 fd3c
000002a0: edb9 95bc a99b 2ebe b452 713d 352e 0e3e
000002b0: ded0 35bd 77e1 ad3d b58b 48be 1501 46bc
000002c0: 34c2 f9bd 45d8 ac3b ce5a 9bba 7105 473d
000002d0: 61de c5b9 8a68 b0bd 8ad0 47bd 58e8 30bc
000002e0: 99f2 9d3d d77b 153c bc6a c9bb 4eb8 d2bd
000002f0: b5f2 12bc 2233 33bd c1d6 acb8 8931 c63c
00000300: ced0 30be 4ee9 04be 7819 1a3c 6c75 a9ba
00000310: ec73 b43d b645 91bb 0f70 b73c 96dd d93d
00000320: a45c 823c 7c95 8abd a255 c9bc f3f3 52be
00000330: ff88 85bd 3375 02bc 1194 f8bc 6a4c f83d
00000340: 9667 523d bc13 7fbc f9ed c7bd fd57 a03c
00000350: 874d a4bd b01d 3e3b e34a 8ebc f50e 08bd
00000360: 7bab 2c3c 13df 0bbd a828 01be 6181 b0bd
00000370: 9f08 b03d 3a31 cc3d 8d02 cabd bb27 c2bb
00000380: b14e 1d3b b101 a4bd 8c14 ebbc 1f4d ca3d
00000390: e534 2ebe c560 f2bd c6d9 18bb 157d 163e
000003a0: 7c04 edbd c240 e93d 8db8 ce3d a11b eebb
000003b0: 1a4d c4bc bc80 ec3d 20fe f6bc 5ebc 25bd
000003c0: 7b22 bdbd 90d8 f53b eff1 84bd ae60 223c
000003d0: 913f 91bd f232 33be 85e1 a93d d67a adbd
000003e0: 9a4d dcbd 35fb 25be ada1 babc b66a 48be
000003f0: 858c f03d 5453 853c ce2c dfbd c6ac 0bbe

action_model._continuous_distribution.mu.bias f4 [2]
-0.047924373 -0.18007569
00000000: 594c 44bd c365 38be

action_model._discrete_distribution.branches.0.weight f4 [1, 128]
0.00500158 0.0064334543 -0.003840762 0.0024737332 -0.0033532286 -0.00010420966 -0.0027296746 0.0018909507
0.0015621163 0.008165955 0.002964744 0.013474646 0.016376272 -0.00096648274 0.0041491906 -0.0010304041
-0.0011833407 -0.0005502042 -0.0017075402 0.009098701 -0.011847241 0.0073494203 0.008677143 0.0010273702
-0.009565887 -0.012341106 -0.013674408 -0.0029378417 -0.0035135534 -0.014253276 -0.008991896 0.0209356
0.007404403 0.016760996 -0.009264586 0.0032315706 -0.009237823 -0.009865068 0.0043422654 -0.016400943
-0.004378232 -6.027281e-05 -0.0014650834 0.0036921736 -0.01559791 0.00040266244 0.0010503163 -0.0062985457
0.014178492 -0.00264607 0.007945148 -0.0030558424 0.012387334 -0.0037421386 -0.010638661 0.002494424
0.0033958533 0.008329301 0.0087004835 0.0057107685 -0.0049736216 -0.005228857 -0.0036034458 -0.013550681
0.01350183 -0.01882924 0.0066814795 0.00035693028 0.00060961186 -0.012135728 -0.0030593907 -0.0012231964
0.0028967229 -0.006965801 -0.015863104 0.013870264 0.003519956 -0.0016609548 0.005795395 -0.0026476157
0.004870733 -0.0017363066 0.0022387907 0.008550381 0.0012016475 0.0025813496 -0.014751248 -0.0038064432
0.012996859 0.0023777587 -0.005092639 0.0020756936 0.019372975 -0.01218668 0.007825073 0.0017806912
0.0035276914 -0.012503381 0.0031855393 0.009708556 0.012140844 -0.0022489487 -0.009488884 -0.013131711
-5.1826496e-06 -0.0050170175 6.2874395e-05 -0.0102148075 -0.0078003607 -0.005216423 0.0030577593 -0.0031444773
0.017692687 0.006841793 0.0015573163 0.0015137752 -0.00044990788 0.0027064697 0.020076852 -0.005667232
0.0020900809 0.01027155 0.0062305774 -0.007946505 0.0012449966 0.009023986 -0.0030674527 -0.00016285738
00000000: 4be4 a33b bacf d23b 4bb5 7bbb 5b1e 223b
00000010: d7c1 5bbb 238b dab8 57e4 32bb c7d9 f73a
00000020: edbf cc3a 7fca 053c 274c 423b c3c4 5c3c
00000030: 8827 863c 8f5b 7dba eff5 873b a00e 87ba
00000040: 531a 9bba 943b 10ba 8bcf dfba b812 153c
00000050: ee1a 42bc 68d3 f03b 932a 0e3c d3a8 863a
00000060: 3dba 1cbc 5a32 4abc a00a 60bc ce88 40bb
00000070: a543 66bb 9386 69bc bf52 13bc 2381 ab3c
00000080: a2a0 f23b 5b4e 893c 7dca 17bc c2c8 533b
00000090: 3d5a 17bc 18a1 21bc 9049 8e3b 455b 86bc
000000a0: 4677 8fbb 70cd 7cb8 0b08 c0ba 65f8 713b
000000b0: 608e 7fbc 701c d339 c4aa 893a 0864 cebb
000000c0: e84c 683c b069 2dbb 5e2c 023c 8744 48bb
000000d0: 3ff4 4a3c ab3e 75bb c74d 2ebc 7e79 233b
000000e0: f78c 5e3b 9f77 083c 798c 0e3c 6621 bb3b
000000f0: c3f9 a2bb d556 abbb ca27 6cbb ad03 5ebc
00000100: c836 5d3c c73f 9abc 50f0 da3b 5f22 bb39
00000110: 5cce 1f3a efd4 46bc 0f80 48bb a953 a0ba
00000120: f2d6 3d3b 6041 e4bb 57f3 81bc 1b40 633c
00000130: 10af 663b 65b4 d9ba 4ce7 bd3b 9f83 2dbb
00000140: ab9a 9f3b c894 e3ba adb8 123b e616 0c3c
00000150: 9980 9d3a dc2b 293b 38af 71bc 8575 79bb
00000160: c7f0 543c 2cd4 1b3b 27e0 a6bb 5c08 083b
00000170: 13b4 9e3c a4aa 47bc bc34 003c 1566 e93a
00000180: d730 673b fbda 4cbc 7bc4 503b a310 1f3c
00000190: 64ea 463c 1963 13bb 4477 1bbc 6326 57bc
000001a0: 9fe6 adb6 cb65 a4bb 6fdb 8338 025c 27bc
000001b0: 2b9a ffbb 87ee aabb b064 483b 9313 4ebb
000001c0: 41f0 903c 1f31 e03b dd1e cc3a de69 c63a
000001d0: 9de1 ebb9 075f 313b 3678 a43c 30b4 b9bb
000001e0: bdf9 083b 014a 283c df29 cc3b 0f32 02bc
000001f0: 272f a33a 57d9 133c 5107 49bb b2c4 2ab9

exp_avg f4 [128, 10]
0.012970337 0.007231485 0.011269068 0.039141033 0.0038524366 0.028909203 -0.00021465404 -0.00010004047
0.00020675303 0.0 0.008658142 0.005058625 0.007995196 0.027346026 0.0036469526 0.020369848
-0.00017269797 -9.299071e-05 0.00014289306 0.0 -0.0069948463 -0.0035122973 -0.005164106 -0.018706469
-0.00038212654 -0.013535076 -8.806709e-06 -6.878651e-05 -0.00010292784 0.0 0.017602393 0.008202727
0.012362077 0.055980615 0.008372397 0.041821476 -0.00028885686 -0.0001999953 0.00024428128 0.0
0.015435175 0.0077521 0.0119461985 0.047992174 0.0059810537 0.03566811 -0.00022306529 -0.00012544697
0.00022703242 0.0 0.00328126 0.0004692961 0.0004487437 0.011067238 0.002124945 0.008337054
-5.759031e-05 -8.4580395e-05 2.2452256e-05 0.0 5.954028e-05 -3.93624e-05 2.2172057e-05 9.157412e-05
4.8735965e-06 6.707612e-05 -5.2459717e-07 -6.6452586e-08 5.8517196e-07 0.0 6e-45 6e-45
6e-45 6e-45 6e-45 6e-45 6e-45 -6e-45 6e-45 0.0
2.7956948e-17 8.6906e-18 1.3158802e-17 9.193362e-17 1.30459154e-17 6.8704695e-17 3.7115454e-19 5.17817e-19
2.932898e-19 0.0 -0.00042631078 -0.0013943352 -0.0027426986 -0.004066416 -0.0021822553 -0.0033693854
0.00013157232 9.321325e-05 -3.2824075e-05 0.0 6e-45 6e-45 6e-45 6e-45
6e-45 6e-45 -6e-45 -6e-45 6e-45 0.0 0.006310812 0.0027694749
0.0044387635 0.020665249 0.0028677722 0.015431614 -0.000108149354 -0.00010153525 8.468656e-05 0.0
0.004831625 0.0020576438 0.0035139965 0.016948907 0.002919252 0.0127626555 -5.8730922e-05 -7.797084e-05
6.364028e-05 0.0 -1.5309288e-17 -1.0222358e-17 -1.6090468e-17 -4.390094e-17 -1.6185559e-18 -3.2108772e-17
2.5273578e-19 3.201421e-20 -2.819195e-19 0.0 6e-45 6e-45 6e-45 -6e-45
6e-45 6e-45 -6e-45 6e-45 6e-45 0.0 6.7687107e-21 2.696751e-20
1.8578347e-20 4.141257e-20 1.7949783e-22 3.013461e-20 -2.4178322e-22 -3.0627383e-23 2.6970152e-22 0.0
-0.0006698725 -0.0011480604 -0.002015411 -0.0022426918 -0.00029714534 -0.0016877846 6.843085e-05 2.9330335e-05
-2.8085911e-05 0.0 -0.00425247 -0.0038767615 -0.006634408 -0.013677737 -0.0014109078 -0.010150286
0.0002096739 0.00012402193 -0.00010187037 0.0 0.003715414 0.002328107 0.0038215066 0.009962717
-0.0010803668 0.007220094 -5.9852515e-05 -7.4517516e-06 6.744671e-05 0.0 -8.923531e-21 -5.9584437e-21
-9.378867e-21 -2.5457912e-20 -6.7550995e-22 -1.858399e-20 1.4731782e-22 1.8663973e-23 -1.6432616e-22 0.0
6e-45 6e-45 6e-45 6e-45 6e-45 6e-45 -6e-45 6e-45
6e-45 0.0 0.008517065 0.0043524285 0.0067573586 0.027360054 0.00415836 0.020486897
-0.00012232937 -6.8583584e-05 0.00012735544 0.0 0.0 0.0 0.0 0.0
0.0 0.0 0.0 0.0 0.0 0.0 -0.0046180114 -0.0022931611
-0.0039325324 -0.020568354 -0.0070120776 -0.016110813 0.00018306126 0.00018599417 -6.676451e-05 0.0
0.003177153 0.0012274572 0.00166736 0.007905989 -0.00035203565 0.0056295954 6.636059e-05 8.094794e-05
3.8467457e-05 0.0 0.009374255 0.0044084545 0.0066878023 0.030088114 0.004922933 0.022549301
00000000: 8981 543c 18f6 ec3b e6a1 383c 5952 203d
00000010: 2979 7c3b fed2 ec3c c114 61b9 d2cc d1b8
00000020: d8cb 5839 0000 0000 e1da 0d3c d2c2 a53b
00000030: 48fe 023c c604 e03c b601 6f3b abde a63c
00000040: 4216 35b9 0204 c3b8 90d5 1539 0000 0000
00000050: 0635 e5bb 922e 66bb a937 a9bb 4f3e 99bc
00000060: 2858 c8b9 39c2 5dbc 87c0 13b7 7a41 90b8
00000070: f7da d7b8 0000 0000 e532 903c bb64 063c
00000080: 4f8a 4a3c ee4b 653d 612c 093c ff4c 2b3d
00000090: b671 97b9 d4b5 51b9 e112 8039 0000 0000
000000a0: d1e3 7c3c 5405 fe3b fdb9 433c 7193 443d
000000b0: b7fc c33b b918 123d a2e6 69b9 6a8a 03b9
000000c0: 8d0f 6e39 0000 0000 680a 573b db0b f639
000000d0: 5c45 eb39 5c53 353c a942 0b3b 2498 083c
000000e0: 208d 71b8 c160 b1b8 da57 bc37 0000 0000
000000f0: e4ba 7938 0e19 25b8 21fe b937 7b0b c038
00000100: e087 a336 38ab 8c38 0bd2 0cb5 b2b4 8eb3
00000110: b614 1d35 0000 0000 0400 0000 0400 0000
00000120: 0400 0000 0400 0000 0400 0000 0400 0000
00000130: 0400 0000 0400 0080 0400 0000 0000 0000
00000140: bded 0024 3350 2023 afbc 7223 08fc d324
00000150: 98a7 7023 186c 9e24 4a17 db20 25d5 1821
00000160: b420 ad20 0000 0000 7782 dfb9 20c2 b6ba
00000170: d9be 33bb 923f 85bb 2b04 0fbb e8d0 5cbb
00000180: adf6 0939 7c7b c338 95ac 09b8 0000 0000
00000190: 0400 0000 0400 0000 0400 0000 0400 0000
000001a0: 0400 0000 0400 0000 0400 0080 0400 0080
000001b0: 0400 0000 0000 0000 eeca ce3b 1480 353b
000001c0: 0c73 913b 2b4a a93c 3cf1 3b3b e1d4 7c3c
000001d0: 3ece e2b8 53ef d4b8 c099 b138 0000 0000
000001e0: 9c52 9e3b 89d9 063b 144b 663b 6fd8 8a3c
000001f0: ec50 3f3b 751a 513c d955 76b8 4784 a3b8
00000200: 9d76 8538 0000 0000 0934 8da3 b991 3ca3
00000210: 8b68 94a3 1575 4aa4 50db eea1 5913 14a4
00000220: 5a30 9520 ce2e 171f 786a a6a0 0000 0000
00000230: 0400 0000 0400 0000 0400 0000 0400 0080
00000240: 0400 0000 0400 0000 0400 0080 0400 0000
00000250: 0400 0000 0000 0000 f4b6 ff1d 70b3 fe1e
00000260: b077 af1e ba90 431f e3ff 581b 824e 0e1f
00000270: 2426 929b dd1a 149a 4a06 a31b 0000 0000
00000280: 629a 2fba 847a 96ba fc14 04bb 20fa 12bb
00000290: 2cca 9bb9 a738 ddba 8882 8f38 6a0a f637
000002a0: 099a ebb7 0000 0000 4e58 8bbb 4411 7ebb
000002b0: 7365 d9bb 9618 60bc 36ee b8ba 634d 26bc
000002c0: e9db 5b39 e20b 0239 3da3 d5b8 0000 0000
000002d0: 4e7e 733b 2793 183b 3e72 7a3b aa3a 233c
000002e0: 189b 8dba 8a96 ec3b 260a 7bb8 0f0a fab6
000002f0: 2d72 8d38 0000 0000 8c8f 289e 881a e19d
00000300: 6b29 319e 7471 f09e 0d29 4c9c 5585 af9e
00000310: a818 321b c281 b419 7ca8 469b 0000 0000
00000320: 0400 0000 0400 0000 0400 0000 0400 0000
00000330: 0400 0000 0400 0000 0400 0080 0400 0000
00000340: 0400 0000 0000 0000 298b 0b3c d19e 8e3b
00000350: d56c dd3b 3122 e03c da42 883b 23d4 a73c
00000360: 8a45 00b9 88d4 8fb8 b78a 0539 0000 0000
00000370: 0000 0000 0000 0000 0000 0000 0000 0000
00000380: 0000 0000 0000 0000 0000 0000 0000 0000
00000390: 0000 0000 0000 0000 b052 97bb dc48 16bb
000003a0: 79dc 80bb f77e a8bc 92c5 e5bb d3fa 83bc
000003b0: 22f4 3f39 6e07 4339 ec03 8cb8 0000 0000
000003c0: c837 503b a1e2 a03a 518b da3a 1f88 013c
000003d0: 6d91 b8b9 7878 b83b 122b 8b38 98c2 a938
000003e0: 1e58 2138 0000 0000 7a96 193c cc74 903b
000003f0: 5a25 db3b 597b f63c 8e50 a13b 50b9 b83c

exp_avg_sq f4 [128, 10]
0.018244853 0.003969868 0.013236696 0.16927858 0.0037094238 0.09917733 2.0371608e-06 2.309748e-06
2.5980003e-06 0.0 0.0065183933 0.001716846 0.0060119834 0.07198107 0.0015983841 0.04182283
7.0203134e-07 1.0751013e-06 1.0723372e-06 0.0 0.0033874486 0.000859791 0.0055465177 0.03232356
0.00067366747 0.018241901 3.6372836e-07 6.6154024e-07 6.5331506e-07 0.0 0.06850498 0.017381636
0.054898858 0.7931636 0.017599598 0.46558574 6.864987e-06 1.0759e-05 1.1157856e-05 0.0
0.016632717 0.0045080157 0.011302048 0.19048512 0.0043688924 0.113074936 1.7535822e-06 2.6589125e-06
2.5763322e-06 0.0 0.029485261 0.0054967417 0.026293552 0.26232934 0.005472633 0.15176521
3.2299658e-06 3.8398493e-06 4.3932287e-06 0.0 0.00021192426 0.00023398233 0.0006666968 0.0029692117
2.9857174e-06 0.001486011 6.894723e-08 1.740091e-08 1.124966e-07 0.0 7e-43 7e-43
7e-43 7e-43 7e-43 7e-43 7e-43 7e-43 7e-43 0.0
1.2444625e-07 7.655339e-09 5.9070953e-09 2.4439606e-07 2.411808e-10 1.10376554e-07 7.1497756e-12 9.253709e-13
8.728956e-12 0.0 0.013293719 0.0024989874 0.012539202 0.09128607 0.0019840887 0.053045005
1.9005313e-06 1.266715e-06 1.7900481e-06 0.0 7e-43 7e-43 7e-43 7e-43
7e-43 7e-43 7e-43 7e-43 7e-43 0.0 0.0052177357 0.001252058
0.0038530633 0.04962308 0.0011498568 0.02946005 5.7123503e-07 6.924247e-07 7.4009296e-07 0.0
0.004345454 0.0009536424 0.0033194541 0.03063969 0.00067006267 0.018388653 7.4439043e-07 4.4083248e-07
5.566951e-07 0.0 1.6287835e-23 1.8461645e-24 1.7115532e-23 4.33084e-23 3.1325972e-26 2.1941101e-23
6.443418e-29 7.8689776e-28 1.6181072e-27 0.0 7e-43 7e-43 7e-43 7e-43
7e-43 7e-43 7e-43 7e-43 7e-43 0.0 1.1645557e-35 1.0395116e-34
1.1135362e-34 3.3801205e-34 2.2268398e-38 1.1359441e-34 2.325908e-37 8.79587e-40 1.0395959e-38 0.0
0.0019059883 0.0004414401 0.0024211935 0.014047657 0.0003236817 0.007883466 2.2536909e-07 2.728864e-07
2.9599803e-07 0.0 0.004465239 0.0010093589 0.005438475 0.047303192 0.0009067721 0.026772235
5.899472e-07 7.223867e-07 7.6371174e-07 0.0 0.030084575 0.0067223785 0.04387154 0.21621917
0.0046742605 0.11987672 4.577376e-06 4.9484443e-06 5.245954e-06 0.0 5.210067e-25 2.8199746e-25
1.5352509e-25 1.0367885e-23 4.2167866e-27 8.179924e-24 5.3591456e-28 4.9444126e-27 2.1448364e-28 0.0
7e-43 7e-43 7e-43 7e-43 7e-43 7e-43 7e-43 7e-43
7e-43 0.0 0.001653772 0.00043623935 0.002013702 0.025162987 0.0005116072 0.014648529
2.099947e-07 4.0470658e-07 3.440707e-07 0.0 0.0 0.0 0.0 0.0
0.0 0.0 0.0 0.0 0.0 0.0 0.021828542 0.0050694817
0.022264838 0.17173617 0.003894334 0.10117801 4.3256705e-06 2.7218866e-06 3.1418274e-06 0.0
0.008839404 0.0017281774 0.0109271 0.066363625 0.0013554726 0.03634575 8.388738e-07 1.0963374e-06
1.3710617e-06 0.0 0.019018214 0.0045077563 0.01347415 0.2316194 0.005014587 0.13645336
00000000: 3b76 953c ab15 823b bade 583c 5d57 2d3e
00000010: ce19 733b 7c1d cb3d 28b6 0836 2b01 1b36
00000020: 4e59 2e36 0000 0000 3f98 d53b cb07 e13a
00000030: 2c00 c53b d06a 933d df80 d13a 6a4e 2b3d
00000040: 3a73 3c35 334c 9035 3aed 8f35 0000 0000
00000050: f5ff 5d3b 9963 613a 90bf b53b b665 043d
00000060: 0f99 303a 0a70 953c 7246 c334 b394 3135
00000070: 785f 2f35 0000 0000 574c 8c3d ef63 8e3c
00000080: a0dd 603d c50c 4b3f 082d 903c 4161 ee3e
00000090: ca59 e636 8e81 3437 a032 3b37 0000 0000
000000a0: 5641 883c fab7 933b 3a2c 393c 880e 433e
000000b0: ed28 8f3b d593 e73d a05c eb35 c56f 3236
000000c0: 0de5 2c36 0000 0000 138b f13c 031e b43b
000000d0: 9365 d73c 0850 863e c653 b33b 5768 1b3e
000000e0: 64c2 5836 0ed8 8036 8c69 9336 0000 0000
000000f0: fc37 5e39 2759 7539 44c5 2e3a 1b97 423b
00000100: 3c5e 4836 41c6 c23a 2410 9433 0179 9532
00000110: a995 f133 0000 0000 f401 0000 f401 0000
00000120: f401 0000 f401 0000 f401 0000 f401 0000
00000130: f401 0000 f401 0000 f401 0000 0000 0000
00000140: 869f 0534 8984 0332 5cf7 ca31 8a35 8334
00000150: 2e97 842f 2708 ed33 748f fb2c 003c 822b
00000160: b98f 192d 0000 0000 e6cd 593c 0dc6 233b
00000170: 3a71 4d3c 31f4 ba3d 7c07 023b b845 593d
00000180: c215 ff35 ff03 aa35 9641 f035 0000 0000
00000190: f401 0000 f401 0000 f401 0000 f401 0000
000001a0: f401 0000 f401 0000 f401 0000 f401 0000
000001b0: f401 0000 0000 0000 8af9 aa3b 181c a43a
000001c0: ad83 7c3b 9241 4b3d cbb6 963a 3456 f13c
000001d0: f956 1935 10df 3935 cdaa 4635 0000 0000
000001e0: 4f64 8e3b dcfd 793a 338b 593b 1600 fb3c
000001f0: 25a7 2f3a cda3 963c 1fd2 4735 8eab ec34
00000200: cc6f 1535 0000 0000 ba86 9d19 0ed7 0e18
00000210: 0188 a519 346d 511a 631e 1b15 8933 d419
00000220: 2c5c a310 bb60 7912 1d33 0013 0000 0000
00000230: f401 0000 f401 0000 f401 0000 f401 0000
00000240: f401 0000 f401 0000 f401 0000 f401 0000
00000250: f401 0000 0000 0000 71ac 7705 bf2c 0a07
00000260: ac03 1407 c5a5 e007 3c7b f200 2dfe 1607
00000270: 084b 9e02 ee93 0900 b433 7100 0000 0000
00000280: 5bd2 f93a 1671 e739 e3ac 1e3b 2528 663c
00000290: d3b3 a939 a729 013c fcfc 7134 3981 9234
000002a0: a9e9 9e34 0000 0000 2451 923b 774c 843a
000002b0: 3c35 b23b fec0 413d 72b4 6d3a 7251 db3c
000002c0: dd5c 1e35 09ea 4135 df01 4d35 0000 0000
000002d0: ed73 f63c 6647 dc3b a5b2 333d 8f68 5d3e
000002e0: 8a2a 993b ed81 f53d 5c97 9936 d00a a636
000002f0: 6706 b036 0000 0000 673e 2117 488c ae16
00000300: 0b0e 3e16 488b 4819 4c0b a713 0639 1e19
00000310: 8ed6 2912 4dde c313 f6f1 8711 0000 0000
00000320: f401 0000 f401 0000 f401 0000 f401 0000
00000330: f401 0000 f401 0000 f401 0000 f401 0000
00000340: f401 0000 0000 0000 61c3 d83a 0eb7 e439
00000350: 50f8 033b 9c22 ce3c 611d 063a 6200 703c
00000360: e77a 6134 7346 d934 b8b8 b834 0000 0000
00000370: 0000 0000 0000 0000 0000 0000 0000 0000
00000380: 0000 0000 0000 0000 0000 0000 0000 0000
00000390: 0000 0000 0000 0000 c5d1 b23c e51d a63b
000003a0: c064 b63c 9bdb 2f3e 1538 7f3b 6b36 cf3d
000003b0: 3a25 9136 a8a9 3636 2fd8 5236 0000 0000
000003c0: 26d3 103c 0384 e23a 9407 333c a7e9 873d
000003d0: 1daa b13a 48df 143d f82e 6135 de25 9335
000003e0: 5205 b835 0000 0000 16cc 9b3c cdb5 933b
000003f0: aec2 5c3c a32d 6d3e 6851 a43b 6eba 0b3e
