Assets/results/VikramRover20-ppo/VikramRover/VikramRover-4096.onnx (onnx, 147290 bytes, 10 tensors)

network_body._body_endoder.seq_layers.0.weight f4 [128, 10]
0	0x3ea39bba	0.31954747
1	0xbec8c5c7	-0.39213392
2	0xbe37b107	-0.17938624
3	0x3ebae8d3	0.36505756
4	0x3cc1b617	0.023646398
5	0x3d47e04f	0.0487979
6	0x3e0eec00	0.13957214
7	0x3eabb358	0.33535266
8	0x3ca38d66	0.019964885
9	0xbdb42c88	-0.08797556
10	0x3f479208	0.779572
11	0x3d197a33	0.037470054
12	0x3ed7cc95	0.4214827
13	0x3ed6462d	0.41850415
14	0x3ea092db	0.31362042
15	0x3e62f377	0.22163187
16	0xbe588b52	-0.21146896
17	0x3eb80286	0.35939425
18	0x3db6954f	0.08915197
19	0x3e506665	0.2035156
20	0x3ebcce07	0.36875936
21	0xbd682d03	-0.05668355
22	0x3f69863f	0.9122047
23	0x3decff60	0.115721464
24	0x3e633094	0.221865
25	0x3e12ecc1	0.14348127
26	0xbe07033b	-0.13184826
27	0x3d8e886b	0.069596134
28	0xbdd4e7bf	-0.103957646
29	0xbefbd20e	-0.49183697
30	0xbe0af858	-0.13571298
31	0xbe82c89d	-0.2554368
32	0xbe4ae104	-0.19812399
33	0x3dc5e0f3	0.09662046
34	0xbc674859	-0.01411637
35	0xbedea6c0	-0.43486595
36	0x3e1bc9db	0.1521372
37	0x3ed6635d	0.41872683
38	0xbecf3257	-0.40468094
39	0xbf003984	-0.5008776
40	0x3e2cc820	0.16873217
41	0x3e96b0da	0.29431802
42	0xbedd097e	-0.43171304
43	0x3e43b47a	0.19111815
44	0x3e44bff4	0.1921385
45	0x3ee9fac8	0.45699143
46	0x3ee64fbd	0.4498271
47	0x3e644b8e	0.22294447
48	0xbe2b57fb	-0.1673278
49	0x3e5c4dc0	0.21514034
50	0xbe973291	-0.29530767
51	0xbea2ad07	-0.31772634
52	0xbeb53fb8	-0.35400176
53	0xbead836a	-0.33889323
54	0x3f09e3d0	0.5386324
55	0xbe85a5b7	-0.26102993
56	0x3f220e07	0.63302654
57	0xbe382d43	-0.17986016
58	0xbc00ad32	-0.007853793
59	0x3f061343	0.5237314
60	0x3e1ec7a7	0.15505849
61	0x3eea0550	0.45707178
62	0x3f0b8d71	0.545127
63	0x3e49ee76	0.19719872
64	0xbe6c8c28	-0.2310034
65	0x3e718234	0.23584825
66	0x3e099ac4	0.13437945
67	0xbec9536c	-0.39321458
68	0xbe898fdf	-0.26867577
69	0xbe73d57d	-0.23811908
70	0x3ec4703c	0.38366878
71	0xbdb3587c	-0.087571114
72	0x3e3dfc71	0.1855333
73	0x3ea861c7	0.32887098
74	0x3eb54154	0.35401404
75	0x3cb345b5	0.021883825
76	0xbeee8b9b	-0.46590886
77	0x3e8f9142	0.2804051
78	0xbe1b25e0	-0.15151167
79	0xbf0830ed	-0.53199655
80	0xbc0f6be5	-0.008753751
81	0x3f2e1a5c	0.6800897
82	0xbd40b654	-0.04704888
83	0x3eaef66a	0.34172374
84	0x3eb072d4	0.34462607
85	0xbe554bfc	-0.20829767
86	0x3dd6bea9	0.10485584
87	0x3ddf8dbf	0.10915708
88	0xbe3f7659	-0.1869749
89	0xbdcf83a5	-0.10132531
90	0x3f33871a	0.70128024
91	0xbed070db	-0.40711102
92	0x3ec0f86b	0.37689528
93	0xbe23f8ff	-0.16012953
94	0x3f024680	0.50888824
95	0x3e9330e8	0.2874825
96	0x3e827253	0.25477847
97	0x3ecbf9fc	0.3983916
98	0xbe9e2a8e	-0.30891842
99	0xbeb89f16	-0.36058873
100	0x3d831934	0.064012915
101	0xbf1023a3	-0.5630438
102	0xbe48b0f1	-0.19598748
103	0x3c1b519a	0.009479905
104	0xbea34913	-0.3189169
105	0x3e96162e	0.29313797
106	0xbe5ee28d	-0.2176611
107	0xbe0084ce	-0.12550661
108	0xbe10fac5	-0.14158161
109	0xbe9e5a81	-0.30928424
110	0x3ec657ad	0.38738766
111	0x3eb572ec	0.3543924
112	0x3f1f793b	0.6229436
113	0xbe71353d	-0.23555465
114	0xbf0e7ebe	-0.55662143
115	0xbd27c804	-0.040962234
116	0xbe2d75ff	-0.16939543
117	0x3e9dd317	0.3082511
118	0x3ecf4c5b	0.40487942
119	0xbe9005c5	-0.28129402
120	0x3eb3d9dc	0.3512715
121	0xbf0da68d	-0.5533226
122	0xbe10915a	-0.14117947
123	0x3df900b4	0.12158337
124	0x3afc264f	0.0019237491
125	0x3e627708	0.2211572
126	0xbe052557	-0.13002525
127	0x3ed7f2e8	0.4217751
128	0xbd9d2317	-0.076727085
129	0xbf10dc23	-0.565859
130	0x3ed2e428	0.41189694
131	0x3e97ff7e	0.29687113
132	0x3e6f4579	0.23366345
133	0x3e79ad3f	0.24382494
134	0xbe94191d	-0.2892541
135	0xbebf17ce	-0.3732285
136	0x3da2ded1	0.07952655
137	0xbf0adcc3	-0.54243106
138	0x3ed3f968	0.4140122
139	0xbedff9c2	-0.43745238
140	0xbe8d43b3	-0.27590713
141	0x3ee6ea9e	0.45100874
142	0x3f11b8ca	0.5692259
143	0x3effdf3c	0.49975002
144	0xbef7bc2f	-0.4838576
145	0x3e8fe98b	0.28107867
146	0x3d7c461d	0.061590303
147	0x3e058f29	0.13042893
148	0x3d92021c	0.071293086
149	0x3dc0f327	0.09421378
150	0x3ec31c61	0.3810759
151	0x3f160cdd	0.5861338
152	0xbe56ae6f	-0.20964979
153	0xbe6540dc	-0.22388023
154	0xbf1a58c4	-0.60291696
155	0x3ecabab1	0.3959556
156	0x3e8749a3	0.26423368
157	0x3e81ff4c	0.2539009
158	0x3d0cd053	0.03437836
159	0xbf2d4c2d	-0.6769436
160	0x3e9177b4	0.2841164
161	0x3e55eca7	0.20891057
162	0x3ec76a7c	0.3894843
163	0xbe49010f	-0.1962931
164	0xbea23986	-0.31684512
165	0xbe8bdac9	-0.27315357
166	0xbdcc9b8a	-0.09990604
167	0x3da9bf73	0.08288469
168	0xbf1d3b83	-0.6141893
169	0xbe7f3b89	-0.24925055
170	0xbeb4c870	-0.35309172
171	0x3eb2e44b	0.349398
172	0x3e7e55ac	0.24837369
173	0xbeb5e769	-0.35528114
174	0x3edf403c	0.43603694
175	0xbcbaa3d6	-0.022783201
176	0x3e9363e1	0.2878714
177	0x3e8a3568	0.2699387
178	0xbe7c007a	-0.24609557
179	0x3d0d2759	0.034461353
180	0x3e45cfd3	0.1931756
181	0x3e724c1c	0.23661846
182	0x3ec3d47d	0.38248053
183	0x3db970af	0.09054696
184	0x3ede32af	0.43398044
185	0x3ea467bd	0.32110396
186	0xbd89b74c	-0.06724414
187	0xbf26b379	-0.65117604
188	0x3f82bc91	1.0213796
189	0xbe6d6177	-0.23181711
190	0x3d23317f	0.039842125
191	0xbe2248fb	-0.15848152
192	0x3c84eada	0.016225267
193	0xbebae3f6	-0.36502045
194	0x3dad2e25	0.08456067
195	0x3cac2d39	0.021017658
196	0x3d1bc6f5	0.038031537
197	0x3ebe6202	0.3718415
198	0x3d7a1240	0.06105256
199	0x3eea3005	0.4573976
200	0xbdc5ac1a	-0.096519664
201	0x3ec5416a	0.3852647
202	0x3c951441	0.018198134
203	0x3d917f80	0.07104397
204	0xbea1788e	-0.31537288
205	0x3f014cf4	0.50508046
206	0xbebd965d	-0.3702878
207	0xbe21eb86	-0.15812501
208	0xbe715546	-0.23567685
209	0xbf080a00	-0.5314026
210	0xbe89e675	-0.26933637
211	0x3ec1d6ed	0.37859288
212	0xbf093e0c	-0.536103
213	0x3e575ccb	0.21031491
214	0xbe9e5bb0	-0.30929327
215	0x3e8e954e	0.27848285
216	0xbe5f081e	-0.2178044
217	0x3ed8c1ef	0.4233546
218	0x3e782785	0.24233826
219	0x3f0cd7ee	0.5501698
220	0xbd882c0a	-0.06649025
221	0xbdb0744e	-0.08615933
222	0xbdebbfa9	-0.11511166
223	0xbe823a4b	-0.254351
224	0x3df25e1c	0.11834356
225	0xbea9a2ae	-0.33131927
226	0x3e010412	0.12599209
227	0x3ed79b8c	0.4211086
228	0x3e18456f	0.14870237
229	0x3ec8e1f0	0.39234877
230	0x3dc367c3	0.09541275
231	0xbf76d29f	-0.9641513
232	0xbe8ba91c	-0.27277458
233	0xbf22a66d	-0.63535196
234	0xbdaae197	-0.08343809
235	0x3e89e473	0.26932105
236	0x3e3d1e8f	0.18468688
237	0x3e3725dc	0.17885536
238	0x3d97036a	0.07373698
239	0xbdbc3987	-0.0919066
240	0x3f4a571b	0.7903916
241	0xbf1badd3	-0.6081211
242	0x3dc91cdf	0.0981996
243	0x3ce9b937	0.0285307
244	0x3e71d58f	0.23616622
245	0xbe0e3bb1	-0.13889958
246	0xbefb22aa	-0.49049884
247	0xbd9e670b	-0.07734498
248	0xbf21b6ab	-0.63169354
249	0xbf20829d	-0.626993
250	0xbf2208af	-0.632945
251	0x3eb3d1a7	0.3512089
252	0xbe6e283e	-0.23257539
253	0xbe8d21de	-0.275649
254	0xbe364072	-0.17798021
255	0xbdfb58ff	-0.12272834

network_body._body_endoder.seq_layers.0.bias f4 [128]
0	0xbb14876d	-0.0022663728
1	0xbc8e9a42	-0.01740754
2	0xbc016798	-0.007898234
3	0x00000000	0.0
4	0x3ba87c74	0.005141789
5	0x00000000	0.0
6	0xbb83f807	-0.00402737
7	0xbbfe6d85	-0.0077645206
8	0xbbcd72df	-0.006269797
9	0xbca7a2c6	-0.020463359
10	0xb728356a	-1.0026017e-05
11	0xbc7769e8	-0.015100934
12	0xbc03dd4a	-0.008048365
13	0x3aad9e10	0.0013245959
14	0xbb9e1557	-0.0048243213
15	0xbb96cfe3	-0.0046024187
16	0xbb87d810	-0.0041456297
17	0x22ee3e12	6.457575e-18
18	0xba25a909	-0.00063194387
19	0x00000000	0.0
20	0x3aaa40a4	0.0012989235
21	0x00000000	0.0
22	0x00000000	0.0
23	0x00000000	0.0
24	0xbc9953b0	-0.018716663
25	0x00000000	0.0
26	0x3aeeaed4	0.0018210062
27	0x00000000	0.0
28	0x399e7f58	0.00030230987
29	0x00000000	0.0
30	0x00000000	0.0
31	0x3b3d7ef0	0.0028914772
32	0xb89005a7	-6.867508e-05
33	0x00000000	0.0
34	0xbbc4a365	-0.0060009235
35	0x00000000	0.0
36	0x00000000	0.0
37	0xbc6f642e	-0.014611287
38	0x00000000	0.0
39	0x00000000	0.0
40	0x3b6e4ae1	0.003636055
41	0x00000000	0.0
42	0x00000000	0.0
43	0x3a987fb3	0.0011634737
44	0xbb523039	-0.00320722
45	0x0eb55a8d	4.4707142e-30
46	0xbc2469cf	-0.010034992
47	0xbba1f448	-0.0049424507
48	0x00000000	0.0
49	0xbc37b529	-0.011212626
50	0x00000000	0.0
51	0xbbd2d017	-0.0064334976
52	0xbc8856e4	-0.016642995
53	0xbc15d88b	-0.009145866
54	0x00000000	0.0
55	0x00000000	0.0
56	0xbb8a0410	-0.00421191
57	0xbb90d140	-0.004419476
58	0x3c0a0e02	0.008426191
59	0xbc8e1781	-0.017345192
60	0xbc0b55ad	-0.008504313
61	0xbab9bd1a	-0.0014170737
62	0xba41c065	-0.0007391035
63	0xbc3f26c5	-0.011666958
64	0x00000000	0.0
65	0x00000000	0.0
66	0xbbacb362	-0.0052704075
67	0x3c5e299f	0.013559728
68	0xbb148a97	-0.0022665614
69	0x00000000	0.0
70	0x00000000	0.0
71	0x3c6fa813	0.014627474
72	0xbc785382	-0.015156629
73	0xbc0ecd42	-0.008715929
74	0x0ebcc85e	4.6538525e-30
75	0xbb8805ce	-0.0041510826
76	0xba3772d6	-0.0006998008
77	0xbb4573a2	-0.0030128737
78	0xba5815c9	-0.00082429923
79	0x00000000	0.0
80	0x0a24bf5c	7.9323035e-33
81	0xbcb606c0	-0.022220016
82	0x30e34d0a	1.653832e-09
83	0x39a43b27	0.0003132459
84	0x00000000	0.0
85	0xbc115b6f	-0.008871897
86	0xb9a88e56	-0.00032149506
87	0x00000000	0.0
88	0xbc11da2a	-0.008902112
89	0xbc323047	-0.010875768
90	0x3c71501f	0.014728575
91	0x0e1f5672	1.9639885e-30
92	0xbb4d5b31	-0.0031334872
93	0x00000000	0.0
94	0x9a91a244	-6.023275e-23
95	0x00000000	0.0
96	0xbc5ebba1	-0.013594539
97	0xbc361ef7	-0.011115781
98	0x3a86a76e	0.0010273287
99	0x94ac8c1d	-1.7422827e-26
100	0x3c1ed75e	0.009694902
101	0x2d4883ba	1.1397933e-11
102	0x00000000	0.0
103	0x00000000	0.0
104	0x3aefa3d6	0.001828308
105	0xbb460529	-0.0030215478
106	0x00000000	0.0
107	0x00000000	0.0
108	0xbb7ef769	-0.0038904792
109	0xbc50bff8	-0.012741081
110	0x00000000	0.0
111	0x38a13499	7.686875e-05
112	0xbc5b60ce	-0.013389779
113	0x19ab14a6	1.7689325e-23
114	0x3bcad428	0.006189842
115	0x00000000	0.0
116	0xbc811cf9	-0.015760886
117	0x3b4ea3ac	0.0031530662
118	0xbb823935	-0.0039741048
119	0x3c04e089	0.008110174
120	0xbbe981b2	-0.0071260566
121	0x00000000	0.0
122	0x00000000	0.0
123	0xbc897e74	-0.01678393
124	0x3aca2867	0.0015423418
125	0xbb98665a	-0.004650873
126	0xbc168013	-0.009185809
127	0xbc930aa2	-0.017949406

network_body._body_endoder.seq_layers.2.weight f4 [128, 128]
0	0x3cd0b2f2	0.025475953
1	0x3a441113	0.0007479351
2	0xbe00cd4d	-0.12578316
3	0xbde67475	-0.11252681
4	0xbcd96a32	-0.026539896
5	0x3c50b20a	0.01273776
6	0xbdc53c64	-0.09630659
7	0x3c26d1a8	0.010181822
8	0xbdf5a990	-0.11995232
9	0x3cbf4077	0.023346169
10	0xbd26a6d7	-0.040686455
11	0x3ccaeae3	0.024770206
12	0x3cac4b3e	0.021031972
13	0x3d6a60c8	0.057221204
14	0x3d3a1163	0.045426738
15	0x3e3a5d8d	0.1819975
16	0xbcc33eba	-0.023833621
17	0x3cc64cdd	0.024206573
18	0xbdec98af	-0.115525596
19	0x3d074598	0.033025354
20	0x3cb8bb9f	0.022550402
21	0xbd9b0908	-0.07570082
22	0x3d8a35fc	0.06748578
23	0xbd3443d1	-0.044009987
24	0xbd37f40a	-0.04491047
25	0x3d465528	0.048421055
26	0x3c5f2afc	0.013621088
27	0x3dd572e4	0.10422304
28	0xbdce740a	-0.100807264
29	0xbdc64454	-0.09681001
30	0x3e17d412	0.14826992
31	0xbd4500ae	-0.04809635
32	0xbd501144	-0.050797716
33	0xbe2f00df	-0.17090176
34	0xbd40d8bc	-0.047081694
35	0x3d6762f4	0.056490853
36	0x3c9e7d22	0.019346777
37	0x3dadc0c6	0.08484034
38	0xbe2832f2	-0.16425684
39	0x3dc72a41	0.09724856
40	0x3d0281e6	0.031862162
41	0xbda46fc5	-0.08029131
42	0xbbeae2e1	-0.0071681594
43	0xbd89235b	-0.06696197
44	0x3d643ecc	0.05572395
45	0xbe39304f	-0.18084835
46	0x3e1b1741	0.1514559
47	0xbd831929	-0.06401283
48	0x3c1f8b0e	0.009737743
49	0xbd4e502f	-0.050369438
50	0x3db07800	0.08616638
51	0x3dc96485	0.09833626
52	0xbe035ecf	-0.12829135
53	0x3d757164	0.05992259
54	0xbde86c8a	-0.11348827
55	0x3d7b2f66	0.0613245
56	0xbda9f96e	-0.08299528
57	0xbd46b393	-0.0485111
58	0x3df2f36a	0.11862834
59	0xbd059832	-0.032615848
60	0x3e2de06f	0.16980146
61	0xbd908f79	-0.07058615
62	0x3dec6eb6	0.11544554
63	0x3c195ccd	0.009360504
64	0xbc694c21	-0.014239342
65	0x3d8d3b19	0.068960376
66	0x3ce06b3b	0.027394881
67	0x3db8a6a9	0.09016163
68	0x3e2b0870	0.16702437
69	0x3d12667f	0.03574228
70	0xbe757e7a	-0.23974028
71	0xbd59dbb6	-0.05318805
72	0xbd88f61d	-0.066875674
73	0x3d836cb0	0.06417215
74	0xbcfbf320	-0.03075558
75	0x3d207e6b	0.03918306
76	0x3b00b755	0.0019640524
77	0x3d994f5f	0.07485842
78	0x3d068254	0.032839134
79	0x3a7c4062	0.0009622631
80	0xbd38b2e6	-0.045092486
81	0xbdc94c03	-0.09828951
82	0x3dd38218	0.10327548
83	0xbe382395	-0.17982323
84	0xbcb7689a	-0.022388745
85	0x3d6154b7	0.05501243
86	0xbc6b2e94	-0.014354367
87	0x3cbeee38	0.02330695
88	0xbe0c4dd0	-0.13701558
89	0x3c83b799	0.016078757
90	0xbd5fbb94	-0.054622248
91	0x3d82a302	0.063787475
92	0x3d11c6c9	0.035589967
93	0x3e04dbc8	0.12974465
94	0xbd1c58ca	-0.038170613
95	0xbd2066af	-0.039160427
96	0xbcc34755	-0.023837725
97	0xbe086f82	-0.13323787
98	0xbe15feb0	-0.14647937
99	0x3e1a7e29	0.15087189
100	0xbcbb2865	-0.02284641
101	0xbd87ddc1	-0.06634093
102	0xbc69307a	-0.014232749
103	0x3e2a3bcf	0.16624378
104	0x3da082da	0.07837458
105	0x3d10cc30	0.03535098
106	0xbd2bd132	-0.04194755
107	0x3e14b30a	0.14521423
108	0x3c2a5035	0.010395099
109	0x3dbde314	0.09271827
110	0xbb7052a0	-0.0036670342
111	0x3e2339d4	0.15940028
112	0xbd542511	-0.05179316
113	0xbdcbbb03	-0.09947779
114	0xbdfad9ff	-0.12248611
115	0xbe004af1	-0.12528588
116	0xbe102c60	-0.14079428
117	0xbe0fc1a0	-0.14038706
118	0x3e22199c	0.15830082
119	0xbe0d7a6c	-0.13816231
120	0xbc8b3fa4	-0.01699812
121	0xbc7d020a	-0.015442381
122	0xbc56b3c5	-0.013104384
123	0x3c5eed29	0.013606348
124	0xbd8a8683	-0.06763937
125	0x3d7c79fc	0.06163977
126	0x3cdebfad	0.027191008
127	0x3ddd56fd	0.10807607
128	0xbcfaec1e	-0.030630168
129	0x3da43c44	0.08019307
130	0x3da6f21c	0.081516474
131	0xbcbb96aa	-0.02289899
132	0x3e6ba68f	0.23012756
133	0x3dd6f2ed	0.10495553
134	0x388b9c45	6.657144e-05
135	0x3d2b6a50	0.041849434
136	0xbcee2027	-0.029068066
137	0xbe22dede	-0.1590533
138	0xbdc7d3c9	-0.09757192
139	0xbc9b4e32	-0.018958185
140	0xbd89de87	-0.06731897
141	0x3d4510d4	0.04811175
142	0xbd8689fd	-0.06569288
143	0xbcc8819b	-0.024475863
144	0xbd817c1c	-0.063225
145	0x3d9286c4	0.07154611
146	0x3c87f1ab	0.016594728
147	0x3a9f99e5	0.0012176601
148	0x3d6dfae1	0.058100585
149	0xbdba37b2	-0.09092654
150	0x3dd5c208	0.10437399
151	0x3d50375c	0.050834045
152	0x3c4a9f39	0.012367063
153	0x3db5645c	0.08857033
154	0xbd124322	-0.035708554
155	0xbe075f37	-0.13219915
156	0x3e164157	0.14673363
157	0x3d37bab0	0.044855773
158	0x3cfeb02b	0.031089863
159	0x3cf82588	0.030291334
160	0xbe0d87c2	-0.13821319
161	0x3e2b90ff	0.1675453
162	0xbd885ff7	-0.06658929
163	0x3d8e6150	0.06952155
164	0x3d874208	0.06604391
165	0x3e817000	0.25280762
166	0xbbe933a0	-0.00711675
167	0x3d272051	0.040802304
168	0x3b9b8025	0.0047455006
169	0xbdb0e59c	-0.086375445
170	0xbd6387ee	-0.055549555
171	0x3def227f	0.116765015
172	0x3cc64f9a	0.024207879
173	0xbe079223	-0.1323934
174	0xbd1ecceb	-0.038769644
175	0xbe01a93d	-0.12662216
176	0x3d833e0f	0.06408321
177	0x3e04db95	0.12974389
178	0xbce478ef	-0.027889697
179	0xbd9a0de4	-0.07522181
180	0xbe167068	-0.14691317
181	0x3c5953d4	0.013264615
182	0x3dd4bbb5	0.10387365
183	0x3da3cdf9	0.079982705
184	0xbd7267da	-0.05918107
185	0xbd682612	-0.05667693
186	0xbdd41d8a	-0.10357197
187	0xb997c165	-0.00028945055
188	0xbdef496c	-0.11683926
189	0xbdbbe198	-0.09173888
190	0xbbd09b07	-0.006366137
191	0xbc5f8493	-0.013642448
192	0xbc554c07	-0.013018615
193	0x3dea5682	0.11442281
194	0xba57a0af	-0.0008225543
195	0x3d19c42e	0.037540607
196	0x3e1fa934	0.1559189
197	0xbd553855	-0.052055676
198	0xba106fe6	-0.0005509838
199	0xbd8f2028	-0.06988555
200	0xbc2abccb	-0.010420988
201	0xb9a006c2	-0.00030522613
202	0x3c59a476	0.013283839
203	0x3cd59746	0.02607311
204	0x3c8e1215	0.017342607
205	0x3d856f94	0.065154225
206	0x3cf575b0	0.029963344
207	0xbe33620f	-0.17517875
208	0x3e3456bc	0.17611212
209	0xbcd50464	-0.02600307
210	0x3e27132a	0.16315904
211	0x3d2ad0c6	0.041703008
212	0x3e14db67	0.1453682
213	0xbdc58fe3	-0.09646585
214	0xbb2fabdb	-0.0026805315
215	0x3d33c17a	0.043885686
216	0x3daa5cfc	0.083185166
217	0x3d17b844	0.037040964
218	0x3e5e45ab	0.21706264
219	0xbc0d59ec	-0.008627396
220	0x3db0dc4c	0.08635768
221	0x3c1c0f44	0.009525124
222	0x3c17cb8b	0.009264837
223	0x3d0afea6	0.033934258
224	0x3df04533	0.11731949
225	0x3c8afe7b	0.016967049
226	0x3b208c2a	0.0024497607
227	0xbd88740d	-0.0666276
228	0xbdd33156	-0.103121445
229	0x3d82541b	0.06363698
230	0xbda96a03	-0.08272173
231	0x3da38950	0.07985175
232	0xbc548e0a	-0.012973318
233	0xbdb7c47d	-0.08973024
234	0x3e3e6758	0.1859411
235	0xbd104214	-0.035219267
236	0x3d57bc4e	0.052669816
237	0xbe2ecf5c	-0.17071289
238	0xbc6ca6bf	-0.014444052
239	0x3d825d3d	0.0636544
240	0x3e2cb0f7	0.16864382
241	0x3d9f9066	0.07791214
242	0x3dca86c8	0.09888989
243	0xbd362954	-0.044473007
244	0xbda2accf	-0.07943117
245	0xbe713a09	-0.23557295
246	0x3e07efa6	0.13275012
247	0xbe219aec	-0.15781754
248	0x3dd43a0a	0.103626326
249	0x3cce8c88	0.025213495
250	0xbaa5b36a	-0.001264197
251	0xbc515a5a	-0.012777889
252	0xbdf30a31	-0.11867178
253	0x3ca0cd6c	0.019629203
254	0x3dc2f5ce	0.0951954
255	0xbe568bd0	-0.20951772

network_body._body_endoder.seq_layers.2.bias f4 [128]
0	0x00000000	0.0
1	0xb66112fc	-3.3538663e-06
2	0x13189cc0	1.926238e-27
3	0xbc11a3ca	-0.008889148
4	0xb583e89c	-9.827959e-07
5	0x3caaec56	0.020864647
6	0x00000000	0.0
7	0xbbd6e154	-0.006557623
8	0xbcd9b21b	-0.026574185
9	0x00000000	0.0
10	0xbc19ba17	-0.009382746
11	0x3b1ed7b1	0.0024237449
12	0xbb8e5d1f	-0.004344597
13	0x00000000	0.0
14	0xbc602e13	-0.01368286
15	0x00000000	0.0
16	0x093e8288	2.2931794e-33
17	0xbc36d421	-0.011158974
18	0xbb2e8b60	-0.0026633367
19	0x8931284e	-2.1324551e-33
20	0x00000000	0.0
21	0xbc160981	-0.009157539
22	0x3c693c03	0.014235499
23	0x00000000	0.0
24	0xbc6be578	-0.014397971
25	0x86a6fbcd	-6.281225e-35
26	0x00000000	0.0
27	0x00000000	0.0
28	0xbc025193	-0.007954019
29	0xba808912	-0.0009806475
30	0xbc7d9bdb	-0.015479053
31	0x3b2c713b	0.0026312608
32	0x00000000	0.0
33	0x3a481d9d	0.0007633807
34	0x3ae7339b	0.0017639281
35	0x00000000	0.0
36	0xbbbf01b2	-0.0058290595
37	0xbbbcbbf4	-0.0057597104
38	0x3c3b2a64	0.011423681
39	0x00000000	0.0
40	0x00000000	0.0
41	0xbc69a736	-0.014261058
42	0x3a5e31f9	0.00084760744
43	0xbbeadee0	-0.007167682
44	0xbbc068f4	-0.0058718864
45	0xbb21d78c	-0.0024695126
46	0xbb6b50a0	-0.003590621
47	0x3a9c6a83	0.0011933598
48	0xbbe61c51	-0.0070224185
49	0x3af87786	0.0018956519
50	0xbbeab026	-0.007162112
51	0x860ce8ce	-2.650211e-35
52	0x8e864a90	-3.310535e-30
53	0xbbc177ed	-0.005904189
54	0x3988d37e	0.00026097515
55	0xbc95c95e	-0.018284496
56	0xbbbc190e	-0.0057402914
57	0xbc22ef62	-0.009944769
58	0x00000000	0.0
59	0xbbee2468	-0.0072675236
60	0xbb7e8e6d	-0.0038842217
61	0xafc1af7c	-3.5231185e-10
62	0xbba263ff	-0.004955768
63	0x3a98f021	0.0011668244
64	0x33b3688a	8.3543526e-08
65	0xbbbe5453	-0.005808392
66	0xbb13b663	-0.002253913
67	0xbbad48a3	-0.0052882
68	0x39e67f9e	0.000439641
69	0x9481c95f	-1.3105098e-26
70	0xbc386274	-0.011253942
71	0xbc5f38b9	-0.013624364
72	0xb95e6159	-0.00021207835
73	0x00000000	0.0
74	0xbc86ac0c	-0.01643946
75	0x3b94cc0c	0.004540926
76	0x3b8f8ad5	0.0043805637
77	0xbc428e73	-0.011874783
78	0x00000000	0.0
79	0x00000000	0.0
80	0xbb960a09	-0.004578833
81	0xa9be2d7f	-8.445587e-14
82	0xb9b0c262	-0.00033714162
83	0xb6142241	-2.2073657e-06
84	0x00000000	0.0
85	0x3ba52fef	0.0050411145
86	0x3ba18aa2	0.0049298564
87	0x00000000	0.0
88	0xbaf8c39e	-0.0018979197
89	0xbb9d84c7	-0.004807088
90	0xba9c1182	-0.0011907073
91	0x00000000	0.0
92	0xbb9574a1	-0.0045610224
93	0xbb5d1d34	-0.003373933
94	0x0a08ed48	6.5927895e-33
95	0xbabcd883	-0.0014407787
96	0xbb217fa8	-0.002464274
97	0xbba3befe	-0.0049971333
98	0x00000000	0.0
99	0xba52909b	-0.0008032412
100	0xbc345f8c	-0.011009108
101	0x00000000	0.0
102	0xbc07cf75	-0.008289208
103	0xbba0cf43	-0.00490752
104	0x00000000	0.0
105	0xbc12cbb1	-0.008959697
106	0x943a563b	-9.407606e-27
107	0xbb2efbed	-0.0026700452
108	0xba18193e	-0.0005802101
109	0x00000000	0.0
110	0x3c03abb1	0.00803654
111	0x3bfcae35	0.007711197
112	0xa63c1cc1	-6.526457e-16
113	0x00000000	0.0
114	0x00000000	0.0
115	0xbc4ead8b	-0.012614618
116	0x00000000	0.0
117	0xba86047d	-0.0010224726
118	0xbc677d5b	-0.014129008
119	0x00000000	0.0
120	0x00000000	0.0
121	0xbba5c3ab	-0.005058726
122	0x3956ce9f	0.00020485603
123	0xbbbbbc9e	-0.005729272
124	0xbb754450	-0.003742475
125	0x3abd1ed2	0.0014428741
126	0x00000000	0.0
127	0xbb7c9476	-0.0038540638

network_body._body_endoder.seq_layers.4.weight f4 [128, 128]
0	0x3d60797b	0.054803353
1	0x3df49d23	0.11944034
2	0x3cb0419b	0.021515658
3	0xbddab718	-0.106794536
4	0x3d5e8f24	0.05433573
5	0xbd8edfa8	-0.06976253
6	0xbd51787a	-0.051140286
7	0x3daa8b55	0.08327357
8	0xbd065c83	-0.03280307
9	0xbdb42cc1	-0.08797599
10	0x3d56f6ca	0.05248145
11	0xbd3aac83	-0.045574676
12	0x3da53840	0.080673695
13	0xbda44a45	-0.08021978
14	0xbd0345c1	-0.032048944
15	0xbb84b3d8	-0.0040497594
16	0xbd5668cb	-0.052346032
17	0x3dcacd64	0.099024564
18	0xbdeb7df8	-0.11498636
19	0x3e01a9b4	0.12662393
20	0xbe07b56b	-0.13252799
21	0xbe1893e5	-0.14900167
22	0xbc98b3dc	-0.018640451
23	0x3d666b7b	0.056254845
24	0xbcf65572	-0.03007004
25	0xbd45009e	-0.04809629
26	0x3ce0618c	0.027390264
27	0x3c5f9ec7	0.013648695
28	0x3d57a8ad	0.052651096
29	0xbdcbf547	-0.09958892
30	0xbdce7755	-0.100813545
31	0x3c81e4c0	0.015856147
32	0xbdd5981d	-0.10429404
33	0x3d856eee	0.06515299
34	0x3e23c704	0.15993887
35	0xbdbaff2c	-0.091307014
36	0x3cad9051	0.02118698
37	0xbe17d676	-0.14827904
38	0x3d563306	0.052294753
39	0x3c6db55e	0.014508573
40	0x3d0a6616	0.033788763
41	0xbcf92dff	-0.03041744
42	0xbcbe8286	-0.023255598
43	0x3c886117	0.016647859
44	0x3d4b2999	0.049600217
45	0x3c9bbd12	0.019011054
46	0xbd95ec7b	-0.07320496
47	0xbe34fa9f	-0.1767373
48	0xbd7f605e	-0.062347762
49	0xbd4f8486	-0.050663494
50	0xbdd5e7bc	-0.104445904
51	0xbd94649f	-0.072457545
52	0x3e1cf28b	0.15326898
53	0x3ddc919a	0.10769959
54	0x3d187d20	0.037228703
55	0xbd1351de	-0.035966747
56	0xbc512a25	-0.012766396
57	0xb9ace025	-0.00032973397
58	0x3d0d0646	0.03442981
59	0xbda4501f	-0.080230944
60	0xbd6d16fc	-0.057883248
61	0x3d5594bc	0.052143797
62	0xbe0165cc	-0.12636489
63	0x3da01688	0.078167975
64	0x3c05d7c9	0.008169123
65	0x3dbdc62f	0.09266316
66	0x3d871cec	0.06597313
67	0xbe277f23	-0.16357093
68	0x3d38c347	0.045108106
69	0x3e332c30	0.17497325
70	0x3da3adf0	0.0799216
71	0x3d610866	0.05493965
72	0x3e2c3d8c	0.16820353
73	0xbc412718	-0.011789106
74	0xbc24bae7	-0.010054327
75	0x3c943c5f	0.018095193
76	0x3c4e2b61	0.0125835845
77	0xbd845365	-0.06461219
78	0x3caf03d3	0.021364128
79	0xbe360118	-0.17773855
80	0x3da2ac1a	0.07942982
81	0xbdfa486d	-0.12220845
82	0xbd663de1	-0.056211356
83	0x3dae11f2	0.084995165
84	0xbdc907e1	-0.09815956
85	0x3c48a630	0.012246653
86	0xbe06b0f4	-0.1315344
87	0xbdba15e0	-0.090862036
88	0x3da42a43	0.08015873
89	0xbd2f71de	-0.0428332
90	0x3d5b5e78	0.05355689
91	0x3d924264	0.07141569
92	0xbcf53129	-0.029930668
93	0x3d8e059b	0.06934663
94	0xbe032de5	-0.12810476
95	0x3df9cff6	0.121978685
96	0x3d9e1b8b	0.07720097
97	0xbd6ab27d	-0.057299126
98	0xbd07083d	-0.03296684
99	0xbd4b06bd	-0.049566973
100	0x3da3d191	0.07998956
101	0xbabcc216	-0.0014401104
102	0xbdad56ac	-0.08463797
103	0xbcf5ea68	-0.030019
104	0x3dd5c30e	0.10437594
105	0xbdcca248	-0.0999189
106	0x3e4f6cc9	0.20256342
107	0x3d086a7a	0.03330467
108	0xbccf87a8	-0.02533324
109	0x3e2675c2	0.16255859
110	0x3d3815ac	0.044942543
111	0xbdff1274	-0.124546915
112	0x3db8849f	0.090096705
113	0xbd41a658	-0.04727778
114	0xbe1537d2	-0.14572075
115	0x3deb42aa	0.114873245
116	0xbd98d849	-0.07463128
117	0xbcd962f4	-0.026536442
118	0xbd424c9a	-0.047436334
119	0x3af650b2	0.001879236
120	0x3d810b3e	0.063009724
121	0xbcadb268	-0.021203235
122	0xbc181c4d	-0.009284091
123	0x3a2074ab	0.00061209005
124	0x3d8e7aa9	0.06956989
125	0xbd9094e8	-0.070596516
126	0xbd88f61e	-0.06687568
127	0xbdee8352	-0.11646141
128	0xbd8aa77d	-0.06770227
129	0xbdd076a3	-0.10178878
130	0x3d86824d	0.06567822
131	0xba8a07cd	-0.0010530889
132	0x3e1eef5a	0.15520993
133	0x3dccac86	0.09993844
134	0xbda31a5c	-0.07964012
135	0x3bdd8e58	0.0067613535
136	0xbd016e2d	-0.031599212
137	0x3e011fb8	0.12609756
138	0x3d3a4cf1	0.045483533
139	0xbe0f3e37	-0.13988577
140	0x3ca5df87	0.020248188
141	0x3d339c03	0.043849956
142	0x3dd4d26c	0.10391697
143	0x3e356f2b	0.17718188
144	0xbc5c580d	-0.013448727
145	0xbd5fa929	-0.054604683
146	0xbb1677ff	-0.0022959707
147	0xbc81d907	-0.015850557
148	0x3e351523	0.17683844
149	0x3d85ddf0	0.06536472
150	0xbe240e89	-0.1602117
151	0xbd87a23f	-0.06622743
152	0xbdfeb6d3	-0.12437215
153	0xbda1789a	-0.07884331
154	0xbd3d7f85	-0.04626419
155	0x3ca076fa	0.019587982
156	0x3d37fee8	0.044920832
157	0xbdde3430	-0.10849798
158	0x3cce5439	0.025186645
159	0xbbe2ec2c	-0.0069251265
160	0xbdab79e5	-0.08372859
161	0x3cadab5c	0.021199875
162	0xbe16978c	-0.14706248
163	0xbe07f188	-0.1327573
164	0x3cafc2c5	0.021455178
165	0xbd89d22b	-0.067295395
166	0xbd3102c3	-0.043215524
167	0xbd278346	-0.040896676
168	0xbdb595ca	-0.088664606
169	0xbe0615a7	-0.13094197
170	0xbd3c2cca	-0.04594115
171	0x3dd6bcd2	0.10485233
172	0xbcb7de53	-0.02244488
173	0x3cc78821	0.024356904
174	0x3d35df36	0.044402324
175	0xbce813e9	-0.028329806
176	0xbd31bd59	-0.043393467
177	0x3d0303e7	0.031986143
178	0x3db1858e	0.08668052
179	0xbcb5d1b9	-0.02219473
180	0xbdd31574	-0.10306826
181	0xbc805d43	-0.01566947
182	0xbcf3bdb3	-0.029753542
183	0x3ba12e3e	0.0049188426
184	0xbda9933a	-0.08280034
185	0xbd8c3750	-0.068464875
186	0x3c072df7	0.008250705
187	0xbe16f9f7	-0.14743792
188	0x3befc08f	0.007316656
189	0xbdc4ad58	-0.09603375
190	0x3b1c98ea	0.0023894855
191	0xbe0fb842	-0.14035133
192	0xbdc1dbf4	-0.09465781
193	0x3d296773	0.041358422
194	0x3c858486	0.016298544
195	0xbe2b2f96	-0.16717371
196	0x3d7a7b66	0.06115284
197	0xbda9874a	-0.082777575
198	0xbd837034	-0.064178854
199	0x3e1b10c4	0.15143114
200	0x3dc61e32	0.09673728
201	0xbd756b75	-0.059916932
202	0x3d9cfc0c	0.076652616
203	0x3dab5cac	0.08367285
204	0xbafc030d	-0.0019226983
205	0xbda143fc	-0.07874295
206	0xbe0ee72b	-0.13955371
207	0x3cb049ba	0.02151953
208	0x3d07c5fe	0.033147804
209	0xbdcb384b	-0.099228464
210	0xbd9cc519	-0.07654781
211	0x3e29944b	0.16560476
212	0xbc10b628	-0.008832492
213	0x3d307798	0.043082803
214	0x3be6e7ad	0.007046661
215	0x3cba0f7b	0.02271246
216	0x3c19eecb	0.009395312
217	0xbb89bcdf	-0.0042034234
218	0x3dff0980	0.12452984
219	0x3bc29e10	0.0059392527
220	0x3d1f87ae	0.038947754
221	0x3b5a3e19	0.0033301173
222	0xbd3d1d9a	-0.04617081
223	0xbd108147	-0.03527954
224	0xbe1d5b68	-0.153669
225	0x3e083a32	0.1330345
226	0x3be7a1e0	0.0070688576
227	0xbb03b7dd	-0.0020098605
228	0x3d8a8035	0.06762735
229	0xbba86db9	-0.005140033
230	0x3d988150	0.074465394
231	0xbc316baf	-0.010828896
232	0xbc8d6710	-0.017261058
233	0x3c4729f4	0.0121559985
234	0xbde19a47	-0.11015754
235	0xbcfc94bf	-0.030832646
236	0xbdf81425	-0.12113217
237	0x3c6d20c2	0.014473142
238	0xbd22c72f	-0.039740738
239	0x3c84b1a7	0.016197992
240	0xbd41491e	-0.04718887
241	0x3d017b4e	0.031611733
242	0xbd873beb	-0.06603225
243	0x3d275e6c	0.040861532
244	0xbcbbb853	-0.022915041
245	0xbd01d530	-0.031697452
246	0xb9675a1e	-0.00022063448
247	0xbe77c9cc	-0.24198073
248	0x3d376a0e	0.044778876
249	0xba431b96	-0.00074427703
250	0xbd1a428b	-0.037661117
251	0x3cb52dd8	0.022116587
252	0x3cdd65d5	0.027026096
253	0x3d0c71a7	0.034288075
254	0x3dc0b6b9	0.094098516
255	0xbe0e7ee4	-0.13915592

network_body._body_endoder.seq_layers.4.bias f4 [128]
0	0x00000000	0.0
1	0x3b70f9c8	0.0036769975
2	0x3c503e53	0.012710172
3	0xbb39c831	-0.0028348083
4	0x00000000	0.0
5	0xbc30914c	-0.010776829
6	0xbc31aa93	-0.010843891
7	0x00000000	0.0
8	0x3bcd7c68	0.006270934
9	0x3c09c676	0.008409133
10	0xbbbc6fd8	-0.0057506375
11	0xba98c8db	-0.0011656539
12	0xbbba883a	-0.005692509
13	0x3b9bd938	0.004756119
14	0xb6ba0231	-5.543487e-06
15	0x3a331847	0.0006831926
16	0xb8f67ae0	-0.00011753081
17	0xbb60a9d4	-0.0034280913
18	0xbb240443	-0.0025026954
19	0xbbc8893f	-0.0061198766
20	0x00000000	0.0
21	0xb6f9d25c	-7.4452673e-06
22	0xbb6bb2ae	-0.0035964656
23	0xbb8d8aa7	-0.004319507
24	0x00000000	0.0
25	0xb9e3f51e	-0.0004347944
26	0xba3b62c6	-0.0007148202
27	0x9b2b18e9	-1.4152837e-22
28	0xbbe2a81e	-0.006917014
29	0xbc07e019	-0.008293175
30	0xbc2e69a3	-0.010645303
31	0xbc137e47	-0.009002275
32	0xb86d8ef7	-5.663835e-05
33	0xa011a3e5	-1.2336206e-19
34	0x3b8682f2	0.0041049654
35	0x00000000	0.0
36	0xbc36c5a3	-0.011155519
37	0xbb8d7ef5	-0.004318113
38	0xbb4ef1d1	-0.003157724
39	0x00000000	0.0
40	0xbc7b7b5d	-0.015349236
41	0x00000000	0.0
42	0x00000000	0.0
43	0x3b9235e0	0.004461989
44	0x3bc19bc4	0.0059084613
45	0xbb8359b1	-0.004008495
46	0x892787ad	-2.0165688e-33
47	0xbc0eaf68	-0.008708812
48	0xbc0db884	-0.008649949
49	0xbc2dec92	-0.010615485
50	0x32d15da4	2.4373385e-08
51	0xb6f92457	-7.425009e-06
52	0x3c0aa2ae	0.008461637
53	0xbc2ebc9b	-0.010665084
54	0x3c742d20	0.014903337
55	0xb703a4e6	-7.846602e-06
56	0xba03f1e0	-0.00050332956
57	0xbc0bd3ff	-0.0085344305
58	0xbbed9604	-0.0072505493
59	0xbc50e6fa	-0.012750382
60	0xbc204938	-0.009783082
61	0xbae70c8a	-0.0017627638
62	0x3b3609fc	0.0027776947
63	0xbc08e90e	-0.008356346
64	0x00000000	0.0
65	0x3b944f92	0.004526087
66	0x00000000	0.0
67	0xbc4139ac	-0.011793535
68	0xba666e81	-0.000879027
69	0x3c72fb4b	0.014830421
70	0xbc0e378c	-0.008680236
71	0xbb7d8c4d	-0.0038688362
72	0xbc0cb415	-0.008587857
73	0x00000000	0.0
74	0x00000000	0.0
75	0x3b8f05bc	0.0043646973
76	0x00000000	0.0
77	0x8e5d2e29	-2.7262578e-30
78	0xbc9f13db	-0.019418648
79	0x00000000	0.0
80	0xbaf9ba3b	-0.0019052693
81	0x3b6c88bb	0.003609224
82	0xbc171375	-0.0092209475
83	0xbc1fac3e	-0.009745656
84	0x166abc13	1.8961715e-25
85	0x00000000	0.0
86	0x3bdf3dfc	0.006812809
87	0xbc078b77	-0.008272997
88	0x00000000	0.0
89	0x3c844cca	0.016149897
90	0xbaebc41f	-0.0017987526
91	0x3b223a0a	0.0024753832
92	0xbb81f987	-0.0039665136
93	0x3bfbec0a	0.00768805
94	0x3c323f35	0.010879328
95	0x00000000	0.0
96	0xbb442e70	-0.0029934905
97	0xbb01904d	-0.0019769848
98	0x0eb7e0ac	4.5329334e-30
99	0x00000000	0.0
100	0x3a20b955	0.0006131132
101	0xbc58bd54	-0.013228733
102	0xbc12788c	-0.008939873
103	0xbc13ed84	-0.009028796
104	0x3b832b65	0.0040029758
105	0xbb87403d	-0.004127531
106	0xbc1c9e74	-0.009559263
107	0xbc112f78	-0.008861415
108	0xbc4309d7	-0.0119042015
109	0xbbe1925d	-0.006883903
110	0x3b6fe7a9	0.0036606586
111	0xbbeb1655	-0.007174293
112	0xbc6a710d	-0.01430918
113	0xbbf06524	-0.0073362757
114	0xbbb6b3e9	-0.005575646
115	0xbc4a8975	-0.012361874
116	0xa910a800	-3.212014e-14
117	0xb9d3264b	-0.00040273587
118	0x39710a8c	0.0002298748
119	0xbb8c80dd	-0.0042878226
120	0x00000000	0.0
121	0xbc2ce661	-0.0105529735
122	0xbbb773f2	-0.0055985386
123	0xbbcfff96	-0.006347607
124	0x3be642a5	0.0070269876
125	0x3ab82ede	0.0014052053
126	0x981c0841	-2.0166695e-24
127	0x39b042c6	0.00033619086

action_model._continuous_distribution.log_sigma f4 [1, 2]
0	0x3d8ac578	0.067759454
1	0x3d70032d	0.05859678

action_model._continuous_distribution.mu.weight f4 [2, 128]
0	0x3c37f939	0.011228853
1	0x3b31ee3e	0.002715006
2	0x3cc5508d	0.024086261
3	0x3cf521a1	0.029923262
4	0xba3dfd63	-0.00072475354
5	0x3a717de5	0.000921218
6	0x3b0184cc	0.001976299
7	0xbc020842	-0.007936539
8	0x3bc4e6c2	0.006008954
9	0x3be36464	0.0069394577
10	0x3bf15f74	0.007366115
11	0xbbffaa9c	-0.0078023206
12	0xbbf0dd08	-0.0073505677
13	0x3c36e4c5	0.011162941
14	0x3c30516b	0.010761599
15	0x3c3d809d	0.011566308
16	0x3c2e8a3d	0.010653076
17	0xbc334d91	-0.010943786
18	0x3c7df68e	0.015500678
19	0xbcb889c9	-0.022526639
20	0x3cf1e377	0.029527409
21	0x3b50acf7	0.0031841376
22	0x3be20df8	0.006898638
23	0x3aae438e	0.0013295279
24	0x3c943ee5	0.018096397
25	0xbc8dd471	-0.017313214
26	0xbbf2016f	-0.007385425
27	0xbc182cf7	-0.009288064
28	0xbc66db76	-0.0140904095
29	0x3c710a1c	0.014711883
30	0xbb805a80	-0.0039170384
31	0xbcaeebb4	-0.021352626
32	0x3c2777e4	0.010221455
33	0x3c43e912	0.011957424
34	0xbc4d0359	-0.012513005
35	0x3b51ac98	0.0031993743
36	0x3b22bad5	0.00248306
37	0x3abecdb8	0.0014557159
38	0x3c7678b6	0.015043428
39	0xbcae40ef	-0.021271197
40	0xbba6fecc	-0.005096292
41	0x3c80d03f	0.0157243
42	0x3c49804f	0.012298658
43	0xbd050228	-0.03247276
44	0x3b85973d	0.004076867
45	0xbae5f17e	-0.0017543284
46	0xbc817202	-0.015801433
47	0xbacac23d	-0.0015469264
48	0x3bef0ace	0.007294989
49	0x3c3d7e0e	0.011565698
50	0x3c4a647a	0.012353057
51	0x3cec24f7	0.02882622
52	0x3c10ba4e	0.008833481
53	0xbc07d777	-0.008291117
54	0x3c9ca35d	0.019120866
55	0x3c88a559	0.016680406
56	0xbc7167df	-0.014734237
57	0x3cef7189	0.029228942
58	0xbbfb125e	-0.0076621016
59	0x3be1789e	0.006880834
60	0x3c36881a	0.011140848
61	0x3d1e55a7	0.038655903
62	0xbd1e4e01	-0.03864861
63	0xbbf45e37	-0.0074575203
64	0xbd0dab8f	-0.03458744
65	0xbbcf18af	-0.006320081
66	0x3cd320e3	0.025772518
67	0x3a8f24f1	0.0010921044
68	0x3c7138c4	0.014723007
69	0x3cff55b8	0.031168804
70	0xbc6dc8ab	-0.014513175
71	0xbc00c128	-0.007858552
72	0xbbe64f71	-0.007028513
73	0xbc97b5d8	-0.018519327
74	0x3a042d38	0.00050421385
75	0xbc677042	-0.014125885
76	0xbb6aee22	-0.0035847505
77	0x3c954d93	0.018225467
78	0x3b6d9ce0	0.0036256835
79	0xbc04f92a	-0.008116046
80	0x3d003b52	0.031306572
81	0x3aa879bd	0.0012853664
82	0xbc8f9c99	-0.017530726
83	0xbb879fcf	-0.0041389237
84	0x3be1374d	0.0068730474
85	0x3c095bd6	0.008383712
86	0x3c063451	0.008191184
87	0x3c5381c9	0.012909361
88	0x3b4b5603	0.0031026609
89	0x3c6a90f4	0.014316786
90	0xb9a96e4d	-0.00032316372
91	0xbc65e669	-0.014031985
92	0xbbd8195d	-0.0065948204
93	0x3c35a36f	0.011086329
94	0x3c69827e	0.014252303
95	0xbc4107fb	-0.011781688
96	0xbcd3eb86	-0.025869142
97	0x3b115552	0.00221761
98	0xbc112d77	-0.008860937
99	0x3afb2827	0.0019161747
100	0xbb3b3c1b	-0.0028569761
101	0xbbe3462a	-0.0069358544
102	0x3ca47840	0.02007687
103	0xbd13e15f	-0.036103602
104	0xbbd21642	-0.0064113447
105	0x3bf4359f	0.007452681
106	0x3baea6be	0.005329936
107	0x3a3d0b23	0.00072114373
108	0x3cd85686	0.026408445
109	0xbb97bf03	-0.0046309247
110	0xbb9f63ef	-0.004864208
111	0xba499c93	-0.0007690873
112	0x3b9bee74	0.0047586504
113	0xbc22a985	-0.009928112
114	0xbc36e0ec	-0.011162024
115	0x3cd405f2	0.025881741
116	0x3b978cf0	0.0046249554
117	0x3ceddb0f	0.02903512
118	0x3b5ba221	0.0033513384
119	0xbc0010e7	-0.00781653
120	0xbcdfc068	-0.027313426
121	0xbc40fbb6	-0.011778763
122	0x3be97ddf	0.0071256007
123	0xbc9489c3	-0.018132096
124	0x3c0d04c3	0.008607092
125	0xbcb4fe90	-0.022094041
126	0x3c56a223	0.01310018
127	0xbb8535d2	-0.004065254
128	0xbd107165	-0.03526439
129	0xbd0e3c76	-0.03472563
130	0xbca55550	-0.020182282
131	0x3b3a243a	0.002840294
132	0x3c7a8e38	0.015292697
133	0x3c57787e	0.013151286
134	0x3cbe3e02	0.023222927
135	0xbcc9e3a5	-0.024644682
136	0xbd01a4d1	-0.03165132
137	0xbd3ed7dc	-0.04659258
138	0x3c76c3d0	0.015061334
139	0x3bbe4977	0.0058070975
140	0x3b67a769	0.0035347587
141	0xbc173382	-0.009228589
142	0xbc7a0f94	-0.015262503
143	0xbbfd3ac7	-0.007727954
144	0x399a5e92	0.0002944363
145	0x3c110a06	0.008852487
146	0x3ccee39b	0.025255015
147	0xbca55369	-0.020181375
148	0x3cbb4f5f	0.022864996
149	0x3c216051	0.009849624
150	0x3aa9a069	0.0012941483
151	0xbb4b2564	-0.0030997628
152	0x3b3da1f0	0.0028935634
153	0x3b25e606	0.0025314107
154	0xbd1a268b	-0.037634414
155	0xbc90a503	-0.017656809
156	0x3c297948	0.010343857
157	0x3ab07abc	0.0013464312
158	0xbb500191	-0.0031739215
159	0x3b6b2a55	0.0035883386
160	0xbab342db	-0.0013676541
161	0x3c908e58	0.017646
162	0xbc963f92	-0.01834086
163	0xbd337d6a	-0.043820776
164	0xbb802d5d	-0.0039116577
165	0x3b2284ae	0.0024798322
166	0xbc349398	-0.011021517
167	0xbca01b31	-0.019544216
168	0x3d2ede4c	0.042692468
169	0xbcf8fe9b	-0.030394843
170	0x3b5476bd	0.0032419406
171	0xbcf6196d	-0.03004142
172	0xbd448968	-0.047982603
173	0xbb8cbf71	-0.0042952825
174	0xbcc1f999	-0.023678588
175	0x3d08dfc4	0.033416525
176	0x3c8cc3bb	0.017183175
177	0x3a36a73e	0.000696767
178	0x3ca3076b	0.019900998
179	0xbce723a3	-0.028215235
180	0xbc8d704e	-0.017265465
181	0xbca36aea	-0.019948442
182	0xbd258f77	-0.04042002
183	0xba028b82	-0.0004979895
184	0xbc2001ba	-0.009766037
185	0xb9441332	-0.00018699167
186	0x3c317d9d	0.010833171
187	0x3c2f24a2	0.010689886
188	0x3c875e42	0.016524438
189	0xbbb9cbe7	-0.005670059
190	0xbcb66b11	-0.02226785
191	0x3c545d40	0.012961686
192	0xbbd0f04a	-0.006376301
193	0xbca6aa28	-0.020344809
194	0x3aca2f67	0.0015425504
195	0x3bb8e69a	0.005642724
196	0xbca95d87	-0.02067448
197	0xbd3e6225	-0.046480317
198	0xbc88927c	-0.016671412
199	0xbc0492ce	-0.008091642
200	0x3bc34386	0.005958977
201	0xbaf3b2b5	-0.0018592688
202	0x3cc9ced0	0.024634749
203	0xbd3ba92d	-0.045815635
204	0xbb89c820	-0.004204765
205	0x3bfdc405	0.0077443146
206	0x3b8b20a7	0.004245836
207	0xbcaaffb7	-0.020873887
208	0x3c4a3aaf	0.012343093
209	0xbc7f8ead	-0.015597981
210	0x3cc94ec4	0.024573691
211	0x3c7140da	0.0147249345
212	0x3c723638	0.014783435
213	0x3c8ecd0d	0.01743176
214	0xbc90e21b	-0.01768594
215	0x3cc714b6	0.024301868
216	0xbca8fcee	-0.020628419
217	0xbd0a643a	-0.03378699
218	0xba16300d	-0.0005729206
219	0xbc37009d	-0.01116958
220	0xbc3ddec8	-0.01158876
221	0xbc27a501	-0.010232211
222	0xbc2e50c2	-0.010639371
223	0x3cc0d63a	0.023539651
224	0xbc62cf9e	-0.013843445
225	0xbb869272	-0.004106813
226	0x3c4b14e4	0.012395117
227	0xbcb7be5a	-0.022429634
228	0xbca1bd87	-0.019743694
229	0x3b8f5aa7	0.0043748203
230	0x38ad8442	8.273918e-05
231	0x3c3947bc	0.011308607
232	0xbcc39bae	-0.023877945
233	0xbcac4064	-0.021026798
234	0x3c814b40	0.015782952
235	0xbd113d39	-0.035458777
236	0x3d102ecd	0.035200883
237	0x3c4818cc	0.012212943
238	0xbcade70a	-0.021228332
239	0xb9b66b33	-0.00034793615
240	0xbbfc7253	-0.007704058
241	0x3a212100	0.000614658
242	0x3cc623bf	0.024186967
243	0x3c44e963	0.012018534
244	0xbba93b79	-0.0051645604
245	0xbcb86d9c	-0.022513203
246	0xbc8b8bc6	-0.017034423
247	0x3b5c2248	0.003358977
248	0x3ca2ef0b	0.019889375
249	0x3c38008d	0.0112306
250	0x3c53a605	0.012918
251	0x3d0dd224	0.034624234
252	0xbc84b1f1	-0.01619813
253	0xbc33ed45	-0.010981862
254	0xbc0f8fdf	-0.008762329
255	0xbc194569	-0.009354928

action_model._continuous_distribution.mu.bias f4 [2]
0	0x3b08eae2	0.0020891954
1	0xbc3a63ea	-0.01137636

action_model._discrete_distribution.branches.0.weight f4 [1, 128]
0	0x3beb9aaf	0.0071900706
1	0x3b396b40	0.0028292686
2	0xbb475221	-0.0030413943
3	0x3bfbe8cf	0.007687665
4	0xbb7b90e0	-0.0038385913
5	0x3b4f3552	0.0031617475
6	0x3bd5463f	0.006508618
7	0xbc01e2d8	-0.007927619
8	0xbb98a29b	-0.004658056
9	0x3a27320f	0.0006378004
10	0x3c39e1b3	0.011345315
11	0x3c48faf7	0.012266866
12	0xbbb22782	-0.0054368386
13	0x3c1dd09e	0.009632258
14	0xbb3307df	-0.0027317924
15	0xbaf7af8d	-0.0018896923
16	0x3b167afd	0.002296149
17	0x3c3ce3d1	0.011528925
18	0xbb4b6bed	-0.003103967
19	0x3bf69db0	0.007526122
20	0x3bc369b7	0.00596353
21	0x3a1016f1	0.00054965826
22	0x3b01ecf8	0.0019825082
23	0x3c49166b	0.012273411
24	0xbafe319d	-0.0019393448
25	0xbc2515d8	-0.010076009
26	0xbb6712c5	-0.003525899
27	0x3ad90ad3	0.0016559012
28	0xba8c62f7	-0.0010710646
29	0x3b6acb3b	0.0035826701
30	0xbc33930f	-0.0109603545
31	0x3bdd79b2	0.006758892
32	0x3ba729bf	0.005101412
33	0x3bb984a7	0.0056615653
34	0x3abd4e0b	0.0014442814
35	0xb9378b25	-0.00017504075
36	0x3c275ce2	0.010215016
37	0xbc974798	-0.018466756
38	0xbc12fdfb	-0.0089716865
39	0x3c544d30	0.012957856
40	0x3ae9e7b0	0.0017845538
41	0xbb121313	-0.00222892
42	0x3cb0ca04	0.021580704
43	0xbc7119a8	-0.01471559
44	0x3be916b0	0.0071133003
45	0xbaebb6f7	-0.0017983605
46	0xbb947e6a	-0.0045316713
47	0xbc6e350b	-0.014539014
48	0xbc261063	-0.010135743
49	0xbc0f6074	-0.008751024
50	0x3bf72aa0	0.007542923
51	0xbb47007c	-0.003036528
52	0xbbf62c52	-0.0075126076
53	0x3c54498d	0.012956989
54	0x3c635755	0.013875802
55	0xbbe0a39b	-0.006855441
56	0xbc42260b	-0.01184989
57	0xbb1c1c24	-0.0023820484
58	0xbb029727	-0.001992652
59	0x3c31384e	0.010816647
60	0xbc83ae3d	-0.016074294
61	0xbaac49a2	-0.0013144503
62	0x3af6cda5	0.0018829597
63	0xbb8e45c5	-0.0043418133
64	0x3a8c1a67	0.0010689021
65	0xb8d3db9b	-0.00010102169
66	0x3af78613	0.0018884562
67	0x3c0b1523	0.008488926
68	0x3b6212d0	0.0034496076
69	0x3c1b9f78	0.0094984695
70	0x3b26aa68	0.002543116
71	0x3c150f4a	0.0090978835
72	0x3c50fea0	0.01275602
73	0xbaa1b69f	-0.001233775
74	0xbc2469fd	-0.010035035
75	0x3b272ac5	0.002550767
76	0x38808861	6.128918e-05
77	0xbb19d577	-0.0023473182
78	0x3c631095	0.013858934
79	0x3b3883df	0.0028154773
80	0xbbebfec8	-0.007202003
81	0xbbf238fd	-0.0073920474
82	0x3a3ba7e8	0.0007158504
83	0x3c63ca8f	0.013903274
84	0x3c4a5f76	0.012351861
85	0x3c804a0d	0.01566031
86	0xbac15445	-0.0014749846
87	0xbc1097be	-0.008825241
88	0x3b839e87	0.0040167007
89	0x3cf2c01f	0.029632626
90	0x3c35e5d5	0.0111021595
91	0xbc56f297	-0.013119361
92	0x3c0b988f	0.0085202595
93	0xbc66bd33	-0.014083195
94	0x3b94d057	0.0045414376
95	0xb88a208b	-6.5864144e-05
96	0xbc5af29a	-0.013363505
97	0x3afb01d0	0.001915032
98	0xbb971063	-0.0046101077
99	0xbc9a7d35	-0.018858531
100	0xbc037bc5	-0.008025114
101	0x3c0588c1	0.00815028
102	0xbaac7eac	-0.001316031
103	0xbbdb3e78	-0.0066907965
104	0x3c404917	0.011736176
105	0xb9839793	-0.000250992
106	0xbbe0a54f	-0.006855644
107	0xbc14b49a	-0.009076262
108	0xbc893c53	-0.016752398
109	0xbbe63cf7	-0.0070263105
110	0x3c123979	0.008924835
111	0x3a17fa9e	0.0005797538
112	0x3c0fab47	0.008768863
113	0xbcb2bd5f	-0.021818815
114	0x3b239d96	0.0024965755
115	0xbc72e09f	-0.014824062
116	0xbc184984	-0.009294871
117	0x3b858569	0.0040747416
118	0x3a44a246	0.0007500987
119	0xbb6116ea	-0.0034345933
120	0xbcc880ef	-0.024475543
121	0x3c347531	0.011014269
122	0x3bcbee2b	0.00622346
123	0x3c2e42a6	0.010636007
124	0x3a9e9a24	0.0012100381
125	0xbb645d5d	-0.0034845688
126	0xbb5ff6cd	-0.0034174204
127	0x3b810e3b	0.003938464
