Assets/results/VikramRover15-ppo/VikramRover/VikramRover-21504.onnx (onnx, 548698 bytes, 10 tensors)

network_body._body_endoder.seq_layers.0.weight f4 [256, 10]
000000 55 17 c4 3e d5 fb 1b 3f 89 e3 6c 3e 46 ca d4 be
       0.3829905 0.6093114 0.23133673 -0.41560572
000010 35 69 4e 3e 1e f7 1a 3e 00 83 88 be c6 58 87 3e
       0.20157321 0.1513333 -0.26662445 0.26434916
000020 13 cf 21 3f b8 96 cd bc 2d 9a 29 3f 78 1a 01 be
       0.63206595 -0.025096282 0.6625088 -0.12607753
000030 66 de c0 3c ff 87 02 3f 68 e5 02 bf 85 aa 98 3e
       0.023543548 0.50988764 -0.51131296 0.29817596
000040 24 20 cd be 37 80 a3 be 8a 89 11 3f 9d ac 39 3f
       -0.40063584 -0.31933758 0.5685049 0.7252901
000050 36 44 47 3e fb 07 24 3e b1 0e be be e0 bd 47 be
       0.19459614 0.1601867 -0.37120584 -0.19506025
000060 e3 96 2a 3e a0 1c 9d be 2f a8 13 3e ba b0 4e 3d
       0.16659121 -0.30685902 0.14419626 0.05046151
000070 23 46 4e be 67 f0 e8 bd 62 ac 71 3e 62 0c 85 3e
       -0.20143943 -0.11373978 0.23600915 0.2598601
000080 3c 5d d2 3d 61 4a a3 be 77 71 3d bd af 28 ef be
       0.10271689 -0.31892684 -0.046250787 -0.46710727
000090 d7 ae 7c 3b ce 3d d7 3c 53 ad a7 be 97 7b 1b 3f
       0.003855636 0.026274588 -0.32749423 0.6073546
0000a0 9f 24 c2 bd b6 c5 32 be 82 88 29 3e 92 c4 64 3d
       -0.09479641 -0.17458233 0.1655598 0.055851527
0000b0 4c 0f 60 be 0a a3 70 3e 41 db d6 bd 92 a6 d7 3e
       -0.21880835 0.23499694 -0.10491038 0.4211927
0000c0 9a f0 06 bf fc 03 33 be fd 67 ef bd 09 6d b2 be
       -0.5271088 -0.17481989 -0.11689756 -0.34848812
0000d0 8d ec 64 bd f9 ed 50 3e 61 91 cd bc f8 6b 1e 3e
       -0.055889655 0.2040328 -0.025093736 0.15470874
0000e0 0d dd ad be c4 23 79 3e 3f af 0d 3e bd 0a 46 3f
       -0.3395771 0.2433005 0.13836382 0.77360135
0000f0 7d 24 3a bf 86 6b 0e be 2d 97 17 be b8 6d c6 be
       -0.72711927 -0.13908204 -0.14803763 -0.38755584
000100 92 10 b2 be 50 92 cd be 5d 41 c9 be cf f3 5a 3e
       -0.34778267 -0.4015069 -0.3930768 0.21382068
000110 78 26 e8 bd 06 de 15 3f 4e 6f 2a 3e 69 29 ef 3e
       -0.11335462 0.58541906 0.16644022 0.4671128
000120 57 b1 1a be e6 bd 7a 3e 88 7f 2d bd 00 95 f6 3d
       -0.15106712 0.24486503 -0.04235795 0.12040138
000130 9d 26 0c be 1b 5b 12 be f9 70 08 3e b2 23 b3 be
       -0.13686605 -0.14292566 0.13324346 -0.3498817
000140 69 50 ee 3c f9 76 a6 3f e6 6f 4e be ed eb b0 be
       0.029091077 1.3005058 -0.20159873 -0.34554997
000150 b9 17 ef 3d c3 42 11 bf f3 14 b0 be f9 95 8b 3e
       0.116744466 -0.56742495 -0.34390983 0.27262858
000160 37 29 a6 3d fe 03 8d 3e f5 ab a3 3e 8a 2b 1f 3c
       0.0811333 0.27542108 0.3196713 0.00971497
000170 16 4d 91 be 84 1b 89 be ef 63 ff 3c cb df 74 3e
       -0.28379124 -0.26778805 0.031175582 0.23913495
000180 2e d0 04 3f e6 73 29 3e 92 7d e7 3d b7 dd 64 be
       0.51880157 0.16548118 0.113032475 -0.22350203
000190 b8 64 f4 3e 63 b8 97 3d 5d fb 9d be 47 2e c0 be
       0.47733092 0.07408216 -0.30855837 -0.37535307
0001a0 f2 2d 08 bf 48 74 1c be c1 19 90 3e 38 7c b9 3e
       -0.53195107 -0.15278733 0.2814465 0.36227584
0001b0 57 1d 5c bc 3c b4 b0 3d ce d3 9b bd 7f 9e 82 3e
       -0.01343473 0.08628127 -0.07608758 0.25511548
0001c0 18 fb 0a 3f d6 9e 85 3e 35 97 5e 3e 07 83 2d 3c
       0.5428939 0.26097745 0.21737368 0.010590321
0001d0 c2 1b 5a be f8 ab 30 3f 11 98 2c be ab d3 ac 3d
       -0.21299651 0.69012403 -0.16854884 0.0843881
0001e0 a3 1a 92 be 09 36 9b bc 2d 0b e4 be ea 8f 68 3d
       -0.28535947 -0.018946664 -0.44539776 0.056777872
0001f0 5d 39 58 3e 3e a2 73 3e 43 c2 38 bf c4 7e 8b 3d
       0.21115632 0.23792359 -0.7217142 0.06811288
000200 a9 a4 03 be 3a dd 06 bd b7 6c db 3d 67 78 cc be
       -0.12855782 -0.03292582 0.10714095 -0.3993561
000210 f4 3c 44 3e d4 dc 19 3e b5 4c 11 bd ca 64 db 3d
       0.19163877 0.15025645 -0.035473544 0.10712583
000220 ab 26 c2 3e ff a3 be bd 98 1d 28 bf d1 74 27 be
       0.37920126 -0.093086235 -0.65670156 -0.16353156
000230 33 5b bd be 7e 39 d5 3d 8e 43 29 3f 8c 77 09 3f
       -0.36983642 0.104113564 0.66118705 0.5369804
000240 a9 19 23 3e a0 21 aa 3e b0 a0 eb 3d 51 76 88 3e
       0.15927757 0.3322878 0.11505258 0.26652768
000250 88 a1 55 3e f2 21 27 be 65 26 94 3e f0 68 90 bd
       0.208624 -0.16321543 0.28935543 -0.07051265
000260 3d 2c b5 3e f9 70 71 3c c9 98 c4 3d 42 32 82 3c
       0.35385314 0.014736407 0.09599454 0.015893105
000270 db 4a 45 3e 56 5e 0c be fc b0 98 be 46 e9 e7 3e
       0.19266836 -0.13707861 -0.29822528 0.4529516
000280 85 7c 7d 3f 3a 8c 63 be 78 f9 76 be 05 cf 0a 3e
       0.99018127 -0.22221461 -0.24118602 0.13555534
000290 70 72 e6 3d 6b 48 f3 bd c5 07 33 be 78 e7 af 3e
       0.11252296 -0.11879047 -0.17483433 0.34356284
0002a0 8e 15 8d be 8b 09 85 bd 1c 7d dc 3e cc bc 1b 3c
       -0.27555507 -0.06495961 0.430642 0.009505462
0002b0 2b 0b 0f be 37 24 60 3b 70 d4 4e bc 3b 0a 88 bd
       -0.13969104 0.0034201273 -0.012623891 -0.06642576
0002c0 5b 39 2f 3f 50 9e 72 3e 52 e9 d1 bd 92 fb bd 3d
       0.6844689 0.23693204 -0.102495804 0.09276499
0002d0 ac 5c 5b bc 2a f7 9c 3e 28 e1 97 3e 6d e5 03 3d
       -0.013388794 0.3065732 0.29663968 0.03220122
0002e0 5f 5c a2 be 52 ac d5 3d 6b 1c b8 be ec 0b 0f be
       -0.317111 0.10433258 -0.3595918 -0.13969392
0002f0 ad ff 68 3e 14 da 89 3e 7e d7 cb bd 81 31 ff 3d
       0.22753783 0.26924193 -0.09953211 0.12460614
000300 d6 d1 c4 be 8b ff 1f bc 0e 40 07 3f b2 55 dd 3d
       -0.38441342 -0.009765516 0.52832115 0.10807361
000310 4d 74 a3 3e 32 3b 4f bd 94 0a cd 3e 1f 45 87 be
       0.31924668 -0.050593562 0.40047133 -0.26419923
000320 3d ff 1d bd 79 19 d0 3c 34 80 2a be 14 a0 13 3f
       -0.038573492 0.025402771 -0.16650468 0.57666135
000330 87 2c f3 3e 91 68 50 be 12 7f 90 be 32 c6 8d bc
       0.4749491 -0.20352389 -0.28221947 -0.017306421
000340 ed ef 3a be 06 1c e3 3d a0 4e 0a bf dc 5e d7 3e
       -0.18255587 0.110893294 -0.5402622 0.4206456
000350 d7 89 1d 3d 5c 2e 04 bf 05 8c 00 3e f1 2c 6d 3e
       0.038461532 -0.5163324 0.12553413 0.23161675
000360 7b 38 d2 bd 27 a7 3c bd c3 29 2d be 4e d0 3d bf
       -0.10264679 -0.046057846 -0.16910462 -0.7414597
000370 06 68 95 be 37 83 37 3e b7 ba 10 3d e2 d4 f6 3d
       -0.29180926 0.17921148 0.035334315 0.12052323
000380 c7 6c fd bd 6c ab 06 bf 69 e1 cd be 49 33 87 3e
       -0.12374263 -0.5260532 -0.40211037 0.26406315
000390 ce 18 53 3d 8b 5a 17 bf 07 25 6b 3e 5c c8 82 3d
       0.051537327 -0.5912253 0.22963344 0.06385872
0003a0 87 eb 08 3f 5f f6 11 3b c8 56 18 3f 23 11 8b bd
       0.53484386 0.0022272093 0.5950742 -0.06790378
0003b0 67 e7 5a 3f 8e ec b8 3c bc 7e 63 bd f7 0f fd be
       0.8550934 0.022573736 -0.055540785 -0.49426243
0003c0 2c 51 2d 3f 52 96 d9 be 08 c4 91 3d 89 a9 9f be
       0.67701983 -0.42497498 0.07117468 -0.31184033
0003d0 fe d1 3f be 77 39 b3 bd a0 07 f3 3c 5e a6 f8 bd
       -0.1873245 -0.08751195 0.029666722 -0.12141107
0003e0 6a 45 f2 be 2d 7c 8a 3e 47 33 0c 3f 07 b6 22 be
       -0.47318584 0.27047864 0.54765743 -0.1588975
0003f0 59 62 ee bd 9a 74 85 be dc 77 58 3e 83 f3 f5 be
       -0.11639852 -0.26065522 0.21139473 -0.48037347

network_body._body_endoder.seq_layers.0.bias f4 [256]
000000 59 aa eb ba 7e 71 8b ba 00 00 00 00 00 00 00 00
       -0.0017979845 -0.0010638682 0.0 0.0
000010 f2 44 8f 39 4c 19 b4 bb 85 87 ef b9 fd 56 d6 ba
       0.00027326454 -0.0054961797 -0.00045686602 -0.0016352829
000020 00 00 00 00 80 f5 d4 b9 00 00 00 00 48 df 25 38
       0.0 -0.00040618703 0.0 3.9547012e-05
000030 7e 4b 5d bb cc 23 e2 3b fa d5 0f 3b a8 f0 71 3b
       -0.003376692 0.00690124 0.0021947608 0.0036917124
000040 3d dc 28 3b 61 f6 4f bb c8 46 0f bc 72 9d 28 b9
       0.0025766038 -0.0031732547 -0.008744903 -0.00016080381
000050 78 71 9f bb 00 00 00 00 00 00 00 00 80 0b 8b bb
       -0.0048658215 0.0 0.0 -0.0042433143
000060 55 ca 06 3c 3b b2 b1 ba 18 6f e2 bb 8b a5 79 b9
       0.008226951 -0.0013557145 -0.006910216 -0.0002380816
000070 9f d3 f6 3a 7c 3f bc bb 9f a4 b5 bb 00 00 00 00
       0.0018831379 -0.0057448726 -0.005543306 0.0
000080 34 52 81 bb e0 b6 15 ba 5d fd 1d bb 32 2c 69 3c
       -0.003946567 -0.00057111494 -0.0024107315 0.014231728
000090 12 07 b4 ba aa d8 b6 3b 36 00 93 bb 26 38 06 3a
       -0.0013735017 0.0055800276 -0.004486109 0.0005120061
0000a0 00 00 00 00 6d 0b be bb 4d 32 fd ba a9 89 fb 3a
       0.0 -0.005799702 -0.0019317359 0.0019190806
0000b0 b8 0c 84 bb 1b f8 9e 3b 21 94 f6 bb d5 13 2f bc
       -0.0040298365 0.004851354 -0.0075249826 -0.010685881
0000c0 f3 49 2e 3b 00 00 00 00 1c a8 cd 3a 84 aa bf 3b
       0.002659437 0.0 0.0015690359 0.0058491845
0000d0 21 c7 2e ba 00 00 00 00 00 00 00 00 0e 15 55 ae
       -0.0006667246 0.0 0.0 -4.8449293e-11
0000e0 e4 23 ce ba 54 cd 37 bc cf c6 ed 3b 37 90 fc ba
       -0.0015727249 -0.011218388 0.007256366 -0.0019269054
0000f0 36 c6 dc bb 6a 82 e2 b9 00 00 00 00 2b d6 da 3b
       -0.006737496 -0.00043203245 0.0 0.006678363
000100 b1 fd bb 3b 00 00 00 00 73 86 38 bb 5e f3 53 bc
       0.0057370295 0.0 -0.002815631 -0.012936441
000110 08 42 02 ba 91 eb 84 3a 6b 11 9c ba 55 b8 7d bc
       -0.0004968946 0.0010141005 -0.0011907046 -0.015485843
000120 df 98 a8 bb fe 2e 19 3a a2 95 a8 3b 61 89 1f bc
       -0.005145177 0.0005843489 0.0051447907 -0.0097373435
000130 a3 5f aa 3b 9e e5 a6 3a 53 7a 98 3b 8d 43 99 3b
       0.005199389 0.0012733226 0.004653254 0.004677242
000140 00 00 00 00 1d 37 c5 ba 00 00 00 00 33 fc 1e ba
       0.0 -0.0015046332 0.0 -0.00060648023
000150 8f b0 33 bb b8 52 73 3a fd b4 17 38 49 b3 c2 ba
       -0.002741847 0.00092820404 3.6169764e-05 -0.0014854457
000160 9c 6e f0 3a 1c 8e 7e bb c9 ad 8c 3b f0 9a 0c 3b
       0.0018343511 -0.0038842028 0.0042931777 0.0021454655
000170 61 3f 03 3c 00 00 00 00 5b 99 ec bb d8 12 15 bb
       0.008010716 0.0 -0.00722043 -0.0022746827
000180 e3 5b f1 3a d9 3c 3c ba 1b 11 4b bb 00 00 00 00
       0.0018414225 -0.0007180698 -0.0030985537 0.0
000190 67 a2 ac bb 77 b5 9f ba c5 72 67 3b d1 65 d7 3b
       -0.0052683833 -0.0012184818 0.003531621 0.0065734168
0001a0 84 f2 da 3a 30 fe a6 3a 63 bf a8 3b a1 95 18 bc
       0.0016704355 0.0012740549 0.005149768 -0.009313018
0001b0 00 00 00 00 ca 61 9d 3a c3 b3 9b ba 1d 63 bc ba
       0.0 0.0012007293 -0.0011879135 -0.00143728
0001c0 61 5b 80 bb f6 b4 54 2f 53 df 03 bc a1 52 cf b9
       -0.003917143 1.9345578e-10 -0.00804885 -0.0003954368
0001d0 36 48 df b5 99 e7 80 39 9a f5 93 bb 7b 9c 24 3b
       -1.6635811e-06 0.00024586616 -0.004515362 0.0025117684
0001e0 f2 d0 04 bc 00 00 00 00 7c d7 fb 3a 00 00 00 00
       -0.008106457 0.0 0.0019214 0.0
0001f0 00 00 00 00 57 c4 ba bb 00 00 00 00 fa 01 50 39
       0.0 -0.005699675 0.0 0.00019837162
000200 70 b2 b8 3b 00 00 00 00 05 a7 7a 3b 07 fa a3 39
       0.005636506 0.0 0.0038246524 0.00031276068
000210 78 6b 23 bb 10 ab 32 bb 00 00 00 00 07 c2 f0 3b
       -0.0024935883 -0.0027262606 0.0 0.0073473486
000220 67 ab 15 bc 04 86 4e ba 0a b9 24 3b bc 4b 88 3b
       -0.009135104 -0.0007878246 0.0025134706 0.004159419
000230 8c 07 dd 39 5f a4 35 3c 59 eb df bb ee de 3a ba
       0.00042158028 0.011086552 -0.0068334755 -0.0007128556
000240 6a 8c 11 bc 8f be 40 bb 2b a4 01 bb c6 ee c0 a0
       -0.008883575 -0.0029410457 -0.001978169 -3.2684072e-19
000250 21 8e 99 bb 83 10 73 3c 1b f5 90 bb 39 e1 a8 bb
       -0.0046861325 0.01483548 -0.00442375 -0.0051538018
000260 51 0f 36 3b 1c b8 60 ba 37 d4 03 3c d2 d3 f8 ba
       0.0027780125 -0.00085723563 0.008046201 -0.0018984026
000270 b8 8b e8 3a 20 22 64 bb 8d 26 83 3a b4 72 a0 3b
       0.0017741835 -0.003481038 0.0010005996 0.004896486
000280 20 31 ee ba d7 c6 63 3b d5 54 5b b9 a2 af d0 3b
       -0.0018172599 0.003475597 -0.0002091707 0.0063685933
000290 00 00 00 00 b4 58 aa ba 23 47 10 3b 7b 55 26 bc
       0.0 -0.0012996406 0.0022015057 -0.010152216
0002a0 5e 27 0d 3b 68 5f 3b bb 85 d3 65 bb fd 7f 89 3b
       0.0021538357 -0.0028590802 -0.0035068702 0.0041961656
0002b0 41 39 0d bc fa 45 5d bb a1 b7 81 a4 03 fb 93 3b
       -0.008619607 -0.0033763633 -5.625591e-17 0.004516007
0002c0 31 49 b0 b1 02 da a8 bb 00 00 00 00 52 29 1f 3b
       -5.130595e-09 -0.0051529417 0.0 0.0024286103
0002d0 f3 01 60 3a 00 00 00 00 fa e7 0d 3a 30 d2 6d 3b
       0.00085452123 0.0 0.00054132903 0.0036288612
0002e0 f3 00 8f 3b c4 68 7c 99 79 71 bb 3a 5e ef f8 3a
       0.004364127 -1.3049252e-23 0.0014300785 0.0018992235
0002f0 7f 95 2d bb 00 00 00 00 00 00 00 00 00 00 00 00
       -0.0026486812 0.0 0.0 0.0
000300 bc bb b8 2a dd 12 81 3a 00 00 00 00 40 f1 81 ba
       3.2815233e-13 0.0009847541 0.0 -0.0009913817
000310 00 00 00 00 0e 73 0a bc bb 2a f1 3b 01 91 39 bc
       0.0 -0.008450283 0.00735983 -0.0113260755
000320 b3 cf c8 3a ee 49 69 3b 10 3e dc 3b b8 eb 94 3b
       0.0015320688 0.0035597044 0.0067212656 0.0045447014
000330 7c 45 a6 ba 00 00 00 00 97 62 24 3b 0e 2f 98 ba
       -0.0012685503 0.0 0.0025083178 -0.0011610703
000340 31 63 0c bb 3a 3e 16 3c 14 a8 cb 3b a0 bc ea 3a
       -0.0021421427 0.009170109 0.006215105 0.0017908998
000350 7b ac 5d 3b 62 6f 63 1a 00 00 00 00 b8 b4 dd bb
       0.003382473 4.7032474e-23 0.0 -0.006765928
000360 83 c6 bf 3b 54 51 13 3c df f8 88 3a 53 51 e0 bb
       0.005852522 0.008991558 0.0010450146 -0.006845632
000370 b6 dc 8d 3b e2 ef ae ba f7 ae ba bb 69 a1 f1 3b
       0.0043292893 -0.0013346637 -0.005697127 0.007373978
000380 a6 7b 77 2c 00 00 00 00 ec ba b0 3b e0 fd 2a 3b
       3.516945e-12 0.0 0.0053933766 0.0026091263
000390 43 27 52 3b ab 27 3a bb 73 fe 88 3b 85 66 57 13
       0.003206686 -0.0028404992 0.0041807233 2.7187361e-27
0003a0 00 00 00 00 1c 8c 3c bc c9 bb 34 bc 0e 94 78 bb
       0.0 -0.011508014 -0.0110311 -0.0037930044
0003b0 00 00 00 00 00 00 00 00 aa 11 33 bb 32 37 3c 3c
       0.0 0.0 -0.002732376 0.011487769
0003c0 27 5f 19 3a 87 4d 3e 3b 00 00 00 00 6c 84 7c 3b
       0.00058506656 0.002903791 0.0 0.0038531078
0003d0 30 1d 8f bb ec 61 a8 b9 59 65 c9 3b 1c 81 82 3b
       -0.004367493 -0.00032116415 0.006146115 0.003982676
0003e0 dc b6 ed 3a 00 00 00 00 cf 37 7d 3b 00 00 00 00
       0.0018136161 0.0 0.0038638 0.0
0003f0 01 1b 83 3a 4c 2e 8b 10 81 d5 ba 3b b6 23 19 ba
       0.0010002555 5.4897165e-29 0.005701721 -0.0005841808

network_body._body_endoder.seq_layers.2.weight f4 [256, 256]
000000 d6 0e c3 3d 60 7b 01 be 9c 6a 6a 3c f3 3a 14 bd
       0.09524314 -0.1264472 0.014307644 -0.03618903
000010 c7 2e 27 bd 63 38 ac 3d 70 f0 df 3c 74 51 c8 3c
       -0.040816095 0.084091924 0.02733633 0.024452902
000020 7a 1c 80 3d f4 46 31 bc 5b 43 d5 3b 83 d6 fa bc
       0.062554315 -0.010820139 0.0065082735 -0.030619865
000030 cc 57 8d 3c dd c3 db bc 10 1e 10 bc 20 e9 0f 3c
       0.017253779 -0.026826793 -0.00879623 0.008783609
000040 6b e6 9b 3d c8 da d4 bd af eb 84 3c 9d 49 a7 3d
       0.07612308 -0.10393292 0.016225664 0.081683375
000050 23 c9 d2 3c f5 c0 40 3d 47 20 92 3d 62 db 5e bd
       0.025730675 0.04705902 0.07135063 -0.05440844
000060 2d 35 75 bc 74 d3 f0 bd 63 f9 9a bc a8 87 a3 3d
       -0.014966291 -0.117590815 -0.018917745 0.07984859
000070 6e 8d 20 3d f5 21 c7 3b cf 54 21 bd 64 9a 25 bd
       0.039197378 0.006077046 -0.03938752 -0.04043044
000080 e3 8a 09 bb 67 0c c4 bc 0b 81 b1 bd d4 4e b6 bc
       -0.0020987324 -0.023931695 -0.08667191 -0.022254385
000090 c0 96 65 bd 72 1c d5 bd 12 f8 e3 bc 52 32 7b bd
       -0.05605197 -0.10405816 -0.02782825 -0.061327286
0000a0 f2 45 ee 3d 5c 64 e4 bc 9b fe fd 3c c3 6f 65 bd
       0.11634435 -0.027879886 0.031005194 -0.056014787
0000b0 f2 de b0 b9 20 4b 8a 3c a7 17 8f 3d bf 9a 9e 3c
       -0.00033735443 0.016881526 0.06986933 0.019360898
0000c0 fd af 10 bd fe 08 a2 3d df cf bf bc 9c 5a 5e 3d
       -0.035324086 0.079118714 -0.02341455 0.05428563
0000d0 0a a7 56 3d 6f 3e 86 3b 79 b8 b2 bd ea bc 5c bb
       0.052405395 0.004096798 -0.087265916 -0.0033681937
0000e0 71 98 82 bd e2 36 a3 3d da 82 33 bd 19 86 f6 3c
       -0.06376732 0.079694524 -0.04382596 0.03009324
0000f0 78 45 a9 3d a8 e7 5e 3d 98 13 49 3d bd d0 37 bd
       0.08265203 0.054420143 0.04909095 -0.044876803
000100 ce f8 88 3d d9 89 b0 3d f8 dc 06 be 45 5c b0 3d
       0.06688081 0.08620042 -0.1317023 0.08611349
000110 3d c2 ad bd 4f e2 f4 bc d0 20 fe 3c 79 77 05 bd
       -0.08484314 -0.029893069 0.031021506 -0.03258464
000120 ef d7 54 bd f3 e1 f3 bd a5 15 01 be 27 bd d2 b9
       -0.051963743 -0.11908331 -0.12605913 -0.0004019525
000130 cf 56 7e bc 20 2d 39 3e 5b d3 24 3d 37 fb ba 3d
       -0.0155236265 0.1808362 0.040240627 0.09129947
000140 2e aa 27 bc 65 ad a4 bd 14 1c 5c 3d ac 15 2b bd
       -0.010233445 -0.08040885 0.053737715 -0.041768715
000150 de dc 0a be d2 46 60 bd 94 1c 0f 3c e5 b9 ae bd
       -0.13560817 -0.05475504 0.008734841 -0.0853155
000160 ce 68 62 bb 2a 0c 60 3c b0 60 18 bd 63 51 9c bd
       -0.0034547332 0.013674775 -0.037201583 -0.07632711
000170 84 7b e8 bc 8d b7 51 3d af b3 76 bd 98 22 40 3d
       -0.02837921 0.05120044 -0.060229953 0.04690799
000180 9f ac 70 bc 4f ef 61 bd 6f df 73 bc 89 37 22 3c
       -0.014689594 -0.055159863 -0.014884814 0.009900936
000190 31 e6 f4 bc da 02 81 bd da 01 19 3d c3 12 f0 3c
       -0.02989492 -0.06299372 0.03735528 0.029305821
0001a0 cc 02 f4 bd be a7 ca bd 36 41 b8 3d a2 d0 30 bd
       -0.11914596 -0.098952755 0.08996813 -0.043167718
0001b0 8b 3e 6b bd 1a b3 d4 bd fa 6f b8 3d 69 0b af bd
       -0.057432692 -0.103857234 0.09005733 -0.08547098
0001c0 3c c9 bb 3d a6 3e 12 bd a3 5a 57 3c fc a5 68 3b
       0.09169242 -0.035704277 0.013144168 0.0035499325
0001d0 10 d6 6d 3d 00 b8 c7 3d ef ab 03 be ca 70 8f bd
       0.058065474 0.09751892 -0.12858556 -0.07003935
0001e0 bb 7b de 3c c8 f1 3a 3d d5 25 75 3d 84 90 41 3d
       0.027158609 0.045640737 0.059850533 0.04725696
0001f0 b2 1c 08 bd 9b 77 49 bd 5b 5e 23 3d 05 5b 49 bc
       -0.03323049 -0.04918633 0.039884906 -0.012289767
000200 33 98 77 bd cb 1e 30 bd 8c c2 b8 3c 24 2e 35 3d
       -0.060447883 -0.042998116 0.022553705 0.044233456
000210 d0 68 8e 3c cc 78 d0 3c 32 78 b5 bd 09 e0 01 bd
       0.017383963 0.025448225 -0.08860816 -0.031707797
000220 5a 63 ca 3d 49 7d b2 bc 2b cc 6c bd a0 2a 05 3d
       0.09882231 -0.021788256 -0.057811897 0.032511353
000230 5f 73 53 3d 16 b7 af bd 85 37 80 3d bb 61 f8 3b
       0.0516237 -0.08579843 0.062605895 0.0075800098
000240 fc ad 87 bd 1e 0b 2a be a6 d3 17 be a9 22 92 3c
       -0.06624982 -0.16605803 -0.14826831 0.017838793
000250 86 96 c4 bc eb ff 81 3c 97 2e 19 bd f3 62 80 bd
       -0.023997556 0.015869102 -0.037397947 -0.06268873
000260 78 94 55 bc 40 8f a2 3d 30 7b b1 bc b5 e5 1b bc
       -0.013035886 0.07937479 -0.021665186 -0.009515216
000270 91 65 9f bd ef 52 39 3d 3b b6 1e 3e 41 88 71 bd
       -0.07783044 0.045245107 0.15499203 -0.058967832
000280 0a 07 6e bc 8d cc 49 bd 69 ea 29 3d ac 96 7e bd
       -0.014528045 -0.04926734 0.041483317 -0.06215541
000290 f2 8a b0 3d b1 10 7a 3d 89 c6 9b 3d 45 ea 45 bd
       0.08620252 0.061051074 0.07606227 -0.04831912
0002a0 12 6e e9 bc 08 aa 23 3d f4 97 07 3e de 9b 5e bb
       -0.028494868 0.039957076 0.1324156 -0.0033967416
0002b0 7b f7 a6 39 9a 56 20 bd 48 e1 d5 bd 66 f2 0e bd
       0.00031846375 -0.03914509 -0.104433596 -0.034899138
0002c0 d5 6e 97 3c ad bf a9 3d 27 6a bc bc 5e 9f 3e 3d
       0.018485466 0.082885124 -0.022999836 0.046538703
0002d0 2e 37 dd 3d 27 92 0e 3c fe c9 4c bc 7c b1 20 bd
       0.1080154 0.008701838 -0.012499331 -0.039231762
0002e0 30 40 b8 bc 7c c3 71 bd ee a0 c9 bc 04 af 10 bd
       -0.022491544 -0.05902432 -0.02461287 -0.035323158
0002f0 03 f5 4e 3c ea 56 b3 bd 2d 78 61 3d 64 5e a7 3d
       0.0126316575 -0.08756812 0.05504625 0.081723005
000300 b1 6f e8 3c 4a bb 05 bd 0a 20 73 bd 04 17 f3 bd
       0.028373571 -0.032649316 -0.059356727 -0.11869624
000310 8f 37 4e be e1 db 37 bc 7a 77 43 3b c1 39 cc 3c
       -0.20138381 -0.011221857 0.0029825852 0.024929883
000320 f3 72 ae 3d 8f 53 ff 3c 9e a9 40 3e da c5 11 3e
       0.085180186 0.031167774 0.18814704 0.1423563
000330 73 aa 8c ba 69 45 bc bc c8 44 24 3d 3a 5a 92 3d
       -0.001073195 -0.022982316 0.040104657 0.071461156
000340 71 fe 09 be c7 b7 87 bd bd 73 96 3c 4c bd a4 bd
       -0.13475968 -0.066268496 0.018365735 -0.08043918
000350 15 c4 3b bc 95 aa 13 3d af 4a 15 bd 38 ea b0 bd
       -0.011460324 0.03605135 -0.036448177 -0.08638424
000360 3a 1d 64 3c b1 0d a6 bd b2 ab 4f bd ca 12 ea 3c
       0.013922984 -0.0810808 -0.05070085 0.028573412
000370 01 29 38 bd 84 13 b4 3c cf 67 5c bd ba a9 cf 3d
       -0.04496098 0.021981962 -0.053809937 0.10139795
000380 b8 bb cb 3d 69 69 7e bd e8 1e 2c bd 1b 7c a3 bc
       0.09947914 -0.062112246 -0.042021662 -0.019956639
000390 03 1f e6 3d ca d6 99 3d cc f5 b3 bc 6d bf bb bd
       0.11236384 0.07511671 -0.021967791 -0.09167371
0003a0 b0 5e f2 bc 6e 83 2c bd bf 55 6a 3d 4e 3c 31 bd
       -0.029586166 -0.04211753 0.05721068 -0.0432704
0003b0 e5 aa 33 bd 57 c7 28 be 58 0a 37 bd 44 49 3d bd
       -0.04386415 -0.16482292 -0.0446876 -0.04621245
0003c0 7f 91 81 bd 9b 9d f7 3c 65 c4 12 3d d5 9b 64 bd
       -0.06326579 0.03022652 0.035831828 -0.055812676
0003d0 b6 93 1e bd 3b 0f 1a 3d ab c6 21 3d 22 0d db 3d
       -0.038715087 0.03761218 0.039496105 0.10695864
0003e0 19 7b 32 bd 42 7e 4a 3d bf cd 00 be b0 f3 61 3d
       -0.043574426 0.049436815 -0.12578486 0.05516404
0003f0 b7 ce a3 bd 83 68 b0 3d 37 43 72 3d aa 3a c3 3c
       -0.07998412 0.08613684 0.059146132 0.023831684

network_body._body_endoder.seq_layers.2.bias f4 [256]
000000 a8 b6 82 bb 0b ce 7a bb f6 86 ec 91 66 9e 21 24
       -0.0039890595 -0.0038269784 -3.731741e-28 3.504548e-17
000010 8b 61 3d ba 34 0d bf 3b 86 49 a5 bb 4e 80 3c bb
       -0.0007224313 0.0058304314 -0.005044165 -0.0028763
000020 00 00 00 00 2b 8c df ba 6b 02 20 bb 72 57 3f ba
       0.0 -0.0017055323 -0.0024415504 -0.0007299102
000030 00 00 00 00 bb df 0a 0d 58 e4 b3 ba a8 50 ea ba
       0.0 4.279384e-31 -0.0013724668 -0.0017876821
000040 13 fc 1b ba b9 18 00 bb a3 c5 f8 bb 00 00 00 00
       -0.0005950343 -0.0019545986 -0.0075919195 0.0
000050 e0 9a 49 ba 69 f8 85 3c 6e 9e 32 3a 87 67 f8 b9
       -0.00076906197 0.016353803 0.0006813769 -0.0004737938
000060 3d 8b 9a 3c 6e 13 66 3b 00 00 00 00 74 44 1c bc
       0.018865222 0.0035106796 0.0 -0.009537805
000070 5a a7 f4 ba 40 16 0d bc 93 fc 28 ba 00 00 00 00
       -0.0018665597 -0.008611262 -0.0006446328 0.0
000080 1d db d3 ba ce 62 b2 bb 8f 53 9d bb 00 00 00 00
       -0.0016163323 -0.0054439073 -0.0048012207 0.0
000090 f5 c4 9b ba c8 ca eb ba b3 41 a3 ba 5f 2e 00 1a
       -0.0011884259 -0.0017989511 -0.0012455493 2.6507238e-23
0000a0 00 00 00 00 42 de e8 ba 00 00 00 00 db 85 eb 3b
       0.0 -0.0017766433 0.0 0.0071875877
0000b0 9b b9 60 3c cc 64 18 bb 80 2a 9c 3b a3 65 18 3c
       0.013716127 -0.002325344 0.0047658086 0.009301576
0000c0 f7 37 f2 21 68 3a 29 31 44 22 e3 ba 23 22 78 bb
       1.6413372e-18 2.4625937e-09 -0.0017328938 -0.0037862144
0000d0 fe 8d ff b9 7f 23 4e bb 00 00 00 00 75 b6 93 3b
       -0.00048743183 -0.0031454263 0.0 0.0045078346
0000e0 f1 19 f5 8f 0a b3 60 ba bf ad 34 3b e2 50 a8 3b
       -2.4168857e-29 -0.0008571601 0.002756938 0.005136595
0000f0 ab c7 42 bb d8 2f 3c a5 00 00 00 00 00 00 00 00
       -0.0029721062 -1.6322611e-16 0.0 0.0
000100 82 f1 2b 3c 47 8f eb ba 5d e9 24 3c 76 98 54 3b
       0.010494592 -0.0017971777 0.010065404 0.0032439507
000110 eb fe 58 3b 30 f6 af 25 76 18 e6 bb 00 00 00 00
       0.0033110927 3.0524484e-16 -0.007021959 0.0
000120 a7 27 12 bb e5 09 20 3b fa 6d 16 bc 00 00 00 00
       -0.0022301467 0.002441996 -0.009181494 0.0
000130 37 85 b7 b5 7e a9 75 3a 02 ff 87 bb 1e 06 00 92
       -1.3673333e-06 0.00093712646 -0.0041502723 -4.039722e-28
000140 04 b7 2f bb 81 54 ee ba 7e 12 d0 3b 41 a1 b5 bb
       -0.0026811967 -0.0018183143 0.0063498607 -0.0055429046
000150 00 00 00 00 17 20 26 bb ff d4 51 bb 00 00 00 00
       0.0 -0.0025348717 -0.0032017825 0.0
000160 3c 6b e4 27 00 00 00 00 0b 69 5f bb 8c 2b 5d bb
       6.3398976e-15 0.0 -0.003408971 -0.003374788
000170 cc 52 26 bb 5a c4 c0 bb d7 a6 54 12 ca d1 8c bb
       -0.002537894 -0.005882782 6.710105e-28 -0.0042974697
000180 fc 1a a4 3b 3a 78 57 bb c7 35 b4 b9 00 00 00 00
       0.0050080996 -0.0032878057 -0.00034372343 0.0
000190 78 ff b1 3b 90 26 e5 3b 33 cc eb ba 54 6b 81 bb
       0.0054320656 0.0069931224 -0.0017989933 -0.003949562
0001a0 8c 90 2f ba ba a5 2b 3b 5a 60 af 3b 02 56 7f a6
       -0.00066972594 0.002619131 0.005352062 -8.858746e-16
0001b0 40 ae c6 3b 47 e3 26 bc af c2 eb ba 4a b0 a5 3b
       0.0060632527 -0.010186023 -0.0017987097 0.0050564157
0001c0 40 d5 49 ba 91 7e dc ba 0e 2f eb ba 9c 00 d6 ba
       -0.0007699318 -0.0016822388 -0.00179431 -0.0016327086
0001d0 43 90 8d 3b 60 fa 4b bb 30 de 98 39 9d 43 22 b6
       0.004320176 -0.0031124577 0.00029157242 -2.4179237e-06
0001e0 b6 61 37 bb 07 f5 82 bb 91 25 41 bb 84 18 12 bc
       -0.0027981824 -0.0039964947 -0.0029471854 -0.008916978
0001f0 50 07 13 bb 4e 8a dc ba ab 34 ff 3b 00 00 00 00
       -0.0022434779 -0.0016825886 0.007788261 0.0
000200 9b 06 16 bb eb 24 3d bb c9 c8 eb ba ab 9e ce ba
       -0.002289212 -0.0028861116 -0.0017988916 -0.001576384
000210 7f 38 b9 bb 75 6e 20 3b 52 df 03 3c 96 32 5c bb
       -0.005652487 0.00244799 0.008048849 -0.0033599488
000220 6a c2 b1 3b 94 e3 49 bb 7c 0b ab ab 00 00 00 00
       0.0054247873 -0.0030805813 -1.2153468e-12 0.0
000230 e6 35 96 ba 13 a8 11 bb a0 58 0e 3c 85 e4 fb 95
       -0.0011460155 -0.0022225424 0.008688122 -1.0173863e-25
000240 7c fe 60 3b f8 68 c1 bb c7 c1 3f bb ed bc fc bb
       0.0034331372 -0.005902406 -0.0029259787 -0.0077129514
000250 30 75 ea 3a 35 76 8d bb 00 00 00 00 8c f3 c5 3b
       0.0017887708 -0.00431707 0.0 0.006040996
000260 e2 fc 2a bb c8 14 20 bb 62 91 83 3a 19 58 af 3c
       -0.0026090671 -0.002442645 0.0010037834 0.021404313
000270 5c 81 67 bb 07 77 aa 91 01 a6 30 bb 76 76 2a 3b
       -0.0035324907 -2.6894627e-28 -0.0026954415 0.002601055
000280 e1 20 eb ba 34 33 f9 b9 b1 7b a7 3b c9 ad ba 3b
       -0.0017938876 -0.0004753113 0.0051111807 0.0056969863
000290 f8 ac 8f ba dc 22 11 3c 08 e6 8c 3b 7b 33 53 ba
       -0.0010961583 0.008858409 0.004299883 -0.00080566824
0002a0 4e a8 d2 bb 00 00 00 00 0a 54 09 8a a0 fd 25 3a
       -0.006428755 0.0 -6.612116e-33 0.00063320436
0002b0 83 56 c0 ba 00 00 00 00 fe 65 ba 34 f9 14 18 bb
       -0.001467422 0.0 3.471941e-07 -0.002320586
0002c0 17 07 17 bb 04 15 97 3a de 40 a5 ba 00 00 00 00
       -0.0023044997 0.0011526649 -0.0012607833 0.0
0002d0 e7 31 97 bb 5a 5e 86 06 60 ac 7d 1b 01 dd 6e b9
       -0.004614103 5.0543835e-35 2.0983367e-22 -0.00022779779
0002e0 00 00 00 00 ae 96 1f bb 72 65 58 bb 3d 24 bc bb
       0.0 -0.0024351287 -0.003301945 -0.0057416246
0002f0 e7 5a 36 3c e2 3b b8 a3 7b cc 00 b9 8c 1a 0f bb
       0.011130071 -1.9974681e-17 -0.00012283206 -0.0021835892
000300 00 00 00 00 00 00 00 00 11 e0 76 bb 3d 19 8f b8
       0.0 0.0 -0.0037670175 -6.823472e-05
000310 01 97 00 bb dc 9d 1d 3b 00 00 00 00 d5 cd eb ba
       -0.0019621255 0.002405039 0.0 -0.001799042
000320 50 50 a7 24 d7 b6 bd 3a a9 b6 9c ba 1d 1c 69 b9
       7.256076e-17 0.0014474046 -0.0011956292 -0.00022231085
000330 18 18 32 0e 4e 3a ba 3a 7f 2c b9 3a 2b 45 5f b9
       2.1951795e-30 0.001420805 0.0014127641 -0.00021292704
000340 47 f6 04 3c 74 ed 3e a2 97 0a b4 3a ca 0f 9b ba
       0.008115358 -2.5875508e-18 0.0013736066 -0.0011830267
000350 00 00 00 00 0c 13 b1 ba b7 30 c2 bb de 5c 3e 3b
       0.0 -0.0013509705 -0.0059262174 0.0029047052
000360 00 00 00 00 ed 1b e3 ba 94 bf a1 ba 6b b7 ff 39
       0.0 -0.0017327048 -0.001234042 0.00048774047
000370 be ba 8b bb 5e fd 19 3b e8 8e 88 bb e6 bb d6 3a
       -0.0042642048 0.0023496966 -0.0041674264 0.0016382902
000380 f8 ef 17 bb 38 76 46 3c cb 7b 81 b9 00 00 00 00
       -0.0023183804 0.0121131465 -0.0002469703 0.0
000390 22 9a b6 bb 3b a6 be bb 31 e1 59 3b 00 00 00 00
       -0.0055725733 -0.005818156 0.0033245797 0.0
0003a0 91 88 d4 3b 02 51 1e 27 20 02 91 0a f9 7b ae bb
       0.0064860065 2.197082e-15 1.3963791e-32 -0.0053248373
0003b0 fa 5c 76 39 33 c2 00 3c 00 00 00 00 74 23 d6 b9
       0.00023495025 0.007858801 0.0 -0.00040843675
0003c0 65 37 59 ba 24 6e 2c a8 eb 63 4d 3c ab 73 50 ba
       -0.00082861475 -9.571801e-15 0.012536029 -0.0007951806
0003d0 1a dd 14 3c 0d 16 05 3b 16 72 30 3c f9 45 ba bb
       0.009085918 0.0020307333 0.010769388 -0.005684611
0003e0 7c 32 45 bb 72 19 b8 ba 8d 26 07 bb 62 a7 5b 3c
       -0.0030089905 -0.0014045669 -0.0020622343 0.013406606
0003f0 85 63 11 bc 57 43 64 bb 23 9d f3 a0 2a 5f 2f 3b
       -0.008873825 -0.0034830177 -4.1269786e-19 0.0026759603

network_body._body_endoder.seq_layers.4.weight f4 [256, 256]
000000 fe 24 98 3c 8c 65 f3 3d c2 bd bc bc fb 3c 13 3d
       0.018572327 0.11884603 -0.023039702 0.035946827
000010 ff 7d c8 3d 4c f7 ac bc 9b 19 4e bd cd f6 54 3c
       0.09789657 -0.021114014 -0.050317388 0.012998295
000020 40 fe 4c bc 53 21 9a bd f2 75 12 3e 5e 7c 57 bd
       -0.01251179 -0.07525887 0.14302805 -0.05260884
000030 6a 95 86 3d d9 5c 06 3c db 29 01 3d ac a0 02 3d
       0.06571467 0.008200848 0.031534057 0.03189151
000040 93 e1 9f 3c d8 96 85 3b 35 53 56 3d e8 85 b7 3c
       0.019516742 0.00407682 0.052325446 0.022402719
000050 8b 58 31 bc b7 ac 69 bd ca bb c2 bd 94 eb c4 3d
       -0.010824333 -0.05704948 -0.09508474 0.096152455
000060 44 6e cf bd 4d 04 1b 3d 58 12 b2 3d 36 69 46 3d
       -0.101284534 0.0378459 0.08694905 0.04844018
000070 1c b0 b3 bb a7 ef 21 bc 9f 53 92 3d 40 71 99 3c
       -0.0054836404 -0.009883798 0.07144856 0.01873076
000080 7b b3 9a 3d 83 37 09 3c 57 34 ce 3d d1 19 55 bd
       0.075537644 0.008375051 0.10068577 -0.052026574
000090 a0 32 2a bd 24 4d f0 ba 82 26 b1 3c fb 0f 70 3d
       -0.041552186 -0.0018333537 0.021624807 0.05860899
0000a0 c8 0b 8e 38 c9 80 8a bb 09 77 e9 bd 27 b1 b7 3c
       6.773282e-05 -0.004226778 -0.11399657 0.02242334
0000b0 d7 b8 6a 3d b3 b1 29 bd 26 99 4c bd 40 54 0e 3d
       0.057305183 -0.041429233 -0.04995074 0.034748316
0000c0 26 9c 04 3e 14 69 9a bc 1c af 9d 3c 70 91 dc bc
       0.12950191 -0.018848933 0.019248538 -0.026924819
0000d0 8b eb 25 bd 1e 4c 89 bd 19 5c 57 bd 5a 33 65 bd
       -0.040507834 -0.06703971 -0.052578066 -0.055957176
0000e0 e6 ee a7 3d 98 b2 12 bc fa 3c ed bc 38 ff 43 3c
       0.08199863 -0.008953713 -0.02895974 0.011962704
0000f0 9d b6 30 be 25 94 27 bd b0 12 11 bc de 28 8d bc
       -0.17257161 -0.040912766 -0.008854553 -0.017231401
000100 78 b0 2e bd 6e 70 08 be ff 78 98 3c 9a c3 e2 3d
       -0.042648762 -0.13324139 0.018612383 0.11072464
000110 e1 47 63 3d e5 c9 37 3d 05 df 98 bc 5b 04 65 bd
       0.05548847 0.044870276 -0.018661031 -0.055912357
000120 05 b1 a4 bd c8 47 20 3d 6d 9d 47 bd f0 9e 45 3c
       -0.08041576 0.039130956 -0.048734117 0.012061819
000130 6f 9d c3 39 d4 99 78 bd fa bf 72 bd 0b 43 24 be
       0.00037310596 -0.060693577 -0.059265114 -0.160412
000140 7e 58 ec 3d 49 b1 12 3b c3 4e 91 bd 53 41 ab bd
       0.11540316 0.0022383502 -0.07095101 -0.08362069
000150 e6 3e 1d 3e 1b 79 a1 3d 97 81 82 bd 90 db 5c bc
       0.15356025 0.07884427 -0.063723736 -0.013480082
000160 88 d8 be bc 1b fa 87 3d e0 7e 88 bc 11 8b 44 bd
       -0.02329661 0.06639501 -0.016662061 -0.047984187
000170 8a be b0 bd 41 df 5f bc e8 52 68 3d 72 b9 70 bd
       -0.086300924 -0.013664068 0.05671969 -0.058770604
000180 79 1b 9a bd 0d e7 2d bd 4b 54 5b 3d da 48 7c bc
       -0.07524771 -0.042456675 0.053547185 -0.015398229
000190 c7 d6 a9 bd 81 6c 5a 3d cc fa 90 bd 7b 9f 5a bd
       -0.08292919 0.053326134 -0.07079086 -0.05337475
0001a0 bb 63 0e bd df f7 a7 bd 6c 76 5f bb 8e b0 40 bd
       -0.03476308 -0.082015745 -0.0034097685 -0.047043376
0001b0 08 41 87 bd df bc 59 3d 6c 02 bd bc c7 59 32 3d
       -0.066042006 0.053158637 -0.023072444 0.04354265
0001c0 fa 2e aa bd ff 47 ef 3c c1 f9 54 3c e7 7e 82 bd
       -0.08309741 0.029209135 0.012998999 -0.06371861
0001d0 dd c0 4b bd 58 9f 4a 3d a8 70 77 bd a8 ab 60 bd
       -0.049744476 0.04946837 -0.06041017 -0.054851204
0001e0 3d d4 2c 3c 1c 6c 8a bd f7 4a 87 3d 68 da 20 3d
       0.010548648 -0.067589015 0.06606095 0.03927079
0001f0 58 bf af 3c 68 a2 bd 3c fc 81 77 bc 40 e3 5c bc
       0.021453544 0.02314873 -0.015106674 -0.013481915
000200 86 4e 23 3d 79 15 69 3d ad cb d9 bc 42 a4 2c 3d
       0.039869808 0.056905244 -0.026586378 0.042148836
000210 65 b6 bc bd bb ec 0a 3d 31 91 75 bd f7 5c 51 3d
       -0.092144765 0.03391717 -0.05995292 0.05111405
000220 8a 89 04 3e 26 8c 89 bd d2 69 b5 bd 4d 2a 0c bd
       0.12943092 -0.06716184 -0.08858074 -0.03422003
000230 3b d0 31 3d 18 0a ec 3d e7 cb 8d 3c 14 08 4a 3d
       0.043411475 0.11525363 0.017309142 0.04932411
000240 d4 8c 64 bc b3 fc a3 3a de 9a 5c 3d 94 9f 9d 3c
       -0.013949592 0.0012511223 0.05385863 0.019241132
000250 9f 88 12 3d 51 79 1e be 7a bd a4 3b c8 ed f9 bd
       0.035774823 -0.15475966 0.00502747 -0.12203556
000260 c3 3c 73 3d ec 36 ad bd ce a4 39 3d 18 dc 7f bc
       0.05938412 -0.08457741 0.045323186 -0.015616439
000270 0f 66 6c 3d 01 fa cc 3d 87 1e a2 3c c2 7e 75 bb
       0.05771452 0.10008622 0.019789947 -0.0037459587
000280 02 0b be bb 69 16 16 3c 5d 19 0f bd bf df ab bd
       -0.005799652 0.009160616 -0.034936298 -0.083922856
000290 22 bd 84 bd 74 39 86 bc ee eb c0 bc 2e a3 0e 3d
       -0.06481387 -0.016384818 -0.02355 0.03482359
0002a0 62 b3 de 3c 63 e5 d1 bc 08 f9 2e 3d 71 b2 86 bd
       0.027185146 -0.025622075 0.042717963 -0.06577004
0002b0 d9 8e 20 3e ce fc c8 bd e5 86 3d bd 74 69 a3 3d
       0.15679492 -0.09813844 -0.046271224 0.07979098
0002c0 ac 5c b6 3c 8a ee 82 3c a5 06 37 bb c7 c6 2b 3d
       0.022260986 0.015982885 -0.0027927544 0.041937616
0002d0 a5 43 d9 bc fe ae 97 3d 6a a2 e1 bd 69 42 84 3d
       -0.026521513 0.07406424 -0.11017306 0.06457979
0002e0 41 0e 86 bd b8 be de 3c f9 09 03 bd 76 16 16 be
       -0.065456875 0.027190551 -0.031991933 -0.14657006
0002f0 3a 50 60 bd ba fb 1a bd ac c1 72 3b f7 68 7a 3d
       -0.05476401 -0.03783772 0.0037041707 0.06113526
000300 60 8e d5 3b 08 25 4c bd 92 0c be 3c d0 28 d6 bd
       0.0065172166 -0.049840003 0.023199353 -0.10457003
000310 be 06 2a bd 2d e9 f7 bc 29 37 84 3d 72 7d 36 3d
       -0.041510336 -0.030262554 0.064558335 0.044553228
000320 95 aa d5 bc d6 01 0c bd 7a ce a5 3b e4 3d a0 bb
       -0.026082316 -0.03418144 0.0050600143 -0.0048901904
000330 33 c5 cd bd 0b e2 2d 3d fb 57 0f bc db 11 b8 3d
       -0.100473784 0.0424519 -0.0087490035 0.08987781
000340 e0 1b c7 bc 34 8b a6 3b 8e c4 95 bd f9 f7 a5 bd
       -0.024305284 0.0050825123 -0.073128805 -0.08103938
000350 a1 b1 80 38 61 bc d7 bd 60 c2 6f 3d 5a d4 65 3d
       6.1366016e-05 -0.10533977 0.05853498 0.056110717
000360 3d 50 a4 bc ea 78 5e 3d 85 38 ae bd 06 af b3 3c
       -0.020057792 0.05431453 -0.08506874 0.021934044
000370 b8 5d 30 3c 2a db 55 3d dc 85 9a bd e8 77 f8 bc
       0.010764532 0.052210964 -0.07545063 -0.030330613
000380 45 4f d9 3d 8b d1 06 3d a7 55 2c 3d d5 d5 46 bc
       0.106108226 0.03291468 0.042073872 -0.0121359425
000390 1a 5b a8 3d ce 3e 0a bd 28 76 a7 3c 88 0c ec bc
       0.08220501 -0.0337513 0.020442083 -0.02881457
0003a0 5e c6 10 3d 2b d8 3b 3d 21 b6 7c 3d b1 a0 0d 3d
       0.035345428 0.04586045 0.06169713 0.034577075
0003b0 86 ef 9e 3c 6a 21 a5 3d 53 99 18 3d f9 a5 9a bc
       0.019401323 0.08063014 0.037255596 -0.01887797
0003c0 09 63 d4 bd be fc 5c 3d 49 ea 25 bc 8f 1c 90 3d
       -0.10370452 0.05395197 -0.010126659 0.07036697
0003d0 a6 27 20 3d 0e 22 59 bd 48 53 37 3d d2 b0 4b 3d
       0.03910031 -0.053010993 0.044757158 0.049729176
0003e0 be b6 dc 3b 6f d1 c0 39 58 a8 76 3c de c5 b9 3c
       0.0067356518 0.00036777134 0.015054785 0.022677358
0003f0 5c d6 71 bc 35 dc 29 3d 47 11 b1 bd cf 86 e6 3d
       -0.01476058 0.04146977 -0.086458735 0.112561814

network_body._body_endoder.seq_layers.4.bias f4 [256]
000000 d4 b5 8d 28 85 9d 69 3c 6b 6b d2 ba b7 7b eb ba
       1.5733e-14 0.014258747 -0.0016053742 -0.0017965947
000010 e2 27 5a 14 da 9c da 3b e7 e4 e9 bb 73 11 cf ba
       1.1014053e-26 0.00667153 -0.007137883 -0.0015798047
000020 49 e6 ea ba 44 13 9d 27 08 15 1d bb 75 62 1f 3b
       -0.0017921414 4.359714e-15 -0.0023968834 0.002432016
000030 77 24 58 b8 74 81 97 28 00 00 00 00 a4 c1 0b 3c
       -5.1532374e-05 1.6820509e-14 0.0 0.008530054
000040 86 07 d5 bb 48 f3 0d 3b e6 f0 4d 3c 00 00 00 00
       -0.006501141 0.00216599 0.012569642 0.0
000050 8b f1 ed 3a 60 ac 8b bb 8b 71 62 3c 93 11 77 bb
       0.001815365 -0.004262492 0.013821016 -0.0037699684
000060 00 00 00 00 c1 c1 a2 3b c6 99 e2 3b d0 30 91 3c
       0.0 0.004966945 0.006915304 0.01772347
000070 8d a6 56 bb 77 10 7e 2f f4 3a c8 3a 00 00 00 00
       -0.003275308 2.3107015e-10 0.0015276358 0.0
000080 de 53 c0 bb a6 a0 4d af 0d 76 a8 bb 1d 54 bf 3b
       -0.0058693727 -1.8701715e-10 -0.005141026 0.0058388845
000090 e0 57 14 bb 77 d3 b5 0f 30 9f 90 39 98 8c 07 bc
       -0.0022635385 1.7929431e-29 0.00027584424 -0.008273266
0000a0 59 e1 3f 2d 16 7f 07 bb dd ef 98 bb 16 14 53 bb
       1.090713e-11 -0.0020675114 -0.004667266 -0.0032208017
0000b0 ec 0b 03 bb 61 68 49 3b 49 39 0a bb 60 89 dd ba
       -0.001999612 0.003073238 -0.0021091274 -0.0016901903
0000c0 18 78 e9 3a ca 5b cb bb fa 3b 84 3b 72 5e 75 a0
       0.001781228 -0.0062060105 0.00403547 -2.0783557e-19
0000d0 23 8e e1 b9 f1 86 61 39 00 00 00 00 00 00 00 00
       -0.00043021244 0.00021507942 0.0 0.0
0000e0 ee 98 79 3c f4 e9 ad bb 41 ab eb ba c2 d6 b2 ba
       0.015234215 -0.0053074304 -0.0017980115 -0.0013644325
0000f0 04 60 86 3a 64 39 f7 b9 00 00 00 00 10 d4 a6 3b
       0.0010252004 -0.0004715427 0.0 0.005091198
000100 7f 1f d3 bb d0 13 21 3b c5 49 14 bc 67 78 46 bb
       -0.0064429636 0.002457846 -0.009050791 -0.0030284168
000110 99 5d 65 05 3a be a6 ba 2c 6a 7d bb 15 86 75 3b
       1.07847194e-35 -0.0012721487 -0.003866802 0.0037463952
000120 da 44 f5 3a fc ec f7 39 ce 7d 9b 3b 85 6a 33 3b
       0.0018712536 0.00047288078 0.0047452217 0.0027376723
000130 29 38 7d 3b 90 5e 6f bb 00 00 00 00 37 e3 ee bb
       0.003863821 -0.003652487 0.0 -0.0072902697
000140 5b b3 d9 ba f5 52 7e 3b 13 5f b9 3b ee 69 79 3c
       -0.0016609238 0.003880677 0.0056570857 0.0152230095
000150 66 e8 e2 97 00 00 00 00 fc e7 97 3b e1 a7 d6 33
       -1.4663573e-24 0.0 0.004635809 9.9956885e-08
000160 5e f9 2b 3c 2f 1f 8d 3c cf 7e 1e 3c 2f 57 6b bb
       0.0104964655 0.017226784 0.009673788 -0.003591012
000170 aa 47 18 bb a2 16 74 3c 3d d3 07 97 88 6b 26 3c
       -0.0023236074 0.014897974 -4.3887473e-25 0.010157473
000180 53 79 eb ba 50 49 85 bb 38 87 8c 36 9b b6 4d bb
       -0.0017965235 -0.0040675774 4.1880667e-06 -0.003138936
000190 b7 64 b4 bb 00 00 00 00 f2 68 2c b9 00 00 00 00
       -0.00550517 0.0 -0.00016442293 0.0
0001a0 6d 15 4e 3b 2b 54 c2 ba c8 6a c6 bb 35 fc 16 bb
       0.0031445876 -0.0014826109 -0.00605521 -0.002303851
0001b0 e3 a3 9b 3b 0d c0 a7 bb 12 3a fe bb b6 d6 96 bb
       0.0047497614 -0.00511933 -0.0077583874 -0.0046032323
0001c0 dc 0f 00 bb 20 da 78 ba 82 5b 92 bb 00 00 00 00
       -0.0019540703 -0.00094929524 -0.004466475 0.0
0001d0 4e b9 7f bb 00 00 00 00 8a c5 1d bb 7b 04 e6 ba
       -0.0039020362 0.0 -0.0024074041 -0.0017548943
0001e0 b6 af 32 3a 2c ba 9f bb 4e 56 e1 ba 16 eb 01 bc
       0.0006816344 -0.0048744883 -0.0017191858 -0.007929584
0001f0 f5 a0 b3 ba 99 12 2a ba 51 6a af ba c5 02 7e bb
       -0.0013704585 -0.00064877566 -0.0013383125 -0.0038758975
000200 4c fe 81 3b 8c aa 28 3a 5f 7e 4e 3c 65 71 3c bb
       0.003967082 0.0006434105 0.012603371 -0.0028754112
000210 18 55 09 bb ff ea a3 bb a8 6b 11 bb 1a b5 64 ba
       -0.002095526 -0.005002379 -0.0022189412 -0.0008724496
000220 08 21 c4 bb 83 c5 19 bb b8 17 f0 b9 08 7f 76 ba
       -0.005985383 -0.0023463673 -0.0004579404 -0.00094030844
000230 07 45 85 bb d4 b1 a8 ba 5a 62 2e b9 1d 01 01 ba
       -0.0040670666 -0.001287038 -0.00016630572 -0.00049211254
000240 06 48 97 3b 00 00 00 00 e0 57 e9 bb 2a ab de ba
       0.00461674 0.0 -0.007121071 -0.0016988267
000250 fb 54 9b a4 46 ff 98 bb 5c b3 71 bb 74 fb 62 bb
       -6.73645e-17 -0.004669103 -0.0036880588 -0.003463474
000260 0f 20 77 30 bb 45 eb ba 50 a3 a9 ba 0f 23 5e bb
       8.9903635e-10 -0.0017949858 -0.0012942348 -0.0033895408
000270 ec f1 8b 2b d7 99 3d bb fd d8 e0 ad 87 ff d1 bb
       9.943691e-13 -0.0028930807 -2.5562214e-11 -0.006408635
000280 ac 9e 7c ba 86 44 02 bb 93 c8 ea ba 00 00 00 00
       -0.0009636681 -0.001987727 -0.0017912559 0.0
000290 d6 35 ac 3b b4 64 e9 3b 00 00 00 00 62 d1 eb ba
       0.005255441 0.0071226005 0.0 -0.0017991478
0002a0 00 00 00 00 14 13 7c bb 2a 8a eb ba e5 a1 a8 3b
       0.0 -0.003846352 -0.0017970253 0.0051462525
0002b0 69 3b cc 3b 96 28 17 3c 7f fb d1 3b 74 2d a1 ba
       0.006232668 0.009225985 0.0064081545 -0.0012296871
0002c0 92 af b3 bb 00 00 00 00 a7 1e 91 3b 78 fb 71 bb
       -0.005483576 0.0 0.004428703 -0.0036923569
0002d0 c1 72 89 b1 88 7f 1e b2 36 3f 61 3b f5 81 db bb
       -4.000271e-09 -9.225808e-09 0.0034369952 -0.0066988417
0002e0 c7 02 3e 3a 7c c9 6e bb b4 22 87 ba 52 c4 9c 3b
       0.00072483387 -0.0036436012 -0.0010310025 0.0047841454
0002f0 51 60 0b bb 22 37 5c 8a 40 29 0b bb ac a1 a0 ba
       -0.0021267126 -1.0602984e-32 -0.0021234304 -0.0012255213
000300 00 00 00 00 cc 87 dc ac 86 8f fc 3b 59 4e c3 bb
       0.0 -6.2678526e-12 0.007707539 -0.0059602675
000310 ca 9a 82 bb eb c1 90 ba 7e 46 32 bb f3 ba 8c 3b
       -0.0039857375 -0.001104412 -0.002720266 0.004294747
000320 27 9d 25 3b 28 61 0a bb 62 8c 18 bb 88 fd a5 3b
       0.0025270672 -0.0021115039 -0.0023277034 0.0050656237
000330 d1 9e b3 3b 8f 25 a8 bb 8d bb a8 bb 09 1b 17 bb
       0.005481579 -0.0051314305 -0.005149311 -0.0023056886
000340 ca 02 ce b9 27 2e d8 38 7c d9 14 bb 83 0b 22 3c
       -0.0003929346 0.00010308279 -0.0022712639 0.00989044
000350 a0 ed a1 3b cc 39 0d ac 1e 0e 3d 93 e4 ea 19 bb
       0.004941657 -2.0069389e-12 -2.3862114e-27 -0.0023485953
000360 d5 d6 4b b3 13 15 89 ba ca d8 19 bb 59 67 2e bb
       -4.746001e-08 -0.0010458551 -0.0023475164 -0.0026611893
000370 72 97 87 bb c7 f4 d1 3b c6 50 32 3c b3 98 5f 3b
       -0.0041379267 0.0064073536 0.010883516 0.0034118115
000380 84 82 19 bc 5f 19 a0 bb 00 00 00 00 78 af 0d aa
       -0.009369496 -0.004885837 0.0 -1.2584194e-13
000390 78 ea a3 3a 00 00 00 00 d7 2b 5b bb b5 32 9e bb
       0.001250579 0.0 -0.0033442879 -0.004827822
0003a0 35 f1 a3 3b f6 d1 1b b5 e4 54 30 37 f1 11 8c bb
       0.0050031194 -5.8047533e-07 1.0510183e-05 -0.0042745997
0003b0 78 a1 54 ba 16 93 19 87 4a ba 50 bb 54 db d8 bb
       -0.0008111219 -1.1553665e-34 -0.0031849318 -0.006617943
0003c0 00 00 00 00 f6 bd 89 3b c3 5a 0a 17 00 00 00 00
       0.0 0.0042035533 4.470476e-25 0.0
0003d0 b2 c6 43 3c d0 1b ae bb e2 00 23 bb 8b 9d a5 98
       0.011949228 -0.005313374 -0.0024872352 -4.281058e-24
0003e0 6b 36 5a bb 7e 72 1b 3c 76 ab 81 16 d8 38 2c 3c
       -0.0033296596 0.009487746 2.094928e-25 0.0105115995
0003f0 67 a3 e5 3b 91 b8 8b bb e8 50 8e 3b 11 58 24 bb
       0.0070080045 -0.0042639454 0.004343141 -0.0025076906

action_model._continuous_distribution.log_sigma f4 [1, 2]
000000 3d 33 dd 3c e8 d2 cc 3c
       0.027001971 0.025002912

action_model._continuous_distribution.mu.weight f4 [2, 256]
000000 dd a6 f4 bb 53 c1 8c 3c fa 19 f6 3b d8 f2 1b b9
       -0.0074661807 0.017182028 0.007510421 -0.00014872418
000010 09 81 3a bc c9 c7 01 3d e3 a0 9d 3c 75 bd 8e 3c
       -0.011383303 0.03168467 0.019241756 0.017424325
000020 93 37 d3 3b 2d f7 a9 3b f1 cb 9d 3b 3b d4 d2 3c
       0.006445834 0.0051869364 0.0048155715 0.025735965
000030 32 d3 74 bc 77 ae 54 3c cb 9e 9d 3c fc a3 50 3c
       -0.014942931 0.012981049 0.019240757 0.012734409
000040 45 18 39 3a 0c 99 26 3c 36 36 6c 3c ff 31 44 3c
       0.00070608064 0.010168325 0.014417222 0.011974811
000050 9f 3b 55 b9 d8 a5 07 3c 2b 87 a0 3c 2e 99 7f 3c
       -0.00020335474 0.008279286 0.019595703 0.015600486
000060 52 1d 12 bc 6f 3b 15 3c 7f 29 7e 3c df c8 bb 3c
       -0.008918123 0.009108408 0.015512823 0.022922931
000070 f2 5c cc 3c 21 9d bb 3b 98 d8 43 bb f7 02 3d bc
       0.024946664 0.0057255183 -0.0029883739 -0.011536351
000080 6a ec 69 bc 46 88 2d bb e3 f5 00 3b ce 22 cd 3c
       -0.014277557 -0.002647893 0.001967781 0.02504101
000090 7e 71 88 3b b5 6d 56 3b d6 59 bf 3c 9d 27 fa ba
       0.00416392 0.00327192 0.023358267 -0.0019085292
0000a0 90 53 be 3b cb 47 bb 3c ed 6a 2a bc e6 e4 f7 bb
       0.0058083013 0.022861382 -0.01040147 -0.0075651286
0000b0 c4 0e a7 bb 03 9f f2 3a 50 3b c8 bc 74 24 c7 3b
       -0.0050981957 0.0018510524 -0.024442345 0.0060773436
0000c0 e8 bb 84 3c bf 54 e4 ba 65 08 a5 3c 5a 17 f1 3c
       0.016202882 -0.0017420276 0.020145604 0.02943008
0000d0 22 62 98 3c d7 73 56 3b 18 53 33 ba 4b ca 27 3b
       0.01860148 0.0032722855 -0.000684069 0.0025602754
0000e0 33 1d 49 3c 6c 00 01 bc 09 c8 8e 3b 97 5c 61 bb
       0.012275028 -0.007873636 0.004357342 -0.0034387463
0000f0 eb b8 3d 3c 6a 55 01 bc 40 25 44 bc 84 4c 2f 3c
       0.011579732 -0.007893899 -0.011971772 0.010699395
000100 f9 12 83 bc ef b4 b5 3c f2 ae 27 bc a7 7e 56 3c
       -0.016000258 0.022181002 -0.010234581 0.01309172
000110 66 c6 cb bb 51 a3 21 ba 82 be 84 3b 01 ca 10 b9
       -0.0062187193 -0.00061659986 0.0040510306 -0.00013808162
000120 d2 0b 50 3c 11 1a 84 bb eb c0 07 3c 55 b1 9c 3c
       0.012698131 -0.0040314277 0.008285741 0.019127527
000130 af 74 bf 3b 89 22 5a 3c 02 b9 5b 3b 96 01 01 3c
       0.005842767 0.013313898 0.0033527021 0.007873913
000140 25 fc a3 3c a5 de 44 3b c4 b7 41 3c ce 12 d7 3c
       0.020017693 0.0030039933 0.011823598 0.026254084
000150 fb 3f bc bc 8b 76 05 3b 45 ca fb 3b f7 be c3 3b
       -0.022979727 0.0020364847 0.0076840245 0.0059736925
000160 9d 61 b0 3c 9f 7a 9f 3c 07 a0 22 3d ca 0b 13 3c
       0.02153092 0.01946765 0.039703395 0.008974979
000170 13 74 bd ba e4 6e 0a ba 1e 32 90 3b 9a 59 2c 3c
       -0.0014454148 -0.0005280806 0.0044005057 0.01051941
000180 b3 19 7b 3b 02 ec ab 3b cd 6e e2 b9 ef f8 c5 bb
       0.0038314878 0.00524664 -0.00043188632 -0.006041638
000190 27 5d c6 bc 88 6a de 3b cd 5d d7 bb db 1c b1 3b
       -0.02421434 0.006787602 -0.006572461 0.005405051
0001a0 8a 29 f6 bb c2 ec f8 3b 4c 8c ba bb 2d 89 b9 3b
       -0.007512276 0.007596583 -0.005692994 0.0056621046
0001b0 96 e0 93 3a 6f f4 44 bc 69 28 90 3c 06 f6 ba 3a
       0.0011282142 -0.012021168 0.017597394 0.0014263995
0001c0 7f b8 2b bc 86 16 73 bc 8e 20 b4 bb 75 db 62 3b
       -0.010480999 -0.014836913 -0.005497045 0.003461567
0001d0 25 7e 2c 37 87 69 56 bb b6 ce 87 ba 76 09 91 bc
       1.0281369e-05 -0.0032716708 -0.0010361287 -0.017704707
0001e0 15 fa b2 bc 36 dd db bb fa 28 b9 bb 95 ef 97 bb
       -0.021847764 -0.00670972 -0.0056506367 -0.0046367147
0001f0 f7 a4 16 3c 14 73 b3 3a d3 54 79 bc fb 53 8a bb
       0.009194604 0.0013690912 -0.015217978 -0.004221437
000200 16 cd 01 3c 90 f6 c7 3b 79 e4 a7 3c 09 37 b9 3b
       0.007922431 0.0061023906 0.020494686 0.0056523127
000210 aa 53 ed 3a 7a 17 1d bc 64 39 05 bb b6 5f 48 3c
       0.0018106599 -0.009588117 -0.0020328397 0.0122298505
000220 1a ac 44 bc a9 66 b2 bb 78 4e 19 bc 25 1a 46 bb
       -0.012003923 -0.005444367 -0.009357087 -0.0030227986
000230 b5 bd 61 bc 65 24 9f bb 41 8b 12 3c d4 76 91 3c
       -0.01377814 -0.0048566335 0.0089443335 0.017756857
000240 e9 a0 71 3c b3 de 58 3b d8 59 36 3a dc 5e 26 bb
       0.014747837 0.0033091723 0.0006956137 -0.002538613
000250 5b e3 ec 3b 38 21 b5 bc a9 e0 92 3c a8 89 6b ba
       0.0072292513 -0.022110566 0.017929392 -0.0008985051
000260 df 14 9c ba 43 d4 51 3b 76 a2 ba 3a 77 34 a5 bb
       -0.0011908076 0.0032017387 0.0014239091 -0.0050416547
000270 97 76 fc 3b 17 35 bb bc 36 6e 33 3c ee 5d 4c 3b
       0.0077045667 -0.022852464 0.010951569 0.0031183916
000280 52 e0 a9 3c e5 82 65 bc 83 ce d9 3b b2 61 21 3c
       0.020736847 -0.0140082585 0.0066469326 0.0098499525
000290 66 45 e3 3b b7 9c 27 3d 4d a2 82 bb 3e 82 4c bc
       0.006935763 0.04092094 -0.003986633 -0.012482224
0002a0 e0 77 fc bb 9c db 94 3c 15 ce 20 3c 8f 6b 26 3c
       -0.00770472 0.018171124 0.009814759 0.01015748
0002b0 8c b9 99 3b f1 f7 9a 3c e6 02 52 3c 23 57 a5 3a
       0.0046913084 0.018917056 0.012818074 0.001261447
0002c0 bf 58 c0 ba 20 16 14 3c 9d bf 7d 3c db 6d 5b 3b
       -0.0014674886 0.009038478 0.015487579 0.0033482227
0002d0 19 73 80 3b 33 1a 17 ba de dc 1d 3c 9f aa ab bb
       0.0039199707 -0.0005764097 0.009635178 -0.0052388455
0002e0 8e 73 c9 bb c9 e4 6b 3b 58 96 48 bb a9 05 86 3c
       -0.0061478084 0.003599452 -0.003060719 0.01636012
0002f0 94 df 04 3c 8f 62 f3 bb 10 f0 07 3c f0 07 b8 3b
       0.008109946 -0.0074275206 0.008296981 0.0056161806
000300 3f 9b 30 bb 33 6b 95 bb ef d2 db 3c cc 59 8f bc
       -0.0026948003 -0.0045598983 0.02683398 -0.017498873
000310 f7 29 4a 3b af a6 56 3c d3 13 f6 bb ec 78 7e 3c
       0.0030847767 0.013101264 -0.0075096874 0.01553176
000320 ca 62 6f 3b ba f8 84 39 50 ef a0 bb 0d aa fe 3b
       0.0036527389 0.00025362318 -0.004911341 0.0077717365
000330 a8 54 50 3c af 24 d6 bb 7c b6 8f 3b d8 f2 18 ba
       0.012715496 -0.0065351347 0.0043857675 -0.00058345264
000340 00 47 bb 3a 40 f0 0a bc 3f df 43 3c 3b 21 87 3c
       0.0014288127 -0.008480132 0.0119550815 0.016495338
000350 bf ca 42 3c 58 3e 24 bc 87 28 b9 3c 98 8b a1 bc
       0.011889159 -0.0100246295 0.022602333 -0.019719884
000360 5a 35 57 bc 07 bd ff 39 5c 3b 1d bc 8d f9 a1 3b
       -0.013135279 0.00048778226 -0.009596672 0.004943079
000370 51 17 b9 bb 4d c1 9c 3c 86 f0 35 3b fc e0 84 3c
       -0.0056485315 0.019135142 0.0027761771 0.016220562
000380 66 cd f7 bb ec 06 bb bc 47 da 6d 3b dc b4 19 3c
       -0.007562327 -0.022830449 0.0036293434 0.009381499
000390 13 7d fb 3c 1a b1 a3 bb 34 e3 4f 3c 6b c5 ce bb
       0.030699288 -0.0049954774 0.012688447 -0.006310155
0003a0 cd 05 27 3c ca 31 e6 3b d0 52 81 bb 04 c7 99 bb
       0.010194254 0.0070249783 -0.0039466396 -0.004692914
0003b0 ac 59 da 3a 45 be 1f 3c d3 8e c3 bc 54 43 5a 3c
       0.0016658804 0.009749954 -0.023871815 0.013321716
0003c0 ff e0 c3 bc 5c 41 9d 3c bf ef bf bc 43 55 79 3b
       -0.023910997 0.019196205 -0.02342975 0.0038045205
0003d0 d7 06 20 3c 37 7a de bb fe 4f 0d bc 68 a9 be 3a
       0.009767256 -0.0067894715 -0.008625029 0.0014546337
0003e0 cf 9b 02 bc 7e 5a 23 3c 15 c0 62 3c dd 08 f1 3c
       -0.007971718 0.0099703055 0.013839741 0.029423172
0003f0 c7 d0 fd 3c 5a bc fd bb 5f 7a d9 3b ce b6 1d bc
       0.030983342 -0.0077434005 0.006636902 -0.009626104

action_model._continuous_distribution.mu.bias f4 [2]
000000 a0 ce d5 3b c6 b4 94 3b
       0.0065248758 0.0045381514
