Assets/results/VikramRover1/VikramRover/VikramRover-4309.onnx (onnx, 80301 bytes, 8 tensors)

network_body._body_endoder.seq_layers.0.weight f4 [128, 10]
0	0xbe9a73fa	-0.30166608
1	0xbeb27148	-0.34852052
2	0x3e1fe282	0.1561375
3	0x3cef1dde	0.029189046
4	0xbc28c87a	-0.010301704
5	0x3ede188f	0.43378112
6	0xbe94e75b	-0.2908276
7	0x3f518e12	0.8185741
8	0x3daeef10	0.08541691
9	0x3edb13bd	0.42788497
10	0x3dfad9f4	0.122486025
11	0xbc55b9bd	-0.013044772
12	0x3ed18891	0.40924504
13	0x3e9e11d2	0.3087297
14	0xbc896657	-0.016772432
15	0xbe0aff0f	-0.1357386
16	0xbee97747	-0.45598814
17	0x3cab8fe8	0.020942643
18	0xbe9a5081	-0.30139545
19	0xbea90aaa	-0.3301595
20	0x3f5e0111	0.8672038
21	0xbc995b8f	-0.018720416
22	0xbd603465	-0.054737467
23	0xbdb24882	-0.08705236
24	0x3ebc44af	0.3677115
25	0xbeb01d5b	-0.34397396
26	0xbe0a30a1	-0.13495113
27	0xbebf6d44	-0.3738805
28	0x3e591818	0.21200597
29	0xbcd890ff	-0.026436327
30	0x3e89b505	0.2689592
31	0x3dbb9ccd	0.09160767
32	0x3ed7c921	0.42145637
33	0xbea27b06	-0.31734484
34	0xbdd14d8e	-0.102198705
35	0xbe3c2207	-0.18372355
36	0x3ec05660	0.375659
37	0xbe5c59e6	-0.21518669
38	0x3e371313	0.1787837
39	0xbe501b14	-0.2032283
40	0xbf05a2e8	-0.522017
41	0xbd8de7b2	-0.06928958
42	0xbd81a1b2	-0.06329669
43	0xbe8c43a4	-0.27395356
44	0x3d425c72	0.047451444
45	0xbefd88cc	-0.4951843
46	0x3f33b509	0.7019811
47	0x3e1e36de	0.15450618
48	0xbebb46a1	-0.36577323
49	0x3e82ec2f	0.2557082
50	0xbe22402f	-0.15844797
51	0x3e24ec54	0.16105777
52	0x3e7f7ad7	0.24949203
53	0xbe16383a	-0.14669886
54	0xbdbd00d6	-0.09228675
55	0x3eb5545e	0.3541593
56	0x3d7a0841	0.061043028
57	0x3ea02bd3	0.31283435
58	0x3ee987e2	0.45611483
59	0xbc99e733	-0.018787002
60	0xbeb42e72	-0.35191685
61	0xbe2c9c73	-0.16856556
62	0xbec980c2	-0.39356047
63	0xbe173f49	-0.14770235
64	0xbd2426e4	-0.04007615
65	0xbd393c60	-0.045223594
66	0xbecb4c88	-0.39706826
67	0xbee3d1bc	-0.44495952
68	0x3edbe069	0.4294465
69	0x3daf725c	0.08566734
70	0x3f0afeb3	0.5429489
71	0x3e01995e	0.12656161
72	0x3f00e4cf	0.50349134
73	0x3ea55127	0.32288477
74	0x3d6589e2	0.0560397
75	0x3d83ff45	0.06445173
76	0x3d477b1b	0.048701387
77	0xbef9a1a2	-0.4875613
78	0xbefb1cbd	-0.49045363
79	0xbef5ca7a	-0.4800604
80	0x3eede2db	0.4646214
81	0x3e827aaf	0.25484225
82	0xbd85f68e	-0.06541167
83	0x3e5e0917	0.21683155
84	0xbec45f93	-0.38354167
85	0x3c34b65a	0.011029804
86	0x3957efee	0.00020593379
87	0x3f324d94	0.69649625
88	0x3d2f0e90	0.042738497
89	0xbe10aed2	-0.14129189
90	0x3eb88b32	0.36043698
91	0xbdb51f94	-0.08843914
92	0xbf2505df	-0.64462084
93	0x3c7309d5	0.014833887
94	0x3f58578c	0.84508586
95	0x3e98a58b	0.298138
96	0x3ee339ab	0.44379935
97	0xbe56ec42	-0.20988563
98	0x3e350690	0.17678285
99	0x3df6c519	0.12049312
100	0x3e1862f7	0.14881502
101	0x3d917b50	0.07103598
102	0xbe8cafc1	-0.2747784
103	0xbf749ee7	-0.95554966
104	0x3e4fbdb9	0.20287217
105	0x3e0b15fa	0.13582602
106	0xbdf0f8c0	-0.11766195
107	0x3e9270ea	0.28601772
108	0x3ebd55d2	0.36979538
109	0x3e5770ca	0.2103912
110	0xbf00a444	-0.5025065
111	0xbdffbc6f	-0.12487113
112	0xbdbfe41a	-0.09369679
113	0x3d640b24	0.055674687
114	0xbc61f185	-0.013790493
115	0x3e5bda7a	0.21470061
116	0x3e6094e4	0.21931797
117	0xbe811508	-0.25211358
118	0xbeef6b61	-0.4676161
119	0xbe7b3407	-0.24531566
120	0xbd32a067	-0.043610003
121	0xbf04ab0e	-0.5182351
122	0xbeb5656a	-0.35428935
123	0x3ee93c63	0.45553884
124	0xbea17288	-0.31532693
125	0x3e86e230	0.26344442
126	0x3db8f17e	0.09030436
127	0x3ea7c82b	0.32769904
128	0x3c94a380	0.01814437
129	0x3e9d9572	0.3077808
130	0xbf21714e	-0.63063514
131	0x3e7589cc	0.23978347
132	0x3e82ccde	0.25546926
133	0xbea1d9d8	-0.31611514
134	0x3e2cf526	0.16890392
135	0xbf207696	-0.6268095
136	0x3e1a03b3	0.15040474
137	0x3da32d58	0.07967633
138	0xbee51a32	-0.44746548
139	0xbe8bd800	-0.27313232
140	0xbeb79c83	-0.35861596
141	0xbdea1340	-0.11429453
142	0xbf054b6f	-0.5206823
143	0x3f2aba20	0.66690254
144	0xbc630e32	-0.013858365
145	0x3bff05a6	0.007782656
146	0x3e168b5d	0.147016
147	0xbc80d5ea	-0.015727002
148	0x3ebab94a	0.3646949
149	0x3efdcc22	0.49569803
150	0xbe160b95	-0.14652856
151	0x3e91b27c	0.28456485
152	0xbe93fa21	-0.2890177
153	0xbe1ba3d2	-0.15199211
154	0x3f3ab7a4	0.72936463
155	0x3cf0504f	0.02933517
156	0x3ce64d44	0.028113015
157	0x3cabcb8c	0.020971082
158	0x3ee1530a	0.44008666
159	0xbe4fe33c	-0.20301527
160	0x3dbbe8d3	0.09175267
161	0x3d275ce9	0.04086009
162	0x3eda5e27	0.42649958
163	0xbeab5d77	-0.33469746
164	0xbe9f754b	-0.31144175
165	0xbf22112c	-0.6330745
166	0x3ed2d09b	0.41174778
167	0xbefedf84	-0.49779904
168	0xbd60f22b	-0.05491845
169	0x3dc82209	0.09772117
170	0xbe9d90c9	-0.30774525
171	0xbe5802d9	-0.21094836
172	0x3e3f0f0e	0.18658087
173	0x3ed109f5	0.4082791
174	0x3d75cc67	0.060009386
175	0x3eb57203	0.35438547
176	0xbe9aefd3	-0.30261096
177	0x3f46a45d	0.7759455
178	0x3d88bd35	0.066767134
179	0xbeafb5d1	-0.34318402
180	0xbd33cf81	-0.043899063
181	0x3e617e32	0.22020796
182	0xbf39341e	-0.7234515
183	0x3dbb7d5b	0.09154769
184	0xbeaf6141	-0.34253886
185	0x3f0254d6	0.509107
186	0x3e00c763	0.1257606
187	0xbef346b1	-0.4751487
188	0x3b394b0e	0.0028273496
189	0xbf24cef8	-0.6437831
190	0xbd6e6275	-0.058199365
191	0x3f3f7834	0.7479279
192	0xbee12eab	-0.43980917
193	0x3cb221d6	0.02174465
194	0x3e31d442	0.17366126
195	0x3e3f8b0a	0.18705383
196	0xbe315322	-0.17316869
197	0xbe7e6ce2	-0.24846223
198	0xbc3f7ab9	-0.011686974
199	0x3e83448b	0.25638232
200	0xbd6fd94b	-0.058556836
201	0xbdbe2838	-0.09285015
202	0xbecf2d7b	-0.40464386
203	0x3efaf38d	0.4901394
204	0x3f33a00f	0.70166105
205	0x3e6a154f	0.22859691
206	0x3f00bc19	0.50287014
207	0xbf14d00c	-0.58129954
208	0x3dfebf96	0.12438886
209	0xbea3f83b	-0.32025322
210	0x3e40e939	0.18838967
211	0x3d23f482	0.040028103
212	0x3da2f235	0.079563536
213	0xbe91caca	-0.28475028
214	0xbe9d0e94	-0.30675185
215	0x3e9fda1a	0.31221086
216	0x3dd75c6b	0.10515674
217	0xbde8ac68	-0.11361009
218	0xbe007154	-0.12543231
219	0xbeeef5ce	-0.4667191
220	0x3dc23aff	0.09483909
221	0x3f0dc1e6	0.5537399
222	0xbf8265c7	-1.018731
223	0xbb81801f	-0.003952041
224	0xbc1ba6d9	-0.009500229
225	0x3ecfcf6f	0.40587947
226	0x3db45033	0.08804359
227	0x3e0590a8	0.13043463
228	0xbe2e03c2	-0.16993621
229	0xbcefe088	-0.02928187
230	0xbd9408c1	-0.07228232
231	0xbd937b4a	-0.0720125
232	0xbea1c460	-0.31595135
233	0xbf51082a	-0.8165308
234	0xbe685fc0	-0.22692776
235	0xbe336e95	-0.17522652
236	0xbe4c565b	-0.19954817
237	0xbeabb7cf	-0.33538672
238	0x3ea7a658	0.32744098
239	0xbe8a8688	-0.27055764
240	0xbec61a90	-0.3869214
241	0xbd705044	-0.058670297
242	0x3ec8f3f3	0.39248618
243	0xbe77efc0	-0.24212551
244	0x3eac36c2	0.33635527
245	0x3dec63b3	0.115424536
246	0x3eb72ac5	0.35774818
247	0x3f15a355	0.5845235
248	0x3d348022	0.04406751
249	0x3e2a71b2	0.16644934
250	0xbeda6e14	-0.42662108
251	0xbe89524f	-0.2682061
252	0xbc22c310	-0.009934202
253	0x3db0260f	0.08601009
254	0xbeb05c29	-0.34445313
255	0xbe8d2937	-0.27570507

network_body._body_endoder.seq_layers.0.bias f4 [128]
0	0xbbe88a04	-0.007096531
1	0xbb6ef7eb	-0.0036463689
2	0xbbb3b008	-0.005483631
3	0xbb9b790b	-0.004744654
4	0xbc00a9c3	-0.007852974
5	0xbb84cf8d	-0.0040530623
6	0x36310f60	2.6384005e-06
7	0x3b68aeee	0.0035504657
8	0xbbb07264	-0.00538473
9	0x3b8790be	0.0041371277
10	0xbab6e51d	-0.0013953779
11	0x3a2c0ef5	0.0006563508
12	0xb959a88d	-0.00020757523
13	0xbb961748	-0.004580412
14	0x3878f3ec	5.9354978e-05
15	0x3bb07b05	0.005385759
16	0xbaea788b	-0.0017888708
17	0xbc072293	-0.008247989
18	0xbc6e5161	-0.014545769
19	0xbc0df9d4	-0.008665521
20	0xbca25752	-0.019817028
21	0xbbf1d75a	-0.0073804082
22	0x3af126bb	0.0018398383
23	0x3c3334fb	0.0109379245
24	0xba4c63b6	-0.00077968405
25	0xbc1e54de	-0.009663789
26	0xbbfb3a29	-0.0076668453
27	0x39d7be48	0.00041149766
28	0xbb8d7e2c	-0.0043180194
29	0xbca58dc8	-0.020209208
30	0x3ac0f9df	0.0014722905
31	0xbc16ef1e	-0.009212283
32	0xbb935545	-0.004496249
33	0x3be28161	0.006912396
34	0xbc1daed5	-0.009624203
35	0xbc1740d1	-0.009231762
36	0xbb900ef6	-0.0043963147
37	0xbc302ae6	-0.010752415
38	0x3b0958d2	0.0020957482
39	0xbc0d1339	-0.00861054
40	0x3a2888f4	0.0006429099
41	0xbc6212af	-0.0137984
42	0xbb3b56ba	-0.0028585629
43	0xbb8a4618	-0.0042197816
44	0x38ce66cb	9.841992e-05
45	0xbb7a75d4	-0.0038217204
46	0xbb6f963a	-0.0036558048
47	0xbb94c86e	-0.0045404946
48	0xbc1b7bb5	-0.009489943
49	0xbbcf6bc9	-0.0063299877
50	0xbc95036a	-0.018190105
51	0xbc1e9ba9	-0.009680667
52	0xbbd016b8	-0.0063503645
53	0xbb24db9b	-0.002515531
54	0xbb35f189	-0.0027762374
55	0x3bf5e367	0.007503915
56	0x3bbc3c39	0.005744484
57	0x3ca213ec	0.01978489
58	0x3a6a2603	0.0008932056
59	0x3bba5f5c	0.0056876373
60	0xbb85fca6	-0.004088956
61	0xbba024b1	-0.0048871865
62	0xbc190ef3	-0.009341943
63	0xbb9991da	-0.0046865763
64	0xbc04e13f	-0.0081103435
65	0xbc5aaff5	-0.0133476155
66	0xba922535	-0.0011150005
67	0xbb7ef756	-0.0038904748
68	0xbbc1a356	-0.0059093637
69	0x3b28539e	0.0025684605
70	0xbc1e541e	-0.00966361
71	0xbb3d7822	-0.0028910716
72	0xbb5aaa88	-0.0033365805
73	0xbbff7445	-0.007795843
74	0x3b58c40e	0.0033075842
75	0xbc1b148c	-0.009465348
76	0x3b4b5230	0.003102433
77	0xbaff6aee	-0.0019486824
78	0xbc82dd9b	-0.01597481
79	0xbc2abddb	-0.010421242
80	0xbc03bd3d	-0.008040723
81	0x3b75a9c5	0.0037485224
82	0x3b712f0d	0.0036801726
83	0xbb9adcbc	-0.0047260206
84	0xbc282832	-0.01026349
85	0xbc62221f	-0.01380208
86	0xbc0aff9c	-0.008483794
87	0xbca883fb	-0.020570746
88	0xbca8c3f5	-0.020601252
89	0xbba33f30	-0.004981898
90	0xbb7a0190	-0.0038147904
91	0xbadcc79a	-0.0016844154
92	0xbba64a58	-0.0050747804
93	0xbb849bc7	-0.0040468904
94	0xbbac7209	-0.0052626175
95	0xbbb90b01	-0.0056470637
96	0xbb64d75a	-0.0034918399
97	0x28c4bf34	2.1843292e-14
98	0xb908c590	-0.00013043568
99	0x2a044e34	1.1751087e-13
100	0x3bb64e42	0.0055635283
101	0xbba77216	-0.0051100357
102	0xbb12efec	-0.0022420837
103	0xbc69c600	-0.014268398
104	0xbce4d6a4	-0.02793438
105	0xbc55bf9c	-0.0130461715
106	0xbb4a8ba8	-0.0030905996
107	0xbb116519	-0.0022185503
108	0xbb942e51	-0.004522123
109	0xbc1e6753	-0.009668189
110	0xbc8e6936	-0.017384153
111	0xbb26649f	-0.0025389565
112	0xba2fe5cf	-0.00067099644
113	0xbb0bb0d3	-0.0021315112
114	0xbb889682	-0.0041683326
115	0xbb500c70	-0.0031745695
116	0xbbe5ac82	-0.00700909
117	0x3af63bf4	0.0018786178
118	0x3a823bb4	0.0009936006
119	0x3c0d7823	0.0086346
120	0xb9fa624a	-0.00047756947
121	0xbaeeb00f	-0.0018210429
122	0x39c94323	0.00038387728
123	0x3aadf33d	0.0013271343
124	0xbb8a2096	-0.0042153103
125	0xbd3a5b6e	-0.04549735
126	0xbc14d8e0	-0.00908491
127	0xbb843b8c	-0.004035419

network_body._body_endoder.seq_layers.2.weight f4 [128, 128]
0	0x3d5c35e4	0.05376233
1	0xbd6ae854	-0.05735047
2	0xbce91ede	-0.028457101
3	0x3de9b242	0.11410953
4	0xbde370cd	-0.111054994
5	0xbb006f87	-0.0019597725
6	0x3c108e15	0.0088229375
7	0x3c9af5bb	0.018916002
8	0xbce22290	-0.027604371
9	0x3c022385	0.007943039
10	0xbe071616	-0.13192019
11	0x3c0f7b00	0.008757353
12	0xbd63c2e4	-0.055605784
13	0x3d6a25e5	0.057165045
14	0xbd9cbabe	-0.07652806
15	0xbd96a600	-0.07355881
16	0x3ddd30e3	0.1080034
17	0x3d847b2a	0.06468804
18	0x3d1fa205	0.038972873
19	0x3dcdeb8a	0.10054691
20	0xbd57b0b6	-0.05265876
21	0xbc8b3b54	-0.016996063
22	0xbcbac956	-0.022801083
23	0x3ce7e378	0.028306708
24	0xbdef8a0b	-0.116962515
25	0x3b202730	0.002443742
26	0xbd5edbc6	-0.05440881
27	0x3b01f9b2	0.0019832668
28	0xbe64ddc0	-0.22350216
29	0x3c81840c	0.015810035
30	0x3da023c1	0.078193195
31	0x3e23236e	0.15931484
32	0xbdf5461c	-0.11976263
33	0x3e403a3f	0.18772219
34	0xbd881f1a	-0.06646557
35	0x3d7cd808	0.06172946
36	0x3d1574c9	0.036488328
37	0x3d58dced	0.052945066
38	0xbd0aff30	-0.033934772
39	0xbd034ab5	-0.032053668
40	0x3d960a02	0.073261276
41	0x3d821074	0.063507944
42	0xbd0cbd00	-0.034359932
43	0x3e0598f7	0.13046633
44	0xbd2fa024	-0.04287733
45	0xbcfb4f06	-0.03067733
46	0x3d7dcba2	0.061961778
47	0x3a84502b	0.0010094693
48	0xbcc9ba7e	-0.02462506
49	0x3c249bb6	0.01004689
50	0x3db8ff25	0.0903304
51	0x3d0b6f38	0.034041613
52	0x3d63f9e2	0.05565823
53	0x3d1b3870	0.03789562
54	0xbb165047	-0.0022936033
55	0xbe16ae51	-0.14714934
56	0xbd683ac9	-0.056696687
57	0x3c25318f	0.0100826165
58	0x3cb96655	0.022631804
59	0xbe084897	-0.13308941
60	0xbc4907b0	-0.012269899
61	0x3e3c0e19	0.18364753
62	0xbbf1ea12	-0.0073826397
63	0x3d1f73ac	0.038928673
64	0xbe005147	-0.12531005
65	0x3d86b231	0.06576956
66	0xbd559c90	-0.052151263
67	0x3cf2ef8e	0.029655244
68	0xbc4714c8	-0.012150951
69	0x3d234b02	0.039866455
70	0xbdb69fe3	-0.08917215
71	0x3dd42815	0.103592075
72	0x3cac75bd	0.021052236
73	0xbdc20356	-0.094732925
74	0x3c761e1d	0.015021828
75	0x3ba8da83	0.0051530018
76	0x3d93bff3	0.07214346
77	0xbdb87163	-0.09006002
78	0xbe17381e	-0.14767501
79	0x3d045e14	0.032316282
80	0x3d764f14	0.06013401
81	0x3d67228b	0.056429427
82	0xbd27aad4	-0.0409344
83	0xbd301a44	-0.0429938
84	0x3ba12ec1	0.0049189036
85	0xbd968973	-0.07350435
86	0x3d19f6bd	0.037588824
87	0xbd2a2b9e	-0.041545503
88	0xbb1622a2	-0.0022908826
89	0xbbb4f544	-0.005522402
90	0x3e10c4c1	0.14137556
91	0xbd820e51	-0.06350387
92	0xbe0d6ec5	-0.13811786
93	0x3cd6f0c1	0.026237847
94	0xbdebaa19	-0.11507053
95	0xbe10f355	-0.14155324
96	0x3ca585d1	0.02020541
97	0x3c4eb6cf	0.012616827
98	0xbe01cb39	-0.1267518
99	0x3e043d3e	0.12913987
100	0xbe0068e4	-0.12540013
101	0xbd423e48	-0.047422677
102	0xbdaf09a6	-0.08546762
103	0x3d301fcc	0.042999074
104	0xbca78182	-0.020447496
105	0x3df2a00e	0.11846934
106	0xbdd7730c	-0.1051999
107	0xbdc6e626	-0.09711866
108	0xbc3a46a7	-0.011369384
109	0xbe0129f3	-0.12613659
110	0xbd3ae5f0	-0.04562944
111	0xbe17d548	-0.14827454
112	0xbdb4df95	-0.088317074
113	0xbe1df25a	-0.15424481
114	0x3da21e86	0.07915978
115	0x3e4dff82	0.20117
116	0x3e10f022	0.14154103
117	0xbd88618d	-0.06659231
118	0xbe7d27a4	-0.24722153
119	0x3d58ab47	0.052897718
120	0x3dd37b99	0.10326309
121	0x3dbc9e22	0.09209849
122	0x3e02ad34	0.12761384
123	0x3d91dc0d	0.071220495
124	0xbc843b9f	-0.01614171
125	0x3cab9bf1	0.020948382
126	0x3e06bd42	0.13158134
127	0x3c9ed305	0.019387731
128	0xbbed6294	-0.0072444174
129	0x3de2bf05	0.1107159
130	0x3daae435	0.08344308
131	0xbcf27437	-0.029596431
132	0xbce05c9a	-0.027387906
133	0xbd1a1202	-0.03761483
134	0xbd52e5da	-0.051488735
135	0xbdbbc1b6	-0.09167807
136	0xbc950d8f	-0.018194942
137	0xbdd8f98f	-0.105944745
138	0xbcb0ce3d	-0.021582717
139	0xbcdfaef3	-0.027305102
140	0xbdb65acf	-0.08904039
141	0x3c97e2ad	0.018540705
142	0xbe43936b	-0.19099204
143	0x3ca74ff4	0.020423867
144	0x3e0984df	0.13429593
145	0xbe08701a	-0.13324013
146	0xbd89e226	-0.067325875
147	0xbd09332f	-0.033496078
148	0x3ddb3579	0.107035585
149	0x3e267a95	0.16257699
150	0xbc6fe2f2	-0.01464151
151	0xbe0086cf	-0.12551425
152	0xbe8e0fc4	-0.27746403
153	0x3d5292f3	0.051409673
154	0x3c7924ed	0.015206558
155	0xbd9df255	-0.07712237
156	0xbdf17cfb	-0.11791416
157	0xbd7acff2	-0.06123347
158	0xbcc3cdb2	-0.023901794
159	0x3decb084	0.11557105
160	0x3e3e076f	0.18557523
161	0x3d97b9ab	0.0740846
162	0xbd9b44d7	-0.075814895
163	0x3b81b4b3	0.0039583086
164	0xba429fff	-0.0007424354
165	0xbd5b2d58	-0.05351004
166	0xbda3dcdc	-0.0800111
167	0x3e5e6f76	0.21722206
168	0x3e3eb98a	0.18625465
169	0x3d069aa5	0.032862324
170	0x3d9308ff	0.0717945
171	0xbde56cc6	-0.112023875
172	0xbd863bfe	-0.06554411
173	0x3de3953a	0.11112447
174	0xbc851afd	-0.01624822
175	0xbde67466	-0.1125267
176	0x3cf1d186	0.029518854
177	0xbd45b648	-0.04826954
178	0x3dbb444b	0.09143885
179	0x3d1ec515	0.03876217
180	0xbe5420a1	-0.20715572
181	0xbc91bcfb	-0.017790308
182	0xbd35313d	-0.04423641
183	0x3e2c8ee1	0.16851379
184	0xbe1f04ef	-0.15529226
185	0xbdc1ea75	-0.09468547
186	0xbe0deaa6	-0.13859043
187	0x3e707109	0.2348062
188	0xbbc189c0	-0.0059063137
189	0x3db94e50	0.0904814
190	0xbcee5d6e	-0.029097285
191	0x3dcc1994	0.09965816
192	0xbdf64891	-0.1202556
193	0x3cce9e1b	0.025221875
194	0xbe660493	-0.22462682
195	0x3c9bbd23	0.019011086
196	0xbd610519	-0.054936502
197	0xbd7e8704	-0.06214048
198	0xbe15a467	-0.14613496
199	0xbdbf7ccc	-0.09349975
200	0xbd95693a	-0.07295461
201	0xbd705d04	-0.058682457
202	0x3d9bd636	0.07609217
203	0xbe18cd1c	-0.14921993
204	0x3da85f54	0.082213074
205	0x3cc9f039	0.02465068
206	0xbd99812b	-0.0749534
207	0x3dcd93dd	0.10037968
208	0xbd9556ec	-0.0729197
209	0xbc5c7646	-0.013455933
210	0xbe29ed17	-0.16594349
211	0xbda59ba9	-0.080863304
212	0xbdb36b92	-0.08760752
213	0x3dbefbf3	0.09325399
214	0xbabee38d	-0.0014563665
215	0xbd99ae1f	-0.07503914
216	0xbc4c28c6	-0.012460893
217	0xbd4ab55b	-0.04948936
218	0xbe173ca5	-0.14769228
219	0xbd286a0c	-0.04111676
220	0xbc414be5	-0.01179788
221	0xbdbfe25f	-0.09369349
222	0xbd30500b	-0.043045085
223	0xba879a52	-0.0010345674
224	0xbcbc20c4	-0.022964843
225	0xbd912131	-0.07086409
226	0x3e10d0bb	0.14142124
227	0xbe126e10	-0.14299798
228	0x3bd942e0	0.0066302866
229	0xbd6a0294	-0.057131365
230	0xbdf9e3c3	-0.12201645
231	0xbd5cdaa8	-0.053919464
232	0x3b9371bc	0.004499642
233	0xbc77d28b	-0.015125881
234	0x3de3dbb5	0.1112589
235	0xbdcd8917	-0.100359134
236	0x3c8b285f	0.016987024
237	0xbd09dbb4	-0.03365679
238	0x3e18e919	0.1493267
239	0xbdbf3016	-0.093353435
240	0x3e0b385f	0.13595723
241	0xbd827d4a	-0.06371553
242	0x3d61d431	0.055134002
243	0xbd1c5351	-0.038165394
244	0xba93c51b	-0.0011273952
245	0xbbedeae0	-0.0072606653
246	0xbb38b0f1	-0.0028181637
247	0x3d605afe	0.054774277
248	0x3ce1cc7a	0.027563322
249	0xbe5582f7	-0.2085074
250	0xbd8a2bbe	-0.067466244
251	0xbe1b83de	-0.15187022
252	0xbdb43c78	-0.08800596
253	0xbdec0d91	-0.11526025
254	0x3d95fa9b	0.0732319
255	0x3d0c8a77	0.034311738

network_body._body_endoder.seq_layers.2.bias f4 [128]
0	0xbbbb0ce2	-0.005708323
1	0xaaab7cb1	-3.0462224e-13
2	0xbac0f0e3	-0.0014720227
3	0xbbe929c9	-0.007115577
4	0xbc48a7f4	-0.012247074
5	0xbbda5fd1	-0.0066642542
6	0xbc278397	-0.010224245
7	0xbbd47b84	-0.006484451
8	0xbb4c1b96	-0.0031144372
9	0xbc042e3d	-0.008067665
10	0xbaed4f33	-0.0018105268
11	0xb9bcdbd6	-0.00036021945
12	0xbb2ef7b2	-0.002669793
13	0x3b7a4a8e	0.003819141
14	0xbba71bcf	-0.0050997506
15	0xbb49a95e	-0.0030771117
16	0xbbafe32d	-0.0053676576
17	0xb9729795	-0.00023135387
18	0xbbe2bab4	-0.0069192294
19	0xbb1bcfba	-0.0023774938
20	0xbb9eb88c	-0.004843777
21	0xbbb403c3	-0.0054936125
22	0xbc073e33	-0.008254576
23	0xbc1a7faf	-0.009429856
24	0xbb3bf555	-0.0028680165
25	0x3b87acd9	0.004140478
26	0xbca35e10	-0.019942313
27	0xbc2d55e0	-0.010579556
28	0xbc0382d2	-0.008026795
29	0xbaee4c12	-0.001818063
30	0xace1bc9d	-6.415825e-12
31	0xbc033171	-0.008007393
32	0xbbb4c686	-0.00551683
33	0xbc08ad78	-0.008342139
34	0xbb23aab0	-0.0024973564
35	0xbba50588	-0.0050360598
36	0xbbd53f9f	-0.0065078284
37	0xbbb85b8d	-0.005626148
38	0xbaf9eb6a	-0.0019067351
39	0xbb3fa063	-0.0029239885
40	0xbc49e960	-0.012323707
41	0xbb067303	-0.002051533
42	0xbbcade96	-0.006191085
43	0xbc201cb1	-0.009772466
44	0xbc366fb1	-0.011135028
45	0xbb6896a4	-0.003549018
46	0xb9f8b6f7	-0.00047438566
47	0xbc254328	-0.010086812
48	0xbb64e7fd	-0.0034928315
49	0xbc3b1b52	-0.011420088
50	0xba12ba2f	-0.00055972015
51	0xbc819380	-0.015817404
52	0xbba0df25	-0.0049094134
53	0xb974e002	-0.00023353103
54	0xbbdd8f43	-0.006761463
55	0xbc38c85b	-0.011278237
56	0xbaf2549c	-0.001848835
57	0x3b8290f6	0.003984566
58	0xbbef9e50	-0.0073125735
59	0xbb566bfc	-0.0032718172
60	0x39fc2dba	0.00048099254
61	0xbc14986e	-0.009069545
62	0xbbb3d0f5	-0.005487556
63	0xbbe8d51c	-0.0071054827
64	0xbaac0e8c	-0.0013126894
65	0xbbfb75ba	-0.007673946
66	0xbcc0dfb9	-0.02354418
67	0xbc2ac8ae	-0.010423822
68	0xb6fe0a97	-7.5710227e-06
69	0x3b1b0c86	0.0023658588
70	0xbb0694ee	-0.0020535546
71	0xbc32ae68	-0.0109058395
72	0xbbbac992	-0.0057002986
73	0xbc87d3e3	-0.016580528
74	0xba58c191	-0.000826859
75	0xb961a68b	-0.00021519714
76	0xbcb87b86	-0.022519838
77	0x3837223e	4.366249e-05
78	0xbc17e82a	-0.009271661
79	0xbb2e94f5	-0.0026639078
80	0xbc9ba5b8	-0.01899992
81	0x3b6d0295	0.003616487
82	0xbae4b442	-0.001744874
83	0xbae1140c	-0.0017172112
84	0xbb3477d3	-0.002753724
85	0xbc168c88	-0.009188779
86	0xbbd3454e	-0.0064474707
87	0xbb7322c3	-0.0037099577
88	0xba811c27	-0.0009850309
89	0xba0d6f5d	-0.00053953176
90	0xbc289637	-0.01028972
91	0xbab8e85c	-0.0014107334
92	0xbab7b444	-0.0014015515
93	0xb8b0316a	-8.401538e-05
94	0xbc0f816f	-0.008758887
95	0xbb4f9656	-0.00316753
96	0xbb9d675a	-0.00480358
97	0xbb8a477a	-0.0042199465
98	0xbbd58903	-0.006516577
99	0x2a68b1a2	2.0667368e-13
100	0xbae773e5	-0.0017658441
101	0xbaacfb94	-0.0013197535
102	0xbad84920	-0.0016501285
103	0x3bbabba0	0.005698636
104	0xbb7c110b	-0.0038462307
105	0xbc25aa53	-0.010111409
106	0xbc08ec0f	-0.008357062
107	0xbbb8dd4c	-0.005641615
108	0xbc2ade4d	-0.010428977
109	0xbc8f95d4	-0.017527498
110	0xbb53d35e	-0.003232203
111	0xbbd0ccec	-0.006372085
112	0xbb4aa0c9	-0.003091859
113	0x3b6dc663	0.0036281578
114	0xbc2bc419	-0.010483765
115	0xbb1c9645	-0.0023893279
116	0xbbd80bea	-0.006593217
117	0xae53b0a7	-4.8132744e-11
118	0xbb98b5a4	-0.004660325
119	0xbc006d91	-0.007838623
120	0xbc050b54	-0.008120377
121	0xbbb075ef	-0.0053851525
122	0xbb399487	-0.002831729
123	0x3b47f0bb	0.0030508477
124	0xbc10cb16	-0.008837482
125	0x2a6b1d63	2.0882388e-13
126	0xbc8fedf5	-0.017569521
127	0x28df0699	2.4760835e-14

action_model._continuous_distribution.log_sigma f4 [1, 2]
0	0x3d0e2fd5	0.034713585
1	0x3cc39a57	0.023877306

action_model._continuous_distribution.mu.weight f4 [2, 128]
0	0xbb98238a	-0.0046429085
1	0x3bcc3a24	0.006232517
2	0xbc5ca55a	-0.013467157
3	0xb8a74895	-7.9767e-05
4	0xbb5f4a4f	-0.003407139
5	0x3c9efb72	0.019407008
6	0xbcac0777	-0.020999653
7	0x3be25bd5	0.00690792
8	0xbc2e3d2f	-0.0106347045
9	0x3ba2a2b4	0.0049632434
10	0xbc56ea84	-0.013117436
11	0xbca02919	-0.019550847
12	0xbca35edc	-0.019942693
13	0x3c0156a4	0.007894192
14	0xbc0b9959	-0.008520448
15	0xbb70f192	-0.003676508
16	0xbbb8d7eb	-0.005640974
17	0x3c50043d	0.012696323
18	0x3b927bc3	0.00447032
19	0xbca49ed8	-0.020095274
20	0x3cdf4a18	0.02725701
21	0x3ce6efc0	0.028190494
22	0x3b858b4c	0.0040754434
23	0x3bffcf90	0.007806726
24	0x3c3b1916	0.011419555
25	0xbd2c3cd5	-0.0420502
26	0x3ad472bc	0.001620851
27	0xb9a1951a	-0.00030819402
28	0x3c89b738	0.016810998
29	0xbb815c3b	-0.0039477623
30	0x3c15ce07	0.009143359
31	0x3ba4c4c1	0.0050283377
32	0x3c49e8dc	0.012323584
33	0x3c95a475	0.018266896
34	0xbc617f79	-0.013763302
35	0x3a81eec3	0.0009913075
36	0xbb963712	-0.0045842016
37	0x3b9c089e	0.0047617694
38	0x3c8e0024	0.017334051
39	0xbc058542	-0.008149447
40	0x3cc62590	0.024187833
41	0x3c9119ad	0.017712438
42	0x3b840c27	0.004029769
43	0xbbf5ae39	-0.0074975756
44	0x3b5b3117	0.0033446008
45	0x3d10add6	0.035322033
46	0xbc056bfd	-0.008143422
47	0xbbc5290d	-0.0060168565
48	0x3b7b163e	0.0038312818
49	0x3b6f8fff	0.0036554334
50	0x3a6f83e9	0.00091367826
51	0xb984474c	-0.00025230122
52	0x3c05ff3e	0.00817853
53	0x3d29c123	0.041443955
54	0x3cd84dae	0.026404228
55	0x3ad39440	0.0016142204
56	0x39ed4a2a	0.0004525942
57	0x3ba6dbd7	0.005092125
58	0xbcba7d07	-0.022764696
59	0xba88f334	-0.0010448457
60	0xbb7287c3	-0.003700719
61	0x3b74842c	0.0037310226
62	0xba1e0d0e	-0.0006029167
63	0xbbf0d757	-0.0073498893
64	0x3bdf174e	0.006808198
65	0xbbd1afdf	-0.0063991393
66	0xbb7cd9c9	-0.0038581959
67	0x3be36c7f	0.006940424
68	0xbc7e46f9	-0.015519851
69	0xbd10c339	-0.03534243
70	0xbc6190d8	-0.013767444
71	0x3b191038	0.0023355614
72	0xbc823560	-0.015894592
73	0x3aa0a5d7	0.0012256455
74	0xbc52fe74	-0.012878049
75	0x3c660b83	0.014040831
76	0x3b9c58b6	0.0047713174
77	0x3be0206c	0.0068398025
78	0xba1b7ac9	-0.0005931077
79	0x3b8f6b14	0.0043767784
80	0x3c0faebb	0.008769686
81	0x3d1e12ab	0.038592022
82	0xbcaaa03f	-0.020828364
83	0xbada104f	-0.001663694
84	0x3ce491c7	0.027901543
85	0x3b0ca94e	0.0021463218
86	0x3c0b8cbc	0.00851744
87	0xba795543	-0.0009511301
88	0xbcaea27b	-0.021317711
89	0x3c7784c6	0.015107339
90	0x3bb044b8	0.0053792857
91	0xbcc46004	-0.023971565
92	0xbc811442	-0.01575673
93	0xbb31ef15	-0.002715056
94	0x3b98efbf	0.004667252
95	0xbc19c440	-0.009385169
96	0xbb69d7a5	-0.0035681513
97	0x3c3bf5b5	0.011472155
98	0x3bd1c79c	0.006401969
99	0x3bab56de	0.0052288612
100	0xbbdaa4b9	-0.0066724685
101	0xbcb57319	-0.02214961
102	0x3b1e0554	0.0024112063
103	0xbc6955d6	-0.014241656
104	0xbc881fcc	-0.016616724
105	0x3bd03bbc	0.006354777
106	0x3b8edecd	0.004360056
107	0x3c8573d9	0.016290592
108	0xbb0d72e5	-0.0021583375
109	0xbb5344c9	-0.0032237044
110	0xbb8f7326	-0.0043777404
111	0x3c9f6c2f	0.019460766
112	0xbc01a16d	-0.007912022
113	0xbca6a400	-0.020341873
114	0xbb2cad1f	-0.0026348305
115	0xbbf5470c	-0.007485276
116	0x3cedc047	0.029022349
117	0xbc45e56e	-0.012078626
118	0xbcc9f92a	-0.024654943
119	0xbb8c5561	-0.004282639
120	0xbb1b8326	-0.0023729294
121	0x3bd33cd7	0.0064464617
122	0x3acfa248	0.001584121
123	0xbd02ae38	-0.03190443
124	0x3c100c6e	0.008792026
125	0xbca468eb	-0.02006956
126	0xbc7b2942	-0.015329661
127	0xbc2d50bb	-0.01057833
128	0x3b1a9701	0.002358854
129	0x3be567b3	0.0070008873
130	0xbb857f37	-0.004074003
131	0x3a50831e	0.00079541083
132	0x3b8d1cdc	0.004306419
133	0xbc481867	-0.012212849
134	0xbbb08b9b	-0.005387736
135	0xbbd0861b	-0.006363643
136	0x3c9970c7	0.018730534
137	0xba80ead2	-0.0009835607
138	0x3c735d17	0.014853737
139	0xbbab5a96	-0.0052293045
140	0xbcbcac38	-0.023031339
141	0xbc5c0678	-0.013429277
142	0x3b3cfeb4	0.0028838338
143	0xbb7e1d6f	-0.0038774868
144	0xbba15b7d	-0.0049242363
145	0x3ca6bcd0	0.020353705
146	0x3c98ad5c	0.018637352
147	0xbb4b6ef2	-0.003104147
148	0xbc0848f4	-0.008318175
149	0xbcdb78d2	-0.02679101
150	0x38baa850	8.900522e-05
151	0xbb6cdfbb	-0.0036144096
152	0xbc299c78	-0.010352246
153	0xbd1bc1cb	-0.038026612
154	0x397deb41	0.00024215599
155	0x3cd9ea56	0.026600998
156	0xbba273fc	-0.004957674
157	0xbbd6204e	-0.0065346127
158	0x3c8a32c3	0.016869908
159	0xbc1630c4	-0.0091669
160	0xbc9ccfc5	-0.019142041
161	0x3bbaba62	0.005698488
162	0x3b92b5f5	0.0044772574
163	0x3afe64f8	0.0019408753
164	0x3bfea30b	0.007770901
165	0xbaa80cbf	-0.0012821181
166	0x3c9adc67	0.018903924
167	0x3c12564a	0.008931706
168	0x3c63ef1c	0.013911989
169	0x3c857c48	0.016294613
170	0x3bed32b0	0.0072387084
171	0xbbdb2de4	-0.00668882
172	0xbbe5187b	-0.0069914437
173	0xbd044f00	-0.032301903
174	0xbccc6789	-0.024951713
175	0xbcfe44aa	-0.031038601
176	0xbc00cc41	-0.007861198
177	0x3b07e768	0.0020737294
178	0xbb80debb	-0.0039328015
179	0xb9c603be	-0.0003776829
180	0x3c8d97f9	0.01728438
181	0xbbb6c9b0	-0.0055782422
182	0xbc235131	-0.009968088
183	0x3aec5d7f	0.0018033235
184	0xbcca1455	-0.024667898
185	0xbd04d729	-0.032431755
186	0x3bcdb2bc	0.0062774103
187	0xba778997	-0.0009442805
188	0xbcb0d076	-0.021583777
189	0xbb47aafe	-0.003046691
190	0x3ba3e427	0.005001563
191	0xbc082a06	-0.0083108
192	0xbcecf863	-0.028927034
193	0x3c05c99d	0.008165744
194	0x3c7638c4	0.015028182
195	0x39e7f017	0.00044238634
196	0xbc0985d1	-0.008393721
197	0xbbfc20fd	-0.007694362
198	0x3bbbd0cf	0.005731679
199	0x3b2e222c	0.002657066
200	0xbc2c6cc8	-0.010523982
201	0xbc929dbf	-0.017897485
202	0xbc63da06	-0.013906961
203	0x3cdda2a0	0.027055085
204	0xbb968e2e	-0.004594586
205	0xbc967d29	-0.018370228
206	0xbaba84f9	-0.0014230303
207	0xbcb3513c	-0.021889322
208	0x3cbc7622	0.023005549
209	0xbc846548	-0.016161576
210	0xba5e2d5e	-0.0008475388
211	0xbc8e0f29	-0.017341213
212	0xbc9bf397	-0.019037051
213	0x3b991d26	0.004672664
214	0x3c067ad7	0.008207998
215	0xbc8569da	-0.016285826
216	0x3d1e232c	0.03860776
217	0xbc00f675	-0.00787126
218	0x3b9b2ad8	0.004735332
219	0xbbe0b79b	-0.006857825
220	0xbbd8bea6	-0.006614524
221	0xbbc72321	-0.0060771857
222	0xbb181523	-0.0023205958
223	0x3b4ffc2b	0.0031735997
224	0x3bcf93d3	0.0063347607
225	0xbbae9d7c	-0.005328832
226	0x3c93f77f	0.018062351
227	0xbbf4afdf	-0.0074672545
228	0x3ba24a9d	0.0049527423
229	0xbc831866	-0.016002845
230	0x3d179d33	0.03701515
231	0xbcf07f97	-0.029357715
232	0xbb296eb8	-0.0025853347
233	0xbc862e34	-0.016379453
234	0x3b89dcff	0.004207253
235	0x3c380b09	0.0112331
236	0x3c912bf5	0.017721156
237	0xb9554f5f	-0.00020342831
238	0xbbc3c3c4	-0.005974265
239	0xbca50b23	-0.020146912
240	0x3ca3ac28	0.019979551
241	0xbb5ce240	-0.0033704191
242	0xbba20718	-0.0049446933
243	0xbbe43571	-0.0069643785
244	0x3b783f7a	0.0037879632
245	0x3caee08a	0.021347303
246	0x3cb908ff	0.022587297
247	0xbc24ba06	-0.010054117
248	0x3cb14745	0.02164043
249	0xbc528b04	-0.012850527
250	0xba7b75da	-0.00095924514
251	0xbc46fc74	-0.01214515
252	0x3b9a80c3	0.0047150566
253	0x3bf2b43f	0.007406741
254	0xbbea4e69	-0.0071504605
255	0x3c0aa6c6	0.008462613

action_model._continuous_distribution.mu.bias f4 [2]
0	0xbb97a0b5	-0.004627312
1	0xbb25519b	-0.0025225643

action_model._discrete_distribution.branches.0.weight f4 [1, 128]
0	0x3b04e423	0.0020277582
1	0xbbaa77e2	-0.0052022794
2	0x3c34bbf2	0.011031138
3	0x3b21463e	0.0024608518
4	0x3c1811ef	0.009281619
5	0x3c507e7b	0.012725468
6	0xbb7a1d4d	-0.0038164437
7	0x3b8153a5	0.003946739
8	0xbbd30538	-0.006439831
9	0x3c479251	0.012180881
10	0xbc134303	-0.008988145
11	0x3c7cca1f	0.015429049
12	0x3ba5aa64	0.0050557125
13	0x3c8afff5	0.016967753
14	0xb9a83a6f	-0.00032086993
15	0x3aa301ca	0.0012436446
16	0xbbf902d5	-0.0075992146
17	0xbc54d9af	-0.012991353
18	0x390c8bf2	0.00013403574
19	0x3cc4926b	0.023995599
20	0xbc518fcd	-0.012790632
21	0x3ab2adb7	0.0013632093
22	0x3c303639	0.010755115
23	0xb9df26dd	-0.0004256283
24	0x3b817136	0.0039502634
25	0x3b45fa03	0.0030208833
26	0xbbe12490	-0.0068708137
27	0x3bbbb46a	0.005728294
28	0xbbb34923	-0.005471365
29	0x3ae8ae32	0.001775211
30	0xbaa2c523	-0.001241837
31	0xbc1ff78f	-0.009763612
32	0x3ad9f0c5	0.0016627541
33	0x3c967d8e	0.018370416
34	0xbbd0c40f	-0.0063710283
35	0x3b5c0925	0.0033574787
36	0x3bc85abb	0.0061143315
37	0x3aa47dfe	0.0012549756
38	0xbb13510b	-0.0022478725
39	0xbc308211	-0.010773198
40	0x3af56253	0.001872132
41	0xbc10feda	-0.008849824
42	0xbc0fa6f1	-0.008767829
43	0xbbf4484b	-0.007454907
44	0x3c7eceb7	0.015552214
45	0x3c4e6a63	0.012598607
46	0xbad57a6b	-0.0016287094
47	0xbbafde9b	-0.005367113
48	0xbb609a1f	-0.003427155
49	0xbc4b885f	-0.01242265
50	0x3a2c330d	0.00065688865
51	0xbb277219	-0.0025550185
52	0x3c6d05a3	0.014466676
53	0x3b6cebda	0.003615132
54	0x3be1d177	0.0068914252
55	0x3c35d0f2	0.01109718
56	0xbc3c1aa0	-0.011480957
57	0xbc8e818a	-0.017395753
58	0x3b706963	0.003668391
59	0xbcacbcb4	-0.021086074
60	0xbc39acdd	-0.011332718
61	0x3ba8108f	0.005128927
62	0xbc57678b	-0.013147245
63	0xbb1fa25f	-0.0024358255
64	0x3c4646e9	0.012101867
65	0xbc0560b1	-0.008140729
66	0x3b8895e9	0.0041682613
67	0xbc645b43	-0.013937774
68	0xbb972d2f	-0.0046135406
69	0x3b32be35	0.0027274017
70	0xbb8972df	-0.004194602
71	0xbb47613f	-0.0030422953
72	0x3ba04403	0.00489092
73	0x3b068a08	0.002052905
74	0x3b8d485c	0.0043116044
75	0xb9e9a478	-0.00044563762
76	0x3c63c487	0.013901836
77	0x3c54c67f	0.012986778
78	0xbaae2736	-0.0013286832
79	0x3b3c9153	0.0028773143
80	0xbca278b3	-0.019832944
81	0xbb0f99d4	-0.0021911757
82	0xba22d227	-0.0006211125
83	0xbb6e504d	-0.003636378
84	0x3c0be693	0.00853886
85	0xbbc240ef	-0.005928151
86	0x3c3c04ae	0.011475725
87	0xbb39552b	-0.0028279524
88	0xbb01cbbf	-0.001980528
89	0x3c0c1a07	0.008551127
90	0x3b464329	0.0030252433
91	0x3c36c9b8	0.011156492
92	0xbbae8537	-0.005325939
93	0x39cf4af8	0.00039537973
94	0x3c0ef3e9	0.008725145
95	0x3b98688e	0.0046511358
96	0xbc423994	-0.011854548
97	0xbc755930	-0.014974877
98	0xbb929e6a	-0.004474451
99	0xbb8b580b	-0.004252439
100	0xbc596e33	-0.013270902
101	0xbaaf5aa6	-0.0013378456
102	0xbab3e7bd	-0.001372568
103	0xbc37959a	-0.011205101
104	0xba6f0ce0	-0.0009119045
105	0xbb2e020f	-0.002655152
106	0xbc213bfa	-0.00984096
107	0x3b30aabc	0.0026957234
108	0xbba00097	-0.004882883
109	0xbad335ed	-0.0016114094
110	0x3b97b423	0.0046296283
111	0x3ad35172	0.0016122295
112	0xbc0414fe	-0.008061646
113	0xbbf6ce8a	-0.0075319456
114	0x3ac23e73	0.0014819637
115	0x3c8b850c	0.017031215
116	0xba0f32c4	-0.0005462582
117	0xbb6f553b	-0.0036519307
118	0xbb8f82aa	-0.00437959
119	0x3c0eb443	0.00870997
120	0xbc039416	-0.008030912
121	0x3b904d45	0.0044037425
122	0xbc22ec06	-0.009943968
123	0xb9acc7c8	-0.00032955245
124	0x3c055525	0.008137976
125	0x3c8a7dee	0.016905751
126	0x3be52245	0.0069926106
127	0x3ba40789	0.005005781
