Assets/results/VikramRover1/VikramRover/VikramRover-12449.onnx (onnx, 80301 bytes, 8 tensors)

network_body._body_endoder.seq_layers.0.weight f4 [128, 10]
000000 b2 06 94 be 3a 23 0a 3c 64 80 ab be 68 56 9a 3e
       -0.28911358 0.00843125 -0.33496392 0.30144048
000010 7e 6a 38 bc 6d bb 3b be ad 5a 0b 3f 4c cb e1 3e
       -0.0112558585 -0.18333216 0.54435235 0.44100416
000020 bf 37 8c 3e 5e f6 67 bc 1c 03 11 bd 1f 9c e9 3e
       0.2738628 -0.01415786 -0.035403356 0.45626923
000030 bb cd 70 3e 80 f1 61 be 5e e9 97 bd 59 0b 4a bf
       0.2351598 -0.22064781 -0.07417558 -0.78923565
000040 bd 28 8c 3e ed 97 31 3e d6 2d 84 be a0 e4 7f bd
       0.2737483 0.17343111 -0.2581622 -0.062473893
000050 3b 3d 30 3e f8 19 2b 3e 2c 26 f9 bb 6c 1e f6 be
       0.17210858 0.16709125 -0.0076034274 -0.48070085
000060 7d b4 7d 3e 34 e9 c7 bc 13 66 12 be 4e 1e 44 bf
       0.24775882 -0.024403192 -0.1429675 -0.7660874
000070 10 3c b2 be f9 0e e8 3e e3 da 14 3e 0c 72 e2 bd
       -0.3481145 0.45323923 0.14536624 -0.11056909
000080 67 ed 0c 3f d7 1d 0d 3f 53 60 2d be 41 97 9c 3d
       0.5504975 0.55123657 -0.16931276 0.07646037
000090 1c 70 09 3f 73 23 13 3d 87 5b 31 3e 3a 60 e9 3d
       0.5368669 0.03592248 0.17320071 0.11395307
0000a0 68 72 ed bd a4 7d bc be a8 db dd 3e fa 47 f2 3e
       -0.11594087 -0.36814606 0.43331647 0.4732054
0000b0 c7 c8 88 be 20 3b 8f be e6 de 3b 3f ac ad c6 bd
       -0.2671568 -0.27974796 0.7338699 -0.09701094
0000c0 59 e9 b7 be 61 cf ac 3e 42 dd c6 be c3 6f 96 3e
       -0.35920218 0.33751968 -0.3884068 0.29382142
0000d0 28 bd b2 be 2c 74 5b bd f7 0d 24 bf ce 86 39 3d
       -0.3490994 -0.053577587 -0.6408381 0.045294575
0000e0 5a 97 34 3e 73 8e 03 3f bf ff 19 bf 76 8b aa bd
       0.17635861 0.51389235 -0.6015586 -0.08327381
0000f0 79 99 b3 be fb aa eb 3c 3f c3 26 3e f4 d5 2a be
       -0.35078028 0.028768053 0.16285418 -0.16683179
000100 cf 20 13 3e 6c 85 cc bb 2d 07 44 be c4 4b 9e bd
       0.14367984 -0.006241491 -0.19143362 -0.07729295
000110 a9 34 e6 3d 53 17 72 3c 0c 4d c9 be fd e5 a2 be
       0.11240513 0.014776069 -0.39316595 -0.31816092
000120 58 8a fd bd 00 45 69 3e 1a f8 94 3d 92 55 76 3e
       -0.123799026 0.22780228 0.07273884 0.2405608
000130 3a bd cb 3e e3 42 8e 3e 38 d8 10 3f 1e 76 14 be
       0.39792806 0.27785406 0.56579924 -0.14498183
000140 bc 4b a8 3e 8c fd 99 bc 8c 1f 78 be e3 3c ae be
       0.3287028 -0.018797658 -0.24230784 -0.34030828
000150 41 eb 80 be e2 0b 2f bf 6a 9a 8f be c5 3a 9d 3e
       -0.25179484 -0.68377507 -0.28047496 0.307089
000160 26 fd 60 3e ee 12 b6 bd 0e e5 09 be ac 8e b2 bd
       0.21971568 -0.08890329 -0.13466284 -0.08718619
000170 10 dc 79 3e 33 be b5 bc 09 4f 15 be 5d 0d fa 3e
       0.24400353 -0.02218542 -0.14580931 0.4883832
000180 e7 bd f5 3d b4 52 1d be bc 96 55 be ab cc 97 bd
       0.119991116 -0.1536358 -0.20858282 -0.07412084
000190 5c ea 92 3e 06 fc 8b 3c 49 c9 b9 3e 08 db b4 3e
       0.28694427 0.017087948 0.3628638 0.35323358
0001a0 8d 5f b1 be 85 12 f0 3d d1 59 0d 3f 47 0c be be
       -0.34643212 0.11722282 0.55215174 -0.37118742
0001b0 3e 2d 33 be 23 8b 70 3e 9a 5b 0c 3f 8f b4 0d be
       -0.17497727 0.23490576 0.5482727 -0.13838409
0001c0 2a f8 5f be e6 12 cc 3d 74 8c 8e 3e 2d f6 b0 be
       -0.21872011 0.09964542 0.27841532 -0.34562817
0001d0 54 12 b3 3d 70 c8 05 be 1e d5 c8 3e 78 30 79 be
       0.0874373 -0.13064742 0.39225096 -0.24334896
0001e0 00 09 2f 3f cc 17 d4 3d ce 80 4a be 7c a9 a0 3e
       0.6837311 0.103561014 -0.19775698 0.31379306
0001f0 5a f1 28 be 00 0c 07 3f d0 89 b5 3d 38 f6 b7 bd
       -0.16498318 0.52752686 0.08864176 -0.089825094
000200 49 21 b6 be eb 12 23 3e 77 7c 57 bd 4a 0a 3c 3e
       -0.3557227 0.15925185 -0.052608933 0.183633
000210 c8 27 bf be 61 00 93 be bc 63 ae 3e dc 78 8b 3d
       -0.37335038 -0.28711227 0.34060466 0.068101615
000220 88 d7 02 3c 2a f6 9c 3e 98 1f 2f bf 5f 8c e8 be
       0.007985957 0.30656558 -0.68407583 -0.45419595
000230 ec f0 f5 be fe fa 60 3e f0 11 89 bd 4f 44 86 bf
       -0.4803537 0.21970746 -0.066928744 -1.0489596
000240 79 2f 49 be a8 09 ee bb 07 d7 62 3e a8 84 c0 bd
       -0.19647016 -0.0072643347 0.22152339 -0.09400302
000250 42 2e 4b be cf ac f6 3e b3 48 03 3e fe 67 03 be
       -0.19841865 0.48178717 0.12820701 -0.12832639
000260 e9 57 81 be 84 bd 84 be af eb 15 3f a4 df b8 3c
       -0.25262383 -0.2592584 0.5856275 0.022567578
000270 d6 43 31 3d 91 9d 6e be 85 60 ba be 32 ff 9a bc
       0.043277584 -0.23302294 -0.36401764 -0.018920515
000280 b6 c4 84 3e c9 f6 1a bf b5 a5 6f 3e 67 4f 1a 3d
       0.2593133 -0.60532814 0.23403056 0.03767338
000290 08 f8 55 3e 5e 25 e7 be 30 fb 10 be 95 ad 47 be
       0.20895398 -0.45145696 -0.1415832 -0.1949981
0002a0 42 82 6f 3e 6b 6b 1c 3e 31 fc 0a 3e 4d 18 a2 3d
       0.23389533 0.15275352 0.13572766 0.07914791
0002b0 90 71 07 be e5 ce fc be 38 a9 90 3c 55 f4 24 bd
       -0.13226914 -0.49376598 0.017658815 -0.040272076
0002c0 d3 01 f8 3e 7d 46 74 3d 37 03 95 be 29 29 50 be
       0.48438892 0.059637535 -0.29104015 -0.20328201
0002d0 57 9c b9 bc 2f 20 6a be 53 d4 dc 3e 66 9b 4a 3d
       -0.022657556 -0.2286384 0.4313074 0.049464606
0002e0 a4 99 11 be ab b7 a7 3e 8e b0 c7 be 26 cf fb bd
       -0.14218765 0.32757315 -0.39001888 -0.1229537
0002f0 a9 c6 e8 3d d4 72 6e 3d a8 f8 06 3f d3 69 ac 3e
       0.113660164 0.058214977 0.5272317 0.33674487
000300 af 70 06 be 2d ce 4a be d4 32 f9 3d db ca 49 bd
       -0.13128923 -0.19805212 0.12167898 -0.049265724
000310 92 86 d8 bd ab ce c6 be 2d 8a e3 be 36 67 2a 3c
       -0.10572542 -0.3882955 -0.44441357 0.010400584
000320 12 83 e1 be ce 45 b8 3e 1d 09 f1 bd 13 93 7b 3e
       -0.4404531 0.35990757 -0.11769316 0.24567823
000330 f5 8e a5 3e 64 cf d7 be d0 27 a5 3e 43 81 66 3e
       0.3233563 -0.42150414 0.32256937 0.22510247
000340 62 0f af be bb b9 f3 be cb 1f 60 be cf fd 22 3f
       -0.34191424 -0.4760264 -0.21887128 0.6366853
000350 33 bb d0 bd dc 0e f9 3d 13 05 12 be 7f 6d fe 3e
       -0.101919554 0.12161037 -0.14259748 0.49692914
000360 91 dc d3 3e 64 34 8b bd d0 b2 8e be 4d 05 1d bd
       0.41379216 -0.06797102 -0.27870798 -0.038335133
000370 9b 92 ce bb 86 da 61 3e d4 11 da 3e 04 e3 2d 3e
       -0.006304098 0.22056016 0.42591727 0.16981131
000380 9d 4c be 3d 69 98 f5 be 8e 55 6a 3d 1c 54 70 be
       0.092919566 -0.47967842 0.057210498 -0.23469585
000390 b1 a8 42 be 29 a9 d8 bd 33 8d b7 be e0 7b 78 be
       -0.19009663 -0.1057914 -0.35849914 -0.24266005
0003a0 ca 9e 99 bd f5 22 41 3f 09 14 60 3e 91 46 17 3e
       -0.0750099 0.75443965 0.21882643 0.14773013
0003b0 df bc 87 3e f8 3d 91 be 32 62 6f be 30 94 bd 3e
       0.26511285 -0.2836759 -0.23377302 0.3702712
0003c0 91 41 19 3e a2 90 32 be 6b 2f ac 3e fc 55 6d 3e
       0.14966418 -0.17437986 0.33629927 0.23177332
0003d0 e2 37 96 3e b3 b8 8a be 25 0a 29 3f 0c 1d c2 3e
       0.2933951 -0.2709404 0.66031104 0.37912786
0003e0 89 51 ce 3e e0 3c b3 bc 19 8e 7b 3e b1 34 91 be
       0.4029658 -0.021879613 0.24565925 -0.28360513
0003f0 ce 1d 70 3e 67 85 24 bf 3e 8f bb 3e c5 59 89 3d
       0.2344887 -0.64266056 0.36632723 0.06706575

network_body._body_endoder.seq_layers.0.bias f4 [128]
000000 95 bb b8 bc c2 54 84 bb a9 bc 4d bc 90 a4 9a 3a
       -0.022550384 -0.004038424 -0.012557187 0.0011798311
000010 2d b9 d5 3b f4 ab df 30 b2 58 76 bb 99 92 99 bc
       0.006522319 1.6274257e-09 -0.0037589488 -0.018746661
000020 e3 8c 8d 3c dc 2c 86 bc 5c f0 b9 bc fd 9d 64 3c
       0.017279094 -0.016378812 -0.02269762 0.013953683
000030 64 ad da bb ef f5 2b bb 53 e9 15 3b c8 dd 4b bc
       -0.006673502 -0.0026239117 0.0022874668 -0.0124430135
000040 65 1f be 3b 2e 75 91 bb bf 64 4d bc 59 bf d9 3b
       0.0058020824 -0.0044390177 -0.012536227 0.006645125
000050 be 71 da bc 73 3a 88 bc bf 5b 4a bc 47 15 43 bc
       -0.026665565 -0.016629433 -0.012350976 -0.011906928
000060 c3 1c 00 bc 7f ec f1 bb b3 c1 b7 bc e6 b7 b4 3b
       -0.007819357 -0.007382929 -0.02243123 0.0055150865
000070 48 57 a0 26 d7 59 91 26 1c 25 d9 ba e4 4e dd b9
       1.1125888e-15 1.0085747e-15 -0.0016566846 -0.00042211183
000080 49 9c 3d 3c fb 7a 7e bc be ca 0d 34 81 82 dd bb
       0.011572906 -0.0155322505 1.3205405e-07 -0.006759942
000090 85 af c8 bc 3b 26 3e bc bf 6a 38 3b 45 fa 89 0f
       -0.024497757 -0.011605795 0.0028139798 1.3605643e-29
0000a0 00 3c a5 bb 94 ba e5 a6 bc 0e 07 3b d9 63 92 3b
       -0.005042553 -1.5940639e-15 0.0020608148 0.004467469
0000b0 f5 f3 2f bc cc d1 b2 bb 0e 64 80 bc a7 27 67 2c
       -0.010739316 -0.0054571386 -0.01567271 3.2849086e-12
0000c0 6a 95 34 3b 40 19 5c bc 45 e7 a5 bb 7b e2 2c 2a
       0.0027554878 -0.013433754 -0.00506297 1.5355245e-13
0000d0 e7 7f a7 bc f5 64 04 3c f3 9c 83 39 ab d3 9c 38
       -0.02044673 0.008080711 0.00025103203 7.478086e-05
0000e0 8b 23 96 39 e5 be 17 bc 62 86 92 ba cf 2f e6 bb
       0.0002863671 -0.009261821 -0.0011178965 -0.007024742
0000f0 0b 60 f1 28 f2 fb 41 bc 6d 60 0f bb 51 43 97 2b
       2.6798027e-14 -0.011839854 -0.0021877543 1.0747879e-12
000100 8f a1 fd bb de 47 62 38 7e 91 88 bc 6b 49 03 bc
       -0.0077402066 5.394953e-05 -0.016670939 -0.00801311
000110 05 c5 88 3c ce b5 c7 3a 45 ec 84 3b 66 2b 9e bb
       0.016695509 0.0015236677 0.004056486 -0.004826951
000120 bb 84 3c 3b 1c 88 de bc a7 79 09 bc f9 e5 a5 a2
       0.0028765637 -0.027164511 -0.008390821 -4.4966833e-18
000130 db 0a 65 bb cd f8 b3 3b c4 b8 f2 b9 ec 63 33 bc
       -0.0034949097 0.005492306 -0.00046295498 -0.010949116
000140 90 1d 60 1a a7 73 52 3b 27 89 8f bb 86 b0 54 3c
       4.6345995e-23 0.0032112391 -0.0043803635 0.01298154
000150 12 48 89 3b 00 00 00 00 23 6a fe ba 08 ee 2b bc
       0.0041894997 0.0 -0.0019410293 -0.010493763
000160 5e 3b f7 bb 61 c4 f4 ba e8 44 c2 bc 1c 1a 74 3c
       -0.007544919 -0.0018674248 -0.023714498 0.014898803
000170 72 a8 f7 bb 6a 71 d3 b9 02 00 f5 b7 29 1d 80 bc
       -0.007557922 -0.00040329556 -2.920628e-05 -0.015638905
000180 89 2a 01 af eb 27 66 3a 4e 98 87 bc 52 5e c2 bb
       -1.1747593e-10 0.0008779752 -0.016552117 -0.005931654
000190 4c 50 da b9 38 9d 1b b9 83 da bb 3b 9f 86 ae 3b
       -0.00041640026 -0.0001484052 0.0057328357 0.0053261067
0001a0 e5 fc 77 3c f9 5d 4d b9 e3 c1 37 bc 15 a5 9c bb
       0.015135978 -0.00019585331 -0.01121566 -0.0047804215
0001b0 0a cb aa 3b 64 77 f2 bb 56 5b dc b9 79 77 c8 bc
       0.0052121924 -0.0073994864 -0.0004202972 -0.024471032
0001c0 3e b7 2c bc 70 70 3b ba 2a 03 41 bc 3b a0 4c bc
       -0.010541735 -0.00071502384 -0.0117805395 -0.012489374
0001d0 6d 8f 98 3b eb 3f f7 ba 10 ff 18 3c d8 1b 02 bc
       0.0046557696 -0.0018863654 0.009338155 -0.007941209
0001e0 cb 80 f6 bc 10 f1 8d bc fb 9f 92 bc 06 ac 05 b8
       -0.03009071 -0.017326862 -0.01789855 -3.186988e-05
0001f0 6a f2 31 3b 9b 2b dd 98 77 a5 1d 3b ce 44 fc b9
       0.0027152547 -5.717119e-24 0.0024054924 -0.0004811645

network_body._body_endoder.seq_layers.2.weight f4 [128, 128]
000000 10 67 d1 3d ca aa b2 bc 3b 5d af bc 74 7b 0a 3e
       0.10224736 -0.021809954 -0.02140676 0.13523656
000010 c2 66 84 3d 1c e6 dc 3d 50 6b b0 bc bf 13 bb 3c
       0.06464912 0.107860774 -0.021535546 0.022836564
000020 2b 0c 6c ba fe f0 bf bd 58 70 db 3b 1e ba 86 3d
       -0.0009004499 -0.093721375 0.006696742 0.06578468
000030 62 03 28 3e 4d 73 cb 3c 85 77 e5 3b 96 5f a5 3d
       0.1640754 0.024835253 0.007002773 0.08074872
000040 33 d8 a9 bc 84 49 1a be e7 ca dd 3c 8a 9a 34 bd
       -0.020732975 -0.15067106 0.02707429 -0.044092692
000050 a8 55 98 ba 89 db a1 bc 75 e0 ee 3d 89 80 18 3e
       -0.0011622207 -0.019758003 0.116639055 0.14892782
000060 09 3e 39 3c 44 1c a8 bc fb 54 bc 3d 2d b3 99 3c
       0.011306294 -0.02052129 0.09195896 0.018762195
000070 78 7d 28 3e ec 41 47 be 89 23 11 3e 11 96 2f 3e
       0.16454113 -0.19458741 0.14173712 0.1714709
000080 ef ba 17 bd 15 ec 01 be 49 68 31 bd f7 06 d4 bd
       -0.03704351 -0.12687714 -0.043312345 -0.10352891
000090 2c be 1e 3e 43 38 93 3d 2b fb 48 bc 06 16 8f 3d
       0.15502232 0.071884654 -0.012266914 0.069866225
0000a0 94 34 67 bd ef 8c 5e 3d bb a2 46 be 64 db 99 bd
       -0.056446627 0.054333623 -0.19398014 -0.075125486
0000b0 59 52 c3 3c a2 96 5d 3b a9 02 8d 3e 39 11 c2 3c
       0.023842977 0.0033811708 0.27541092 0.023689853
0000c0 d5 c8 20 be bf 47 29 bc 6a c1 4d 3e 4d 69 7b bd
       -0.15701611 -0.010332047 0.20093313 -0.06137972
0000d0 ec d6 a5 bd 21 d6 03 3e 23 62 1f 3d fe b9 01 3e
       -0.08097634 0.12874652 0.03891195 0.12668607
0000e0 7a 64 c4 3d ec 4e 7a 3d cd 28 14 3c 38 a2 8c bb
       0.09589477 0.061110422 0.009042931 -0.004291799
0000f0 ff 3d 6b 3d e4 96 36 bc a3 37 a9 bc 9d 3e 6a be
       0.05743217 -0.011144374 -0.020656412 -0.22875448
000100 02 e7 81 bd b7 9e 64 bd 07 57 d8 3b 13 d5 f1 3d
       -0.06342889 -0.055815425 0.0066021713 0.11808219
000110 dc 4c 62 bd c6 9c 3f bd 4d 8c 94 3d 22 88 25 3e
       -0.05524908 -0.04678037 0.07253323 0.16165212
000120 4a 97 cd 3d 35 21 21 3d f7 cd 98 3d ea 20 a9 3d
       0.10038622 0.03933831 0.0746116 0.08258231
000130 d5 8a 27 be 0f 4d 46 3e 68 38 00 3d 3c b3 ee 3d
       -0.16361554 0.19365333 0.031303793 0.1165528
000140 aa 46 3f 3d c4 62 54 bb f9 0e 53 bd 25 d9 94 3d
       0.04669825 -0.0032407502 -0.05152795 0.072679795
000150 61 a0 50 bd f5 05 b1 bd 4e d9 66 b9 ef f2 a7 bc
       -0.0509342 -0.08643714 -0.00022015462 -0.020501582
000160 16 1b 46 3d 2a ba 28 3d 43 30 81 bc fb 1c d3 3a
       0.048365675 0.041193165 -0.015770083 0.0016106659
000170 07 01 97 bd 59 c1 14 bd 42 a5 63 bd 80 ef 86 bc
       -0.07373243 -0.036317203 -0.055577524 -0.016471624
000180 fe 61 31 3e c6 9e 83 3b 7a 6d e8 bd 09 4e 1a 3d
       0.17322537 0.00401673 -0.11349006 0.037672076
000190 fa c5 28 3d 90 cb bc 3d 74 e1 cd 3c d9 80 29 3e
       0.04120443 0.09218514 0.025131918 0.16553058
0001a0 2b 67 90 3d f2 73 30 3d 6d 1f 43 3d 56 6b 1f be
       0.07050928 0.043079324 0.04763739 -0.15568289
0001b0 ab 30 0c 3e d5 ac 97 bc 02 3c e1 3c c8 58 27 3c
       0.1369044 -0.01851503 0.027494434 0.010214038
0001c0 3c 8c 19 3e 7a 89 8e bc ea 26 ec 3d 42 ef 6b bd
       0.14994901 -0.017399538 0.1153086 -0.05760122
0001d0 58 6b 39 3e 9f 35 6b 3d 64 eb 4a 3e 51 81 04 3e
       0.18107355 0.057424184 0.19816357 0.12939955
0001e0 ec d9 bf bc f3 b2 8b 3d 66 ad 84 3d 7e dc 4d 3d
       -0.023419343 0.06821241 0.064783856 0.050259106
0001f0 2f e0 45 b9 b6 c7 05 3d b4 dc 23 3e 73 0c 21 3e
       -0.00018870899 0.032661162 0.1600216 0.15727405
000200 05 dc 6c 3d 8f bd b1 3d cb a5 fa 3d ab da 30 3d
       0.057827014 0.086787336 0.12238654 0.043177288
000210 4c c4 b0 bd de e0 fd 3d ad e9 aa 3c c2 e9 2e be
       -0.08631191 0.12396406 0.020863378 -0.17081359
000220 d5 10 f7 3d 48 d2 48 be 36 97 52 3c 4e 31 13 be
       0.12063757 -0.19611466 0.012853434 -0.14374277
000230 37 25 d1 3d 25 15 23 bd 61 fe 52 3d 12 1b 95 3c
       0.10212176 -0.039815087 0.051512126 0.018201385
000240 b5 d5 5f 3b 52 b8 50 bc 92 98 83 3c 36 a4 52 bb
       0.003415448 -0.012739258 0.016063962 -0.0032141334
000250 9d 13 e1 3c 7e 48 d7 3d 8e 90 fa 3c 53 9d 91 bd
       0.027475173 0.10511874 0.030586507 -0.07110085
000260 13 aa 89 bc 57 ab 1a bd 8d 77 d1 3b d6 06 52 bd
       -0.01680473 -0.03776106 0.0063924254 -0.05127605
000270 3a 6b 94 bd d4 e1 d2 bc 9b 4b 13 3e 97 76 6f 3c
       -0.07247014 -0.025742449 0.1438431 0.014615676
000280 75 da 2d 3d 98 89 99 3d 28 0d 49 bd 34 f8 1d 3d
       0.042444665 0.07496947 -0.049084812 0.038566783
000290 03 5b 8a bd 5d df fc bd 8f d5 3a be f1 47 a5 bd
       -0.0675564 -0.12347291 -0.18245529 -0.08070362
0002a0 78 e8 43 bc 90 40 89 bd 26 ae 09 3e b8 f3 0a 3b
       -0.01195728 -0.067017674 0.13445339 0.0021202397
0002b0 cc 82 ac bc 0f fa bb bd 82 50 27 bd 7e a1 1b 3d
       -0.021058463 -0.09178554 -0.040848263 0.037995808
0002c0 11 53 e1 3c 7b b0 40 3d d7 e4 69 3d 9b db 5b bd
       0.02750543 0.047043305 0.057103004 -0.05367623
0002d0 0c 75 35 be 95 78 48 bd 9c 36 29 be 2f 20 03 bd
       -0.17720431 -0.04894312 -0.16524738 -0.032013115
0002e0 7c fc 5e 3c c7 55 7a 3d 86 20 bd 3c 81 32 ac bc
       0.013610002 0.06111696 0.023086797 -0.021020176
0002f0 a2 c8 6c 3c 02 03 88 3d e5 dd b7 bd bf 91 06 3e
       0.014452131 0.06641199 -0.0897787 0.13141535
000300 bb bf dc bd 30 09 44 bd a5 31 b5 3d 92 a4 30 3e
       -0.10778757 -0.047860324 0.088473596 0.17250279
000310 f3 55 80 3d ee df 36 be 7e d6 fe 3d 84 76 ce bb
       0.062663935 -0.1785886 0.12443255 -0.0063007493
000320 9c c1 ef 3d 03 aa d9 3d f7 c1 62 bd 3d 8f 76 bd
       0.1170685 0.1062813 -0.05536076 -0.060195196
000330 4c 5f 26 bc 2e c9 41 bd 10 da f1 3d 6e 7d 81 bd
       -0.0101545565 -0.047311 0.1180917 -0.06322752
000340 9e 0c b8 bd f0 54 81 bd 29 c3 00 3d ff 7f cd 3b
       -0.089867815 -0.06315029 0.03143612 0.006271362
000350 dc ef 6d bd e2 50 ab 3d f6 71 7f bd 58 a6 b9 3d
       -0.058090076 0.083650365 -0.06236454 0.09064931
000360 a5 09 a8 bc 32 f3 76 3d 0f 95 da bc db a9 28 be
       -0.020512411 0.060290523 -0.026682405 -0.16471045
000370 18 3e 5e 3e a1 8a c1 3d 25 f9 16 be 9d 9c 8c bb
       0.21703374 0.094502695 -0.14743479 -0.0042911307
000380 49 5b ed 3c 7e 67 03 be cf 2b a8 3d dc 59 eb bb
       0.028974192 -0.12832448 0.08211481 -0.007182343
000390 52 6e 82 bc f6 95 38 bd 34 b1 69 3d 7b 89 57 3e
       -0.015921745 -0.04506489 0.05705376 0.21048538
0003a0 37 00 e8 bd af 2a 55 3d 98 e7 61 bd 06 20 b9 bc
       -0.11328166 0.05204266 -0.055152506 -0.022598278
0003b0 c2 9c 26 be f8 8e 30 bc 69 62 24 3d 58 3d c1 bd
       -0.16270736 -0.010776274 0.040132914 -0.094355285
0003c0 cf 74 e3 bd e7 aa 53 bd 66 89 ac 3d 0f bb 08 bd
       -0.11106264 -0.051676657 0.08424644 -0.033381518
0003d0 27 e9 ea bd e7 dc 19 3c 27 b3 02 be 9a e6 23 3d
       -0.114702515 0.009391046 -0.12763654 0.04001484
0003e0 83 67 10 bd f6 99 42 3e d4 39 87 3d 75 7e 8e 3d
       -0.035254966 0.19004044 0.06602827 0.069577135
0003f0 0b 18 a3 bd ec 28 b7 bd 25 33 96 3c 0c 25 75 3c
       -0.0796357 -0.08943352 0.018334934 0.014962446

network_body._body_endoder.seq_layers.2.bias f4 [128]
000000 d5 ab 23 3c 15 91 25 bc 63 a8 91 bb 44 bd 42 bc
       0.009989698 -0.010105391 -0.004445122 -0.011885945
000010 30 8f 80 36 26 96 59 bc f3 0a 18 b9 0d 32 03 bc
       3.8313665e-06 -0.013280427 -0.00014499929 -0.0080075385
000020 bc 39 33 b8 02 f1 19 bc 11 31 d9 bb 68 bb 21 bc
       -4.2730695e-05 -0.00939584 -0.0066281636 -0.009871341
000030 90 92 89 bc 4d 52 94 3a 8c d3 35 3b 72 f6 f0 a9
       -0.01679352 0.0011316031 0.00277445 -1.07008925e-13
000040 04 e6 e8 bb 1a 9b 9b 39 1d 6e 5f bc 1a 68 53 bb
       -0.007107498 0.00029679463 -0.013637093 -0.0032258094
000050 31 d8 19 bb a8 45 10 bc 50 8f 53 bb 0f c2 00 bc
       -0.0023474807 -0.00880567 -0.0032281466 -0.007858767
000060 64 fe 12 bc 16 39 fe bb 74 cd 2a bc 7c 0e 28 bc
       -0.008971784 -0.00775827 -0.01042496 -0.01025736
000070 c4 7d 18 3b b4 d0 ef bb a5 f9 48 9c 03 78 09 bc
       0.0023268322 -0.0073185805 -6.6497107e-22 -0.008390429
000080 be 98 dd 3b 12 bc a6 bb aa e3 4b bc 1e 9c a6 bb
       0.006762593 -0.0050883377 -0.012444416 -0.0050845286
000090 d3 92 c8 bb b8 b8 5c 23 76 8c 34 ba 8b 5a 0c 3c
       -0.0061210184 1.196534e-17 -0.00068873854 0.008566509
0000a0 b7 0c 8c b7 a7 53 27 bc 6e b7 64 bc 5b 6d 69 bb
       -1.6695221e-05 -0.010212815 -0.013959749 -0.003561816
0000b0 7e 23 cd bb 44 77 06 bc 01 e7 3a bc f8 0f d4 af
       -0.0062603345 -0.008207146 -0.011407615 -3.8573922e-10
0000c0 cb b6 05 bc dc a6 2c bc a8 14 39 3b 58 4d f5 bb
       -0.008161257 -0.010537829 0.0028241072 -0.0074860267
0000d0 52 b9 13 bc 73 be 8e 3c cc 7b 17 3c 09 86 95 bc
       -0.009016352 0.017424798 0.009245824 -0.01825239
0000e0 e5 19 2e bc 44 d8 e5 bb 2e 6c 7c bb 95 06 35 bc
       -0.010626291 -0.0070143063 -0.0038516629 -0.011048933
0000f0 92 29 b8 bb e5 65 f7 bb 6c ba ac a7 5b f3 0f b9
       -0.00562019 -0.0075499886 -4.794171e-15 -0.000137282
000100 0b 2a eb ba af 9a 5d bb 6c 2c 9f b3 39 23 e8 bb
       -0.0017941607 -0.0033814122 -7.412095e-08 -0.007084277
000110 24 73 91 3b 08 c1 87 3b 7e 38 36 bc c5 61 b1 bb
       0.0044387747 0.004142884 -0.011121867 -0.0054132664
000120 60 1e 2f af 30 ca 21 bc 8d cb 15 bb ff be 21 bc
       -1.5926949e-10 -0.009874865 -0.0022856921 -0.009872197
000130 39 15 35 3b 13 d5 09 bc 9a 35 8a bb a1 de 35 bb
       0.0027631058 -0.008412617 -0.0042178156 -0.0027751105
000140 c7 42 cc bb e3 2b 20 bb 9c 80 32 bc 4c c5 5d ba
       -0.0062335464 -0.002444022 -0.010894921 -0.00084598805
000150 53 90 00 3c e8 dc 46 a2 ff 49 a6 bb 3a ed bb 36
       0.00784691 -2.695095e-18 -0.005074739 5.600651e-06
000160 6d e6 a9 3a 00 7f cf bb 09 bd 34 bc d5 b1 56 bc
       0.0012962349 -0.0063322783 -0.011031398 -0.013103922
000170 1f ff 16 bc c5 ab c3 bb 99 12 e6 bb c6 ed 19 bb
       -0.009216099 -0.0059714043 -0.00702126 -0.0023487671
000180 a3 5d 52 bc e8 9a 10 bc 80 b8 33 bb 56 3d 51 bc
       -0.012839708 -0.008825995 -0.0027423203 -0.012770971
000190 fd 00 e7 39 be dc d3 bb 55 84 73 3b 6c ee fb bb
       0.0004406049 -0.0064655235 0.0037157733 -0.007688334
0001a0 a6 55 ba bb 0f b0 1e bc cc 2d 6a 3b 01 ee 02 bc
       -0.0056864796 -0.00968553 0.0035732863 -0.007991315
0001b0 45 ca 96 bc b1 68 8b 3c 1d 3b 54 2f cb f6 ee bb
       -0.018406997 0.017017694 1.9302289e-10 -0.0072926036
0001c0 46 88 48 9f 1b 69 fe a4 76 c4 5d bc 30 9d 72 bb
       -4.246437e-20 -1.10332996e-16 -0.0135356095 -0.003701996
0001d0 69 fa 9b bb d2 ff 8d bc 60 da f0 ad 96 c5 6c bb
       -0.004760076 -0.017333899 -2.7381819e-11 -0.0036128513
0001e0 f7 8a 9e 35 75 a4 14 bc 7b 8f 12 bc 50 c4 47 ba
       1.1812361e-06 -0.009072413 -0.008945341 -0.00076205004
0001f0 16 3f 9b bb 45 17 02 bc 73 b1 18 3c 9c 64 09 bb
       -0.004737745 -0.007940118 0.009319651 -0.002096451

action_model._continuous_distribution.log_sigma f4 [1, 2]
000000 f2 18 05 3e 5f 23 be 3d
       0.12997797 0.0928409

action_model._continuous_distribution.mu.weight f4 [2, 128]
000000 d6 a1 3a bd c8 12 46 3c 24 b7 9b 3c dc 87 9e 3b
       -0.045564495 0.012089439 0.019008227 0.004837973
000010 ec 7f 38 bc 65 b4 38 3b 74 60 82 38 ea ee 77 bb
       -0.011260968 0.0028183695 6.216849e-05 -0.0037831613
000020 d0 cb 77 bc 58 e2 00 3d be 3b 6d bc a3 02 bb 3c
       -0.015124276 0.03146586 -0.014479576 0.022828406
000030 9f 0c c7 3b 77 86 27 bc bf ff a8 bc b1 ff a4 bb
       0.0060745026 -0.01022493 -0.020629762 -0.0050353636
000040 62 db 36 3d 9c bc 3c bc e1 3f 0c bb 0f 48 f7 3c
       0.044642814 -0.011519577 -0.002140038 0.030185727
000050 cb 67 28 3c fc ee 71 3c d2 b5 42 bc f5 9a 11 3b
       0.010278652 0.014766451 -0.01188417 0.0022217606
000060 5b a0 4f bc f9 6a 28 bc 3f 72 e0 bc 7e 15 7e ba
       -0.012672509 -0.0102794105 -0.027398227 -0.00096925336
000070 7b 96 56 bc 5f b6 87 bb b7 c2 61 ba 5f 83 a5 3c
       -0.013097401 -0.0041416134 -0.00086120836 0.020204244
000080 44 68 e0 bc 2c 94 08 3b c9 5c 2c bb ba ea f2 3b
       -0.027393468 0.002084027 -0.0026300421 0.0074132355
000090 f6 ec 49 bc 8c 5f b4 3b 7c 9b aa bb c4 4e 42 3c
       -0.012324562 0.005504554 -0.0052065235 0.0118595995
0000a0 4c 37 fe bc 3f cc bf ba 52 d0 9f 3a a2 7c 8b ba
       -0.031032227 -0.0014633014 0.0012192822 -0.0010642002
0000b0 33 f7 1c 3c 21 fe 5c bb b0 c0 c2 ba d3 29 88 3a
       0.009580421 -0.0033720809 -0.0014858451 0.0010388441
0000c0 86 c7 5d 3c 35 05 1a 3c 40 91 e3 bb ac 01 ab bc
       0.01353634 0.0094006555 -0.0069448054 -0.02087482
0000d0 69 18 cb 3c 03 f2 f8 bc 00 4d ea bc d8 4f ac b9
       0.024791913 -0.030388838 -0.02860117 -0.00032865885
0000e0 99 7a 3d 3c 4d 19 2a bc f6 c7 6b b8 73 6f 7d 39
       0.011564874 -0.010382009 -5.6214594e-05 0.00024169478
0000f0 ae 64 be 3c c4 af fe 39 b6 f7 3c bc 3b 24 8e bb
       0.023241367 0.0004857761 -0.011533668 -0.004337815
000100 a9 65 31 3d d9 5f 0b bc 0b 58 59 bc 93 d8 ca 3b
       0.04330984 -0.008506739 -0.01326562 0.0061903684
000110 7b 85 6e bc 68 40 05 bd 7b 36 ac bb 1b 4c 9e 3c
       -0.014558191 -0.032532126 -0.005255518 0.0193234
000120 bd bc a4 bb 15 07 81 3c d6 21 58 bc 9f 3b 07 bc
       -0.005027382 0.015750447 -0.013191661 -0.008253961
000130 28 78 35 bd 73 1b 54 bc e7 41 1a bc a0 cf 1c 3c
       -0.044304043 -0.0129459975 -0.009415126 0.009570986
000140 44 a0 e4 3b 19 3c d5 38 bb 77 3b 3c 41 bf 78 bc
       0.006977113 0.000101678255 0.01144212 -0.015182317
000150 cc 5b 6f bc 08 c4 84 bc 56 20 f0 3b 15 5f 79 bc
       -0.014609288 -0.016206756 0.0073280735 -0.015220423
000160 e9 63 83 bc 82 ed e4 bb 89 d4 61 3b 94 86 b2 3c
       -0.016038852 -0.006986321 0.0034458956 0.021792687
000170 30 5c b6 3b 60 39 3b bb 1b fe 07 bc d5 67 00 bb
       0.005565189 -0.0028568134 -0.00830033 -0.0019593139
000180 c6 77 6d bc 2e 03 82 3b e7 f5 8b 3c 32 13 a1 bb
       -0.014493888 0.003967664 0.017085029 -0.0049156183
000190 69 90 d2 bb 3b 75 9b bc 3a c2 99 bb 2a c4 11 3c
       -0.0064259064 -0.018976798 -0.004692343 0.008896867
0001a0 b6 ad 16 ba c9 5b c0 ba cd 75 d5 bc 4a 89 cf bb
       -0.0005747931 -0.0014675792 -0.026057148 -0.006333505
0001b0 b0 c6 a6 3b 0b 98 dd 3c ec 00 a3 3c 4f 84 57 3a
       0.0050896034 0.027050039 0.0198979 0.00082213146
0001c0 92 a0 4d bc bb e3 23 3c b7 e4 5b 3b 98 a3 aa 3c
       -0.01255049 0.010003026 0.0033553073 0.02082996
0001d0 2f 60 ea bc c8 d0 2f b9 ef 1f ca 3c 59 07 62 3c
       -0.028610317 -0.00016767078 0.02467343 0.013795697
0001e0 58 7d 82 bc f2 c0 05 3c 7e 94 01 3c c3 fc 33 bc
       -0.01592891 0.0081636775 0.007908938 -0.010985556
0001f0 d5 86 b5 3a bb ac 60 bc d1 43 c7 bb 14 dd 4c bc
       0.0013849387 -0.013713057 -0.0060810824 -0.012503881
000200 e5 bd 04 bd 7b a5 16 bc 56 c9 ae bc e7 34 41 bc
       -0.03240766 -0.009194727 -0.021336239 -0.011792398
000210 40 23 5b bb 3c 91 7e 3b b0 9a 00 bc 94 dc 04 bd
       -0.0033437759 0.003884389 -0.00784938 -0.032436922
000220 ee a2 ca b9 12 bc e2 3c 78 5f 49 3a 6f 78 48 3a
       -0.00038649834 0.02767757 0.00076817675 0.00076473405
000230 7e 05 41 3c 2a a8 39 bc f0 c9 c5 bb 45 66 6c bc
       0.011781095 -0.011331597 -0.0060360357 -0.01442868
000240 02 11 6f bc e6 cb 30 bb bc e0 c8 3b 50 2e 34 bd
       -0.014591457 -0.0026977002 0.006130306 -0.04398948
000250 24 bd 4a bc 61 62 da bc 24 55 40 3b 1e 2f b4 bc
       -0.012374196 -0.026658239 0.0029347623 -0.021995123
000260 e4 75 39 bc aa 26 f7 3b 19 d2 9a bc e0 0a 98 3b
       -0.011319611 0.007542451 -0.01889901 0.0046399683
000270 20 fa 2c bc e9 9b fb bb f3 af 3e bc 0b 1c 68 bc
       -0.010557681 -0.007678498 -0.011638629 -0.014166842
000280 07 12 62 bc e1 43 83 bb 9a 53 5b 3c 2a 51 16 bb
       -0.013798243 -0.0040058945 0.013386631 -0.002293656
000290 fa f4 17 3c 54 93 37 3c 39 e8 84 bc 89 ea 89 3c
       0.009274716 0.011204559 -0.016224014 0.016835468
0002a0 8b 67 24 3c b7 61 da 3a 54 3d 12 bb 8e 6f 06 bc
       0.010034452 0.0016661201 -0.0022314386 -0.008205308
0002b0 7d 29 9f bc af 1a b8 bc 6c 41 7d ba 10 51 cf bb
       -0.019428963 -0.022473661 -0.00096609327 -0.006326802
0002c0 c7 bb 8c bb de b3 23 bc cf e2 b4 bc d8 dd 8a 3b
       -0.0042948457 -0.009991614 -0.022080807 0.0042378716
0002d0 dc 03 fc bc a2 9f 11 3d ed a0 e2 bc 2d 35 0f bc
       -0.030763559 0.03555263 -0.027664626 -0.008740705
0002e0 91 38 11 bc 86 4a 4c bb fc d8 02 bd 75 41 a0 3b
       -0.008863584 -0.003117235 -0.031945214 0.0048906156
0002f0 e8 50 b7 bc c6 0a 0d 3a f3 82 21 bc 7e 90 f7 3a
       -0.022377446 0.00053803285 -0.009857881 0.0018887667
000300 b7 4c 15 3c 8d 8e 0b bd ea d4 21 bd 1d 19 12 3b
       0.0091125285 -0.034071494 -0.03950969 0.00222928
000310 c5 b1 62 bc ed d0 05 bc 21 82 1c bc 4d f6 13 3c
       -0.013836329 -0.008167488 -0.0095525095 0.009030891
000320 7e 22 b3 3b 7f f4 52 ba c7 16 06 bb 3c da 8e 3c
       0.0054667583 -0.0008047297 -0.0020460354 0.017438047
000330 30 5c 2d 36 38 fd 8b 3c f3 ce 9e bb f6 f0 c9 bc
       2.583267e-06 0.017088518 -0.0048464476 -0.024651032
000340 5a 48 b0 3c 2d 16 14 3c d6 09 e5 bb cd d6 be 3c
       0.021518875 0.00903849 -0.006989698 0.023295784
000350 1e 2a f0 bc 28 ff 8a bb 7e 00 be 3c 59 29 09 bd
       -0.029316958 -0.004241843 0.023193594 -0.033486698
000360 31 0a 83 3a 50 7a 10 bc 81 f9 88 3b f0 d7 15 bd
       0.0009997544 -0.008818224 0.004180134 -0.036582887
000370 e1 86 30 bc f5 ec 2b 3a b3 ee 87 bb 3f 76 4d bc
       -0.010774345 0.00065584417 -0.004148328 -0.012540399
000380 3c bd 1c 3c 18 0b da 3b 02 b0 c0 bc 62 0d 37 bb
       0.009566601 0.0066541545 -0.023521427 -0.002793156
000390 aa 95 c4 bc 82 a2 b7 3b 6b fa 09 bd bf 75 23 3b
       -0.023997147 0.0056040892 -0.033686083 0.0024942008
0003a0 4d 58 6c bc 67 e4 85 ba ee 9f 58 bc 49 40 8a bc
       -0.014425349 -0.0010215164 -0.013221724 -0.016876357
0003b0 12 fe 47 ba 05 84 ef 3a 16 cf 16 bc ba 35 8f 3c
       -0.0007629107 0.0018273598 -0.009204647 0.017481674
0003c0 84 99 90 bc 1b 0a 47 bc 74 c7 b9 3c 8a 68 23 bd
       -0.017651327 -0.012148405 0.022678114 -0.039894618
0003d0 3c d0 23 3c fe dd f0 3b 51 bf 9c bc a9 58 d6 bc
       0.009998377 0.0073506823 -0.019134196 -0.026165323
0003e0 2a 24 65 3c ae 93 71 bc fd 1e a1 bc c8 f5 db 36
       0.013985673 -0.014744682 -0.019668097 6.5553213e-06
0003f0 ae a4 9c 3c 83 7f b5 3c 49 dd 6c bc 01 6d c1 ba
       0.019121494 0.022155529 -0.014457055 -0.0014757217

action_model._continuous_distribution.mu.bias f4 [2]
000000 75 4e 00 bc fd 6e 18 bc
       -0.007831206 -0.009303805

action_model._discrete_distribution.branches.0.weight f4 [1, 128]
000000 cf 25 c8 3b bd 65 a3 3b c7 55 3e 3a e3 9f 36 39
       0.0061080228 0.0049864934 0.00072607066 0.00017416435
000010 78 f5 fb 3b ec 53 36 bc 7c c4 18 3c f5 5c 55 3b
       0.0076891743 -0.011128407 0.009324189 0.0032556627
000020 91 18 08 bc 74 e2 a9 3c 63 9d fc bb 23 6e d6 38
       -0.008306638 0.020737864 -0.0077091916 0.0001022483
000030 fa 13 2f 3c 0f da b8 bb b4 97 0f 3c f0 d7 a5 ba
       0.010685915 -0.005641229 0.008764196 -0.0012652855
000040 30 24 d6 3b 48 35 fa 3b ad da 7a 3b f0 c1 2f 3c
       0.0065350756 0.007635746 0.0038277314 0.010727391
000050 64 d7 b4 3b 13 7b a3 3b 5d 81 0e 3c 5b 80 b0 bb
       0.0055188406 0.004989037 0.008697835 -0.005386395
000060 14 ef 44 ba 7a 37 cb bb d8 7a 7d 3b b7 e6 ff 3b
       -0.0007512432 -0.0062016817 0.0038677957 0.007809486
000070 ca 02 8d ba fb 4c 42 3c 1f 16 0e bb 03 2c 79 3b
       -0.0010758277 0.011859174 -0.0021680666 0.0038020618
000080 da 5b a8 bc 63 d8 85 bc 5b 56 23 bc f3 f6 a7 bb
       -0.02055161 -0.016338533 -0.009969319 -0.005125874
000090 5c 4d 1e bc 6f 9c 2b 3c 6a 70 d2 bb e5 27 da 3b
       -0.009661999 0.010474308 -0.006422092 0.006657588
0000a0 1f 7a 3b bc 67 9b 9c 3b 05 4b 36 ba c0 98 4f bb
       -0.01144269 0.0047792676 -0.0006953928 -0.003167674
0000b0 f5 c9 1e 3b 58 92 8f 3a fa 59 76 bb 4a f4 64 bb
       0.0024229262 0.0010953648 -0.0037590251 -0.0034935647
0000c0 43 50 07 3c eb 38 4c 3a 83 74 b4 bb 17 cd 6c bb
       0.008258882 0.0007790464 -0.0055070533 -0.0036132985
0000d0 26 40 95 bb 30 ae 93 3c 45 eb 4c bb a0 05 27 3c
       -0.004554766 0.018027395 -0.0031268161 0.010194212
0000e0 93 8d 40 3b fa 7d 16 bc 51 53 a3 bb b7 73 bc 3b
       0.002938126 -0.009185309 -0.0049842973 0.005751099
0000f0 67 1f 7b ba 2b b9 6c b8 68 8c af 3a 23 c6 78 bb
       -0.00095795695 -5.6439236e-05 0.0013393285 -0.0037959896
000100 b0 46 35 3c 1b 7f 9d 3c 1a 28 f1 ba 37 d1 4d bb
       0.0110642165 0.019225648 -0.0018398792 -0.003140522
000110 34 11 cb 3b 77 12 13 3b da 70 f6 b9 41 60 22 bc
       0.006197119 0.0022441426 -0.00047004857 -0.009910644
000120 ae af 17 3c b1 39 0e 3c 40 e6 27 bb d5 0f b4 bb
       0.009258194 0.008680747 -0.0025619417 -0.0054950514
000130 57 9a 8a 3b df 56 d3 3b e8 52 40 bc 88 fd 60 bc
       0.0042298245 0.006449565 -0.011738516 -0.013732322
000140 9b a2 b1 bc d8 30 0e 3b 78 2a 0e 3c 8f ce 7a 3b
       -0.021683982 0.0021696594 0.0086771175 0.0038270091
000150 80 f9 ec 3b 5a 39 61 3b 62 06 2b bc f1 17 24 3b
       0.007231891 0.003436646 -0.0104385335 0.0025038684
000160 ac 1a 32 3c 6d eb fb bb f7 35 b6 bb 4b 18 be 3b
       0.010870617 -0.007687977 -0.0055606323 0.005801236
000170 57 31 bc 3b 73 c9 9e bb d2 12 72 bb da 52 81 bb
       0.0057431865 -0.004845792 -0.0036937487 -0.0039466443
000180 ef 43 40 bb bf 24 bf bb c0 53 d5 3b ab bd 0f b9
       -0.0029337367 -0.005833238 0.006510228 -0.000137082
000190 67 60 55 bc 8e 99 c9 bb 1b 9f c5 bc 34 d1 be ba
       -0.013023472 -0.0061523383 -0.024123719 -0.0014558197
0001a0 e7 d0 ce bb 22 70 48 3c f9 91 91 3c fa 22 bb bb
       -0.006311524 0.012233766 0.0177698 -0.0057109566
0001b0 9d ee f4 bb 73 15 98 bc 23 09 2c bb 43 df 14 3b
       -0.007474734 -0.018564915 -0.0026250563 0.0022716082
0001c0 0d a5 6f bb 23 73 96 3b af 79 f8 bb 1e 99 1a bb
       -0.0036566884 0.004591362 -0.007582865 -0.00235898
0001d0 ed 33 24 bb f1 c0 22 3b 29 cc 39 3c d6 5a 2c bb
       -0.0025055364 0.002483424 0.0113401795 -0.002629926
0001e0 15 4c 66 3c 43 de 1d bc 3d 97 75 bc b8 cd 68 3c
       0.014056225 -0.009635511 -0.014989671 0.014209203
0001f0 0c c7 47 3c f3 7a cc bc 70 cf 40 bb 60 72 d6 3b
       0.012193453 -0.02496097 -0.0029420517 0.0065443963
