Assets/results/VikramRover1/VikramRover/VikramRover-6221.pt (torch, 457673 bytes, 39 tensors)

network_body._body_endoder.seq_layers.0.weight f4 [128, 10]
00000000: cb61 873e 8e4c cfbe ee38 3bbe ff63 58be
00000010: 43d5 01bd 6787 703e 9e75 7a3e 615b 8abe
00000020: e562 cebe 4946 403e 617b 823d 34ad 513e
00000030: f726 6f3e 5a86 203e 55ae c33e 7598 643e
00000040: eada 8abe 708d 6ebe 65e7 67bd 6ec7 06bc
00000050: b139 31be 7728 09bf 5525 f0be 7c1d 983e
00000060: 7fd6 adbe 73ca fe3e 2067 023f 043f 263e
00000070: 30e6 dd3e 4f8d 2bbe b7db 71bd d3f7 04bd
00000080: 58e4 4b3e 89e8 703e 6f4b 1ebe 5b2f fabd
00000090: ada0 eb3e 2728 2b3e 6dbc 79be f4ea 5ebe
000000a0: 6bf7 fc3e 283e a5be 2487 72be 5c79 d43d
000000b0: cfaf ccbe dc43 1bbd d664 afbd 0445 dfbe
000000c0: 20d5 1a3c bc63 da3d 8beb 1ebd 86de 0d3f
000000d0: 2ce4 383e 4f10 9f3e 9f7a 1e3f 590f cabd
000000e0: 066b 623d 428f de3e ae21 6cbe 82be 223f
000000f0: 9f87 12be eef9 07be e2ac d43e 7818 b73e
00000100: 237c 5cbd db0b 98bd cc5d d93b 1820 3abe
00000110: 800d d2be fb97 e63c 5ed6 dc3e 1d85 e93d
00000120: 334d 93bd 758b 813e 0aa4 bb3c b86e a03e
00000130: f59f 613d e01e f8ba a913 c3bd d016 d9be
00000140: b5c8 12bf 1fda 32bd 1f29 17bd 27a7 bd3e
00000150: ba8c 073f 491c 3f3d 7a8b 1fbe 1984 1e3e
00000160: aa42 0bbe bd81 743e 0334 b5be 40d0 513d
00000170: 3fbc 80be f90f d93e e702 41be 0aa7 8cbe
00000180: 1101 0d3d 0e6a 18be 9fb7 89bd 9647 28bf
00000190: 4bc1 98bd 8e10 323c ee96 793e d218 a4bd
000001a0: 3300 0dbf a52f 983e 1ea2 963e d432 353f
000001b0: 91ea 323b 17cb 99bc 937c b5bd 1ff5 a8be
000001c0: 0e8a 69be dda4 7dbd ef83 5fbe b6c1 1fbe
000001d0: e7fd 8d3e 1afb 1bbc 6c38 3b3e 9d56 b0be
000001e0: 5d92 9b3e 05a6 34be c0d5 093f 3260 0bbf
000001f0: a1aa 8abe 20d0 9bbe d895 48be b1f1 cebe
00000200: 55a0 a8bd 5ad6 5bbe a222 933e 497f 57be
00000210: 930a 90bc de58 e5be f733 473e 259e 193f
00000220: ccd1 0e3e d5df eabd a51a bdbe 64e3 483e
00000230: f0d0 97bd 62e7 7a3e d6b4 ff3e 060b fe3e
00000240: 5211 563e a14b 9d3e 58b8 b83e 3756 183e
00000250: 0d24 0dbb 163b 71bd d185 a73e 3b1e 71bc
00000260: adee 453e afb2 47bc b165 89be 37e9 c6bd
00000270: e189 91be 19da 723e 167e a53e 519e 42be
00000280: 02d9 0dbe c1a1 96be 7626 79bd 099d c6bc
00000290: 1f67 04bf 27ca 1c3f bb89 eb3e 47f9 1f3f
000002a0: d7df 85be bf1f 683e b50f cdbe c8f4 883d
000002b0: 90a7 2cbf d855 3e3e 82a9 0e3f ce6f d9be
000002c0: 082d aebe b418 1ebe bce3 f33e 33ad f73e
000002d0: daf6 2fbe 6614 e63e fa1c fc3d 88cb acbe
000002e0: 4430 5f3e 3d8d 803d b8f8 023f 7378 3c3e
000002f0: 5142 9a3e 884d f43e ae90 813e b164 463c
00000300: 897e c83e 7350 98bd ba5e 173e 7c94 d43d
00000310: 3522 76be 17e0 103f e2ca 543e 0766 f6be
00000320: 10a6 6bbe 036a 753d 678d 9c3d 5cce 4dbe
00000330: b091 c1be e12d f43e 8642 2cbd 92c6 2b3f
00000340: d87b 273f 9a85 ea3e 05a7 cd3e 55cc 853e
00000350: 3cde 773d 3ea4 413e 11db 2dbf a782 adbe
00000360: d7c6 573e 42ef 4bbb d6b0 c13b db5c 18bf
00000370: 1798 dd3e 3f46 353f 8d93 3d3e 1d40 053f
00000380: 4cd0 d0be 6e44 e7bd b8f8 17be 39c0 c83d
00000390: 9f67 ecbd 5c45 e13d 5cd4 853e 7b97 3bbe
000003a0: a566 37be 9017 3ebe 3ac9 d8bd b9b7 6f3e
000003b0: 26fc 78be 48e4 0e3e da6a 8aba 5a9e a8bd
000003c0: 8270 d53e 10c5 a73d 7ba7 d73e c05f b8bb
000003d0: 2022 7ebd 58ce b8be fe53 853e 05a6 453d
000003e0: 2fa7 ccbd c1b0 f8be 20c3 7d3c 9fbe 393f
000003f0: e4e1 e23e 7960 e8bc 05eb 253e ede8 3dbe
0.26441798 -0.40488094 -0.18283436 -0.21131895 -0.031697523 0.23489152 0.2445893 -0.27022842
-0.40309826 0.18776812 0.06371189 0.20476228 0.23354708 0.15676251 0.38218942 0.22323783
-0.27120143 -0.23296142 -0.05661716 -0.008226259 -0.17307164 -0.5357737 -0.46903482 0.29709995
-0.3395271 0.49763831 0.50938606 0.16234976 0.43339682 -0.16753124 -0.059047427 -0.032462906
0.19911325 0.23526205 -0.15458463 -0.122160636 0.46021023 0.16714536 -0.24388285 -0.21769315
0.49407515 -0.32273984 -0.23684365 0.1037471 -0.3997788 -0.037906513 -0.08564155 -0.43607342
0.009450227 0.10663554 -0.03879885 0.5541767 0.1805579 0.3106713 0.61905855 -0.098662086
0.055277847 0.43468672 -0.23059723 0.6357194 -0.14309548 -0.13278934 0.4153815 0.35760856
-0.053829324 -0.07424136 0.006633496 -0.18176305 -0.41025925 0.028148642 0.431323 0.114023425
-0.07192459 0.2530171 0.022905368 0.31334472 0.055084188 -0.00189301 -0.09525234 -0.42400217
-0.57337505 -0.043665048 -0.03690445 0.3704159 0.52949107 0.046657834 -0.1558055 0.15480079
-0.13599649 0.23877616 -0.35391244 0.051223993 -0.2514362 0.42395 -0.18848763 -0.2747119
0.034424845 -0.14884207 -0.06724476 -0.6573423 -0.07458743 0.010868205 0.24373981 -0.080125466
-0.5507843 0.2972385 0.2942056 0.7078068 0.0027300457 -0.018773599 -0.08861651 -0.32999513
-0.2280657 -0.061924804 -0.21827672 -0.15601239 0.27732775 -0.0095203165 0.18283242 -0.3444108
0.30385104 -0.17641456 0.5384178 -0.5444366 -0.27083305 -0.30432224 -0.19588411 -0.4041877
-0.08233706 -0.21468487 0.2873736 -0.21044649 -0.017583167 -0.44794363 0.19453417 0.60006934
0.13947219 -0.11468474 -0.3693439 0.19617993 -0.074128985 0.24502328 0.49942654 0.49617785
0.20905045 0.30721763 0.36078143 0.14876638 -0.002153638 -0.05889424 0.3271928 -0.01471668
0.19329329 -0.012188598 -0.26835397 -0.09712451 -0.28425506 0.2371601 0.32322758 -0.19005705
-0.13852313 -0.29420283 -0.060827695 -0.024244802 -0.5171985 0.6124596 0.46003518 0.6248974
-0.2614734 0.2266836 -0.40051046 0.06687313 -0.6744318 0.18587434 0.557274 -0.42468113
-0.3401873 -0.15439111 0.47634685 0.48374328 -0.1718401 0.44937438 0.12310214 -0.33749032
0.21795756 0.06276939 0.51160765 0.18405323 0.3012872 0.47715402 0.25305694 0.012108968
0.3915904 -0.074372195 0.14782229 0.10379884 -0.24036486 0.56591934 0.20780519 -0.48124716
-0.23012567 0.059915554 0.07644158 -0.20098251 -0.37806463 0.47691253 -0.04205563 0.6709987
0.65423346 0.45805055 0.40166488 0.26132455 0.060514674 0.1891031 -0.67912394 -0.33888742
0.21071945 -0.003111795 0.005910973 -0.59516686 0.43280098 0.7081031 0.18513317 0.52050954
-0.40783918 -0.11292349 -0.14840972 0.098022886 -0.11543202 0.109995574 0.2613858 -0.18319504
-0.1791025 -0.18563676 -0.10585256 0.23409928 -0.24314937 0.1395427 -0.0010560409 -0.08233328
0.416874 0.081918836 0.42119965 -0.0056266487 -0.062044263 -0.36094928 0.26040643 0.04825403
-0.09992825 -0.48572353 0.015488416 0.7255649 0.44312966 -0.028366314 0.16202934 -0.18545885

network_body._body_endoder.seq_layers.0.bias f4 [128]
00000000: 6c2b c7bb c9a3 723c 0000 0000 2ef9 0abb
00000010: 20cd e03b aba7 403c 0533 5a3c e15b 0d3c
00000020: d73d 93bb 3703 bebb 2240 9dba 7564 07b7
00000030: b10c 81bc 7c63 1a3c 1edf 053d 360e bbbb
00000040: dba2 b83b dfec c9bb 5c05 df3b c056 683c
00000050: 3cf6 773b 5f9c 093c 2d03 283c 9bd2 14bb
00000060: 3224 5aba 74d7 4c3c aceb 763b 62fd 853c
00000070: caa0 233a 6bdf 553c 0000 0000 e8f4 fd3c
00000080: 0000 0000 9d7c 42bc 803e 0c3c bf64 edbb
00000090: d3fe 023c e056 393c d07d bd3c 9b04 c03b
000000a0: 7e9c 933c 0000 0000 e6b6 1b3c 6fb0 ea3c
000000b0: 1d4b b33b 1daf 243c 8876 803c 7019 3a3c
000000c0: a509 173c dc0a ca3c 952b 34bc a170 ecbb
000000d0: 40aa 953b 20d3 043c a3c6 be3c 31ae a9bc
000000e0: 3448 113c 0c43 7f3c a38e 9ebb 1a3e 993a
000000f0: 00db 12bc 603e 663c 1ac2 0fbc 9f70 893c
00000100: 3155 4b3c 0000 0000 2599 463c 8500 d93c
00000110: 28e1 7f3b 945f 29bb eacc 89bc 19ed 17bc
00000120: 038f 72bc 0188 8b3c 2e66 153c a8da d43b
00000130: b034 06ac f175 863a 332d c13b 0000 0000
00000140: 6324 e83b 1cf3 9f3c a2c9 e63c 7988 97bb
00000150: 401f 843c a602 b7bb 7174 e83c dd03 313c
00000160: aaab d03c 1688 66bb 4d82 bd3c dbe6 68bb
00000170: 0035 92bc 645d 77bc fd49 ae3c 335d 9f3c
00000180: 0000 0000 1857 093c 1ba4 b1bb 9e3b c53b
00000190: 5962 2a3c 11b3 613c 8a8a c43b 0bd7 6bbb
000001a0: 0000 0000 6ba8 033d 4fb8 cb3a fb43 bebc
000001b0: 0000 0000 b367 4c3c 2606 043c 722a a93c
000001c0: ec6d d5bb fbf5 ddbb cbd6 d0bb 40be 093d
000001d0: 24c6 81bb 3dba d03b 706f d23b a1af fb0f
000001e0: 7215 393c 92b5 14bc 2427 f83b 0000 0000
000001f0: bc49 c8bb d752 85bc b7b4 17bc 7d0a 1dbc
-0.0060781743 0.014809557 0.0 -0.0021205652 0.0068603903 0.011758725 0.013317828 0.008627863
-0.004493456 -0.005798723 -0.0011997262 -8.0700165e-06 -0.015753122 0.009423133 0.032683484 -0.005708481
0.0056346483 -0.0061622704 0.006806059 0.014180839 0.0037835976 0.008399098 0.010254663 -0.0022708538
-0.00083214336 0.01250254 0.0037677092 0.016356174 0.0006241916 0.013053755 0.0 0.03100057
0.0 -0.01187053 0.008559823 -0.007244676 0.007995325 0.0113122165 0.023131281 0.005859924
0.018018957 0.0 0.009504056 0.028648583 0.0054716007 0.010051516 0.01568152 0.011358604
0.009218608 0.024663381 -0.010996719 -0.007215575 0.0045674145 0.008106977 0.023288077 -0.020712944
0.008867312 0.01557995 -0.004838781 0.0011691481 -0.0089633465 0.014052957 -0.008774305 0.016777335
0.012410448 0.0 0.012121473 0.026489506 0.0039044116 -0.0025844323 -0.016821343 -0.009272837
-0.014804604 0.017032625 0.0091186 0.0064957924 -1.9071793e-12 0.0010258538 0.0058952807 0.0
0.0070844158 0.019525103 0.028172318 -0.004624423 0.016128182 -0.0055850325 0.028375836 0.010804144
0.02547248 -0.0035176328 0.023133421 -0.0035537991 -0.017847538 -0.01509795 0.021275515 0.01945362
0.0 0.008382581 -0.005421174 0.00601907 0.0103994245 0.013775603 0.0059979605 -0.003598633
0.0 0.032143038 0.0015542599 -0.023225775 0.0 0.012475896 0.0080581065 0.020650122
-0.006513348 -0.006773708 -0.0063732616 0.033628702 -0.003960388 0.0063698576 0.006421976 2.481816e-29
0.011296617 -0.009076493 0.0075730253 0.0 -0.0061123054 -0.016274853 -0.009259394 -0.00958502

network_body._body_endoder.seq_layers.2.weight f4 [128, 128]
00000000: 034a 80bd 7ae6 e03b 04fb 0fbd 26c4 783d
00000010: 88d3 5c3d a1d8 6ebd 7a8d 003d 83d3 b9bc
00000020: 144c c8bb 9e69 0abe a7ea 013e 12d6 9fbc
00000030: da55 043e 4d90 6ebc c30e dc3b 2638 813d
00000040: daf6 dabd 435d 67bd edde c83d 8870 2bbe
00000050: f294 0a3c fb0c 0abe aa92 20bc 882a fbbc
00000060: e39e 2f3d 52ab abbd e7fc 25bd 1e39 a9bc
00000070: c8f3 cf3c a057 b2bd 9205 92bc c283 5abd
00000080: 327d c0bd 2d86 d43d d903 d83c 2391 833e
00000090: e7bb 473d c320 333d 26e0 80bd 1dc1 e2ba
000000a0: 9fad 043d fe89 963d f3b1 bb3c 8cfc c93d
000000b0: b89c 9a3d 3c73 2ebd 6138 9dbd fa1d 07be
000000c0: 6b43 cb3d 3504 243e 6ccc db3d ddd6 99bd
000000d0: 04cf bcbd fc9a 97bd 0c02 0bbe 240b 28bd
000000e0: 2059 18be 797b dc3d d5f0 17be 1c4a d43d
000000f0: 00ac 413d ceb4 c73d d801 30bd 89d7 a53d
00000100: c909 a93d cc3a fe3c f11a a2bd 91b3 eabd
00000110: 3949 4fbd 6f70 1bbb 0b42 8bbb 4bff 3fbd
00000120: f120 123e 7a29 353d 6046 7c3d 372c d73d
00000130: 220a 93bb 1cc2 0e3e c192 103e 64d8 893b
00000140: b9eb 88bd e055 0dbd 9534 823d 8f2e aebd
00000150: 9eab edbd 23f2 7abd 574f 083d 1985 213d
00000160: 894e 833d ae6a b2bd 1724 37bd ed70 29bd
00000170: ceee a5bd 98c9 d83d 3bb4 57bd 4516 c93c
00000180: 8428 653c 9c2f 5cbe 93c2 233d ed29 8abd
00000190: fc9a e0bd 9cf8 4abd 17cb 1e3e 08c7 3dbd
000001a0: fbff 9f3c d90f 1bbe 224b fe3d 6897 a43d
000001b0: 25f5 923d ad0c 05be e0e0 88bd e839 e13b
000001c0: cddb 953c cd24 09be a88d cbbd 7c72 253e
000001d0: 197a a53a dac3 083b faad 903d 583f f93d
000001e0: 0ed7 a63d 3a30 01bd b380 0dbe 6e9d 11be
000001f0: 148e bb3d cb9a e93c c26a 6f3a 614a be3c
00000200: 8189 d63b 2921 a5bc 2210 273e 1f87 333e
00000210: 1ff5 2b3d 0188 dc3d 3397 c7bd 2409 b1bb
00000220: bef3 35bd 9e21 eabc f12f ef3d 29db bf3d
00000230: ef16 cd3d a2a9 54bc f975 36bc 2230 febd
00000240: 97dc 0cbb 7e24 b0bb e4b5 06bd 4d91 9a3c
00000250: edd4 153e 4cf4 663d 9a82 87bc db57 043e
00000260: 3853 acbd 28de e5bc e63e 59bd 7978 de3d
00000270: 2590 583c ad78 bdbc 8ba3 2fbd 1c7f 96bd
00000280: d0c1 133e 66fc db3b 740d fdbd f204 773d
00000290: 5799 5fbd 88e7 0c3d fbb6 a13c efaa eebd
000002a0: c6cb 1abd f986 8e3d d0ef b9bc 5c03 203d
000002b0: 72bd 63be b505 82bd a2e7 ea3d f32a 863d
000002c0: a0c9 883d 0e8d b03c fac9 fbbb dbb1 a63c
000002d0: 6ffa 333d be99 c83d f341 52bd b567 d13d
000002e0: 7d44 da3b eb3b 84bd bcb0 083d 03c6 e63d
000002f0: 0662 1fbc fd78 143e caa9 cdbd 7bb6 c8bc
00000300: 803c edbb 0c6b a4bd 53d3 663c 0113 fc3c
00000310: 6a2c 5f3d 0abc 1a3e 0e1b 1b3e aeb2 02bd
00000320: 6e80 05be cb3c f53d f35f 993d af1e 93bd
00000330: 4cb4 e63d 15a3 01bd 54f7 14bc 7daa 723e
00000340: 2f4a 893d cb0c 96bd 122f d6bd 84c9 4ebd
00000350: d165 bf3b 5b12 1dbe b9a5 bdbc eb79 c03d
00000360: 3412 b3bd 1536 0abc daeb 04bd 1b3e 69bb
00000370: 7138 99bb e286 2ebd c6f4 e7bc 135b 21bd
00000380: 20c2 e5bc 1f29 ac3d 67b8 bb3d 0e65 393e
00000390: 2117 40bd 1c71 09be 2ca2 a3ba 3e42 1cbc
000003a0: 5801 3c3d 38a6 983d cda1 06be d755 41be
000003b0: 2cd8 bc3c 8a64 623d f303 bd3d ef8d a83d
000003c0: af6f 40be a2f0 1bbe af79 bfbd 1eaf 39be
000003d0: dc83 93bd 83be 183e 0c7d cdbc e7cb fd3b
000003e0: eea0 b7bd c456 a13d ee25 a33d 0372 333e
000003f0: fa82 383d 4b4e c5bc 4b7b c8bd 4cbc c63d
-0.062641166 0.0068634124 -0.035151497 0.060733937 0.05391267 -0.058312062 0.031384923 -0.022683864
-0.006112585 -0.13516852 0.12687169 -0.019511256 0.12923375 -0.014560771 0.006715627 0.063095376
-0.106916144 -0.056485426 0.09808145 -0.16742146 0.008458363 -0.13481514 -0.009800592 -0.030659929
0.042876136 -0.08382286 -0.04052439 -0.020657118 0.025384799 -0.087081194 -0.017824922 -0.05334831
-0.09398879 0.103771545 0.026369022 0.25696668 0.048763182 0.043732416 -0.06292753 -0.0017299984
0.03239214 0.07350539 0.022912001 0.098626226 0.07549423 -0.042590365 -0.07676769 -0.13195029
0.09924968 0.1601723 0.1073235 -0.07511685 -0.092191726 -0.07402608 -0.13575 -0.04102625
-0.14877748 0.10765738 -0.14837964 0.10365698 0.047283173 0.09751283 -0.04297051 0.08097751
0.082538195 0.031033896 -0.07915295 -0.11460031 -0.05060694 -0.0023718139 -0.0042498163 -0.046874326
0.14270379 0.04422901 0.061590552 0.1050648 -0.004487292 0.13941234 0.14118482 0.004206704
-0.066855855 -0.034505725 0.063576855 -0.08504974 -0.11604999 -0.061266076 0.03327879 0.039433572
0.06411464 -0.08711754 -0.044712152 -0.04136746 -0.08102189 0.10585326 -0.052662116 0.024546752
0.01398671 -0.21502537 0.039980482 -0.06746278 -0.10967061 -0.0495535 0.1550716 -0.04633239
0.01953124 -0.15142764 0.12416674 0.08036691 0.07175664 -0.12993117 -0.066835165 0.006873358
0.018293286 -0.13392945 -0.09939128 0.16156954 0.0012624889 0.002086869 0.070644334 0.12170285
0.08146487 -0.031540133 -0.13818626 -0.14220211 0.091579586 0.028516194 0.00091330346 0.023228826
0.0065471535 -0.020157414 0.16314748 0.17532013 0.041981813 0.10768128 -0.09745636 -0.005402701
-0.044421904 -0.028580483 0.11679066 0.09367973 0.1001414 -0.012979897 -0.011136525 -0.12411524
-0.0021493786 -0.005375444 -0.03288831 0.018868113 0.14632006 0.056385323 -0.016541768 0.12924139
-0.0841431 -0.028060034 -0.0530385 0.10862822 0.0132179605 -0.023128832 -0.042880576 -0.07348463
0.14429402 0.006713438 -0.123560816 0.06030745 -0.054589596 0.034400493 0.019740572 -0.11653697
-0.03779199 0.06959338 -0.02269736 0.039065704 -0.22240236 -0.06348745 0.11469962 0.06551161
0.06679082 0.021551635 -0.0076839896 0.02034848 0.043940004 0.09794949 -0.051332425 0.10224859
0.0066609965 -0.06456741 0.033371672 0.112682365 -0.00972796 0.14499278 -0.1004215 -0.024501076
-0.007239878 -0.0802823 0.01408847 0.03077078 0.054485716 0.15110794 0.1514704 -0.031908683
-0.13037273 0.11974486 0.07489004 -0.07183587 0.11264858 -0.031649668 -0.009092171 0.23697849
0.067036025 -0.07326659 -0.10458197 -0.05048515 0.005840995 -0.15339033 -0.023150312 0.09398254
-0.08743706 -0.008435746 -0.032451488 -0.0035589996 -0.004675918 -0.042609103 -0.02831496 -0.039393496
-0.028046668 0.08406281 0.09166031 0.18104956 -0.046897057 -0.13422054 -0.0012484244 -0.009537278
0.04589972 0.07453579 -0.1314766 -0.18880402 0.023052298 0.055271663 0.09229269 0.08230197
-0.18792604 -0.15228513 -0.09349381 -0.18133208 -0.072028846 0.14916424 -0.025084041 0.0077452543
-0.08966242 0.07877877 0.07966219 0.17523961 0.045046784 -0.024085185 -0.09789141 0.097038835

network_body._body_endoder.seq_layers.2.bias f4 [128]
00000000: 3006 203b 548e 8cbb 5e1f 10bc 8b65 13bc
00000010: 0000 0000 66f8 24bb 81f9 093d 0fc7 76bc
00000020: bade 60a1 a187 9dbb 0000 0000 0000 0000
00000030: adbf 01bb c2ea 4dba 6b97 3fbc 0000 0000
00000040: 82d2 86bb 0000 0000 f9f1 b93c 503d a5bb
00000050: 5798 e8bb 3a87 5abb 12b3 083d ce51 f9bb
00000060: 6bb8 c5bb 0000 0000 c56a 12bc cc2c ddbb
00000070: a350 66bb 4ee6 7d3c 1821 d93b 8ce5 f93b
00000080: 0000 0000 8b76 24bc d481 90bb 0000 0000
00000090: 1be0 fcbb 0000 0000 6882 ae3c ef6a b33c
000000a0: c085 0007 f8a8 633c 126a 8922 7579 a83c
000000b0: 7948 e83c 5426 e2bb 0000 0000 925e 1bbc
000000c0: e94f 1b3a 0000 0000 0000 0000 d323 05bc
000000d0: d227 8bbc edd8 12bc e7ff 8dbb 0c4a c93a
000000e0: 0000 0000 4180 b43c 638c d43c e284 0cbc
000000f0: 4340 88bb d4b0 e43a f972 053d be94 fcbb
00000100: f0ce e9b7 0cc3 4abc 3fcf c43c 029f 95bb
00000110: ba22 d23c 0000 0000 da6c dd3c 42dc 0dbc
00000120: 0000 0000 bba0 d63c 0000 0000 5285 483c
00000130: 4354 e73c 5232 823c 5014 5cbc 4521 24ba
00000140: 88f0 b33c dd2d e7bb 9d84 233d 0fc2 0fbc
00000150: 653a 20bb 2e28 dc3c 457e ebbb 852d c03c
00000160: 157d 8cbb 40fc 07bc 9630 11bc a993 c6bb
00000170: 0000 0000 7d8e b23b 3a25 b0ac 1843 22b0
00000180: 9d4f 56bc 2676 093c 0c78 c33c d6aa f2bb
00000190: b56a bc3c 214c 1ebc 7d8b beb9 0000 0000
000001a0: 0e31 8cbb f9d8 f9bb 9187 e8bb 03d2 aabb
000001b0: c90a 48bb 538c f00f 25b0 13bc 9a4e bf3c
000001c0: 77a9 532e 252b 173d 7de1 4bbc 4eb5 afbb
000001d0: 5c9a 203d b54c 3325 7a7a fa3c 1e0a b4ba
000001e0: b073 17bb ad8b 23bc a0aa ccbb 0000 0000
000001f0: 0d11 213d 5097 c13c 3340 2d3c 3d87 883c
0.002441775 -0.004289428 -0.008796541 -0.008996378 0.0 -0.002517247 0.03368521 -0.015062108
-7.618893e-19 -0.004807428 0.0 0.0 -0.0019798086 -0.0007855111 -0.011693816 0.0
-0.00411445 0.0 0.02269839 -0.0050427094 -0.0070982384 -0.0033344761 0.0333739 -0.007608629
-0.006033947 0.0 -0.008936589 -0.006749725 -0.0035143278 0.015496803 0.0066262595 0.007626241
0.0 -0.0100380285 -0.004410008 0.0 -0.007717145 0.0 0.021302417 0.021901576
9.668955e-35 0.013895266 3.724623e-18 0.020565728 0.02835487 -0.0069015417 0.0 -0.009482997
0.00059246883 0.0 0.0 -0.008126217 -0.016986761 -0.008962852 -0.0043334845 0.0015357151
0.0 0.022033812 0.025945848 -0.008576604 -0.004158051 0.0017447718 0.03258035 -0.007708161
-2.7872127e-05 -0.012375604 0.024024604 -0.0045660743 0.025651325 0.0 0.027029444 -0.008658471
0.0 0.02619969 0.0 0.012238817 0.028238421 0.015893135 -0.013432577 -0.0006261061
0.02196528 -0.007055028 0.03992139 -0.0087742945 -0.0024448868 0.026874628 -0.0071866834 0.023459205
-0.004287372 -0.008299887 -0.008861681 -0.006060083 0.0 0.005449115 -5.006354e-12 -5.90306e-10
-0.013080505 0.008389985 0.023860954 -0.007405619 0.0230001 -0.009661705 -0.0003634355 0.0
-0.0042783087 -0.007624742 -0.007096239 -0.0052130236 -0.0030524007 2.3719878e-29 -0.009014164 0.02335291
4.812636e-11 0.03690638 -0.012443897 -0.0053621894 0.03920971 1.5551764e-16 0.03057598 -0.0013735925
-0.0023109727 -0.009982032 -0.006245926 0.0 0.0393229 0.023631722 0.010574388 0.01666605

action_model._continuous_distribution.log_sigma f4 [1, 2]
00000000: 8d06 013d 8e85 7e3d
0.031500388 0.062139086

action_model._continuous_distribution.mu.weight f4 [2, 128]
00000000: cb4c 113c 42ce 6fbb 8b89 02bc 5e93 08bc
00000010: d45b 3d3b bf04 2c3c 78da 1e3d 9b30 59bb
00000020: fe7a 10bc 48a6 213c 2087 f53c dfe3 463c
00000030: e9b7 09bd f2ee 99bb 8afc 90bc 5206 d8bc
00000040: cea5 38b9 3d6b 05bc 4bc3 f73c a22b f9bc
00000050: 9edb e33c 23eb 4ebc 5602 423d f2a7 2c3b
00000060: 953f 58bc b714 b8bc 6b1c abbc 7fa6 13bc
00000070: bbd7 833b e1b8 043d 8083 d33c f437 a43c
00000080: bf0d a03b b2a3 15bd f200 87ba eefb 2f3c
00000090: 9d9e 1e3c efe7 943c 18c4 153d 034d 383d
000000a0: dc20 99bc 2ce3 a63c 2361 9abb 3c5c f23c
000000b0: d74a 5f3d 3e5d 69bb 9355 02bc a1c9 81bc
000000c0: b6ef f13b b073 383c 7b5b 1bbc ccef 3abb
000000d0: 4d84 64bb 4f7d d7bc 0311 85bb 656d 7bbb
000000e0: c042 4dbc 6c79 403d cf0e 493d b580 a8bb
000000f0: 8e5b fbbb 6ac5 0e3c 1bec ad3c a0fa ccbc
00000100: 2638 803c f939 c7bb a252 283d 07f8 e4bc
00000110: 1049 483d c818 0c3c 43e1 0d3d 26d3 4cbb
00000120: 857b 0f3c 4d3d 483d 28d3 babc e123 3f3d
00000130: 5584 313d 43e9 d63c cbd3 c5b7 4602 a43a
00000140: 87be 4e3d 7064 213a acf8 243d b0f3 26bc
00000150: c26b 033c 2aca 373d 22b3 f4bb 3bdd 193d
00000160: c279 8e3c bee3 84bc ef4f d23b e365 cb3c
00000170: 4814 b4bc 0db1 453c bff1 39bc 900a 523c
00000180: 3ba3 f63b f7c4 e53c 7c50 de3c 7740 a8bc
00000190: 8f92 0a3d dec8 b6bc 2be2 aabc 07d2 48bb
000001a0: a576 4bbb e4b4 34bb 5fa2 73bc 47f5 69bb
000001b0: 6912 e9bb c963 1b3b 8332 0a3c 0da7 463d
000001c0: 1f0f 3cbc 71ea 4a3d 9972 44bc 55b4 f3bb
000001d0: 4c6d 663d 3262 783b cf6a 213d d34a 993b
000001e0: 404c 393b 7936 d7bc 3b10 8bbb ff32 d63c
000001f0: 88be 413d 9c67 033d 2fce fc3c 0abf c23c
00000200: ee3f 883c 7e9a baba 832c 333b c4af 93ba
00000210: c74f d1bc ce77 0bbd 14bc 60bc 9601 c4bb
00000220: e344 44bc 8d68 523c ebd6 0fbd 9a41 71bc
00000230: c052 35b9 f4ea e9bb 1e30 26bd b343 553c
00000240: cf58 5dbc dbac db3c 6fea 04bd cbf7 7bbb
00000250: f3ac dfbb 007f 2cbc 3f98 dbbc e09b de3c
00000260: c2be 21ba c7f4 ed3b 5654 71bc 884b 21bb
00000270: b9e0 3abc c0a3 0fba 90be 903c 3bdb 1cbc
00000280: c87b dabc ddeb cabc 7726 d7bb d3bb 593c
00000290: 514d 243c ab90 aebb 5cf4 9b3b 6e46 0ebd
000002a0: abe7 16bc b7ac ffbc 530d 44bc 6d99 3bbc
000002b0: c434 4cbb c512 bcbb 5f67 2dbc 1b7e 04bc
000002c0: 6329 26bc c551 293b db36 3cbb a1a1 64bc
000002d0: bc51 853a 519e 6ebc 89d5 ae3b df05 ecbc
000002e0: 30d3 ddbb 10d1 3cbd 2356 babc 4260 0f3c
000002f0: bc9a 1e3b a4d9 683c f4eb f3bc 2a51 06bd
00000300: d1a3 1a3c 4fab 4b3c e9db 06bd b85e 663c
00000310: be82 8ebc 0778 3dbc 0b54 35bd a4ee 59bc
00000320: cf65 c5bb 6fd7 98bc 3d02 2ebc 65dd 3b3c
00000330: b71c 02bd 0dce 43bd a6fa b1ba 35d1 43bd
00000340: fcc0 51bc d612 21bd 4a4d 3abd e859 93bc
00000350: fc72 c3bb 8426 b4bc 824c 223c 60be 76bc
00000360: b53d 2b3c 4dcb e0bc d3ad 9f3a 58f1 f43b
00000370: 3b33 5fbc f160 2fbd 9702 cf3b afc9 c139
00000380: 1a2f 593c f574 823c 24e3 06bd c96c 443c
00000390: 2699 f9bc 2bfe 2bbc 94db 4bbc 9c5e bfbb
000003a0: 3f93 9c3c 2abd d5bb 097e 82bc da57 48bc
000003b0: cea7 01bd cb40 c2bc 605c 3b38 8052 0bbb
000003c0: e02d 03bb 7046 c0bc 2c00 703c 871e a6bb
000003d0: 98a9 c6bc 10b3 2f3c 9dc7 56bc d441 86bb
000003e0: 8254 cabb 7a2b 41bc df41 91bb 0a68 f3bc
000003f0: cc3b 29bb 2f98 bfbc 460c 243a 9500 dabb
0.0088684065 -0.0036591445 -0.007967363 -0.008335916 0.0028893845 0.010499178 0.038782567 -0.0033140543
-0.008818386 0.009866305 0.02997166 0.01213929 -0.033622656 -0.004697674 -0.017698545 -0.026370201
-0.00017609374 -0.008143243 0.03024449 -0.030416314 0.027814683 -0.012629303 0.04736551 0.002634522
-0.013198753 -0.022470815 -0.020887574 -0.009011864 0.00402352 0.032402877 0.02581954 0.020046212
0.004884451 -0.036533065 -0.0010299964 0.010741217 0.009681371 0.018177 0.036563963 0.04499532
-0.018692426 0.020371996 -0.0047112866 0.029584996 0.054514732 -0.0035608555 -0.007954973 -0.015843214
0.007383312 0.011258051 -0.00948226 -0.0028524278 -0.0034868896 -0.026304869 -0.004060866 -0.0038364765
-0.0125281215 0.046990797 0.04908639 -0.005142296 -0.0076708263 0.008714059 0.021230748 -0.025021851
0.015651774 -0.006079909 0.04109443 -0.0279503 0.048897803 0.00855083 0.034638654 -0.0031253784
0.008757477 0.048886586 -0.022805765 0.046665076 0.043339092 0.026234275 -2.3582854e-05 0.0012512885
0.05047467 0.0006156629 0.040276214 -0.010189936 0.008021297 0.044870533 -0.0074676434 0.037564497
0.017392043 -0.016221877 0.0064182202 0.024828857 -0.021982327 0.012066138 -0.011349141 0.012819901
0.007526783 0.028048022 0.027137987 -0.020538552 0.033831175 -0.022312578 -0.020859798 -0.0030642764
-0.003104606 -0.002757364 -0.014870255 -0.0035699175 -0.0071127904 0.00237106 0.0084348945 0.048499156
-0.0114782145 0.049539987 -0.011990213 -0.0074372687 0.056256577 0.0037900326 0.0394085 0.004678109
0.0028274208 -0.026271092 -0.004243878 0.026147364 0.047300845 0.03208123 0.030860035 0.023772735
0.016632047 -0.0014236716 0.0027339763 -0.0011267592 -0.025550736 -0.0340498 -0.013716716 -0.0059816344
-0.0119793145 0.01284231 -0.03511707 -0.014725113 -0.00017292332 -0.0071386043 -0.040573232 0.013016629
-0.013509943 0.026815822 -0.032450136 -0.0038447257 -0.006826037 -0.010528326 -0.026805995 0.027173936
-0.0006170088 0.0072618457 -0.01472958 -0.002461167 -0.011406117 -0.0005479418 0.017668992 -0.009573753
-0.026670352 -0.024770672 -0.0065658647 0.01328941 0.010028199 -0.0053273044 0.0047593545 -0.034735136
-0.009210507 -0.031210287 -0.011966067 -0.011450154 -0.003115938 -0.005739542 -0.010583728 -0.0080867065
-0.010141703 0.0025836092 -0.002871922 -0.013954551 0.0010171453 -0.014564113 0.005335514 -0.028811393
-0.0067695603 -0.046097815 -0.022746151 0.008750977 0.0024201116 0.014212046 -0.029775597 -0.032792248
0.009438471 0.01243098 -0.032924566 0.014060669 -0.017396327 -0.011564261 -0.044269603 -0.013301525
-0.0060240994 -0.018657414 -0.010620651 0.011466359 -0.031765666 -0.047803927 -0.0013578727 -0.047806937
-0.012802359 -0.039324604 -0.045483865 -0.017987207 -0.005964635 -0.021991022 0.009905936 -0.015060037
0.010451724 -0.027440691 0.0012182541 0.0074750595 -0.013623054 -0.04281706 0.0063174474 0.00036962095
0.013255859 0.01592491 -0.032931462 0.011988827 -0.030468535 -0.01049761 -0.012442488 -0.0058401357
0.019113181 -0.0065227943 -0.015929239 -0.012227977 -0.03165417 -0.023712536 4.4670305e-05 -0.002125889
-0.0020016357 -0.023471087 0.0146484785 -0.005069557 -0.02425079 0.010723844 -0.013109115 -0.004097203
-0.006174625 -0.011790151 -0.0044329013 -0.029712696 -0.0025822995 -0.023387996 0.00062579324 -0.0066529014

action_model._continuous_distribution.mu.bias f4 [2]
00000000: a85b 5d3c 16a3 03bc
0.013510622 -0.008034488

action_model._discrete_distribution.branches.0.weight f4 [1, 128]
00000000: e24f 18bb b44f a53a 630c d2ba 3398 d4b9
00000010: 6c36 9e3b 03a1 133c 3c8d 88bc 935f 05bc
00000020: 9fca 813b 0539 bbbb 8365 833b 8e62 2abb
00000030: 02fe af3b 6914 19bb bab0 87b9 6bfb 953b
00000040: 53a7 9f3b 038d cebb 16dd 26bb 2f16 e7bb
00000050: 5521 e2bb af6c 42bc 9b88 debb efa1 29bc
00000060: b3c8 71bc bbb2 f93b 4651 3bbc 4319 993a
00000070: ab83 96bb 0bea 92bb 57da 5d3b bb33 e8bb
00000080: 9718 0d3c c781 843c 246b 82bb efd0 2fbc
00000090: 3fa7 c0bc bf25 e038 afa1 5bbc 02d4 69bb
000000a0: 7bfc 853b eba7 1a3b 607b 5e3c d278 13bc
000000b0: 900b 933b f799 c739 8f23 253c 7b62 fc39
000000c0: bedb 4bbb e66d a43c 3357 033c 9fa7 b83b
000000d0: 3ce4 103c 688c bd3b 2371 56bc b584 5c3b
000000e0: d7f7 d6bb 0b04 e93b 185d 263c 4af1 563b
000000f0: 23e8 c03c 22a3 553b 6703 d0bc 4312 523b
00000100: 823f fe3b 1d03 5d3b 4a5d 98bc c393 023b
00000110: 304b 713b c3fa 2d3b 90aa e1bb 307a 5cbc
00000120: 0b37 b8bc e35c e7bb 754d a93b cf21 4ebc
00000130: 4119 45ba b599 ffba 025b 8a3c 90bf b6bb
00000140: 03b9 96bb 8abb 0b3c d88f 6c3b 0f8d 9a3b
00000150: 0527 fc3a d542 423a 3d14 beba 9f2b a3bb
00000160: 08ad e5bb b022 d23a 43a3 86bc bb46 15bb
00000170: 3b80 34bc 5221 27ba e73a 373a 6783 cb3b
00000180: 037c b3ba 1a2e 873b bab1 b33b 1b38 58bb
00000190: 0bc3 5b39 2389 243b ffa0 cebc 8d62 65bb
000001a0: e398 7938 9a59 a4bb 6514 d9bb b81d 92bb
000001b0: 9f39 183b 98d6 d2bb 6f8b 25bc ffdc 70ba
000001c0: d5d1 6bbc 5fe3 623b 8f92 11bc f7e0 4cbb
000001d0: e46f 84bc c11a 47bb 5d70 873c a7ad ef3a
000001e0: 7e85 81bb 7c3e 203a 62a0 573c 739e 33bc
000001f0: e2df 5dbc 8fec f93b 2a7c 95bb 97a0 bc3b
-0.0023240973 0.0012612254 -0.001602542 -0.00040549188 0.004828265 0.009010556 -0.016668908 -0.008140462
0.003960922 -0.0057135844 0.004009904 -0.0025998685 0.0053708563 -0.0023358113 -0.00025880878 0.0045770905
0.0048722415 -0.006303431 -0.0025461367 -0.007052205 -0.006900946 -0.0118667325 -0.006791187 -0.010353549
-0.014757323 0.0076201833 -0.011432951 0.0011680502 -0.0045933328 -0.0044834665 0.0033852065 -0.007086245
0.00861182 0.016175164 -0.0039800573 -0.010730966 -0.02351725 0.00010688183 -0.013405248 -0.0035679345
0.004088936 0.0023598622 0.01357922 -0.009000974 0.0044874623 0.0003807095 0.010079279 0.0004813856
-0.0031106318 0.020071935 0.008016395 0.0056352164 0.008843478 0.00578456 -0.013088497 0.0033648435
-0.0065603065 0.0071110777 0.010154031 0.0032797628 0.023548191 0.0032598455 -0.025392247 0.0032054342
0.0077590356 0.003372378 -0.018599171 0.0019924499 0.0036818497 0.002654717 -0.0068867877 -0.013456866
-0.022487184 -0.0070606335 0.0051667043 -0.012581303 -0.0007518717 -0.0019500764 0.016889099 -0.0055770352
-0.004599692 0.0085285995 0.003609648 0.0047165225 0.0019237703 0.00074104714 -0.0014501881 -0.0049795653
-0.0070091523 0.0016032066 -0.016435271 -0.0022777754 -0.011016901 -0.00063755095 0.0006989673 0.0062107327
-0.0013693575 0.004125369 0.005483833 -0.0032992426 0.00020958127 0.0025106154 -0.025223253 -0.0035001368
5.9508613e-05 -0.005015564 -0.0066247457 -0.004459109 0.0023227704 -0.006434273 -0.010104044 -0.00091882044
-0.01439329 0.0034620387 -0.00888504 -0.003126202 -0.016166635 -0.0030380937 0.016533071 0.0018286005
-0.003952681 0.00061128265 0.013160797 -0.01096307 -0.013542147 0.007627077 -0.0045619207 0.0057564485

exp_avg f4 [128, 10]
00000000: 9be2 4c8c 1ed7 498b fa61 9c8c 65c3 158a
00000010: 27dd 2a89 9818 0588 9c9b 2988 c189 4708
00000020: 0000 0000 0000 0000 a158 80bb a0e0 7cba
00000030: ecec c3bb b980 b1bb b7ed 0cb9 9923 a93b
00000040: a7c0 0334 67b8 9034 0000 0000 0000 0000
00000050: 0000 0000 0000 0000 0000 0000 0000 0000
00000060: 0000 0000 0000 0000 0000 0000 0000 0000
00000070: 0000 0000 0000 0000 7033 7bba b577 77b9
00000080: ebbb bfba 4fd3 cfba 8932 11b7 299d c73a
00000090: abdc 90b4 ac48 b931 0000 0000 0000 0000
000000a0: c452 7dbb f18e 79ba 9d5a c1bb c80d bebb
000000b0: 5274 bdb8 47c9 b53b 85ba d9b4 31ff 2d34
000000c0: 0000 0000 0000 0000 2989 babb 78c3 b7ba
000000d0: 8e60 0ebc 72b2 06bc 56f6 29b9 959d 003c
000000e0: 5ac9 7bb4 ac20 a334 0000 0000 0000 0000
000000f0: a884 0cbc 096e 0abb b281 56bc 7d80 45bc
00000100: d631 92b9 6356 3c3c 87d7 9c33 d22d 1535
00000110: 0000 0000 0000 0000 1971 ecba 87ed e8b9
00000120: 0778 34bb df8d 32bb 07a0 2db8 a8d6 2a3b
00000130: 9c54 4cb4 3608 6b33 0000 0000 0000 0000
00000140: 94fb d6b0 a3c9 d3af fa16 24b1 16ac 66b1
00000150: e4f4 05ad 49d5 5e31 92fa 482a d561 57a9
00000160: 0000 0000 0000 0000 0940 65b9 d3d7 61b8
00000170: d3fa aeb9 d423 e5b9 ca97 c636 d8ab dd39
00000180: db7c 2cb4 7546 aeb2 0000 0000 0000 0000
00000190: 2e9b eeb7 5b0f ebb6 ed1e 36b8 1920 b2b7
000001a0: 7c25 42b5 b9db a437 e2e3 8f30 310e 14b2
000001b0: 0000 0000 0000 0000 0400 0000 0400 0000
000001c0: 0400 0000 0400 0080 0400 0000 0400 0080
000001d0: 0400 0000 0400 0000 0000 0000 0000 0000
000001e0: b665 013a cff2 fe38 b687 453a fb0a 4e3a
000001f0: 3d25 de36 129a 45ba 400a fe33 8543 7ab2
00000200: 0000 0000 0000 0000 dc15 dc34 88d0 d833
00000210: 0cfc 2735 f62e 1733 2689 9d31 cb4d 75b2
00000220: 9a79 5c30 b88b 2db0 0000 0000 0000 0000
00000230: 13ad 8fbb 708a 8dba c653 dbbb 0413 d0bb
00000240: 53fc 01b9 c4b3 c63b ebb6 4cb4 814f 7834
00000250: 0000 0000 0000 0000 ec29 82ba ae3a 80b9
00000260: 35b3 c6ba 48ad bbba 964a e6b7 1135 b33a
00000270: 5d17 51b3 4ed6 4b33 0000 0000 0000 0000
00000280: fe8b 1480 730f 0580 935d 1f80 7d38 0880
00000290: 522e 0080 eb57 0f80 1101 0000 3a03 0080
000002a0: 0000 0000 0000 0000 e964 3e11 8d90 3b10
000002b0: 8752 9111 24a4 4112 ff80 110d cacb a891
000002c0: 8d84 2a8a 8640 b589 0000 0000 0000 0000
000002d0: ff4f c534 4e61 c233 449a 1635 f26a 7731
000002e0: db2d af31 ab3b 6f32 7c21 9e30 5dff 83b0
000002f0: 0000 0000 0000 0000 eb96 99bb 924e 97ba
00000300: df75 eabb 6196 e0bb d68e 04b9 1391 d63b
00000310: e809 95b4 bc61 7734 0000 0000 0000 0000
00000320: 2f7c 4391 7294 4090 3435 9591 5782 128f
00000330: 5026 288e d275 9b8c cc62 2c8d 690d 3e0d
00000340: 0000 0000 0000 0000 a8b3 e6ba ec45 e3b9
00000350: 7316 30bb b3d9 28bb 8d2f 49b8 8151 213b
00000360: fb2d d7b3 6ad7 c533 0000 0000 0000 0000
00000370: c9ba 75bb e013 72ba d68e bbbb ec40 bcbb
00000380: d5f1 9eb8 d83b b43b cda1 0fb5 0152 fb33
00000390: 0000 0000 0000 0000 58d2 189f eb8c 169e
000003a0: cc49 699f 296e e29c 508f fe9b b0db 9a9a
000003b0: bf91 f99a e729 101b 0000 0000 0000 0000
000003c0: 21d1 54bb 70a7 51ba c96f a2bb ce25 94bb
000003d0: e9f4 e9b8 d733 8d3b f1cc d733 6e84 7a34
000003e0: 0000 0000 0000 0000 8762 91bb 6239 8fba
000003f0: 8bef ddbb a403 dabb e452 dbb8 a986 d03b
-1.578378e-31 -3.8873028e-32 -2.4094573e-31 -7.210839e-33 -2.0566991e-33 -4.005214e-34 -5.1039506e-34 6.0046313e-34
0.0 0.0 -0.0039168154 -0.0009646509 -0.005979171 -0.0054169563 -0.00013439996 0.0051617143
1.2270412e-07 2.695626e-07 0.0 0.0 0.0 0.0 0.0 0.0
0.0 0.0 0.0 0.0 0.0 0.0 -0.0009582555 -0.0002360035
-0.0014628147 -0.0015855822 -8.65444e-06 0.0015229332 -2.6982647e-07 5.3924705e-09 0.0 0.0
-0.0038654068 -0.0009519896 -0.0059006945 -0.0057999827 -9.033889e-05 0.005547676 -4.055511e-07 1.6204719e-07
0.0 0.0 -0.0056926203 -0.0014020046 -0.008690013 -0.008221256 -0.00016208863 0.0078500705
-2.3449448e-07 3.0384888e-07 0.0 0.0 -0.00857655 -0.0021122715 -0.013092445 -0.01205456
-0.0002788442 0.011495206 7.30352e-08 5.55735e-07 0.0 0.0 -0.0018039077 -0.0004442746
-0.0027537362 -0.0027245206 -4.139545e-05 0.0026067887 -1.9029761e-07 5.472267e-08 0.0 0.0
-1.5642052e-09 -3.8523948e-10 -2.3878202e-09 -3.3567225e-09 -7.614551e-12 3.242649e-09 1.7850502e-13 -4.7824446e-14
0.0 0.0 -0.00021862997 -5.3845182e-05 -0.00033374745 -0.00043704978 5.9185304e-06 0.00042280438
-1.606417e-07 -2.0288306e-08 0.0 0.0 -2.8444072e-05 -7.0053334e-06 -4.3420983e-05 -2.12342e-05
-7.232518e-07 1.965264e-05 1.0469388e-09 -8.617961e-09 0.0 0.0 6e-45 6e-45
6e-45 -6e-45 6e-45 -6e-45 6e-45 6e-45 0.0 0.0
0.00049361156 0.000121568904 0.0007535176 0.00078599126 6.6204507e-06 -0.0007537912 1.1829661e-07 -1.4567267e-08
0.0 0.0 4.0994098e-07 1.00962154e-07 6.2579124e-07 3.5200138e-08 4.5848934e-09 -1.4278565e-08
8.020834e-10 -6.3135586e-10 0.0 0.0 -0.0043846457 -0.0010798704 -0.006693336 -0.006349923
-0.00012396397 0.00606391 -1.9065526e-07 2.3125723e-07 0.0 0.0 -0.0009930707 -0.00024457782
-0.0015159609 -0.001431861 -2.7452868e-05 0.0013672431 -4.8682853e-08 4.745953e-08 0.0 0.0
-1.88693e-39 -4.6472e-40 -2.880468e-39 -7.54948e-40 -1.6617e-41 -1.409071e-39 3.83e-43 -1.157e-42
0.0 0.0 1.5019453e-28 3.6990605e-29 2.2927828e-28 6.110238e-28 4.483685e-31 -2.663132e-28
-8.210132e-33 -4.3634843e-33 0.0 0.0 3.6752314e-07 9.0515286e-08 5.610384e-07 3.6004022e-09
5.0983835e-09 1.3925198e-08 1.150553e-09 -9.604083e-10 0.0 0.0 -0.0046871803 -0.0011543802
-0.0071551646 -0.006853864 -0.00012641712 0.006548056 -2.776062e-07 2.3039223e-07 0.0 0.0
-1.5421055e-28 -3.7979682e-29 -2.3540844e-28 -7.223458e-30 -2.0726046e-30 -2.3952442e-31 -5.3120514e-31 5.856441e-31
0.0 0.0 -0.0017601149 -0.0004334891 -0.002686885 -0.0025764524 -4.796642e-05 0.002461523
-1.00200815e-07 9.212711e-08 0.0 0.0 -0.0037495366 -0.0009234529 -0.0057238145 -0.005745044
-7.579072e-05 0.005500298 -5.35071e-07 1.1703015e-07 0.0 0.0 -3.2361244e-20 -7.970075e-21
-4.9400713e-20 -1.4983901e-21 -4.2113389e-22 -6.404783e-23 -1.0321945e-22 1.192494e-22 0.0 0.0
-0.0032473283 -0.00079976674 -0.0049571735 -0.004521108 -0.00011155924 0.0043091583 1.0048996e-07 2.3331242e-07
0.0 0.0 -0.004436794 -0.0010927136 -0.0067729405 -0.006653266 -0.00010458173 0.006363709

exp_avg_sq f4 [128, 10]
00000000: 6fe6 4f3a 34c4 4938 a33c f23a 7d01 bf3a
00000010: 9a19 fe33 ab36 a939 0b17 922d b907 fc2c
00000020: 0000 0000 0000 0000 4d67 a13d 44a4 9c3b
00000030: 9f0f 3c3e 1688 983d c9a9 9f38 ecdd 4b3d
00000040: a1b9 bd32 d42d 1233 0000 0000 0000 0000
00000050: 0000 0000 0000 0000 0000 0000 0000 0000
00000060: 0000 0000 0000 0000 0000 0000 0000 0000
00000070: 0000 0000 0000 0000 c010 003d e492 f83a
00000080: 6e37 953d 283c b23c bc94 1d37 e3bf 563c
00000090: c4a6 a131 a31a c831 0000 0000 0000 0000
000000a0: 4846 9f3d 5093 9a3b 9194 393e cc82 bc3d
000000b0: e892 ad38 f10f 403d 07a0 9932 3fb4 cf32
000000c0: 0000 0000 0000 0000 73be 0d3e e38f 093c
000000d0: 9427 a53e 2f28 273e 3a3a a538 56ed db3d
000000e0: 35bf d932 53e8 0933 0000 0000 0000 0000
000000f0: e8be 9b3e 9626 973c 1178 353f 62ba 9b3e
00000100: f530 5139 5453 5c3e 4a5b 9333 af98 b433
00000110: 0000 0000 0000 0000 6eaa d93c 813e d33a
00000120: a59d 7d3d 2c70 ac3c 6e24 0b37 10b3 3b3c
00000130: 1c58 6831 956e 5131 0000 0000 0000 0000
00000140: 5be9 8e3b f1b1 8a39 cc83 263c 23a8 113d
00000150: 7c47 3337 eda2 353b 9f1e 2e2e b629 762e
00000160: 0000 0000 0000 0000 1d2b f33b 91fe eb39
00000170: 53aa 8d3c ce2c 4c3d ba26 9737 0720 a03b
00000180: b2df fb2e 4585 aa2f 0000 0000 0000 0000
00000190: 43c2 4b3d 48bf 453b 7969 ed3d 5830 a03c
000001a0: 4bd3 c737 a074 4b3c 0f09 4932 6a68 6c32
000001b0: 0000 0000 0000 0000 330c 4022 b461 3a20
000001c0: 2dc4 df22 de2e 5323 22a9 281a 4ae1 5423
000001d0: b47a 5b0c f07e 9d0b 0000 0000 0000 0000
000001e0: f2ad 683d 99d0 613b f58d 073e 0843 913c
000001f0: 292f 8837 8b42 813c 58eb 1e32 d43d 4832
00000200: 0000 0000 0000 0000 48ac e13c df03 db3a
00000210: 1579 833d d6f6 f83b 80fa 9636 524b 8b3b
00000220: f42b 2032 751a 5432 0000 0000 0000 0000
00000230: 50f9 b43d 7aa2 af3b 18dd 523e 1e9b e03d
00000240: 0337 9738 7991 873d f2d4 0033 a9ec 2433
00000250: 0000 0000 0000 0000 5089 243e 84ae 1f3c
00000260: f6b5 bf3e 6f43 a13d 0817 f437 a6dc 3d3d
00000270: a1e9 4132 696d 5f32 0000 0000 0000 0000
00000280: b65a 1d3b 37b6 1839 cb57 b73b c12e e039
00000290: 39c5 d635 3581 a23a 9cb8 ae30 0dc9 f22f
000002a0: 0000 0000 0000 0000 bbf6 9f38 7e3e 9b36
000002b0: 2662 3a39 a8af a53a 61a6 9730 c670 7c39
000002c0: a8be b82a 6404 ac2a 0000 0000 0000 0000
000002d0: dc60 1b3d 44cb 163b 640a b53d 77ef 593c
000002e0: f64b 4836 f84f 3e3c 1f52 1e32 feaa 7032
000002f0: 0000 0000 0000 0000 08cc d23d f993 cc3b
00000300: d69c 753e dadf 133e 52db 9938 7a85 b73d
00000310: 5fb8 ca32 e8a0 1133 0000 0000 0000 0000
00000320: 315f 033a f5fd fe37 c411 993a 5484 e339
00000330: d1ff 3334 1a20 8439 5bdf 672f 29f2 782e
00000340: 0000 0000 0000 0000 8efb f43b 42c1 ed39
00000350: d5b8 8e3c 8c58 2a3c b4bf 1c37 3bfc ce3b
00000360: ecdf 6531 68e7 8731 0000 0000 0000 0000
00000370: 74de ca3d 3ee2 c43b fc5f 6c3e 977d c83d
00000380: f5b6 9538 b875 8f3d ecde 0833 d0c0 3233
00000390: 0000 0000 0000 0000 f8f9 513a 1ec8 4b38
000003a0: 07a8 f43a f665 c23a bd45 cd33 cc8f c339
000003b0: 431a 532f 07cd b32e 0000 0000 0000 0000
000003c0: cf4f 1f3e 919c 1a3c c49f b93e 4c61 8e3d
000003d0: 74d4 df37 ff24 573d a090 5632 af3e 6132
000003e0: 0000 0000 0000 0000 b64e e43d 5192 dd3b
000003f0: e201 853e 5fcd 0b3e a8af 5a38 2d0b be3d
0.00079307606 4.8104863e-05 0.0018481206 0.0014572587 1.18324536e-07 0.00032274923 1.6608511e-11 7.163128e-12
0.0 0.0 0.07881031 0.004780324 0.18365334 0.07447831 7.613336e-05 0.049772188
2.208691e-08 3.4034954e-08 0.0 0.0 0.0 0.0 0.0 0.0
0.0 0.0 0.0 0.0 0.0 0.0 0.031265974 0.0018964675
0.07285963 0.0217572 9.392559e-06 0.013107273 4.7046758e-09 5.8237943e-09 0.0 0.0
0.07777077 0.004717268 0.1812308 0.09204635 8.276646e-05 0.046890203 1.7884316e-08 2.4179938e-08
0.0 0.0 0.13842182 0.008396122 0.32256758 0.16323923 7.878659e-05 0.107386276
2.5349076e-08 3.2109096e-08 0.0 0.0 0.30419087 0.018451016 0.7088633 0.30415636
0.00019950031 0.21516162 6.861826e-08 8.409676e-08 0.0 0.0 0.026570525 0.001611665
0.06191792 0.021049581 8.293528e-06 0.011456266 3.3810528e-09 3.0476361e-09 0.0 0.0
0.0043613142 0.00026453988 0.010163259 0.03556074 1.0685875e-05 0.002771552 3.9590217e-11 5.597097e-11
0.0 0.0 0.007420911 0.0004501236 0.017293131 0.049847417 1.8018636e-05 0.0048866305
1.1453895e-10 3.1017514e-10 0.0 0.0 0.04974581 0.0030173827 0.11592383 0.019554302
2.382104e-05 0.012417942 1.17017995e-08 1.3760749e-08 0.0 0.0 2.602731e-18 1.578714e-19
6.065198e-18 1.14482574e-17 3.487821e-23 1.154025e-17 1.6908071e-31 6.0665195e-32 0.0 0.0
0.056806512 0.003445661 0.13237746 0.017732158 1.6234424e-05 0.0157788 9.250321e-09 1.165559e-08
0.0 0.0 0.02754797 0.0016709528 0.06419579 0.0075977845 4.4995104e-06 0.0042509222
9.3232195e-09 1.234604e-08 0.0 0.0 0.08836615 0.005359945 0.20592153 0.10967086
7.210488e-05 0.066195436 2.9995995e-08 3.8399467e-08 0.0 0.0 0.16068006 0.009746198
0.37443513 0.0787419 2.9097791e-05 0.046353005 1.12872e-08 1.3005185e-08 0.0 0.0
0.0024010367 0.0001456373 0.0055951825 0.00042759444 1.6001642e-06 0.0012398126 1.2712635e-09 4.41624e-10
0.0 0.0 7.627668e-05 4.626635e-06 0.00017774905 0.0012640851 1.1033984e-09 0.00024074604
3.281726e-13 3.0556384e-13 0.0 0.0 0.03793417 0.002300934 0.088398725 0.013301722
2.9846537e-06 0.011615746 9.215483e-09 1.4008718e-08 0.0 0.0 0.10292822 0.0062432257
0.2398561 0.14440861 7.33646e-05 0.089610055 2.3599737e-08 3.3906787e-08 0.0 0.0
0.0005011438 3.0397418e-05 0.0011678268 0.00043395406 1.676374e-07 0.0002520092 2.108868e-10 5.6603753e-11
0.0 0.0 0.0074762767 0.0004534815 0.01742212 0.010397088 9.342959e-06 0.0063166893
3.345117e-09 3.955325e-09 0.0 0.0 0.09905711 0.0060084155 0.2308349 0.09789579
7.138952e-05 0.07004875 3.1867714e-08 4.1619217e-08 0.0 0.0 0.00080099655 4.8585345e-05
0.0018665799 0.0014831412 9.558742e-08 0.00037300435 1.9199668e-10 8.176398e-11 0.0 0.0
0.15557788 0.009436742 0.36254704 0.06952152 2.6682603e-05 0.052525517 1.2489323e-08 1.3110976e-08
0.0 0.0 0.111478254 0.006761827 0.25978 0.13652562 5.2138843e-05 0.09279475

exp_avg f4 [128]
00000000: 60b8 de87 c384 0bb7 0000 0000 ac88 08b6
00000010: f8af 09b7 09c6 4ab7 0cc0 98b7 0b83 80b6
00000020: 5cb2 69ac c634 f9b4 33b0 81b3 0400 0000
00000030: 45a9 8c35 5d3e 6f30 d62e 1cb7 8a7e 0db6
00000040: 2a0b 0080 dff7 ce0c 047d 5630 95f5 26b7
00000050: 7580 d48c bac8 7ab6 5f8f 05b7 e51f a69a
00000060: a657 e7b6 5c0a 1eb7 693c 14ae 61a8 5835
00000070: 0400 0000 ee13 f0b6 0000 0000 ca99 3fb7
00000080: 0000 0000 8312 5baa 69e8 a7b6 0400 0000
00000090: 90c1 c489 83f5 f7b6 1577 2cb7 b07a 43b6
000000a0: ccce 4fb7 0000 0000 addb 04b7 0f5c f2b6
000000b0: 551b 08b7 1d2f 11b7 e815 1fb7 defa cdb6
000000c0: ea29 ad34 c694 59b7 9baf c82d 3100 0000
000000d0: d0bf 85b2 04c8 c7b6 2243 1fb7 97e5 c935
000000e0: 3e5e e6b6 7e23 c8b6 0400 0080 6601 0080
000000f0: c8c0 4e35 dec4 02b7 0400 0080 31f3 a3b6
00000100: 75e5 d0b6 0000 0000 a381 36b7 2d3d 42b7
00000110: 73e6 a0b6 b69d 2736 dbb8 df0b 0400 0000
00000120: 0eee d1b5 3e03 0080 b2ca c2b6 3edc 27b7
00000130: 0400 0000 195f ee2d e300 0080 0000 0000
00000140: 0400 0000 2fbc f2b6 e3df 92b6 0400 0000
00000150: f0c7 f2b6 8d77 bf20 2f67 47b7 0ee1 e1b6
00000160: 0087 03b7 f1c2 0035 94c2 f9b6 0400 0000
00000170: 7f92 560c b700 0000 2c27 44b7 1f73 18b7
00000180: 0000 0000 1574 e2b5 0400 0000 604a 9bb6
00000190: f0aa bfb6 1ee7 52b7 7138 67b6 380d 0000
000001a0: 0000 0000 f770 03b7 0400 0080 ba2a c335
000001b0: 0000 0000 97a9 afb3 6ebd 90b6 11f2 d2b6
000001c0: 0993 15a5 30c6 8134 9030 98af 92e5 f3b6
000001d0: 0400 0000 8ba2 1db7 e736 b9af 0400 0080
000001e0: b585 8ab6 0f00 0000 97f7 b6b3 0000 0000
000001f0: a0d4 0f35 f4a7 1536 0400 0000 f986 f632
-3.3511213e-34 -8.315957e-06 0.0 -2.0345133e-06 -8.206807e-06 -1.2086247e-05 -1.820924e-05 -3.8299527e-06
-3.32103e-12 -4.6418262e-07 -6.039081e-08 6e-45 1.0480077e-06 8.7036317e-10 -9.309229e-06 -2.1084293e-06
-4.005e-42 3.1888507e-31 7.8030404e-10 -9.95155e-06 -3.2741084e-31 -3.7369741e-06 -7.960799e-06 -6.870752e-23
-6.89454e-06 -9.419946e-06 -3.370496e-11 8.0711294e-07 6e-45 -7.1548775e-06 0.0 -1.1420294e-05
0.0 -1.945753e-13 -5.004044e-06 6e-45 -4.736731e-33 -7.389755e-06 -1.0279725e-05 -2.9128678e-06
-1.238631e-05 0.0 -7.91896e-06 -7.222879e-06 -8.112595e-06 -8.653643e-06 -9.482239e-06 -6.138681e-06
3.2254258e-07 -1.2968847e-05 2.2815352e-11 6.9e-44 -1.5570464e-08 -5.953947e-06 -9.492769e-06 1.5042486e-06
-6.8655054e-06 -5.9645963e-06 -6e-45 -5.02e-43 7.7021514e-07 -7.7944405e-06 -6e-45 -4.8860898e-06
-6.2255954e-06 0.0 -1.0878229e-05 -1.1577545e-05 -4.7951994e-06 2.497674e-06 8.6174615e-32 6e-45
-1.5640996e-06 -1.163e-42 -5.8052474e-06 -1.0005255e-05 6e-45 2.70997e-11 -3.18e-43 0.0
6e-45 -7.2340695e-06 -4.377203e-06 6e-45 -7.235438e-06 3.243577e-19 -1.1885349e-05 -6.7317224e-06
-7.839641e-06 4.7967393e-07 -7.44343e-06 6e-45 1.6530045e-31 2.56e-43 -1.1691631e-05 -9.08671e-06
0.0 -1.6872096e-06 6e-45 -4.6280184e-06 -5.7121433e-06 -1.2570787e-05 -3.4454536e-06 4.742e-42
0.0 -7.83451e-06 -6e-45 1.4541067e-06 0.0 -8.179921e-08 -4.313587e-06 -6.286668e-06
-1.2973507e-16 2.4172323e-07 -2.7683145e-10 -7.26869e-06 6e-45 -9.395774e-06 -3.3690314e-10 -6e-45
-4.128286e-06 2.1e-44 -8.520072e-08 0.0 5.358106e-07 2.2300492e-06 6e-45 2.8699548e-08

exp_avg_sq f4 [128]
00000000: 8eab 7531 f8b9 be34 0000 0000 d554 1734
00000010: ef35 bc34 d97e 2735 730a b835 ee9a 0034
00000020: ffdf a832 52ac 0f33 e4c6 7034 30f0 6219
00000030: ca79 8934 1956 0534 3dda d534 a06d 4235
00000040: fbf0 3932 6706 bd2f 529b 3734 fc17 f934
00000050: 2b3d 1b31 b5be 1033 aab9 ef34 be1f 7831
00000060: 4a41 3c35 7de4 0635 d494 7733 75bd bc34
00000070: bf49 4133 5baa 9634 0000 0000 8e76 0035
00000080: 0000 0000 a36a f031 2ef5 9c34 e8ed 512e
00000090: ee29 3033 1de5 3835 840f 3f34 1cd4 cf32
000000a0: 00dc 1835 0000 0000 e458 c434 8703 5d34
000000b0: 1cf0 0835 48ef d834 909b d434 e345 1634
000000c0: ebfb 3333 d1d7 8834 d762 3133 cbde 9d31
000000d0: 6678 9f32 7c6b d933 1c88 3834 48b1 0234
000000e0: ec3e c034 fe35 3d34 dc43 7c31 eb75 ff2e
000000f0: e8c9 0135 1b94 b434 317d 0631 faa3 2934
00000100: 4473 cb34 0000 0000 4476 6235 3918 8935
00000110: 4179 3d34 8db8 8734 10d0 692e 28a3 db31
00000120: 6b47 3632 2492 1030 63eb 6f33 619d 2e35
00000130: 3401 3204 76bb 6b33 51dc 7b31 0000 0000
00000140: 1641 4232 3232 1735 6f04 8e34 0adf 8131
00000150: 69ab 4b34 525a 0033 f70b 8c35 f8f8 1234
00000160: 0505 2f34 3417 a134 70a0 3734 0db7 1431
00000170: 54b4 0030 5ad9 3a2f 2261 bd34 5e47 d834
00000180: 0000 0000 b098 7333 017a f232 5ba4 b034
00000190: ef7e d633 80e3 2e35 215d d332 2008 3f33
000001a0: 0000 0000 a755 b733 a162 1032 1a43 1833
000001b0: 0000 0000 5fe0 1635 5f46 0833 0b5c b134
000001c0: 4977 a130 b21f b133 3b78 0435 81a4 3034
000001d0: 450a 8331 8f2e 4035 93b7 3934 0000 0000
000001e0: 8501 e633 a1b2 3832 a59b 9734 0000 0000
000001f0: 9f1c 9633 9d5e 6233 971a 7332 baf5 1934
3.574971e-09 3.5525568e-07 0.0 1.4093833e-07 3.505697e-07 6.2396936e-07 1.3712109e-06 1.1977292e-07
1.9659636e-08 3.3451506e-08 2.2424098e-07 1.1732432e-23 2.5606852e-07 1.2417912e-07 3.983313e-07 7.243016e-07
1.082321e-08 3.438345e-10 1.7099708e-07 4.6397315e-07 2.2590239e-09 3.370106e-08 4.4652307e-07 3.6106793e-09
7.0130466e-07 5.0251384e-07 5.7644527e-08 3.5155577e-07 4.5003386e-08 2.8063627e-07 0.0 4.7856236e-07
0.0 6.9970425e-09 2.9235656e-07 4.77324e-11 4.1016328e-08 6.8878745e-07 1.7793906e-07 2.4194428e-08
5.6944555e-07 0.0 3.657252e-07 2.0583512e-07 5.1013353e-07 4.0407235e-07 3.9601264e-07 1.3995263e-07
4.1905803e-08 2.5489e-07 4.130092e-08 4.59463e-09 1.8564787e-08 1.0124401e-07 1.7185852e-07 1.2171688e-07
3.5808569e-07 1.7621639e-07 3.67094e-09 1.1617004e-10 4.8350057e-07 3.3635374e-07 1.957073e-09 1.5799006e-07
3.7895563e-07 0.0 8.436366e-07 1.0214345e-06 1.7646109e-07 2.5279988e-07 5.3162863e-11 6.3922876e-09
1.0610033e-08 5.2594573e-10 5.5860607e-08 6.504907e-07 2.0924352e-36 5.4885696e-08 3.6650543e-09 0.0
1.1307085e-08 5.632493e-07 2.6452787e-07 3.7797507e-09 1.8968207e-07 2.988447e-08 1.0434295e-06 1.3687884e-07
1.6299971e-07 3.000547e-07 1.710157e-07 2.1640887e-09 4.682239e-10 1.699382e-10 3.5274667e-07 4.0285062e-07
0.0 5.6716715e-08 2.8227989e-08 3.290214e-07 9.9882406e-08 6.515111e-07 2.4605983e-08 4.4478043e-08
0.0 8.5371816e-08 8.404329e-09 3.5451286e-08 0.0 5.620586e-07 3.172897e-08 3.303579e-07
1.1748195e-09 8.24797e-08 4.934879e-07 1.6451123e-07 3.8137693e-09 7.1593325e-07 1.7296252e-07 0.0
1.0710486e-07 1.0750825e-08 2.8239188e-07 0.0 6.9901255e-08 5.2705776e-08 1.4150507e-08 1.433863e-07
