Assets/results/VikramRover1/VikramRover/VikramRover-1653.onnx (onnx, 80301 bytes, 8 tensors)

network_body._body_endoder.seq_layers.0.weight f4 [128, 10]
0	0xbd944f55	-0.07241694
1	0xbf606846	-0.8765911
2	0xbdfa52e1	-0.12222839
3	0x3e4e9b4a	0.20176426
4	0xbe192234	-0.14954454
5	0xbaab2c84	-0.0013059531
6	0x3e2044fc	0.15651315
7	0x3c650905	0.013979201
8	0xbee00741	-0.43755534
9	0x3db88640	0.09009981
10	0xbdd3558b	-0.103190504
11	0xbed7cd4b	-0.42148814
12	0x3f3be6f4	0.7339928
13	0x3e832e05	0.25621048
14	0xbd24c72d	-0.04022901
15	0x3e9e597e	0.30927652
16	0xbd1bfd6d	-0.038083483
17	0xbef26459	-0.47342184
18	0xbeabaf2f	-0.33532092
19	0xbe967fb6	-0.2939431
20	0xbcded3ae	-0.027200546
21	0xbdfea54d	-0.12433872
22	0xbf02c20e	-0.51077354
23	0xbf1462dc	-0.5796335
24	0xbe8601d3	-0.26173267
25	0x3e3105ed	0.17287417
26	0xbc8acf22	-0.016944472
27	0x3df69e95	0.12041966
28	0x3e4ac299	0.19800796
29	0xbe6a1e57	-0.22863136
30	0xbe66816e	-0.22510311
31	0xbe84fb10	-0.25972795
32	0x3d9097b5	0.07060186
33	0xbe9d5aed	-0.30733433
34	0xbe01311d	-0.12616391
35	0x3edbb5d9	0.42912176
36	0x3eb70ec6	0.3575346
37	0x3ce8838f	0.028383045
38	0x3e83bedd	0.25731555
39	0x3d41be9f	0.04730093
40	0x3e8ff7a3	0.2811862
41	0xbe66a19f	-0.22522591
42	0x3d264e47	0.040601995
43	0x3df55353	0.119787835
44	0xbe2c5fc0	-0.168334
45	0x3ed4aa7a	0.41536313
46	0x3df28e43	0.118435405
47	0xbd514a55	-0.05109628
48	0xbd005462	-0.031330474
49	0x3e53221e	0.20618483
50	0xbe6979a8	-0.22800314
51	0xbe353281	-0.17695047
52	0x3f2654bf	0.6497306
53	0x3ec1b42e	0.3783278
54	0xbe319120	-0.17340517
55	0x3dcbf0cd	0.099580385
56	0x3c4f7ee3	0.0126645295
57	0xbf3eaa8e	-0.74478996
58	0xbebfcc81	-0.37460712
59	0xbf0fcb3e	-0.561695
60	0xbcc9677d	-0.02458548
61	0xbd062f5a	-0.03276
62	0xbd1f1aab	-0.038843792
63	0xbe2033f0	-0.15644813
64	0xbe935697	-0.28777
65	0xbef961cf	-0.48707435
66	0xbdfb9ae2	-0.12285401
67	0xbe1805de	-0.14845988
68	0x3d4bf633	0.04979534
69	0x3eed54c8	0.46353745
70	0x3e81627f	0.2527046
71	0xbe853ef0	-0.2602458
72	0xbe4121c1	-0.18860532
73	0x3dac2d5c	0.08407089
74	0xbf136e9e	-0.57590663
75	0x3dcbcf95	0.099517025
76	0xbec57c55	-0.3857142
77	0x3ef038d1	0.46918347
78	0x3ef1e8f9	0.47248057
79	0xbe0c6077	-0.13708673
80	0x3e87f098	0.26550746
81	0x3ded5baf	0.11589753
82	0x3ee3a35b	0.44460568
83	0xbc78049b	-0.015137817
84	0xbebbabde	-0.36654562
85	0x3e121615	0.14266236
86	0xbe88c4db	-0.2671269
87	0x3f0b5ea8	0.5444131
88	0x3e622c37	0.22087179
89	0xbb7ae898	-0.003828561
90	0xbd821b11	-0.06352819
91	0xbd099ff2	-0.0335998
92	0x3dc28006	0.09497075
93	0xbe3afef6	-0.18261322
94	0xbb56eec7	-0.003279613
95	0x3e2bc9cc	0.16776198
96	0xbc01fe89	-0.007934221
97	0xbdceb078	-0.100922525
98	0xbe65eb3b	-0.22453015
99	0x3e82ac5c	0.25522125
100	0xbe1dd0ae	-0.15411636
101	0x3d557e5e	0.052122466
102	0xbeaf24be	-0.3420772
103	0xbe1b7ae2	-0.15183595
104	0xbea29163	-0.31751546
105	0x3ec3e10a	0.3825763
106	0xbdba609a	-0.091004565
107	0x3e10cdba	0.14140978
108	0x3ee517e1	0.4474478
109	0xbe4a227e	-0.1973972
110	0xbe80a121	-0.25122932
111	0xbd01b759	-0.031668995
112	0xbede8c07	-0.43466207
113	0x3dd0905d	0.10183785
114	0x3e3f01b5	0.18652995
115	0xbed644d3	-0.41849384
116	0x3e9b241c	0.30300987
117	0xbba043ff	-0.0048909183
118	0xbe6b98e5	-0.23007543
119	0x3f0434fc	0.5164335
120	0x3d85903b	0.065216504
121	0x3e2ed490	0.17073274
122	0x3d0aa7c7	0.03385141
123	0xbdb18f3e	-0.086698994
124	0xbe3895a4	-0.18025833
125	0xbed930bf	-0.42420003
126	0xbd2a69bf	-0.041604754
127	0x3ec79577	0.3898122
128	0x3d84a056	0.06475894
129	0xbf11a996	-0.5689939
130	0xbecc6bf7	-0.3992612
131	0xbf202506	-0.62556493
132	0xbc783712	-0.015149849
133	0xbee3ce50	-0.4449334
134	0x3f3c0af3	0.7345421
135	0x3db4de9e	0.08831523
136	0xbea9963e	-0.33122438
137	0xbd807221	-0.06271768
138	0x3e84d9e3	0.25947484
139	0xbf1640ac	-0.5869243
140	0xbded7620	-0.11594796
141	0x3bc70a89	0.006074254
142	0xbd92e376	-0.07172291
143	0xbe1b7863	-0.15182643
144	0x3e4660ce	0.19372866
145	0xbe00a838	-0.1256417
146	0xbe879c3e	-0.2648639
147	0xbf0a5d0b	-0.5404822
148	0xbf0bf212	-0.54666245
149	0xbe94743d	-0.28994933
150	0x3e05aa40	0.13053226
151	0x3ea63fa7	0.32470438
152	0xbddade62	-0.106869474
153	0xbe82158c	-0.25407064
154	0xbf00e3d6	-0.5034765
155	0xbe2cabca	-0.16862407
156	0xbe40efa1	-0.18841411
157	0xbe096965	-0.13419111
158	0xbe60c966	-0.21951827
159	0x3e84a174	0.2590443
160	0xbe2b2b2d	-0.16715689
161	0x3e3b7e22	0.18309835
162	0x3ea0565d	0.3131589
163	0x3e316cce	0.17326662
164	0x3ed970c7	0.42468855
165	0xbdf323ad	-0.11872039
166	0xbdcc8647	-0.09986549
167	0xbcde444e	-0.02713218
168	0x3e8650c9	0.2623351
169	0xbdac8bb8	-0.08425087
170	0x3efbee2c	0.49205148
171	0xbe46528a	-0.19367424
172	0x3c288fa6	0.010288155
173	0x3de6425f	0.11243128
174	0xbede4084	-0.43408597
175	0x3e8d1f60	0.27563
176	0xbec54b62	-0.38534075
177	0x3ea308ce	0.31842655
178	0xbe041f7b	-0.12902634
179	0xbe9098b9	-0.28241518
180	0x3f00143b	0.5003087
181	0x3d75056a	0.059819616
182	0x3e3ce13f	0.184453
183	0xbe74cda5	-0.23906572
184	0xbe3212f2	-0.1739004
185	0xbe60374f	-0.21896099
186	0x3dbe97b6	0.0930628
187	0xbde31e22	-0.11089732
188	0x3d395a41	0.04525209
189	0x3eb06d63	0.34458455
190	0x3efbc609	0.49174526
191	0x3e1e17a2	0.15438703
192	0x3cf1d2a2	0.029519383
193	0xbeee485d	-0.46539584
194	0x3e19f188	0.15033543
195	0x3e18cf8f	0.14922927
196	0x3eb31663	0.34978017
197	0x3ebc0c0e	0.36727947
198	0xbdcbce05	-0.099514045
199	0xbe827a91	-0.25484136
200	0xbe4f375d	-0.20235963
201	0x3efdfaf5	0.49605528
202	0x3f3c783d	0.7362097
203	0xbea25fa8	-0.31713605
204	0xbf1a58c5	-0.602917
205	0xbef75864	-0.48309624
206	0x3d7fcfd1	0.06245405
207	0xbd414de2	-0.047193415
208	0x3d4c50dd	0.049881805
209	0xbd8edf1b	-0.06976148
210	0xbec92280	-0.39284134
211	0x3e0517a0	0.12997293
212	0x3f1501d6	0.58205926
213	0xbe803b06	-0.2504503
214	0x3e883ece	0.26610416
215	0xbe97c68b	-0.29643664
216	0xbe37fdd4	-0.17967921
217	0x3dacb3df	0.08432745
218	0xbdb6c01c	-0.08923361
219	0x3f06ce59	0.5265861
220	0x3ea37390	0.31924105
221	0xbf7cef01	-0.9880219
222	0xbe57c7a3	-0.21072249
223	0xbd338b3c	-0.043833956
224	0xbe7cca8a	-0.24686638
225	0xbc16a894	-0.009195466
226	0xbe2ef44e	-0.17085382
227	0x3e42b14c	0.19012946
228	0xbdc5431d	-0.096319415
229	0x3e47d0ef	0.19513296
230	0x3d435d10	0.047696173
231	0xbe6d101a	-0.23150674
232	0x3d438555	0.047734577
233	0xbe8d0b70	-0.2754779
234	0xbe7177eb	-0.23580901
235	0xbeae2053	-0.34009036
236	0xbe73e8d3	-0.23819284
237	0xbdeea2ee	-0.1165217
238	0x3f3c06c8	0.7344785
239	0x3e257e5e	0.16161487
240	0x3e34295d	0.17593904
241	0x3eca6f17	0.3953788
242	0xbe2d3c0b	-0.16917436
243	0xbd940b56	-0.07228725
244	0xbe2aa4fd	-0.166645
245	0xbee589f1	-0.44831803
246	0x3da1629c	0.07880136
247	0xbeca08a6	-0.39459723
248	0x3d845410	0.06461346
249	0xbe9e28e0	-0.3089056
250	0x3d539190	0.05165249
251	0xbeedc354	-0.46438086
252	0xbdf6dfa2	-0.12054373
253	0x3c9b3b7c	0.018949263
254	0x3e625c16	0.2210544
255	0x3e79d894	0.24399024

network_body._body_endoder.seq_layers.0.bias f4 [128]
0	0x3b0d3c71	0.0021550918
1	0xbac72f0a	-0.0015196514
2	0x3abc3ac2	0.0014360773
3	0x3b1509ce	0.002274144
4	0xbc0bf838	-0.008543067
5	0x3b165e33	0.002294433
6	0xbb276ea4	-0.0025548125
7	0x3c31c6d8	0.010850631
8	0x3a7484e9	0.00093276665
9	0xbac9e22a	-0.0015402485
10	0xbc112138	-0.008858018
11	0xa3aeed39	-1.8965586e-17
12	0xbb2878ea	-0.0025706836
13	0xbc286c18	-0.010279678
14	0x3addc653	0.0016920067
15	0xbb94f0a1	-0.0045452868
16	0xbb85ab87	-0.0040792855
17	0xbba245a4	-0.0049521495
18	0x3ace16d1	0.0015723353
19	0xbb6dd36b	-0.0036289345
20	0x3b15fa01	0.002288461
21	0xbb2e0477	-0.0026552954
22	0xbb4436a4	-0.0029939795
23	0xbb767ecc	-0.0037612198
24	0xbb5182ac	-0.0031968756
25	0xbab6c728	-0.0013944851
26	0xbba7d9a9	-0.0051223827
27	0xbc39b60b	-0.011334906
28	0x3ab9f43b	0.0014187166
29	0xbba095e5	-0.0049006813
30	0x3b38e3a9	0.0028211868
31	0x3b046a54	0.0020204978
32	0xbab0875e	-0.0013468077
33	0x3bad7305	0.0052932524
34	0x3987c996	0.000258994
35	0xbbdb8d32	-0.0067001814
36	0xbb599ea6	-0.0033206134
37	0x3bafb095	0.0053616264
38	0x3b31977a	0.0027098344
39	0x3b91f48c	0.004454201
40	0xb57dec24	-9.4593474e-07
41	0xbbaa4caf	-0.0051971297
42	0x3a16e67e	0.0005756392
43	0x3aec7a23	0.0018041771
44	0xba9968aa	-0.0011704166
45	0xbb2bb5ec	-0.0026200963
46	0x3b3230d4	0.0027189748
47	0xbb61b06c	-0.003443743
48	0xbab51e7b	-0.0013818288
49	0xbb23183f	-0.0024886278
50	0x3a4a0a8b	0.00077072595
51	0x3bd6dcfb	0.0065571046
52	0x3b3b66f3	0.0028595298
53	0x3c966425	0.0183583
54	0xbb5c1dbe	-0.0033587064
55	0x3a43a2c6	0.0007462915
56	0x3bce1942	0.006289632
57	0xb8915901	-6.930717e-05
58	0xbb3693de	-0.0027859132
59	0xbb82b3d5	-0.003988723
60	0xbb6af03c	-0.0035848757
61	0xbaca82a0	-0.0015450306
62	0xbc8809d7	-0.016606255
63	0xbb31f82a	-0.0027155974
64	0xbb0b606e	-0.0021267193
65	0x256d7695	2.059665e-16
66	0x3af2e0be	0.0018530113
67	0xba553530	-0.0008133231
68	0xbb74cea3	-0.003735461
69	0x26651e2e	7.9491236e-16
70	0x9f59a2d8	-4.608624e-20
71	0x3ac6361f	0.001512233
72	0x333cdfff	4.3975884e-08
73	0xb9f70fc6	-0.00047123263
74	0xbc24bb87	-0.010054476
75	0xb7b37267	-2.1391736e-05
76	0xbb4f1c49	-0.0031602553
77	0xbb4ce789	-0.0031265935
78	0x342fa79c	1.6359121e-07
79	0xba33ed4e	-0.0006863669
80	0xba8f3576	-0.0010925967
81	0xbbcd33ed	-0.0062622936
82	0xba80868d	-0.0009805724
83	0x3bb2d94c	0.0054580327
84	0x3a89b2c8	0.0010505551
85	0xbb075dbf	-0.0020655242
86	0x39071b95	0.00012884878
87	0xba3e72a6	-0.0007265009
88	0xa31ddb5c	-8.557438e-18
89	0xbb58fd03	-0.003310979
90	0xbb0ab44e	-0.00211646
91	0xbb685bf9	-0.003545521
92	0xbc82cbe9	-0.015966373
93	0x3bef0e6f	0.007295422
94	0xb9b5a426	-0.0003464531
95	0xbbcb70b7	-0.006208505
96	0x3ac8062e	0.0015260631
97	0x3b988c1a	0.0046553733
98	0x1154efa1	1.6797693e-28
99	0xbb5c70a0	-0.0033636466
100	0x3aa8622d	0.0012846641
101	0xbab70b01	-0.0013965071
102	0x3b9d5abe	0.004802077
103	0xb9a7db9e	-0.0003201635
104	0xba8693ee	-0.0010267475
105	0xba941310	-0.0011297185
106	0xbc6a59b4	-0.014303613
107	0x3a373eb6	0.00069902407
108	0x3ac028a9	0.0014660555
109	0xbb85ec9c	-0.004087044
110	0xbbe77e46	-0.0070646135
111	0xbb552c4c	-0.0032527624
112	0xbc0241fa	-0.0079503
113	0x3b325078	0.0027208608
114	0xb918c580	-0.00014569424
115	0xb9265b58	-0.00015865022
116	0xba574a65	-0.0008212685
117	0x9bf3df31	-4.0345212e-22
118	0xbb120572	-0.0022281078
119	0x3946bd79	0.00018953336
120	0x3ae99c04	0.0017822986
121	0x121e0c67	4.9871296e-28
122	0xba0ae707	-0.0005298708
123	0xbb7fa618	-0.0039008912
124	0xba8bdf21	-0.0010671356
125	0x3b7375f5	0.0037149165
126	0xbb762868	-0.0037560705
127	0xabee102f	-1.6915409e-12

network_body._body_endoder.seq_layers.2.weight f4 [128, 128]
0	0x3de834ef	0.11338221
1	0xbc004785	-0.007829552
2	0xbc81dd49	-0.015852587
3	0x3daa0b39	0.08302922
4	0xbcc5fee9	-0.024169402
5	0xbca67d6f	-0.020323483
6	0xbd4a0e47	-0.049330022
7	0xbd441d18	-0.04787931
8	0xbd4deaa1	-0.050272588
9	0xbdb708a7	-0.08937197
10	0x3dbd2aa7	0.09236651
11	0x3d89d70f	0.06730472
12	0x3c4ac0f7	0.012375108
13	0x3cee85a2	0.029116455
14	0xbdbc52ff	-0.09195518
15	0x3d657366	0.056018256
16	0x3db61739	0.08891148
17	0xbc9127c9	-0.017719166
18	0xbc11262f	-0.008859201
19	0xbd30e1ea	-0.0431842
20	0xbc4945ae	-0.012284679
21	0x3dabdb87	0.08391481
22	0xbe026906	-0.12735376
23	0x3dabdff1	0.08392323
24	0x3c1a3346	0.009411639
25	0xbcd9f2ba	-0.026604999
26	0x3d7188af	0.058968242
27	0x3e39757e	0.18111226
28	0x3d8e53de	0.0694959
29	0xbb01b998	-0.001979446
30	0xbdbaaf22	-0.09115435
31	0x3ce794a3	0.028269118
32	0xbd10d0ba	-0.035355307
33	0xbc696d65	-0.014247273
34	0x3d8fb142	0.07016231
35	0x3e09c073	0.1345232
36	0xbdb0a4ee	-0.08625208
37	0xbdb553a1	-0.088538416
38	0xbc182b5d	-0.009287682
39	0x3bef2c2e	0.007298968
40	0xbd506a32	-0.050882526
41	0x3e25a61f	0.16176651
42	0x3d25f398	0.040515512
43	0x3e443fd6	0.19164976
44	0x3d620bdf	0.055187102
45	0x3d3bff45	0.04589774
46	0xbd75805c	-0.059936866
47	0x3dd1ea8c	0.102498144
48	0x392f0203	0.0001669005
49	0xbe75ff20	-0.24023104
50	0xbe302cc8	-0.17204583
51	0x3a2089a6	0.0006124027
52	0xbcd3ade7	-0.025839759
53	0xbbfc1044	-0.0076923687
54	0x3d166cee	0.036724977
55	0x3d100e5b	0.03516994
56	0xbda215b8	-0.07914299
57	0x3d3c987d	0.04604386
58	0x3cfbadfb	0.030722609
59	0x3d54e1ce	0.051973157
60	0xbd2f6a7c	-0.04282616
61	0xbe02fb81	-0.12791254
62	0xbda8c9a8	-0.08241588
63	0x3abf19a0	0.001457978
64	0xbc99d5d1	-0.018778713
65	0xbc183054	-0.009288866
66	0x3dc823d4	0.09772459
67	0xbd7ba336	-0.061434947
68	0x3bd4fe27	0.006500024
69	0x3d23f438	0.040027827
70	0x3d9ed8bd	0.07756183
71	0xbd4a6bcc	-0.04941921
72	0xbe2a0736	-0.16604313
73	0x3e0d1089	0.13775839
74	0xbc9d64b0	-0.01921305
75	0x3dce2ab8	0.10066742
76	0xbdaadddb	-0.08343097
77	0x3d5614dc	0.052265987
78	0xbd1fa402	-0.03897477
79	0xbd82c03e	-0.063843235
80	0xbe6dad91	-0.23210742
81	0x3ca63a28	0.020291403
82	0x3dfb1f8f	0.12261879
83	0xbc228acd	-0.009920788
84	0x3c543e0f	0.012954249
85	0xbd6746ad	-0.056463886
86	0xbca436b9	-0.020045625
87	0xbd034ad3	-0.03205378
88	0x3dc12805	0.09431461
89	0xbe06db81	-0.13169672
90	0x3c88e6af	0.016711561
91	0xbc9fd1ba	-0.019509185
92	0x3df93eb3	0.12170162
93	0xbd9c7d3c	-0.07641074
94	0x3d167025	0.036728043
95	0x3dd4892f	0.10377728
96	0xbdc33650	-0.09531844
97	0xbd822648	-0.06354958
98	0x3dc05f95	0.09393231
99	0xbdd7005a	-0.10498114
100	0x3e105060	0.1409316
101	0xbc9e8c10	-0.019353896
102	0x3bb78040	0.0056000054
103	0xbd511a8d	-0.05105071
104	0x3cf6884f	0.030094294
105	0xbd88c49b	-0.066781245
106	0xbe022e36	-0.1271294
107	0x3e209089	0.15680136
108	0x3dd21084	0.10257056
109	0xbcb0f112	-0.021599326
110	0x3b9a92b0	0.0047171935
111	0xbb0e0699	-0.0021671413
112	0xbe31cbfe	-0.17362973
113	0x3e53faaf	0.20701097
114	0xbd6ad516	-0.05733212
115	0x3df40232	0.11914481
116	0xbdc82745	-0.09773115
117	0x3dd27260	0.102757215
118	0xbd9ef1f1	-0.077609904
119	0xbdce7c78	-0.10082334
120	0x3db5115e	0.08841203
121	0xbc1feb21	-0.009760649
122	0xba9687a0	-0.0011484511
123	0xbd31b67f	-0.043386932
124	0xbe3afe17	-0.1826099
125	0x3dff89a2	0.12477423
126	0x3c9b3457	0.018945856
127	0x3e0a65a2	0.13515332
128	0x3db06cdd	0.08614514
129	0x3cc6d4ff	0.024271486
130	0x3d2c6109	0.042084727
131	0xbd8b5b70	-0.0680455
132	0xbca1c38c	-0.019746564
133	0x3c1dabf0	0.009623513
134	0x3d294dd0	0.041333973
135	0xbd908095	-0.07055775
136	0xbd89cd4a	-0.06728609
137	0xbd64e82c	-0.05588548
138	0x3d2b93e4	0.041889086
139	0xbd9e8c1b	-0.07741567
140	0xbdbfe7a0	-0.09370351
141	0xbdf558ee	-0.119798526
142	0xbd001e51	-0.031278912
143	0xbda84bca	-0.082175806
144	0x3db391b5	0.08768026
145	0xbd310aed	-0.04322331
146	0xbd42bfef	-0.047546323
147	0xbc822f09	-0.015891569
148	0x3db791d1	0.08963359
149	0xbe095af9	-0.1341361
150	0xbdf35429	-0.11881287
151	0xbcca0050	-0.024658352
152	0xbdb45b2b	-0.088064514
153	0xbd0e4c5c	-0.03474079
154	0xbb0a0b31	-0.00210638
155	0x3dad25ed	0.084544994
156	0x3e45302b	0.19256656
157	0x3d27bf5f	0.04095399
158	0xbe1398e9	-0.144138
159	0x3e3154ad	0.17317457
160	0x3d4ba315	0.049716074
161	0xbd1bba2d	-0.038019348
162	0xbe0ca26b	-0.13733833
163	0x3dab3780	0.08360195
164	0x3e01ba3f	0.12668703
165	0x3e0941d3	0.13404016
166	0x3c83a10d	0.016068006
167	0xbcc0c7e5	-0.023532817
168	0x3dadb66e	0.08482061
169	0x3d8401a0	0.064456224
170	0xbc919bba	-0.017774452
171	0xbe4ae5c8	-0.19814217
172	0xbdfa6636	-0.122265264
173	0x3db0366e	0.08604132
174	0xbd9cba4d	-0.076527216
175	0x3e1b388f	0.15158294
176	0x3d6473d1	0.055774514
177	0x3d25ed91	0.040509764
178	0x3d3ebbe9	0.046565924
179	0x3e010f48	0.12603486
180	0xbe59c9cb	-0.21268384
181	0x3d07e2f9	0.033175442
182	0x3dc61b6a	0.096731976
183	0x3caf0986	0.021366846
184	0xbd8cfcf3	-0.06884184
185	0xbd83fadf	-0.06444334
186	0x3da0f721	0.07859636
187	0xbdb55a19	-0.088550754
188	0xbd8e9405	-0.06961826
189	0x3d7bac4f	0.061443623
190	0xbcbc804d	-0.023010397
191	0xbd46bb82	-0.048518665
192	0xbdce1218	-0.10062045
193	0x3c19f7ef	0.009397491
194	0xbdc36f3e	-0.09542702
195	0x3d5ddfea	0.05416862
196	0xbd9c4563	-0.07630422
197	0xbd9989a1	-0.07496954
198	0x3d9f5448	0.07779747
199	0x3d29c508	0.04144767
200	0x3da0fe1e	0.07860969
201	0x3de0a91a	0.109697536
202	0x3e6e07ac	0.23245114
203	0xbde3e68e	-0.11127959
204	0x3c61f16e	0.0137904715
205	0xbd0ab3ee	-0.033863
206	0xbdeb75ad	-0.11497054
207	0x3b466000	0.0030269623
208	0x3d3a4bb6	0.04548236
209	0x3ca9bd11	0.020720037
210	0x3db62582	0.08893873
211	0xbdead446	-0.11466269
212	0x3cc1ef68	0.023673728
213	0x3e257743	0.16158776
214	0x3d24a938	0.040200442
215	0xbdbff6d7	-0.09373253
216	0x3d657fef	0.05603021
217	0xbd902082	-0.070374504
218	0x3c8eaa9c	0.017415337
219	0xbe08df36	-0.13366398
220	0xbdb4b654	-0.08823839
221	0xbd6c9bd1	-0.057765786
222	0xbdd33b48	-0.103140414
223	0xbd82ce07	-0.06386953
224	0x3e43f830	0.19137645
225	0xbd335830	-0.043785274
226	0x3d0d7765	0.03453769
227	0xbdf4585f	-0.11930918
228	0xbd16838e	-0.036746554
229	0xbe337e2e	-0.17528602
230	0x3e088ade	0.13334224
231	0x3d9c221f	0.076236956
232	0x3d753a59	0.059870098
233	0xbc8ddd07	-0.017317308
234	0x3dd2fa0d	0.103016
235	0xbd12e67d	-0.035864342
236	0x3cc2d65b	0.023783853
237	0x3d862032	0.065491095
238	0x3d68d1b0	0.0568406
239	0x3d512ee1	0.051070098
240	0xbd7b7bac	-0.06139724
241	0x3b9c3737	0.0047673243
242	0xbe045df8	-0.12926471
243	0xbd901cb4	-0.07036725
244	0x3c3bb2d0	0.011456206
245	0x3d95b457	0.07309788
246	0xbdf7b7a5	-0.12095574
247	0xbd09d36a	-0.033648886
248	0xbacc093a	-0.0015566715
249	0x3be7259e	0.007054045
250	0xbdd98f5c	-0.10623047
251	0xbd7da237	-0.06192228
252	0xbdf75584	-0.12076858
253	0xbe0195d9	-0.12654819
254	0x3d3b2c77	0.0456967
255	0xbdd17cb8	-0.10228866

network_body._body_endoder.seq_layers.2.bias f4 [128]
0	0xbb596786	-0.0033173277
1	0x31c1ddfc	5.642276e-09
2	0xba938c3e	-0.0011257005
3	0x3ba062f1	0.0048946072
4	0xbb44f077	-0.0030050555
5	0xbb01c435	-0.0019800786
6	0x3b934dfe	0.0044953814
7	0xbbea2e6c	-0.007146647
8	0xbb906b56	-0.0044073267
9	0x2c789c5f	3.5329723e-12
10	0x3b5183b9	0.0031969382
11	0xbba833b4	-0.0051331166
12	0x3b8682d6	0.0041049523
13	0x3b958fea	0.004564275
14	0x3b760baf	0.0037543585
15	0x3b56f85d	0.0032801845
16	0xb79f1fcd	-1.8969085e-05
17	0x38d56659	0.00010175695
18	0x3a0c8605	0.00053605466
19	0x3b66c07f	0.0035209951
20	0xbb30e743	-0.0026993311
21	0x3b327848	0.0027232338
22	0x3b990183	0.0046693697
23	0x2f6fadb6	2.1798638e-10
24	0xbade0c5c	-0.0016940939
25	0x3c24fc4e	0.01006992
26	0xbb5627b4	-0.0032677474
27	0xbb59409d	-0.0033150085
28	0xbb9bcb84	-0.0047544856
29	0xba205a39	-0.000611696
30	0x3a22ef05	0.0006215426
31	0xbbd98f23	-0.0066393777
32	0xb9a45b58	-0.00031348574
33	0xbb44ee31	-0.00300492
34	0xba218162	-0.0006160942
35	0xbac31eee	-0.0014886537
36	0xbaca4d3e	-0.0015434397
37	0xbb2e17c4	-0.0026564458
38	0xbb8c1d98	-0.004275989
39	0x3af74ef0	0.001886813
40	0xbbb72bac	-0.005589923
41	0xb91a4e4e	-0.00014715755
42	0xbafdd399	-0.0019365429
43	0x399ac4b6	0.0002951973
44	0xb978ee34	-0.0002373986
45	0xbc11a38f	-0.008889093
46	0x3c00690d	0.007837546
47	0x3aa00fd9	0.0012211754
48	0xbb34bab7	-0.002757711
49	0xbb9a4f39	-0.004709151
50	0xb9b8a90f	-0.00035221173
51	0x2d9af000	1.7614354e-11
52	0xb4d6235c	-3.9886334e-07
53	0xbb2405c8	-0.002502786
54	0x3b4a011c	0.0030823415
55	0x3b87c337	0.0041431445
56	0xbb679cd6	-0.0035341284
57	0xbb39d856	-0.0028357706
58	0xbab5039a	-0.0013810277
59	0xbb8418e0	-0.0040312856
60	0xacf28ce8	-6.8936974e-12
61	0x3b105d48	0.0022028256
62	0xbb899684	-0.004198851
63	0x14a805b5	1.6965916e-26
64	0xbb7f5016	-0.0038957647
65	0x2ce72c6a	6.570346e-12
66	0xbb60d2f9	-0.0034305437
67	0xbaf68372	-0.0018807484
68	0x3b2cabfd	0.002634763
69	0xbb8dfed9	-0.0043333587
70	0xbb151b56	-0.002275189
71	0xbac64af0	-0.0015128534
72	0xba7c1239	-0.00096157525
73	0xbb3dfa06	-0.0028988137
74	0xbb5f00e9	-0.0034027642
75	0xbb8d7a07	-0.0043175253
76	0x3b7bd02e	0.0038423645
77	0x1fe4089b	9.657599e-20
78	0xba022834	-0.0004965097
79	0xbac973c4	-0.0015369584
80	0xbb2e9bfe	-0.0026643272
81	0x3b5ad9d1	0.003339399
82	0x37d1e306	2.5020458e-05
83	0xbba5eec9	-0.005063866
84	0xbbe184bc	-0.0068822782
85	0xb9ae3659	-0.00033228358
86	0xbb7034d5	-0.0036652584
87	0x38031b34	3.125817e-05
88	0xba76dbca	-0.00094169064
89	0x39c835b7	0.00038186993
90	0x3aaf2cb2	0.0013364761
91	0xbb3b263a	-0.002855672
92	0xbae3263d	-0.0017330121
93	0xbb3ce40a	-0.0028822445
94	0xbc40516b	-0.011738162
95	0xbb7e2630	-0.0038780086
96	0x3b0e51cb	0.0021716233
97	0x3b7fb2b3	0.0039016425
98	0xab519144	-7.445331e-13
99	0xba5d947e	-0.0008452608
100	0xb504aa9f	-4.942212e-07
101	0xbaeb9c08	-0.0017975578
102	0x3a6c00ef	0.00090028247
103	0xbb1c69e6	-0.0023866831
104	0xbbaec15c	-0.005333109
105	0xb1e88f66	-6.768391e-09
106	0x3b59cb6a	0.0033232816
107	0xba143e2f	-0.0005655018
108	0xba1c5737	-0.0005963924
109	0xbc3a9856	-0.011388859
110	0xbb6d09ad	-0.0036169097
111	0xbb5e4feb	-0.0033922147
112	0x3ac1e541	0.0014793054
113	0xbb834216	-0.004005681
114	0xbb1e8b90	-0.0024192072
115	0xbaff7822	-0.0019490758
116	0xbaffa597	-0.0019504306
117	0xbafe11a3	-0.0019383918
118	0xbb8ea7ab	-0.0043534837
119	0x3b2cd60b	0.0026372697
120	0xbb170b59	-0.0023047535
121	0x3a5d607c	0.0008444858
122	0xbb093cf6	-0.0020940877
123	0x3b0c5572	0.0021413234
124	0x3713c9ed	8.808897e-06
125	0xbb33599b	-0.0027366641
126	0x3b6198dd	0.003442339
127	0xba4bdafc	-0.00077764667

action_model._continuous_distribution.log_sigma f4 [1, 2]
0	0x3c63ed87	0.013911611
1	0xbb840b1c	-0.0040296447

action_model._continuous_distribution.mu.weight f4 [2, 128]
0	0xbb2dd52a	-0.002652476
1	0x3ab22c21	0.0013593474
2	0xbc846861	-0.016163053
3	0x3d6b3b9b	0.05742989
4	0x3d0b2a7f	0.033976074
5	0xbbe797db	-0.007067663
6	0x3d17adea	0.03703109
7	0xbc9525fa	-0.018206585
8	0x3c766640	0.015039027
9	0xbcc01c3b	-0.023450961
10	0x3d2d1138	0.04225275
11	0xbce56dcb	-0.028006455
12	0x3d802a53	0.06258073
13	0x3d3b2648	0.045690805
14	0x3d422d8d	0.04740672
15	0x3d2bc7cf	0.0419386
16	0xbc7ef344	-0.015560929
17	0x3cb5455c	0.0221278
18	0x3b1cdfa4	0.002393701
19	0x3d392af5	0.045206983
20	0xbc3ff16f	-0.011715277
21	0x3cda7850	0.026668698
22	0x3cc8b782	0.024501566
23	0x3cfc6e65	0.030814359
24	0x3c876925	0.016529629
25	0xbc7300a1	-0.014831693
26	0x3b044c38	0.0020187031
27	0xbc398ebf	-0.011325537
28	0xbce6e6b9	-0.028186189
29	0xbc69e6eb	-0.014276247
30	0x3cc80fa0	0.024421513
31	0xbcaad7a4	-0.020854779
32	0x3c17ce7b	0.009265537
33	0x3cf334c3	0.029688245
34	0x3c898435	0.016786674
35	0x3ba05ca1	0.0048938547
36	0x3beea405	0.0072827362
37	0xbcbde692	-0.023181234
38	0xbd4bf797	-0.049796667
39	0x3cff125f	0.03113669
40	0x3be22ebb	0.0069025434
41	0xbc7c4bb0	-0.015398905
42	0x3cae0373	0.02124188
43	0x3bcb5d32	0.006206178
44	0xbb92fbec	-0.004485598
45	0x3930c1bc	0.0001685684
46	0x3d1d224c	0.038362786
47	0x3bcdf9cc	0.0062858816
48	0xbbbd3f74	-0.0057753865
49	0xbcb32538	-0.021868333
50	0x3c8f48e5	0.017490814
51	0x3c83fbb8	0.01611124
52	0xb9a824d7	-0.00032070905
53	0xbcf22cd4	-0.029562391
54	0x3d94680b	0.07246407
55	0x3ca6bc51	0.020353468
56	0xbc8cc536	-0.017183881
57	0x3b2c8d80	0.0026329458
58	0x3c981532	0.018564794
59	0xbbc08217	-0.005874883
60	0xbc79fb7d	-0.015257713
61	0x3b81c367	0.0039600614
62	0x3cf98153	0.030457174
63	0x3c44d791	0.012014286
64	0xbbec83db	-0.007217867
65	0x3cda2e63	0.026633447
66	0x3cab5641	0.020915153
67	0x3c5d9123	0.013523373
68	0x3bd3014a	0.0064393627
69	0xbb8d048f	-0.004303522
70	0x3c5a7a34	0.0133348
71	0x3ca6aac1	0.020345094
72	0xbce336b5	-0.027736047
73	0x3ca84865	0.020542333
74	0xbc71e81c	-0.014764812
75	0xbd06f883	-0.032951843
76	0xbc105e07	-0.00881148
77	0x3c40d0b4	0.011768509
78	0xba6b6440	-0.0008979477
79	0x3c5dafe9	0.01353071
80	0xbc98d1bc	-0.018654697
81	0x3d2f3fb9	0.04278538
82	0x3caa64bd	0.020799989
83	0xbc1abaff	-0.009443997
84	0xbc194eb8	-0.009357147
85	0xbd00ae89	-0.03141645
86	0xbccedaae	-0.025250759
87	0x3ceaa6cb	0.028643986
88	0xbd5bbc52	-0.053646393
89	0x3d098e22	0.033582814
90	0x3cc20f7c	0.023689024
91	0x3b66adbc	0.0035198769
92	0x3b19c38f	0.002346251
93	0xbbb5e34d	-0.005550778
94	0xbc5e0950	-0.013552025
95	0x3a9cce5a	0.0011963353
96	0x3d18d871	0.03731579
97	0x3d2dd0e3	0.042435538
98	0xbc554393	-0.013016599
99	0x3b0bf24b	0.0021354135
100	0x3cae9782	0.021312479
101	0xbc800b31	-0.015630336
102	0x3caaf1dc	0.02086728
103	0x3c9ec96c	0.019383155
104	0x3c4ceffe	0.0125083905
105	0xbc5bef8a	-0.01342381
106	0x3d58b803	0.052909862
107	0x3b9cbb27	0.0047830525
108	0xbc9568d3	-0.01823846
109	0xbc8fac62	-0.017538253
110	0xbcc5fa6d	-0.024167264
111	0xbc01eeaf	-0.007930442
112	0x3cfb3826	0.030666422
113	0xbc4a8523	-0.012360844
114	0xbaced383	-0.0015779588
115	0xbaa64789	-0.0012686114
116	0xbb6ae699	-0.0035843013
117	0x3c82ffc7	0.015991105
118	0xbc6266a4	-0.013818417
119	0x3d03f66e	0.032217436
120	0xbc58e26f	-0.01323758
121	0x3c3d51b0	0.01155512
122	0xbc88fc0b	-0.016721746
123	0x3ce49a6f	0.02790567
124	0xbd02b830	-0.031913936
125	0xbb8f8906	-0.004380348
126	0x3cee9b4e	0.02912679
127	0x3cc16515	0.02360777
128	0x3a91c1ca	0.0011120376
129	0x3c85316d	0.01625892
130	0x3bade68e	0.0053070253
131	0xbb03811f	-0.0020065976
132	0x3c5cc78c	0.01347531
133	0x3c5d1b2c	0.013495248
134	0xbd06aff1	-0.032882635
135	0xbc850b37	-0.0162407
136	0xbb494d79	-0.0030716343
137	0x3cdb2e12	0.026755366
138	0x3c3756b7	0.011190108
139	0xbc7eedd1	-0.01555963
140	0xbbdc77fa	-0.0067281695
141	0xbb71c0ff	-0.0036888716
142	0xbc14eb3f	-0.00908929
143	0xbb6c81b9	-0.0036088063
144	0x3d09e29e	0.033663385
145	0xbc9a7db4	-0.018858768
146	0xbc4c7c15	-0.012480755
147	0xbb84c72f	-0.004052065
148	0xbce15a93	-0.02750901
149	0x3921af1e	0.00015419393
150	0xbb4e70d0	-0.0031500347
151	0x3c94a0aa	0.018143017
152	0xbcfd4868	-0.030918315
153	0xbd0e10d4	-0.034684017
154	0xbb8d5008	-0.004312519
155	0xbb4466d1	-0.002996851
156	0x3ad06bad	0.001590123
157	0xbcfad16a	-0.030617435
158	0x3ad68528	0.0016366588
159	0x3b1426da	0.0022606165
160	0x3c161af6	0.009161701
161	0x3ca7aede	0.020469125
162	0x3c928ba7	0.017888857
163	0x3cf70107	0.030151857
164	0x3d1c47b9	0.038154338
165	0xbc81145a	-0.015756775
166	0x3b88d114	0.0041753147
167	0x3cca6f45	0.02471126
168	0x3cfba97c	0.030720465
169	0x3c72a6fa	0.014810318
170	0x3bb71a64	0.005587863
171	0xbc431582	-0.011906983
172	0xbd06471a	-0.03278265
173	0x3b2d071c	0.0026401943
174	0xbc15ff52	-0.009155111
175	0xbcb36c3b	-0.021902194
176	0xbc39097e	-0.011293767
177	0xbc8aa332	-0.01692352
178	0x3d095171	0.033524934
179	0x3bbafc14	0.0057063196
180	0xbca0efa8	-0.019645527
181	0xbaef64f3	-0.0018264338
182	0x3ce62735	0.028094867
183	0x3c84c58f	0.016207485
184	0x3c8661cd	0.016404057
185	0xbbd75933	-0.0065719127
186	0xbb85f036	-0.0040874733
187	0x3adfeade	0.0017083546
188	0x3c03ab23	0.008036408
189	0x3cb9613f	0.022629378
190	0xb9938be9	-0.00028142266
191	0xbd00222a	-0.03128258
192	0x3cdfe963	0.027332967
193	0x3c320901	0.0108664045
194	0xbc1eb799	-0.009687328
195	0xbcbed0e2	-0.023292962
196	0xbd0db3c2	-0.03459526
197	0x3a470af7	0.00075928814
198	0x3b9efa0c	0.0048515853
199	0x3c3fd288	0.011707909
200	0xbcba38cf	-0.022732167
201	0x3bd6d89a	0.0065565826
202	0xba8d47fd	-0.00107789
203	0x3c8b1087	0.016975654
204	0x3bd9d2d9	0.0066474495
205	0xbaf44367	-0.001863581
206	0x3d07436e	0.03302329
207	0xbcfb7e98	-0.030700013
208	0xbb406672	-0.0029357937
209	0x3c5d05af	0.013490125
210	0x3c626524	0.013818059
211	0xbb769582	-0.0037625735
212	0xbb062988	-0.0020471532
213	0x3c9435e2	0.0180921
214	0x3c664f64	0.014057014
215	0xbc20b159	-0.009807908
216	0xbc6c155b	-0.014409388
217	0xbc241b61	-0.010016293
218	0xbb47870f	-0.0030445491
219	0xbcbab34e	-0.022790577
220	0xbbc82cf2	-0.0061088735
221	0x3bcffa82	0.0063470015
222	0xbc348355	-0.01101764
223	0x3bf49155	0.007463614
224	0x3cd749db	0.026280334
225	0xbc571173	-0.013126719
226	0x3cb4170f	0.021983651
227	0x3adf0e23	0.0017017763
228	0xbb38b955	-0.0028186638
229	0x3c46c629	0.012132206
230	0x3c388220	0.011261493
231	0x3d11f8f2	0.035637803
232	0x3ce30a5c	0.0277149
233	0x3cb00863	0.021488374
234	0xbcdd7de8	-0.027037576
235	0x3c47ed1a	0.0122025255
236	0xbc6020e1	-0.013679714
237	0xbbb5271e	-0.005528345
238	0xbc666ea0	-0.014064461
239	0x3cde0b53	0.02710501
240	0x3a933a32	0.0011232554
241	0x3b5c9ec9	0.003366398
242	0x3bf6c915	0.007531295
243	0xbc0e2d95	-0.00867786
244	0x3c73d156	0.014881453
245	0xbb6aa417	-0.0035803372
246	0xbb96bd61	-0.0046002124
247	0xbcc80ce6	-0.024420213
248	0x3bee638b	0.00727505
249	0xbccd0089	-0.02502467
250	0x3c1ebed7	0.009689054
251	0x3c80bfcf	0.015716461
252	0xbcb661eb	-0.022263488
253	0xbc6dcc70	-0.014514074
254	0x3b8f0b70	0.004365377
255	0xbc685068	-0.014179327

action_model._continuous_distribution.mu.bias f4 [2]
0	0x3b646dc9	0.0034855476
1	0x391ef1c8	0.00015158125

action_model._discrete_distribution.branches.0.weight f4 [1, 128]
0	0x3ad206f0	0.0016023796
1	0x39c95fbf	0.00038409044
2	0xbc8f4e84	-0.017493494
3	0xbb8f154a	-0.0043665515
4	0x3b9c29e3	0.0047657355
5	0x3c47b782	0.012189748
6	0x3bed2baf	0.0072378735
7	0xba6cd5cb	-0.0009034543
8	0xbcbe303b	-0.023216357
9	0x3b852a8b	0.0040639094
10	0xbc8d1713	-0.017222917
11	0xbc07c6e2	-0.008287163
12	0xbb1ff965	-0.0024410125
13	0xbb9c333b	-0.0047668493
14	0xba8ed3cb	-0.001089686
15	0x3b46de3f	0.0030344871
16	0xbc2090d7	-0.0098001575
17	0x3c13cf5f	0.009021609
18	0xbb299333	-0.002587509
19	0x3c6fef6d	0.014644486
20	0xbb1569db	-0.002279869
21	0xbc34f554	-0.011044819
22	0x3b4da908	0.0031381268
23	0x3c2ca0bd	0.01053637
24	0x3be951d8	0.0071203522
25	0xbad905a7	-0.0016557471
26	0x3c6f6a2a	0.014612714
27	0x3b0337fb	0.002002238
28	0xba7fbe20	-0.0009755809
29	0x3b7b9d8a	0.003839346
30	0x3c0e8e21	0.008700878
31	0xbb72637f	-0.0036985574
32	0xbc17db6c	-0.009268623
33	0x3b1489cf	0.0022665148
34	0xbc547e2f	-0.012969538
35	0xbc29ac6d	-0.010356051
36	0x3be0a1fb	0.006855247
37	0xbc060b41	-0.008181394
38	0xbc6965d2	-0.014245467
39	0xba4c6f8d	-0.0007798605
40	0x3b690b00	0.0035559535
41	0xbc726a7a	-0.014795894
42	0x38680f82	5.5327553e-05
43	0xbb6e16e3	-0.003632956
44	0xbb45fae7	-0.0030209364
45	0x3b346aca	0.0027529472
46	0xbb92cc9c	-0.0044799577
47	0xbb89da26	-0.0042069135
48	0xbba6c7bb	-0.0050897277
49	0x3c6d5da3	0.014487657
50	0xbc334273	-0.010941136
51	0x3b4f5653	0.0031637147
52	0x3c0db48b	0.008649002
53	0x3a28daf3	0.00064413174
54	0xbac8943e	-0.0015302969
55	0xbc07738b	-0.008267294
56	0xbc763ffb	-0.015029903
57	0x3c30f948	0.010801621
58	0x3bdc561a	0.0067241313
59	0x3bb7710d	0.0055981935
60	0x3c684177	0.014175764
61	0xbbbc2e9f	-0.0057428624
62	0x3afd7d82	0.0019339772
63	0x3b155f95	0.0022792567
64	0xbb80ae7b	-0.0039270497
65	0xbaa65d8e	-0.0012692676
66	0xbbe30ca2	-0.006928996
67	0x3c001550	0.007817581
68	0xbc1b2fc5	-0.009471838
69	0x3b2b0ed3	0.0026101365
70	0x3ac3e7cb	0.0014946399
71	0xbc37fc1a	-0.011229539
72	0xbbe37caa	-0.0069423513
73	0xbc6cda00	-0.014456272
74	0xbc00e1e4	-0.0078663565
75	0xbc570063	-0.013122651
76	0xbc05e02b	-0.008171122
77	0x3b341836	0.002748025
78	0x3b03a9d2	0.0020090234
79	0xbb33490a	-0.0027356767
80	0x3af22a33	0.0018475711
81	0x3bf0799a	0.007338715
82	0xbb57bddb	-0.003291956
83	0xbbe31b6a	-0.0069307582
84	0x3a5529fd	0.0008131562
85	0x3c5d3a08	0.013502605
86	0x3c684aa5	0.014177953
87	0xbc139b9f	-0.009009271
88	0x3bac184d	0.0052519203
89	0xbb1e20cf	-0.0024128442
90	0x3bd9d358	0.0066475086
91	0x3c220be7	0.009890533
92	0xbc0492e8	-0.008091666
93	0xbbb37ab5	-0.0054772743
94	0xbbb1fda1	-0.0054318462
95	0xbc5dd152	-0.013538675
96	0xbc0b432f	-0.008499905
97	0x3c34d70e	0.011037601
98	0xbb839398	-0.0040153973
99	0xbc09323f	-0.008373796
100	0x3c6e99a7	0.014563001
101	0xba1dfb7f	-0.00060265505
102	0x3c2aafb2	0.010417866
103	0xbcf51195	-0.02991561
104	0xbb3aeac7	-0.0028521286
105	0x3bc58944	0.006028326
106	0xbb30fd17	-0.0027006322
107	0xbba3af2b	-0.004995247
108	0x3c11f53d	0.008908567
109	0x3c3dd56d	0.011586529
110	0x3b3b26cf	0.0028557067
111	0xbc15e94b	-0.00914986
112	0x3ae1801f	0.0017204321
113	0x3c87471b	0.016513398
114	0x3c329cc3	0.010901633
115	0xbbe2a707	-0.006916884
116	0xbcb48b1e	-0.022038992
117	0x3c28d46c	0.010304552
118	0xbc1eae4f	-0.009685113
119	0x3ca45f97	0.020065112
120	0xbc327035	-0.01089101
121	0x38eb7e17	0.00011229159
122	0xbadc1d17	-0.0016793337
123	0xbb905579	-0.0044047204
124	0xbbff8303	-0.0077976002
125	0xbb8cf53b	-0.0043016947
126	0xbc049719	-0.008092665
127	0xbc406893	-0.011743682
