Assets/results/VikramRover1/VikramRover/VikramRover-610.onnx (onnx, 80301 bytes, 8 tensors)

network_body._body_endoder.seq_layers.0.weight f4 [128, 10]
000000 11 3f ce be b9 a8 d1 3e 66 29 22 bf f2 1b ef 3e
       -0.4028249 0.40949038 -0.6334442 0.46701008
000010 6b de 5b 3e 92 1e 7c 3e de 08 b3 3e 2a 29 c2 3e
       0.21471564 0.24621037 0.34967703 0.3792203
000020 67 e5 de 3e 89 70 36 3d 84 dc 10 bc fa 20 44 3e
       0.43534395 0.044540916 -0.0088416375 0.19153205
000030 4c 79 71 be fb 3d b5 3d fb 03 d7 bb d3 b4 6b 3e
       -0.23581427 0.088497125 -0.006561754 0.23018198
000040 51 7c 9f 3d 7d 95 75 bd 4e b7 65 3e 13 28 0d 3c
       0.07787383 -0.059957016 0.22433206 0.0086155115
000050 dd 45 80 be e3 81 88 be 1e c6 27 3f 00 23 30 3d
       -0.250533 -0.26661596 0.6553668 0.04300213
000060 5c 08 c5 be 89 dc 45 be 56 57 b9 bd dc cb c7 bd
       -0.3848294 -0.19322409 -0.09049861 -0.0975568
000070 84 38 81 be 8e 4d 2a bf 09 c9 84 3e 23 41 c0 be
       -0.2523843 -0.6652459 0.25934628 -0.37549695
000080 6e bf 32 be f1 40 cf 3e d6 25 a2 bd 28 e5 58 be
       -0.17455837 0.40479234 -0.07917373 -0.21181166
000090 70 4f a2 bd 8b 9f 0c 3f 49 99 50 3e f6 3a 80 be
       -0.07925308 0.54930943 0.20370974 -0.25044984
0000a0 41 81 a1 3e 7e f3 54 3a 3e cc 18 3f 16 da 06 3d
       0.31543925 0.00081234414 0.5968665 0.032922827
0000b0 a6 7e d1 bd c0 d0 c6 be 33 fb 3f 3f e8 c0 0b bf
       -0.102292344 -0.3883114 0.74992675 -0.54591227
0000c0 12 1a 3e be dc 13 12 3e 2c 5d 0e 3f c7 2a 38 be
       -0.18564633 0.14265388 0.5561092 -0.17985068
0000d0 68 8f 86 be d4 06 60 bf 3b 51 d2 bd 8a 62 f3 3e
       -0.26281285 -0.8751042 -0.102694 0.47536117
0000e0 f9 71 47 3d 53 0c 19 bc e9 bd 04 bd c9 78 bb 3d
       0.048692677 -0.009341317 -0.032407675 0.09153897
0000f0 89 9f 08 3e 4d 40 2a be 8c 36 07 3d a5 8e e1 bd
       0.13342108 -0.16626091 0.033011004 -0.110135354
000100 4f 46 f2 3e 93 07 13 3e a2 d9 8d bd bf c4 90 be
       0.47319266 0.14358358 -0.06926276 -0.28275105
000110 87 eb 0e 3f 49 ad fd bd b2 8a 2d 3e 51 55 5f 3e
       0.55828136 -0.12386567 0.1694744 0.2180989
000120 de 08 e7 3d a8 2d d8 be 93 f1 04 bf 21 10 a8 3d
       0.11280988 -0.42222333 -0.51931113 0.08206201
000130 d1 30 30 3f 40 d6 0b 3e a1 10 09 be c6 db 86 3e
       0.6882449 0.13655949 -0.1338525 0.2633955
000140 ac ee f6 bc 17 a2 ac 3e c3 a5 67 3e bf 6e 32 3e
       -0.030143104 0.33717415 0.22621827 0.17425059
000150 65 87 35 be ea 00 ec 3e 4e 41 23 3e 4f 0f 4e 3e
       -0.1772743 0.46094447 0.1594288 0.20123027
000160 93 0d 00 bf 5d 49 f1 bd 2a 32 31 be 52 5f d9 be
       -0.5002071 -0.11781571 -0.17304292 -0.42455536
000170 41 c7 1c bd 17 67 91 be 5e 16 a7 be 4f cc 74 3d
       -0.03827596 -0.28398964 -0.32634252 0.059765156
000180 25 a7 07 bd 1c e1 95 3e d8 f4 db be 64 99 09 3e
       -0.033118386 0.29273307 -0.42960238 0.1343742
000190 77 4a 43 bd 3f e3 e0 3d cf cc fa 3d 68 5e d8 be
       -0.047678437 0.10980844 0.122460954 -0.42259526
0001a0 0c 01 e8 be 33 3f 51 3b e3 eb e4 3d e8 a8 ef 3d
       -0.453133 0.0031928539 0.11177804 0.11702138
0001b0 54 c1 b1 be 56 a0 a5 3e 3c a1 f0 3d 2c 0b ac be
       -0.3471781 0.3234889 0.11749503 -0.33602273
0001c0 68 12 a5 be 71 39 26 bd ec 95 43 3e ee 78 bc bc
       -0.32240605 -0.040582124 0.1910016 -0.023006883
0001d0 1d ad 9a be 6b b8 06 be 11 be 03 3d ef c6 ba 3e
       -0.302102 -0.13156287 0.032163683 0.364799
0001e0 90 e4 2d 3d 2d 99 ec be c3 08 6d 3e a1 c6 27 be
       0.042454302 -0.46210614 0.23147874 -0.16384365
0001f0 6b aa de be 85 1b 0d bf 2f 9b e2 3e 5e a2 4c 3e
       -0.43489394 -0.55120116 0.4425902 0.19983813
000200 65 5d 14 bf c1 e6 33 bd fa ff 9c 3e 72 1f 05 be
       -0.5795501 -0.043921236 0.30664045 -0.13000277
000210 93 5a 55 bf fd 13 03 bd 3d 06 f7 3d c0 c1 56 be
       -0.8334133 -0.032001484 0.12061737 -0.20972347
000220 99 a2 91 be 29 e5 5e 3d 11 c0 61 3e d0 36 52 be
       -0.28444365 0.054417763 0.22045924 -0.20528722
000230 8b 4f e3 3e 84 ba 18 3e c5 ca 31 3e 1b e0 ff be
       0.44396624 0.149149 0.17362507 -0.49975666
000240 e2 20 02 3e 54 be 28 3f ea bb e5 3d f0 12 86 3d
       0.12707856 0.6591542 0.112174824 0.06546581
000250 22 f7 08 bd 50 69 37 be de 61 7e bd bd 5c 5b be
       -0.03343881 -0.17911267 -0.062105052 -0.21422096
000260 f5 8f eb 3d 94 2b 34 be 1b bc e1 be 5a 4a 45 be
       0.11502067 -0.17594749 -0.44088826 -0.19266644
000270 eb 61 8c 3d 7d 37 ed bd 25 e7 61 3e b3 33 fd 3e
       0.06854614 -0.11582849 0.22060831 0.49453506
000280 cb f6 42 3e d9 13 f0 be af a9 09 bf 65 6b 04 3e
       0.19039457 -0.46890143 -0.5377454 0.12931593
000290 a2 09 6d bd e7 3b c3 bd cd fa 30 3e 94 de 9b be
       -0.057870515 -0.0953291 0.17283173 -0.3044325
0002a0 20 2c a3 be 36 c0 c8 3e 1f de 0d be 5b 65 9e 3d
       -0.31869602 0.39209145 -0.13854264 0.07734176
0002b0 fb 31 50 3f dc 02 d1 bb 6a 1f 39 3d e8 d1 59 bd
       0.81326264 -0.0063785147 0.045195974 -0.053178698
0002c0 73 60 ff bd da b6 c9 be b3 9e 81 be 0e 0c 03 3f
       -0.12469568 -0.39397317 -0.2531639 0.5119027
0002d0 c7 17 f3 bd 74 3b 6c be 79 fd 59 bf 8a 9c 8a 3e
       -0.118697695 -0.23069555 -0.85152394 0.27072555
0002e0 14 a5 60 3e 7b 6a f4 3e c0 a6 c4 bd 8e 84 d7 bc
       0.21937972 0.47737488 -0.096021175 -0.026308324
0002f0 09 61 60 3e f6 0e d2 bd 4a ee cb 3e ce bf f3 3d
       0.21912016 -0.1025676 0.39830238 0.11901818
000300 72 90 b7 bd cf df f7 3c 95 9a 0a bf fc a3 3e bc
       -0.08963098 0.030258087 -0.54142123 -0.011635777
000310 33 f2 44 3d 39 de 0a 3f 28 4c 87 be f1 04 6d 3e
       0.04808254 0.54245335 -0.2642529 0.23146416
000320 c5 4a 61 bd 5e ee 3b 3f 77 a5 e1 3d 9b 86 98 3d
       -0.055002946 0.73410594 0.11017888 0.07447549
000330 93 19 8a be aa 42 4c bd 02 4a 11 3c 54 60 81 bd
       -0.26972637 -0.049868263 0.0088677425 -0.06317201
000340 44 ff e9 bd a6 0e 9f bd 80 a2 cc 3d 66 69 b6 3e
       -0.11425641 -0.07766466 0.09991932 0.35627288
000350 2d 4b e5 be 33 72 7e bd 2b c7 ae 3e 92 17 4b 3e
       -0.44783917 -0.062120628 0.34136328 0.1983321
000360 3d 57 08 3f 11 5c 16 3e 57 88 cf 3e b5 39 04 be
       0.53258115 0.14683558 0.40533707 -0.12912638
000370 c0 9b b4 be 26 a2 8e 3e a2 f7 9a 3e 7c a6 e5 bd
       -0.35275078 0.27858084 0.30267054 -0.11213395
000380 61 14 a0 3e aa 3d 3e 3e 5f b5 9e 3c 5a f2 ab be
       0.31265548 0.1857821 0.019373594 -0.33583337
000390 40 3c 81 be c9 16 8a 3e be 8d 90 3d 1c 3f 26 be
       -0.2524128 0.2697051 0.07058285 -0.16235012
0003a0 fc 59 91 be f0 ed 23 3e bb 76 02 3f 52 84 89 3d
       -0.28388965 0.16008735 0.5096242 0.06714691
0003b0 2e 68 a7 be 20 d8 2f 3e c9 73 3a bf 8d 33 a4 3e
       -0.3269667 0.17172289 -0.72832924 0.3207058
0003c0 f0 4b dd 3d 53 bb e7 3e 9b 4b 11 3d ae 74 86 be
       0.108054996 0.45260105 0.035472494 -0.26260895
0003d0 e1 cb 34 be 09 6a 9f 3d 89 c4 af be a3 65 93 be
       -0.17655899 0.077838965 -0.34329632 -0.2878848
0003e0 69 7c 7c 3e 6e 53 37 bf d0 90 19 3f dd 79 0a be
       0.24656834 -0.7161168 0.5998659 -0.1352305
0003f0 c1 bb 4e 3e b9 0d 19 3e 09 cc ba be 73 cc 80 bd
       0.2018881 0.14946641 -0.3648379 -0.062889956

network_body._body_endoder.seq_layers.0.bias f4 [128]
000000 59 7c a2 25 6e 61 8f bb d0 f4 59 bb 5c a6 d1 b2
       2.8186782e-16 -0.004375628 -0.0033257492 -2.4406454e-08
000010 80 93 24 bb 6c ab 50 3a 1a e8 ff ba 67 40 94 ba
       -0.002511233 0.0007960114 -0.0019524128 -0.0011310697
000020 2d 48 8d ba f0 be bb b1 ab cd 85 b9 72 0a fa 29
       -0.0010778956 -5.4641234e-09 -0.0002552097 1.1104042e-13
000030 31 1a f4 ba f8 31 0b 13 c7 5c c9 b9 71 5e a6 3b
       -0.0018623528 1.7568903e-27 -0.00038406832 0.0050771763
000040 f9 b5 93 15 b2 00 1f ba 6c 6d 30 09 2e b2 8c ba
       5.965993e-26 -0.0006065472 2.123668e-33 -0.0010734254
000050 20 7b e5 b8 92 a0 7b 3b 2b d1 46 ba 1a 0f 2b b7
       -0.00010942505 0.0038395268 -0.0007584269 -1.019591e-05
000060 fc 5c 31 b8 38 81 a4 b9 0c 8c 3c 3b ce c3 22 bb
       -4.2286687e-05 -0.00031376793 0.0028769998 -0.0024835947
000070 7c eb a8 b4 e8 4c 5d 3a 91 9e aa bb 00 94 d3 b6
       -3.1463776e-07 0.0008441941 -0.005206891 -6.3055195e-06
000080 00 00 00 00 7e 1c 52 ba 7d ad 84 3a 73 2f 2a ba
       0.0 -0.000801511 0.0010122504 -0.0006492056
000090 ae f8 8c b8 b0 e5 79 ba e8 b0 e8 39 88 3e 49 bb
       -6.7220404e-05 -0.00095328223 0.00044382294 -0.0030707438
0000a0 aa 6a 9e ba 17 f2 20 bb 3f d9 ea b8 54 3c 9a ba
       -0.0012086232 -0.002455836 -0.00011198455 -0.0011767247
0000b0 9f f2 0f bb 50 7a ba 39 8f 8d 53 bb db 1d 0f 3a
       -0.0021964682 0.00035567814 -0.003228042 0.0005459466
0000c0 88 61 fa 2c 6e 74 7b bb 14 4e 0b 23 64 b8 cb ba
       7.1162555e-12 -0.0038368958 7.551739e-18 -0.0015542624
0000d0 7d aa b6 ba 73 a9 85 bb be 43 49 1e 7c 5f 86 b5
       -0.0013936308 -0.004079038 1.065486e-20 -1.0011568e-06
0000e0 0c 6c 71 b1 e5 5f 9a ba 46 9d 00 bc 8c 15 2f 38
       -3.5131533e-09 -0.0011777846 -0.007849997 4.174332e-05
0000f0 85 02 0d 97 27 ba 64 3b 48 f8 0b 3b a0 76 75 ba
       -4.5562737e-25 0.0034900995 0.0021357704 -0.0009363685
000100 e2 c1 90 ba 3e 23 9c a7 b1 b0 a7 39 33 1e 32 37
       -0.001104411 -4.3336908e-15 0.00031984368 1.0616658e-05
000110 01 45 7b 35 0b 3f 9f 39 d3 d9 0b b1 14 84 91 ba
       9.36052e-07 0.00030373814 -2.035098e-09 -0.0011101984
000120 4c 2e 19 3a 2d aa 64 ba ac 80 4b 21 c9 3c f8 b9
       0.00058433856 -0.0008722868 6.894937e-19 -0.00047347535
000130 b0 8f e2 b7 4d 8f 4c b0 6d 37 33 a1 2b df 4a 3a
       -2.700821e-05 -7.441841e-10 -6.0720914e-19 0.0007738943
000140 22 e4 fb b2 29 5b 02 ba d8 02 8c ba d4 40 cd ba
       -2.9323989e-08 -0.00049726904 -0.0010682 -0.0015659579
000150 e0 a3 16 ba d2 3c f9 ba f9 54 a5 ba 52 70 46 37
       -0.0005746465 -0.0019015318 -0.0012613825 1.1827871e-05
000160 0d 19 31 af 3f 6c f7 3b 15 06 a6 a9 9f 20 41 bb
       -1.6106956e-10 0.0075507457 -7.372936e-14 -0.0029468907
000170 b1 09 18 bb 7d f7 9f 2e 08 1f 90 bb 64 fa 27 39
       -0.0023199136 7.2744456e-11 -0.0043982305 0.00016019639
000180 05 18 0a bb 80 ab f2 af 6f 5c b4 b8 9d 99 43 ba
       -0.0021071446 -4.4141402e-10 -8.600286e-05 -0.000746155
000190 11 14 a4 3b 00 00 00 00 4b ed 0e 3a 3d fb 2d b6
       0.005007275 0.0 0.00054522295 -2.5925249e-06
0001a0 27 7b 97 ba d5 2a 30 bb cc ab 57 39 82 38 80 b9
       -0.0011557088 -0.0026880999 0.00020567997 -0.00024456164
0001b0 a2 46 48 ba ef de 07 bc 65 8e a9 bb 46 3f f8 b9
       -0.00076399196 -0.008292898 -0.0051744455 -0.00047349388
0001c0 c8 30 2a bb be 35 df 35 11 dc a6 3b 05 e8 cf 38
       -0.0025969017 1.6630436e-06 0.005092152 9.913746e-05
0001d0 67 06 33 3a 77 46 5e b2 54 fb 6c ba 7f ee b7 b9
       0.0006829262 -1.2938123e-08 -0.00090401364 -0.00035082173
0001e0 c8 dc b2 3a d8 e5 72 34 19 4e 69 ba c1 e4 9c 3b
       0.001364612 2.2621623e-07 -0.0008899882 0.004788012
0001f0 b4 29 82 ba 31 9b 39 ab 4e 2b 81 ba f5 e3 51 b9
       -0.0009930641 -6.5940574e-13 -0.0009854825 -0.00020016714

network_body._body_endoder.seq_layers.2.weight f4 [128, 128]
000000 cf 0e 80 bd c6 ef 8a bd 5f 12 0a bd 27 c7 af bc
       -0.062528245 -0.067840144 -0.033708926 -0.021457268
000010 6d 9f b5 3d 5a 39 fd bc 1c d0 b2 3c 5c 2b dd 3d
       0.08868299 -0.030911136 0.02182775 0.10799286
000020 02 e3 72 bd 90 27 2d be 50 52 c4 3c ec f4 2c 3d
       -0.059298523 -0.16909623 0.02396503 0.042225763
000030 d0 90 0b 3d e7 a2 2c be 98 89 25 3e 38 a9 1c 3e
       0.03407365 -0.16859017 0.16165769 0.15298927
000040 1a 3b 70 3d 67 de 62 bc 92 23 8d 3b 58 15 f7 bd
       0.058650114 -0.01384697 0.004307219 -0.12064618
000050 b7 4a cf 3d 48 68 e5 3d 2f b9 59 3e d5 c8 3f 3e
       0.101216726 0.11201531 0.21262048 0.18728955
000060 7c 76 82 bc 2e 73 d9 3d aa ad 89 3e b8 78 49 bd
       -0.015925638 0.10617672 0.26890308 -0.049187392
000070 d6 1d 87 bc 58 a6 ad 3d 37 04 02 3c a0 f9 96 bd
       -0.01649372 0.08478993 0.007935575 -0.07371831
000080 81 d8 14 3d cf 7b f2 3d da 3d e9 bd b7 a9 75 3d
       0.036339287 0.11840021 -0.113887504 0.059976306
000090 a7 4b b0 bd 90 61 3d 3d a4 0d 33 3d 64 17 41 3c
       -0.086081795 0.04623562 0.04371418 0.011785362
0000a0 6c 28 21 3d 20 7f e7 3c ac 2c 38 be f6 97 dd bc
       0.03934519 0.02825886 -0.17985791 -0.02705
0000b0 53 d3 1d 3d 02 22 04 bd 42 dc 09 be cd ce 71 3b
       0.038531613 -0.032258995 -0.13462928 0.0036896945
0000c0 8b 38 d2 bd 22 6c af bd 36 0f 1a 3d b4 03 5a 3c
       -0.10264691 -0.085655466 0.037612163 0.013306547
0000d0 d0 19 f7 bc fd c5 61 be c2 f1 29 bc 14 79 23 bd
       -0.030163676 -0.22048183 -0.010372581 -0.03991039
0000e0 18 39 28 3d e6 1a b8 bd 81 6c a4 3d 33 a7 30 be
       0.041070074 -0.089895055 0.08028508 -0.17251281
0000f0 3f fe 62 3d f3 12 c2 3c 56 af 8f 3e 64 55 12 3c
       0.05541825 0.023690676 0.28063458 0.0089314915
000100 eb 24 eb 3d a7 05 a0 3d df c6 bb bc 3e 88 00 3d
       0.11481651 0.07813578 -0.022921978 0.03137993
000110 18 93 1b be 98 1a 9b bd eb d6 2e bd 20 02 33 3d
       -0.1519283 -0.07573432 -0.04268543 0.0437032
000120 3e 2f 05 3e 7d 05 95 3d 05 e4 f6 3d 00 da 54 bc
       0.13006303 0.072764374 0.1205521 -0.012991428
000130 cb b3 f2 bd 81 df 88 3d 44 89 e9 3d f1 64 8a 3d
       -0.11850699 0.06683255 0.114031345 0.06757534
000140 30 6d d7 3d 98 72 27 3d 96 38 9c 3d b1 ab b0 3d
       0.10518873 0.04088077 0.076279804 0.086264975
000150 c2 b3 ad bd b6 ae cb bc d7 b5 bc bc 5f a2 8b bd
       -0.08481552 -0.024863582 -0.023035927 -0.06818079
000160 81 b9 9e 39 44 46 e5 bb 7d 09 da bc 3a e0 c5 bd
       0.0003027432 -0.0069969017 -0.026615852 -0.096619084
000170 6c 58 76 3d bb 4c 57 3d a6 09 e0 3d dd f7 6b 3c
       0.06014292 0.05256341 0.1093934 0.014402357
000180 77 66 88 3b f0 75 d9 3c 88 be b1 bc 3e 99 b3 3c
       0.0041626054 0.026545495 -0.021697298 0.021923658
000190 1e 6d 87 3d af b4 23 be ce 2c 11 be 9d d0 5c 3d
       0.06612609 -0.15986894 -0.14177248 0.053909887
0001a0 11 0f 96 3d 03 50 8e bc c4 13 e0 3c e1 30 44 bd
       0.073270924 -0.017372137 0.027353175 -0.047898177
0001b0 1f 08 c3 bd 2d f5 8b 3d 57 f9 1c be d0 bb 97 3c
       -0.09523033 0.06833873 -0.1532949 0.018522173
0001c0 2a 12 5b 3d c5 8a c9 3b 44 06 df 3c 44 65 1c 3e
       0.05348412 0.006150576 0.027224667 0.15273005
0001d0 90 d1 d9 3d 94 c4 57 3e 9a 2e 6d bc 85 4e 29 bd
       0.10635674 0.21071082 -0.014476443 -0.041334648
0001e0 a1 e4 51 3d 8e 84 ac 3d b3 c3 a6 3b 99 63 ee 3d
       0.05124343 0.0842372 0.005089247 0.116400905
0001f0 fb 51 e4 3c d1 b7 ba bd 67 3c 4c bd 95 c2 35 3e
       0.027871123 -0.091170914 -0.04986229 0.17750008
000200 2d 8b 43 be cc 05 1f 3d 7f 31 93 bc 67 ab 29 3e
       -0.1909606 0.038823888 -0.017967938 0.16569291
000210 0a b9 98 bc a1 2e ef bc 33 02 91 bd 42 9c 59 3d
       -0.018642921 -0.02919704 -0.070804976 0.053127535
000220 5a 9e 35 3e 06 1b b5 3d fb cb 9e 3d fe f0 f4 bc
       0.17736188 0.08843045 0.0775375 -0.02990007
000230 0c 8b f6 bd f0 a3 25 be d6 bc 21 bb 2a c5 82 3d
       -0.1203824 -0.16175818 -0.0024679205 0.06385262
000240 d2 fc f9 3d 28 22 a2 bd d9 85 59 bc 1b 81 bb 3d
       0.12206425 -0.07916671 -0.013276541 0.09155484
000250 50 f1 89 3d 75 73 42 bd b0 8a 44 3e 5e 20 e0 3d
       0.0673548 -0.04747339 0.1919353 0.109436736
000260 1d 02 eb bc 21 bd 9e 3d 84 4d 6d bd 6d ca 15 bd
       -0.028687531 0.07750917 -0.057935253 -0.03657
000270 a2 8a d5 3c 3b b3 48 3d 4e 2b b4 bd b2 46 b6 bd
       0.026067082 0.048999052 -0.08797322 -0.08900203
000280 58 56 ec 3c ae 43 db bc f0 67 f6 3d 45 c5 72 be
       0.028849766 -0.02676567 0.12031543 -0.23708065
000290 b6 9b 2c 3e 99 18 50 3b 92 3c 06 bd b1 b3 9d 3d
       0.16856274 0.0031752943 -0.032772608 0.07700289
0002a0 34 53 46 bc d9 65 94 bd eb 29 f4 3d 69 79 94 3d
       -0.012104798 -0.072459884 0.11922058 0.0724972
0002b0 30 46 74 3d b6 bb 5f be 6a 6f 62 bd 24 5f f4 3c
       0.05963725 -0.2184895 -0.055282034 0.029830523
0002c0 56 a9 a8 bd d1 e9 10 3d 07 b9 20 be 5e ba f3 3b
       -0.08235423 0.035379235 -0.15695582 0.007437988
0002d0 6e 24 a5 bd 1f 82 a8 3b 5e 69 0a 3e dc a3 21 be
       -0.08063589 0.005142465 0.13516757 -0.15785164
0002e0 92 28 5c bd a4 93 b8 bd 7e 1b 95 be 80 cb 72 bd
       -0.05374963 -0.09012535 -0.29122537 -0.059276104
0002f0 6e 58 d6 bc 37 f6 91 3d 01 af ef 3d 54 07 e6 3d
       -0.026165213 0.0712704 0.11703301 0.112318665
000300 56 1c 0d be 2f 16 10 3d e2 b6 39 3c ea 48 59 be
       -0.1378034 0.035177406 0.011335107 -0.21219221
000310 4a 9b 06 be e2 8c a4 3d 80 37 3f 3d c5 a8 63 bd
       -0.13145176 0.08034684 0.04668379 -0.055580873
000320 bc 7e 95 3d fd 21 e4 bd 41 51 d8 bc d8 58 81 bc
       0.07299563 -0.11139295 -0.026405932 -0.015789434
000330 85 e3 1a be 03 79 24 3e 08 c3 85 3c f9 c1 29 bd
       -0.15125854 0.16061787 0.01632835 -0.041444752
000340 33 e4 05 3d fb a0 af 3d 1d ca 0b 3c 15 62 d6 bc
       0.03268833 0.085756265 0.008532074 -0.026169816
000350 a4 af eb bd c7 89 95 bc 62 58 5d 3d 24 ac ff bd
       -0.1150811 -0.018254174 0.054039367 -0.12484005
000360 fc 8b 8a 3d 9f 05 06 3e 31 44 3c 3e 74 e7 ba bd
       0.06764981 0.13088082 0.18385388 -0.091261774
000370 34 b3 f3 3c 4e 6a 34 be 09 29 59 bc 9a d8 03 3d
       0.029748537 -0.17618677 -0.013254412 0.03218899
000380 f7 ee 36 bd e6 98 48 be 1b 77 d1 3d 70 cc df 3d
       -0.04466149 -0.19589576 0.10227796 0.10927665
000390 e9 01 48 bd ea 1d aa bd 40 9c 6c bd 7f b8 3c 3e
       -0.048829947 -0.08306487 -0.0577662 0.18429755
0003a0 d9 28 00 3d 4a 54 05 be 70 5c 9f 3d b5 bb 93 bb
       0.031288955 -0.13020435 0.07781303 -0.0045084604
0003b0 f1 d6 af 3a 24 ed ae bd c0 70 1a 3c c1 b7 d2 bc
       0.0013415498 -0.08541325 0.009426296 -0.025722386
0003c0 68 37 9e bd 6a 70 26 bd d6 fe 98 3c 58 8f 92 3d
       -0.07725412 -0.04063455 0.018676203 0.07156247
0003d0 8f da 94 3b e3 05 f2 bd f5 68 32 be 3e 4b 0f 3e
       0.004542656 -0.11817529 -0.1742285 0.13993546
0003e0 4d 41 4b bd ad 30 25 3e fe 20 bd 3c 4e bd 02 bd
       -0.049622823 0.1613185 0.023087021 -0.031918816
0003f0 79 2a 92 bd ad 27 4c bc 46 8a 1b 3d 21 c1 dd 3d
       -0.07137007 -0.012460631 0.037973665 0.10827852

network_body._body_endoder.seq_layers.2.bias f4 [128]
000000 41 25 48 b7 45 d5 16 ba 53 b9 1b bb 57 a0 ee b5
       -1.1929603e-05 -0.00057538255 -0.0023761585 -1.7779047e-06
000010 06 ae 1e ba 10 6e 5b ba c5 d9 8d ba 84 ec b6 ba
       -0.0006053153 -0.00083705876 -0.0010822347 -0.0013955985
000020 71 07 e9 ba 4b 5f 13 ba d7 1a 63 bb 51 e8 fc b9
       -0.0017778707 -0.0005621805 -0.003465345 -0.00048238275
000030 c2 e6 9b ba bb 04 44 ba 33 8a f7 b9 11 ab 1b 3b
       -0.0011894333 -0.00074775115 -0.00047214478 0.0023753087
000040 e4 b0 4b 35 eb c6 0d ba 8c 6e 97 b9 a9 63 67 24
       7.58808e-07 -0.0005408364 -0.00028883328 5.0174556e-17
000050 df 05 a2 ba 85 88 ec 37 28 21 27 ba a8 23 40 ba
       -0.0012361369 2.8196964e-05 -0.0006375485 -0.0007329532
000060 85 cb 4b ba ea 40 f4 30 94 a8 45 ba 29 1b bb 38
       -0.0007774162 1.7771786e-09 -0.0007540074 8.921914e-05
000070 16 86 0b b9 75 e4 42 bb 51 cd a3 26 68 cf 1a bb
       -0.00013306024 -0.0029738222 1.1366048e-15 -0.002362216
000080 ac a7 dc ba 82 52 ad ba c2 40 f4 a8 d5 7d a6 39
       -0.0016834638 -0.0013223442 -2.7117526e-14 0.0003175574
000090 03 bb 94 b2 60 dd 8c b9 02 96 c2 b6 58 f1 21 32
       -1.731451e-08 -0.00026867818 -5.7991138e-06 9.426309e-09
0000a0 2d 2a b2 b9 f2 89 8f b9 cc 36 25 b1 5a 91 ee 1d
       -0.0003398223 -0.00027377863 -2.4041809e-09 6.3148365e-21
0000b0 d5 17 52 ba 88 dc 1f a8 ac d7 ab b7 ce 87 bc 17
       -0.00080144155 -8.874093e-15 -2.0485219e-05 1.2183497e-24
0000c0 cf c7 ba b9 16 d7 1e bb e3 7e cc ba 01 72 ae b8
       -0.00035625554 -0.0024237088 -0.001560178 -8.3182014e-05
0000d0 1b f2 28 bb 22 e5 18 ba 35 f6 e7 37 31 af f1 ba
       -0.0025779072 -0.00058324833 2.7651995e-05 -0.0018439052
0000e0 7b 60 1e 36 1a 93 41 b9 58 08 cc 38 a0 6b 62 39
       2.3599994e-06 -0.00018460714 9.729032e-05 0.00021593133
0000f0 58 7d 25 ba f8 c2 ff 30 e6 de ad b8 5a 0d 0a ba
       -0.0006312928 1.8609105e-09 -8.290801e-05 -0.0005266272
000100 28 a9 02 b9 9f b1 55 bb 20 f8 31 3a f6 92 b8 b9
       -0.00012460782 -0.003260709 0.00067889877 -0.0003520471
000110 74 70 3c ba 5d c1 43 ba e0 05 1a bb c2 ba 5d ba
       -0.00071883877 -0.0007467473 -0.0023502037 -0.000845831
000120 d0 c4 24 b9 15 71 dc 2b ba 95 5c b5 29 ab 2a aa
       -0.00015713577 1.5663327e-12 -8.217427e-07 -1.5158416e-13
000130 75 bf 03 ba aa 09 73 3a 0a 47 07 bb 95 7d 26 38
       -0.0005025783 0.00092711544 -0.0020641708 3.969444e-05
000140 4d 79 dd 39 47 0f 30 bb 11 20 cf b9 7b 18 f9 b9
       0.0004224278 -0.0026864575 -0.00039506008 -0.0004751122
000150 b9 73 20 ba b7 6c 83 b8 3d 5a d0 b8 96 0e a2 b9
       -0.00061207596 -6.2668165e-05 -9.935021e-05 -0.00030909915
000160 ce 1f f0 ba 75 63 37 bb 53 bf 18 2d 0e 49 2f 3b
       -0.0018320025 -0.0027982865 8.682682e-12 0.0026746425
000170 9e 36 97 ba de c1 12 bb 72 da 1c bb 8c 91 18 3a
       -0.0011536663 -0.0022393386 -0.0023933914 0.0005820028
000180 e5 c9 df ba fa 56 78 ba 6e 68 f6 ba c0 65 fb ba
       -0.0017073719 -0.000947341 -0.0018799433 -0.0019180104
000190 6d 16 f3 b9 d6 18 95 ba a3 9d a5 2c f5 82 94 1f
       -0.0004636528 -0.00113752 4.7070832e-12 6.289709e-20
0001a0 6d 5e ad ba ff c0 28 bb 17 f7 2c bb b9 e4 8b 38
       -0.0013226994 -0.00257498 -0.0026392394 6.6706394e-05
0001b0 98 61 1e ba 8f 4f 4f b9 b6 9a 24 b8 90 ca 56 ba
       -0.0006041764 -0.00019770696 -3.9244733e-05 -0.00081936363
0001c0 b5 5b cd ba 40 1f 27 b9 25 4e a8 b7 0d 07 26 b9
       -0.001566759 -0.00015938003 -2.006355e-05 -0.0001583362
0001d0 b6 cb 05 bb 53 b9 84 ba 65 8b e8 3a 0c a0 27 3a
       -0.002041561 -0.0010126032 0.0017741738 0.0006394393
0001e0 94 57 41 37 a7 a8 57 b9 40 92 02 bb ef 6c f9 b8
       1.1524087e-05 -0.00020566826 -0.0019923598 -0.00011893536
0001f0 f6 e0 03 ba 45 43 52 bb 71 3b 5d 3a 12 57 55 bb
       -0.0005030775 -0.0032083553 0.00084393384 -0.0032553119

action_model._continuous_distribution.log_sigma f4 [1, 2]
000000 12 42 02 3c ca 1f c9 3b
       0.007950323 0.0061378228

action_model._continuous_distribution.mu.weight f4 [2, 128]
000000 0e 6b f5 ba e6 5d 63 3b ac ef 8b ba 94 77 37 3b
       -0.0018723921 0.003469342 -0.0010676286 0.0027994858
000010 5e ea 3d 3c 30 a4 f3 3b db 3b 46 3d bd 59 5c bc
       0.011591522 0.007435344 0.048396926 -0.01344913
000020 91 71 2d 3c 6c ac aa bc 84 c3 b4 3c da b7 9d 3c
       0.010586158 -0.02083417 0.022065885 0.019252706
000030 ca d4 e2 3b 2b 80 35 bb 58 c7 80 bc fe b8 db 3c
       0.006922339 -0.0027694802 -0.015720055 0.02682161
000040 1c 34 7d 3c 2b fa 58 3c 19 4d eb bc 1d a0 8b bc
       0.015454318 0.013243238 -0.028723286 -0.017044121
000050 f5 96 6f 3c 64 f6 02 3d a0 76 51 bc 5d 95 9e 3b
       0.014623393 0.031973258 -0.01278463 0.004839583
000060 fd 4c cc bc fb fe 2d 3d b5 e7 e2 3b 5f ee a2 bc
       -0.024939055 0.042479496 0.0069245943 -0.019889055
000070 68 07 ad bb ed 3a 6a 3c 13 6c f9 3b 9b 66 51 b9
       -0.005280424 0.014296276 0.0076117604 -0.00019970017
000080 c2 53 87 bc 3f 98 91 3c d0 df 63 bb f9 ce ca 3b
       -0.016519431 0.017772792 -0.0034770854 0.006189224
000090 11 2e eb 3c 36 1a 9b bc 0c 8a 21 3c ba 3b 84 3c
       0.02870849 -0.018933397 0.009859573 0.016141761
0000a0 0d 7d d3 b8 d1 14 46 bc ab 8d 8f 3c 9f 13 05 3d
       -0.000100845566 -0.012089924 0.017523607 0.032489415
0000b0 ee a1 d3 3b ae 90 9e 3c 72 db 51 bc c5 e7 c9 3b
       0.0064585125 0.019356098 -0.0128086675 0.0061616623
0000c0 ff 05 1a bc 44 27 38 bb ae 54 d0 3b 91 06 e5 bb
       -0.009400844 -0.0028099576 0.006357751 -0.006989308
0000d0 ce f2 29 3d 4e c6 94 bc ad 52 ee 3b 83 d1 02 bd
       0.041491322 -0.018160965 0.0072730393 -0.031938087
0000e0 a1 fd d9 bc 54 f7 dc 3b 61 60 07 bc 91 42 c9 b9
       -0.026610197 0.006743351 -0.008262725 -0.00038387303
0000f0 1b cf 3c 3c 7a 8d 86 bb c9 f6 fd bc 99 c6 ff 3b
       0.011523987 -0.004106221 -0.031001465 0.007805657
000100 47 9c d7 bb 0d 90 af ba fe dd 82 bc d3 0f 0f bd
       -0.006579909 -0.0013394371 -0.015974995 -0.0349272
000110 a6 2c 0d bc 63 aa 4f 3b 87 65 e7 b9 a6 cd 09 3c
       -0.008616602 0.0031687252 -0.00044135397 0.008410847
000120 c9 4d 83 bc df dd 41 39 07 bd 70 bc 0f 13 46 bc
       -0.016028302 0.00018488568 -0.014693505 -0.012089505
000130 8c 90 73 bc e3 45 76 ba d8 0d 9f 3c 27 5c ca bb
       -0.014866006 -0.0009394569 0.01941578 -0.006175536
000140 8e db bd bc e7 68 af bc 09 7f 95 3c ca 92 f7 bc
       -0.02317598 -0.021412326 0.018249052 -0.030221362
000150 40 01 80 3c 4a 7b a1 3c 35 f1 ba bc 62 df 71 bb
       0.015625596 0.01971211 -0.022820095 -0.0036906828
000160 6e 45 77 3c d4 e8 0f 3a 54 c7 48 3b f4 de b8 3b
       0.015092237 0.0005489711 0.0030636387 0.0056418125
000170 6d 69 01 bd 7d 70 8d 3b bf 13 b4 3c e2 28 0d 3c
       -0.031594682 0.004316388 0.021982072 0.008615704
000180 3a 59 15 bc c4 65 bd bc 5c cc de 3a c2 07 ec bb
       -0.009115512 -0.023119815 0.001699816 -0.0072030732
000190 8e b8 ab bb b9 a5 3c bc 8b 8a af 3c a7 1f f9 3a
       -0.0052405065 -0.011514121 0.021428367 0.0019006626
0001a0 08 ea a0 bc 6e 3b e3 3c 05 24 7a bc 96 2a 1e 3c
       -0.019642845 0.0277383 -0.015267377 0.009653708
0001b0 1f fe 0e 3d fc 95 38 bc 04 ba a2 3a 6b 43 6a bb
       0.034910318 -0.011266228 0.0012415056 -0.003574575
0001c0 7c 08 71 3c 56 1b 37 3c 22 16 52 3c ca 70 3e bd
       0.0147114955 0.011175951 0.01282266 -0.046494283
0001d0 2f ba 91 3c 76 65 0e 3c f5 f2 d3 3c 77 32 8f 3c
       0.017788975 0.008691182 0.025872687 0.017480118
0001e0 66 18 f2 3b a6 14 e9 bc cf ff fe 3c b7 4b c7 ba
       0.0073881624 -0.028452229 0.031127838 -0.001520506
0001f0 b7 2f ae 3c 38 0b f8 bb 3d c8 c4 bc a4 05 a9 3b
       0.021262987 -0.0075696968 -0.024021262 0.005158143
000200 b7 63 c2 3c 45 26 04 3c ec 0f 41 b9 da 01 d7 bb
       0.023729188 0.008065765 -0.00018411846 -0.0065615
000210 30 c9 ae bc 6c 45 3d bb d4 2e 8c 3c 06 76 26 bc
       -0.021336168 -0.002888049 0.017112173 -0.010159975
000220 a3 57 10 3c c5 81 a7 bc f2 66 9c 3c dc df bc bb
       0.008809957 -0.020447621 0.019092057 -0.005763991
000230 88 e5 f0 ba 9f a2 83 bc 9a 61 f9 bc 9e e4 37 3d
       -0.0018378953 -0.016068755 -0.030442048 0.04489576
000240 6f 20 1c 3c 1f 6a e8 bc 60 6d 5b 3b 0f 61 ea bb
       0.009529217 -0.028370915 0.003348194 -0.0071526836
000250 cb 5d 5c 3c 35 85 82 3c b0 c0 b1 bc 4f 9c 84 bc
       0.013450096 0.015932659 -0.021698326 -0.016187815
000260 0e 86 c0 3b c6 6b 08 bc 75 6b 73 bc 79 10 00 3d
       0.0058753556 -0.008326476 -0.014857163 0.03126571
000270 ec 60 89 3c 57 3c b2 3c 62 78 c9 bc 6f ed 84 ba
       0.016769849 0.021757288 -0.024593536 -0.0010141562
000280 dc de f9 3c e6 3f d9 bc 1f b4 73 bb e6 bb bf 3c
       0.030501775 -0.026519727 -0.0037186218 0.023405027
000290 61 c8 b2 3c 6a b4 09 bd 01 e6 a5 bc ab 5e 09 3c
       0.021824064 -0.033619322 -0.020251276 0.008384387
0002a0 43 d5 c2 ba 79 13 39 3c c6 b5 ce bb 9d 86 50 3a
       -0.0014864582 0.011296147 -0.00630829 0.0007954629
0002b0 71 56 a3 bc 09 2d 1d ba 50 12 00 bb b8 79 a0 bc
       -0.01993868 -0.00059957855 -0.0019542165 -0.01958929
0002c0 27 3f 24 3c 52 bd 96 ba f5 32 e8 ba e1 09 99 3c
       0.010024822 -0.0011500514 -0.0017715382 0.018681468
0002d0 fb d7 1b 3c 58 b6 9e bc 1f aa e6 3c 92 45 32 bc
       0.009511943 -0.019374058 0.028157292 -0.010880845
0002e0 07 17 af bc 60 e2 8d bc 63 e0 11 3d 9a 79 b9 bc
       -0.021373285 -0.017319858 0.035614382 -0.022640992
0002f0 96 df e5 3a 53 97 b5 ba e5 76 97 3c d5 ae 01 bd
       0.0017537947 -0.0013854302 0.01848931 -0.031660873
000300 de 32 8a 3c d1 b8 f0 3a b4 44 5e bc 3d 33 d7 3c
       0.016869958 0.0018365626 -0.013566185 0.02626955
000310 36 39 96 3b 38 8a a2 3b 7b cd 41 3b 3b a4 ec bc
       0.004584457 0.0049603246 0.0029571939 -0.028886905
000320 89 2d d1 bc 52 22 9b bc d9 1c 4c 3b 5f f8 16 3c
       -0.025534408 -0.018937264 0.0031145124 0.00921449
000330 60 39 d4 bc 7e c9 82 bc a4 e3 d3 bc a7 76 e3 3c
       -0.025906265 -0.01596522 -0.025865383 0.027766539
000340 9a a7 cd bc 27 f4 3d 3c 53 db 04 3b 35 da 02 bd
       -0.025104333 0.011593855 0.002027233 -0.03194638
000350 ca c7 34 bc cf 13 02 3c da 04 8b 3c c9 38 2a 3c
       -0.011033962 0.007939293 0.016970087 0.010389515
000360 fa 47 22 bc 81 87 23 3b 65 f8 e7 bb ef ba d5 bc
       -0.009904856 0.0024952593 -0.0070791715 -0.026090113
000370 4a d1 9d 3c 36 75 49 ba 6d 05 1e bb c2 f8 49 bc
       0.019264836 -0.00076850073 -0.002411212 -0.012327375
000380 3e fd cb bc 68 e4 1e bc 3a c6 2b b9 a7 94 97 bc
       -0.024901029 -0.009698011 -0.00016381676 -0.0185035
000390 8f 80 21 bd ea ef 08 3d 28 2e 77 bb 98 92 e2 bc
       -0.039429244 0.033431925 -0.003771672 -0.027657792
0003a0 09 d5 49 bc 76 69 bd 3c 3a f8 37 bc 6f 32 0a 3d
       -0.012318858 0.023121577 -0.011228615 0.033739503
0003b0 8b d0 7b bc 89 98 63 3c b9 08 b8 3c bc ae 1b 3c
       -0.015369545 0.013891348 0.022465097 0.009502109
0003c0 29 79 90 3b 74 2e 33 3c fc e7 46 bc 09 80 0c 3c
       0.0044089747 0.010936368 -0.01214027 0.008575448
0003d0 4f fc 9b 3b 56 f4 8b bb dd 14 06 bb 76 2b 4c 3c
       0.004760302 -0.0042710705 -0.0020459213 0.012461534
0003e0 d3 53 4f 3c 80 bf 1b 3c 00 ef 4d bc 7b e4 0d 3b
       0.012654263 0.009506106 -0.012569189 0.0021651078
0003f0 bc 7a 6a bc 3a 15 c8 ba f3 46 95 ba 47 70 27 bc
       -0.014311489 -0.0015265115 -0.0011388942 -0.01021964

action_model._continuous_distribution.mu.bias f4 [2]
000000 e8 ca 3f 38 17 60 9b 39
       4.572692e-05 0.00029635496

action_model._discrete_distribution.branches.0.weight f4 [1, 128]
000000 1f 2e 34 bb 1f 00 ad 39 9a 96 b4 ba cb 6c 9a bc
       -0.002749331 0.00032997222 -0.0013777793 -0.018850705
000010 c5 d0 6d bc d2 b2 3b 3b a3 09 01 3c 5d 09 e4 3b
       -0.014515107 0.002864052 0.007875833 0.006959124
000020 1c 18 b4 bb 2a 20 53 3b 0f 56 15 bc 8d 2c 36 bc
       -0.005496038 0.0032215216 -0.009114756 -0.01111902
000030 7b 53 a4 ba c7 4b f2 3a f1 fd 93 ba 83 73 d3 bb
       -0.0012537086 0.0018485718 -0.001129089 -0.006452979
000040 d2 25 d4 ba 8f c9 17 3c 8a 35 e9 bb f9 5e 91 bb
       -0.0016185588 0.009264364 -0.007116978 -0.0044363705
000050 42 9f 46 bb 29 bf 97 bb 3d 15 73 bb 93 61 2b 3c
       -0.0030307327 -0.0046309424 -0.0037091516 0.010460275
000060 c3 7a 8a bb ab 8d 81 3c 13 f4 5c bc 73 6c a0 3b
       -0.00422606 0.015814623 -0.013485926 0.0048957407
000070 d3 1a 01 3c 4b 40 03 bc 34 98 88 bc e5 6e 07 3b
       0.007879931 -0.008010934 -0.016674139 0.0020665464
000080 da 00 ea bb 42 02 22 bc dd 88 fe 3a 46 37 3d 3c
       -0.007141215 -0.009888234 0.001941945 0.011548823
000090 98 33 83 3c 82 f3 f3 3a 6f 9b c5 bb ca 9d 22 3b
       0.016015813 0.0018612 -0.006030492 0.0024813288
0000a0 3f 3a 96 3c a7 7e 11 bc 1b a6 ef 3b d7 dd 49 bb
       0.01833832 -0.008880294 0.0073135025 -0.0030802393
0000b0 8a d8 b1 bb 4f 59 8e 3b d1 3d 8c bc 90 81 d5 3b
       -0.005427425 0.0043441425 -0.01711932 0.006515689
0000c0 9c 87 4b 3b 75 23 8d 3b 92 3c d5 bb 4e a6 18 3b
       0.0031056171 0.0043072053 -0.0065074647 0.0023292485
0000d0 5e 75 83 3b b0 7c 03 3c 83 f2 de 3b 77 ac 7c bb
       0.004011794 0.008025333 0.006803812 -0.0038554945
0000e0 cf a2 17 bc 70 fc 2b 3c ff 1f 23 3c 4c 15 83 bc
       -0.009255125 0.0104971975 0.009956359 -0.016001366
0000f0 3e 20 a9 3c 07 7e 10 3c 52 62 34 bc 06 db 2e bc
       0.020645257 0.00881911 -0.0110097695 -0.010672336
000100 14 2e 85 bc fe 2e c9 ba 23 ac e2 39 fc bc aa 3a
       -0.016257323 -0.0015349088 0.0004323433 0.0013026292
000110 4a 1e 1d 3a 72 5d cf bb 70 9f 28 3b 9e 9e 8d bb
       0.0005993588 -0.006328278 0.0025729798 -0.004321887
000120 59 85 16 bc 42 be 58 bc dd ff b9 ba 47 78 a2 39
       -0.009187066 -0.013228955 -0.0014190633 0.00030988661
000130 0b 39 a9 ba a7 8e bc bb 62 9b 40 bc 0b 25 8e bb
       -0.0012910677 -0.00575431 -0.011755796 -0.004337912
000140 eb 2b 8f bc e3 03 9f 3b 09 9c 83 bc 73 fd 50 bc
       -0.017476996 0.0048527583 -0.016065614 -0.0127557395
000150 1a 11 eb 3b af b7 4a bb bb 73 25 bc b3 06 08 bc
       0.0071736695 -0.0030932238 -0.010098393 -0.0083023785
000160 6d c6 be 3b 1a 1b 61 3c 81 ef 8f 3b 77 50 f9 ba
       0.005821994 0.013739372 0.0043925648 -0.0019021173
000170 8e 5c a4 ba ed 45 9a ba 39 8a 88 3a 0f 6f 82 bb
       -0.001253979 -0.0011770107 0.001041717 -0.0039805244
000180 6e 76 34 bc 97 8c 81 bb 5f 89 4f bc b7 ee 28 bc
       -0.011014564 -0.003953527 -0.012667029 -0.01031082
000190 2a 9f 67 bc 3f f9 fa 3a 0a e1 50 bc 47 18 93 3a
       -0.014137069 0.0019147767 -0.012748966 0.0011222445
0001a0 1b e8 11 bb 7b 7a ca ba 7a 53 73 bb 05 81 2c 3c
       -0.002226359 -0.0015447879 -0.0037128613 0.0105288075
0001b0 df d4 8f 3b b3 ea 2a b9 f3 21 fc bb b3 6a 8c 3c
       0.00438939 -0.00016299896 -0.0076944767 0.017140722
0001c0 3d dd 76 3c 0b 11 c8 bb e7 a1 06 ba ad 6f 82 bb
       0.015067396 -0.0061055473 -0.00051358197 -0.003980598
0001d0 f0 8f 12 3c 02 43 7d bc 08 5a dd ba 1c d6 a9 3b
       0.00894545 -0.01545787 -0.0016887793 0.0051829945
0001e0 93 3f 3c bc 70 89 ff bb 9f 65 f2 3b 69 86 cc 3c
       -0.011489767 -0.0077983662 0.007397368 0.024966436
0001f0 d3 40 af 3b e5 e3 ea bb 2d 14 23 3c f8 f7 4d 3c
       0.005348304 -0.0071682804 0.009953541 0.012571327
