Assets/results/VikramRover1/VikramRover/VikramRover-598.onnx (onnx, 80301 bytes, 8 tensors)

network_body._body_endoder.seq_layers.0.weight f4 [128, 10]
-0.12057265 -0.34002385 0.52183104 -0.16790533 0.019587608 -0.38610595 -0.21473633 -0.22906315
0.33073723 -0.17969657 0.31697127 -0.1666533 0.2995711 0.15726121 0.2425631 0.50561666
-0.1793815 0.273865 0.06392713 0.54032344 -0.5963504 -0.09579493 0.16517463 0.23355699
-0.46742433 0.06712173 -0.10778995 -0.57496244 0.008823492 -0.057516307 -0.039025627 0.035200812
-0.037811525 -0.28486803 -0.10331121 0.517473 -0.08937768 0.2741049 0.08878191 0.41042006
0.37464437 -0.005930012 0.5002882 0.1460417 0.08335661 0.45509598 0.10454503 -0.18528083
0.057553172 0.049653675 -0.38564706 -0.28401542 -0.14166194 0.23804262 -0.13853404 -0.40047133
-0.30062926 0.24551378 0.12660953 0.12420414 0.11520024 -0.38124484 0.0066317334 0.4845858
0.09677049 -0.42338732 -0.5701539 -0.20378907 0.27345088 -0.39592046 0.11240106 -0.22124547
-0.3419908 0.25461054 -0.19616146 -0.10621098 -0.32053965 0.3728677 -0.14764477 0.3995024
-0.2984294 0.05668911 0.0888425 -0.01716926 0.6283579 -0.61661947 0.5034319 0.6696984
0.39645472 0.34254402 -0.21835789 -0.18990894 -0.38992265 -0.26956147 0.07815186 -0.35504797
0.015762828 -0.2127687 0.2778261 0.14126134 0.048386563 -0.5000045 -0.12132737 0.055221584
0.35336038 0.23647293 0.0008334431 0.35615632 0.22227645 -0.30961278 -0.15099487 -0.19222137
0.16827093 0.031176683 0.30977136 0.29047814 -0.33916748 -0.4050925 -0.24558137 -0.101154186
0.18422261 0.4836484 -0.3177971 -0.5347239 0.18201458 -0.4977546 -0.10711474 -0.037982315
-0.35133415 -0.026166352 0.59914356 0.21872473 -0.14821269 0.43258557 -0.0461339 -0.056525365
-0.12651905 -0.0313737 -0.45540714 0.16009717 0.41433364 -0.024285998 -0.077344574 -0.56170857
0.23632208 -0.30247387 -0.12040046 -0.30934158 -0.29919952 0.7091282 0.17852487 -0.3862118
0.04462294 -0.15186876 0.24252968 0.20337941 0.20741983 0.13607123 0.4331377 0.65351814
-0.37701744 -0.30883336 -0.007359651 -0.1154756 0.13182797 -0.24062175 0.20993952 0.034112148
0.0047243657 -0.42067248 -0.07376799 0.32829183 0.098606415 -0.18052384 -0.08709328 -0.07776403
-0.25312275 0.40888113 -0.18314183 -0.36549476 0.3768286 0.21089341 0.23183864 -0.11129911
-0.2040578 0.39651683 0.23220791 0.29605085 0.06493249 0.20449652 -0.4119644 0.12585701
-0.058779515 0.07387292 0.15366314 0.0682898 0.79166687 0.060870998 -0.28566593 -0.23876601
0.4234997 -0.1354433 0.07994262 -0.27730528 0.40577376 0.18042253 0.3729396 -0.1006596
-0.3584743 0.61989546 -0.23014571 -0.46157488 -0.36112756 0.118928194 -0.060975563 0.07605888
-0.42019695 0.46790957 0.36034188 0.4130811 0.5406398 0.19542702 -0.042883724 0.3239188
-0.25171044 -0.07953619 -0.16571382 -0.020177923 -0.05998928 0.01058912 -0.5657881 -0.3274733
-0.32968584 0.2141486 0.10169142 -0.29421684 -0.25704 0.040051542 -0.049354237 -0.26396134
0.36815405 0.122528344 0.3838557 0.4433221 0.2427998 0.61227024 -0.2538692 0.7037822
0.34936443 0.7773455 -0.44722417 0.14281999 0.6170872 -0.21538098 0.5403693 0.045795426
00000000: cbee f6bd 9b17 aebe b896 053f 60ef 2bbe
00000010: 3176 a03c aeaf c5be d7e3 5bbe 888f 6abe
00000020: 6456 a93e 6102 38be 0f4a a23e 2aa7 2abe
00000030: 6261 993e 1509 213e 7662 783e 1870 013f
00000040: c9af 37be 0938 8c3e 3aec 823d a352 0a3f
00000050: 6baa 18bf 2230 c4bd 8a23 293e 9029 6f3e
00000060: 3e52 efbe 1e77 893d fac0 dcbd bd30 13bf
00000070: 6890 103c 3896 6bbd 56d9 1fbd ba2e 103d
00000080: 42e0 1abd 39da 91be d494 d3bd 1c79 043f
00000090: a50b b7bd 7a57 8c3e 4ad3 b53d 9422 d23e
000000a0: 63d1 bf3e 8c50 c2bb e312 003f f58b 153e
000000b0: dfb6 aa3d 5702 e93e b41b d63d 42ba 3dbe
000000c0: e0bc 6b3d a761 4b3d 8873 c5be 786a 91be
000000d0: d40f 11be 72c1 733e dedb 0dbe 940a cdbe
000000e0: 14ec 99be f767 7b3e eea5 013e bd5e fe3d
000000f0: 1aee eb3d 8632 c3be 034f d93b a11b f83e
00000100: 9b2f c63d 39c6 d8be 9bf5 11bf 15ae 50be
00000110: c101 8c3e 16b6 cabe 8732 e63d 2c8e 62be
00000120: 6b19 afbe 505c 823e 8dde 48be 2485 d9bd
00000130: c61d a4be 84e8 be3e 3130 17be 948b cc3e
00000140: bdcb 98be d732 683d 0ef3 b53d 8ca6 8cbc
00000150: 10dc 203f c6da 1dbf eae0 003f 5b71 2b3f
00000160: 1dfc ca3e ee61 af3e 3699 5fbe 7d77 42be
00000170: f1a3 c7be f603 8abe 150e a03d d9c8 b5be
00000180: 0c21 813c 0ae0 59be 393f 8e3e d0a6 103e
00000190: fd30 463d 4b00 00bf 7c7a f8bd 0730 623d
000001a0: a7eb b43e f625 723e 6b7b 5a3a 1f5a b63e
000001b0: 709c 633e 9185 9ebe 669e 1abe aed5 44be
000001c0: 374f 2c3e 3e66 ff3c 5a9a 9e3e 8db9 943e
000001d0: 5ca7 adbe 4968 cfbe af79 7bbe ed29 cfbd
000001e0: daa4 3c3e c3a0 f73e 4db6 a2be aae3 08bf
000001f0: 0862 3a3e b1d9 febe f95e dbbd 5893 1bbd
00000200: 12e2 b3be d15a d6bc 7961 193f 60f9 5f3e
00000210: 11c5 17be db7b dd3e e6f6 3cbd 2487 67bd
00000220: 368e 01be b581 00bd 202b e9be 83f0 233e
00000230: 8a23 d43e 6ef3 c6bc d566 9ebd 22cc 0fbf
00000240: 6afe 713e dbdd 9abe 8494 f6bd 0562 9ebe
00000250: ae30 99be 6d89 353f 39cf 363e 8ebd c5be
00000260: 8bc6 363d 7c83 1bbe b359 783e b142 503e
00000270: dd65 543e 4256 0b3e 3ac4 dd3e f74c 273f
00000280: 6e08 c1be 681f 9ebe 3a29 f1bb 797e ecbd
00000290: e9fd 063e 8c65 76be 63fa 563e 2eb9 0b3d
000002a0: dace 9a3b 6262 d7be ac13 97bd de15 a83e
000002b0: 29f2 c93d 3edb 38be f65d b2bd bf42 9fbd
000002c0: 4e99 81be de58 d13e 8889 3bbe 2122 bbbe
000002d0: aeef c03e 71f4 573e 1c67 6d3e caf0 e3bd
000002e0: 87f4 50be 4104 cb3e e9c7 6d3e fa93 973e
000002f0: 53fb 843d 8967 513e ffec d2be a9e0 003e
00000300: cac2 70bd af4a 973d df59 1d3e 86db 8b3d
00000310: aeaa 4a3f de53 793d ce42 92be 147f 74be
00000320: f4d4 d83e a6b1 0abe f5b8 a33d f5fa 8dbe
00000330: 94c1 cf3e afc0 383e f0f1 be3e 9f26 cebd
00000340: f289 b7be 78b1 1e3f 51ab 6bbe 8b53 ecbe
00000350: b6e5 b8be a090 f33d 83c1 79bd c2c4 9b3d
00000360: 0e24 d7be d891 ef3e bb7e b83e 5e7f d33e
00000370: 5f67 0a3f 051e 483e d8a6 2fbd afd8 a53e
00000380: 31e0 80be dfe3 a2bd e2b0 29be 2c4c a5bc
00000390: 52b7 75bd fd7d 2d3c 7dd7 10bf 95aa a7be
000003a0: 95cc a8be c549 5b3e 9743 d03d 97a3 96be
000003b0: bf9a 83be 160d 243d ab27 4abd f125 87be
000003c0: b07e bc3e 24f0 fa3d bc88 c43e 1dfb e23e
000003d0: 83a0 783e bebd 1c3f 25fb 81be 122b 343f
000003e0: e5df b23e 1d00 473f 91fa e4be 673f 123e
000003f0: 6df9 1d3f d58c 5cbe a455 0a3f fc93 3b3d

network_body._body_endoder.seq_layers.0.bias f4 [128]
-0.00041318187 0.004554357 0.0 0.0010065411 0.0043897494 0.0 0.005449465 0.0
3.8788443e-29 0.0 -0.0033178632 0.007239772 0.0 0.0021853019 -0.0019226959 0.0007855823
0.0 0.003113339 0.0008061956 0.0 0.0021907673 0.0 -0.0027396358 0.0
-0.0031330194 0.00455591 0.0 -0.001260309 0.005025889 0.0 -0.004749186 0.0
2.8745478e-07 0.0 0.0064034327 0.0067990115 0.0 0.011007929 0.007444888 0.0026246887
0.0063830656 -0.004315626 0.0 0.0069848695 -0.005093411 0.0 -0.0025519012 0.0
-6.7122174e-35 -0.0006773523 0.0057842075 -0.007649175 -0.005841416 0.0 0.00069486897 0.0
0.011332016 -0.008279206 0.005868376 0.004943658 0.0085419705 -0.010333619 0.0 -8.550866e-10
-0.008503831 0.0040933634 0.004940103 0.0005172744 0.00078537734 0.0035556583 -0.0026028755 0.003162358
-0.0020845146 0.0078800665 -0.0005721777 0.003390354 0.0 0.009006456 0.007604888 0.004459056
0.0 0.0 0.0 0.0 6.098066e-13 -0.0036739307 0.0065086833 0.0
0.0 0.0 -0.005275159 0.0 0.0 0.004246621 0.0 -0.004437543
0.0031860836 -0.0061689736 0.0 0.0 0.003504516 0.0040959995 -0.0030966185 0.0008947569
0.0 -5.677195e-22 0.004532328 0.0027643545 -0.009525251 0.0 0.0 -0.009011906
-0.0039995518 0.0 0.0 0.0034372797 0.0 -0.010163505 0.0 3.0931085e-13
-0.0028375455 -0.0045691784 0.006824344 0.0 0.0018957991 -0.0033032899 0.0 0.0025032207
00000000: 55a0 d8b9 b73c 953b 0000 0000 eaed 833a
00000010: e3d7 8f3b 0000 0000 6d91 b23b 0000 0000
00000020: 47ae 4410 0000 0000 8270 59bb 9c3b ed3b
00000030: 0000 0000 4837 0f3b f802 fcba 89ef 4d3a
00000040: 0000 0000 2909 4c3b df56 533a 0000 0000
00000050: fa92 0f3b 0000 0000 768b 33bb 0000 0000
00000060: 5853 4dbb be49 953b 0000 0000 f430 a5ba
00000070: 36b0 a43b 0000 0000 0f9f 9bbb 0000 0000
00000080: 7c53 9a34 0000 0000 e3d3 d13b 3eca de3b
00000090: 0000 0000 9a5a 343c 3ff4 f33b f802 2c3b
000000a0: 0929 d13b 186a 8dbb 0000 0000 55e1 e43b
000000b0: a1e6 a6bb 0000 0000 cc3d 27bb 0000 0000
000000c0: fc70 b286 5890 31ba 7389 bd3b eea5 fabb
000000d0: 5969 bfbb 0000 0000 de27 363a 0000 0000
000000e0: eca9 393c 82a5 07bc 824b c03b 69fe a13b
000000f0: 9ff3 0b3c 574e 29bc 0000 0000 5f0b 6bb0
00000100: a753 0bbc 9f21 863b 96e0 a13b b399 073a
00000110: c8e1 4d3a 0c06 693b 0195 2abb 903f 4f3b
00000120: 5a9c 08bb 651b 013c 32fe 15ba b430 5e3b
00000130: 0000 0000 d08f 133c 6d32 f93b 461d 923b
00000140: 0000 0000 0000 0000 0000 0000 0000 0000
00000150: 32a5 2b2b 54c6 70bb cb46 d53b 0000 0000
00000160: 0000 0000 0000 0000 3edb acbb 0000 0000
00000170: 0000 0000 3d27 8b3b 0000 0000 cf68 91bb
00000180: 9dcd 503b 1a25 cabb 0000 0000 0000 0000
00000190: 06ac 653b bc37 863b a3f0 4abb 1e8e 6a3a
000001a0: 0000 0000 2b95 2b9c ec83 943b 2c2a 353b
000001b0: cc0f 1cbc 0000 0000 0000 0000 aca6 13bc
000001c0: ac0e 83bb 0000 0000 0000 0000 fc43 613b
000001d0: 0000 0000 d484 26bc 0000 0000 6420 ae2a
000001e0: 1df6 39bb 0cb9 95bb bf9e df3b 0000 0000
000001f0: 767c f83a 027c 58bb 0000 0000 130d 243b

network_body._body_endoder.seq_layers.2.weight f4 [128, 128]
9.234664e-05 0.072155416 -0.012666515 0.090395585 0.07223986 -0.032052133 0.057630345 -0.013452514
0.11342621 -0.1966037 0.18854462 -0.04509014 -0.046043098 0.008456009 -0.009483065 0.033031005
0.09892159 -0.034008484 -0.011966345 0.049067903 -0.0022835827 0.09696819 -0.051954642 -0.062479805
0.110553 0.07463517 0.06001125 -0.010447727 -0.082523905 0.018667977 -0.0869167 0.01468285
0.014040321 -0.08598626 0.12968442 0.05574685 0.09122307 -0.026372498 0.12118794 -0.07960216
0.06518498 -0.0036398945 -0.04840555 -0.0056300135 -0.023994353 0.10926495 -0.0029420613 -0.03172626
0.046084695 -0.05445127 0.08608402 0.10859503 -0.05155415 0.1232407 0.052396245 -0.06550767
0.0122167645 -0.10864841 0.03813701 0.028180294 -0.040780097 -0.007099374 -0.060210675 -0.092533834
-0.012289311 -0.055284373 -0.05490851 -0.050896287 0.026277445 -0.16689847 -0.01948042 0.07958739
0.1025892 -0.18816353 0.025771214 -0.013694786 0.024972178 0.16833465 0.11146872 -0.09237021
-0.052545406 -0.010639786 -0.074713685 -0.074728735 -0.042041015 -0.049610775 0.060528014 0.0036375914
0.1680392 -0.020155735 0.14271927 0.038248587 -0.05604425 0.07990376 0.13276827 0.07777818
-0.12837872 0.11042425 0.13795018 -0.05183633 0.09364787 0.08355158 -0.10567366 -0.109613694
0.049991913 -0.10360441 -0.07211321 -0.100427724 0.050935756 0.069877766 -0.008302168 -0.14184444
0.062206924 -0.1050212 -0.06798807 0.04589227 0.004041557 0.00483666 -0.014235058 0.12889248
0.04032254 -0.17478746 0.053073768 0.18541177 0.11271875 0.25597537 -0.021558851 -0.07926864
-0.20986961 0.0117021855 -0.22956638 -0.08212168 0.14441721 0.12162527 -0.0037231848 0.07070631
-0.09272532 -0.04372958 0.026896005 0.1535485 -0.1716682 -0.014411582 -0.17820223 -0.045076825
0.08156845 -0.012821928 0.06246647 -0.06434674 -0.0054133143 -0.019003717 -0.15927692 0.06232288
0.012578593 0.11378686 0.027701959 -0.053413525 0.024753362 0.10501744 -0.092731036 0.12822661
0.031638697 -0.012578596 -0.024331743 0.08326788 0.0650323 0.20490962 0.067524835 -0.015912862
0.093990095 -0.018505756 -0.06084148 -0.18864381 0.15099365 0.119030274 0.07783236 -0.17670986
0.007818445 -0.12432887 -0.06746428 0.15682253 -0.12919825 0.06493936 -0.0015200906 0.0088690445
-0.0930409 -0.14432245 -0.08820037 -0.0036803759 0.13455318 -0.16127087 0.007924041 0.12437875
0.041051507 -0.029984517 -0.03316466 0.06782268 -0.041184314 0.08722037 -0.0064846734 -0.032981772
0.09697333 0.08453176 -0.03279749 0.061192457 -0.05849348 0.14760773 0.015217314 0.12609158
0.10160187 -0.20328642 0.076499924 0.03307726 -0.033307005 0.13955499 0.13142571 0.11319342
0.1542503 -0.054559596 0.17092034 -0.08836652 -0.054421708 0.103862114 0.051601496 -0.049188133
0.03046576 -0.05931903 -0.050150983 0.0122833 -0.046678394 0.015211557 0.029908638 -0.023025991
0.009521246 -0.0101997005 0.039282795 0.029692361 -0.14041148 -0.08131539 0.111261375 0.06764322
-0.019765139 -0.046643917 -0.09547963 0.12322299 -0.0025832755 -0.22267033 -0.07411402 0.10627176
-0.14276816 0.09431546 -0.022621052 -0.10553365 -0.041138083 0.0050949836 -0.02339833 -0.038753625
00000000: 3aaa c138 38c6 933d 3787 4fbc 5221 b93d
00000010: 7ef2 933d 1949 03bd cc0d 6c3d ef67 5cbc
00000020: 004c e83d 7b52 49be d711 413e 70b0 38bd
00000030: b097 3cbd 138b 0a3c dc5e 1bbc 854b 073d
00000040: 6797 ca3d 7b4c 0bbd 7d0e 44bc 6dfb 483d
00000050: 29a8 15bb 4297 c63d 64ce 54bd d3ea 7fbd
00000060: 9c69 e23d 53da 983d 5bce 753d f12c 2bbc
00000070: 4b02 a9bd 96ed 983c 6201 b2bd 5690 703c
00000080: 6009 663c 9019 b0bd fecb 043e cf56 643d
00000090: 29d3 ba3d 230b d8bc 6231 f83d 7506 a3bd
000000a0: b47f 853d 4c8b 6ebb e644 46bd fa7b b8bb
000000b0: ce8f c4bc 4dc6 df3d 99cf 40bb 65f3 01bd
000000c0: 4ec3 3c3d 4b08 5fbd d24c b03d 1267 de3d
000000d0: 722a 53bd 9f65 fc3d 729d 563d e328 86bd
000000e0: d328 483c 0f83 debd 8e35 1c3d 5cda e63c
000000f0: 0809 27bd dea1 e8bb 789f 76bd 6182 bdbd
00000100: 1b59 49bc de71 62bd bfe7 60bd a078 50bd
00000110: cc43 d73c 6fe7 2abe 6795 9fbc b7fe a23d
00000120: 491a d23d f1ad 40be 271e d33c 1860 60bc
00000130: 7492 cc3c eb5f 2c3e b649 e43d 982c bdbd
00000140: da39 57bd 7f52 2ebc 7d03 99bd 610b 99bd
00000150: 3333 2cbd ab34 4bbd 39ec 773d a864 6e3b
00000160: 7812 2c3e a41d a5bc 0025 123e 8daa 1c3d
00000170: a88e 65bd 95a4 a33d 68f4 073e 2b4a 9f3d
00000180: b675 03be 1c26 e23d d042 0d3e 5552 54bd
00000190: 74ca bf3d 171d ab3d 6f6b d8bd 257d e0bd
000001a0: 52c4 4c3d 8d2e d4bd 17b0 93bd 0dad cdbd
000001b0: 03a2 503d 131c 8f3d d105 08bc ab3f 11be
000001c0: b0cc 7e3d 5b15 d7bd 543d 8bbd 88f9 3b3d
000001d0: 0a6f 843b d87c 9e3b 293a 69bc 64fc 033e
000001e0: 3f29 253d 7cfb 32be e163 593d 95dc 3d3e
000001f0: 17d9 e63d 340f 833e 309c b0bc 9957 a2bd
00000200: 0fe8 56be 86ba 3f3c 7313 6bbe 692f a8bd
00000210: 1be2 133e ab16 f93d ad00 74bb 78ce 903d
00000220: c6e6 bdbd ca1d 33bd 0355 dc3c d13b 1d3e
00000230: cac9 2fbe 8e1e 6cbc a57a 36be 7aa2 38bd
00000240: 5c0d a73d 1013 52bc d7dc 7f3d 39c8 83bd
00000250: 2c62 b1bb afad 9bbc 7d19 23be 4746 7f3d
00000260: 7116 4e3c 1609 e93d 38ef e23c 24c8 5abd
00000270: 90c7 ca3c 6213 d73d c5e9 bdbd d64d 033e
00000280: 9497 013d 7516 4ebc 5d53 c7bc 5a88 aa3d
00000290: a82f 853d d4d3 513e 764a 8a3d b15b 82bc
000002a0: e17d c03d 6299 97bc ea34 79bd d82b 41be
000002b0: 149e 1a3e 25c6 f33d 9366 9f3d 6ef3 34be
000002c0: ef18 003c 22a0 febd b62a 8abd 1696 203e
000002d0: 8c4c 04be edfe 843d c73d c7ba 784f 113c
000002e0: 3a8c bebd 44c9 13be 65a2 b4bd 7632 71bb
000002f0: 4fc8 093e 3124 25be d6d3 013c 49ba fe3d
00000300: a025 283d 17a2 f5bc abd7 07bd 9ee6 8a3d
00000310: e2b0 28bd 98a0 b23d 627d d4bb e517 07bd
00000320: f499 c63d fd1e ad3d a956 06bd f1a4 7a3d
00000330: dc96 6fbd 7b26 173e 0a52 793c 271e 013e
00000340: a414 d03d 512a 50be feab 9c3d 057c 073d
00000350: ed6c 08bd 81e7 0e3e 7694 063e f4d1 e73d
00000360: caf3 1d3e e279 5fbd be05 2f3e 82f9 b4bd
00000370: 4ce9 5ebd a9b5 d43d 175c 533d 7f79 49bd
00000380: 5493 f93c 83f8 72bd 1e6b 4dbd e53f 493c
00000390: d831 3fbd e539 793c f602 f53c 01a1 bcbc
000003a0: 00ff 1b3c a51c 27bc ffe6 203d 653d f33c
000003b0: 07c8 0fbe af88 a6bd 01dd e33d 8788 8a3d
000003c0: 80ea a1bc b10d 3fbd d38a c3bd 565c fc3d
000003d0: 2c4c 29bb b103 64be 17c9 97bd 02a5 d93d
000003e0: d131 12be 7728 c13d c94f b9bc 0722 d8bd
000003f0: 6880 28bd d2f3 a63b dbad bfbc 1fbc 1ebd

network_body._body_endoder.seq_layers.2.bias f4 [128]
0.0050150277 0.0073159123 0.0 0.0055956095 0.006848153 -0.0009741548 0.000917296 0.0020406176
-0.00069228496 0.0108911395 0.0 -0.0076889265 -0.009225448 0.006593415 0.011150967 0.0089124665
0.011090013 0.0 0.0048106695 -0.0028648635 0.0005118264 0.0 0.0 0.009927059
0.0 0.008586035 1.3284988e-29 0.00046723595 -0.001603895 0.0 -2.9147023e-34 0.0
-8.13914e-09 0.0 1.9054289e-10 -3.7889008e-11 0.010072864 0.0027077328 -0.001801875 -0.0027900147
-0.0026960191 -0.0052895453 0.0 0.0027161294 -0.0018006234 8.602217e-18 0.006564797 0.0
-0.0024510338 -0.0020687156 1.5866167e-08 -0.0018011344 0.0011032028 -0.001022325 0.011474044 -0.0021930677
0.0029713828 -4.1219188e-23 1.2027963e-15 0.0024848757 0.010934154 2.5085348e-18 0.0 -8.477856e-35
0.0023993994 0.0 -0.00013703988 0.010788188 0.007152095 -0.0024413643 -0.0019984571 -0.00033126993
-0.0025130736 0.0 0.0 0.0 0.0023053722 -0.0008332378 -0.008431233 0.0040771
4.985654e-30 -0.005866981 0.0004121008 -0.0008627124 0.0 -0.00058734854 -0.004630102 -0.009000723
0.0 0.0 0.0 -4.78504e-19 -0.0013227969 0.004501978 0.007773358 -0.0027629356
6.1353047e-33 9.034838e-11 5.21044e-19 0.006325168 0.0 -0.0013862072 0.0 0.0066394964
0.0015527712 0.011427528 -0.008347351 -0.004647081 0.0 0.0 0.0 -0.0032882097
0.0 0.0047896863 0.0 -0.0016246056 -1.829062e-06 -7.9590386e-24 -2.0442032e-26 0.012556655
-1.0661121e-15 0.0005425616 0.0 0.0060262945 0.00426533 -0.0045668217 -7.940616e-22 0.0
00000000: 1a55 a43b 52ba ef3b 0000 0000 605b b73b
00000010: 7966 e03b 6c5e 7fba b176 703a e2bb 053b
00000020: 757a 35ba c070 323c 0000 0000 64f3 fbbb
00000030: 5526 17bc 930d d83b 8cb2 363c 9805 123c
00000040: e3b2 353c 0000 0000 d2a2 9d3b 6fc0 3bbb
00000050: 172c 063a 0000 0000 0000 0000 1aa5 223c
00000060: 0000 0000 71ac 0c3c cdb9 860f 59f7 f439
00000070: c939 d2ba 0000 0000 17b7 c187 0000 0000
00000080: 51d4 0bb2 0000 0000 0e81 512f 3ba3 26ae
00000090: a708 253c 3874 313b e42c ecba aed8 36bb
000000a0: b2af 30bb ec53 adbb 0000 0000 1701 323b
000000b0: e502 ecba d2ae 1e23 821d d73b 0000 0000
000000c0: 86a1 20bb 4a93 07bb 124a 8832 0b14 ecba
000000d0: 5899 903a 89ff 85ba a1fd 3b3c 92b9 0fbb
000000e0: 88bb 423b e252 479a 5a57 ad26 4cd9 223b
000000f0: 2a25 333c e218 3922 0000 0000 4c61 e186
00000100: 3e3f 1d3b 0000 0000 5db2 0fb9 f1c0 303c
00000110: 1f5c ea3b 4cff 1fbb 8cf8 02bb 4cae adb9
00000120: 61b2 24bb 0000 0000 0000 0000 0000 0000
00000130: ba15 173b a46d 5aba 2723 0abc 3299 853b
00000140: fe3d ca0e ce3f c0bb 3c0f d839 a627 62ba
00000150: 0000 0000 4bf8 19ba 1cb8 97bb c577 13bc
00000160: 0000 0000 0000 0000 0000 0000 bd3a 0da1
00000170: b361 adba 5485 933b a7b7 fe3b 5e12 35bb
00000180: c0d9 fe09 9ead c62e f9c8 1921 5b43 cf3b
00000190: 0000 0000 65b1 b5ba 0000 0000 2290 d93b
000001a0: 5b86 cb3a 873a 3b3c 54c3 08bc 8a46 98bb
000001b0: 0000 0000 0000 0000 0000 0000 017f 57bb
000001c0: 0000 0000 cdf2 9c3b 0000 0000 b8f0 d4ba
000001d0: 177e f5b5 40f3 1999 b572 ca94 6eba 4d3c
000001e0: 98a4 99a6 b13a 0e3a 0000 0000 3978 c53b
000001f0: 2ec4 8b3b 47a5 95bb 8afd 6f9c 0000 0000

action_model._continuous_distribution.log_sigma f4 [1, 2]
0.0031274362 0.0024971552
00000000: acf5 4c3b 50a7 233b

action_model._continuous_distribution.mu.weight f4 [2, 128]
-0.009791039 -0.021685189 0.025512159 0.014889201 -0.024604613 -0.0110971965 -0.0101701915 -0.01609107
-0.016628485 -0.017554274 -0.0052848975 0.0023817173 0.0044070887 -0.008019098 -0.024252381 -0.014357314
-0.024351398 0.0008831899 -0.009261753 -0.015669012 -0.02394299 -0.013909048 -0.0020171364 -0.02484661
0.009131636 -0.0075117126 0.0043370645 0.00730452 -0.010259524 -0.009151461 -0.01663754 0.027729372
0.005788261 -0.010200172 -0.013693537 -0.0030481846 -0.016396897 -0.01929897 -0.020899218 0.014990018
-0.008192135 0.0029159093 0.004194645 -0.03666863 0.012185409 0.00497628 -0.027482914 0.022475263
-0.014170761 -0.018148206 0.010733977 0.0034614764 0.023923302 -0.036898363 -0.01737975 -0.020096604
0.013188449 -0.026203549 0.0024082304 0.021644326 -0.04561204 -0.0050886 -0.009238415 -0.0042412365
0.024210863 0.006965704 -0.033090815 -0.033223722 -0.024951492 -0.020504106 -0.011145524 -0.013603076
0.025558839 -0.009488697 0.02282299 -0.0002791715 0.0072712568 -0.00966781 0.014428989 -0.0018711409
0.025000462 0.010218622 0.023453042 -0.003608078 -0.01290925 -0.014020267 0.010410767 0.002546084
0.018358 -0.010644342 -0.0030203655 -0.016759863 0.02941932 -0.0045282566 -0.01767877 0.0021337015
0.00841892 0.019740233 0.0038096332 -0.010021387 -0.024326254 0.015696114 0.024224026 -0.03307247
0.006374815 -0.01822345 0.007679092 0.011197369 -0.019409498 -0.0021403441 -0.02066955 0.04588524
-0.011024101 0.0019606256 -0.0027512875 0.00588479 0.018550709 0.009725314 -0.010625688 -0.028301954
0.019026658 -0.046729717 0.0016965431 -0.012433882 -0.0017881743 0.008140397 -0.022035208 -0.008022747
0.0047552474 0.020665849 0.04778743 0.026655614 0.029647507 -0.0038434493 -0.014438829 -0.007953932
-0.009870134 0.008042186 -0.044696104 0.0013143338 -0.0028304618 0.036081363 0.017305471 0.050448038
0.018122083 -0.020892687 0.0010348663 -0.029050702 -0.010706783 0.0049255486 0.023508266 0.0078947805
-0.0058409446 0.0065607824 0.008435289 0.0144796055 -0.009016204 -0.011474985 0.026569221 -0.03332449
0.012158501 0.013771427 -0.008122809 0.005198538 0.006334854 -0.0058611175 0.022553332 0.0011277221
-0.0091536585 -0.010327442 -0.03592303 -0.008405556 -0.01029438 -0.0104838135 0.038722828 -0.022647938
-0.0172441 -0.019900717 -0.0029760771 0.00925565 -7.972835e-05 -0.017574355 0.01323562 -0.025952732
0.04461178 0.0054769986 -0.019978758 0.052028663 0.023018194 -0.023861913 0.00522439 -0.0015427325
0.054993715 0.025091518 -0.021602828 0.014804137 0.025459973 -0.02967351 -0.011301775 -0.023895467
0.015638033 -0.0016881282 -0.0007291501 0.018593648 0.024267308 -0.01375897 -0.0043373415 0.014420602
0.0018307299 -0.020089958 0.02623057 0.00055342185 -0.0070782066 -0.0058917855 0.011622826 -0.004593602
0.01589345 0.01088183 0.014434027 0.02021194 0.017476615 0.0461923 0.0151253445 0.004589096
-0.014796204 0.00954696 -0.026093025 0.005513285 -0.011780964 -0.009282275 0.00032905472 0.0013666195
0.014978931 0.009837115 0.0016942438 -0.02780898 -0.0045200414 -0.011448282 -0.005439102 0.0058133835
0.025284996 0.013561532 0.0066673267 0.008397899 0.0027627335 0.01627132 0.011200884 0.010018767
0.031636592 -0.027860824 -0.008893335 0.024346456 0.027578609 0.0061966595 -0.0008936628 0.007248405
00000000: 986a 20bc 23a5 b1bc e0fe d03c d6f1 733c
00000010: 9d8f c9bc 04d1 35bc e0a0 26bc 6bd1 83bc
00000020: 7638 88bc fbcd 8fbc ef2c adbb 9616 1c3b
00000030: 5769 903b 8962 03bc eeac c6bc f13a 6bbc
00000040: 957c c7bc df85 673a 9cbe 17bc 4d5c 80bc
00000050: 1724 c4bc c7e2 63bc ef31 04bb 1e8b cbbc
00000060: db9c 153c d024 f6bb ef1d 8e3b c15a ef3b
00000070: 9017 28bc 02f0 15bc 734b 88bc b528 e33c
00000080: 74ab bd3b 9f1e 27bc db5a 60bc 0dc4 47bb
00000090: c952 86bc e018 9ebc d634 abbc b198 753c
000000a0: 4e38 06bc d718 3f3b 3c73 893b d831 16bd
000000b0: 4fa5 473c 1010 a33b d923 e1bc 0b1e b83c
000000c0: 7b2c 68bc 8cab 94bc 90dd 2f3c f0d9 623b
000000d0: cdfa c33c bd22 17bd fa5f 8ebc a2a1 a4bc
000000e0: 5d14 583c d3a8 d6bc 67d3 1d3b 714f b13c
000000f0: b1d3 3abd 45be a6bb b95c 17bc 12fa 8abb
00000100: dc55 c63c 8f40 e43b 3c8a 07bd 9915 08bd
00000110: 1267 ccbc 3af8 a7bc b79b 36bc 70df 5ebc
00000120: c560 d13c 7b76 1bbc 47f7 ba3c c45d 92b9
00000130: b943 ee3b bc65 1ebc 9167 6c3c 1241 f5ba
00000140: c5cd cc3c 026c 273c 9820 c03c 8175 6cbb
00000150: 5281 53bc 43b5 65bc ec91 2a3c 34dc 263b
00000160: 8463 963c 9b65 2ebc 53f1 45bb fb4b 89bc
00000170: c900 f13c c561 94bb 11d3 90bc 92d5 0b3b
00000180: 83ef 093c 45b6 a13c 0aab 793b be30 24bc
00000190: da47 c7bc 2395 803c 7771 c63c 0077 07bd
000001a0: d3e3 d03b 5849 95bc e5a0 fb3b 2b75 373c
000001b0: ab00 9fbc 0445 0cbb 3053 a9bc 29f2 3b3d
000001c0: 6e9e 34bc d77d 003b f24e 34bb 32d5 c03b
000001d0: a8f7 973c ec56 1f3c 5e17 2ebc 80d9 e7bc
000001e0: cbdd 9b3c a967 3fbd 8a5e de3a 7bb7 4bbc
000001f0: 2c61 eaba 4d5f 053c 2e83 b4bc d771 03bc
00000200: e8d1 9b3b 6d4b a93c c1bc 433d e05c da3c
00000210: 54df f23c 61e2 7bbb d790 6cbc 3551 02bc
00000220: 58b6 21bc 5fc3 033c 4313 37bd b945 ac3a
00000230: 457f 39bb 0dca 133d 34c4 8d3c 9aa2 4e3d
00000240: c374 943c 2427 abbc 5aa4 873a bdfb edbc
00000250: 816b 2fbc 7f66 a13b 6894 c03c 1c59 013c
00000260: 6565 bfbb d5fb d63b 2b34 0a3c de3b 6d3c
00000270: b3b8 13bc 9301 3cbc b2a7 d93c 437f 08bd
00000280: 7334 473c 8da1 613c 8815 05bc 7f58 aa3b
00000290: 9b94 cf3b 9e0e c0bb c4c1 b83c 13d0 933a
000002a0: 3af9 15bc 6e34 29bc 0724 13bd 75b7 09bc
000002b0: c2a9 28bc 4dc4 2bbc d49b 1e3d 2b88 b9bc
000002c0: 8043 8dbc d406 a3bc 4a0a 43bb 03a5 173c
000002d0: d533 a7b8 18f8 8fbc 37da 583c d39a d4bc
000002e0: d8ba 363d 6578 b33b 7eaa a3bc 021c 553d
000002f0: a790 bc3c 0f7a c3bc 5c31 ab3b 8335 caba
00000300: 1741 613d ba8c cd3c 6af8 b0bc 0d8d 723c
00000310: 6f91 d03c dc15 f3bc 152b 39bc 6dc0 c3bc
00000320: 551b 803c 2f44 ddba 6f24 3fba b551 983c
00000330: 3ccc c63c 4e6d 61bc 4220 8ebb 6344 6c3c
00000340: 1af5 ef3a b293 a4bc 7ee1 d63c 8313 113a
00000350: 4df0 e7bb e10f c1bb aa6d 3e3c ed85 96bb
00000360: fb32 823c b449 323c b27c 6c3c 8393 a53c
00000370: 1e2b 8f3c 2334 3d3d 4bd0 773c 2160 963b
00000380: c76b 72bc da6a 1c3c 0ac1 d5bc c9a8 b43b
00000390: f204 41bc af14 18bc fa84 ac39 2420 b33a
000003a0: 316a 753c da2b 213c 6311 de3a a8cf e3bc
000003b0: db1c 94bb 9391 3bbc 7f3a b2bb 327e be3b
000003c0: 7b22 cf3c 3031 5e3c 9779 da3b 5797 093c
000003d0: fa0e 353b 6e4b 853c ea83 373c c125 243c
000003e0: 5f95 013d 623c e4bc 5ab5 11bc 3872 c73c
000003f0: 89ec e13c 590d cb3b b244 6aba 0784 ed3b

action_model._continuous_distribution.mu.bias f4 [2]
-0.0076295896 0.004367031
00000000: a301 fabb 5019 8f3b

action_model._discrete_distribution.branches.0.weight f4 [1, 128]
-0.004481696 -0.0010915158 -0.0029301792 0.004418121 0.0064388625 -0.003278857 0.010884852 -0.0048148567
0.0008965133 -0.009482626 -0.0046775094 0.019819416 0.0033720469 -0.006624773 0.017292865 -0.0022223887
-0.0036693967 -0.012059449 0.008577979 0.006829188 -0.0026733878 0.002404788 -0.0013049626 0.007159008
-0.010065828 0.014563369 0.0060017887 0.0061670733 -0.014293015 0.009549743 -0.0060120635 0.0022786001
-0.00038771497 0.0018025845 0.0065965625 0.001559223 0.0010003395 -0.0027163995 0.01646484 -0.0011707617
-0.016912607 -0.0051227375 -0.01289122 -0.003282755 0.00834836 -0.0029573082 0.01168147 0.010466184
0.002386336 0.0054550353 -0.01104313 0.017511891 -0.007592249 0.001331433 -0.00020518433 0.0035657224
-0.016343135 -0.01395223 -0.00042525117 0.010470486 0.0062858737 0.0072466144 0.004200536 0.0024371233
0.027493227 0.0019249266 -0.011271953 0.0013955723 -0.0014387754 0.0064641433 0.006546034 0.0011894474
-0.0050742063 -0.0032536674 0.003832964 -0.005361733 0.0063051353 0.0048000216 0.00090137 -0.00387054
-0.018395755 0.0107458 0.0036027764 0.0028331107 0.0041059335 -0.010470013 0.009574358 -0.0036956375
0.00021908396 -0.013987767 0.0009504252 0.016617542 0.004337702 0.000109228786 0.00020871159 -0.014476083
0.006825719 -0.007204953 -0.0020847386 0.012274169 -0.0028048716 0.0059655616 0.0012278934 0.00198159
-0.0057855635 -0.0036396992 0.008491068 -0.0056818915 -0.01198931 0.009133892 -0.004075737 -0.019449329
0.0030847264 -0.0062557133 0.0006588911 0.0018021852 0.007858117 -0.01234929 -0.011720329 -0.008270669
0.014175824 -0.009963265 -0.004969676 0.0015109379 -0.0073439325 0.013737458 -0.0028706284 0.009708482
00000000: 31db 92bb 3111 8fba 4008 40bb e3c5 903b
00000010: 18fd d23b 18e2 56bb 6156 323c f2c5 9dbb
00000020: fd03 6b3a 045d 1bbc cb45 99bb 545c a23c
00000030: 8ffd 5c3b a014 d9bb c4a9 8d3c 7fa5 11bb
00000040: 437a 70bb ff94 45bc a78a 0c3c 62c7 df3b
00000050: 0134 2fbb a699 1d3b 470b abba 1d96 ea3b
00000060: 25eb 24bc 329b 6e3c a7aa c43b 2915 ca3b
00000070: 402d 6abc 8676 1c3c d800 c5bb 9154 153b
00000080: 3946 cbb9 b344 ec3a fa27 d83b d85e cc3a
00000090: d31d 833a 9f05 32bb 46e1 863c 3e74 99ba
000000a0: 4f8c 8abc a3dc a7bb b235 53bc 7d23 57bb
000000b0: 8fc7 083c 66cf 41bb a363 3f3c 5b7a 2b3c
000000c0: 1364 1c3b 27c0 b23b 3fee 34bc 1975 8f3c
000000d0: 67c8 f8bb 7a83 ae3a c026 57b9 e5ae 693b
000000e0: 0ae2 85bc e597 64bc 3ff4 deb9 678c 2b3c
000000f0: bbf9 cd3b 0275 ed3b a6a4 893b 25b8 1f3b
00000100: 7a39 e13c d24d fc3a ffad 38bc a3eb b63a
00000110: 4b95 bcba 2ad1 d33b 1d80 d63b 3be7 9b3a
00000120: 8745 a6bb 7b3b 55bb 7732 7b3b 7ab1 afbb
00000130: 4f9b ce3b 8049 9d3b eb49 6c3a e3a8 7dbb
00000140: b2b2 96bc 270f 303c 8f1c 6c3b b6ab 393b
00000150: 118b 863b 6b8a 2bbc c5dd 1c3c 8232 72bb
00000160: e7b9 6539 f22c 65bc f525 793a 8321 883c
00000170: 4823 8e3b c211 e538 97d9 5a39 182d 6dbc
00000180: 48aa df3b 8717 ecbb 1ca0 08bb 9919 493c
00000190: f0d1 37bb c27a c33b 44f1 a03a 90dd 013b
000001a0: d394 bdbb 0588 6ebb 1f1e 0b3c 292f babb
000001b0: d06e 44bc 52a6 153c c38d 85bb 3354 9fbc
000001c0: 1f29 4a3b bafc ccbb 6fb9 2c3a 4d37 ec3a
000001d0: 55bf 003c ad54 4abc 9f06 40bc b381 07bc
000001e0: b741 683c f63c 23bc aad8 a2bb aa0a c63a
000001f0: 5fa5 f0bb 1313 613c 2721 3cbb 5310 1f3c
