Assets/results/VikramRover1/VikramRover/VikramRover-896.onnx (onnx, 80301 bytes, 8 tensors)

network_body._body_endoder.seq_layers.0.weight f4 [128, 10]
00000000: d7a5 ae3e 47a6 52bd 65ce d739 ae52 af3e
00000010: d418 f93e 86ab 4e3e 6bd3 efbd 2a1f 01bf
00000020: 9263 a73d 8b20 893e b40d 98be a2f0 0fbe
00000030: d3a5 963d 4cb7 29be 8499 1ebe 94af 83be
00000040: 210a 0e3e c1ec 3fbe a64a 0f3f 2813 913e
00000050: 0281 603e 457f 903e 3044 12be 33ea efbe
00000060: 374f 3cbe 842f 2b3e 6cb3 8abe 7eb1 e7bb
00000070: 7ee5 1f3e 5efe 2bbf 88e2 ff3e d123 6bbd
00000080: 7b42 16be d887 2abd 6f07 3c3d 5836 493c
00000090: 2df0 e7be 9ec7 73bd 9444 86be 13e1 71be
000000a0: e1df ef3e fb50 89be b061 b1be b0d2 58be
000000b0: 0dc3 0bbc 6317 ba3e 6124 d2bc 0293 803e
000000c0: 159a 26be a412 4e3f c0fe 33be 1878 133f
000000d0: bb0f acbe 778e 3ebf f1f1 a9be 3d35 d9bd
000000e0: 20a6 d2bd 0414 bd3d 238a 1ebd 8dd5 20be
000000f0: aaf2 8f3d bf42 bdbe 34d9 6b3e acdd 363e
00000100: c89a 3dbe 7b66 e3be 9f6e 4bbf 2e13 0f3e
00000110: 8b04 d4bd 6e8e 693e 3425 923b d498 9b3d
00000120: aaca ff3e e52c 213e 84e1 28bf cda5 e03d
00000130: 88df 9b3c 72c5 193f 9121 4fbf 8429 063d
00000140: 1a1a fe3c 88bd 8fbd 99d0 8bbe 340b 593e
00000150: e2cc 8fbd ef74 c53e 1b9b 04bd 93e3 ddbb
00000160: b981 91bb 5f41 2a3c 916a b8be 28b2 53be
00000170: 49e1 cfbe 3274 29bf 4270 44bc 0d8e 6c3f
00000180: be57 633e 3aad 7ebe b38f 733e 6447 02bd
00000190: f033 e4be 80dc 7d3e c0ff cdbd 6a57 a73e
000001a0: 555d 1ebe fd6a 803e d50d 45be 538b 4f3e
000001b0: 3dff d03d 621e 703d dc23 53be e921 a83e
000001c0: 7f8d 2cbd d008 0ebf 6d86 db3d ef78 d73e
000001d0: 2daf 5abe 7e8e 1c3f a802 c83c 1d95 c43d
000001e0: 04da 3b3e a8d8 223f 6710 fdbe 5fe0 b0be
000001f0: 04f9 223e 3fd2 59be 0074 7bbe 2833 0cbe
00000200: 63fb d6be 80e8 21be ca33 8e3e 862a ddbc
00000210: 0a50 873e 5faf 273e 1cfb acbd 413c 0ebf
00000220: d912 cc3e 6614 a93e b38b 993e 4024 e0be
00000230: 8a6e 43bf 8163 163f c0c0 fb3e 952f da3e
00000240: 39b5 c03e a3bc 343e 8917 38bd 342b 563d
00000250: 21b5 44be 1127 9c3e 6e30 b33d bf96 7a3d
00000260: a241 5b3e fb75 8cbd 5f1d a9be 8c73 e23e
00000270: 71c8 e6be 6217 b13c 3235 8abd bf3d 47be
00000280: 72e0 55be 936c 3f3f 772e 9d3e 14dd c8be
00000290: 347c 6cbe ced4 f2be fd0b 24be 5e9c f0bd
000002a0: 548e 79bd 131f 30be 0ae2 6dbe 9364 2a3f
000002b0: 5346 fa3d e951 13be 3b02 123f ddb8 8b3e
000002c0: 6d4d 3f3c 7b8a 85be c70b bb3d d491 05bc
000002d0: 56d3 9ebc 8d81 93bd 27b9 f6bc 277e d1bc
000002e0: e142 61be 2196 893e e1e1 313f 3571 8d3e
000002f0: 4d09 25be 7718 d03d 84db 88bb e0be 45be
00000300: c7ea 69be 90cf 67be 5993 c33e 5984 2abe
00000310: aac4 d7be 3688 36be 7b5e 38be ddf9 133f
00000320: 7d65 473e 483f 8bbe 6ac1 953e 1e26 693e
00000330: 5a3f d33b 6c77 21bf 1600 d23e 49a1 d5be
00000340: b94d 3b3f 992d cbbe 48ac 1e3e 198e 633e
00000350: 4b4f a1bd 7391 953e 8116 1e3f 1729 c2bd
00000360: d5c1 86bc 8c32 d13e f2bd 333e bb03 3bbd
00000370: f271 35bd b539 1fbe e1de 8c3e 12e0 d33e
00000380: ba8c aa3c 008e cc3e de5f b73e 40be 0dbf
00000390: 52b2 2ebf 4d0b b9be c8c2 a13e c22f dc3e
000003a0: 8e34 c9be 9e7c f33e 9dca 183d 0478 323e
000003b0: e0d7 2ebe 7e8f b3be fe5d 273d 5c9e 663e
000003c0: 29be 4ebe a9d9 dabd ec52 d9be 6311 85be
000003d0: f83e 63bd c041 06be 2b69 533f ede1 58bd
000003e0: 7cad fa3d 35a6 d5be f398 b53d 7c3d a23d
000003f0: 2cba 10bf 8f15 71be c83d 90be 1376 2c3d
0.341109 -0.051428106 0.00041161772 0.34242767 0.48651755 0.20182618 -0.11710247 -0.5043818
0.081732884 0.2678264 -0.29697955 -0.14056638 0.07355847 -0.16573828 -0.15488249 -0.25719893
0.13871051 -0.18742658 0.5597328 0.28334928 0.21924213 0.282221 -0.14283824 -0.46858367
-0.18389593 0.16717345 -0.27090013 -0.0070707193 0.15614888 -0.6718501 0.49977517 -0.057407204
-0.14673798 -0.041633457 0.045905527 0.012281023 -0.45300427 -0.05951654 -0.26224196 -0.23621015
0.46850494 -0.26819596 -0.34644842 -0.21174121 -0.00853039 0.36345968 -0.025652112 0.25112158
-0.16269715 0.80497193 -0.17577648 0.57605124 -0.3360575 -0.74436134 -0.331924 -0.106058575
-0.10285592 0.09232333 -0.038705956 -0.15706463 0.07028706 -0.36964986 0.23032075 0.17857999
-0.18516076 -0.44414124 -0.7946567 0.1397216 -0.10352429 0.22808239 0.0044600014 0.07597509
0.49959308 0.15739782 -0.6596911 0.10969124 0.019027486 0.600669 -0.80910593 0.032754436
0.031018306 -0.07018572 -0.27307585 0.2119568 -0.070215 0.38565776 -0.032374483 -0.0067715137
-0.004440513 0.010391562 -0.36018804 -0.2067343 -0.40601566 -0.66192925 -0.011989655 0.9240425
0.2220144 -0.24870768 0.23785286 -0.031806365 -0.44570875 0.24791145 -0.10058546 0.3268388
-0.15465291 0.25081626 -0.19243558 0.20267992 0.10204933 0.058622725 -0.20619148 0.3283837
-0.04212713 -0.55482197 0.10718999 0.42084453 -0.21355887 0.61154926 0.02441533 0.095987536
0.18344885 0.6361184 -0.49426576 -0.34546182 0.15915304 -0.21271609 -0.24555969 -0.1369139
-0.41988668 -0.15811348 0.27773887 -0.026997816 0.26428252 0.16375493 -0.08446333 -0.5556069
0.3985813 0.33023375 0.29989395 -0.43777657 -0.76340544 0.5874558 0.49170494 0.42614427
0.37638262 0.17650084 -0.04494432 0.052287295 -0.1920972 0.30498555 0.087494716 0.06117892
0.21411756 -0.068584405 -0.3303022 0.4422878 -0.450748 0.021617595 -0.067484275 -0.19457148
-0.208864 0.74775046 0.30699512 -0.3923117 -0.23094255 -0.47427982 -0.16020198 -0.11748575
-0.06092675 -0.17199354 -0.23230758 0.66559714 0.122204445 -0.14386715 0.57034653 0.27289477
0.011676175 -0.26082215 0.09133106 -0.008152444 -0.019387882 -0.07202444 -0.030117584 -0.02557285
-0.21998169 0.26872352 0.6948529 0.27625433 -0.16116829 0.10160916 -0.004176559 -0.19311094
-0.22843467 -0.22637773 0.38198355 -0.16652049 -0.4214223 -0.17825398 -0.18004791 0.57803136
0.19472308 -0.27196717 0.29249126 0.22768447 0.006446761 -0.6307285 0.4101569 -0.41724613
0.7316547 -0.39683226 0.15495408 0.22222175 -0.07876452 0.2921253 0.6175309 -0.094804935
-0.016449848 0.40858877 0.17552927 -0.045657855 -0.04429812 -0.15549357 0.27513793 0.4138189
0.020819057 0.39952087 0.35815328 -0.55368423 -0.68240845 -0.36141434 0.3159392 0.43005186
-0.3929791 0.47556013 0.037302602 0.17428595 -0.17074537 -0.35070413 0.040861122 0.22521347
-0.20189728 -0.10686047 -0.42446077 -0.25989828 -0.055479974 -0.13111019 0.8258235 -0.052949835
0.12240121 -0.41728368 0.088670634 0.079218835 -0.56534076 -0.2354338 -0.28172135 0.04210479

network_body._body_endoder.seq_layers.0.bias f4 [128]
00000000: 05f1 6abb 6ad0 1ebb b8db 04a9 d3e1 0218
00000010: e2b8 4708 9b0f 80b8 3d9e a9b9 e481 dc39
00000020: c25b 262d 1921 75bb 3d59 083a e3f8 27bb
00000030: 013e 091e 8935 7bbb 0148 a2ba e276 a6ba
00000040: 0dbb 3dbb 16d9 acbb 7f76 843b d8d8 60b8
00000050: a550 05bb a584 fdbb 7a3d bf3a 5eba ccba
00000060: 196a 0db5 716d f912 d898 a0ba a58a 00bb
00000070: 45c4 81a2 6bcb 1bbb cc4b 2537 2a21 f8ba
00000080: 9835 a61e 1285 15ba 5b20 cdb9 4f03 bb3a
00000090: f6b1 473b 542b 3dbb bfda 533a 1451 f3b1
000000a0: 01b3 a2ba 08d2 2931 668a 41ba 8c69 779c
000000b0: 26b1 6ebb 2cab a82d f7de b5bb 3c55 a63b
000000c0: b268 7fba 670c bc20 8b62 b339 5cde 86bb
000000d0: a52e 533a d75e 7835 fbb5 4eb5 da2f 9bba
000000e0: 6671 0c34 631d 04bb e9ff e3b9 a1b0 8027
000000f0: d90b bcba 45ba 823b 8b89 660a 2a55 1fbb
00000100: 6097 ec14 1b49 283b 80ed d7ba 856d 08bb
00000110: c72b 3b3b d1c6 8c3a 3827 813b 8d60 16b8
00000120: 28b6 81ba c50d a5ba e646 faba ea9e 4739
00000130: 57da 93b1 631a feba c37b 5ab9 6108 2939
00000140: e860 45ba 753e fd39 38fe 9dbb 56fb 8439
00000150: 75aa 4a3b 73cb 0cbb 3860 86ba b2df a3ba
00000160: c116 403b 9354 5ebb 28d2 09ba 0040 8fb9
00000170: b1ad 44a4 9a5e d73a a3d9 a439 9a02 843b
00000180: 50cf 9f21 8ea9 0d3b 3331 deba 62cc c693
00000190: 0fb4 67bb 9ec2 9eba d4b6 37ba e3e1 72bb
000001a0: a208 5dbb 0e4f 13ba 5050 7830 c082 4ebb
000001b0: 0090 e8b6 164c 7eb4 154d 4e3b 1db1 f639
000001c0: 042d 0cbb 2852 b5ba a8b0 a3bb 5179 b5bb
000001d0: 030c 1bb9 4674 63b9 19b5 2abc 0b6d c4b9
000001e0: e99a d939 e467 f2b9 2a4e 8f2e a147 83bb
000001f0: 4f5f 19ba aa52 583b e3e6 033c c010 fd34
-0.0035849225 -0.0024233111 -2.9500463e-14 1.6916118e-24 6.0101713e-34 -6.1064224e-05 -0.0003235209 0.00042058446
9.456382e-12 -0.003740376 0.0005201286 -0.0025630526 7.265542e-21 -0.003833147 -0.0012381078 -0.0012700225
-0.0028950602 -0.005274902 0.004042446 -5.3607713e-05 -0.0020342257 -0.0077367597 0.0014590465 -0.0015619507
-5.2680986e-07 1.5741089e-27 -0.0012252582 -0.0019613889 -3.517333e-18 -0.002377237 9.852414e-06 -0.0018930782
1.75981e-20 -0.0005703728 -0.00039124754 0.0014267954 0.0030471063 -0.0028864937 0.0008081607 -7.0814483e-09
-0.0012412966 2.4712126e-09 -0.00073829887 -8.186186e-22 -0.0036421507 1.9175404e-11 -0.005550261 0.0050760787
-0.0009743079 3.1856646e-19 0.0003421496 -0.004115863 0.0008055962 9.252521e-07 -7.7005797e-07 -0.0011839822
1.307977e-07 -0.0020159117 -0.00043487482 3.571864e-15 -0.0014346793 0.00398949 1.1099966e-32 -0.0024312236
2.3889617e-26 0.002567834 -0.0016473979 -0.0020817232 0.002856003 0.0010740404 0.003941443 -3.5852707e-05
-0.0009896206 -0.0012592605 -0.0019094616 0.00019037319 -4.3030854e-09 -0.0019386526 -0.00020836205 0.00016120217
-0.0007529394 0.00048302455 -0.004821565 0.00025364262 0.0030924354 -0.002148357 -0.0010252064 -0.001250258
0.0029310437 -0.0033924922 -0.0005257451 -0.0002732277 -4.2647848e-17 0.0016431392 0.0003144267 0.0040286304
1.0829134e-18 0.0021615955 -0.0016951918 -5.0183764e-27 -0.0035355126 -0.0012112444 -0.00070081395 -0.0037060909
-0.003372707 -0.0005619385 9.0336005e-10 -0.0031511039 -6.9309026e-06 -2.3683273e-07 0.003147905 0.00047052736
-0.0021389136 -0.0013833689 -0.0049954243 -0.0055381437 -0.00014786427 -0.00021691722 -0.010419154 -0.00037465277
0.00041504882 -0.00046235241 6.516772e-11 -0.0040063416 -0.0005850689 0.0033008256 0.008050653 4.713711e-07

network_body._body_endoder.seq_layers.2.weight f4 [128, 128]
00000000: 9b08 9cbd 48d6 373d 1e11 a9bb 29ba d33d
00000010: 88c9 dd3d 3af9 e2bc 0f5c 1dbd 7e9c e93c
00000020: 0a1d 203d 3163 c8bd 814a 1dbe 1ea9 313e
00000030: ff52 19bd 2ae1 bf3d 8f3c 04bd 1f4f 313e
00000040: ff93 17be c7d1 903d c0d5 ec3d 909d da3c
00000050: 4261 10be 2f6b 19ba 826e 88bd 80d2 2ebd
00000060: aaaa 413e ea67 c6bd b1a1 853d 4697 ea3d
00000070: 52b9 dabb 8258 11bc 0f34 93bd bf70 c9bd
00000080: 164d b83c 8ebb 38bc 95b5 c5bc b89a 303d
00000090: 3829 e13d 3816 b83c 6307 49bd e42e cf3d
000000a0: a64d 92be 8207 903d c1c6 d5bd 8173 bd3c
000000b0: d67e 2ebc 52bf 8ebd 1847 2ebd 0884 7c3d
000000c0: b5a8 a4bd 604a ba3c c36b b0bc 4038 03be
000000d0: 7b38 f0bc eaae 9cbc df7e 273e b073 bfba
000000e0: 65b7 b5bc 9b90 bebd e4d3 2fbd 2b91 77bc
000000f0: 3579 f7bd 2e46 9abd 0462 db3d 189f 19bc
00000100: 8d03 45bd 10f8 fabc 0d5f c6bd 9924 71bd
00000110: 8014 a73d 59a9 423c 310e 813e d4d3 933d
00000120: ee6f 0abe 99f8 1d3c ae9a 07be dc20 22bd
00000130: 96fa b83b 0afa a83d ad4c b53c ae20 903e
00000140: 1901 22bd e4cd d2bd 10f0 bb3d ae7f 883c
00000150: 2891 3ebd 8b65 f73d a066 9f3c 950b ab3d
00000160: 0d2c 893d e204 87bd df3d abbd 00ab 8cbd
00000170: 88cb 283c 6275 1a3d 9c08 003d 1601 21be
00000180: dde1 0fbd 5c1f 8bbc f157 3dbd b8a5 d33c
00000190: 0d56 2c3d 5150 103c 2f53 7f3d d507 39bd
000001a0: 7a73 65bd 3967 e23d a779 a83c d593 d8bc
000001b0: 4ecc 9b3d 5399 273d f7e8 0abd 79f6 0fbe
000001c0: 8a7c 373d b0a7 d5bd b2d4 09be ee5a c63c
000001d0: 675e b63d 79a1 02be a3e6 563e dae3 eabd
000001e0: 3525 7cbd ddf7 1abe 9238 d1bd 0a14 6e3d
000001f0: 6bb0 3cbe dea4 64bc 8d05 09be cc8e 6d3c
00000200: b5c0 33bb 9b61 a63d 8c76 403d 44b3 a0bd
00000210: a1af 4a3d b9b9 5f3d 73a7 6cbd 4334 0f3d
00000220: 8314 8a3b 531b 52bd a0e6 203e c5af 00bc
00000230: 05f0 8b3d eac2 f13d db9c c5bd d301 b83d
00000240: 622a bc3c eb0a b33d d8a3 0c3b f2cc 1d3e
00000250: 202d 493a a69b 20be b6da 41bd 7d70 0b3e
00000260: 9de1 b0bd fa0f 963d faff e63d 3a53 47bd
00000270: 5f0a 273e d230 0a3c f0e0 97bd 9224 443e
00000280: e480 19be af01 023e de5b d2bd 170f 823c
00000290: b914 84bd 37a8 dd3d 28cc 26bd c94f fbbc
000002a0: 0b78 a93d 4b52 febc 3d9f 9bbd 33ac 5a3c
000002b0: e40c 673d 3f70 c3bd fdf9 ffbd dfd4 c0bd
000002c0: 80ca 15bd 66ed c23c 87a4 9ebd 46cf 7c3d
000002d0: 54e0 e4bc 2f99 f23c b55c f23b 929a 75bd
000002e0: 4861 a9bd a530 d7bd 3c35 e23d c93f 89bd
000002f0: edac b93d 8dcc 0bbd a1f2 223b 117e 1abc
00000300: 3204 323d ed1d 273b 994b 003e a182 53be
00000310: dd24 13bd 69f9 703d 704d 9b3d 524b 43bd
00000320: 0708 07bd f006 973d 49b1 bfbd a6b1 92bd
00000330: adac 94bd cb07 24bd 3b10 8c3d 78c9 b8bd
00000340: cd14 87be e549 62bb 0046 3b3e 41ce 023e
00000350: 2949 6f3d 9937 2ebb c557 583c 3f65 233c
00000360: 7a8a 883c 3283 943c 2c2c 5ebd 6bc2 3e3d
00000370: 586c 033d c694 4b3d 9242 c43d 6ccb 1f3d
00000380: af8b bb3d dc3f 11bd c9be 683d 96d1 96be
00000390: b130 a43d 8336 7cbe a70b 0abd 5bec 303d
000003a0: ead1 f6ba 24f6 aabb 558b da3d 6d8d 86bd
000003b0: 5d24 f83d 412c e1bc 902f 303d 3c7c efbd
000003c0: 5856 c33d 5b72 3cbc d827 dd3b f771 883d
000003d0: 46a9 533c fcf0 dcbc e112 05be 0104 d3bd
000003e0: c6cf 30bd 09db 013d ea44 5dbd 257b a13d
000003f0: 2e53 0e3d 62fa 48bc 4948 5b3c e718 203d
-0.07618829 0.04488209 -0.005159511 0.103382416 0.10829455 -0.027706731 -0.038417872 0.028517004
0.039090194 -0.09784544 -0.15360452 0.1734967 -0.037432667 0.093691185 -0.032284316 0.17315339
-0.1480255 0.07071262 0.11564207 0.02668646 -0.14099601 -0.00058524584 -0.06661703 -0.042681217
0.1891276 -0.09687789 0.06524981 0.11454634 -0.006674924 -0.0088712 -0.07187664 -0.09835958
0.022497695 -0.011275185 -0.024134437 0.0431163 0.1099419 0.022471532 -0.04907931 0.101163656
-0.28574866 0.07032682 -0.104383 0.023126366 -0.010650357 -0.06970085 -0.04254827 0.061649352
-0.08039991 0.022740543 -0.02153576 -0.12814426 -0.029323807 -0.019126374 0.16356991 -0.0014606621
-0.022182176 -0.09304925 -0.042926684 -0.015110294 -0.12083665 -0.07532917 0.10712054 -0.00937631
-0.04809909 -0.030635864 -0.09686098 -0.058872793 0.08158207 0.011881196 0.2520614 0.072181374
-0.1351926 0.00964179 -0.132426 -0.03958212 0.0056451065 0.08250816 0.022131288 0.28149933
-0.039551828 -0.10293177 0.09176648 0.016662445 -0.04652515 0.12079915 0.019458115 0.083518185
0.06697855 -0.06592728 -0.0836141 -0.06868553 0.010302432 0.0377096 0.03125821 -0.1572307
-0.03512751 -0.016982727 -0.046226446 0.025835857 0.042074252 0.008808211 0.06233519 -0.045173485
-0.05601833 0.110548444 0.02056582 -0.02643768 0.076073274 0.040917706 -0.03391358 -0.14058866
0.044796504 -0.104323745 -0.13460043 0.02421328 0.089047246 -0.1275691 0.20986418 -0.114692405
-0.06155892 -0.15133615 -0.10215868 0.05812458 -0.18426673 -0.013955323 -0.13381024 0.014499377
-0.0027428095 0.081240855 0.046988055 -0.07846692 0.0494839 0.05462048 -0.05777688 0.03496195
0.004213871 -0.05129559 0.15712976 -0.007854407 0.068328895 0.11804755 -0.096490584 0.08984723
0.022969428 0.08742317 0.0021459963 0.15410212 0.00076742657 -0.15684375 -0.04732772 0.1361713
-0.08636782 0.07327266 0.112792924 -0.048663355 0.1631255 0.008434491 -0.0741595 0.19154575
-0.14990574 0.12695955 -0.102714285 0.015876336 -0.06449265 0.108231 -0.040722042 -0.030677693
0.082748495 -0.0310451 -0.07598732 0.01334672 0.056408778 -0.095428936 -0.12498853 -0.09415602
-0.036570072 0.023794841 -0.07746225 0.06172111 -0.027939 0.02961406 0.0073963054 -0.059961863
-0.08270508 -0.10507325 0.1104531 -0.06701619 0.09066186 -0.03413062 0.0024863856 -0.009429471
0.043461032 0.0025500015 0.12528838 -0.206553 -0.035923827 0.058831606 0.075831294 -0.047679253
-0.03296664 0.0737437 -0.09359986 -0.0716279 -0.07259498 -0.040046494 0.06839033 -0.09022802
-0.26383057 -0.0034528908 0.18288422 0.12773992 0.05841938 -0.0026583432 0.01320452 0.009972869
0.016667593 0.018128965 -0.054241344 0.04657213 0.032085747 0.04970243 0.0958301 0.039012358
0.09157502 -0.03546129 0.056822572 -0.29456776 0.080171 -0.2463017 -0.03370252 0.043194156
-0.001883087 -0.0052173305 0.10671107 -0.065699436 0.12116311 -0.027486922 0.04301411 -0.11693618
0.09537953 -0.011501874 0.0067491345 0.06662362 0.012918776 -0.026970379 -0.12995483 -0.10303498
-0.0431669 0.03170303 -0.0540208 0.07884816 0.034747295 -0.012266727 0.013383933 0.03908625

network_body._body_endoder.seq_layers.2.bias f4 [128]
00000000: 823a 2696 ac97 84bb dc37 e3ba 652a cdbb
00000010: b409 37bb 022a 86b9 8bf1 e02a 87cf 1e3b
00000020: d238 9f3a 5e41 942c 6d93 d8b9 aa8e 8cb8
00000030: 122a adba 5f70 183a c7c8 b73a af40 fbba
00000040: cdf7 ddb9 0242 8638 23dd 1b3b 54e2 ac33
00000050: 9dd4 23bb a8bf 37bb d6b0 4db9 806d b4bb
00000060: 5d8b 94bb c581 f32a 1b38 c2ba dc14 04ba
00000070: 23f4 cc3a a021 293b ef83 daba eca6 af39
00000080: dc53 eeba 3955 c6ba 94d5 0fbb 8404 063b
00000090: 7426 cb25 d54b a6ba 70a5 603b 5c84 033b
000000a0: 97dc 97a4 5d37 c13a 44da d9ba 09fd 992e
000000b0: 2026 deb8 b624 b8b9 ed63 1d0d 91b7 35b8
000000c0: c4e4 043b fb67 52ba 098f 5b35 5734 cab9
000000d0: 6c6e 61ba d08b 58b9 4ef0 ebb9 bea0 23ba
000000e0: 87dd 73bb afea 813a 828b 44ba 9018 44bb
000000f0: 76a1 20ba a71c 4bbb 6150 4c14 5fff 16ba
00000100: 9e71 e89b 71cb 47ba 4873 9139 4734 6cb8
00000110: 715d 2bb3 ebea e9b9 a4f1 3cbb 83fc 98bb
00000120: ad05 bcb9 9517 92ba 79e2 66b9 4d38 31ba
00000130: 3a8e cbb5 5dcc 1eba 0663 c2ba 72e7 26ba
00000140: bfca 6826 eaca 79ba a7b5 582c c4f8 8fba
00000150: bae1 b1b8 0753 9aba 11b3 c69b 4fc2 1fb9
00000160: 322a d98d f2a2 51b1 42d3 34bb e0b5 8ebb
00000170: 8823 76b6 0185 103b 98b9 113b d1e9 00bb
00000180: 3a9c cfb9 ee85 eb39 75bd 3e16 c9b1 bcb4
00000190: d0b3 c7b9 b70f a2ba 251a 7eba 9c15 f6b9
000001a0: 7212 0dbb c65c caba dbb4 9aba de8f d2b9
000001b0: 5970 9f98 4635 8d39 2505 f53a 333c 7433
000001c0: b604 553b 4d89 e0aa 465a b5b4 6847 6cb9
000001d0: 7d61 dfb9 b66a 043a 8d18 80bb d1c7 4ab9
000001e0: 1e9c 09ba f32d 0a3a bd12 cfb8 cb2a 76bb
000001f0: cb0e 1bb8 c9f4 41ba 42fc a0b9 46e4 41b9
-1.3427835e-25 -0.004046401 -0.0017335373 -0.0062611573 -0.0027929367 -0.0002558977 3.9957997e-13 0.0024232583
0.0012147671 4.21367e-12 -0.0004130857 -6.7022935e-05 -0.001321139 0.00058150844 0.0014021628 -0.0019169057
-0.0004233703 6.401913e-05 0.002378293 8.050543e-08 -0.0024998554 -0.002803782 -0.000196162 -0.0055062175
-0.004533215 4.3255517e-13 -0.0014817746 -0.00050385087 0.0015636723 0.0025807396 -0.0016671399 0.00033502968
-0.0018182951 -0.00151316 -0.002194737 0.002044947 3.5240943e-16 -0.0012687395 0.0034278296 0.0020067906
-6.5859505e-17 0.0014741231 -0.0016620834 7.0025825e-11 -0.00010592886 -0.00035122567 4.849964e-31 -4.3324722e-05
0.0020277957 -0.00080263586 8.1792e-07 -0.0003856744 -0.0008599523 -0.0002065145 -0.00045001734 -0.0006241909
-0.0037210898 0.000991186 -0.0007497595 -0.0029921867 -0.0006127575 -0.003099242 1.031522e-26 -0.0005760099
-3.8454604e-22 -0.00076215627 0.00027742446 -5.631547e-05 -3.9899025e-08 -0.0004461625 -0.0028830552 -0.0046687736
-0.00035862383 -0.0011145944 -0.00022018877 -0.00067604036 -1.5166072e-06 -0.0006057674 -0.0014830537 -0.00063668855
8.076594e-16 -0.0009528833 3.0796283e-12 -0.0010984172 -8.4820625e-05 -0.0011774012 -3.287207e-22 -0.00015235807
-1.3383816e-30 -3.0506127e-09 -0.002759174 -0.0043551773 -3.6677538e-06 0.0022051933 0.0022235867 -0.0019670615
-0.00039598515 0.00044922478 1.540786e-25 -3.5147085e-07 -0.0003809021 -0.0012364303 -0.0009693227 -0.00046936877
-0.0021525887 -0.0015439026 -0.0011803167 -0.0004016151 -4.121398e-24 0.00026933308 0.001869355 5.6865428e-08
0.0032504029 -3.9885665e-13 -3.377956e-07 -0.00022533315 -0.0004260651 0.00050513016 -0.0039091767 -0.00019338659
-0.00052493985 0.0005271129 -9.8740195e-05 -0.0037562128 -3.6968657e-05 -0.00073988416 -0.00030705525 -0.00018490953

action_model._continuous_distribution.log_sigma f4 [1, 2]
00000000: 8eb5 af3c 0925 0e3c
0.021448877 0.008675822

action_model._continuous_distribution.mu.weight f4 [2, 128]
00000000: cd74 a1bb b557 c139 8abb 46bc 3f73 70bc
00000010: 7389 7a39 6ac3 d1bc 4dd4 d13b fc61 873c
00000020: fdc2 9dbc c097 773c 6e03 c039 3ec3 c23c
00000030: 1c87 cbbb 8dd8 7e3c bed9 1fbc d3fc 133d
00000040: ec82 193b 7550 24bd 92a0 4f3c f92a 47bc
00000050: fd96 243c aa42 a4bc c21b 653c 10ce 033c
00000060: 4534 aeba 7002 4fbc 1da4 ec3a ec19 6ebb
00000070: dc18 04bc 42a3 093a 31e6 9c3c 3707 5dbc
00000080: abeb 1a3b 6d95 b5bb 5a4a 16ba 7f0c 87bc
00000090: 9a30 603c f6e3 98bb bdca 06bc fc42 223c
000000a0: 5ff2 2a3d eb6e 973c 9eac 24bd a396 e7bb
000000b0: e2e3 583c e04f 433c e8fe dd3c ec9b e2bc
000000c0: 46a7 953c 88b4 7ebc 9d29 c43b 1e55 b9bb
000000d0: a0db 7d3b c221 40bc 0403 19bc 6b45 083b
000000e0: 7332 adbc 7199 5abb 7075 a73c a549 2e3d
000000f0: 5fa2 d73c f254 05bd a227 c0bb f117 7a3b
00000100: c311 993b c1d4 dc3a aeb3 cbbc c6fa 77bc
00000110: 4fc5 6e3b 9cb1 02bd 9bd1 3dbc c8c2 9ebc
00000120: a0c2 43b7 77e1 0b3c f7a4 f5bb b4d9 a0bc
00000130: 5781 7dbb 459f e73b 857e b1bc a458 063d
00000140: ef86 923b 8089 0b3c 5d60 cdbc 536b ed3b
00000150: 95e8 a2bb 38ef 8a3b 5c10 8fbc c5db 3f3d
00000160: 38e4 613c 5901 af3a b9b2 54bb d7a7 38bc
00000170: 6a74 52bc 579e 53bc 06a5 48bc 4f87 383a
00000180: a30e 4ebc c629 99bb bb77 22bb 37d2 35bd
00000190: c4d1 a43c ae36 263c f169 97bb cc3d f8bc
000001a0: 7cab aebb 19c3 babc 4b2e bb3a b10e d1bb
000001b0: 8695 963b 0434 753c 2713 87bc 6056 cfbb
000001c0: 5660 16bd 93bc 27bc e6b1 3ebb 33c5 b73b
000001d0: 03f4 983c 2e69 b13c 3f6e 343c 2958 3b3b
000001e0: b829 89bb 8054 153d 9c87 82bc b416 10bb
000001f0: 1b95 25bc 8012 d43c f49b 0e3c 47ed 8ebc
00000200: 1d23 7bbc 68e5 c93a 17e0 40bb a868 b4bb
00000210: 5ba1 13bc b357 823b 9b41 dd3c baf7 82bb
00000220: cbfe 673b 8815 c5bc 2395 92ba d017 d8bc
00000230: 75d7 753c ae74 c2ba 1cb9 6839 bf2e 8c3c
00000240: bd00 c03c d283 2bba 7e0f 08bc 6f2a f6ba
00000250: 04bf 153d 3f38 9a3c a991 86bc 08fe b5bc
00000260: ff73 ba3a 8ca7 073b 8864 88bc 6c79 fdbc
00000270: 8e85 8f3c 16be d53c 1353 c8bc 26f6 9c3c
00000280: 4555 ccbc 06a8 d03b d659 833b 487a 45bd
00000290: 89b6 8abb fff0 893c fe0b 123c 529a f73b
000002a0: 1abb 8cba b21c 0ebd 21b1 8a3a 915b 863b
000002b0: 9a47 9cbc d485 0e3d 3b85 5cbc f562 0bbb
000002c0: 0ec9 9cbc bc26 903c 7469 8ebc f72a d73c
000002d0: 6828 cc3a 041d bfbb 5734 7fbc 2912 d7bc
000002e0: 68ba 973c 45da 503c d011 bbbb 0057 173c
000002f0: e5a4 ddbb 48fa d03c b3c7 773c 7008 b5bc
00000300: 047b 48bb 71ef 5e3c 0eb6 f7ba 47a2 943c
00000310: de75 cb3c 4e94 b73c 76a4 56bb 96ec a43c
00000320: 46da ecbc 1724 aabb 5214 183d a364 4c3c
00000330: 8adf c93b a571 983c 4273 ad3c 216c 533c
00000340: 1b7a 7a3b b8c1 353c c3a0 fcbc e4b2 283c
00000350: 9d7a 95bb b133 98bb d38f c4bc 5adf e2bc
00000360: 2adc 45bb 2d77 ea3b e517 d13b a1c5 a1bb
00000370: dadb 1f3c 6053 0e3d 6b3b bebc c156 333c
00000380: 576b 2cbc 2001 973c d952 053a 3d4b b43c
00000390: 1e0d 63bc 06a2 113b 164e 33bc 1e08 c33c
000003a0: 9042 c33b 9db9 d7bc 5e84 203c 5b98 11bd
000003b0: 3456 933b 46ef 26bd 8a25 333c 03c9 19bc
000003c0: 4dab 1abd 9023 8b3b 23da 973c 8c75 f13c
000003d0: 56ed 4ebc 11bf 013c 0051 c23b c34d 843c
000003e0: faf5 cabc 46c1 163c a6dc 77bb 4975 de39
000003f0: 46e9 d33c 07b1 24bb 7040 77bc 0b49 b1bc
-0.004927254 0.00036877175 -0.012129674 -0.014675914 0.00023893062 -0.025605876 0.006403482 0.016526215
-0.019258017 0.015111864 0.0003662365 0.02377474 -0.0062111747 0.015554559 -0.009756504 0.036129784
0.0023423983 -0.040115792 0.01267256 -0.012156242 0.010045764 -0.02005132 0.013983669 0.008044735
-0.0013290724 -0.0126348585 0.0018054281 -0.0036331369 -0.008062568 0.00052504626 0.019152733 -0.01349049
0.0023639004 -0.0055414946 -0.0005733125 -0.01648545 0.0136834625 -0.004665847 -0.0082270475 0.009903666
0.04173505 0.018485507 -0.040203683 -0.007067518 0.013237925 0.011920899 0.027099088 -0.02766224
0.018268239 -0.015545972 0.005986406 -0.0056558987 0.0038735643 -0.0117267985 -0.009339098 0.002079333
-0.02114222 -0.0033355618 0.02044174 0.0425507 0.026322542 -0.032551713 -0.0058640996 0.0038161243
0.004671307 0.0016848074 -0.024865951 -0.015135473 0.0036433523 -0.031907663 -0.011585618 -0.019379988
-1.166822e-05 0.008537642 -0.007496472 -0.019635059 -0.003868183 0.007068547 -0.021666775 0.032799378
0.0044716517 0.008516669 -0.025070364 0.00724546 -0.0049715736 0.004239943 -0.017463855 0.046840448
0.013787322 0.0013351842 -0.003245516 -0.011270485 -0.012845138 -0.012916169 -0.012246376 0.00070392055
-0.012576732 -0.0046741692 -0.0024790603 -0.04438993 0.020119555 0.010144873 -0.0046207835 -0.030302905
-0.005330501 -0.022798108 0.0014280764 -0.006379925 0.0045954613 0.014966015 -0.016488625 -0.0063274354
-0.036712967 -0.010237831 -0.0029097735 0.005608225 0.018671041 0.021656599 0.011012613 0.0028586483
-0.0041858815 0.03645754 -0.015933804 -0.0021986188 -0.01010635 0.025887728 0.008704174 -0.017447127
-0.015328196 0.0015403451 -0.0029430443 -0.00550564 -0.009010638 0.0039777397 0.027008822 -0.0039968165
0.0035399671 -0.024058118 -0.0011183362 -0.026378542 0.015004982 -0.0014835799 0.00022194203 0.017112134
0.023437852 -0.0006542775 -0.008304475 -0.0018780957 0.03655912 0.018825648 -0.016426878 -0.022215858
0.0014225243 0.002069923 -0.0166495 -0.030941688 0.017519739 0.026091617 -0.024453675 0.019160341
-0.024943003 0.006367686 0.004008512 -0.04821232 -0.0042331857 0.016838549 0.008913992 0.007556238
-0.0010736913 -0.034695335 0.0010581353 0.004100271 -0.019077111 0.034795597 -0.013459499 -0.00212687
-0.01913884 0.017596595 -0.017384268 0.026265604 0.0015576007 -0.0058323164 -0.015576444 -0.026253777
0.018521503 0.012747352 -0.0057089105 0.009237051 -0.0067640417 0.025509968 0.015123296 -0.02209875
-0.00305909 0.013606892 -0.0018898861 0.018143786 0.024836477 0.022409584 -0.0032751835 0.020132344
-0.028912675 -0.0051922905 0.037128754 0.012475166 0.006160681 0.018608877 0.021173123 0.012904198
0.0038219753 0.011093549 -0.030838376 0.010296557 -0.004561736 -0.004644834 -0.023994362 -0.027694393
-0.0030191042 0.00715532 0.0063810223 -0.0049368893 0.009757007 0.03474748 -0.023221692 0.010945977
-0.010523639 0.018433154 0.00050858926 0.022008533 -0.013858108 0.0022221818 -0.01094391 0.023807582
0.0059588626 -0.026333624 0.009797184 -0.035545688 0.00449636 -0.040755533 0.010934243 -0.009386304
-0.03776102 0.0042461827 0.018536633 0.029474996 -0.0126298275 0.007919089 0.005930066 0.01615036
-0.024775494 0.009201353 -0.0037820726 0.00042430524 0.02586807 -0.002512993 -0.015091047 -0.021641275

action_model._continuous_distribution.mu.bias f4 [2]
00000000: 75e7 b7b9 5e89 0839
-0.0003507693 0.00013021144

action_model._discrete_distribution.branches.0.weight f4 [1, 128]
00000000: 6b67 fa3b c79f 4bbc c30f 37bc 5b8d bf3b
00000010: b760 6d3c 3195 0bbc 6ffc f23b cf08 863c
00000020: ab96 b23b a4ff 3b3c 2817 0abc aaeb b1bb
00000030: c2ef 4ebc a094 52bc 8a30 cc3b c25c a43a
00000040: f3ec 99bc 8295 03bb 0248 aebc 5b1c 653b
00000050: 7fb7 eebb a0ad cabb d2fb f13b 2b1e 46b9
00000060: 6353 fe3b c2b3 983c 8c3d 37bb 3378 b3bb
00000070: f3f5 60bc e305 23ba a2d1 70bc 2d13 31ba
00000080: b3b6 c33b 033a 073b 7788 2d3c f661 8cbc
00000090: 77f0 cbba 9a7e e6bb f8f6 5e3b 5cc8 c43b
000000a0: 1bd9 0a3c 6b7d aab9 35d7 38bc e332 ab3b
000000b0: 5864 7abc beb9 c3bb 3524 523a 9333 5239
000000c0: 428f efba 852c fab9 ea72 f23b 2285 24bc
000000d0: b1d1 ab3a 06cf 05bc 0713 403c 4af9 49ba
000000e0: 5a3a fb3b 21c9 023b ab11 343b effc c63b
000000f0: b373 543c 9270 1c3c 63f6 3e3c 6742 2bbc
00000100: 8a22 553c 570b 47bb 0f61 a33c efe4 513c
00000110: 93bf 94bb 3b10 98bb 771b 2bbb ae1a 2dbb
00000120: 92a3 5d3c 6b4d 453c d73e 843b 26b9 c93b
00000130: 5fb8 57bc 17db 72bc c29c 41bc 18db 97ba
00000140: acb5 a7bc 6b6d 8bbb 5828 92bb d772 f33b
00000150: ed40 b0ba f7ab bd3b 1315 16bc 8fce 31bb
00000160: 4675 a3bb ab69 b23a 86fa adba bdfb d4ba
00000170: 3b80 98bb 8462 833b 3418 acbb 353f 41bb
00000180: 4c63 bdbb 256e 2dbb f3e1 27bc 7ce8 083b
00000190: db62 c4bc 43b2 a6ba 87a5 c5bb cb90 623c
000001a0: 77eb 90bc 2d68 7b3b 8787 abbb 2014 4a3a
000001b0: 2ab3 94bb c50e 023a d68e 223b bb01 1f3b
000001c0: 43d5 b83b c79c 683b 85c7 313c de21 3e3c
000001d0: 70c5 35bb b3a5 cc3b b205 133a d755 89bb
000001e0: efa3 ae3a ff20 a039 1891 d6ba f91c b83b
000001f0: 0be1 12bc 2ae7 e53b b859 dcb9 32c0 dd3b
0.007641723 -0.012428231 -0.0111731915 0.0058457083 0.014488391 -0.008519457 0.0074153463 0.016361622
0.00545009 0.011474524 -0.008428372 -0.0054297047 -0.012630405 -0.012852818 0.0062313722 0.0012539851
-0.018789744 -0.0020078127 -0.02127457 0.0034959528 -0.007285058 -0.0061852485 0.0073847556 -0.0001889399
0.0077614053 0.018640403 -0.0027960269 -0.0054769753 -0.013730514 -0.0006218834 -0.014698418 -0.00067548716
0.005972707 0.0020633943 0.010591618 -0.017136555 -0.0015559335 -0.007034135 0.0034021717 0.00600533
0.008474614 -0.0003251837 -0.011281778 0.005224572 -0.015282713 -0.00597307 0.00080162595 0.00020046374
-0.0018276947 -0.00047716885 0.0073989527 -0.010041507 0.0013108758 -0.008167034 0.0117232865 -0.00077046885
0.007666868 0.0019956308 0.0027476351 0.0060726325 0.012967038 0.009548323 0.011655423 -0.010452843
0.013008723 -0.003037175 0.019943742 0.01281093 -0.004539439 -0.0046406067 -0.00261089 -0.0026413607
0.013527768 0.012042384 0.0040358114 0.0061561046 -0.013166516 -0.014822743 -0.011817159 -0.0011585681
-0.02047237 -0.004254987 -0.0044603758 0.0074294615 -0.0013447084 0.005788322 -0.009160298 -0.0027131175
-0.0049883453 0.0013611814 -0.0013273514 -0.001624934 -0.004653958 0.0040095467 -0.0052519087 -0.0029487137
-0.0057796594 -0.0026463356 -0.010246742 0.0020890525 -0.02397292 -0.0012717921 -0.0060316953 0.013828467
-0.017690403 0.0038361654 -0.005234662 0.00077086873 -0.0045379596 0.0004961307 0.0024804375 0.0024262506
0.005640657 0.0035493837 0.010850792 0.011604754 -0.002773609 0.006245339 0.00056084536 -0.004191141
0.0013324003 0.00030542162 -0.0016370146 0.005618688 -0.008964787 0.0070160823 -0.00042028516 0.006767296
