Assets/results/VikramRover7/VikramRover/VikramRover-1789.onnx (onnx, 147290 bytes, 10 tensors)

network_body._body_endoder.seq_layers.0.weight f4 [128, 10]
00000000: 73a6 ff3e 780e 9cbe 6624 b93e 5e66 da3e
00000010: 05eb 873e 9ef5 bdbd 2889 313e e4d4 41be
00000020: e2e9 a4be 361e 86bd c8a1 603d 7e3f 003f
00000030: 7831 8e3e 01c8 8abe bd07 afbe a478 673e
00000040: 017b 103e ac8d b7be 0a18 3abe d59d 1cbe
00000050: 8361 b73e 9e84 ccbd aa20 07be 61f7 d1be
00000060: 529e 7a3e af41 92be c801 603f d1c5 fb3e
00000070: 0b5d bcbe e39b 21bd ca4a b5be 0c66 88bd
00000080: 464f d93e c501 143d 0468 303f be21 febd
00000090: 01ee 743e 49d6 9fbe c483 553e b981 a5be
000000a0: fd4f acbe 4898 013e 7376 b63e 0645 0fbf
000000b0: 308c 69be f886 dabd a709 26be b89c ca3e
000000c0: 69e6 1d3e b9b9 653e f807 31bd 1e64 b03e
000000d0: 1dcb 8d3e 627d 013f f447 b03d 154c 4b3e
000000e0: ba47 273e 5bfa 1cbe 3f93 0f3f 3c89 b0bd
000000f0: abb6 543e dbf3 f43d fec4 dabd ab32 273e
00000100: 612c f23b 8845 413e 2584 39be 9516 d9be
00000110: 61ee 283d af1e fabb fda2 a53e e386 a2be
00000120: e094 e6bc 0cd4 a03d 9c38 783e 2e0c 7ebd
00000130: 343e 13bd d44f 0f3e e0b4 493e f333 f2bc
00000140: 1a88 12be fed3 80be bc92 0d3f 79aa c0be
00000150: c4ad 28be dbd4 cbbd 6df9 bbbd e487 f83b
00000160: 9efc 683d a54e 50bc 31d6 bb3e 352b 8fbd
00000170: c552 80be 060a dfbe ccda fb3d df39 63bf
00000180: 74d6 62bd f4b0 d43e 86c4 813c 46f6 9cbe
00000190: 692b 843e dbd5 db3e 7c34 2ebf 4435 ce3e
000001a0: 4c52 413e f845 3c3e f9c3 a13e fdcd bcbe
000001b0: 0a43 b03e b7b0 033f a1da 5abe c0cc 013f
000001c0: 3c5b f53e aa2d 68ba 700c d33e d97e ff3d
000001d0: 1056 6abd 7fd0 803e c8e7 f8be 6848 fabd
000001e0: 00a6 833e 5ed0 40bf 3fab efbc 6354 29be
000001f0: 20fd 353e b73e 9cbd 4a18 38bf 3444 3a3e
00000200: 99dd 11bf 149b 623d 8ad5 ddbe 3451 3ebe
00000210: 76c9 523c bc73 5abd ab23 e7be 77dc 73be
00000220: 2545 66be 5e6a f03e 3687 9d3b a125 8d3e
00000230: 1bb2 6a3e 9eca 513e 9d3c 52be 7d61 523f
00000240: 2568 bcbb d134 22be 50e4 8dbe 9c81 453e
00000250: d08a b93e 5c4a 153f 868e 9cbe 9b00 183f
00000260: 0626 1e3e d6de 02bd 6663 febe d095 a03e
00000270: 9e7c a6be 9e0d 5f3d 22cc 953c ff6f f5bc
00000280: 7273 05be 35f4 103f a61a 523e be1d 023f
00000290: 77c4 453e 9838 313c 1684 263d 09aa 2e3e
000002a0: 8544 013f 9efe c7be 1ed4 1b3f d9cb 85be
000002b0: 82d7 323e 4e59 573e e135 3a3e b919 8a3d
000002c0: 715d b5be 45a5 543e 0608 f3be e8ec 6a3c
000002d0: 2706 1cbe 734b aabd d6a0 5fbc 76ec 503c
000002e0: 85c1 21be b745 aabd d797 4cbf 5ee3 8abd
000002f0: bcf0 a23e b533 a8bd e992 f63c 833d 073e
00000300: d06f 8b3e 0520 9abe 5032 f6bc 97e7 853e
00000310: d22b d63d 508c adbe 11bb 223e 66b5 66be
00000320: e539 c53e 085f 60bd cd7c 653f 4813 3a3e
00000330: 3931 533e f656 c53e 3406 023e a804 43be
00000340: 8fab db3e a657 2ebe 844f 10bd 8f84 67be
00000350: b2a0 28bf 7da7 093f adf2 733d 0c81 813d
00000360: 1f8a 4fbf 3913 313e e830 b53e a3a5 b8be
00000370: 4a56 b93e c49d a9bd 79d2 1abe 2d85 ffbd
00000380: d206 6bbe bd2c 9fbe 051d 9ebd e09a 18be
00000390: e741 08be 08d5 d4be 14c3 8bbe ab8d 313e
000003a0: 6251 0d3f a265 eebb d976 a13c 57a6 06bf
000003b0: b655 3a3e 6c7b 87bd 9b3a c6bc 3cf2 b23d
000003c0: 11d1 be3e 2ca7 c03d a94d 27be 6e94 993e
000003d0: f2fc 7abe 9c1c e9bd b649 c23d 1c37 04bf
000003e0: ebe3 a9be d2dc 473d 37a2 8c3d 1159 3d3f
000003f0: b555 2cbe f524 823e dad9 643e 9714 dbbe
0.49931678 -0.3047979 0.36160582 0.42656225 0.26546493 -0.092753634 0.17337477 -0.18928868
-0.32209688 -0.06548731 0.054841787 0.5009688 0.27772117 -0.27105716 -0.3418559 0.22604614
0.14109422 -0.35850275 -0.18173233 -0.15294583 0.35816583 -0.09986232 -0.13196054 -0.41009048
0.24474457 -0.28565738 0.8750272 0.4917436 -0.36789736 -0.039455306 -0.35408622 -0.06660089
0.42443293 0.0361345 0.68908715 -0.124087796 0.23918916 -0.31218174 0.20851046 -0.32325533
-0.33654776 0.12655747 0.35637245 -0.55964696 -0.22807384 -0.106702745 -0.1621462 0.39572692
0.15419926 0.22434129 -0.04322049 0.34451383 0.27694026 0.50581944 0.08607474 0.19853242
0.16335955 -0.15329878 0.56084055 -0.086199254 0.20772807 0.11960574 -0.106821045 0.16327922
0.0073905443 0.1887418 -0.18116815 -0.4240004 0.04124296 -0.0076330523 0.32350913 -0.31743535
-0.028147161 0.07852945 0.24240345 -0.062023334 -0.035947993 0.13995296 0.19697905 -0.029565787
-0.14309731 -0.25161737 0.55302024 -0.3763006 -0.16472536 -0.09952708 -0.091784336 0.007584559
0.05688154 -0.012714063 0.36686853 -0.06990663 -0.25063148 -0.43562335 0.122975916 -0.8876018
-0.0553803 0.41541255 0.01584078 -0.30656642 0.2581437 0.42936596 -0.68048835 0.40275013
0.1887905 0.18386066 0.31594828 -0.36875907 0.34426147 0.5144152 -0.21372463 0.5070305
0.4792117 -0.0008856902 0.41220427 0.12475366 -0.05721098 0.2515907 -0.48614335 -0.12220842
0.25712585 -0.75317943 -0.029256461 -0.16536097 0.17772341 -0.076291494 -0.7191206 0.1819008
-0.56978756 0.055323675 -0.4332698 -0.18585664 0.012865415 -0.05333303 -0.451444 -0.2381457
-0.22487314 0.46956152 0.004807378 0.2756777 0.22919504 0.20487449 -0.20530935 0.82180005
-0.0057497197 -0.1584046 -0.2771325 0.19287723 0.36238718 0.5831659 -0.30577487 0.59375924
0.15444192 -0.031950794 -0.4968521 0.31364298 -0.3251695 0.054456346 0.018285815 -0.02996063
-0.1303232 0.5662263 0.20517978 0.5082663 0.19313227 0.010816716 0.04065331 0.17057051
0.5049518 -0.39061445 0.6087054 -0.26132086 0.17465022 0.21030161 0.18184616 0.067431875
-0.35422853 0.2076617 -0.4746706 0.014338709 -0.15236722 -0.08315172 -0.013649186 0.012751689
-0.15796478 -0.08314078 -0.7991919 -0.06781648 0.3182429 -0.08212987 0.03009935 0.13207059
0.27233744 -0.30102554 -0.030053288 0.26153252 0.10457577 -0.33896112 0.15891673 -0.22530136
0.38520733 -0.05477813 0.89643556 0.18171418 0.20624246 0.38542908 0.12697679 -0.19044745
0.42904326 -0.17025623 -0.035232082 -0.22609161 -0.658702 0.5377119 0.059557606 0.06323442
-0.8107013 0.17292489 0.35388875 -0.3606387 0.36198646 -0.082820445 -0.15119351 -0.12476573
-0.2295182 -0.3108882 -0.07720379 -0.1490283 -0.1330639 -0.4156878 -0.2729727 0.17339198
0.55202305 -0.007275299 0.019709991 -0.52597564 0.18196759 -0.06615338 -0.024197867 0.08737609
0.3726888 0.094068855 -0.16338219 0.29996055 -0.24510553 -0.1138241 0.094867155 -0.5164659
-0.331817 0.048794575 0.068668775 0.7396403 -0.1682957 0.2541882 0.22348729 -0.42789146

network_body._body_endoder.seq_layers.0.bias f4 [128]
00000000: b606 aebc b03c 54bb e58b 753c 4ff0 cfbb
00000010: eb6f d933 eb71 58bc 2b94 fcbb fb26 9dba
00000020: c27c 7ebc b9b9 e7bb a4ce e9bc e729 aebb
00000030: e4d9 6dba 0000 0000 d353 04bb d836 0f3d
00000040: eb03 89bc cd81 31bc 7212 5c2c 548a 543c
00000050: ec65 b3bc 119b 9dbb 88ec 09ba 48cc bbbb
00000060: bb09 eebc 9335 e53b 2d65 993c b5b3 6a3c
00000070: 2442 bd3c 30d2 c2bb 3c86 9abc 72ce 0fbc
00000080: a15f 183c e414 1dbc e120 9ebb e2c1 073c
00000090: 061c 0bbc 30b0 c6b7 9e7f 36bb a62f e2bb
000000a0: ff0b ee3c e701 8b2c ab5d 91bb da97 1ebc
000000b0: 12b2 8213 4f52 a9ac 6356 2dbc e88b 95bc
000000c0: 2fcd c6bc 7f0b 39bc b6ea 8fbc 0000 0000
000000d0: b894 b53b 2bc8 82bb e4fc 613d 6d1f 6aa1
000000e0: 02fa 73bb 81e3 03bd 8711 01bc b10a 4c23
000000f0: 2c11 10bb 8da5 f0bb 7231 1333 c2e2 8738
00000100: 08b7 283c 2549 0c3c 7c52 8abc 0bcc 1abc
00000110: ac84 77bb e10e b6bb 0060 82bc f1d0 55bc
00000120: 407e ab24 0e8a 5cbc adee 343c 82f1 abbc
00000130: 7752 10bc 7301 a4bc e6ce 7e3c a63b b7bb
00000140: 7ad7 17bc 0000 0000 8cc8 ad32 b737 03bc
00000150: 403c 81bb cdb1 acb8 4555 4086 e222 62bc
00000160: ebc2 6cbb 0a0f 03bc 0000 0000 91ee 26bc
00000170: a548 9fbc 8ade 323c 1b16 6abb 32cd b4bc
00000180: 0000 0000 220d 4989 a661 973b f763 9039
00000190: 3671 c7bb d726 193b 2e43 2ebc 4c1c bb32
000001a0: 200a 7a3c 0000 0000 3017 acbc c0fe b32e
000001b0: 710a e83c e7db 843c 83f0 a1bc 93fc 683c
000001c0: 0a4f 541e 1d79 d0bb e3d5 78bc 303b 80bc
000001d0: 5c44 1125 dc21 f7bb 44b6 50bc e038 acbc
000001e0: 4b03 d6bb 0635 8ebc 2188 78bc d24d a6bc
000001f0: 3371 16ab 120d 5dbb 0f24 3fbc 4199 00bc
-0.021243434 -0.0032384805 0.014986967 -0.0063457857 1.0125208e-07 -0.013210754 -0.0077080927 -0.0011989766
-0.015532674 -0.0070717004 -0.028540917 -0.0053150537 -0.0009073301 0.0 -0.0020191565 0.034964412
-0.016725501 -0.01083417 3.127412e-12 0.012972433 -0.021899186 -0.004809745 -0.0005261381 -0.0057311393
-0.029057374 0.006994912 0.018725002 0.014325072 0.023102827 -0.0059454665 -0.018862836 -0.008777248
0.009300143 -0.0095875 -0.004825697 0.008285971 -0.008490568 -2.3685483e-05 -0.0027847062 -0.006902653
0.029058455 3.950829e-12 -0.004436215 -0.009679759 3.2992205e-27 -4.812407e-12 -0.010579678 -0.018255189
-0.024267761 -0.011294245 -0.017567974 0.0 0.0055414103 -0.003991147 0.055172816 -7.9323876e-19
-0.0037227874 -0.032199387 -0.007877714 1.1061126e-17 -0.0021982891 -0.007343954 3.4271075e-08 6.4795386e-05
0.010297544 0.008562361 -0.016885035 -0.009448062 -0.0037768288 -0.005555973 -0.015914917 -0.013050304
7.4373304e-17 -0.013460649 0.011043233 -0.020989183 -0.008808724 -0.020020222 0.015552258 -0.0055918274
-0.009267682 0.0 2.0231049e-08 -0.008008889 -0.00394395 -8.234717e-05 -3.6173833e-35 -0.013802262
-0.0036126922 -0.007999191 0.0 -0.010188715 -0.01944382 0.010917315 -0.0035718742 -0.022070501
0.0 -2.420067e-33 0.004619795 0.000275403 -0.006086494 0.0023369098 -0.010636134 2.1782533e-08
0.015261203 0.0 -0.02100715 8.18523e-11 0.028325291 0.016218139 -0.019768005 0.014220375
1.12395314e-20 -0.006362094 -0.015187713 -0.015653223 1.2599906e-16 -0.007541878 -0.012738768 -0.021023214
-0.0065311543 -0.017359268 -0.015169174 -0.02030078 -5.34478e-13 -0.0033729714 -0.011666312 -0.007849039

network_body._body_endoder.seq_layers.2.weight f4 [128, 128]
00000000: 454f e0bd 8519 17be 243d 8c3d 3599 c63c
00000010: e289 b53b ff1d 393e 258c 463d f790 373d
00000020: 0c20 11bc 85ca 8439 bd32 55bd 386f 0b3d
00000030: c377 43be 627e 0e3c c99f a43d 4e42 d8bd
00000040: dd95 8bbd dd11 143e 9ed5 183d 5963 c1bd
00000050: cf71 c7bc c8fb bcbd 48aa 12be 8049 bdbb
00000060: 2f67 0d3d bca8 20be b0fa b2bc 3bb9 7a3c
00000070: 30d3 b6bd 5d11 22bd 9241 823d 9b9b 9bbb
00000080: 8d3e d7bc 1969 aebd 523d abbc 8d5a b6bd
00000090: 31f3 313d 2300 5abd 435b b63d 5d49 033d
000000a0: 8ae6 423d 4eea 06bd 6a71 07be 3c1e 21bd
000000b0: 036b 1bbe 99af a53c 61ac 003e 2cd3 1abd
000000c0: 1052 acbc a7bd ee3c a761 4e3c c36a 143e
000000d0: ba55 dc3c e50a c73d 8a1e af3d 1304 10bd
000000e0: 4a7d 05bc 92b1 423e 96ec 0cbe 13b6 643c
000000f0: 2387 aabc 4102 2a3d 455c 28bd 4817 7dbd
00000100: a4f5 623d efbc 25bd 2576 103e 662d 9f3c
00000110: 609b 2f3d 96a2 25bc a762 8fbd dee7 a3bd
00000120: a329 1abd eebb 8abc 13c7 383d c8a3 f63b
00000130: 86a5 b13d 1643 df3c 6494 23be 624e b83d
00000140: d24e 5ebc 1e85 d8bd 20f0 313a 14e3 b83d
00000150: ec19 163e 98dc 96bd 8780 a8bc 8bf9 883d
00000160: c615 3a3d fe67 68be 1d36 6a3d 12fe 30bd
00000170: 0897 93bd 4632 01be 2d5c dfbd b168 253c
00000180: 4762 8cbd 9ed7 1cbe 6e2a 283c c9d9 e3bd
00000190: 68d8 fe3c cf3e 21be 8247 14be d648 8abd
000001a0: 4d3f ab3d 7b8b 423e e24f c83d 0031 1c3e
000001b0: bf01 e7bd dd41 a93c 1f94 8bbd e95a 983d
000001c0: 8007 c63d 2e8e 12bd 0b39 46bd 8f4c 8fbd
000001d0: 4700 953d 41d2 1b3d 43c4 933c d01e 313d
000001e0: 77c5 29bd ddf9 8fbc d0de 7a3d f77b 073d
000001f0: d09b cb3d 19e2 3bbd b0c8 463d 240f 6fbd
00000200: 9c5d 83bd e02a a7bd 2f97 b43c 6c39 833e
00000210: ca2a d63d 7fc1 703b 7f83 8f3e 98a7 e93c
00000220: d58e 303c 4201 8dbd a4f8 caba 3305 7bbc
00000230: f5dd 25bd 322c 04be f7f6 7ebb f44e b13b
00000240: 72ff ddbc c5f2 46bd f749 2f3d c447 653d
00000250: fd80 57bd 3633 0bbd 3cd0 143e 73ca a0bc
00000260: db63 403d 0f32 c93c 4bac 09be 12de 34bd
00000270: 3e77 773e a620 27bd 5e22 85bd 3bc2 223c
00000280: 3f28 f43d f53c 2bbc accc 3dbe 6718 3bbd
00000290: 9912 9a3c 3a34 b73d 244b 573c 4a19 6e3c
000002a0: 4a0c 1b3d 27e1 d13d dc54 8ebc a903 a7bd
000002b0: 08ba 22be b682 823c 1a88 133e fbff e4bd
000002c0: 79f3 fabd b0e8 da3d 555a f0bd f775 ecbc
000002d0: 4776 813d 0891 c43d 7a21 75bc b863 88bd
000002e0: 11fc 74bc a734 e43d 871e 45bd 6600 03bd
000002f0: ce60 413d f1cf 59be 23a4 6dbc 1b3d 09bd
00000300: 5668 4c3b 81cc bf3c d2c4 8c3b 6dab 24bd
00000310: 57f9 99bc d0fc de3d 3e3f ba3c f95f ddbc
00000320: cd7c 91bd 79cb 57bd e763 d7bb aeca cc3d
00000330: a2ed 5e3c 8c5a 0dbe 073e d5bd 68fe 13bd
00000340: f503 10be a991 cebd bc21 823d adfb 7cbd
00000350: b52b 133c 2e34 93bc b6a6 0c3d 2e9d 063d
00000360: 59ec eebd b08a 8e3a 9164 99bc 8266 a6bc
00000370: d381 ec3d 47f6 3a3e bd7a 803c fa62 25bd
00000380: 1512 533d b7ef 3abd 5683 7ebc 2762 53bc
00000390: d40c 2dbe 2e72 8fbb c1a8 84bd 29dc 98bd
000003a0: ce30 66ba f808 553d 0d40 dbbd 13e0 aabc
000003b0: de16 a2bd c0d4 9c3c e898 09bc 550c 05bd
000003c0: bf8d f4bd b791 d5bd f339 93bc efc9 33be
000003d0: 397c 3fbb 8f53 3f3d c37b 1bbe a4c8 fe3d
000003e0: 9688 0fbe 19a4 633c 025a debc 2912 3d3d
000003f0: 7016 43be 7d9a 2fbe d7df 623d d41c 9ebd
-0.109526195 -0.14755829 0.06847599 0.024242977 0.0055401186 0.18077849 0.048473496 0.044815984
-0.008857738 0.0002532789 -0.05205034 0.034041613 -0.19088654 0.008697124 0.08038289 -0.105595216
-0.068156935 0.1445994 0.037313096 -0.09442777 -0.02434626 -0.09227711 -0.1432277 -0.005776584
0.03452223 -0.15689367 -0.021848053 0.015302951 -0.089269996 -0.03956734 0.06360163 -0.004748774
-0.026274944 -0.085161395 -0.020903263 -0.0890399 0.043444816 -0.053222787 0.089041255 0.032052387
0.04758314 -0.032938294 -0.13226858 -0.039335474 -0.1517754 0.020225333 0.12565757 -0.037799045
-0.021035224 0.029143168 0.012596524 0.14493851 0.026896346 0.09718875 0.08550747 -0.035160135
-0.008147547 0.1901305 -0.13762125 0.0139594255 -0.020816391 0.041506056 -0.04110362 -0.06178978
0.055410042 -0.040463384 0.14107569 0.019430827 0.042872787 -0.010109564 -0.07001238 -0.080032095
-0.037637364 -0.016935315 0.045111727 0.0075268485 0.08674149 0.027253669 -0.15974575 0.08999325
-0.013568597 -0.10572265 0.00067877956 0.09027687 0.14658326 -0.07366294 -0.0205691 0.066882215
0.04543092 -0.2269592 0.057180513 -0.04321105 -0.07206541 -0.12616834 -0.10906253 0.010095761
-0.068546824 -0.15316626 0.010264022 -0.111255236 0.03110905 -0.15746616 -0.14480403 -0.067521736
0.08361683 0.1899852 0.097808614 0.15253067 -0.1127963 0.020661289 -0.06815361 0.07439215
0.09669399 -0.035780124 -0.048394244 -0.06997024 0.072754435 0.03804231 0.01803792 0.043242276
-0.041448083 -0.017575199 0.061247647 0.033077206 0.09941828 -0.04586992 0.048531234 -0.05836405
-0.06414339 -0.08162475 0.022044746 0.25629747 0.1045738 0.0036736426 0.2803001 0.028522298
0.010776241 -0.068850055 -0.0015485478 -0.015321064 -0.040494878 -0.12907484 -0.0038904527 0.0054110233
-0.027099345 -0.048571367 0.042795148 0.055976644 -0.052613247 -0.033984385 0.1453256 -0.019627785
0.04697023 0.024560003 -0.13444631 -0.044157095 0.24166581 -0.04080262 -0.06500696 0.009934003
0.11921739 -0.010451545 -0.18535107 -0.04567757 0.018807696 0.08945508 0.0131404735 0.014532397
0.037853517 0.102480225 -0.017374448 -0.08154995 -0.15891278 0.015931468 0.14407387 -0.11181637
-0.1225347 0.10688913 -0.117359795 -0.028864844 0.06321388 0.09597975 -0.014961595 -0.06659645
-0.014952675 0.11142855 -0.048124816 -0.0319828 0.04721146 -0.2127073 -0.014504465 -0.03350554
0.0031190119 0.023412945 0.0042959237 -0.040202547 -0.018795652 0.10888064 0.022735234 -0.027023302
-0.07103882 -0.05268428 -0.0065731886 0.099995956 0.013606461 -0.13804072 -0.104122214 -0.036131293
-0.1406401 -0.10086376 0.063540906 -0.061763454 0.008982589 -0.017969217 0.034338675 0.032864742
-0.116661735 0.0010875072 -0.018724712 -0.020312551 0.115481995 0.1825801 0.015683526 -0.040377595
0.051530916 -0.045638766 -0.015534243 -0.012901819 -0.16899425 -0.004377625 -0.064775 -0.07463867
-0.0008781076 0.052010506 -0.10705576 -0.0208588 -0.07914518 0.019144416 -0.008398272 -0.032482464
-0.119410984 -0.104281835 -0.017971968 -0.175575 -0.002921833 0.046710547 -0.1518393 0.12440613
-0.14016947 0.013894104 -0.027142528 0.046159897 -0.19051528 -0.17148776 0.05538925 -0.07720342

network_body._body_endoder.seq_layers.2.bias f4 [128]
00000000: 97af 68bc 59db 2798 dc00 c7ae 9f55 12bc
00000010: 0000 0000 6e66 09bb bfee 7ebb 0ba9 96bc
00000020: 593c 2d27 da29 d4bb e0f7 dd39 cb70 92bb
00000030: 9a2a 51bb b4d8 8539 4685 51bc abff 803b
00000040: 4fdd 8abb b689 47bc aecd f2bb a3dd 35bc
00000050: 1cee 15bb 835e 0039 b49b 9abc f7c5 84bc
00000060: 5660 34bb 9a70 e6ba 2432 46bc 3c0c 10bc
00000070: 37a9 e5a5 995b cbb9 b2b8 ccbb dc58 94bb
00000080: 37b2 d1bb 1149 b53a ef6d 68bc 970f f6ba
00000090: 1a88 01bc 1091 e198 4292 6ebb 45dd 4ebb
000000a0: eaeb 0abc 2a5b 8324 a743 beb9 383c 2dbb
000000b0: 21d6 43bc 9521 cd0d 3f9d 8bbb 0000 0000
000000c0: 7545 92ba eba9 bebb d3e9 10bc 97c3 ffbb
000000d0: e1fc c8bb e02d 50bb 3adc 3bbb d19a 043c
000000e0: d7b7 9cbb 5913 3bbc d29e e1bb 6a37 c4bb
000000f0: 0000 0000 5234 8910 11bb dabb 0000 0000
00000100: 61ab a9bc 85ef 08bc ce30 51bc ae48 c4bc
00000110: 0758 7d2d b540 8abc 8473 18bc 1561 82bc
00000120: 82e4 0ebc 45e8 33a6 1728 d6bb 8cfd cbbb
00000130: ad88 79bc 4a09 8abb d8dd 80bc 0040 4abc
00000140: 30cb e2ba 942e 023b 0000 0000 e84a 30bb
00000150: 6dbc edba e1ac 30bc b85e 59bc 9139 7b3b
00000160: 0000 0000 ce62 a43b c1f8 66bb 7deb b31d
00000170: 63e2 6bba 1adc 0abc 69ec bfb1 8da3 e4bb
00000180: 43fa f5a2 c914 e4ba 6b50 36aa 877a 95bc
00000190: 7b0e 2fbc 2028 bdba 81fe e9ba 8325 822e
000001a0: a8d8 8c27 7a2a 1cbc e162 9ebb dae9 8cbc
000001b0: 1868 5cbc 07cf dbb0 66da 45bc 8cfc 4314
000001c0: 00e1 91bb cb00 2bbb a7c7 c8b8 fc1d 58bc
000001d0: 7482 51bc 4ba9 eaba ed29 4fbb dd28 a5bc
000001e0: 1f9e e8bb 24c8 1ebc 462f 87bb 402b 14bc
000001f0: f38c 7cbc 9e4a 933c c5a9 0db6 e07c 8fb6
-0.01420202 -2.1694986e-24 -9.049625e-11 -0.0089315465 0.0 -0.0020965594 -0.0038899628 -0.018391153
2.4041287e-15 -0.0064747157 0.00042337086 -0.0044690124 -0.0031916262 0.00025529193 -0.0127881225 0.003936728
-0.004237808 -0.012178829 -0.007409773 -0.011100206 -0.002287752 0.0001224224 -0.018873073 -0.016207678
-0.002752324 -0.0017581165 -0.012096915 -0.008791979 -3.9839832e-16 -0.00038787423 -0.0062476033 -0.0045271944
-0.0063994187 0.001383098 -0.014186366 -0.0018772957 -0.007905984 -5.8307613e-24 -0.0036403094 -0.0031564992
-0.008479098 5.696663e-17 -0.0003629003 -0.0026433598 -0.011952908 1.2642185e-30 -0.0042606886 0.0
-0.0011159616 -0.0058185956 -0.008844811 -0.0078052985 -0.006133661 -0.0031765625 -0.00286652 0.008093552
-0.0047826576 -0.011418187 -0.006885388 -0.005988051 0.0 5.4117584e-29 -0.006675132 0.0
-0.020711603 -0.008357887 -0.012767984 -0.023960438 1.4400931e-11 -0.016876558 -0.009304885 -0.015915433
-0.008721473 -6.2417884e-16 -0.006535541 -0.0062252935 -0.01523034 -0.004212533 -0.015730783 -0.01234436
-0.0017302986 0.0019864189 0.0 -0.0026900116 -0.001813782 -0.010783405 -0.013267212 0.0038333873
0.0 0.0050166612 -0.0035243484 4.7624395e-21 -0.0008998273 -0.008475328 -5.5857083e-09 -0.0069775046
-6.667236e-18 -0.0017401214 -1.6192748e-13 -0.018246902 -0.010684605 -0.0014431514 -0.0017852337 5.918379e-11
3.9092705e-15 -0.009531612 -0.0048335646 -0.017201353 -0.013452552 -1.5993188e-09 -0.012075996 9.89479e-27
-0.004451871 -0.0026093002 -9.573931e-05 -0.013190743 -0.01278745 -0.0017903236 -0.0031610683 -0.020161087
-0.0070989276 -0.009691272 -0.0041255085 -0.009043515 -0.015414464 0.017979916 -2.1109456e-06 -4.2762695e-06

network_body._body_endoder.seq_layers.4.weight f4 [128, 128]
00000000: 05ad aebd 5ac6 073d cbb7 b53c 4e58 1d3d
00000010: da5b c8bd be7a 32be c756 853d bfa7 03bc
00000020: 0658 94ba e033 93bd 9a6f 3fbe 82b6 01bc
00000030: 67f3 3f3d 746b da3d 1311 f53c 3e3f babd
00000040: 83cf 4c3e 4615 01be be28 abbd c56c c83d
00000050: ac2f be3d 279f d0bb 524e bfbd 77da cfbb
00000060: 9d18 08be fd34 e3bc 05f1 1dbd 43ee 16be
00000070: 0770 8bbd edcc 9f3b 6d8c f0bd de3a d3bc
00000080: 2eb5 22ba c4e2 fa3d 2900 db3d d6df 4bbd
00000090: ac88 0d3d c43e c8bd 63b5 adbd 13aa 123d
000000a0: 11de 92bd 7a1d 4c3d 93c0 e7bc dbd1 523c
000000b0: a468 a3bc 5a56 83bd c1c4 b23d fb40 463e
000000c0: 79d6 e43d acf0 9bbc 7a84 40bd aac9 113b
000000d0: 4f06 583c d87c 5c3d 43a7 bd3d 7994 f13c
000000e0: 156f 0e3b ba6d 6b3d b5ea 05bd 8d82 78be
000000f0: 04e9 94bb 8be5 213d e7e4 3c3e 4c58 b03c
00000100: 8281 3e3d c2cf 72bd e6b0 573d 6f7c 3f3d
00000110: ea5d a73d 4ae1 fc3c bee8 9e3d 9efb 253e
00000120: 4b00 a13c 6097 983c 46aa 353e c314 a63d
00000130: c296 11bd ed6d 973d 5c37 2ebd ad65 ee3d
00000140: 7aac 283d c479 66be 4c10 f83b ede5 7a3e
00000150: a45a 803d b5e8 c53d fb1f 933d 09a2 9c3c
00000160: fdb8 25be 102a 15be 3ea9 923d ffc1 283d
00000170: 24e3 19bd e6d0 04be 7155 ebbd 010e 0c3e
00000180: 31f0 f5bd 1da4 a2ba 0643 a73d fa88 ed3b
00000190: 2ec6 193d f0c9 433c ac2f 80bc 225b 2c3d
000001a0: d31c c5bb f9ab a4bd a599 0b3e 4c1e 2f3d
000001b0: 1e9c 9e3d e013 56bd f487 ab3d 8a55 903d
000001c0: 1fc7 33be c3e4 a13b dd22 b73d dbd5 e3bd
000001d0: b425 bcbd e0a0 5dbc f91e ab3d 335c 7ebd
000001e0: bebf cdbc c8e8 b53c 0bc2 21be 47dc 1dbe
000001f0: e8f8 ce3c 7a9d d9bc fb55 c9bb 7a3c a1bd
00000200: b2c4 513d e284 253c 4be9 3d3d e4df 6fbc
00000210: f751 26bd 2b23 553c 3668 253b 5afa 03be
00000220: 9ef4 043d ce18 06bb 6b8e 4cbe be81 003e
00000230: ba4c db3b a447 51be d7ed 8b3d 16c5 7e3c
00000240: 69fb cebb 906a 393e aa54 08bb 683d aebd
00000250: 669d 023e 4f37 4bbe fd27 ad3d e8f8 babd
00000260: 7696 cabd c8e0 e6bc 64e1 213d 8725 763c
00000270: 693a 3e3d 2e44 4fbd 3797 913d 7c23 eb3c
00000280: ede8 a33b ddb5 71bd 40db 62bd c157 0ebe
00000290: 8ff3 8a3d 4b76 43bd 38df 37bc 2a6e b53d
000002a0: c1fa 583c 552c f33d 079c 223e 5dfb 5c3c
000002b0: c811 7cbd 87af ff3b 6e4f 89bc 4e92 10bd
000002c0: 8c69 a83d 5062 74bd a896 88bb 11b4 77bd
000002d0: 4f26 ccba 56a7 ed3c d5bc 2f3d 9192 313c
000002e0: 421d 1e3e e883 333d fc1e 13be ca86 f0bd
000002f0: a6a7 acbc 4cc0 9c3d 83f9 193e e7b8 cdbc
00000300: 80b3 58bd cd29 d7bc 21b4 2f3e 9880 953d
00000310: 3931 373d e3ed 0ebd bbce c83c 2aa5 73bd
00000320: 212c e23d 1f84 ba3d 051b f03d 81ac 5f3d
00000330: aadd f13d 7460 183c bf65 0d3c ccdd 4a3d
00000340: b814 00be 2b81 f6bd 501b 16bc 0a8e e63d
00000350: 84b9 f83d 8e29 8fbc 2d64 28be 4f05 9c3d
00000360: 0b9e f33c f8ae d0bd 8507 0fbe 7c4b 60bc
00000370: b4d8 903d 6a92 c03c 8b51 5d3d d62f d83c
00000380: bdad 033e ce43 2f3d 68b4 f73c b6cd 8e3c
00000390: b115 993d 5ce4 dc3a 8a76 ecbc c05f 5a3b
000003a0: 2b8e cfbd 5236 ff3c 5912 21bd 30f4 0abb
000003b0: ccd5 b83d 52f8 ddbd 870f 8dbd c71a 2cbd
000003c0: 8aa0 983c cb99 7dbc abaa 3e3d d4a0 8d3b
000003d0: 8e9a f93b 10a1 04be 9e2a 1abe ae72 d4bb
000003e0: 6565 21be 332d b53c 2329 80bd bb6e 2fbe
000003f0: 93e9 63bd c43e d73d 67c9 fcbd 5ac2 48bd
-0.085290946 0.033148147 0.022182366 0.038414292 -0.09783144 -0.17429635 0.06510692 -0.008035599
-0.0011317737 -0.07187629 -0.18694916 -0.007917048 0.046862986 0.10665026 0.029915368 -0.09094094
0.20001034 -0.12605771 -0.0835738 0.09786371 0.092864364 -0.0063666287 -0.0934111 -0.0063431817
-0.13290639 -0.027735228 -0.038559932 -0.14739327 -0.06808477 0.004876724 -0.11745534 -0.025784906
-0.00062068074 0.12250283 0.1069339 -0.049774013 0.03455417 -0.097775966 -0.084818624 0.035806727
-0.07171262 0.0498328 -0.028290069 0.012867416 -0.019947357 -0.06412955 0.08728934 0.19360726
0.1117372 -0.01903566 -0.04700134 0.0022245445 0.013185098 0.053829998 0.09260418 0.029489743
0.002173369 0.05747769 -0.032694537 -0.24268551 -0.004544379 0.03952555 0.18446694 0.021526478
0.046510227 -0.059280165 0.052658938 0.04674953 0.081722096 0.030869145 0.07759236 0.16209266
0.01965346 0.018626869 0.17740735 0.08109429 -0.035544164 0.073940136 -0.042533264 0.11640487
0.04118011 -0.22507387 0.007570302 0.24501772 0.06267288 0.09663526 0.07183834 0.019120233
-0.16183849 -0.14566827 0.07161187 0.041200634 -0.037570134 -0.12970313 -0.11490906 0.13677217
-0.120087035 -0.0012408529 0.081670806 0.007248995 0.037542515 0.011950001 -0.015647732 0.0420791
-0.006015399 -0.08040614 0.1363283 0.042753503 0.07744621 -0.052265048 0.083755404 0.07047565
-0.17556427 0.0049406006 0.089421965 -0.11124774 -0.09186879 -0.013527125 0.08355517 -0.062099647
-0.025115844 0.022205725 -0.15796678 -0.1541606 0.025265172 -0.026564348 -0.006144283 -0.07872863
0.051212974 0.0101024825 0.046365064 -0.014640782 -0.04060551 0.013008873 0.0025239117 -0.1288847
0.032459848 -0.0020461562 -0.19976203 0.12549493 0.006692496 -0.20437485 0.06832474 0.015549919
-0.0063165915 0.18107057 -0.0020802417 -0.08507806 0.12755355 -0.19845317 0.08454893 -0.09129506
-0.098919794 -0.028183356 0.03952159 0.015023596 0.046442423 -0.05060213 0.0710892 0.028703444
0.005002132 -0.05901133 -0.055384874 -0.13900663 0.06784736 -0.047720235 -0.011222653 0.08858903
0.013243378 0.1187369 0.15879832 0.013487664 -0.061540395 0.007802907 -0.016761508 -0.035295777
0.082232565 -0.05966407 -0.0041683502 -0.06047446 -0.0015575382 0.029010456 0.042904694 0.010838167
0.15440848 0.043826967 -0.14367288 -0.11744459 -0.021076035 0.07653865 0.15036587 -0.025112582
-0.05290556 -0.02626505 0.17158557 0.07299918 0.044724677 -0.034894835 0.02451264 -0.059483685
0.11043573 0.09107231 0.117239036 0.054607872 0.11809857 0.00930034 0.008630215 0.04952793
-0.12507904 -0.120363556 -0.009161785 0.112575606 0.12144759 -0.01747587 -0.16444464 0.076182
0.029738447 -0.10189623 -0.13967712 -0.013689872 0.07072583 0.023507316 0.054032844 0.026389997
0.12859245 0.042789273 0.030237392 0.017432075 0.074748404 0.0016852724 -0.028865118 0.0033321232
-0.10134538 0.031153832 -0.03932414 -0.0021202676 0.090251535 -0.10838379 -0.06887727 -0.042017724
0.018631238 -0.015478562 0.04654948 0.0043221507 0.0076173013 -0.12952065 -0.1505532 -0.0064833974
-0.15761335 0.02211628 -0.06257846 -0.17132084 -0.055642676 0.105100185 -0.12343102 -0.049013473

network_body._body_endoder.seq_layers.4.bias f4 [128]
00000000: 0b37 f2bb 69e6 9cbb f638 e6bb 59a5 78bb
00000010: 6324 1928 3d64 1dbc befc afbc 052b 2fbc
00000020: 8954 d6bb 9566 cabb f15c 36bc d694 d6bb
00000030: 19a3 24bc 188b 5121 c696 c2bb a3b7 02bb
00000040: a8f2 69bb 8959 b3bc ed69 f3bb e381 01bc
00000050: b2b9 01bc f93c f3bb 9fe4 1fbc 40e2 2abb
00000060: b0d6 34bc 151c 11bc 0137 9fbb 0c52 4dba
00000070: 061e 0cbc 6705 c9bb f1a2 81bc 9901 133b
00000080: 6fd9 c7bb 0a7b e7bb 954b c3bb 75ed b2bb
00000090: ee80 40ba 2539 eb3a 2eb2 88bc 5b28 6abb
000000a0: 68ad 7bb9 23e4 05bc 2d0b 283c 90d6 edba
000000b0: c051 33bb 69db 42bc ef96 32bb fca9 e8b9
000000c0: 4300 07bc 542d 16bc 7a3a 19bc c7e8 f9b5
000000d0: 8e92 48b8 eadb 88bb 7732 84b3 7794 27bc
000000e0: 687d 1abc 1907 8a09 1e73 023c bd62 fdbb
000000f0: 2687 31bc ddb9 f8ba a4a9 fb3b bf41 56b7
00000100: 4cba 0cb7 08a5 0dbc 5e07 afbb 36a6 df2f
00000110: 4f54 6825 44d4 933b a2c2 b9bb 3b76 ee39
00000120: 546f e0bb b577 2e3b 7ec4 8bbb 33f8 163b
00000130: a663 a23a 589f abba 717a e2b8 43a7 3bbc
00000140: e68f 11bc a391 c1ba 937b e0bb ee8d c2bb
00000150: 01f9 f1bc 06e3 d03a 6dcd 56bc 4dc0 4ebc
00000160: 853f f0ba c8f8 d73a 01a7 b9bb d457 c0bb
00000170: 37af 0fbc a64f 25bb 6197 d3bb f1bf 00bc
00000180: 1980 09bc 42d3 91b9 7ac7 ffbb 5b51 45bc
00000190: 6691 583c 44b2 4d3b fe44 aa3a acd6 b2ae
000001a0: 4005 9eb9 a2e9 afbb 1c8a 26bc ff94 28bc
000001b0: b80b ef96 50af 263b 5c09 bfbb d343 fcbb
000001c0: 5cb9 f5ba 13ea 82ac 0ffb 7bb6 45ac 85ba
000001d0: 21ad 97ba fb18 ea3a 5b61 1bb8 6bfb 20ad
000001e0: 20a9 ffbb be3c 273b 92cf 91bb be42 1b3b
000001f0: 96e1 a2bb 5988 22bc fc5f 79bb 452f 2abc
-0.0073918155 -0.004788209 -0.0070258332 -0.0037940352 8.501096e-15 -0.009606418 -0.021482822 -0.010691409
-0.006540839 -0.0061767795 -0.011130557 -0.0065485043 -0.010048651 7.0996043e-19 -0.0059383838 -0.0019945882
-0.0035697613 -0.02189328 -0.007428399 -0.007904503 -0.007917808 -0.00742304 -0.009759097 -0.0026074797
-0.011037514 -0.008856793 -0.004858852 -0.00078323553 -0.00855208 -0.006134677 -0.015824767 0.0022431372
-0.006098918 -0.007064228 -0.005959938 -0.005460436 -0.0007343431 0.0017946108 -0.016686525 -0.003572962
-0.00024001824 -0.008172068 0.010256571 -0.001814561 -0.002736196 -0.011893132 -0.0027250608 -0.00044377137
-0.0082398085 -0.0091660805 -0.009352321 -1.8619693e-06 -4.7820206e-05 -0.0041766064 -6.1559085e-08 -0.010228268
-0.009429313 3.3228966e-33 0.007962016 -0.007732718 -0.010835445 -0.001897629 0.007680135 -1.2770702e-05
-8.388026e-06 -0.008645304 -0.0053414544 4.0681564e-10 2.0151357e-16 0.004511388 -0.005668954 0.00045482986
-0.006849209 0.0026621644 -0.004265367 0.0023036122 0.0012389317 -0.0013093753 -0.00010799326 -0.0114534525
-0.008884406 -0.0014768135 -0.0068506687 -0.0059373295 -0.02953768 0.0015936799 -0.013110501 -0.01261909
-0.0018329477 0.0016477341 -0.0056656604 -0.005869845 -0.008769802 -0.0025224476 -0.0064572548 -0.007858262
-0.008392357 -0.00027813955 -0.007805762 -0.012043322 0.013218259 0.0031386772 0.0012990532 -8.132636e-11
-0.0003014002 -0.0053684274 -0.010164764 -0.01028943 -3.8619928e-25 0.0025434084 -0.005829973 -0.007698515
-0.0018747258 -3.7208097e-12 -3.754805e-06 -0.0010198435 -0.0011571982 0.0017860228 -3.704555e-05 -9.150773e-12
-0.0078021437 0.0025518383 -0.004449793 0.0023690904 -0.0049707396 -0.009920203 -0.0038051596 -0.0103872465

action_model._continuous_distribution.log_sigma f4 [1, 2]
00000000: bcbf cf3d ea26 1a3e
0.10143992 0.15053907

action_model._continuous_distribution.mu.weight f4 [2, 128]
00000000: 2da5 713c ea3e a43c 0e1a d5bb 4786 88bc
00000010: ed13 473b 5420 c13b a5a9 f03a 88e4 3f3c
00000020: 4216 3fbc 08ac 743c 7401 aebb 9089 d83c
00000030: 5e0a 0a3b 5d77 92bc ffc8 fc3c 3c52 bfbb
00000040: 87e3 043d d96d 833a de07 b3bb 4308 fd3b
00000050: d001 0c3c 6ccc 1f3d 165b 8cbb 979f 333a
00000060: 06aa a83b 280a 063c 3896 fabb e5b4 4ebc
00000070: 9f86 69bb 5603 1a3c fb5d ccba 72c6 01bd
00000080: c02f a43a d22f 88bb c693 3abb 05c4 1cba
00000090: 8591 ad3b c1b5 88bc c598 6b3a 7b08 3ebb
000000a0: 17ee 31bc 919a b03a 73ac 4c3c 0888 afbb
000000b0: 7c6b 6a3b e64f c93b 43e6 a4bb bf53 75bc
000000c0: 69d9 c13b 1dcf 61bb f986 813c 4956 993c
000000d0: c641 a0bb 2436 893b 45c7 00bc 8b6c 0fbb
000000e0: e7bb a73b 5bf7 e73c c650 cdbc d27a 35bb
000000f0: a02b 43bb 7794 abbb be95 403d f61f 2fbc
00000100: 7a96 04b9 f6ea 70ba 0b2c 363c ca7d 6cbb
00000110: 04f4 8f3c bc48 803c f39b c1ba 098b 8abc
00000120: eef0 303a 2661 09bc 7911 e33c c28a 90bc
00000130: dc67 96bc 9d06 033b 7159 353d f467 c63b
00000140: fd39 b13a 1435 95bc add9 a73b e00f 8ebb
00000150: 6bbd d0ba be1f b33a b68b ee3b e398 013b
00000160: b3a9 3a3c ff3f b5bc a9b7 163d f749 9abc
00000170: 285f 403b b6f7 c43c 97b1 14bc ff3f 323d
00000180: 7c52 943b f5e7 14bc 1deb f13b 37eb 473b
00000190: cf58 0bbd 24bf 04bc 6db3 b6bc 628c 6abb
000001a0: 7a03 863b dac4 48bc 8eb3 90bb 7680 733c
000001b0: 95fb d83c 0b8d 0dbc c64c fb3a 19b0 b7ba
000001c0: 69fc 5abc b00d 9dbc 7dda 123c 1b2e 35bc
000001d0: 997b a13a a368 bbbc 0152 b6bb c9da 173c
000001e0: c0df 85bc fdf9 80bb e89b b13c 1a20 0ebd
000001f0: 8a85 0c3d adf5 a03b eeb8 1fbc 1dfd 20bc
00000200: 305e 4e3c 0f04 00bc 9ed3 353b 5473 1abb
00000210: aee5 8e3b 89b7 0b3b 451f 4abb 3092 4dbc
00000220: 4202 843c 305c f63b 7819 003c 49c0 c6bc
00000230: cbd1 c2ba 078c 9ebb 08f4 e2bc 8e4a 3c3c
00000240: 9695 74bd 6736 983b 9d90 b1bb 0378 823c
00000250: e3c2 81ba bfe8 09bd d6f4 fabb 99dc b93b
00000260: 72f4 453a d98c 233c 0a43 d6bb e0d0 4eba
00000270: bc76 0f3c 44bf 85bb e5ca d3ba 4936 edbb
00000280: 33c7 453b 54ac 18bc 574c 953a 414f c7bb
00000290: 3707 f23c e545 09bc b00b e8bb 64a6 b53c
000002a0: 9368 c73b e6cc aa3b 0124 cbbb 6493 193c
000002b0: 31b8 a53c c16b 0cba 31b5 863b 70b7 9f3c
000002c0: f2a3 d1bc 45e8 d83b 3290 9ebc 52cb 80bb
000002d0: 934e db3b a69f 313c 02a2 ae3c 139a a93b
000002e0: 6ca8 a23b ac45 35ba 3387 96bb 54ee 143c
000002f0: e8dc 4ebc d4ee 85bc 4a7f 473d 61af a1bb
00000300: be1b 5539 3e41 fa3c bf26 f7bc 83e6 aabc
00000310: 8815 e2bc 2b63 d53b 5f93 3d3c 8d09 c83c
00000320: b0d3 ab3c 2ffa f33c 62c5 aa3b 318e 103d
00000330: 9c10 1a3d 6733 103b 457e 91bb a87a afbc
00000340: 8855 613c 124f 663b 7159 803c 281d 8e3c
00000350: ba86 f939 780b b9bc 0e8b a0bb 05b4 163c
00000360: 5573 c2bb f301 9a3c fbf3 fe3c 0655 9d3c
00000370: e4cf 1f3c b3a9 383c 140f 0abd ca09 02bc
00000380: 6227 fcbc f8ec d93c bb0b 07bc e99f 713c
00000390: 9b0a cfbb 1543 833c 7e4c a1bc 4355 e8bc
000003a0: 193b 153b 9f8f 64bc 70c2 693c 51a3 80ba
000003b0: d433 2e3c f84b 423d bb6b 11bd 5f29 963b
000003c0: d178 9b3c 710a 2bbd 2ff9 f138 8619 49bc
000003d0: 85ff f2bb 72c1 2d3c 60d3 9b3c 759d 2e3c
000003e0: 6166 afbc 4946 433c 5d9d 413c fd90 363d
000003f0: 4cdc 11bb 5389 da3b c5b8 dfbb 5cc9 d5bc
0.014748854 0.020049531 -0.00650335 -0.01666559 0.0030376867 0.0058937464 0.0018361105 0.011712201
-0.0116630215 0.014933594 -0.005310232 0.026432782 0.0021063308 -0.017879182 0.030857561 -0.0058386605
0.03244355 0.0010027244 -0.0054635843 0.007721932 0.008545354 0.03901331 -0.004283319 0.0006852089
0.0051472215 0.008181132 -0.007647302 -0.012616371 -0.003563322 0.009400209 -0.0015591973 -0.031683393
0.0012526438 -0.0041560913 -0.0028469427 -0.0005980137 0.0052968883 -0.01668823 0.0008987303 -0.0028996754
-0.010859988 0.0013473799 0.012492287 -0.0053567924 0.0035769632 0.006143558 -0.005032332 -0.01497358
0.00591581 -0.0034455725 0.01581143 0.018717902 -0.0048906533 0.0041873623 -0.00786001 -0.0021884765
0.0051188353 0.02831619 -0.02506293 -0.0027691615 -0.0029780641 -0.0052362042 0.047017805 -0.010688772
-0.00012644558 -0.00091902853 0.011118899 -0.0036085718 0.01757241 0.015659682 -0.0014771208 -0.016912
0.00067497685 -0.008384978 0.027718293 -0.01764429 -0.01836007 0.0019992955 0.04427475 0.0060548726
0.001352131 -0.018213786 0.0051223845 -0.0043353885 -0.0015925592 0.0013666076 0.0072798384 0.0019774965
0.0113929985 -0.022125242 0.036796246 -0.018834097 0.0029353593 0.024043899 -0.009075544 0.043518063
0.0045264345 -0.009088506 0.007382764 0.003050519 -0.03402024 -0.008102212 -0.022302354 -0.003578924
0.00408977 -0.012253964 -0.004415936 0.01486217 0.026487151 -0.008639584 0.001917266 -0.0014014273
-0.013365843 -0.019171566 0.0089632245 -0.011058356 0.001232016 -0.022877043 -0.005563975 0.009268471
-0.016342044 -0.003936051 0.021680787 -0.034698583 0.03430704 0.0049120993 -0.0097486805 -0.009825972
0.012595698 -0.007813468 0.0027744542 -0.0023567276 0.004360876 0.0021319112 -0.0030841392 -0.012547061
0.016114358 0.007518314 0.007818572 -0.02426161 -0.0014863549 -0.00483847 -0.027704254 0.011492385
-0.05971297 0.004645157 -0.0054188506 0.015926367 -0.00099 -0.03366923 -0.0076585812 0.0056720492
0.0007551379 0.009982311 -0.0065387534 -0.0007889401 0.008756336 -0.0040816385 -0.001615849 -0.0072391373
0.0030178546 -0.00931843 0.0011390549 -0.006082446 0.029544456 -0.008378481 -0.0070814714 0.022174068
0.0060854643 0.005212414 -0.0061993604 0.00937352 0.02022943 -0.0005356633 0.004110955 0.01949665
-0.02559087 0.0066194856 -0.019355867 -0.0039304877 0.0066927164 0.010841286 0.021317486 0.005175838
0.004963925 -0.0006914984 -0.0045937537 0.009090025 -0.01262591 -0.016349234 0.048705377 -0.004934237
0.00020323598 0.030548688 -0.030169843 -0.02086187 -0.027598158 0.006512066 0.011570781 0.024418617
0.020974964 0.029782383 0.005211518 0.035291854 0.037613496 0.0022003294 -0.0044401013 -0.021420792
0.013753302 0.0035142344 0.015667649 0.017347887 0.0004759336 -0.022588477 -0.004899389 0.009198193
-0.005934159 0.018799758 0.031122198 0.019205581 0.009754155 0.011270928 -0.033705786 -0.007936904
-0.030780498 0.026602253 -0.008242543 0.014747598 -0.006318403 0.016023198 -0.019689795 -0.028360968
0.002277082 -0.013950258 0.014267549 -0.0009814297 0.010632474 0.04743573 -0.03550313 0.0045825685
0.018978508 -0.041758005 0.000115381896 -0.012274152 -0.007415714 0.010605203 0.01902169 0.010657658
-0.021411123 0.011918613 0.0118173035 0.044571865 -0.0022256551 0.0066692024 -0.006827446 -0.026096992

action_model._continuous_distribution.mu.bias f4 [2]
00000000: 32ee 90bb e09f 5d3b
-0.0044229263 0.0033817217

action_model._discrete_distribution.branches.0.weight f4 [1, 128]
00000000: 25f8 7db9 96f4 043c c241 d73b 67f4 05bc
00000010: 2fca 2fbb d313 d3bb 7187 813a 851b c7bc
00000020: 630b 0a3c a524 a23b 6c32 073b 9bde 22bb
00000030: eb8a 8e3b 9e12 b239 069a 48ba c462 9b3b
00000040: 87af 4dbc 020f 803b 4b29 e1ba e038 8cbc
00000050: 8bb4 1cba d23f 613b 8b43 193c 5cda 9e3b
00000060: 6bce 53ba 6205 dd3b 15a3 483b a05a 2fbc
00000070: 48bb 4d3b 7f4d 1bba e40a 8fba 7de1 113b
00000080: 533c 2b3b 0324 aebc 7bd2 3abc 921e 063c
00000090: e456 0dba 7140 04b9 e2f6 f13b be25 a23c
000000a0: b78e 6aba 2a71 2c3c d8cd 85b9 9734 28bb
000000b0: b77d a239 eba4 2bbb facb babb eaf2 823b
000000c0: 6aee d23c bf6e 1c3b 97d8 653b a7e5 b53b
000000d0: f08e 30b9 f827 16bc 35f3 1abc 0f5a 9ebb
000000e0: 8fd1 1a3c a791 70bb 083c 333c 66df a33b
000000f0: a845 2dbc 834c daba 20e0 163c 43d9 383c
00000100: 9361 bfba c7aa fe38 cb9a 303b 6e53 2abc
00000110: bb0c bd3a ab9f d13b 7297 c93b ed50 97bb
00000120: 0b3b 0d3b 9760 dd3b c791 4abb 9f0f 5c3c
00000130: 5ab4 82bb ba1b 473c 6ae5 673a 13e7 8d3c
00000140: c8de 26bb d8df be3c df50 de3b 0de3 ae3b
00000150: c5ba 753b e180 9f3c 280f 133b 49db 88b9
00000160: 0f09 35bc ffb4 e0ba 5fe1 40bc c1d2 82bb
00000170: 303e 2bbc 77bc 6a3c 1396 57bc 04b3 c83a
00000180: f2c9 913a 6958 1abc e25d 61bc d037 fdba
00000190: 9f28 a4ba ea0a 6b3c fd14 69bc 3b03 bf3a
000001a0: 6a64 acbc 4d7b 8d3c 430c 9f3b 53cf 27bc
000001b0: 053f a33a a3ac bcbc a7d6 353b cb99 18bd
000001c0: bf44 3bbc 4444 81bb db36 31bc 136a 023c
000001d0: 73d3 3e3b 51d2 afbb e262 573b 67c9 31bb
000001e0: cdbb 77bc 7d83 c8b9 0d87 8b3a 7980 00bb
000001f0: 3d52 7d3c 108f 9dbb 0fb7 543c b0c1 3b3b
-0.00024220401 0.008114954 0.0065691182 -0.008175946 -0.0026823392 -0.006441572 0.0009882284 -0.024305115
0.008425566 0.004948216 0.002062942 -0.0024851921 0.0043500564 0.00033964677 -0.0007652346 0.0047419984
-0.012554056 0.003908039 -0.0017178444 -0.017116964 -0.0005977831 0.0034370315 0.009354482 0.004847808
-0.000807977 0.0067450264 0.0030614783 -0.010702759 0.0031392146 -0.00059243286 -0.001091328 0.0022259646
0.0026128485 -0.021257406 -0.0114027215 0.0081859995 -0.0005391671 -0.00012612507 0.007384167 0.019793388
-0.0008947658 0.010525027 -0.00025521102 -0.0025666112 0.00030992713 -0.0026190828 -0.0057005854 0.003996243
0.02574845 0.002386972 0.0035071725 0.0055510583 -0.00016837916 -0.009164803 -0.009457399 -0.004832513
0.009449377 -0.003670791 0.0109396055 0.0050009964 -0.010575689 -0.0016654882 0.009208709 0.011282268
-0.0014601223 0.000121434736 0.0026947733 -0.010395868 0.001442335 0.0063972077 0.006152087 -0.0046178014
0.0021550085 0.006755899 -0.0030909644 0.013431459 -0.0039887847 0.012152607 0.0008846136 0.017322099
-0.0025462378 0.023300096 0.006784543 0.005337125 0.0037495357 0.019470634 0.0022439454 -0.00026103322
-0.011049523 -0.0017143785 -0.011772483 -0.003992409 -0.010451838 0.01432716 -0.013158339 0.001531214
0.0011122806 -0.009420493 -0.013755294 -0.0019319002 -0.0012524313 0.014345864 -0.014226195 0.0014573106
-0.021043975 0.017270708 0.0048537566 -0.010242301 0.0012454694 -0.023031538 0.002774635 -0.037256043
-0.011429965 -0.0039449055 -0.010816301 0.00795986 0.0029117733 -0.005365648 0.0032865335 -0.0027128102
-0.015120459 -0.0003824494 0.0010645107 -0.0019607826 0.015461502 -0.004808314 0.012983098 0.0028649382
