Assets/results/VikramRover25-ppo/VikramRover/VikramRover-4608.pt (torch, 859945 bytes, 51 tensors)

network_body._body_endoder.seq_layers.0.weight f4 [128, 10]
-0.089709476 -0.27643585 -0.12574282 -0.16561352 -0.18967435 -0.5601371 0.6595478 0.3680135
0.05820432 -0.02514196 -0.21152782 -0.52425706 0.26024964 0.2368276 -0.09097311 -0.038354464
0.008935583 0.39197156 0.15579389 0.69025713 0.27218136 -0.52081704 0.35385582 -0.26948774
0.6991547 -0.10770039 0.23558186 -0.024737796 0.3736317 0.06457702 -0.026288189 -0.36587653
-0.8102461 0.24397239 0.7486847 0.040263973 -0.057730354 -0.42126986 0.32336032 -0.4067908
-0.43479648 0.13451777 -0.19363898 0.44446456 0.42120057 0.36752594 -0.28451 0.42031747
0.4209389 0.17392471 -0.29308185 -0.0752887 0.6769293 -0.20720367 -0.4190073 -0.2369306
-0.19705977 0.38334784 0.025074286 -0.22227608 -0.13396592 0.026154388 -0.4150591 0.48421803
0.27942568 -0.3084094 -0.18963556 0.040029373 0.0467661 -0.2813012 0.017686786 0.08068287
-0.386316 -0.33601305 0.10991555 -0.55229795 -0.07463894 0.2557524 -0.32406318 0.58984375
0.077256896 0.11987327 -0.41006634 0.20899554 0.059342537 -0.009978193 0.011909606 0.032160953
-0.27167323 -0.05166044 0.119964615 0.83314145 -0.41563874 0.7642344 0.25277323 -0.07189024
-0.16919786 0.07991731 0.4016549 -0.16916178 0.17707285 -0.12256974 0.18782863 0.029448051
-0.089209326 0.07802783 0.32607958 0.30612674 0.5286091 0.043683615 -0.19323519 -0.59134054
0.1375465 -0.1441229 -0.043434743 -0.22051091 0.5808177 -0.06478596 -0.7887165 0.04828195
0.062899634 0.34507015 0.23397437 0.14651792 -0.14766294 -0.38517952 -0.02005859 -0.13713978
0.118954085 -0.26486507 0.38109156 -0.19918832 0.037865188 -0.01801789 0.39098173 0.06614988
0.06821403 -0.44220832 0.32233453 0.11515218 -0.398099 -0.2403104 0.3139235 0.2667204
0.1795576 0.076581314 0.2959161 -0.07308075 -0.37026298 0.035662226 -0.5552869 -0.5985699
0.43774357 0.307779 0.24241582 -0.17881529 -0.031955343 -0.43501672 0.12606563 -0.4556545
0.070114575 0.36083466 -0.11019373 0.23704056 -0.13891086 0.20834595 -0.2795953 -0.0379285
-0.17556427 0.0862498 0.05166753 0.49866644 -0.7973783 -0.26732367 -0.20791188 0.6357325
0.14175266 0.282288 -0.17110945 0.22354035 0.0092716785 0.19588433 -0.031927098 0.08411484
0.79531425 -0.16214474 0.10757122 -0.11174022 -0.59875447 -0.18469606 0.11669569 -0.18229699
0.613643 0.006439432 -0.0052770544 0.42445457 -0.56405413 -0.12327053 -0.049966026 -0.08580516
-0.6569268 0.37086833 0.07746064 0.31735197 0.39627996 -0.08745776 -0.03221561 -0.23816547
0.37678963 -0.024365913 -0.396364 0.030143544 0.75093657 -0.14690103 0.10376744 0.11064678
0.15834254 0.3187811 0.10356171 -0.085656926 -0.122794114 0.324099 0.21567056 0.050941326
-0.11516706 -0.42486882 0.032181047 -0.049934316 0.21470706 -0.5647929 -0.00753317 -0.4025429
0.0051895417 -0.443375 0.10950531 -0.03093143 -0.25327668 0.41772726 0.06472202 0.16074617
-0.0014931526 0.21528053 0.62485033 0.40020266 -0.15427631 -0.18561924 0.47461823 -0.31498545
-0.3653459 0.13286045 0.21614616 -0.50234926 0.03161718 0.28703797 0.16001035 0.02364201
00000000: 9ab9 b7bd 0089 8dbe bac2 00be 9796 29be
00000010: fe39 42be 2565 0fbf 20d8 283f 446c bc3e
00000020: a767 6e3d 83f6 cdbc c09a 58be b635 06bf
00000030: 713f 853e ef82 723e 1c50 babd 9219 1dbd
00000040: 8d66 123c 7fb0 c83e 6f88 1f3e b1b4 303f
00000050: 5b5b 8b3e 4454 05bf 972c b53e 4cfa 89be
00000060: cdfb 323f 0692 dcbd 5f3c 713e eba6 cabc
00000070: a74c bf3e f540 843d 545a d7bc 2b54 bbbe
00000080: 4a6c 4fbf e6d3 793e cda9 3f3f d6eb 243d
00000090: aa76 6cbd afb0 d7be 7c8f a53e e246 d0be
000000a0: a59d debe 07bf 093e 4c49 46be dc90 e33e
000000b0: 9aa7 d73e 5c2c bc3e 4bab 91be da33 d73e
000000c0: 4e85 d73e 5219 323e d30e 96be f630 9abd
000000d0: 3d4b 2d3f 332d 54be 2088 d6be ef9d 72be
000000e0: 09ca 49be 2b46 c43e 9768 cd3c 579c 63be
000000f0: 5d2e 09be ba41 d63c a082 d4be 6deb f73e
00000100: e210 8f3e d6e7 9dbe d32f 42be d7f5 233d
00000110: cf8d 3f3d b606 90be e1e3 903c 0f3d a53d
00000120: 36cb c5be e709 acbe 671b e13d 6663 0dbf
00000130: 4ddc 98bd fbf1 823e 9ceb a5be 0000 173f
00000140: dd38 9e3d 1e80 f53d 37f4 d1be ed02 563e
00000150: 2911 733d 937b 23bc 8220 433c 34bb 033d
00000160: c118 8bbe e699 53bd 02b0 f53d c248 553f
00000170: 9ace d4be dea4 433f 7e6b 813e 313b 93bd
00000180: 3442 2dbe b0ab a33d b6a5 cd3e bf38 2dbe
00000190: 9652 353e d805 fbbd 2656 403e 0a3d f13c
000001a0: 61b3 b6bd 0ecd 9f3d e7f3 a63e a5bc 9c3e
000001b0: ed52 073f 97ed 323d 72df 45be 1862 17bf
000001c0: fdd8 0c3e f494 13be a1e8 31bd 9dcd 61be
000001d0: 78b0 143f 80ae 84bd 53e9 49bf 4bc3 453d
000001e0: 86d1 803d 09ad b03e fa96 6f3e cb08 163e
000001f0: f434 17be 4036 c5be ea51 a4bc 5f6e 0cbe
00000200: 339e f33d 659c 87be 6f1e c33e 06f8 4bbe
00000210: 8718 1b3d 419a 93bc c22e c83e 9779 873d
00000220: ccb3 8b3d 2169 e2be 0809 a53e e8d4 eb3d
00000230: a2d3 cbbe ee13 76be 95ba a03e 948f 883e
00000240: f3dd 373e aad6 9c3d 5182 973e 5cab 95bd
00000250: 1c93 bdbe 8e12 123d 4827 0ebf e13b 19bf
00000260: ed1f e03e 3695 9d3e da3b 783e 5b1b 37be
00000270: 9be3 02bd 83ba debe 5917 013e 8c4b e9be
00000280: 3b98 8f3d 52bf b83e 40ad e1bd c3ba 723e
00000290: a63e 0ebe a458 553e 1d27 8fbe ea5a 1bbd
000002a0: 1fc7 33be bca3 b03d 55a1 533d 3551 ff3e
000002b0: fc20 4cbf a6de 88be dae6 54be 5dbf 223f
000002c0: 9c27 113e 0e88 903e 5137 2fbe c3e7 643e
000002d0: 3de8 173c e795 483e fdc5 02bd 6744 ac3d
000002e0: b799 4b3f 4509 26be 4d4e dc3d 0ed8 e4bd
000002f0: f947 19bf f720 3dbe 26fe ee3d 10ac 3abe
00000300: b517 1d3f df01 d33b 24eb acbb 1c52 d93e
00000310: da65 10bf 4275 fcbd 2da9 4cbd 9eba afbd
00000320: 5b2c 28bf 74e2 bd3e afa3 9e3d f57b a23e
00000330: 35e5 ca3e 0e1d b3bd 84f4 03bd a6e1 73be
00000340: 92ea c03e 069b c7bc 39f0 cabe 98ef f63c
00000350: 613d 403f 396d 16be 0684 d43d c79a e23d
00000360: 8c24 223e 4737 a33e 2918 d43d e66c afbd
00000370: 7b7b fbbd 4ef0 a53e bed8 5c3e daa7 503d
00000380: b5dc ebbd 6888 d9be 46d0 033d ed87 4cbd
00000390: 2bdc 5b3e 4496 10bf cfd8 f6bb 1a1a cebe
000003a0: 080d aa3b 0c02 e3be 5244 e03d e963 fdbc
000003b0: 7bad 81be 59e0 d53e fa8c 843d a59a 243e
000003c0: e3b5 c3ba 8072 5c3e 31f6 1f3f 5de7 cc3e
000003d0: 9cfa 1dbe f812 3ebe 2901 f33e c645 a1be
000003e0: 9e0e bbbe 920c 083e 6b55 5d3e f699 00bf
000003f0: 0481 013d a4f6 923e c1d9 233e e3ac c13c

network_body._body_endoder.seq_layers.0.bias f4 [128]
0.0 -0.0022126234 0.00091907853 0.0 -0.00025372652 -0.005645271 0.0 0.0
-0.002391983 -0.001079033 -0.0027353182 0.0 -0.0022900412 -0.008147902 -0.0016900379 0.0007788876
-0.00010929983 0.005834732 0.0023983135 -0.0002650444 -0.0021669795 -0.0036165891 -3.7197179e-31 8.0210533e-28
-0.00016579837 0.0009006273 4.2206367e-13 0.0 -0.004125749 0.007536903 -0.0053900653 0.0
-0.00155665 -0.0047738664 0.006295779 -0.0035368018 -0.0012669351 0.0 0.00488232 0.0008768068
-0.005223755 -0.0052731205 0.0 1.157531e-09 0.0016145924 0.0 -0.0017709802 -0.005971505
-1.7587762e-18 0.0 0.0 -0.009439273 -0.0037399263 -7.963594e-05 0.0 -0.002014944
0.0 -7.271261e-05 0.0 0.0073868986 0.0025699132 0.0 -0.0010752962 0.0041740127
0.0 0.0 0.0 -0.00049541093 0.0 0.0019408313 0.0 0.0
1.9797471e-06 8.218781e-06 -0.008867917 -8.0070885e-37 0.000507667 -0.001180914 -0.0011241381 -0.0026600054
0.0 -0.0064671803 0.0 0.0 -0.0008476795 0.0017180083 0.0 0.0
0.0 -0.0071437424 -0.0035968828 0.0 -1.3228941e-36 -0.0028553568 -0.005003699 -0.001911843
0.005683586 -0.0010706942 -0.00222445 0.0 0.0 0.0 0.002472496 0.00030408535
-0.010565731 -0.0009316731 0.0 -0.0039032022 -0.0022494562 0.0 0.0 0.00053570315
-0.0041157557 -0.0043515284 0.0045710327 -0.0021642686 0.0 1.2247791e-31 -0.0035147932 -0.004043471
-0.00394848 0.0017518918 0.0075076628 -0.010211474 0.0 0.0053097345 -0.000990516 -0.005890156
00000000: 0000 0000 a901 11bb 51ee 703a 0000 0000
00000010: 9906 85b9 f7fb b8bb 0000 0000 0000 0000
00000020: d1c2 1cbb 576e 8dba 0643 33bb 0000 0000
00000030: 8414 16bb c77e 05bc 4384 ddba 432e 4c3a
00000040: e637 e5b8 4831 bf3b 062d 1d3b a8f5 8ab9
00000050: e203 0ebb 4c04 6dbb 6a6c f18c 8432 7e12
00000060: 29da 2db9 1318 6c3a c999 ed2a 0000 0000
00000070: 4b31 87bb 20f8 f63b 259f b0bb 0000 0000
00000080: 8208 ccba 186e 9cbb d24c ce3b b0c9 67bb
00000090: 4a0f a6ba 0000 0000 defb 9f3b 82d9 653a
000000a0: 082c abbb 24ca acbb 0000 0000 0017 9f30
000000b0: bba0 d33a 0000 0000 3c20 e8ba 9dac c3bb
000000c0: 58c6 01a2 0000 0000 0000 0000 2ea7 1abc
000000d0: 8d19 75bb 3802 a7b8 0000 0000 270d 04bb
000000e0: 0000 0000 497d 98b8 0000 0000 cc0d f23b
000000f0: fd6b 283b 0000 0000 f4f0 8cba 28c6 883b
00000100: 0000 0000 0000 0000 0000 0000 77de 01ba
00000110: 0000 0000 7e63 fe3a 0000 0000 0000 0000
00000120: ccdb 0436 65e3 0937 bd4a 11bc ca3b 8883
00000130: f514 053a e6c8 9aba d157 93ba 7c53 2ebb
00000140: 0000 0000 a4ea d3bb 0000 0000 0000 0000
00000150: cf36 5eba cb2e e13a 0000 0000 0000 0000
00000160: 0000 0000 0e16 eabb aeb9 6bbb 0000 0000
00000170: 2a14 e183 f020 3bbb 12f6 a3bb ce96 faba
00000180: 603d ba3b 8956 8cba 14c8 11bb 0000 0000
00000190: 0000 0000 0000 0000 9909 223b a56d 9f39
000001a0: e31b 2dbc 863b 74ba 0000 0000 decc 7fbb
000001b0: 9d6b 13bb 0000 0000 0000 0000 6e6e 0c3a
000001c0: 76dd 86bb 4497 8ebb 9ac8 953b 67d6 0dbb
000001d0: 0000 0000 44fc 1e0c 7258 66bb 187f 84bb
000001e0: 4062 81bb bc9f e53a d702 f63b 074e 27bc
000001f0: 0000 0000 48fd ad3b 34d4 81ba 3602 c1bb

network_body._body_endoder.seq_layers.2.weight f4 [128, 128]
-0.01689319 -0.052048802 -0.23507738 0.007300206 0.07591305 0.055940542 0.021597719 0.069620684
0.12090962 0.023619322 0.033970937 0.12591553 0.056105264 0.053890277 0.060577948 -0.0076293456
0.05349415 0.030314127 -0.25769463 0.14923099 0.0006038803 0.22982608 -0.04802846 0.09560649
0.019368798 -0.042798787 0.11264478 0.013878713 0.20755313 0.10578504 -0.10616699 0.022578169
-0.1475469 -0.07096384 0.034919146 0.040425096 0.03141261 0.15701683 0.012978858 0.029002398
0.05839538 -0.022930223 -0.023965944 0.102657676 -0.016926626 0.008380027 -0.04797711 -0.102583
-0.013694979 -0.10318276 -0.01851362 -0.087552406 0.010326102 0.0515676 -0.0646191 -0.11072105
-0.12870859 -0.1755129 -0.07153737 0.11913138 0.14172949 0.036716547 0.017542025 -0.034304477
-0.094552994 -0.20232333 -0.059248857 -0.019851593 0.04539689 -0.10454988 0.065688245 -0.0043563866
0.09452774 0.12568232 -0.03089191 -0.05404031 -0.0274991 -0.025524255 0.027651118 -0.21492898
-0.07809321 0.016823992 -0.14401254 0.0036287245 0.019606208 -0.11028863 -0.120498165 -0.07789469
0.037747473 0.011176145 -0.05307056 0.075973205 0.13787732 -0.11086951 -0.03759618 -0.12862073
-0.08336901 0.12627418 -0.11649983 -0.058381107 -0.07012633 -0.0023412914 0.015067884 0.03724165
-0.0683357 0.08141457 0.028036704 -0.13478883 0.013417609 -0.081221506 0.17983286 0.05847818
0.020200642 -0.032607995 -0.048582993 -0.06029017 0.13384958 -0.022266768 -0.14691906 -0.038290642
0.010438438 -0.024394725 0.002262502 0.09256481 -0.051812027 -0.028989892 0.04581293 0.1040845
-0.013590048 0.109722555 -0.08998158 0.013434653 -0.07682403 -0.044589378 -0.076294854 -0.039460704
0.073219165 -0.09945554 0.01843652 -0.18450838 -0.091314495 0.009731275 -0.0041394075 0.029270625
-0.16848674 0.104968965 -0.005178978 -0.047370747 0.088016264 0.061347283 0.115199 -0.050287914
-0.08420889 0.032709528 0.004742737 -0.034936063 -0.13926741 -0.04308893 -0.02543169 0.096241266
-0.16783267 -0.0035238632 -0.12381866 0.0956476 -0.07278674 0.11695284 -0.12808666 0.12886232
-0.00069713703 -0.083634384 0.022901881 0.16325869 0.05080179 0.039774496 0.068333164 -0.11339336
0.10520756 0.02734998 -0.13454688 0.040658537 -0.02543748 0.21028739 -0.043705102 0.15870638
0.07470282 -0.021246985 -0.19670741 -0.26904553 -0.054862265 -0.02089649 -0.08745532 0.01614061
-0.15382439 -0.059362255 0.043687645 0.060516957 0.028783197 0.024213873 0.058409084 0.0634428
0.010618633 0.014097757 0.01350337 0.0365567 0.09756665 0.060365636 0.043281272 -0.07790725
-0.17674501 0.027803736 -0.021401072 0.12446874 0.023351146 0.17019972 0.100837365 0.07937862
0.025213964 -0.097114615 0.0024762198 0.024922643 0.0052357903 0.059145078 -0.16021228 -0.11311626
0.003127254 -0.08172182 -0.01311139 -0.050273865 0.07993577 0.008362576 -0.06676705 -0.099342175
-0.112743035 -0.00881774 0.006551108 0.17249918 0.024721814 0.03622608 0.16943038 0.069531985
-0.1111627 0.05555527 0.024921015 -0.013224637 0.12283814 -0.0895561 0.004732981 0.15648468
-0.06779073 -0.026527906 -0.12841196 0.023492534 -0.16032234 0.03940598 -0.00830682 0.019082883
00000000: 9663 8abc 2031 55bd 20b8 70be 9136 ef3b
00000010: 4d78 9b3d e921 653d b3ed b03c 4a95 8e3d
00000020: 769f f73d 4f7d c13c 1c25 0b3d 00f0 003e
00000030: a2ce 653d 0dbc 5c3d 9520 783d 97ff f9bb
00000040: af1c 5b3d 5555 f83c 8df0 83be 02d0 183e
00000050: b94d 1e3a 8757 6b3e 7eb9 44bd 56cd c33d
00000060: 50ab 9e3c c84d 2fbd 4eb2 e63d 8b63 633c
00000070: cf88 543e d4a5 d83d 146e d9bd daf5 b83c
00000080: 8916 17be 7d55 91bd 6107 0f3d c994 253d
00000090: 82aa 003d 05c9 203e 47a5 543c 7096 ed3c
000000a0: fe2f 6f3d 2ad8 bbbc 3a54 c4bc 303e d23d
000000b0: b5a9 8abc 614c 093c a583 44bd 0917 d2bd
000000c0: e860 60bc 7c51 d3bd e0a9 97bc ad4e b3bd
000000d0: d02e 293c 8c38 533d 0557 84bd b8c1 e2bd
000000e0: 2fcc 03be a7b9 33be 2f82 92bd 27fb f33d
000000f0: 8921 113e 1764 163d 4bb4 8f3c da82 0cbd
00000100: 00a5 c1bd d92d 4fbe eeae 72bd cf9f a2bc
00000110: 17f2 393d 3f1e d6bd 8f87 863d 05c0 8ebb
00000120: c297 c13d deb2 003e 0811 fdbc 5f59 5dbd
00000130: cb45 e1bc 3e18 d1bc 9984 e23c 5816 5cbe
00000140: 55ef 9fbd 78d2 893c 0678 13be e5cf 6d3b
00000150: 339d a03c 01df e1bd bec7 f6bd 4087 9fbd
00000160: 189d 1a3d 261c 373c 8460 59bd d797 9b3d
00000170: b62f 0d3e 8e0f e3bd 74fe 19bd 27b5 03be
00000180: 5fbd aabd 054e 013e 7697 eebd 0721 6fbd
00000190: 659e 8fbd 5a70 19bb 49df 763c b38a 183d
000001a0: 96f3 8bbd afbc a63d 3bad e53c 1506 0abe
000001b0: 88d5 5b3c 7657 a6bd 1b26 383e d186 6f3d
000001c0: d17b a53c f68f 05bd f6fe 46bd d3f2 76bd
000001d0: dd0f 093e cc68 b6bc f371 16be a6d6 1cbd
000001e0: fb05 2b3c 72d7 c7bc 7c46 143b 9e92 bd3d
000001f0: d938 54bd 367c edbc 57a6 3b3d 412a d53d
00000200: cba8 5ebc 38b6 e03d 4348 b8bd 051d 5c3c
00000210: eb55 9dbd 5aa3 36bd 7a40 9cbd 8ca1 21bd
00000220: eef3 953d 59af cbbd 2f08 973c c4ef 3cbe
00000230: 1803 bbbd ed6f 1f3c dea3 87bb f3c8 ef3c
00000240: ca87 2cbe f8f9 d63d 6bb4 a9bb d407 42bd
00000250: df41 b43d 4a47 7b3d 74ed eb3d b3fa 4dbd
00000260: b675 acbd 6dfa 053d f668 9b3b 1e19 0fbd
00000270: 1e9c 0ebe 057e 30bd 1f56 d0bc 241a c53d
00000280: 54dc 2bbe 9df0 66bb a394 fdbd e4e2 c33d
00000290: 3711 95bd f884 ef3d 2629 03be 7cf4 033e
000002a0: 13c0 36ba 8148 abbd ba9c bb3c 492d 273e
000002b0: 8a15 503d 95ea 223d 42f2 8b3d c73a e8bd
000002c0: 1077 d73d 110d e03c a8c6 09be 9189 263d
000002d0: 4362 d0bc 9455 573e 1f04 33bd ed83 223e
000002e0: cbfd 983d 280e aebc ab6d 49be 56c0 89be
000002f0: 41b7 60bd 1e2f abbc c61b b3bd 5039 843c
00000300: 2484 1dbe d625 73bd d1f1 323d a1e0 773d
00000310: bdca eb3c 2c5c c63c 5d3e 6f3d 4cee 813d
00000320: c6f9 2d3c 47fa 663c 3d3d 5d3c 7abc 153d
00000330: 06d1 c73d f541 773d b447 313d d68d 9fbd
00000340: a5fc 34be a9c4 e33c 4d51 afbc 77e9 fe3d
00000350: e74a bf3c d648 2e3e d283 ce3d 4291 a23d
00000360: 848d ce3c 07e4 c6bd 1348 223b 922a cc3c
00000370: fe90 ab3b 1c42 723d b00e 24be 7fa9 e7bd
00000380: 9ef2 4c3b c55d a7bd 28d1 56bc f8eb 4dbd
00000390: 5db5 a33d 3003 093c 2abd 88bd e973 cbbd
000003a0: d2e5 e6bd 4878 10bc adaa d63b a0a3 303e
000003b0: 6785 ca3c cc61 143d 287f 2d3e c966 8e3d
000003c0: 45a9 e3bd ec8d 633d 2827 cc3c 26ac 58bc
000003d0: 9092 fb3d 3069 b7bd 1f17 9b3b 853d 203e
000003e0: ded5 8abd 0d51 d9bc 6d7e 03be 6a73 c03c
000003f0: 8a2b 24be 2a68 213d 5419 08bc b553 9c3c

network_body._body_endoder.seq_layers.2.bias f4 [128]
-0.0010021927 -0.002934711 -0.00040132817 -0.005988865 -0.006660512 0.00055226794 -0.0025510888 -0.0038567649
0.0 -0.005878614 -0.0020584986 -0.0040479237 0.0 -0.000119365315 0.0058535403 0.0
-0.0025079683 -0.001652273 -9.544943e-27 -0.0023921311 -0.0049073705 0.0025858583 -0.007735747 -0.0048331264
0.0 -0.0031140195 0.0016513793 -2.5146925e-27 0.0 -0.0049947724 -0.0005061514 0.0
0.00028264694 0.0 0.0 0.0029386168 -1.0256082e-08 0.0010474912 -0.0027563046 0.0
-0.0005863579 0.0012410816 -2.6850461e-08 -0.00080221624 -6.418162e-11 0.0012054525 -0.0012512071 -0.003504484
-0.0017723708 -8.453922e-14 -0.0022588565 -0.0025264048 0.0 -0.00845034 -0.0028995555 -0.0019312458
0.0034565313 -0.0013893472 -0.0044885282 -0.002208317 -0.0061046705 -0.0010307356 -0.0054271286 -0.0009512765
0.0 -0.0036048153 -0.0026836772 8.802541e-21 -0.00035732295 0.0 -0.0035629794 -0.0062045744
0.0 -0.0044422345 0.0 0.0 0.0 -1.6890785e-05 7.521452e-15 -0.0024654258
0.00046286272 -0.0026955076 -0.001772869 -0.0019090807 -0.005157986 0.0 0.0 -0.0004936022
-0.0005734036 -0.0024445797 0.0 -0.0035487348 -0.0014268992 -0.0071385284 -0.0028285822 0.0
-0.0017699109 0.0 2.0293632e-08 0.0 -0.00055494154 -0.001786237 -0.005140395 0.0035142906
-0.002584735 -9.3036215e-06 -0.001137115 -5.8032838e-05 0.0 0.0033768518 0.0016719328 0.0
6.326867e-36 -0.0029073644 -0.008032948 -0.011955884 -0.0040221103 0.0 -0.0032317252 -0.002240042
0.0 0.0 5.271276e-13 -2.5364972e-05 1.0141914e-31 0.00041882184 -0.00062110677 -0.00037376882
00000000: 025c 83ba 4854 40bb 5b69 d2b9 3e3e c4bb
00000010: 6d40 dabb 13c6 103a 2b30 27bb c7c1 7cbb
00000020: 0000 0000 63a1 c0bb e0e7 06bb 72a4 84bb
00000030: 0000 0000 c453 fab8 0ecf bf3b 0000 0000
00000040: ba5c 24bb 1591 d8ba 9c0e 3d94 4dc5 1cbb
00000050: 02ce a0bb 8177 293b 267c fdbb 345f 9ebb
00000060: 0000 0000 9414 4cbb 1873 d83a 063c 4793
00000070: 0000 0000 30ab a3bb 3faf 04ba 0000 0000
00000080: 3b30 9439 0000 0000 0000 0000 cf95 403b
00000090: ba32 30b2 f94b 893a 1ea3 34bb 0000 0000
000000a0: d0b5 19ba caab a23a caa4 e6b2 d24b 52ba
000000b0: 0a23 8dae 4600 9e3a 8bff a3ba 7cab 65bb
000000c0: e54e e8ba 8b5d bea9 5309 14bb 0a92 25bb
000000d0: 0000 0000 4b73 0abc 7806 3ebb db21 fdba
000000e0: f986 623b c21a b6ba 8114 93bb 69b9 10bb
000000f0: b009 c8bb bf19 87ba 0ed6 b1bb 165f 79ba
00000100: 0000 0000 c43e 6cbb a2e0 2fbb 7a46 261e
00000110: 1357 bbb9 0000 0000 e080 69bb be4f cbbb
00000120: 0000 0000 2a90 91bb 0000 0000 0000 0000
00000130: 0000 0000 afb0 8db7 937e 0728 fb92 21bb
00000140: 62ac f239 1da7 30bb 9d5f e8ba 1e3a faba
00000150: 5304 a9bb 0000 0000 0000 0000 1565 01ba
00000160: 7750 16ba 3e35 20bb 0000 0000 e491 68bb
00000170: cb06 bbba 51ea e9bb bc5f 39bb 0000 0000
00000180: 5bfc e7ba 0000 0000 2b52 ae32 0000 0000
00000190: 7f79 11ba 2b20 eaba c270 a8bb 0350 663b
000001a0: a864 29bb c016 1cb7 3f0b 95ba 4968 73b8
000001b0: 0000 0000 2c4e 5d3b c124 db3a 0000 0000
000001c0: be8e 0605 7b89 3ebb a09c 03bc 9de2 43bc
000001d0: e8cb 83bb 0000 0000 5acb 53bb abcd 12bb
000001e0: 0000 0000 0000 0000 8c5f 142b ddc6 d4b7
000001f0: 4aa6 030c 5195 db39 c5d1 22ba 67f6 c3b9

network_body._body_endoder.seq_layers.4.weight f4 [128, 128]
-0.02334544 0.0038167168 0.13743089 -0.025285285 -0.0025440846 0.03232015 -0.0423592 0.116031945
0.08318951 0.05390126 -0.123283885 0.09333234 -0.030387672 0.0305174 -0.09812815 0.20549914
0.035734612 0.08066178 0.07416922 0.0648295 -0.0065391967 0.0023946057 -0.08264279 0.09997248
0.09499061 0.07146853 -0.0681468 0.019767437 0.0070579564 0.055583287 -0.07535535 0.0068017505
0.22982356 -0.018698184 -0.23958132 -0.15412493 -0.07776464 -0.022318501 0.049140163 0.035642132
0.04371472 -0.008505577 -0.0786708 -0.06594663 0.11456348 -0.024933005 -0.03373296 0.077826105
-0.02620829 0.07180921 -0.012508553 -0.015024382 -0.10546168 0.013949725 -0.10665458 -0.022172628
0.06855904 -0.10493037 0.14471854 -0.033906545 -0.009874702 0.046841975 0.08775499 0.18402411
-0.08970316 -0.0042344076 0.031044926 -0.029016048 -0.17174804 -0.041967984 -0.12541671 -0.14725514
-0.006026525 -0.020601679 0.046546664 -0.14041238 -0.034661483 -0.008856367 -0.1911434 -0.0911257
0.0062017553 0.16233954 -0.085144356 0.07619215 0.122191824 0.08186728 -0.0428681 0.024388684
-0.12090642 0.0733166 -0.060063485 0.06467403 -0.02049338 -0.06973415 -0.052470475 -0.009626059
0.0676263 0.05733083 0.047851227 -0.0028910532 -0.08657037 0.07304428 -0.07899313 0.09620406
-0.04609993 -0.095191576 0.08722402 -0.088879004 0.08185742 -0.07514719 -0.049551006 -0.061508853
0.09814304 -0.017786361 -0.26662067 -0.15238762 0.0011762852 -0.07452372 -0.037813764 -0.12573951
-0.112595126 -0.035901144 -0.008484407 0.07686611 0.05479328 -0.0876523 -0.10521464 -0.15192334
0.026622156 0.17734891 0.017294908 0.07043105 -0.014570752 -0.030362416 -0.039448198 -0.15041548
-0.15964103 0.10361789 0.06065008 -0.0031765557 0.06411514 -0.06822564 -0.015599105 -0.057307612
0.027226865 -0.018270181 0.090156004 -0.10943506 -0.11654016 -0.08604627 -0.049904402 0.020839725
0.025301032 0.08273818 -0.04006733 -0.049887143 -0.0122665465 -0.04382911 0.108065255 0.07643243
-0.09052218 0.14444403 -0.106260166 0.10416096 -0.09502776 0.11760908 0.10057399 0.075808406
-0.025825528 -0.05072486 -0.040990364 -0.06735002 -0.01551416 0.13644727 0.06418576 0.09288981
0.016155351 -0.12523909 -0.048850648 0.048913915 -0.09718099 0.059010863 0.03007734 -0.058747165
-0.07510802 -0.15036063 0.10050927 0.05013871 0.057739105 -0.08266973 0.07232358 -0.18434298
0.0021963802 -0.04416693 0.07259666 0.03561976 0.12516259 -0.037684858 -0.0036495691 -0.0073144613
0.012794997 -0.04245167 -0.145445 0.10298711 -0.18679208 -0.07179564 -0.0032944689 -0.050071053
-0.0027355112 0.0005322642 0.0042085527 0.03549801 0.054661285 0.14234237 -0.08994886 -0.088320605
-0.13341793 -0.020314503 0.057502355 0.014071132 -0.020911746 0.08929328 0.045359485 0.0673187
-0.13168104 0.007233455 -0.041138362 0.12922443 0.05642293 -0.035725117 0.022949934 0.11711814
0.13897139 0.021947775 0.04870964 -0.13374607 0.06720678 -0.008359112 0.007906104 -0.12123671
0.025478227 0.21366106 0.022100953 -0.077524796 -0.15815699 0.08132007 0.020041049 0.096905574
-0.08786951 0.029548755 -0.059104484 0.054301653 -0.11350702 -0.13760035 0.063174695 -0.044499017
00000000: f03e bfbc e221 7a3b afba 0c3e 1623 cfbc
00000010: a8ba 26bb 2262 043d d780 2dbd 28a2 ed3d
00000020: 435f aa3d 91c7 5c3d 437c fcbd 0725 bf3d
00000030: 91ef f8bc a0ff f93c 69f7 c8bd 5e6e 523e
00000040: 755e 123d 0132 a53d 08e6 973d 54c5 843d
00000050: c246 d6bb d1ee 1c3b a040 a9bd 5fbe cc3d
00000060: 708a c23d 185e 923d 8d90 8bbd 52ef a13c
00000070: 6e46 e73b 4dab 633d e853 9abd 38e1 de3b
00000080: de56 6b3e ef2c 99bc ce54 75be edd2 1dbe
00000090: 1143 9fbd 4ad5 b6bc 3247 493d 7cfd 113d
000000a0: 350e 333d fa5a 0bbc 281e a1bd 070f 87bd
000000b0: 42a0 ea3d 4d40 ccbc 922b 0abd 4b63 9f3d
000000c0: c5b2 d6bc b510 933d adf0 4cbc d328 76bc
000000d0: 4bfc d7bd 638d 643c b76d dabd 5fa3 b5bc
000000e0: af68 8c3d bce5 d6bd 1931 143e 97e1 0abd
000000f0: 81c9 21bc 5fdd 3f3d e3b8 b33d d170 3c3e
00000100: 4ab6 b7bd c9c0 8abb ee51 fe3c 10b3 edbc
00000110: b8de 2fbe 9fe6 2bbd 3d6d 00be 0dca 16be
00000120: 287a c5bb dac4 a8bc b7a7 3e3d 43c8 0fbe
00000130: 33f9 0dbd 4c1a 11bc 18bb 43be 1ca0 babd
00000140: 1838 cb3b 563c 263e 2a60 aebd a10a 9c3d
00000150: b53f fa3d 08aa a73d 7696 2fbd c7ca c73c
00000160: c99d f7bd 0327 963d 2105 76bd d173 843d
00000170: bce1 a7bc c7d0 8ebd 48eb 56bd 9eb6 1dbc
00000180: a87f 8a3d bbd3 6a3d a6ff 433d d377 3dbb
00000190: ce4b b1bd 3d98 953d 26c7 a1bd a206 c53d
000001a0: 48d3 3cbd cdf3 c2bd 82a2 b23d 3206 b6bd
000001b0: dda4 a73d c5e6 99bd fff5 4abd b5f0 7bbd
000001c0: 38ff c83d b4b4 91bc 8182 88be 800b 1cbe
000001d0: 952d 9a3a e49f 98bd 9be2 1abd dcc1 00be
000001e0: 4698 e6bd 140d 13bd 2f02 0bbc fb6b 9d3d
000001f0: eb6e 603d 0d83 b3bd c67a d7bd cb91 1bbe
00000200: b516 da3c f49a 353e 0dae 8d3c 283e 903d
00000210: 2aba 6ebc 9aba f8bc 6f94 21bd 8406 1abe
00000220: f078 23be 9e35 d43d 386c 783d c32d 50bb
00000230: cc4e 833d e2b9 8bbd 6393 7fbc 63bb 6abd
00000240: e00a df3c 59ab 95bc b6a3 b83d 7d1f e0bd
00000250: 9bac eebd 0739 b0bd 8f68 4cbd 12b8 aa3c
00000260: 1c44 cf3c a372 a93d a41d 24bd 7656 4cbd
00000270: a0f9 48bc 2786 33bd 5151 dd3d 9b88 9c3d
00000280: b163 b9bd 23e9 133e ee9e d9bd 5752 d53d
00000290: ea9d c2bd 08dd f03d bcf9 cd3d 7041 9b3d
000002a0: 0f90 d3bc dfc4 4fbd 83e5 27bd cfee 89bd
000002b0: 1a2f 7ebc d5b8 0b3e d373 833d 033d be3d
000002c0: 3a58 843c ad3e 00be 9e17 48bd f559 483d
000002d0: d406 c7bd 60b5 713d c164 f63c dea0 70bd
000002e0: 3cd2 99bd 23f8 19be ced7 cd3d 3f5e 4d3d
000002f0: d77f 6c3d bf4e a9bd 631e 943d 68c4 3cbe
00000300: 25f1 0f3b 62e8 34bd 8fad 943d 07e6 113d
00000310: 9f2a 003e 705b 1abd 9c2d 6fbb 26ae efbb
00000320: 1ba2 513c cde1 2dbd 89ef 14be e8ea d23d
00000330: 6c46 3fbe 9809 93bd 04e8 57bb 4e17 4dbd
00000340: 4346 33bb a587 0b3a e6e7 893b 5d66 113d
00000350: 83e4 5f3d 33c2 113e 1c37 b8bd 6fe1 b4bd
00000360: b69e 08be 9a6a a6bc 9787 6b3d 9b8a 663c
00000370: 1c4f abbc 65df b63d deca 393d 63de 893d
00000380: 65d7 06be 9e06 ed3b b380 28bd 6953 043e
00000390: bb1b 673d 8054 12bd 8001 bc3c a3db ef3d
000003a0: 844e 0e3e d2cb b33c c283 473d bbf4 08be
000003b0: b5a3 893d a8f4 08bc 9b88 013c f44a f8bd
000003c0: b7b7 d03c f7c9 5a3e 0f0d b53c 52c5 9ebd
000003d0: e8f3 21be 238b a63d 202d a43c 6e76 c63d
000003e0: eef4 b3bd 3b10 f23c 8b17 72bd 696b 5e3d
000003f0: 5e76 e8bd 1be7 0cbe bc61 813d 9a44 36bd

network_body._body_endoder.seq_layers.4.bias f4 [128]
-0.0020508922 0.0010716226 -0.003086474 0.0 -0.00074148906 -0.001264384 0.0011994466 -0.002921541
-0.004159977 -0.00081100204 -1.896909e-05 0.0 8.6626596e-17 -0.005427142 0.00014200028 0.00044233204
0.0015927758 0.0 0.0022602158 -0.002804559 0.0 0.002102047 -0.0061990656 -0.0021567207
-0.00018487456 -0.008473718 -0.00096640293 0.00029024907 0.0 -0.0042330013 -0.003504888 0.0004320078
-0.00053076237 -0.00085864635 -0.0024809956 -0.0014937444 -0.000265068 -8.581557e-22 -0.003598235 -0.0005318746
-0.0046323733 0.0 -0.00046393948 -6.0488263e-05 0.0 -0.0026616491 -0.0017821594 -0.00019882822
2.974566e-05 0.000682784 0.0 -0.0013382623 -0.004928763 -0.00061211997 -0.010026565 -0.0049116337
-0.011403323 -0.0014020976 0.0 -7.5141435e-07 -0.0054405215 0.0002667016 0.0 0.0023533723
-0.0041456395 -0.004870777 -0.0030617889 -5.6312954e-25 0.0 -0.00030397184 0.0 -0.0034062047
-0.005500557 -0.0025200753 -0.0010485796 -0.0056985407 0.001851076 -0.0026778153 -0.0034905844 -0.0034038809
0.001580399 0.0 -0.0035776487 -2.3017581e-11 -1.6303733e-16 -0.0030467997 0.0018076065 -0.0004247216
-0.0012179649 -0.0022573476 -0.00075072935 -0.0025372782 -0.00021888998 -2.4136591e-15 -0.0064439573 -4.9052767e-07
-3.606307e-07 -0.007801 -0.00031567886 -0.005976126 0.0 -5.393712e-09 2.6443517e-24 -0.004538731
-0.004053314 4.0948127e-26 -0.009359117 9.445977e-06 -0.0010799601 0.0010804442 0.0 -0.0068202782
0.0 1.9021744e-12 -0.0021690684 -2.6223079e-05 -0.00035830395 0.001713726 0.0030258482 -0.0008662572
-0.001881187 0.004245727 0.0007401161 0.0 -0.0012912247 -0.0049124863 8.599619e-18 -0.00076543307
00000000: 4368 06bb b075 8c3a 7146 4abb 0000 0000
00000010: 7d60 42ba b0b9 a5ba c036 9d3a 5377 3fbb
00000020: 6b50 88bb 6d99 54ba d01f 9fb7 0000 0000
00000030: 51bf c724 2bd6 b1bb e9e5 1439 cde8 e739
00000040: b0c4 d03a 0000 0000 2120 143b b1cc 37bb
00000050: 0000 0000 7fc2 093b 8821 cbbb c557 0dbb
00000060: e3da 41b9 59d5 0abc 3456 7dba 922c 9839
00000070: 0000 0000 fdb4 8abb 43b2 65bb 1b7f e239
00000080: dc22 0bba c816 61ba 3398 22bb bfc9 c3ba
00000090: d3f8 8ab9 4aae 819c 5ed0 6bbb 806d 0bba
000000a0: 2acb 97bb 0000 0000 e73c f3b9 c7b4 7db8
000000b0: 0000 0000 106f 2ebb 5997 e9ba 8b7c 50b9
000000c0: 5286 f937 dcfc 323a 0000 0000 a268 afba
000000d0: 7681 a1bb ad76 20ba 7646 24bc c5f1 a0bb
000000e0: 01d5 3abc 97c6 b7ba 0000 0000 cdb4 49b5
000000f0: 6746 b2bb 15d4 8b39 0000 0000 093b 1a3b
00000100: 25d8 87bb 0a9b 9fbb 4ba8 48bb b847 2e97
00000110: 0000 0000 695e 9fb9 0000 0000 a23a 5fbb
00000120: 043e b4bb d927 25bb 7e70 89ba d3ba babb
00000130: ce9f f23a 497e 2fbb 4ac2 64bb a513 5fbb
00000140: 6425 cf3a 0000 0000 fc76 6abb fc76 caad
00000150: 20f8 3ba5 d1ac 47bb 36ed ec3a 2bad deb9
00000160: 1fa4 9fba 02f0 13bb 98cc 44ba 7748 26bb
00000170: d585 65b9 27ec 2da7 d527 d3bb ceac 03b5
00000180: b59c c1b4 889f ffbb b381 a5b9 61d3 c3bb
00000190: 0000 0000 9853 b9b1 c898 4c18 a3b9 94bb
000001a0: aad1 84bb ebc3 4a15 fb56 19bc 2a7a 1e37
000001b0: 738d 8dba b19d 8d3a 0000 0000 a47c dfbb
000001c0: 0000 0000 87da 052c ee26 0ebb a2f9 dbb7
000001d0: beda bbb9 1a9f e03a 4f4d 463b 8915 63ba
000001e0: 2992 f6ba bd1f 8b3b 5a04 423a 0000 0000
000001f0: 503e a9ba ecf8 a0bb 8da2 1e23 58a7 48ba

action_model._continuous_distribution.log_sigma f4 [1, 2]
0.048923112 0.058686078
00000000: 9a63 483d d060 703d

action_model._continuous_distribution.mu.weight f4 [2, 128]
-0.021083927 -0.0028637387 -0.013501587 0.0017070549 -0.002425825 0.009842575 -0.014058762 0.0058331345
-0.025572332 0.046535444 -0.008665078 -0.013831156 0.006466242 -0.00510322 -0.014956885 -0.002011408
-0.023724569 0.026635492 -0.03142751 0.0034410858 -0.019885376 -0.009051352 0.008476646 -0.02701845
0.010123315 0.013293673 -0.0075801886 -0.010173151 -0.025681783 0.012380061 -0.012277163 -0.009399697
-0.005389373 -0.005901502 -0.017836787 -0.00046423954 -0.004775453 -0.007938279 0.0004599142 -0.016580628
0.008297375 -0.019950733 0.015698578 0.019865835 0.00019405107 -0.0019414683 0.009484523 -0.012148406
-0.0038972865 -0.013282358 -0.023696912 0.010861697 -0.00022071059 0.020720027 -0.00093418953 0.005819684
0.0061439453 0.02265609 -0.0034424874 -0.0036494092 0.0051746285 -0.026046878 -0.026138851 0.010608051
0.0029881191 0.009005199 0.0021261864 0.022092795 -0.0154636875 -0.0133875245 0.036534276 0.005392857
0.0016620148 0.009949936 -0.0009980188 -0.007172894 -0.03272421 -0.007543371 0.023454528 -0.009435643
-0.023561934 0.014882649 -0.00927117 -0.008930793 0.0074966247 0.024897896 -0.04918358 -0.004620935
-0.0056461683 0.011512477 -0.00733189 0.008373376 -0.0037443722 -0.020951834 0.0033246374 -0.010739212
0.021966087 0.00567544 -0.0056428136 0.05393289 -0.007987896 -0.03144954 0.005589656 0.0005628544
0.015762346 0.025063783 0.03677572 -0.0024697538 0.0034927498 -0.0088092 -0.010677912 0.027901968
0.027703319 -0.015726652 0.0032269547 0.0012350372 0.011217168 -0.028698765 -0.018847989 -0.018057583
-0.0026370636 -0.018341903 -0.0092117 0.01166265 -0.041574035 -0.0069265496 -0.036879394 -0.0044566435
-0.0066106888 0.008254469 -0.0015988285 -0.009179693 -0.021004004 0.019409858 0.010702139 0.0042977487
-0.015359173 0.008236314 0.010497633 0.021441096 0.011646746 0.014257642 -0.016543603 0.014405212
-0.002892968 -0.013416407 0.00054402807 -0.010334782 0.014266602 0.008742887 -0.0028289515 -0.006163492
-0.003162035 -0.014691688 0.0064706462 0.0017282069 0.010699412 0.0020869884 -0.0053865327 0.00055445085
-0.027177269 -0.019702986 0.00077876344 0.006817477 0.024350736 0.007296999 0.019376805 0.0065158564
0.0035722132 -0.016442167 0.0005800156 -0.018580448 -0.010822068 0.003666857 0.011314512 -0.009717484
0.0028666134 0.0028953627 -0.03652964 -0.041174196 0.0013152247 -0.012572102 -0.0015936394 -0.002124521
0.0074815243 0.0018224528 0.020303972 -0.014919198 0.017478367 -0.030227983 0.004784536 -0.0022696261
0.002749127 0.011381805 -0.0025520728 -0.011429547 -0.01575405 -0.016424662 0.030109817 0.01755404
0.0033833948 0.0018127137 0.03391269 0.004188382 0.010877815 -0.018187985 0.008267548 0.0147457225
0.0076361652 0.015597509 0.010707527 0.029784206 -0.0043513766 -0.026406698 -0.009467382 0.009487344
-0.015135111 -0.024832992 -0.011791242 -0.012067297 0.00319964 0.008599056 -0.0030004273 0.019786326
0.025141783 0.016635956 -0.010629689 0.015873216 0.0054376395 -0.007869835 0.014563917 -0.008842138
0.0010838627 0.020424051 -0.00023078235 0.041631527 0.013614163 0.011649658 -0.009421467 -0.007988429
-0.006738727 0.0057878075 -0.011653148 0.003050505 -0.019607095 -0.004072858 0.012437288 0.012236032
0.008812514 -0.003146208 0.016285878 -0.0034016694 -0.009622222 0.0143347895 -0.01376039 0.005618414
00000000: 33b8 acbc 90ad 3bbb c335 5dbc 42bf df3a
00000010: 97fa 1ebb c042 213c b956 66bc e123 bf3b
00000020: 117d d1bc f39b 3e3d f9f7 0dbc 139c 62bc
00000030: c5e2 d33b ea38 a7bb b90d 75bc d4d1 03bb
00000040: 075a c2bc ad32 da3c 22ba 00bd d783 613b
00000050: a8e6 a2bc 1f4c 14bc a1e1 0a3c cc55 ddbc
00000060: 43dc 253c b5cd 593c 3b63 f8bb 4aad 26bc
00000070: 9a62 d2bc bdd5 4a3c 2726 49bc 3001 1abc
00000080: 5699 b0bb 6361 c1bb 741e 92bc 2d65 f3b9
00000090: 677b 9cbb 8e0f 02bc a420 f139 19d4 87bc
000000a0: b7f1 073c b86f a3bc 4e9a 803c adbd a23c
000000b0: 307a 4b39 de78 feba f964 1b3c 1c0a 47bc
000000c0: 9e69 7fbb 3f9e 59bc 0720 c2bc 42f5 313c
000000d0: 8c6e 67b9 0cbd a93c 66e4 74ba 0cb3 be3b
000000e0: 2653 c93b 4499 b93c 5b9b 61bb ed2a 6fbb
000000f0: ee8f a93b 4360 d5bc 2521 d6bc 64cd 2d3c
00000100: 52d4 433b 8b8a 133c 7d57 0b3b f3fb b43c
00000110: 685b 7dbc 5957 5bbc f7a4 153d 90b6 b03b
00000120: f6d7 d93a 0e05 233c f4cf 82ba 990a ebbb
00000130: d209 06bd 622e f7bb b623 c03c f597 1abc
00000140: f504 c1bc 5bd6 733c 1be6 17bc 7652 12bc
00000150: 3fa6 f53b acf6 cb3c b974 49bd 366b 97bb
00000160: 7e03 b9bb d49e 3c3c 5a40 f0bb 7c30 093c
00000170: 2464 75bb 2ea3 abbc 29e2 593b 85f3 2fbc
00000180: 39f2 b33c 0bf9 b93b 5ae7 b8bb bce8 5c3d
00000190: aadf 02bc 3cd1 00bd 6f29 b73b 858c 133a
000001a0: 0920 813c 9052 cd3c 23a2 163d 98db 21bb
000001b0: 9ee6 643b 7654 10bc 69f2 2ebc ab92 e43c
000001c0: 12f2 e23c 2ed5 80bc 517b 533b f9e0 a13a
000001d0: 36c8 373c ac19 ebbc 1967 9abc 7fed 93bc
000001e0: 96d2 2cbb c241 96bc acec 16bc b314 3f3c
000001f0: 8949 2abd 1cf8 e2bb d90e 17bd 0909 92bb
00000200: 7a9e d8bb c13d 073c c88f d1ba 6c66 16bc
00000210: 9710 acbc 6c01 9f3c 0658 2f3c 21d4 8c3b
00000220: 0aa5 7bbc 9bf1 063c 44fe 2b3c 3da5 af3c
00000230: fed1 3e3c e398 693c 7386 87bc d703 6c3c
00000240: f397 3dbb 7dd0 5bbc 1b9d 0e3a 3853 29bc
00000250: 77be 693c 533e 0f3c ee65 39bb 1ef7 c9bb
00000260: 253a 4fbb 68b5 70bc b707 d43b 0085 e23a
00000270: 964c 2f3c dbc5 083b 8381 b0bb 9158 113a
00000280: dda2 debc 2868 a1bc ee25 4c3a 2465 df3b
00000290: 327b c73c aa1b ef3b 1bbc 9e3c f782 d53b
000002a0: cb1b 6a3b b9b1 86bc 300c 183a 0636 98bc
000002b0: 0b4f 31bc a74f 703b 8160 393c 1536 1fbc
000002c0: cbdd 3b3b 20c0 3d3b 1ba0 15bd 46a6 28bd
000002d0: 9e63 ac3a 38fb 4dbc aae1 d0ba 8c3b 0bbb
000002e0: 9327 f53b 5edf ee3a 8454 a63c a76f 74bc
000002f0: cb2e 8f3c ada0 f7bc 99c7 9c3b 02be 14bb
00000300: b32a 343b c07a 3a3c ad40 27bb ff42 3bbc
00000310: a30e 81bc 038d 86bc dda8 f63c 7dcd 8f3c
00000320: f2bb 5d3b 9498 ed3a 08e8 0a3d b23e 893b
00000330: dd38 323c f8fe 94bc 9c74 073c 0b98 713c
00000340: cc38 fa3b b28c 7f3c a06e 2f3c 02fe f33c
00000350: fe95 8ebb dc52 d8bc 141d 1bbc ce70 1b3c
00000360: 42f9 77bc 8f6e cbbc 0e30 41bc e9b5 45bc
00000370: 0db1 513b 0ee3 0c3c d1a2 44bb ef16 a23c
00000380: 24f6 cd3c 2148 883c 2628 2ebc 8c08 823c
00000390: 3a2e b23b 7bf0 00bc 7f9d 6e3c 9dde 10bc
000003a0: 6610 8e3a 5750 a73c 2afe 71b9 d285 2a3d
000003b0: f00d 5f3c 35de 3e3c 7f5c 1abc e6e1 02bc
000003c0: 8ad0 dcbb a6a7 bd3b d8ec 3ebc fbea 473b
000003d0: 0f9f a0bc 9c75 85bb c4c5 4b3c a379 483c
000003e0: 5d62 103c 9c30 4ebb f669 853c 8bee 5ebb
000003f0: 86a6 1dbc 77dc 6a3c 4273 61bc ac1a b83b

action_model._continuous_distribution.mu.bias f4 [2]
-0.0029613867 0.00024022814
00000000: d313 42bb c0e5 7b39

action_model._discrete_distribution.branches.0.weight f4 [1, 128]
0.0005514956 -0.005726368 -0.00022314508 -0.006710452 0.010043391 0.0048484295 -0.002299614 0.01114413
0.010946174 -0.0042382786 -0.0051219645 -0.0073481016 0.022271303 -0.011311763 0.011660032 -0.0014232156
-0.007934256 -0.007922554 -0.0057521756 0.0035342507 0.0075780577 -0.01641959 0.00863914 0.0036948898
-0.0035803379 -0.0020218182 -0.010242617 0.004782881 0.005169962 -0.0023938578 0.012486474 -0.0004012738
-0.0011744864 -0.00032465564 0.006003201 0.0035541754 0.0010655727 -0.004740732 0.009515907 0.003938148
-0.00930985 -0.0064473273 -0.01111646 -0.0062966184 -0.011545639 -0.009976757 -0.005686796 -0.0023762945
0.01102477 0.008639221 0.0020072039 0.0038488146 0.0025275582 0.00025442167 0.008257687 -0.00643681
-0.005239775 -0.00966468 0.0099228425 -0.0040700184 0.005605133 -0.0006191921 0.003888997 0.0031316224
0.004907465 -0.015752688 0.006581063 0.00115337 -0.012649677 -0.0056284065 0.00788399 -0.0012812845
0.003835084 -0.011760921 -0.015943447 0.0023887807 0.013534595 0.001865563 -0.0025107954 -0.012924223
-0.018803282 -0.007256552 -0.00954184 -0.015416935 -0.002115093 -0.008538285 0.010221538 0.0009275616
-0.0024576702 -0.010552021 -0.0032755577 0.008619948 0.0034932792 0.00022749323 0.00195634 0.0016054678
-0.0044905925 0.00067616906 0.012476862 -0.00465586 -0.007376136 -0.00033833104 -0.0006508014 -0.005396383
-0.010569777 -0.0033463554 -0.008292899 0.008047249 0.0050820815 -0.021588113 0.00030367894 -0.0019912913
0.0019628888 -0.004526591 0.004557942 -0.019434877 0.0011321384 -0.0040573757 -0.004419732 0.008532399
-0.006629365 -0.0024006518 0.00036171515 -0.012680079 -0.0002155849 -0.004247302 0.0011888362 -0.0003642708
00000000: 3e92 103a 42a4 bbbb 0dfc 69b9 5ae3 dbbb
00000010: 098d 243c 93df 9e3b 1fb5 16bb de95 363c
00000020: 9557 333c 42e1 8abb 27d6 a7bb 58c8 f0bb
00000030: 4f72 b63c f954 39bc b809 3f3c 318b baba
00000040: affe 01bc 9acd 01bc bf7c bcbb e39e 673b
00000050: 5b51 f83b 6082 86bc 2e8b 0d3c f725 723b
00000060: 1aa4 6abb 7b80 04bb a6d0 27bc b7b9 9c3b
00000070: c968 a93b 45e2 1cbb 1194 4c3c 0f62 d2b9
00000080: 39f1 99ba 8b36 aab9 80b6 c43b 2bed 683b
00000090: b0aa 8b3a 2458 9bbb 9be8 1b3c 940b 813b
000000a0: 5788 18bc 1a44 d3bb d021 36bc dd53 cebb
000000b0: eb29 3dbc 8d75 23bc 4d58 babb 9bbb 1bbb
000000c0: 3da1 343c 858b 0d3c 4b8b 033b 653c 7c3b
000000d0: 64a5 253b e663 8539 404b 073c e0eb d2bb
000000e0: 6bb2 abbb 9b58 1ebc 6b93 223c ca5d 85bb
000000f0: 43ab b73b 4751 22ba 8bde 7e3b e83b 4d3b
00000100: cdce a03b c80b 81bc f5a5 d73b ad2c 973a
00000110: 9740 4fbc 7f6e b8bb da2b 013c c6f0 a7ba
00000120: 0856 7b3b e1b0 40bc d59b 82bc 178d 1c3b
00000130: 35c0 5d3c e885 f43a 288c 24bb 1fc0 53bc
00000140: 5709 9abc 5fc8 edbb 6155 1cbc 5097 7cbc
00000150: 5f9d 0abb 2ae4 0bbc 3d78 273c 9b27 733a
00000160: dd10 21bb 62e2 2cbc bdaa 56bb af3a 0d3c
00000170: 80ef 643b 408b 6e39 f035 003b 8f6e d23a
00000180: d225 93bb f040 313a c16b 4c3c 2f90 98bb
00000190: 83b3 f1bb 0662 b1b9 8b9a 2aba 24d4 b0bb
000001a0: dc2c 2dbc 874e 5bbb f0de 07bc 9cd8 033c
000001b0: 9787 a63b 8ed9 b0bc 1937 9f39 5380 02bb
000001c0: cfa3 003b cc53 94bb ca5a 953b e435 9fbc
000001d0: 4364 943a bcf3 84bb 66d3 90bb 7acb 0b3c
000001e0: 253b d9bb 4154 1dbb 96a4 bd39 1bc0 4fbc
000001f0: a20e 62b9 f42c 8bbb b9d2 9b3a 99fb beb9

exp_avg f4 [128, 10]
0.0 0.0 0.0 0.0 0.0 0.0 0.0 0.0
0.0 0.0 0.0073605194 0.0032342067 0.026240751 0.0011550355 0.0023290166 0.020305285
6.286065e-07 6.2158383e-06 0.0 0.0 0.003520196 0.0015468531 0.012550463 0.000597972
0.0010894425 0.009758625 1.6149335e-06 6.77191e-08 0.0 0.0 0.0 0.0
0.0 0.0 0.0 0.0 0.0 0.0 0.0 0.0
-0.0016564756 -0.0007277853 -0.005904677 -0.0002606254 -0.00052955025 -0.0045779324 -3.2721226e-07 -3.5349965e-06
0.0 0.0 -0.008595972 -0.003777068 -0.030645132 -0.0015161226 -0.0026952517 -0.02392361
-3.2406558e-06 -7.541761e-06 0.0 0.0 0.0 0.0 0.0 0.0
0.0 0.0 0.0 0.0 0.0 0.0 0.0 0.0
0.0 0.0 0.0 0.0 0.0 0.0 0.0 0.0
3.865014e-19 8.410933e-20 3.1640424e-19 3.6920933e-19 8.500047e-20 3.109306e-19 -3.8325214e-23 -3.8876968e-23
0.0 0.0 4.1994202e-08 6.5856973e-09 3.315794e-08 1.7785977e-08 8.875123e-09 5.2618e-08
-1.1409878e-10 1.7603483e-10 0.0 0.0 0.0019992574 0.0008786328 0.0071289465 0.00053228927
0.00054723053 0.005774671 3.7497266e-06 -7.5852577e-06 0.0 0.0 0.0 0.0
0.0 0.0 0.0 0.0 0.0 0.0 0.0 0.0
-7.1001216e-07 -3.1197962e-07 -2.531241e-06 2.5366031e-08 -2.1732667e-07 -1.8382547e-06 1.5746257e-09 5.3241487e-09
0.0 0.0 -0.010686177 -0.0046956954 -0.03809881 -0.001841758 -0.0033687078 -0.029698657
-3.7610723e-06 -1.2794004e-05 0.0 0.0 0.022755967 0.009998952 0.08112637 0.0042149387
0.0070324135 0.063583195 1.2837573e-05 9.647642e-06 0.0 0.0 0.020419955 0.008972517
0.07279837 0.0036736005 0.006293364 0.056911185 1.2130204e-05 5.7976526e-06 0.0 0.0
-0.027280957 -0.011987016 -0.0972562 -0.0048136413 -0.008553129 -0.07595831 -1.013538e-05 -2.6649925e-05
0.0 0.0 -6.8428085e-07 -1.0731162e-07 -5.4029687e-07 -2.7798615e-07 -1.4820827e-07 -8.69298e-07
7.3193757e-10 -1.1489312e-09 0.0 0.0 2.86706e-07 4.5146813e-08 2.2765701e-07 1.1552377e-07
6.176653e-08 3.6660393e-07 -3.56346e-10 4.9804855e-10 0.0 0.0 -0.008938376 -0.003927613
-0.031866793 -0.0016627954 -0.0027122672 -0.02497509 -7.72305e-06 1.0348674e-06 0.0 0.0
2.8998384e-09 1.2025168e-09 1.1069763e-08 2.8523626e-09 1.3442594e-09 1.0664422e-08 8.0157625e-12 -1.2245719e-11
0.0 0.0 -0.005161895 -0.0022679912 -0.018401122 -0.0006992519 -0.0017093375 -0.014124457
1.5791295e-06 -1.5327485e-05 0.0 0.0 -6e-45 -6e-45 -6e-45 -6e-45
-6e-45 -6e-45 -6e-45 -6e-45 0.0 0.0 -2.755186e-30 -1.2106269e-30
-9.8224105e-30 -3.6762554e-31 -8.772087e-31 -7.548268e-30 3.599122e-33 4.3614246e-33 0.0 0.0
-0.0018993629 -0.00083441817 -0.006769811 -0.0002340018 -0.0006059924 -0.005157392 -2.9595276e-07 -2.635193e-06
0.0 0.0 0.0021375124 0.0009391941 0.007620175 0.00023358337 0.00070458924 0.005776343
00000000: 0000 0000 0000 0000 0000 0000 0000 0000
00000010: 0000 0000 0000 0000 0000 0000 0000 0000
00000020: 0000 0000 0000 0000 8330 f13b fcf4 533b
00000030: d8f6 d63c 8f64 973a 6aa2 183b 4557 a63c
00000040: 82bd 2835 a591 d036 0000 0000 0000 0000
00000050: 17b3 663b c7bf ca3a 75a0 4d3c 39c1 1c3a
00000060: a0cb 8e3a a4e2 1f3c b1c0 d835 f86c 9133
00000070: 0000 0000 0000 0000 0000 0000 0000 0000
00000080: 0000 0000 0000 0000 0000 0000 0000 0000
00000090: 0000 0000 0000 0000 0000 0000 0000 0000
000000a0: 191e d9ba d8c8 3eba 057c c1bb 8da4 88b9
000000b0: 84d1 0aba 7b02 96bb b6ab afb4 c73a 6db6
000000c0: 0000 0000 0000 0000 1fd6 0cbc b088 77bb
000000d0: 800b fbbc a2b8 c6ba d2a2 30bb 72fb c3bc
000000e0: 0b7a 59b6 3c0f fdb6 0000 0000 0000 0000
000000f0: 0000 0000 0000 0000 0000 0000 0000 0000
00000100: 0000 0000 0000 0000 0000 0000 0000 0000
00000110: 0000 0000 0000 0000 0000 0000 0000 0000
00000120: 0000 0000 0000 0000 0000 0000 0000 0000
00000130: 0000 0000 0000 0000 0000 0000 0000 0000
00000140: 7126 e420 f898 c61f a8c5 ba20 56f1 d920
00000150: a2b3 c81f 818a b720 5154 399a 5bff 3b9a
00000160: 0000 0000 0000 0000 1d5d 3433 6848 e231
00000170: 8a69 0e33 c7c7 9832 3479 1832 1afe 6133
00000180: e7e7 faae 668d 412f 0000 0000 0000 0000
00000190: f905 033b 0d54 663a f099 e93b 5489 0b3a
000001a0: 0574 0f3a 7439 bd3b d0a3 7b36 de84 feb6
000001b0: 0000 0000 0000 0000 0000 0000 0000 0000
000001c0: 0000 0000 0000 0000 0000 0000 0000 0000
000001d0: 0000 0000 0000 0000 0000 0000 0000 0000
000001e0: aa97 3eb5 277e a7b4 64de 29b6 7ee4 d932
000001f0: 4d5a 69b4 f3b9 f6b5 376a d830 b5ef b631
00000200: 0000 0000 0000 0000 1315 2fbc 59de 99bb
00000210: 7f0d 1cbd 2567 f1ba 8ac5 5cbb 994a f3bc
00000220: bb66 7cb6 d4a5 56b7 0000 0000 0000 0000
00000230: b96a ba3c a5d2 233c 9525 a63d 781d 8a3b
00000240: 2970 e63b e837 823d f560 5737 4fdc 2137
00000250: 0000 0000 0000 0000 c047 a73c 7701 133c
00000260: 5017 953d cac0 703b 9038 ce3b b41b 693d
00000270: d482 4b37 7589 c236 0000 0000 0000 0000
00000280: 507c dfbc 3065 44bc 422e c7bd c0bb 9dbb
00000290: 6c22 0cbc 0890 9bbd 200b 2ab7 478e dfb7
000002a0: 0000 0000 0000 0000 6caf 37b5 3073 e6b3
000002b0: eb08 11b5 203e 95b4 2e23 1fb4 b459 69b5
000002c0: 8731 4930 6ce8 9db0 0000 0000 0000 0000
000002d0: 93ec 9934 72e7 4133 e271 7434 dd15 f833
000002e0: 82a4 8433 a9d1 c434 3ee7 c3af 0de7 0830
000002f0: 0000 0000 0000 0000 4472 12bc 35b3 80bb
00000300: c186 02bd 28f2 d9ba 4bc0 31bb 8f98 ccbc
00000310: 3f92 01b7 c6e5 8a35 0000 0000 0000 0000
00000320: 7f46 4731 cc45 a530 552d 3e32 4b03 4431
00000330: ecc0 b830 a036 3732 c903 0d2d d16d 57ad
00000340: 0000 0000 0000 0000 1d25 a9bb 94a2 14bb
00000350: f3bd 96bc 004e 37ba d90b e0ba 446a 67bc
00000360: 7af2 d335 8693 80b7 0000 0000 0000 0000
00000370: 0400 0080 0400 0080 0400 0080 0400 0080
00000380: 0400 0080 0400 0080 0400 0080 0400 0080
00000390: 0000 0000 0000 0000 f986 5f8e 796f c48d
000003a0: df38 478f 459a ee8c d355 8e8d d918 198f
000003b0: 6e80 9509 9f2a b509 0000 0000 0000 0000
000003c0: 0bf4 f8ba dbbc 5aba 4ad5 ddbb 615e 75b9
000003d0: 76db 1eba 57ff a8bb 70e3 9eb4 45d8 30b6
000003e0: 0000 0000 0000 0000 8215 0c3b 4034 763a
000003f0: a9b2 f93b 0fee 7439 2fb4 383a 7a47 bd3b

exp_avg_sq f4 [128, 10]
0.0 0.0 0.0 0.0 0.0 0.0 0.0 0.0
0.0 0.0 0.107379414 0.0028015862 0.077894285 0.06576727 0.003171721 0.080869354
6.0703753e-09 1.0418223e-08 0.0 0.0 0.034967802 0.0009871083 0.030618632 0.02017044
0.0012123318 0.032838296 4.3121204e-09 5.8739458e-09 0.0 0.0 0.0 0.0
0.0 0.0 0.0 0.0 0.0 0.0 0.0 0.0
0.031427264 0.0008855188 0.027448356 0.018376233 0.0012450876 0.03255772 5.08975e-09 6.476184e-09
0.0 0.0 0.0027264121 0.00052732776 0.034375053 0.0014473911 0.0003114042 0.029874364
7.940193e-09 1.0995617e-08 0.0 0.0 0.0 0.0 0.0 0.0
0.0 0.0 0.0 0.0 0.0 0.0 0.0 0.0
0.0 0.0 0.0 0.0 0.0 0.0 0.0 0.0
4.9985564e-11 2.4449436e-12 3.3631816e-11 4.5824875e-11 2.4833878e-12 3.237338e-11 7.8164267e-19 2.6098463e-19
0.0 0.0 0.013414634 0.0003322868 0.00850296 0.007705306 0.0005346713 0.011111603
6.908309e-10 1.0490796e-09 0.0 0.0 0.10888376 0.003053795 0.09371298 0.06329262
0.003732081 0.10014012 1.0792114e-08 1.4781247e-08 0.0 0.0 0.0 0.0
0.0 0.0 0.0 0.0 0.0 0.0 0.0 0.0
0.005651534 0.00014108878 0.0037130294 0.0032319142 0.000101828846 0.002486762 5.682869e-10 5.551875e-10
0.0 0.0 0.03057537 0.0009915979 0.03643015 0.015250727 0.001249482 0.039124396
3.6604284e-09 6.3038654e-09 0.0 0.0 0.01416476 0.000856316 0.04508877 0.007306915
0.00071521127 0.03879271 4.493681e-09 6.08204e-09 0.0 0.0 0.003056793 0.0005913792
0.038520224 0.001297042 0.0003393565 0.031532273 8.093085e-09 9.944345e-09 0.0 0.0
0.12824191 0.004695457 0.18955223 0.07063293 0.0049402956 0.17989103 2.2708745e-08 3.021718e-08
0.0 0.0 0.0020630695 5.073861e-05 0.0012862051 0.00041454725 0.00011883884 0.0030939342
4.7939314e-10 9.936072e-10 0.0 0.0 0.004517722 0.00011195132 0.0028799751 0.002231547
0.00016492893 0.0038533963 3.0098168e-10 4.2281284e-10 0.0 0.0 0.1695749 0.0045759357
0.13413967 0.096157365 0.005910992 0.14801227 1.0655212e-08 1.66257e-08 0.0 0.0
4.274234e-08 9.032847e-09 4.6349606e-07 3.8114347e-08 9.670014e-09 4.4121555e-07 4.200257e-13 4.2052944e-13
0.0 0.0 0.030548943 0.0012587439 0.05442305 0.018752694 0.0010889894 0.04782514
9.2816075e-09 1.1058338e-08 0.0 0.0 0.0 0.0 0.0 0.0
0.0 0.0 0.0 0.0 0.0 0.0 0.0 0.0
0.0 0.0 0.0 0.0 0.0 0.0 0.0 0.0
0.025614072 0.0007029356 0.020749269 0.013747106 0.0009674391 0.02417108 3.5644094e-09 4.4078026e-09
0.0 0.0 0.023275198 0.0007454945 0.026475543 0.01274003 0.00096786686 0.028757157
00000000: 0000 0000 0000 0000 0000 0000 0000 0000
00000010: 0000 0000 0000 0000 0000 0000 0000 0000
00000020: 0000 0000 0000 0000 bde9 db3d d19a 373b
00000030: 0a87 9f3d feb0 863d a6dc 4f3b d59e a53d
00000040: 9693 d031 d4fb 3232 0000 0000 0000 0000
00000050: 663a 0f3d dc61 813a edd3 fa3c 7b3c a53c
00000060: 1be7 9e3a 7381 063d d029 9431 c6d3 c931
00000070: 0000 0000 0000 0000 0000 0000 0000 0000
00000080: 0000 0000 0000 0000 0000 0000 0000 0000
00000090: 0000 0000 0000 0000 0000 0000 0000 0000
000000a0: e0b9 003d 2922 683a 60db e03c c189 963c
000000b0: 3532 a33a 3e5b 053d eae1 ae31 1e85 de31
000000c0: 0000 0000 0000 0000 9bad 323b 5e3c 0a3a
000000d0: dbcc 0c3d 63b6 bd3a f743 a339 15bb f43c
000000e0: 5769 0832 3ce7 3c32 0000 0000 0000 0000
000000f0: 0000 0000 0000 0000 0000 0000 0000 0000
00000100: 0000 0000 0000 0000 0000 0000 0000 0000
00000110: 0000 0000 0000 0000 0000 0000 0000 0000
00000120: 0000 0000 0000 0000 0000 0000 0000 0000
00000130: 0000 0000 0000 0000 0000 0000 0000 0000
00000140: bed6 5b2e 300c 2c2c 0fea 132e 398a 492e
00000150: bdc0 2e2c 2f61 0e2e 40b3 6621 e20e 9a20
00000160: 0000 0000 0000 0000 0ec9 5b3c c836 ae39
00000170: 0050 0b3c cb7c fc3b 2f29 0c3a 710d 363c
00000180: e7e4 3d30 352f 9030 0000 0000 0000 0000
00000190: 73fe de3d 2e22 483b 97ec bf3d 909f 813d
000001a0: ee95 743b 4316 cd3d 3868 3932 9df0 7d32
000001b0: 0000 0000 0000 0000 0000 0000 0000 0000
000001c0: 0000 0000 0000 0000 0000 0000 0000 0000
000001d0: 0000 0000 0000 0000 0000 0000 0000 0000
000001e0: 8130 b93b 3bf1 1339 4c56 733b 86ce 533b
000001f0: f28c d538 f1f8 223b a335 1c30 d99b 1830
00000200: 0000 0000 0000 0000 3379 fa3c 81f8 813a
00000210: c837 153d 2fde 793c a9c5 a33a e740 203d
00000220: f08a 7b31 6399 d831 0000 0000 0000 0000
00000230: 4f13 683c 657a 603a 01af 383d d86e ef3b
00000240: 047d 3b3a 1be5 1e3d d666 9a31 31fa d031
00000250: 0000 0000 0000 0000 7a54 483b c906 1b3a
00000260: 62c7 1d3d 8201 aa3a a9eb b139 fc27 013d
00000270: c409 0b32 b1d7 2a32 0000 0000 0000 0000
00000280: d951 033e 59dc 993b fb19 423e ffa7 903d
00000290: 34e2 a13b 5b35 383e 0f11 c332 24c8 0133
000002a0: 0000 0000 0000 0000 9034 073b 2bd0 5438
000002b0: e295 a83a 9757 d939 1e39 f938 9ac3 4a3b
000002c0: 4bc6 0330 728f 8830 0000 0000 0000 0000
000002d0: 6609 943b 68c7 ea38 f7bd 3c3b 253f 123b
000002e0: c6f0 2c39 4389 7c3b 6877 a52f 9e71 e82f
000002f0: 0000 0000 0000 0000 0ba5 2d3e bbf1 953b
00000300: e95b 093e 27ee c43d ffb0 c13b 8790 173e
00000310: 1e0e 3732 4dd0 8e32 0000 0000 0000 0000
00000320: b393 3733 e22e 1b32 6ad6 f834 2bb3 2333
00000330: 2c21 2632 34e0 ec34 1574 ec2a aebc ec2a
00000340: 0000 0000 0000 0000 c741 fa3c 70fc a43a
00000350: b4ea 5e3d 409f 993c 6cbc 8e3a 4be4 433d
00000360: f174 1f32 16fb 3d32 0000 0000 0000 0000
00000370: 0000 0000 0000 0000 0000 0000 0000 0000
00000380: 0000 0000 0000 0000 0000 0000 0000 0000
00000390: 0000 0000 0000 0000 0000 0000 0000 0000
000003a0: 0000 0000 0000 0000 0000 0000 0000 0000
000003b0: 0000 0000 0000 0000 0000 0000 0000 0000
000003c0: 9ad4 d13c 3645 383a 5ffa a93c 8b3b 613c
000003d0: bd9b 7d3a 6e02 c63c c1f1 7431 7173 9731
000003e0: 0000 0000 0000 0000 a1ab be3c 4a6d 433a
000003f0: 3de3 d83c 8fbb 503c 72b8 7d3a 2194 eb3c
