Assets/results/VikramRover16-ppo/VikramRover/VikramRover-9472.onnx (onnx, 147290 bytes, 10 tensors)

network_body._body_endoder.seq_layers.0.weight f4 [128, 10]
00000000: fcd5 443e dd15 15be c3ee 943e d790 ce3e
00000010: 6ce0 d93d 782e 3f3a 8056 80be 5153 ff3d
00000020: 1d2b 363e bea5 0abf ee08 ae3e 6ccd a1be
00000030: 8553 9e3e 0b95 de3e cfbc dfbd d096 aa3d
00000040: e48f 373e 4381 bbbd 85f1 8dbe ce53 673e
00000050: 8d7d c5be e6f4 323f 6abd 913e 93ae a1bd
00000060: abd9 4c3e e6af bbbd 1f90 9a3e 1ef8 bd3e
00000070: a9e4 afbe d9f1 b1be 1d9c 85be 7f13 923d
00000080: 317f a03e 86e9 c3bd b45d bfbe 7617 213f
00000090: ccf5 e53e efac 53be 2ecf e2be 5adb 923d
000000a0: 915f 31be 325a 19bf 4395 c7bd 28fe 333d
000000b0: 76fc 7a3e b769 3a3e a33d a13e de26 fd3e
000000c0: c7fb 013f bcc8 843e 2bd8 59be afe6 21bf
000000d0: 2c12 a03d b201 17bc bbd8 6d3d 3524 53bc
000000e0: aef4 133e 8d9f 523e 4706 753d c969 563e
000000f0: 5d9f 04be ce90 433d 7dfb 7fbd 73b7 813e
00000100: e2e7 c3bc 6685 5e3e c658 f9be 2bc3 2a3e
00000110: 00a0 5f3e 347c 17be 534a 033e 95c0 5a3e
00000120: eeaa 87bb 0205 b0be e952 39be 1986 b03d
00000130: dc3d 32bf d102 463e 3a65 eebe 4708 d6bd
00000140: 805e d0bd 733c 263c 5f83 e2bd d596 b43d
00000150: 91b7 fabe f918 cb3d 26f9 313e e858 77be
00000160: 3b16 debc 2173 03bf 9f59 9e3d 21b7 893e
00000170: 26c9 e4bb a167 823d fd7c 3cbe 246c 903e
00000180: 7e8a f9be 3460 813d 725a 843d a6f8 403e
00000190: 8054 9cbd ab05 11bf c2cb 80be 3ec6 d53d
000001a0: 7dbc 90bd e64a 0dbf 0729 7fbd f9e1 0ebe
000001b0: e8f2 bf3e 2908 803c ed98 873e 692a 9abd
000001c0: a886 38be 4a1b fbbe 709e 96bd 84cc 6a3e
000001d0: 8b44 d83d 3478 cf3e 1cde 96bd c76f 11bf
000001e0: 875a 84be dbae a0bb 6ba7 f7be 1c82 b3be
000001f0: 4918 e5bc d5cd 1abf 4985 29be 86f4 573c
00000200: 48bc b53d 1b6c 3a3f a97d 15bf d273 223d
00000210: 15ec b13e 7680 3fbf 0096 c5bc 9221 bb3e
00000220: 4f0d 163e b57e 633e 3b10 efbe 160b 7dbe
00000230: 982f bebe 922f b5be d905 04be e06c 5a3e
00000240: c069 a63e bd77 7bbd d7ff 13be 76ea 8fbe
00000250: d76c 2f3e f8e7 903e a896 1bbd a8b6 013f
00000260: ed79 7f3d 124b dcbe 418c 85be bf81 b5bd
00000270: 4e6c 763e 603a 293e 07cc 0e3f efdf 8bbe
00000280: ea97 4d3e ff81 5abd 9726 ad3d c6e7 12bf
00000290: ec75 363f a714 01be 8c51 b7be dae9 323d
000002a0: 31a8 69be 4939 19be 93ba 47bf 9ee6 24be
000002b0: 3423 17bf 179b 4d3f 4ab7 c53e 8248 c53e
000002c0: c492 d63c c30a 5dbe 4e33 7ebd 5390 51be
000002d0: 5b38 71be 37fc a43e fbd0 fcbe 284a fdbd
000002e0: a437 cf3d 1b58 063d 7313 36bf 066c 6fbd
000002f0: 1c98 a53c 4768 2a3e 8d47 07be 0a02 ab3e
00000300: faab 39bf 17b0 06bd 94f3 a1be 2f63 4dbe
00000310: 4ecc 6bbd 173a bf3c d780 3e3e 2c4e 3ebe
00000320: d233 73be db4a d43e 5ddd a2bf 9a96 673e
00000330: 7807 18be eb9f 123e 0412 cabc 4e8b 523e
00000340: 7c74 633d 6c0d 47be a71e fa3d e405 303f
00000350: 28ff ecbe 4bea 473f 43a1 b8be 34de 30bf
00000360: ace3 1cbe 4b74 05bd 489a f2be f034 dfbc
00000370: c704 ed3e d478 e73d 69c2 b2bc b7cc 033f
00000380: fd9e 57be 8104 11bd f9e0 43be 8408 ea3e
00000390: 3220 9bbd deab cebd 4831 d6bd c9e3 983d
000003a0: 8b62 7b3d 327d c1be 7d72 933e 2f98 933e
000003b0: fa78 853e e35e fd3c b104 613e 60b8 5d3f
000003c0: 5c67 2abd 84e7 cd3d 1593 8bbd dca7 e3be
000003d0: 8a65 5fbd 326a 02bf abe1 d1be 4dd7 b5be
000003e0: 0dba 283c 2b67 86be 9fcd 1dbf e4b5 9abe
000003f0: 0d24 423e 943b a3be 4cba 41bf 4365 043e
0.19222254 -0.14559121 0.2908841 0.4034488 0.10638508 0.0007292996 -0.25065994 0.12467063
0.17789884 -0.5415915 0.33991188 -0.31602037 0.30923095 0.43473086 -0.10924684 0.083295465
0.17925984 -0.09155514 -0.27723327 0.22590563 -0.3857235 0.69904935 0.28464824 -0.078946255
0.20004909 -0.09164409 0.3018808 0.3710336 -0.3435414 -0.34754828 -0.26095667 0.07132625
0.3134704 -0.095660254 -0.37376177 0.62926424 0.4491409 -0.20671438 -0.4429869 0.07170744
-0.17321612 -0.5990325 -0.09745266 0.043943554 0.24510369 0.1820439 0.31492338 0.49443716
0.50774807 0.25934398 -0.21273868 -0.6324262 0.07815966 -0.009216713 0.05806802 -0.01288705
0.14448807 0.20568676 0.05982044 0.20938791 -0.12951417 0.04774552 -0.062495697 0.25335273
-0.023914281 0.21730575 -0.4870054 0.16676013 0.21838379 -0.14793473 0.12821321 0.21362527
-0.0041402495 -0.3437882 -0.18098034 0.08619327 -0.6962564 0.19337012 -0.46561605 -0.104507975
-0.101742744 0.010146248 -0.11060213 0.088178314 -0.48968175 0.099168725 0.17380199 -0.24155009
-0.02711021 -0.5134755 0.077319376 0.2689753 -0.0069819866 0.06367422 -0.18407054 0.28207505
-0.48738474 0.063171774 0.064625636 0.18844852 -0.076333046 -0.56649274 -0.25155455 0.10438202
-0.07067201 -0.5519241 -0.062294986 -0.13953389 0.3749001 0.015628891 0.2648386 -0.0752762
-0.18020117 -0.49044257 -0.07354438 0.22929579 0.105599485 0.40521395 -0.07366583 -0.56811184
-0.25850317 -0.004903657 -0.48369917 -0.35060203 -0.027965682 -0.60470325 -0.1655475 0.0131808575
0.088738024 0.72821206 -0.5839487 0.039661236 0.3475043 -0.7480539 -0.024119377 0.3654905
0.14653514 0.22216304 -0.4669207 -0.2471126 -0.37145686 -0.35387856 -0.12892856 0.21330595
0.32502556 -0.06139349 -0.14453064 -0.28108567 0.17131363 0.28301978 -0.037985474 0.50669336
0.062372137 -0.43026024 -0.26083568 -0.08862638 0.24064752 0.16526175 0.5578007 -0.27319285
0.20077482 -0.05334663 0.08454626 -0.5738491 0.71273685 -0.12605534 -0.35804403 0.04368005
-0.22818066 -0.14963259 -0.78019065 -0.16103598 -0.5903809 0.80314773 0.386164 0.38531882
0.02619303 -0.21586137 -0.062060647 -0.20465212 -0.23556654 0.32223675 -0.4937819 -0.1236766
0.101180345 0.032798868 -0.7112343 -0.05845263 0.020214133 0.16641341 -0.13210888 0.33399993
-0.7252804 -0.032882776 -0.31631148 -0.20057367 -0.057567887 0.02334313 0.18603836 -0.18584508
-0.23750237 0.4146336 -1.2723805 0.22616044 -0.14846599 0.14318816 -0.024666794 0.20560953
0.05553101 -0.19438714 0.12212878 0.6875899 -0.4628842 0.7809188 -0.36060533 -0.69089055
-0.15321225 -0.03258161 -0.47383332 -0.027246922 0.46292707 0.11302343 -0.021821218 0.51484245
-0.21056743 -0.035404686 -0.19128789 0.45709622 -0.075745 -0.10091375 -0.104586184 0.074653216
0.061373275 -0.3779083 0.28798285 0.28827044 0.2606886 0.030929035 0.21974446 0.8660946
-0.041602477 0.10053924 -0.06815163 -0.44464004 -0.054540195 -0.5094329 -0.40992483 -0.35515824
0.010298264 -0.26250586 -0.6164188 -0.30216897 0.18959065 -0.31881392 -0.7567489 0.12929253

network_body._body_endoder.seq_layers.0.bias f4 [128]
00000000: a53f e4bb 285e 92bc cccd 3dbb 437f bebb
00000010: 6d96 90bb 7699 b43b c5f8 72bc 0000 0000
00000020: 38f3 b0bc f3ca 41bb 4ecb d73b dee5 0c3c
00000030: d49c 8cbc 0000 0000 cbfd 07bc 0000 0000
00000040: 289e 2d3c 5eea 7dbc 7445 db3a 0000 0000
00000050: 2120 90bc 83c4 f63b 2d45 20bc f563 2fba
00000060: 0000 0000 81fc 42bc 109e 6fbc 9580 86bc
00000070: 13a0 201d 3535 2abd 80d4 98bc b1f3 d1bb
00000080: 0000 0000 bc0d adbb 1122 5d3b 6816 893b
00000090: 8a52 76bc 5942 0fbb e2c0 55bb d884 74bc
000000a0: e0a8 49b8 f4a8 04bd 3804 ecbb 7681 bb8f
000000b0: 0000 0000 24ac 0dbc 0000 0000 5ed5 043b
000000c0: 64a0 d2bc 179d dfbc cd9c 31bc 97ea 863c
000000d0: 2e12 5fbc 163d e93b d4cc 87bb 276b 06bc
000000e0: 28c2 10ba 232a 8abc 1aea e8b9 3d84 92bc
000000f0: e99f 3d05 8d23 dd3a 0000 0000 180c 1192
00000100: b487 c4bb 9c54 c8bb 0000 0000 0000 0000
00000110: edb0 36bc a421 7fbc 362d 34bc a708 0ebc
00000120: 9131 ef05 b658 1b3c 4756 0396 b061 94bc
00000130: 7075 703c bde7 7b3b 9776 483c 328c d7bc
00000140: 1e71 20bc f1cd 4fbc f1c8 c9bc 78ad e5bb
00000150: 07cd e0bc 262b e23a 58f5 44bc 29c5 6dbc
00000160: 0000 0000 bee6 fcbb 26e0 b6bc 1e64 13bc
00000170: e61e 5c3b 7424 b6ba 8d67 82bc dd61 7cbc
00000180: 88d6 543b 3b74 2e3c 85de f7bc abba bd3b
00000190: f289 2bbc cec5 99bc c366 3a12 8b98 4fbc
000001a0: 6dcc 83bc 4e7f db3b 1aa1 92bb 35e3 49bc
000001b0: b13d bdbc dc04 c1bb 4f27 47ba 827e d7bb
000001c0: af74 abbc 41dc cc3b dcb2 44b6 80a3 aabb
000001d0: d2cd 9c3b 9ad3 9fbc 15a9 413c 0000 0000
000001e0: dba9 9ebc 1d92 83bc 165d 40bc d708 d2bc
000001f0: e776 f8bb db92 0abd 0000 0000 c501 47bc
-0.006965595 -0.017867163 -0.0028961776 -0.0058135106 -0.0044124634 0.005511458 -0.014829819 0.0
-0.02160035 -0.002957043 0.006585515 0.0085997265 -0.017164625 0.0 -0.008300255 0.0
0.010596789 -0.015497772 0.0016729073 0.0 -0.017593445 0.0075307502 -0.009782118 -0.0006690615
0.0 -0.011901022 -0.014625087 -0.016418735 2.125858e-21 -0.04155465 -0.018656015 -0.006407224
0.0 -0.0052811783 0.003374223 0.0041835792 -0.015034327 -0.0021859615 -0.0032616188 -0.014924251
-4.807941e-05 -0.03238769 -0.0072026514 -1.848949e-29 0.0 -0.008646999 0.0 0.0020268778
-0.025711246 -0.027296586 -0.010840607 0.016469283 -0.013615174 0.0071178777 -0.0041442905 -0.008204258
-0.00055220956 -0.016865795 -0.00044424908 -0.017885322 8.916108e-36 0.0016871557 0.0 -4.576884e-28
-0.0059976224 -0.006113602 0.0 0.0 -0.011150581 -0.015571985 -0.010997107 -0.008669055
2.249366e-35 0.0094816 -1.060932e-25 -0.018112987 0.014676437 0.0038437687 0.012235305 -0.026311968
-0.009792594 -0.012683378 -0.02463195 -0.0070092045 -0.027441515 0.0017255291 -0.012021385 -0.014512339
0.0 -0.0077179363 -0.02232368 -0.008996038 0.0033587753 -0.0013896362 -0.015918517 -0.015404192
0.0032476503 0.010647829 -0.030257473 0.005790075 -0.0104699 -0.018771078 5.8817915e-28 -0.012670646
-0.016088689 0.0066985255 -0.004474771 -0.012322237 -0.023100706 -0.005890472 -0.0007597105 -0.00657636
-0.020929663 0.0062518422 -2.9310386e-06 -0.005207479 0.004785278 -0.01951008 0.011820097 0.0
-0.019368103 -0.016060883 -0.011740943 -0.02563898 -0.0075825336 -0.03383146 0.0 -0.012146418

network_body._body_endoder.seq_layers.2.weight f4 [128, 128]
00000000: 6704 96bd f963 0cbe 1a0c c23d bf16 a03d
00000010: ff80 f53d cf34 dbbc 0757 3abd 6ff0 dcbb
00000020: 9c2e f73d 68cd f3bb b323 fb3d cb27 00bd
00000030: 9396 8cbd 8198 5f3e 069e 883c e560 a9bd
00000040: 1a38 acbd b8f7 ddbc 068b 9cbd c69f f3bb
00000050: 019f 11ba d77d 89bc 380c 98bd b76b c73d
00000060: f861 a53d 7ea9 6dbd 3ec1 d1bc 6465 ed3d
00000070: 26f1 683d bc23 71bd 4b3c ff3c 031f 4c3c
00000080: e53a 743d 58df e8bd 7356 a03c 1fe4 12bd
00000090: 5f9b a33c 8c3f 083e 9f92 e8bd 1d1d a93d
000000a0: bab8 1d3d 75c9 933b 83f4 4abd 9b24 d0bd
000000b0: 91a4 2c3d bffc 463e bcf0 25bd dab4 eb3c
000000c0: 2170 81bd c110 80bc 81c4 b33d 9898 7c3d
000000d0: 2c54 02ba 83ec bcbd b0a1 c63c d393 71bd
000000e0: b3f3 a2bc 67ae 80bc 5126 093d 61ea 183b
000000f0: cd12 b0bc 1fdc fd3d 48b2 653b 0ad3 5e3d
00000100: 962a 6dbd 96e6 1c3e 2534 6abd f2ec e8bd
00000110: c2a5 293d a54d 9fbd d516 0fbe 25b8 843b
00000120: 4f66 4ebd 4125 013e dd0a ea3d 3c16 bd3d
00000130: 2a1f 49bb 26ed ff3d 6ba1 d13c 9062 9bba
00000140: 3c38 1ebd afae 02be b13a 3ebe ec15 f43a
00000150: 14c4 ddbd d347 8f3d 1849 a93d fc40 e1bd
00000160: bd8e ecbd 1e3b 413d 6859 773d dc4c be3c
00000170: e0cf 8b3d a068 163d 3440 9cbc ff0c 603d
00000180: ae23 50bd 6ae1 adbd 40a7 0c3d 2999 283d
00000190: de16 a23c 4d72 c93c 57ee 53bd 6a58 913c
000001a0: d00f a2bd 93e6 c5bd f9ee c93d 76e1 05be
000001b0: 47bb f13d d5cc 2abd 0ec7 8abd 6f5d 973d
000001c0: d7a9 68bd ff0a 7a3d 70a1 6bbd 7c2b fdbd
000001d0: 774f 28bd 0dc1 89bd da55 2dbe f3c7 0d3d
000001e0: 4e44 babd 6c26 36bd 51fa b83c 5851 35bd
000001f0: ca8b b93d b751 df3c ca4d 0ebc bdbf 14be
00000200: 2037 9b3d b2d4 c53d b01c b3bb 44a9 b9bd
00000210: 923c 1a3e 3d6f 39bd 7904 7bbc a223 d03c
00000220: ebdd 0c3e 3d04 d1bc e9e6 99bd 4ef5 22be
00000230: f731 a5bd 4720 293d 1f07 d6bc 20ff 16be
00000240: 7315 113e 8422 ae3a 158d 35bd cf6c be3d
00000250: 822f 0e3e 492a da3d b180 263d ab59 cb3d
00000260: b3d0 8ebc 2621 eabc 7a01 003d 4808 ddbc
00000270: 81ab 343d c91e d2bd 10b0 5dbd 182e c03c
00000280: 8d14 2bbd 9f11 e6bd 64b0 02bd b02c ab3c
00000290: 42fe 693d 8c48 38bd 326c d43d 4e8c 843d
000002a0: bafe 2fbc 3527 a5bc bc29 a5bc ab31 c8bc
000002b0: 303a f73a a2d9 383b 9c4c 56bc b14f 393e
000002c0: 9959 22bc 275f 923d b554 ec3d 3d68 c3bd
000002d0: 2296 ddbd 710a 1d3c 15c8 e53d 447b 64bd
000002e0: 68ca f6bd 1581 453d 4c6a 353e fe03 fc3c
000002f0: 8e18 1a3c 6dd5 5fbd 9773 abbc 77c0 e33d
00000300: 4357 ba3b 7afe 343d ab35 06bd 0dbb c53d
00000310: cf60 8b3d 5aa4 f0bd e8b1 a3bd d35b 5fbe
00000320: a0e8 f33d cf0d 1d3d e0b8 87bd 3079 5fbd
00000330: 29e9 e73d a882 0d3d 8900 5ebd 61cc 4abe
00000340: aa36 9b3d 8b67 e1bd 0fed 81bc db2e 983d
00000350: 8ab4 fbbc c297 0c3e 311e 9fbd 029b 65bd
00000360: 2132 03bd 6020 2b3d f0bf f4bc 17c2 a23d
00000370: 42de d0bd bef8 09bd 6b49 cbbb 4a18 10bd
00000380: a305 b2bc 90fc fcbd b1f3 9cbd 409f 0b3d
00000390: b589 bc3d acf0 023e 579a d43c 5c49 38be
000003a0: 454a a43d 3890 fdbb 7ed8 0e3d 7132 d03c
000003b0: bd8b 7f3d 2e04 0c3e d28c 893d 9c62 253d
000003c0: b450 d9bc b5d3 233e b65d 343c 55fc 94bd
000003d0: fb9d 913c 98ba 29ba b4ca 69bd 920d 033e
000003e0: 0afd a6bd 8548 98b9 d0ee ea3c c14b 9cbd
000003f0: 3069 873b 86c8 cfbd 9f5f 77bd ef1d c0bd
-0.073250584 -0.13710012 0.094749644 0.078168385 0.11987495 -0.02675858 -0.045493152 -0.006742529
0.12069437 -0.007440258 0.122626685 -0.03128795 -0.06864657 0.2183552 0.016676914 -0.08270434
-0.08409138 -0.02709566 -0.07643704 -0.007434818 -0.00055550045 -0.016783638 -0.074242055 0.09737342
0.08075327 -0.05802297 -0.02560484 0.11591604 0.056870602 -0.05887197 0.03115668 0.012458566
0.05962648 -0.113707244 0.019572472 -0.035862084 0.019971548 0.13305491 -0.11356091 0.08257506
0.038506247 0.0045100995 -0.04954959 -0.10163232 0.04214913 0.19432352 -0.040512785 0.02877276
-0.06320215 -0.015632989 0.087777145 0.061668962 -0.0004971649 -0.092247985 0.02424702 -0.058978867
-0.019891595 -0.015708162 0.033483807 0.002333306 -0.02149334 0.123955004 0.003504889 0.05440048
-0.05790194 0.15322337 -0.057178635 -0.11373319 0.041417845 -0.077784814 -0.13973553 0.004050272
-0.050390538 0.12611867 0.11427853 0.092327565 -0.0030688741 0.12496404 0.025589665 -0.0011854935
-0.038627848 -0.12761949 -0.18577076 0.0018622256 -0.108284146 0.06996121 0.08265895 -0.10998723
-0.11550663 0.04717552 0.060388 0.023230009 0.068267584 0.036720872 -0.019073583 0.054699894
-0.050815277 -0.0849026 0.03433919 0.04116169 0.019786295 0.024590636 -0.05174097 0.017742354
-0.07913172 -0.09663119 0.098600335 -0.13074288 0.118032984 -0.04169925 -0.06776248 0.07390868
-0.056802597 0.061045643 -0.057527006 -0.123618096 -0.04109141 -0.06726275 -0.16927281 0.034614515
-0.09095059 -0.044470236 0.022580298 -0.04426703 0.09059866 0.027260644 -0.008685539 -0.14526267
0.07578874 0.09659709 -0.0054660663 -0.09065488 0.15062168 -0.0452721 -0.015320891 0.025407616
0.1375653 -0.025514716 -0.07514746 -0.15913889 -0.08066171 0.041290548 -0.026126442 -0.1474576
0.14168338 0.0013285433 -0.044324 0.09298097 0.1388531 0.106525965 0.040650073 0.09929212
-0.0174335 -0.02858026 0.03125141 -0.026981488 0.04410887 -0.10259778 -0.054122984 0.02345948
-0.041767646 -0.1123383 -0.0319065 0.020895332 0.057127245 -0.04499106 0.10372199 0.064720735
-0.010741884 -0.020160297 -0.020161502 -0.024437746 0.0018861946 0.002820589 -0.013079789 0.18096806
-0.009909057 0.07147055 0.11539594 -0.09541366 -0.10819651 0.009585009 0.11219803 -0.055781618
-0.12050325 0.048218805 0.1771633 0.030763622 0.009405268 -0.054646898 -0.020929141 0.11120694
0.005686672 0.044188 -0.032766026 0.09654818 0.06805574 -0.117500976 -0.07992917 -0.21812372
0.11909604 0.038343247 -0.06627059 -0.054558933 0.11323769 0.03454843 -0.05419973 -0.19804527
0.07578786 -0.110060774 -0.015860109 0.07430812 -0.030725736 0.13729766 -0.077694304 -0.05605603
-0.03203023 0.041778922 -0.02987668 0.07947176 -0.10198642 -0.033684485 -0.0062038205 -0.035179414
-0.021731203 -0.1235286 -0.07663668 0.03408742 0.09205953 0.12787122 0.025952501 -0.17996734
0.08021978 -0.0077381395 0.03487443 0.025414677 0.062389124 0.1367347 0.067163125 0.040377244
-0.02652774 0.15998729 0.011008671 -0.07274691 0.017775526 -0.0006474643 -0.05707808 0.12798145
-0.08153732 -0.0002904573 0.028678328 -0.076316364 0.0041324124 -0.10145669 -0.060393926 -0.093807094

network_body._body_endoder.seq_layers.2.bias f4 [128]
00000000: 73dc 0cbc 6fc9 10bb 67b4 d0ba d9fd ffbb
00000010: 0549 df9e 0000 0000 0000 0000 6412 49bc
00000020: 2b4b ee37 4834 91a7 5ef3 cbba 1d42 3e3c
00000030: 0000 0000 c260 44bb 5e47 b8b4 dfa2 f3bb
00000040: f765 413a 3b80 8ebc 0000 0000 b277 51bc
00000050: 0909 873c 861a eaba f9d7 b4bb d4f4 8bb9
00000060: 8dc4 b1bb a996 89bc 1236 b6bb 49f6 4795
00000070: ef4c d4bb 053e b93a 0000 0000 c8bd 2cbc
00000080: e05f b3b9 af84 1dbb 027f a539 3849 b4b9
00000090: 7574 cf3b cf0a 07bc 9194 edbb 0000 0000
000000a0: 4ddf b0bb 2c7f dd26 ca4b 2ebb 9936 49bb
000000b0: 8d47 cc3b 3136 04bc 952c 96bb 6982 6ebb
000000c0: 0c38 08bc f303 0b3b 6b0b 31bb e591 1422
000000d0: b98e 49bc 146c 87ba 16e1 b8bb ad11 05bc
000000e0: f77e 4b0f d0cd 6fba a3cd 52bc b988 52bb
000000f0: 10f4 21bb f28e ac3a df68 09bb cb73 f9ba
00000100: 0000 0000 9cc5 bdbc a89c 31bb 40bf 87bb
00000110: b70a 253b 07cd 78bb d531 8bbc 8599 b7bb
00000120: 5c9b b8bb c641 21bc c9b4 04a6 0000 0000
00000130: 1a8c 94ba c748 1abc 8f92 2db9 b96b 963b
00000140: dc44 22bc 7046 8dbb 0000 0000 9d28 bca8
00000150: 0000 0000 363c 3fbb 9354 03bc cec1 b4bb
00000160: 59d9 25bb 5b44 22bb 88a8 a8ba 7747 083c
00000170: 0daa 18bc b480 72bc 6de6 f2bb 6721 1aba
00000180: 3ace 57bc 91e2 b138 2fb8 8220 5923 f2bb
00000190: c624 993b 0000 0000 73a7 b7ba 3c4f 61bc
000001a0: 0000 0000 dd2b debb 0000 0000 6ea1 1bbc
000001b0: b86b d43a 0000 0000 6080 6f3b 94b4 e8ba
000001c0: 0000 0000 8d96 003c 0000 0000 7322 e13b
000001d0: e6d0 38bb 8f22 9c3c d980 50bb 4f1b 66bc
000001e0: d260 07bc bbb7 9cbb 9691 30bc 89b8 b4bb
000001f0: cac7 43bb 0000 0000 0678 803b 0000 0000
-0.008597481 -0.002209272 -0.0015922905 -0.0078122434 -2.3641244e-20 0.0 0.0 -0.012272451
2.8406814e-05 -4.030227e-15 -0.00155602 0.011612442 0.0 -0.0029964899 -3.4324597e-07 -0.007435187
0.00073775597 -0.01739513 0.0 -0.012784885 0.0164838 -0.0017860688 -0.00551891 -0.00026694557
-0.005425042 -0.016795473 -0.005560645 -4.0382015e-26 -0.0064788978 0.0014132863 0.0 -0.010543294
-0.00034212973 -0.0024035384 0.0003156588 -0.00034386828 0.0063310214 -0.008242323 -0.0072503765 0.0
-0.0053977133 1.5369426e-15 -0.0026595467 -0.0030702709 0.0062341155 -0.008069561 -0.0045829513 -0.0036393648
-0.008314144 0.002121207 -0.0027014862 2.0134976e-18 -0.012302094 -0.0010331892 -0.0056420667 -0.00812189
1.0033125e-29 -0.0009147795 -0.01286641 -0.003212495 -0.0024712123 0.001316516 -0.002096705 -0.0019031701
0.0 -0.023165517 -0.002710143 -0.004142672 0.0025183388 -0.0037964003 -0.016991535 -0.0056030178
-0.0056337547 -0.009842342 -4.604171e-16 0.0 -0.0011333257 -0.0094167655 -0.00016553163 0.0045904783
-0.009904113 -0.0043113753 0.0 -2.0889806e-14 0.0 -0.0029180176 -0.0080157695 -0.0055162674
-0.0025306551 -0.0024759981 -0.0012867609 0.00831782 -0.009317887 -0.014801193 -0.007412723 -0.0005879611
-0.013171727 8.482219e-05 2.214474e-19 -0.0073894677 0.004673573 0.0 -0.0014011696 -0.013751801
0.0 -0.0067801313 0.0 -0.009498937 0.0016206419 0.0 0.0036545023 -0.0017754012
0.0 0.007848394 0.0 0.0068705617 -0.0028200685 0.019059448 -0.003181508 -0.014044597
-0.00826283 -0.0047826446 -0.010776898 -0.0055151624 -0.0029873722 0.0 0.003920558 0.0

network_body._body_endoder.seq_layers.4.weight f4 [128, 128]
00000000: 500e 323d 7546 4ebd 6e09 9dbd dcff cebd
00000010: e85e f0bc 9583 11be 943a ae3c 580d 5cbd
00000020: 9777 8cbe a4fc ebbd 626b 413d ee0b 813d
00000030: 3901 8ebd b2cf 953d 5736 193d 700d cfbd
00000040: 579e 2a3e 4ebf ca3a be87 a9bb 22e6 1dbc
00000050: c894 3b3d 2500 dfbd e924 fbbc 76d6 b33d
00000060: da4a fc3d 304c 87bd c575 e9bd 34b7 2fbe
00000070: 4f9a 123c 5af4 47bd aca0 353c 6d3c d4bd
00000080: 72ad 1f3d 5d58 c13b 715a 17be 248f 2ebd
00000090: 3d6a 213c ab44 603d d581 e2bd 09b5 9e3b
000000a0: fad0 493c 430c 543e 94f7 90bd 6a10 febc
000000b0: b153 04bc c6fb 27bc 8883 f03c f1af 11bd
000000c0: a385 a7bc fe1b 6a3d e129 a93d c0a9 083e
000000d0: d3dd 3bbd e105 853d b42d 363d 0327 4c3d
000000e0: de0c 68bc 50d9 463b fb0a da3d 54bb b4bd
000000f0: 24dd e0bd eb30 bcbd 18d9 19bd 4a55 72ba
00000100: 3c0e 2a3d 66a9 fd3c b582 80bc fc8b 10be
00000110: 8f06 3f3b 3f6a 6cbc ae0d f3bc 0fac 353e
00000120: e7e6 8b3d 07e9 473c 7dfe 08be 8a67 793d
00000130: 1985 933b a65f 8dbd 3dab 3fbd 9927 c5bd
00000140: ac6e a83d 89b3 d13a 1b2d dc3d e76a f93d
00000150: f609 273d b0a0 d0bd 6808 123e 7657 a8bd
00000160: 2a02 9d3d c137 2a3c 9959 9cbc 36d1 4a3d
00000170: 6718 013e e537 093c 3abf edbd 1fd9 873c
00000180: 7f40 4abc 8783 bb3c 393f ffbd dd00 233e
00000190: 5037 dabc ff95 d33d 1054 f0bd 1faf 36be
000001a0: 8409 7dbb 21a9 54bc d7e7 70bd 19e3 a7bd
000001b0: 6186 bf3d 20ba c23d dde0 25be b4f3 7bbe
000001c0: 88a0 18bd a8a0 103d 53e3 85bd 2732 62bd
000001d0: 0569 2e3d 3860 a43d c7ad cf3b 30b0 763d
000001e0: 3f66 50be f1f4 1cbe 5c44 e53c 6f43 6bbd
000001f0: 15a6 29bd 6de3 fa3c e4b0 103e bf32 72bd
00000200: fed7 363c 16ba d33d f81e 36bd e061 8f3c
00000210: 9112 edbd b3f5 10bc ded7 dfbc c742 35bc
00000220: 3877 383c 7243 443d 9119 823d 285b 8abd
00000230: 18fa 373d e231 b93d 0fc9 6d3d be10 aebd
00000240: fe62 233d 21fb d4bd 5556 23bb 1261 053e
00000250: dfa8 9c3d 35a8 063d 7b5f 70bc bb41 83bd
00000260: c32e 20bd ee0c 0b3e a58f 663c 9faf a73d
00000270: 3996 2fbd 628c 47bc d68b f4bb c3ff 0b3c
00000280: 4989 033e c6b0 c03d 48a9 2fbd c037 823a
00000290: 1208 4bbd d239 16bd aa88 b23d 2dd4 81bd
000002a0: 1274 3d3d bb57 c7bc 3f35 a6bb 9d25 4ebd
000002b0: 23bc 0dbe 0474 f039 a6c8 a7bd 1096 803d
000002c0: e7fb 413d 4bcc 33bd 3039 5ebd c1e0 5a3e
000002d0: 4bbf 71bd a022 c939 9268 bc3d 35df 833d
000002e0: 98b1 583d 719f 03bd e0a8 9d3d 7d4d bcbc
000002f0: 5803 fa3b 274b 7bbb 047c 5cbd 33d7 e4bd
00000300: 5370 f4bc e8de fbbd bb5f 413e 2776 ae3a
00000310: 169b 27be 1a55 40bd 7a8c 21be f7e1 c53b
00000320: 2d72 943c 8e6e 443d 43be 773e cc95 1cbd
00000330: a28f 09bd 628e 1dbe df03 99bd 6869 b53c
00000340: 1bc3 f0bd c6b8 45bd 0432 003d f37f 603e
00000350: 8a79 5ebd a238 263d a137 123e b31b 97bd
00000360: 066f e73d e962 fbbc 209d ed3d e22a 823d
00000370: 7206 0ebd 95ed 3bbc c82c 5a3e effb f0bd
00000380: 7c39 c8bb 1957 383e 8bc6 9b3d e9eb faba
00000390: e869 5fbc 2277 28bb 79f8 9abd d8f9 adbd
000003a0: 3e0c cc3c bc9a 22bd cf7f dcbc 73c2 f13d
000003b0: 31be 09be df66 843d 4c53 79bc deeb 5e3e
000003c0: 51af 813c 350e e93c 1901 81bd b07b 20be
000003d0: 2f64 a4bd 96ce f33d 7252 bd3d 8422 46bc
000003e0: 25a1 ea3d 1f46 f8bc f8fd a63d e6b6 d2bb
000003f0: 09ca 363d 8ecd 4c3e 9f8a ccbc 9bb9 f53d
0.04347068 -0.05036016 -0.07667814 -0.10107395 -0.02934213 -0.14210351 0.021268167 -0.053723663
-0.2743499 -0.11522797 0.04722155 0.063011035 -0.06933827 0.07315005 0.03740534 -0.10109985
0.16661964 0.001546839 -0.0051736524 -0.0096373875 0.045796186 -0.108886994 -0.030657249 0.087811396
0.12318964 -0.066063285 -0.11399416 -0.1715973 0.008947923 -0.048817016 0.01108567 -0.10363088
0.03898377 0.0059004263 -0.14780594 -0.04261698 0.009851989 0.054752987 -0.1105992 0.0048433584
0.01231789 0.20707802 -0.07078472 -0.031013686 -0.008076594 -0.010252899 0.029359594 -0.03556818
-0.020449465 0.0571556 0.08259941 0.13346004 -0.045865845 0.06495262 0.04447718 0.049841892
-0.014163224 0.003034193 0.106466256 -0.088247925 -0.10979679 -0.09189018 -0.037560552 -0.00092442764
0.04151748 0.030964565 -0.015687326 -0.141159 0.0029148196 -0.014429628 -0.029669609 0.17741416
0.068311505 0.012201554 -0.1337833 0.06088976 0.0045019505 -0.06903009 -0.046794165 -0.09626693
0.08224234 0.001599894 0.10750791 0.12178593 0.040780984 -0.10186899 0.14261019 -0.08219807
0.076664284 0.010389269 -0.019085692 0.049515925 0.12606965 0.008375143 -0.11608739 0.016583024
-0.012344479 0.022889866 -0.12463231 0.15918298 -0.026637703 0.10331344 -0.11734784 -0.17840241
-0.0038610408 -0.012979777 -0.05881485 -0.08197612 0.093518026 0.09508157 -0.1619906 -0.24604684
-0.03726247 0.035309464 -0.06537499 -0.05522361 0.042580623 0.08026165 0.0063378545 0.06022662
-0.20351504 -0.15327813 0.027986698 -0.057437357 -0.041418154 0.030626023 0.14129978 -0.059130426
0.011159895 0.103382275 -0.044463128 0.017502725 -0.11575807 -0.008847642 -0.027324613 -0.011063284
0.011258893 0.047915883 0.06352533 -0.06755668 0.044916242 0.090427175 0.058053073 -0.08499287
0.03988933 -0.103994615 -0.0024923284 0.1302531 0.07649397 0.03287526 -0.014671202 -0.064090215
-0.039107095 0.13579151 0.014072333 0.08187794 -0.042867873 -0.012179466 -0.007462959 0.008544865
0.12845339 0.09408717 -0.04288605 0.0009934828 -0.049568243 -0.036676235 0.08717473 -0.063392974
0.04625327 -0.024333825 -0.0050722654 -0.05032884 -0.138413 0.00045862806 -0.081925675 0.06278622
0.047359373 -0.043896 -0.054253757 0.213748 -0.05902032 0.00038363505 0.09199633 0.06439058
0.05290374 -0.032134477 0.07698226 -0.022986168 0.007629793 -0.0038344355 -0.053829208 -0.111738585
-0.029838717 -0.12298375 0.18884175 0.0013310359 -0.16367754 -0.04695616 -0.15776244 0.0060389
0.01812085 0.047956996 0.24193673 -0.038228795 -0.033584245 -0.15386346 -0.074714415 0.022144988
-0.117559634 -0.048271917 0.0312977 0.21923809 -0.054315127 0.040581353 0.14279033 -0.0737833
0.11300473 -0.030686812 0.11602235 0.063558355 -0.034674115 -0.011470218 0.21306145 -0.117668025
-0.0061103683 0.18001975 0.076062284 -0.0019143793 -0.01363609 -0.0025705774 -0.07566924 -0.084949195
0.024908181 -0.039698347 -0.026916413 0.11804666 -0.13451459 0.064649336 -0.015217613 0.21769664
0.015830668 0.028449157 -0.062990375 -0.15672183 -0.08026921 0.119046375 0.09244241 -0.01209319
0.11456517 -0.030306874 0.081539094 -0.0064304946 0.04462627 0.20000288 -0.024968443 0.11998292

network_body._body_endoder.seq_layers.4.bias f4 [128]
00000000: a861 0bbc 323d b0bb 32cf 8ebb cbac cf3b
00000010: 0000 0000 24d0 78bc 6d00 2bbc 3b6a 9a3b
00000020: d6eb 28bc 528f 1b3b d1ec 10bc 0000 0000
00000030: d68e 65bb 1087 2abc e949 4ebb 0000 0000
00000040: 68fa a13a d535 053b 2411 413b 1610 a1bb
00000050: 81f2 603a a84f 0dbc 128e 01bc 679d 85bc
00000060: 0000 0000 8213 44bc d4ea 2d3b b358 7d8e
00000070: 9c44 cdb9 3cda 3dbc b550 aabb 7505 9ebb
00000080: 0000 0000 7c8a 96bb f7f2 cc3a 6097 ae3b
00000090: 56ba 58ba 9559 34bc 75f5 f13a e560 b1bb
000000a0: 23a2 1b3b 8d91 3da4 eab0 6dbc 3939 1cbb
000000b0: 5c0c 733c 3717 823b 1256 653b 1673 bbbc
000000c0: 1906 57bc 78f3 bfbb 0a1e bdbc 76e4 4a3b
000000d0: 9d18 a13b e1e6 f6b9 0000 0000 9b5a 1dbb
000000e0: 4a93 5c9f 53e9 0b3a d601 2c2c 24fa 21bc
000000f0: dd52 55bb dda0 dbbb 9b01 edbb 0000 0000
00000100: 1560 f6bb e332 3c3b d59c 0f3b e6a9 0cbc
00000110: ae7c 52bc 5d16 333b cef6 8ebb 2659 ed1b
00000120: 30fc 4b3a 8a75 893c 3398 c2bc cfb5 153c
00000130: 706d 42bc a08c 1abc 56b9 173c 24dc 57bb
00000140: 588f 993b 85c3 c7bb 26cc 95b9 f836 20a4
00000150: e71a 17bb a922 1cbc a28b 3fbc 0db5 2dbb
00000160: 0000 0000 cb1c 6dbc 81a1 17bc 14d1 87bb
00000170: f4ea ee3a 1ad1 12bc 642b 50bb 0ee2 8a3b
00000180: aa3d 41bb f401 a710 afaa 0da3 5fc1 0fbc
00000190: 4084 a13c 5b6b 623b 048b 92bb 2afd 873a
000001a0: 029b c639 ca29 1d1e 7c73 a9bc e06c b8bb
000001b0: 8f5a 05bc 7ebc 433b 46f3 e2bb 1447 623b
000001c0: ac5a a7b9 e1b8 3b3c e81c c5bc 332d a4ba
000001d0: 0a7b 76bc 0113 21bc 2181 53bc d1db 23ba
000001e0: 6d62 7ab1 81b5 88bb a962 7cba 377a e9bb
000001f0: bf7b 42bc b4bd 38bb 8455 f6ba 005f 00bc
-0.00850717 -0.005378389 -0.0043581957 0.006337737 0.0 -0.015186343 -0.010437113 0.0047123707
-0.010310134 0.0023736549 -0.008845524 0.0 -0.0035027764 -0.010408178 -0.003147716 0.0
0.0012357952 0.0020326276 0.002945968 -0.0049152477 0.0008581058 -0.008624949 -0.007907407 -0.016310407
0.0 -0.011967542 0.0026537674 -3.1227365e-30 -0.00039151765 -0.011587676 -0.0051976093 -0.004822428
0.0 -0.0045941453 0.0015636374 0.005328104 -0.00082675123 -0.011007686 0.0018459993 -0.005413162
0.0023747764 -4.110613e-17 -0.014507512 -0.0023837818 0.01483449 0.0039700526 0.003499393 -0.022882026
-0.013124012 -0.005857881 -0.023085613 0.0030958927 0.004916264 -0.00047092795 0.0 -0.0024010304
-4.6708647e-20 0.0005337197 2.444369e-12 -0.009886298 -0.003255061 -0.006702526 -0.0072328574 0.0
-0.007518778 0.0028716854 0.0021913548 -0.008585429 -0.012847109 0.0027326562 -0.0043629175 3.9265972e-22
0.00077814143 0.01677968 -0.023754215 0.009137585 -0.011866912 -0.009432942 0.009260496 -0.003293761
0.0046862774 -0.006096306 -0.00028571597 -3.474103e-17 -0.0023056807 -0.009529748 -0.011691006 -0.002650562
0.0 -0.014472197 -0.009254814 -0.004144797 0.001822798 -0.0089609865 -0.0031764144 0.0042383736
-0.0029486218 6.5872895e-29 -7.679769e-18 -0.008774131 0.019716382 0.0034548852 -0.0044721384 0.0010375131
0.00037880993 8.3201526e-21 -0.02068495 -0.0056282133 -0.008139267 0.0029866989 -0.006925973 0.003452723
-0.00031920278 0.011457653 -0.024061635 -0.0012525677 -0.015043983 -0.009831191 -0.012909205 -0.0006250712
-3.6435737e-09 -0.0041720276 -0.00096277386 -0.007125165 -0.011870324 -0.0028189244 -0.0018793796 -0.00783515

action_model._continuous_distribution.log_sigma f4 [1, 2]
00000000: bc43 943d 9057 8a3d
0.07239482 0.067549825

action_model._continuous_distribution.mu.weight f4 [2, 128]
00000000: 5215 3bbc 2016 8b3c 9201 fb3b 3178 8fbc
00000010: e53f 813c f74d 423b 565d 0dba ffc7 37bc
00000020: 7d61 6a3c 0b9d 0e3c db27 f33a f529 bb3c
00000030: d3ce 33bc 2a6f f63b 7f74 20bc 5a61 8cbb
00000040: 06c7 1f3c 124e 01bd b909 173c cb09 303c
00000050: dd83 9abc c1eb f9bb 4946 9e3b 510f 08bc
00000060: d616 b0bb 5624 af3b 6a19 41bd 9254 32bc
00000070: 0f31 73bb 754b c93c d812 c23c eac7 883c
00000080: 2a20 643b db5c 9a3a 38ba 543c 7401 a6bc
00000090: 2d38 01bd 9c99 3dbb 37b1 42bd f1dd bebc
000000a0: 6300 b4bc c538 a43b 84cf 61bc c559 adb9
000000b0: 77a9 b6bc d3ce babc b11e 23bc b5f9 7fbc
000000c0: d733 d93a 2e5b 133d abe2 0ebd 6d4c 28bc
000000d0: 90d2 a8bc 4ae9 5abb d5ca abbb 1662 8a3b
000000e0: be47 3abc 995a 423c 8145 c0bc 9408 b0ba
000000f0: 7555 523c e3bf 30bd 224b 933b fbcd c23a
00000100: bc06 b7bc ff11 18bd f17b 71bc 58c2 01bc
00000110: 6a69 c93b 3d2f dab9 5ec0 84bc fb0b 313c
00000120: 7f1e fab9 d930 d1bc fe34 1f39 41ba fabc
00000130: bf98 5b3c c58d 8bbc 80ee b9bc 6804 763c
00000140: de2d c2bc dd9b 153d 6594 80bc 3f13 933b
00000150: 2356 05bd 7b7f 97bb dc6a cdbc cceb f0b9
00000160: c772 36bc 425f a7ba 6c34 1abd e4f7 373b
00000170: 2310 c93c f7e6 b8bb 47b5 21bd e2e6 b2bc
00000180: 2767 2bbd 7910 1d3b 9236 1d38 fea3 99bc
00000190: c2e9 73bc a2ce 14bc 6e03 2abc 89c7 0cbd
000001a0: 0e82 94bb 0739 5e3c 3cdf 8cbb 78f6 0cbd
000001b0: d2bf c73c dde2 eebc 3f66 983b c594 02bd
000001c0: e7a5 183c 070a abbc 5f6f 393b dc83 d9bc
000001d0: bff8 27bd c974 7fbc 5959 a23c 0238 b83c
000001e0: 1aea 91bb c4dc 063c 2ea1 35ba 609c 9abb
000001f0: 15e6 803b 30ec 4ebd 65e9 ecbc 254b fc3c
00000200: c534 04bb e1a9 153c 8f8e efbb e597 11bd
00000210: 1833 d5bb b33a 073c c38a 7d3b 3af6 55bd
00000220: 8295 da3a 641b b9bc fa49 85bc 5a5f 73bc
00000230: bbbf 693c a738 f73a 5564 62ba 38c6 ee3b
00000240: e846 8fbc 0d55 30bd 0049 40bd bac6 03bd
00000250: 6529 cf3c 4e61 e83b 5fc7 a03c 810f 42bb
00000260: fd5d 55bc d8d8 233d 5018 60bd 5c68 0ebc
00000270: f6e6 073d 83df f4bc 42b8 e2bb cbd9 c4ba
00000280: b218 eabb 37d8 c2bb 7cd7 27bd 3d7b febc
00000290: b8eb 1cbd e3af e13c 7329 56bd 5f27 6b3c
000002a0: 11f8 09bd 4780 5e3c b9d6 abbc e44c 80bc
000002b0: e596 32bd da06 38bd 5181 4dbd c70c d8bc
000002c0: 1fc9 d6ba 30b6 48bc 47ee e2bc 4acd 13bd
000002d0: 932c 97bd c2ac 08bd 0b10 a73b 9f49 31bc
000002e0: 2b31 98bb 673b 9cbc f42a b23c 5a42 04bc
000002f0: c39d 203c c754 68bc 3487 58bc d653 a73b
00000300: 3e01 b6bc f9ea 5dbd 2e0b 5ebd 5b42 a7bb
00000310: 0301 6abb ed71 1bbd 7371 a43c 5fc2 15bc
00000320: b443 433d 0e0b 1fbd b05a 5e3b 68bd 88bc
00000330: 7e24 583b 79f9 7f3c e939 37bd e2d6 6abb
00000340: fa61 3bbd 456c 7abc 47da 663c a486 0d3d
00000350: c47c dabc 3105 0b3b 17dc 5d3c 80a3 a6bc
00000360: ef47 1ebb a7ab ce3c d04c 43bd 5422 273b
00000370: d3ed dfbb ca5b 80bc 8b82 39bc 5865 773b
00000380: d8d8 c7bc bab4 a33b 8e4e 9bbc ca31 6dbc
00000390: edcf 1fbd 5170 75bc 2173 d03c 3dac aabd
000003a0: b45b bcbc 16bd 04bc a5b7 a03a 6966 89bc
000003b0: 003c 833b 29d7 3abd 2cd4 5bbb b967 59bd
000003c0: db56 c3ba db74 4abd e348 71bb be8a 50bc
000003d0: 1c18 12bd d658 833c 5418 9a3a a582 c4bc
000003e0: faee 15bd 1074 943c 9314 aabc b76f f6bc
000003f0: 0ea8 163c 3375 31bc 03cb 0a3b 193d 5bbb
-0.011418657 0.016978323 0.0076600993 -0.017513366 0.015777538 0.0029648521 -0.0005392631 -0.011217116
0.01430547 0.008704434 0.0018551307 0.022847155 -0.010974604 0.007520576 -0.0097934 -0.004284066
0.009752041 -0.031568594 0.009218627 0.010744522 -0.018861705 -0.007626981 0.004830156 -0.008304433
-0.005373816 0.0053449078 -0.047143377 -0.010884421 -0.0037108099 0.024572114 0.023690626 0.016696889
0.003480921 0.0011776941 0.012983851 -0.020264365 -0.031547714 -0.002893067 -0.047532286 -0.02329919
-0.02197284 0.0050116503 -0.013782386 -0.00033064015 -0.022297604 -0.0228037 -0.009956048 -0.0156235
0.0016571236 0.035975628 -0.034884136 -0.010272128 -0.020608217 -0.0033403211 -0.0052426853 0.0042231185
-0.011369644 0.0118624205 -0.023470642 -0.0013430291 0.012837757 -0.043151747 0.0044950405 0.0014862412
-0.022342078 -0.037126537 -0.014739023 -0.00791987 0.0061465995 -0.00041615395 -0.01620501 0.010806079
-0.00047706437 -0.025535988 0.00015183163 -0.03060639 0.013403117 -0.017035374 -0.022696733 0.015015699
-0.023703512 0.036525596 -0.01569576 0.0044883783 -0.03255285 -0.004623351 -0.025075369 -0.0004595205
-0.0111357635 -0.0012769478 -0.03764765 0.0028071338 0.024543827 -0.0056427675 -0.03947952 -0.02183861
-0.04184642 0.0023966117 3.748254e-05 -0.018754955 -0.014887275 -0.009082468 -0.010376794 -0.03436998
-0.0045321053 0.013563401 -0.0042990725 -0.03441474 0.02438346 -0.029160911 0.0046508606 -0.03188016
0.009316898 -0.020878805 0.0028295142 -0.026552133 -0.041008707 -0.015591809 0.019817995 0.022487644
-0.004452956 0.008231346 -0.00069286197 -0.0047183484 0.003933678 -0.050518215 -0.028919885 0.03079755
-0.0020173055 0.009134741 -0.0073106955 -0.03554525 -0.006506335 0.008253741 0.0038687445 -0.052236773
0.0016676637 -0.022596069 -0.016270626 -0.014854277 0.0142669035 0.0018861488 -0.00086361665 0.007286813
-0.017489865 -0.04304986 -0.04694462 -0.032171942 0.025288293 0.0070916777 0.019626318 -0.0029611292
-0.013022897 0.04000172 -0.054710686 -0.008691873 0.033179246 -0.029891735 -0.006918938 -0.0015018521
-0.007144057 -0.005946185 -0.040976986 -0.031064624 -0.038310736 0.02754969 -0.052285623 0.0143526485
-0.03368384 0.013580388 -0.020976411 -0.015661664 -0.043600935 -0.04492841 -0.050172154 -0.02637328
-0.0016386843 -0.012250468 -0.02770151 -0.03608445 -0.07381549 -0.03336788 0.005098348 -0.010820775
-0.004644533 -0.019071294 0.021748997 -0.00807246 0.009803238 -0.014180369 -0.013215829 0.0051064296
-0.02221739 -0.054179166 -0.05420988 -0.0051043457 -0.003570617 -0.037950445 0.020073628 -0.00914058
0.04767199 -0.038828902 0.0033928566 -0.016691878 0.0032980735 0.015623444 -0.04473296 -0.0035833647
-0.045747735 -0.0152846025 0.014090127 0.03455223 -0.026670821 0.002121281 0.013541243 -0.020341635
-0.0024151762 0.025228335 -0.047680676 0.002550264 -0.006833771 -0.015668768 -0.011322628 0.0037749615
-0.024395391 0.0049959095 -0.018958356 -0.014477203 -0.039016653 -0.014980392 0.025445523 -0.08333633
-0.022992946 -0.008101722 0.0012261762 -0.016772466 0.0040049553 -0.04561535 -0.0033543212 -0.053077433
-0.0014903204 -0.04942785 -0.0036817126 -0.012728391 -0.035667524 0.016033571 0.0011756518 -0.023988077
-0.03660486 0.01812175 -0.020761764 -0.030082567 0.009195341 -0.010831165 0.0021178133 -0.0033453165

action_model._continuous_distribution.mu.bias f4 [2]
00000000: 3969 d3ba 6109 b4bb
-0.0016129381 -0.005494282

action_model._discrete_distribution.branches.0.weight f4 [1, 128]
00000000: 9d47 833a c486 06bb 887c 5cbc f7a0 933b
00000010: b86a 8abb ce09 44bb 38f6 72bc 6fb2 48bc
00000020: bae7 debb 41d8 acbb 4bf5 9e3b b494 84ba
00000030: b838 29bb c43e 1fbb e6f5 44bc a5d7 16bc
00000040: 9d05 f73b 801d 513a 697b 1dbc bd93 38bb
00000050: 5488 31bc fdba 97bb 08c0 06bc 8391 cb3a
00000060: f58c 30ba 733c 2a3c 36e1 96bc e036 a73b
00000070: 68c0 cb3b a59f 76bc 10d4 bc3b 1e46 01bb
00000080: c2cc 6aba 2b3f 8ebb 2442 4a3a 531f 463a
00000090: b135 2a3a e7e6 123c 63d5 4dba c2bf 3dbc
000000a0: f92d 8dbc 6d75 e03b 3639 28bc e7d7 973c
000000b0: c445 383b 847e a3bb eb5b 203a 4183 43bb
000000c0: f385 8e3b 5070 5abc 8a4c 673b 55c0 eabb
000000d0: 5c52 303b 4ffe a93c adfc 5bbb 1185 99bb
000000e0: d843 073b 2b4c ca3b 5784 f9ba 1f49 2bbb
000000f0: 7db2 be3b dafe 8bba 0bdc 6fba 0289 113c
00000100: 2f44 f0bb e01b 813c 2f98 043b 27cd 44bc
00000110: dd16 c4b9 cc0f 1c3b 07b8 70bb 530d 18bc
00000120: ba05 b8ba c810 18bb bedb 83bc 17bf a5bc
00000130: 84e0 423c d6d9 233c 2860 37bc 9460 b43b
00000140: 6656 27bb ff39 9dbc ca06 6d39 176f 513c
00000150: 12f0 07bc 6b28 1a39 3301 a13b 132a 3bbc
00000160: c47c b3bb d075 46bc 8d08 d2ba 4f79 7a3a
00000170: bf82 953c 430e 0dbc f70e 80bb df24 473b
00000180: 45d3 793a 53cd d339 4feb 1ebc 9779 803c
00000190: dd94 2d3a 6ae7 3d3c 8c2f 0b3c dbce 0d3c
000001a0: 12e1 d43b c7a2 19bc a14f 3b3c f985 34bc
000001b0: e20f 643c cb17 32bc 3a7e 8fbc 0684 c03c
000001c0: c8a4 3bbc 8e03 af3a 1008 1e3c 4da3 323c
000001d0: 870e 0d3c 0dd5 883c 87d8 9338 27c1 a5bb
000001e0: f2b4 d63b a536 563c c34a 69bc 8d0d d8ba
000001f0: 0dca db3b c3fe b2bb de1d 2cbc e723 9e3b
0.0010015849 -0.0020527104 -0.013457425 0.0045052725 -0.0042241476 -0.002991307 -0.014829211 -0.012249573
-0.0068025263 -0.005274803 0.0048510185 -0.0010115118 -0.002582116 -0.0024298886 -0.012021517 -0.009206687
0.007538511 0.0007977113 -0.009611943 -0.002816423 -0.010835726 -0.004630445 -0.008224495 0.0015531037
-0.00067348714 0.010390389 -0.018417936 0.005102977 0.006218005 -0.015052711 0.0057625845 -0.001972563
-0.0008956903 -0.0043410263 0.0007715544 0.0007557768 0.0006492986 0.008966184 -0.00078519265 -0.011581363
-0.017233836 0.0068499357 -0.010267546 0.018535567 0.0028117755 -0.004989447 0.00061172125 -0.0029832872
0.004349464 -0.013332441 0.0035293424 -0.007164041 0.0026904559 0.020751147 -0.0033567355 -0.004685052
0.0020639803 0.0061736307 -0.0019036633 -0.0026136113 0.0058196173 -0.001068081 -0.00091499154 0.008882763
-0.007332347 0.015760362 0.002023231 -0.012011803 -0.00037401068 0.0023813127 -0.0036730783 -0.0092805205
-0.0014039793 -0.0023203362 -0.016095992 -0.02023272 0.011894349 0.010000667 -0.011192359 0.005504677
-0.0025533675 -0.019192694 0.0002260461 0.012782834 -0.008296983 0.00014701641 0.004913473 -0.0114236055
-0.0054775197 -0.01211305 -0.0016024277 0.00095548196 0.018250821 -0.008609357 -0.003908034 0.0030386967
0.0009530078 0.00040398035 -0.009699657 0.015682979 0.00066216086 0.011590818 0.008495223 0.008655275
0.006496557 -0.009377188 0.011432559 -0.01101827 0.013919802 -0.0108699305 -0.017516244 0.023500454
-0.011452861 0.00133525 0.009645477 0.010903192 0.008609421 0.016703153 7.0498376e-05 -0.005058426
0.006552332 0.013074552 -0.014239016 -0.0016483531 0.006707436 -0.005462499 -0.010505168 0.0048260572
