Assets/results/VikramRover18-ppo/VikramRover/checkpoint.pt (torch, 859435 bytes, 51 tensors)

network_body._body_endoder.seq_layers.0.weight f4 [128, 10]
-0.44351867 0.3567627 0.023590244 0.17001668 -0.33323166 -0.32317507 0.15582964 -0.1934079
0.21134356 0.08718724 -0.06481287 -0.51956666 -0.009976785 -0.37898448 -0.061280955 -0.55109906
-0.046925362 0.115777805 0.19862728 -0.4687784 0.03578916 0.46824703 -0.2915752 0.056006588
0.2197891 0.494537 0.039065953 -0.12634824 0.09763962 -0.20664652 0.22708897 0.5555429
0.4388786 -0.43676355 0.33624077 0.04994332 -0.1507408 -0.36463282 0.22764912 0.13650155
0.014755714 0.37332535 0.13627282 0.39315167 0.42133203 0.07865113 0.061902385 -0.8166441
0.3364783 0.17247015 0.16196074 -0.43954146 0.1554613 0.49059245 0.37098753 0.6101607
0.33730084 -0.2894966 0.08041614 0.18182744 -0.059173405 -0.16745646 -0.862853 -0.323586
-0.21180555 0.080658644 -0.09476424 -0.2950359 0.1171108 -0.26259458 -0.14246339 0.30017793
-0.38222516 0.41493303 -0.0001735299 -0.018483702 0.29180858 0.590731 0.059920903 -0.24184628
-0.5173776 -0.07052328 -0.12944295 0.8237204 -0.03769264 0.35181728 -0.043141365 -0.1533517
0.29728433 -0.17899628 -0.25045127 0.22262707 -0.09854447 -0.099538304 0.04792142 -0.24326378
-0.04077612 -0.40991753 0.32931194 0.2591238 -0.30448997 -0.3676587 -0.35066333 0.19123551
-0.46794865 0.10252497 0.021840725 -0.45027438 -0.17013957 0.2712759 -0.095544726 0.0048018624
0.034753636 0.33370274 0.9544125 0.15373826 -0.06144958 0.060463447 -0.03890414 -0.2768084
-0.33425346 0.3729222 0.04765265 -0.21283676 0.10712791 0.10858715 0.15432575 0.20557958
-0.10732864 -0.2509905 0.568566 -0.20563643 -0.15976496 -0.32728162 0.17351873 -0.3794597
0.5938474 -0.4741675 0.20651785 -0.04292368 -0.0785713 0.07741268 0.29621375 0.341418
0.14578937 -0.20740443 -0.21963456 0.065230355 0.44895086 -0.11134754 0.21689002 0.073587835
0.06776332 -0.13343605 -0.086371794 0.0892431 0.11587686 -0.54915285 -0.18510729 0.43342027
0.2558969 -0.19655985 -0.18913214 -0.4280415 -0.11865247 0.12503421 0.41305605 0.1505653
0.049955886 -0.31320137 0.18143523 0.0018348743 -0.11446031 -0.76557016 0.25382847 -0.38531882
0.31437284 -0.57636154 -0.27924857 0.27848157 0.37703446 -0.04142665 0.21120773 -0.5092787
-0.18199344 -0.2298448 -0.007222644 0.12378287 0.28040168 0.2871051 -0.24350247 -0.09501286
-0.5955665 -0.4436684 0.16017722 -0.2901496 0.078426726 -0.051649008 -0.5136229 -0.46319294
-0.3528893 -0.08278349 -0.12249194 -0.45254296 0.07567454 0.37102044 -0.5184438 0.05226509
0.056296617 -0.48833784 0.023493864 -0.10540559 -0.057301972 0.342787 0.13540153 0.019724788
-0.754636 0.5126353 0.10659814 -0.3495238 0.47456005 -0.056405097 0.38251528 0.13713789
-0.52554554 0.31467086 0.15358084 0.12918063 0.08693642 0.067591906 -0.43545225 0.118573226
-0.44277218 0.2716129 -0.054515775 -0.17793374 -0.24500033 -0.1541581 -0.7091498 -0.41196233
0.14467955 -0.11603346 0.106267996 0.06850097 0.10404808 -0.045041688 -0.26043743 0.1860663
-0.2689857 0.3583383 -0.27803418 -0.2044782 0.6547041 -0.14432748 0.31793168 -0.039396927
00000000: e114 e3be 9aa9 b63e 5440 c13c da18 2e3e
00000010: 579d aabe 3477 a5be ce91 1f3e b80c 46be
00000020: 726a 583e 398f b23d 9cbc 84bd 5202 05bf
00000030: ab75 23bc 410a c2be bd01 7bbd d414 0dbf
00000040: cf34 40bd ea1c ed3d f364 4b3e b903 f0be
00000050: a797 123d 13be ef3e 5849 95be 2a67 653d
00000060: 6510 613e f433 fd3e 9f03 203d 6f61 01be
00000070: 48f7 c73d 259b 53be 038a 683e 0f38 0e3f
00000080: b2b4 e03e 799f dfbe c027 ac3e 5e91 4c3d
00000090: cc5b 1abe 27b1 babe da1c 693e 10c7 0b3e
000000a0: f3c1 713c 8024 bf3e 1a8b 0b3e 2d4b c93e
000000b0: d5b8 d73e d813 a13d 5b8d 7d3d 960f 51bf
000000c0: e246 ac3e 049c 303e 09d9 253e 940b e1be
000000d0: 3f31 1f3e ef2e fb3e 14f2 bd3e 7e33 1c3f
000000e0: b2b2 ac3e e638 94be 38b1 a43d f930 3a3e
000000f0: d05f 72bd b579 2bbe efe3 5cbf 10ad a5be
00000100: 8ee3 58be 5c30 a53d c113 c2bd f20e 97be
00000110: cad7 ef3d cc72 86be ece1 11be ecb0 993e
00000120: 04b3 c3be 1a72 d43e 94f5 35b9 226b 97bc
00000130: ef67 953e 263a 173f 9f6f 753d 8da6 77be
00000140: dc72 04bf 826e 90bd b18c 04be 57df 523f
00000150: 9963 1abd 6521 b43e 00b5 30bd 3a08 1dbe
00000160: a735 983e cd4a 37be 263b 80be 5af8 633e
00000170: afd1 c9bd bdda cbbd 4049 443d 241a 79be
00000180: dc04 27bd b6e0 d1be 939b a83e e0ab 843e
00000190: 1ce6 9bbe c33d bcbe 258a b3be 3ed3 433e
000001a0: f796 efbe 9df8 d13d 52eb b23c 5d8a e6be
000001b0: 1139 2ebe ade4 8a3e f4ac c3bd f158 9d3b
000001c0: d459 0e3d 16db aa3e 6154 743f 906d 1d3e
000001d0: 8eb2 7bbd 85a8 773d f359 1fbd d5b9 8dbe
000001e0: 4523 abbe a9ef be3e 6d2f 433d e1f1 59be
000001f0: e165 db3d f162 de3d 9207 1e3e 7483 523e
00000200: 1ecf dbbd d481 80be 8b8d 113f 5b92 52be
00000210: 6d99 23be 7591 a7be e5ae 313e 8b48 c2be
00000220: 6206 183f 15c6 f2be 6a79 533e bed0 2fbd
00000230: fde9 a0bd 8a8a 9e3d 54a9 973e 57ce ae3e
00000240: cf49 153e d461 54be e2e7 60be 7e97 853d
00000250: e3dc e53e 2e0a e4bd 6b18 5e3e 38b5 963d
00000260: 7fc7 8a3d 76a3 08be b2e3 b0bd 16c5 b63d
00000270: d950 ed3d 4895 0cbf c48c 3dbe 43e9 dd3e
00000280: eb04 833e fc46 49be dbab 41be 4128 dbbe
00000290: 1100 f3bd f808 003e 157c d33e ca2d 1a3e
000002a0: 8b9e 4c3d ee5b a0be 28ca 393e 2a80 f03a
000002b0: 2b6a eabd 68fc 43bf cef5 813e 8248 c5be
000002c0: 7af5 a03e 6e8c 13bf abf9 8ebe 2395 8e3e
000002d0: a90a c13e feae 29bd d746 583e 1760 02bf
000002e0: 7d5c 3abe 6f5c 6bbe eeab ecbb e081 fd3d
000002f0: cf90 8f3e 71ff 923e b658 79be 1a96 c2bd
00000300: 0c77 18bf 8128 e3be 7f05 243e 7d8e 94be
00000310: 319e a03d e98d 53bd ca7c 03bf a027 edbe
00000320: e8ad b4be 648a a9bd 0edd fabd b6b3 e7be
00000330: 41fb 9a3d 64f6 bd3e bcb8 04bf eb13 563d
00000340: 4897 663d 6b07 fabe 3476 c03c e3de d7bd
00000350: 79b5 6abd c781 af3e b3a6 0a3e e195 a13c
00000360: d32f 41bf 113c 033f 2050 da3d c9f4 b2be
00000370: 89f9 f23e 0809 67bd 0bd9 c33e e06d 0c3e
00000380: 278a 06bf 8a1c a13e 4c44 1d3e ed47 043e
00000390: b90b b23d a06d 8a3d 99f3 debe 85d6 f23d
000003a0: 09b3 e2be d910 8b3e ef4b 5fbd 4334 36be
000003b0: 5ee1 7abe 9fdb 1dbe d78a 35bf baec d2be
000003c0: e026 143e f3a2 edbd 09a3 d93d 3d4a 8c3d
000003d0: 2917 d53d a27d 38bd 0e58 85be 2a88 3e3e
000003e0: 7eb8 89be 1e78 b73e 7f5a 8ebe bc62 51be
000003f0: b09a 273f 95ca 13be f1c7 a23e ac5e 21bd

network_body._body_endoder.seq_layers.0.bias f4 [128]
3.3524216e-06 -0.018664945 0.0002797299 3.162103e-14 -0.0013228179 -0.01738949 -0.025909204 -0.0017492496
-0.019773649 0.0 -0.022362974 -0.00393142 -0.002291769 -0.008920242 -0.0011853882 3.116772e-12
-0.0132252015 0.0 -0.0071880072 -0.009337512 -0.007376496 -0.02067048 -0.012170137 -0.0007109957
-0.022679443 -0.013383297 -0.023386562 7.9299425e-05 -0.0038813886 0.0 -0.010178362 -0.0039502797
0.0031489923 -0.0026269169 0.0008614745 0.0017550443 0.002668275 -0.015087348 -0.0017476581 0.0
-0.011831427 0.004034174 0.00045247574 -1.0134683e-15 4.132519e-31 -0.025611505 -0.018313622 -0.0033828693
-0.013969113 -3.2133376e-36 -0.015707174 0.0 -0.0010738353 -0.0025352784 -0.026323589 -0.008101814
0.0 -0.0069657923 -0.0038775152 -0.021642597 -0.010672467 0.0 -0.015890663 0.0
-0.002766136 -0.012872495 0.004464083 0.015469487 -0.0061638705 -0.0027364928 0.0 0.0021229547
-0.019031636 0.0011093548 0.0022783391 -6.4378506e-29 -0.036241353 -0.0022929206 -0.007093938 0.0
-0.002626783 -0.032939672 -0.004319022 -0.023243802 -0.0076311496 0.0020489225 0.0028296674 -0.0019927472
0.0036931126 -0.0028121583 -0.00037000942 -0.01649324 0.0 -0.017427452 -0.00034684586 -0.007885288
0.0008008921 -0.0217339 -0.008529219 0.0 0.0004097384 -3.944408e-05 0.0016232722 -0.014867727
-0.025152499 -0.0014610755 -0.0026670282 0.0 0.0 0.0031044546 -0.017037703 -4.708067e-12
-0.023242414 -0.016137572 -0.015953537 -0.025743905 0.0014394778 0.0027535432 -0.0018067982 0.0
0.0 0.0012239997 -0.009944854 -0.027731722 -0.00132124 -0.016198345 0.0 0.000305104
00000000: 2afa 6036 3ae7 98bc b6a8 9239 9168 0e29
00000010: 6762 adba 6774 8ebc 8a3f d4bc 1447 e5ba
00000020: 59fc a1bc 0000 0000 8e32 b7bc 24d3 80bb
00000030: 8131 16bb 3526 12bc 075f 9bba c652 5b2c
00000040: 84ae 58bc 0000 0000 6089 ebbb 5dfc 18bc
00000050: 89b6 f1bb 2355 a9bc 4165 47bc 1d62 3aba
00000060: 3dca b9bc 9e45 5bbc 2d95 bfbc 8e4d a638
00000070: e55e 7ebb 0000 0000 25c3 26bc 5971 81bb
00000080: 535f 4e3b 5a28 2cbb 93d4 613a 8409 e63a
00000090: 3ade 2e3b ed30 77bc ad11 e5ba 0000 0000
000000a0: 9ad8 41bc 1b31 843b 443a ed39 610e 92a6
000000b0: a01b 060d 38cf d1bc 7306 96bc 21b3 5dbb
000000c0: b5de 64bc 26ae 8884 55ac 80bc 0000 0000
000000d0: efbf 8cba ea26 26bb 91a4 d7bc 79bd 04bc
000000e0: 0000 0000 4d41 e4bb e91d 7ebb d14b b1bc
000000f0: 92db 2ebc 0000 0000 232d 82bc 0000 0000
00000100: 1048 35bb 28e7 52bc 7147 923b bb73 7d3c
00000110: 4bfa c9bb bb56 33bb 0000 0000 4521 0b3b
00000120: 3ce8 9bbc c567 913a 3050 153b 0a38 a390
00000130: d071 14bd d344 16bb 4474 e8bb 0000 0000
00000140: 1b26 2cbb c0eb 06bd 9586 8dbb c969 bebc
00000150: b90e fabb 3747 063b f171 393b c098 02bb
00000160: 2608 723b 304c 38bb d3fd c1b9 d51c 87bc
00000170: 0000 0000 04c4 8ebc ddd8 b5b9 4c31 01bc
00000180: f6f2 513a 4b0b b2bc 23be 0bbc 0000 0000
00000190: 28d2 d639 c270 25b8 fac3 d43a c497 73bc
000001a0: 9d0c cebc 8f81 bfba 4fc9 2ebb 0000 0000
000001b0: 0000 0000 1b74 4b3b a792 8bbc 7fa6 a5ac
000001c0: e066 bebc f132 84bc feb0 82bc e2e4 d2bc
000001d0: dcac bc3a ca74 343b 16d2 ecba 0000 0000
000001e0: 0000 0000 9d6e a03a beef 22bc a32d e3bc
000001f0: 752d adba 64b2 84bc 0000 0000 5ef6 9f39

network_body._body_endoder.seq_layers.2.weight f4 [128, 128]
0.0005929149 -0.062373772 0.037175696 0.21461496 -0.13228253 -0.054068558 -0.022507908 0.092102
0.18044989 0.11603708 -0.20325965 0.24057162 0.12009465 0.014402454 -0.121277004 -0.05773122
-0.22400773 0.18406041 0.052534264 0.25157827 0.035957392 0.056833316 -0.0048030056 -0.14383048
-0.14139166 0.043086804 -0.2219962 0.08844285 -0.04147783 -0.037785538 0.05512898 -0.050762963
0.028431235 -0.08538739 0.037219692 0.08502234 -0.06643159 0.067739904 0.015149931 -0.023396792
0.013381414 0.07021073 0.036412977 0.013330248 -0.16586265 -0.11326489 -0.14354984 0.09962471
-0.022762148 -0.11436375 -0.10359149 0.023439266 -0.095831044 0.1474118 -0.026315533 0.22446008
-0.03928774 0.1916467 -0.18727481 0.087813035 0.10239521 0.08677132 0.04099842 0.01427265
0.022016916 0.05481838 0.100286834 0.04050591 0.04584411 -0.04463813 -0.027709821 -0.12905298
0.03829257 -0.036238424 0.024543954 -0.106775105 -0.022350261 -0.15333582 0.086822696 -0.0022913613
0.11865107 -0.09044432 -0.12900709 -0.09989491 -0.044681568 -0.09209469 0.14864706 0.01586907
-0.13974226 0.021687187 0.02990719 0.040363178 -0.08963269 0.017079037 0.19894335 0.090097435
-0.061147626 0.07152095 -0.050669126 -0.06335063 -0.09774493 -0.03986624 0.07670439 0.0681188
-0.1214144 -0.025659213 0.0982979 -0.04838474 -0.141682 0.06213888 -0.04261198 -0.029231273
-0.0962471 0.087641075 0.05465975 -0.0018269919 -0.040482525 -0.06261076 0.12670161 -0.08755475
-0.03977153 -0.10060502 0.039042547 0.05447638 0.034958024 0.09923499 -0.052948974 -0.10789051
0.006728938 0.0077436124 -0.13171303 0.08806332 0.07791387 -0.024121683 0.05748444 -0.12155432
-0.004250546 0.041475628 0.113393866 -0.0031596692 -0.07148769 0.011898594 0.055364516 -0.039232455
-0.07697256 -0.12481141 -0.043076463 -0.19431509 0.20343933 -0.073019855 -0.0036982074 0.040332746
-0.0022798849 -0.120985195 -0.005462758 0.1262157 0.14460386 0.10547612 0.05969878 0.07107933
0.058350835 -0.143247 0.0401924 -0.05878121 -0.037456363 0.050344177 0.08422092 -0.080323145
-0.0031981033 0.0060348087 -0.026946183 0.041689765 -0.083829425 -0.10724754 0.02809774 -0.08454369
0.045645785 -0.15656532 -0.047046326 0.11569812 0.08504131 -0.009343431 -0.111870356 0.13808885
0.18417381 -0.05240218 0.03110622 -0.025940206 0.15359981 -0.15774046 -0.03925956 0.07651388
-0.018828299 0.042160273 -0.07267013 0.044709664 -0.11331477 0.20020673 0.030043839 -0.08065866
-0.068500765 0.029576223 -0.04868289 0.025997939 0.095795155 -0.048721325 0.041945755 0.077025756
0.029419525 -0.006294683 -0.0033241888 -0.0798653 0.1428502 0.0569673 -0.12179219 0.06356154
5.678094e-05 -0.032408047 -0.090939105 -0.06327825 0.028741006 0.031350743 -0.054429557 0.054109078
-0.008507388 -0.081745125 0.014647034 0.16141334 -0.12399319 0.042945355 -0.03937215 0.053424135
-0.04103984 0.10313357 0.057921093 0.1330665 0.13956773 0.035603013 0.1340378 0.113235146
-0.16122046 -0.008877452 0.07415493 0.022297459 -0.06817942 -0.13134496 0.013493536 0.0045532607
0.0064101475 -0.079037435 0.007052446 0.015905673 -0.06993281 0.028673215 0.05041545 -0.024464618
00000000: d86d 1b3a a47b 7fbd 8b45 183d 06c4 5b3e
00000010: 1275 07be fe76 5dbd 8162 b8bc f99f bc3d
00000020: dbc7 383e d9a4 ed3d 4c23 50be 6858 763e
00000030: 2ff4 f53d 45f8 6b3c 1460 f8bd 9277 6cbd
00000040: 4862 65be 557a 3c3e 2b2e 573d dece 803e
00000050: 0f48 133d 0dca 683d 8862 9dbb 4c48 13be
00000060: fac8 10be ca7b 303d f952 63be 8621 b53d
00000070: a8e4 29bd 02c5 1abd edce 613d d3ec 4fbd
00000080: 9fe8 e83c 95df aebd ad73 183d 3120 ae3d
00000090: 490d 88bd 38bb 8a3d 6b37 783c a1aa bfbc
000000a0: b83d 5b3c a5ca 8f3d c625 153d 1d67 5a3c
000000b0: e6d7 29be 6cf7 e7bd bbfe 12be 0a08 cc3d
000000c0: af77 babc 8b37 eabd c627 d4bd b403 c03c
000000d0: 1143 c4bd 1ef3 163e ac93 d7bc ddd8 653e
000000e0: 2eec 20bd 083f 443e f8c4 3fbe 52d7 b33d
000000f0: 94b4 d13d 29b5 b13d f6ed 273d d5d7 693c
00000100: d25c b43c 3d89 603d 2f63 cd3d 86e9 253d
00000110: 09c7 3b3d 79d6 36bd b5ff e2bc 7726 04be
00000120: abd8 1c3d be6e 14bd 6710 c93c e8ac dabd
00000130: e517 b7bc 1104 1dbe 19d0 b13d aa2a 16bb
00000140: 55ff f23d df3a b9bd 6f1a 04be b495 ccbd
00000150: 0504 37bd 249c bcbd ef36 183e daff 813c
00000160: 9818 0fbe 54a9 b13c ecff f43c dc53 253d
00000170: 5891 b7bd 56e9 8b3c ceb7 4b3e 0185 b83d
00000180: ef75 7abd 9379 923d 6e8a 4fbd fabd 81bd
00000190: 7e2e c8bd c84a 23bd 3117 9d3d df81 8b3d
000001a0: 1da8 f8bd 4533 d2bc 6950 c93d 142f 46bd
000001b0: 1615 11be 5785 7e3d e689 2ebd 6c76 efbc
000001c0: 331d c5bd 2a7d b33d e7e2 5f3d ad77 efba
000001d0: 01d1 25bd 123a 80bd 11be 013e e84f b3bd
000001e0: 79e7 22bd 010a cebd 14eb 1f3d a022 5f3d
000001f0: 2530 0f3d b73b cb3d 06e1 58bd b3f5 dcbd
00000200: 6c7e dc3b 21be fd3b c8df 06be 8b5a b43d
00000210: 4f91 9f3d d69a c5bc ce74 6b3d 79f1 f8bd
00000220: 2a48 8bbb 59e2 293d 0b3b e83d 7412 4fbb
00000230: 2368 92bd 52f2 423c e7c5 623d 36b2 20bd
00000240: caa3 9dbd 209d ffbd f270 30bd 89fa 46be
00000250: 6652 503e 6f8b 95bd a05d 72bb f333 253d
00000260: 1f6a 15bb 16c7 f7bd ef00 b3bb b03e 013e
00000270: 0913 143e dd03 d83d b586 743d 0a92 913d
00000280: 4901 6f3d 57af 12be c9a0 243d 91c4 70bd
00000290: d86b 19bd b235 4e3d 057c ac3d 7680 a4bd
000002a0: 4597 51bb a5bf c53b 3ebe dcbc e3c2 2a3d
000002b0: c3ae abbd 99a4 dbbd 3b2d e63c 3e25 adbd
000002c0: 13f7 3a3d a952 20be a6b3 40bd 23f3 ec3d
000002d0: 232a ae3d 3115 19bc 491c e5bd 2a67 0d3e
000002e0: 0f98 3c3e aba3 56bd 79d2 fe3c 8e80 d4bc
000002f0: 4549 1d3e b786 21be a2ce 20bd 4fb3 9c3d
00000300: ce3d 9abc 40b0 2c3d 14d4 94bd 7b21 373d
00000310: 9311 e8bd fe02 4d3e 7f1e f63c 5e30 a5bd
00000320: 214a 8cbd d649 f23c b667 47bd a1f9 d43c
00000330: 4030 c43d 0390 47bd 50cf 2b3d aebf 9d3d
00000340: 3701 f13c a143 cebb a2da 59bb 6b90 a3bd
00000350: 5347 123e 8b56 693d 2f6e f9bd 8d2c 823d
00000360: 1228 6e38 4dbe 04bd 483e babd 0798 81bd
00000370: 4272 eb3c a369 003d 87f1 5ebd 7ba1 5d3d
00000380: 9262 0bbc fd69 a7bd 1dfa 6f3c 8a49 253e
00000390: 24f0 fdbd 78e7 2f3d b144 21bd 44d3 5a3d
000003a0: 6419 28bd b137 d33d ab3e 6d3d 9642 083e
000003b0: d8ea 0e3e 77d4 113d 3441 093e d4e7 e73d
000003c0: fa16 25be bc72 11bc 8ade 973d 29a9 b63c
000003d0: a7a1 8bbd 4b7f 06be fe13 5d3c 8533 953b
000003e0: 370c d23b 61de a1bd 3418 e73b 9d4c 823c
000003f0: ef38 8fbd 17e4 ea3c 6e80 4e3d 066a c8bc

network_body._body_endoder.seq_layers.2.bias f4 [128]
0.0014415255 0.00022014733 0.0 -1.1963775e-30 -0.007992219 0.0017569455 3.765456e-12 -0.0055615404
-0.013272093 -0.007175449 -0.0016503356 -0.020040972 0.0 -0.010581671 0.0020468656 -0.0021040842
0.0014229013 0.0009996694 -0.019245515 -0.0025424997 -0.013613643 -0.002790937 -0.0037937143 -0.008991526
-0.0023218724 -0.0030891425 -0.0009932908 0.0 -0.0033137067 -0.0046970327 -0.0012281501 -0.0040520173
0.0018434076 -0.00051912904 0.008569508 0.000775991 0.0 -0.00045450212 -0.0018130569 0.0
-0.008911874 1.7604555e-29 0.0026308734 0.0011015568 -0.0076864236 -0.0029669465 0.0 -0.0012525509
-0.001121179 0.00081651495 -0.004476588 -0.016261792 -0.004693667 -0.001389922 -0.0023779864 -0.015814198
-0.0022514556 -0.002489732 -0.00074481295 0.0 1.3332352e-07 0.0 -0.0023032501 0.0
-0.001904455 -0.014980693 6.295923e-17 -0.003700676 0.0022067616 0.0009090079 -0.008076268 -0.0014481496
-0.005467235 -0.0054422016 0.0 -0.0011944306 -0.014112439 -0.00011764434 -0.0018709772 -0.0012122898
-0.008376818 -0.0007684741 -2.2811859e-12 -0.02142447 -0.009270055 -0.009531664 7.035167e-10 -0.018320668
0.0009132254 -0.006957146 0.0 0.0 -0.0033480006 0.0 -0.000802416 7.407818e-22
0.00072698755 0.00011472415 0.0062354878 0.0028619827 -0.00793636 -0.0009370425 -0.0047162347 0.0
-0.0012332674 0.0 -4.921099e-22 -0.0086793015 -0.0084785605 0.0 0.0 -0.006003149
0.00082850026 0.0006777535 -0.007237888 -0.0033142425 0.00076527207 0.00031479858 -0.0074422257 0.002831591
-0.0074004955 -0.008874275 -0.0022392361 -0.002442039 0.0008606344 0.001398168 5.485714e-11 -0.002006665
00000000: 92f1 bc3a 59d7 6639 0000 0000 941f c28d
00000010: ccf1 02bc 4f49 e63a 367c 842c 953d b6bb
00000020: 3173 59bc 0720 ebbb 1350 d8ba f72c a4bc
00000030: 0000 0000 bf5e 2dbc b524 063b ade4 09bb
00000040: a580 ba3a 5707 833a c5a8 9dbc 11a0 26bb
00000050: c20b 5fbc 27e8 36bb f79f 78bb 3251 13bc
00000060: 8e2a 18bb 3673 4abb 4f31 82ba 0000 0000
00000070: c62a 59bb 91e9 99bb e1f9 a0ba c9c6 84bb
00000080: 7f9e f13a 2916 08ba 1f67 0c3c e06b 4b3a
00000090: 0000 0000 3e4a eeb9 18a4 edba 0000 0000
000000a0: 1c03 12bc 0a88 b20f bb6a 2c3b 1d62 903a
000000b0: 65de fbbb 1a71 42bb 0000 0000 a22c a4ba
000000c0: 86f4 92ba 640b 563a 58b0 92bb 7337 85bc
000000d0: 55cd 99bb 0b2e b6ba fed7 1bbb c78c 81bc
000000e0: 288d 13bb c62a 23bb 8d3f 43ba 0000 0000
000000f0: b127 0f34 0000 0000 20f2 16bb 0000 0000
00000100: e89e f9ba 9571 75bc 922c 9124 0a87 72bb
00000110: 519f 103b 7d4a 6e3a 5352 04bc d6cf bdba
00000120: 7e26 b3bb 7f54 b2bb 0000 0000 718e 9cba
00000130: dc37 67bc d3b7 f6b8 943b f5ba b2e5 9eba
00000140: ec3e 09bc 6d73 49ba 3186 20ac 5f82 afbc
00000150: 6ee1 17bc b22a 1cbc 9661 4130 3a15 96bc
00000160: 8565 6f3a c5f8 e3bb 0000 0000 0000 0000
00000170: 216a 5bbb 0000 0000 3a59 52ba 37e3 5f1c
00000180: 4f93 3e3a 0f98 f038 1053 cc3b 1a90 3b3b
00000190: 8207 02bc dca3 75ba a58a 9abb 0000 0000
000001a0: 96a5 a1ba 0000 0000 29bb 149c a133 0ebc
000001b0: a9e9 0abc 0000 0000 0000 0000 10b6 c4bb
000001c0: b62f 593a 44ab 313a ce2b edbb c333 59bb
000001d0: 8a9c 483a 8d0b a539 eadd f3bb 3792 393b
000001e0: db7f f2bb 6865 11bc 26c0 12bb 9e0a 20bb
000001f0: 329c 613a bc42 b73a a643 712e 4182 03bb

network_body._body_endoder.seq_layers.4.weight f4 [128, 128]
-0.049906746 -0.1240004 0.027555961 -0.050846636 0.06295749 -0.073104605 -0.11169402 0.16750406
0.024801185 0.0052942447 0.003955038 -0.011086668 0.039793126 0.014085503 0.04939273 -0.045834407
-0.03979178 -0.05170197 0.047332715 -0.03458822 -0.1356531 0.03477215 -0.042158782 0.030090824
-0.15624702 0.016730145 0.12148508 0.03797448 0.0044381944 0.05254296 0.019936558 -0.08545239
-0.010647391 -0.1684639 0.061759938 -0.020358609 -0.07708213 -0.07396652 -0.011737991 0.09538367
0.015965125 0.06701359 0.022274172 -0.10845614 0.03798825 -0.049834613 -0.024921086 -0.05000208
-0.0051747104 0.012080773 -0.08297362 -0.07010065 -0.035412684 -0.020145131 0.08135943 0.023212997
-0.06763548 0.026380664 0.12866795 -0.16761495 -0.10047286 -0.27873173 0.0977725 -0.03104847
-0.032272935 0.11742782 0.011320584 0.06691396 0.0020384907 0.06892309 0.0351396 -0.008444775
-0.12226472 0.11028634 -0.0859401 -0.024703111 -0.04348348 0.03871845 0.070149176 0.04471462
-0.011234078 0.06154138 -0.033383597 -0.08431461 0.12233605 -0.08043729 -0.059293654 -0.0734547
0.018014021 -0.13618764 -0.047277547 0.15567815 -0.07860847 0.06499932 0.049049076 0.20261806
0.034195498 0.0051284386 -0.04791258 -0.08594175 0.011495311 -0.017943585 0.0537285 -0.0072480473
-0.080658674 -0.029245945 0.0067618894 -0.118711144 0.012080336 0.10370801 0.043277733 0.09097792
-0.09117986 0.015717693 0.14110154 0.12747106 0.16164222 0.2052002 -0.004531504 -0.016558666
-0.046516985 0.04641125 0.054028448 0.0395612 0.11381447 -0.06252664 -0.051332235 0.059058852
-0.026586652 -0.08796827 0.031174999 0.04708941 -0.042225476 -0.12083187 -0.060075138 0.10762454
0.047912404 0.124282375 0.028231828 0.11823325 0.117381155 -0.034301203 0.012499885 -0.093607344
-0.16157211 -0.03786387 0.07879088 -0.26695675 0.05941829 -0.041338366 0.027840756 0.03705459
-0.2034709 -0.18991147 -0.12261846 0.066154234 -0.10440747 0.13509797 0.10287027 0.057361674
0.11012116 0.06857477 0.035967708 0.08345998 0.02909813 0.026017182 0.0779702 -0.07512377
0.004565547 -0.120230325 -0.01015041 -0.06386919 0.07155773 -0.06235488 0.00745582 0.06471052
-0.0957984 0.08862109 0.013342597 -0.12300876 -0.029431392 -0.0265151 0.0037019942 0.10884593
0.058883782 0.12347905 0.17366359 -0.08387178 0.05709103 -0.13147597 -0.061114285 -0.07516757
0.009104905 0.021681324 -0.037236437 -0.10332301 0.04143948 -0.025811384 -0.1202006 0.07402612
0.037712082 0.07642045 -0.060010783 -0.15699166 -0.011889566 0.031873964 -0.15476513 -0.0505895
-0.08928609 -0.031227864 0.10901025 -0.022898505 0.050938264 -0.008780683 -0.056610007 0.08521415
0.02942538 -0.06514669 0.04499338 0.01117432 0.012395697 0.14840794 -0.08602147 -0.013980322
0.19673623 0.18708599 0.094759464 -0.01574283 -0.1132471 0.03221111 -0.065517016 0.095695496
-0.032119352 -0.057753637 0.01706127 0.085549705 -0.20977415 -0.0063731624 0.071801156 0.1837379
-0.050612755 0.08790131 -0.059222054 0.16560732 0.023869496 0.04553393 -0.09068043 -0.0023991026
0.120260306 0.023585416 0.13889271 0.15788856 0.19591263 -0.103571065 -0.16736813 0.099505104
00000000: 046b 4cbd ecf3 fdbd 0abd e13c 9044 50bd
00000010: dbef 803d deb7 95bd d6bf e4bd 2f86 2b3e
00000020: db2b cb3c 587b ad3b 4399 813b dba4 35bc
00000030: 1efe 223d e2c6 663c 0850 4a3d dcbc 3bbd
00000040: b5fc 22bd 72c5 53bd f3df 413d 61ac 0dbd
00000050: a5e8 0abe 3e6d 0e3d b0ae 2cbd 0881 f63c
00000060: 38ff 1fbe a80d 893c 2bcd f83d 218b 1b3d
00000070: 466e 913b 4937 573d fe51 a33c aa01 afbd
00000080: 6572 2ebc cd81 2cbe fdf7 7c3d 19c7 a6bc
00000090: 3cdd 9dbd c27b 97bd b450 40bc 8358 c33d
000000a0: 4bc9 823c 6c3e 893d 5378 b63c 411e debd
000000b0: 9199 1b3d 611f 4cbd 4e27 ccbc fbce 4cbd
000000c0: 9e90 a9bb 6fee 453c 13ee a9bd ee90 8fbd
000000d0: e40c 11bd 6707 a5bc c69f a63d 2f29 be3c
000000e0: 7884 8abd 431c d83c 88c1 033e 41a3 2bbe
000000f0: b7c4 cdbd edb5 8ebe f33c c83d 5c59 febc
00000100: a030 04bd ff7d f03d f979 393c 300a 893d
00000110: 3398 053b 8d27 8d3d 8bee 0f3d f45b 0abc
00000120: ed65 fabd cedd e13d 5d01 b0bd 2e5e cabc
00000130: bc1b 32bd 3d97 1e3d 5faa 8f3d ad26 373d
00000140: 230f 38bc d012 7c3d 3dbd 08bd 23ad acbd
00000150: 538b fa3d 4ebc a4bd e7dd 72bd 6b6f 96bd
00000160: 2492 933c c674 0bbe 1aa6 41bd 186a 1f3e
00000170: 7afd a0bd 5d1e 853d afe7 483d 1c7b 4f3e
00000180: 9410 0c3d 760c a83b fb3f 44bd 3a02 b0bd
00000190: d456 3c3c 6dfe 92bc 6a12 5c3d 0781 edbb
000001a0: 6030 a5bd 3195 efbc d792 dd3b d41e f3bd
000001b0: 9aec 453c dd64 d43d fe43 313d a252 ba3d
000001c0: 82bc babd 64c2 803c ec7c 103e c687 023e
000001d0: 8a85 253e 0020 523e 037d 94bb 0aa6 87bc
000001e0: 9888 3ebd b919 3e3d ef4c 5d3d ed0a 223d
000001f0: 9017 e93d f80d 80bd c041 52bd b2e7 713d
00000200: 40cc d9bc b528 b4bd b662 ff3c d3e0 403d
00000210: 9ff4 2cbd b376 f7bd 5911 76bd 416a dc3d
00000220: cc3f 443d c287 fe3d 6f46 e73c 4624 f23d
00000230: 8865 f03d 6b7f 0cbd 51cc 4c3c 35b5 bfbd
00000240: 2973 25be 2517 1bbd 1d5d a13d 8eae 88be
00000250: 9860 733d 6b52 29bd 4c12 e43c 8ec6 173d
00000260: ad5a 50be 2778 42be 631f fbbd df7b 873d
00000270: 95d3 d5bd 1f57 0a3e a6ad d23d 13f4 6a3d
00000280: 3487 e13d ee70 8c3d e052 133d 11ed aa3d
00000290: 345f ee3c fc21 d53c d7ae 9f3d 7eda 99bd
000002a0: 969a 953b 513b f6bd e84d 26bc dacd 82bd
000002b0: dc8c 923d d567 7fbd f44f f43b f386 843d
000002c0: f431 c4bd f97e b53d e89a 5a3c 04ec fbbd
000002d0: 1a1a f1bc 3236 d9bc 289d 723b 9dea de3d
000002e0: 1f30 713d 96e2 fc3d ded4 313e f8c4 abbd
000002f0: 49d8 693d a3a1 06be f952 7abd 74f1 99bd
00000300: bd2c 153c 089d b13c 3c85 18bd 049b d3bd
00000310: 72bc 293d 6572 d3bc bb2b f6bd 029b 973d
00000320: fc77 1a3d 5382 9c3d decd 75bd 6cc2 20be
00000330: 74cc 42bc 468e 023d c07a 1ebe f036 4fbd
00000340: a0db b6bd 94d1 ffbc c440 df3d a595 bbbc
00000350: a4a4 503d dbdc 0fbc e5df 67bd c284 ae3d
00000360: 7f0d f13c a16b 85bd fa4a 383d 7f14 373c
00000370: 5217 4b3c 40f8 173e 062c b0bd b80d 65bc
00000380: 3975 493e 7893 3f3e 4011 c23d 1bf7 80bc
00000390: 18ee e7bd ccef 033d c92d 86bd 00fc c33d
000003a0: 958f 03bd 148f 6cbd 14c4 8b3c af34 af3d
000003b0: 09cf 56be f6d5 d0bb 7c0c 933d ca25 3c3e
000003c0: 524f 4fbd 9a05 b43d d392 72bd f794 293e
000003d0: f689 c33c c981 3a3d a9b6 b9bd 433a 1dbb
000003e0: 094b f63d 3436 c13c e439 0e3e 8aad 213e
000003f0: 529d 483e 111d d4bd 8d62 2bbe 55c9 cb3d

network_body._body_endoder.seq_layers.4.bias f4 [128]
-0.019109396 -0.011256266 -0.007808792 -0.004179282 -0.002778375 -0.008127386 0.0072123115 -0.004243215
0.0020455006 0.01593977 -0.009099924 -0.011613257 -0.0014630082 -0.005213134 1.3894043e-20 -0.002209324
-0.01856874 0.011136159 0.0 -0.01681722 -0.0039703157 -0.0021731108 -0.011280057 -0.0021358423
-0.034466397 -0.00962223 -0.015462326 0.00027745633 7.270501e-20 -0.0019204391 0.0009787806 0.000212741
-0.004626445 -0.0023559828 0.0 0.018413577 -0.006639962 -0.0013924908 -0.0013958113 -0.003992355
0.0 0.00019792355 0.00354627 -0.010739842 -0.017971018 -0.0020646057 -0.03144498 0.018580401
-0.019328827 -0.009329548 0.0 -1.39003405e-05 -0.0080593 1.0919542e-11 0.0025147784 -0.016866155
-0.007612703 -0.01094232 0.0 -0.0016600458 -0.033429082 0.0043972363 -0.0057264017 -0.011364368
0.0032262194 0.0008147107 -0.004838889 4.9493335e-25 -0.0016791447 -0.011658195 -0.009231068 -0.008270319
-0.0073684216 -0.008407991 -0.0073182774 0.0026173824 -0.006256015 -0.004030615 -0.0041862596 -0.003124377
-0.011291517 -0.013066399 -0.0025238323 -0.00987908 -0.0059230835 -0.0012570764 -0.0035416933 0.010517451
-0.0023370194 -0.017626747 0.00078611507 -0.004162899 -0.016529314 -0.0061803902 -0.01955078 -0.006584062
0.00023191453 0.018896142 0.00074385 -0.02637329 0.008287094 0.011842037 -0.01103616 -0.0036920628
1.2188832e-23 -0.0029643124 -0.0028717965 -0.002831085 -0.0076051545 -0.0064568915 -0.00047452396 -0.0024859495
0.0 -0.0080760745 -0.002485817 0.0 -0.0011576959 -0.001930121 -0.003239623 0.0
0.0042779716 0.0 -0.0061324877 -0.007524525 1.2848324e-24 -0.0050262157 0.0 7.1438124e-32
00000000: 4f8b 9cbc 346c 38bc e5e0 ffbb 5cf2 88bb
00000010: 6615 36bb ba28 05bc 4155 ec3b ab0a 8bbb
00000020: ce0d 063b 1f94 823c d917 15bc 8845 3ebc
00000030: 69c2 bfba f0d2 aabb bc39 831e 4eca 10bb
00000040: 781d 98bc 7074 363c 0000 0000 44c4 89bc
00000050: 6c19 82bb c06a 0ebb fdcf 38bc 7df9 0bbb
00000060: a32c 0dbd 8fa6 1dbc b255 7dbc 8f77 9139
00000070: 7bab ab1f 3eb7 fbba 6d4a 803a 3a13 5f39
00000080: 6f99 97bb d566 1abb 0000 0000 12d8 963c
00000090: 0a94 d9bb 3d84 b6ba a8f3 b6ba 4dd2 82bb
000000a0: 0000 0000 b389 4f39 8a68 683b 2af6 2fbc
000000b0: f537 93bc 564e 07bb 74cc 00bd ed35 983c
000000c0: 7d57 9ebc f6da 18bc 0000 0000 8235 69b7
000000d0: 270b 04bc 3f19 402d fbce 243b e42a 8abc
000000e0: fb73 f9bb 6b47 33bc 0000 0000 e595 d9ba
000000f0: efec 08bd b116 903b 8aa4 bbbb 9d31 3abc
00000100: fb6e 533b 4f92 553a 8b8f 9ebb a92c 1917
00000110: bf16 dcba 0402 3fbc e83d 17bc 3b80 07bc
00000120: cd72 f1bb acc1 09bc 29ce efbb 6488 2b3b
00000130: 42ff ccbb 4013 84bb e42c 89bb 59c2 4cbb
00000140: 0e00 39bc 7314 56bc e166 25bb dddb 21bc
00000150: 6d16 c2bb 7cc4 a4ba c11b 68bb 6351 2c3c
00000160: ae28 19bb f865 90bc 4a13 4e3a ee68 88bb
00000170: 7c68 87bc df84 cabb f528 a0bc 1dbf d7bb
00000180: 152e 7339 15cc 9a3c eefe 423a cc0c d8bc
00000190: 97c6 073c 1a05 423c 03d1 34bc 89f6 71bb
000001a0: 2cc4 6b19 e944 42bb c034 3cbb b989 39bb
000001b0: a934 f9bb 5594 d3bb 87c9 f8b9 50eb 22bb
000001c0: 0000 0000 8351 04bc 17e9 22bb 0000 0000
000001d0: d4bd 97ba 1dfc fcba db4f 54bb 0000 0000
000001e0: 3a2e 8c3b 0000 0000 09f3 c8bb 4a90 f6bb
000001f0: 75d1 c617 f4b2 a4bb 0000 0000 c776 b90b

action_model._continuous_distribution.log_sigma f4 [1, 2]
0.05023264 0.041784797
00000000: bec0 4d3d 8926 2b3d

action_model._continuous_distribution.mu.weight f4 [2, 128]
-0.0042123897 -0.008170575 0.012652555 0.0044932268 -0.007988552 0.009938749 0.032067124 -0.009467677
-0.010453529 0.039659057 0.0031235311 -0.0048438767 0.01944697 -0.019094177 -0.0026848007 0.026616449
0.0015249241 0.01615056 0.0041364585 -0.015143506 0.011517023 0.0011734229 0.007974633 -0.002599968
0.0030124323 0.0019211136 -0.0040299725 0.0025534625 0.0062253624 0.0016131898 -0.0055003287 0.0065476946
0.012838929 -0.04278077 -0.014397765 0.047961872 0.00926899 0.008134901 -0.02241553 0.00036070432
0.014491948 0.03342034 0.014970448 -0.0046047224 0.0059179002 0.0014128123 0.0010331352 0.034300976
-0.005223106 -0.0025539512 -0.009469877 0.033166703 0.0001617802 -0.01311373 0.030426202 0.0044857613
-0.015188748 0.006365482 -0.024035389 0.00786955 -0.0019309305 -0.001970651 -0.002367213 -0.007204994
-0.0005001111 0.0029738967 0.010030575 0.008739019 -0.020216987 0.012015586 -0.0014471818 0.0153666595
-0.014192423 0.007299352 0.022532485 0.012639004 -0.006906017 0.015400806 -0.018807404 -0.012682495
0.013461568 -0.0011130497 -0.034763064 -0.015326043 -0.0036787237 0.002865386 -0.013919436 0.004731176
-0.00599724 -0.004616677 -0.03195633 -0.03459689 0.020518672 -0.014178476 0.005770025 -0.033240616
-0.00850854 -0.04795541 -0.009650039 -0.0044770776 -9.798881e-05 0.028762558 0.0010070597 -0.028431034
0.02383643 0.014824426 -0.017676208 0.020503907 0.023940897 0.0032391276 0.019602695 -0.011196097
-0.01578786 0.008335426 0.0057131997 -0.01593761 -0.0113873845 -0.014863062 -0.003720487 0.014940663
0.020659247 0.0071208733 0.0043951087 0.014187288 -0.026222346 0.008918732 0.009750879 -0.042505465
0.0029209463 -0.016016897 -0.008436823 0.014850087 0.0030140888 0.00086040207 0.025509238 -0.008105391
0.03779946 0.049652483 0.0057864175 0.0025504108 0.013396605 -0.010317116 -0.016298378 0.017231341
0.0005914891 0.047399398 -0.0050936113 -0.018654319 -0.0047450457 -0.004751446 -0.00224712 0.014772659
0.00053744233 0.0017125134 -0.005631206 -0.0128293075 0.010104448 -0.013612919 -0.015942458 0.048048068
0.0033368357 -0.008317649 0.0154022025 -0.010856224 0.008043846 0.052965198 0.014358404 -0.02040227
-0.020391827 -0.01081339 0.016028004 0.0039058358 0.005631117 -0.030077275 0.002571228 0.048027635
0.011138445 -0.031807028 0.005953153 -0.020671109 0.00921556 -0.013059399 -0.0051082834 -0.008222233
-0.014423675 -0.008116288 -0.010163254 -0.024506167 -0.0016221638 0.039110493 0.01041531 -0.0029855564
0.041349933 0.025578778 -0.00821035 -0.002583346 -0.010581236 -0.0003588553 0.019783862 0.00651368
0.010905902 -0.017590078 -0.024602076 -0.008715039 -0.010973522 -0.00042718026 -0.047890116 -0.026834024
0.012449631 -0.035926577 0.006082325 0.0030100828 -0.0039908155 -0.014549404 0.01524881 0.057984956
-0.0004965188 0.015281438 0.013991029 -0.020970855 -0.0395485 0.0047142766 0.0049790726 0.021242162
0.013794585 -0.006046639 -0.0286863 -0.0094286725 0.03955427 0.006630744 0.0214624 -0.010265003
-0.00609425 0.008737396 -0.007344353 -0.016739149 -0.018288301 0.0037858721 0.020199293 -0.035175394
0.0027612043 0.016156001 0.002376661 0.039395075 -0.001742944 0.0051040426 -0.01571365 -0.017593643
0.026206234 0.016787134 0.0023495578 -0.021536108 0.028693585 -0.009875712 -0.014705049 -0.0010341209
00000000: 1608 8abb e0dd 05bc a94c 4f3c eb3b 933b
00000010: 6ae2 02bc 22d6 223c d158 033d 511e 1bbc
00000020: 4745 2bbc 8971 223d 28b4 4c3b 62b9 9ebb
00000030: 414f 9f3c 646b 9cbc 7bf3 2fbb bd0a da3c
00000040: f6df c73a 2e4e 843c 218b 873b 781c 78bc
00000050: e5b1 3c3c 8acd 993a 09a8 023c 3a64 2abb
00000060: 3a6c 453b e0cd fb3a dc0d 84bb fe57 273b
00000070: 20fe cb3b ab71 d33a 1a3c b4bb 0b8e d63b
00000080: 5f5a 523c e43a 2fbd 9ae4 6bbc ab73 443d
00000090: f6dc 173c 3f48 053c c6a0 b7bc ea1c bd39
000000a0: a36f 6d3c c4e3 083d 9c46 753c 36e3 96bb
000000b0: f2ea c13b 1d2e b93a 446a 873a 2e7f 0c3d
000000c0: 9726 abbb 3160 27bb 8b27 1bbc cfd9 073d
000000d0: 8ba3 2939 f8da 56bc 5f40 f93c 4bfd 923b
000000e0: 3ada 78bc 8995 d03b dde5 c4bc 49ef 003c
000000f0: 4717 fdba 0a26 01bb 3e23 1bbb df17 ecbb
00000100: e319 03ba b5e5 423b 4857 243c 1a2e 0f3c
00000110: 189e a5bc 05dd 443c 5daf bdba 71c4 7b3c
00000120: 5687 68bc 672f ef3b 0c96 b83c d313 4f3c
00000130: df4b e2bb aa53 7c3c fc11 9abc 3dca 4fbc
00000140: e98d 5c3c c0e3 91ba b763 0ebd 151a 7bbc
00000150: be16 71bb 33c9 3b3b 590e 64bc fb07 9b3b
00000160: 7f84 c4bb 7e47 97bb a4e4 02bd 78b5 0dbd
00000170: c616 a83c d74c 68bc 7a12 bd3b 5027 08bd
00000180: 6767 0bbc e46c 44bd 321b 1ebc 73b4 92bb
00000190: 577f cdb8 759f eb3c 51ff 833a 33e8 e8bc
000001a0: 9e44 c33c 26e2 723c b2cd 90bc cff7 a73c
000001b0: b31f c43c 8b47 543b d595 a03c d66f 37bc
000001c0: 8b55 81bc 5091 083c cb35 bb3b 978f 82bc
000001d0: 2792 3abc 3384 73bc 6ad3 73bb afc9 743c
000001e0: 953d a93c 3756 e93b d804 903b cc71 683c
000001f0: 3fd0 d6bc e01f 123c 27c2 1f3c 361a 2ebd
00000200: 596d 3f3b de35 83bc 9a3a 0abc c84d 733c
00000210: 0588 453b 9b8c 613a c0f8 d03c 79cc 04bc
00000220: 9bd3 1a3d 6760 4b3d fd9b bd3b cb24 273b
00000230: 6f7d 5b3c 1f09 29bc 2d84 85bc be28 8d3c
00000240: 290e 1b3a df25 423d 4fe8 a6bb f1d0 98bc
00000250: 547c 9bbb 05b2 9bbb 6b44 13bb 0609 723c
00000260: 25e3 0c3a 6a76 e03a fb85 b8bb 0432 52bc
00000270: 208d 253c b808 5fbc c299 82bc 0dce 443d
00000280: d0ae 5a3b c046 08bc 8559 7c3c 4ede 31bc
00000290: 56ca 033c 09f2 583d 833f 6b3c a922 a7bc
000002a0: c30c a7bc a52a 31bc 294d 833c 0df9 7f3b
000002b0: 3c85 b83b 9e64 f6bc 0c82 283b a0b8 443d
000002c0: 067e 363c 1648 02bd ab12 c33b 7556 a9bc
000002d0: dcfc 163c 17f7 55bc 6363 a7bb 8bb6 06bc
000002e0: 4751 6cbc 2efa 04bc c783 26bc 28c1 c8bc
000002f0: c99e d4ba 5332 203d faa4 2a3c 53a9 43bb
00000300: 8c5e 293d 968a d13c b484 06bc 5b4d 29bb
00000310: ec5c 2dbc be24 bcb9 c411 a23c b570 d53b
00000320: abae 323c 1119 90bc 4b8a c9bc 86c9 0ebc
00000330: 4aca 33bc 2af7 dfb9 6d28 44bd 07d3 dbbc
00000340: 89f9 4b3c bf27 13bd 3d4e c73b cf44 453b
00000350: 63c5 82bb a060 6ebc 25d6 793c a281 6d3d
00000360: d028 02ba ff5e 7a3c a13a 653c 12cb abbc
00000370: 9cfd 21bd 387a 9a3b 7d27 a33b 0b04 ae3c
00000380: af02 623c e222 c6bb 88ff eabc b87a 1abc
00000390: a903 223d b646 d93b ead1 af3c 8b2e 28bc
000003a0: 46b2 c7bb 4c27 0f3c e6a8 f0bb 8a20 89bc
000003b0: 59d1 95bc 651c 783b fd78 a53c 1314 10bd
000003c0: 52f5 343b 9759 843c c1c1 1b3b bb5c 213d
000003d0: 7f73 e4ba d03f a73b eab9 80bc 8b20 90bc
000003e0: 75ae d63c 2c85 893c 0afb 193b 7e6c b0bc
000003f0: cf0e eb3c bdcd 21bc 72ed 70bc 578b 87ba

action_model._continuous_distribution.mu.bias f4 [2]
0.009448709 0.015180182
00000000: c2ce 1a3c 4cb6 783c

action_model._discrete_distribution.branches.0.weight f4 [1, 128]
0.015675467 -0.013268644 -0.0013432929 -0.0019260412 0.00017522792 0.009071207 0.006697158 0.008771288
0.009885324 -0.0038713259 -0.0056608175 -0.0054115593 -0.0003146767 0.0038801983 0.002486061 0.011531778
0.00696562 0.006060112 0.004488596 0.009642443 -0.021909183 -0.007214212 -0.00320557 -0.010222807
0.00043776174 0.0039575263 0.017645705 0.009317397 -0.0027759678 -0.0065176226 0.004753047 0.022080634
0.008948332 0.007795967 0.01915393 -0.008988434 0.0010060364 -0.0011362358 -0.010306254 -0.007104681
-0.006273217 0.016004806 0.0035993513 0.005936966 -0.011648346 -0.005681049 -0.00856285 -0.005627124
0.015916847 -0.013253571 0.011582882 0.004058078 0.0080249 0.0026778323 0.01401743 0.0040554903
0.0086757755 -0.0098441085 0.013397318 0.008791319 0.02558271 0.005502332 -0.0055504856 0.0013806438
-0.005241254 0.0152703645 0.0028879815 0.007956045 -0.010688341 0.010706648 0.008852502 0.013307777
0.0042776684 0.007877293 -0.006444274 0.024713188 0.0029064566 0.004265222 0.0009864647 -0.007157005
0.0056698467 -0.011277348 -0.007457676 -0.0070350072 -0.017503763 -0.0017803379 -0.0053229826 -0.004382274
0.0028433902 -0.0018004103 -0.008889737 -0.014494312 0.013983115 0.0013870922 -0.0023531613 -0.0044654584
0.0049429275 -0.005375333 0.0010305728 -0.0041515776 0.0027859204 0.004262989 0.013562957 0.0037404005
0.0121500585 0.0066735647 0.007968206 0.008101731 -0.011968701 -0.003992309 0.0044304444 0.0046504643
0.005164456 -0.009161512 -0.0044249566 0.008434491 0.007184913 -0.008431854 0.0015321475 -0.00586499
-0.0004687083 0.00967886 -0.010900433 -0.0030667342 0.0033328559 0.00083509117 -0.0015041694 -0.003426113
00000000: d669 803c ba64 59bc 6e11 b0ba 3873 fcba
00000010: 63bd 3739 669f 143c d573 db3b 73b5 0f3c
00000020: 0ef6 213c 12b6 7dbb 617e b9bb 7353 b1bb
00000030: 31fb a4b9 ed4a 7e3b 2fed 223b c8ef 3c3c
00000040: db3f e43b e793 c63b 1315 933b 56fb 1d3c
00000050: e37a b3bc 3265 ecbb 8a14 52bb 8f7d 27bc
00000060: 6383 e539 23ae 813b ba8d 903c ffa7 183c
00000070: 03ed 35bb c891 d5bb 73bf 9b3b 72e2 b43c
00000080: 069c 123c 5075 ff3b b4e8 9c3c 3a44 13bc
00000090: fbdc 833a bfed 94ba 90db 28bc 62ce e8bb
000000a0: 8f8f cdbb 831c 833c 18e3 6b3b e18a c23b
000000b0: b4d8 3ebc 1828 babb 324b 0cbc bd63 b8bb
000000c0: 0c64 823c 8225 59bc 21c6 3d3c a0f9 843b
000000d0: df7a 033c 927e 2f3b 5da9 653c ebe3 843b
000000e0: d724 0e3c 2f49 21bc 6d80 5b3c 7709 103c
000000f0: d592 d13c e84c b43b d9e0 b5bb b8f6 b43a
00000100: d3be abbb 8d30 7a3c 4a44 3d3b 125a 023c
00000110: 271e 2fbc f06a 2f3c 160a 113c dd08 5a3c
00000120: af2b 8c3b c30f 013c 7d2a d3bb 5073 ca3c
00000130: 407a 3e3b 47c3 8b3b 434c 813a 4f85 eabb
00000140: 1fca b93b a0c4 38bc 855f f4bb eb85 e6bb
00000150: 0d64 8fbc 3a5a e9ba 6a6c aebb 2e99 8fbb
00000160: 2c58 3a3b bffb ebba 42a6 11bc 8d79 6dbc
00000170: 6f19 653c 17cf b53a 7f37 1abb fb52 92bb
00000180: 48f8 a13b 9023 b0bb 4914 873a f509 88bb
00000190: fd93 363b 8bb0 8b3b 2a37 5e3c 8221 753b
000001a0: 0a11 473c ebad da3b 148d 023c 1fbd 043c
000001b0: 5f18 44bc ead1 82bb 432d 913b ec62 983b
000001c0: 993a a93b 2b1a 16bc 3aff 90bb d230 0a3c
000001d0: 6b6f eb3b c225 0abc 57d2 c83a 1a2f c0bb
000001e0: f7bc f5b9 1594 1e3c bb97 32bc 43fb 48bb
000001f0: 0b6c 5a3b 05ea 5a3a 8d27 c5ba a388 60bb

exp_avg f4 [128, 10]
6e-45 -6e-45 -6e-45 -6e-45 -6e-45 -6e-45 -6e-45 6e-45
-6e-45 0.0 5.309148e-06 -4.5158873 -3.1863622e-06 0.00025721942 3.648276e-05 0.0002122258
-1.5871568e-07 -1.4081222e-07 8.737976e-07 0.0 6e-45 6e-45 -6e-45 -6e-45
-6e-45 -6e-45 -6e-45 6e-45 -6e-45 0.0 6e-45 -6e-45
-6e-45 -6e-45 -6e-45 -6e-45 6e-45 -6e-45 -6e-45 0.0
-6e-45 -6e-45 6e-45 6e-45 6e-45 6e-45 -6e-45 6e-45
6e-45 0.0 9.140852e-06 -3.7129805 -1.434934e-05 0.00020802201 2.9516315e-05 0.0001763904
-1.2975923e-07 -1.1618368e-07 7.189689e-07 0.0 -1.0732846e-06 -3.8910716 1.1127061e-05 0.00022574967
3.2005682e-05 0.00018063583 -1.3762178e-07 -1.208868e-07 7.5234567e-07 0.0 -6e-45 6e-45
-6e-45 -6e-45 -6e-45 -6e-45 -6e-45 6e-45 -6e-45 0.0
-2.4021989e-05 -8.161282 7.680944e-05 0.000489282 6.931672e-05 0.00037021594 -2.9202008e-07 -2.516821e-07
1.5755575e-06 0.0 0.0 0.0 0.0 0.0 0.0 0.0
0.0 0.0 0.0 0.0 1.6706061e-06 -2.0463672 3.6204437e-07 0.00011709593
1.6606555e-05 9.5880896e-05 -7.203441e-08 -6.37532e-08 3.9589162e-07 0.0 -6e-45 -6e-45
6e-45 6e-45 6e-45 6e-45 -6e-45 6e-45 6e-45 0.0
-6e-45 6e-45 6e-45 6e-45 6e-45 6e-45 6e-45 -6e-45
6e-45 0.0 5.6808976e-06 -3.7519116 -5.7672364e-06 0.00021276037 3.017996e-05 0.00017680896
-1.3168139e-07 -1.17059486e-07 7.260379e-07 0.0 6e-45 -6e-45 -6e-45 -6e-45
-6e-45 -6e-45 -6e-45 6e-45 -6e-45 0.0 6e-45 -6e-45
-6e-45 -6e-45 -6e-45 -6e-45 -6e-45 6e-45 -6e-45 0.0
-1.0605965e-05 2.466701 2.0667958e-05 -0.00013488765 -1.9150337e-05 -0.00011896758 8.5508056e-08 7.753439e-08
-4.7807293e-07 0.0 0.0 0.0 0.0 0.0 0.0 0.0
0.0 0.0 0.0 0.0 -5.0973667e-06 0.9131003 1.0527393e-05 -4.9088027e-05
-6.972076e-06 -4.4508834e-05 3.1463543e-08 2.8811893e-08 -1.7711967e-07 0.0 8.54398e-07 3.1755638
-9.02765e-06 -0.00018421035 -2.6116506e-05 -0.00014741873 1.1231768e-07 9.864103e-08 -6.139638e-07 0.0
1.5877178e-05 -6.310976 -2.5226838e-05 0.00035330065 5.013079e-05 0.00029992394 -2.2049943e-07 -1.9745679e-07
1.2219778e-06 0.0 1.9944385e-07 -5.450574 1.1403661e-05 0.00031497836 4.4660108e-05 0.00025369806
-1.925189e-07 -1.6945813e-07 1.0540194e-06 0.0 1.0469464e-05 7.084968 -4.1174073e-05 -0.0004172126
-5.913031e-05 -0.00032551037 2.519112e-07 2.1936182e-07 -1.3688935e-06 0.0 -6e-45 6e-45
6e-45 6e-45 6e-45 6e-45 6e-45 -6e-45 6e-45 0.0
8.895868e-07 -4.14706 6.8640124e-06 0.00023910934 3.3904565e-05 0.00019331393 -1.4636255e-07 -1.2898343e-07
8.0201045e-07 0.0 6.484894e-06 -3.1207068 -9.118757e-06 0.0001756975 2.492686e-05 0.00014776876
00000000: 0400 0000 0400 0080 0400 0080 0400 0080
00000010: 0400 0080 0400 0080 0400 0080 0400 0000
00000020: 0400 0080 0000 0000 3c25 b236 2682 90c0
00000030: 49d5 55b6 68db 8639 1105 1938 ee88 5e39
00000040: 6f6b 2ab4 2b32 17b4 ea8e 6a35 0000 0000
00000050: 0400 0000 0400 0000 0400 0080 0400 0080
00000060: 0400 0080 0400 0080 0400 0080 0400 0000
00000070: 0400 0080 0000 0000 0400 0000 0400 0080
00000080: 0400 0080 0400 0080 0400 0080 0400 0080
00000090: 0400 0000 0400 0080 0400 0080 0000 0000
000000a0: 0400 0080 0400 0080 0400 0000 0400 0000
000000b0: 0400 0000 0400 0000 0400 0080 0400 0000
000000c0: 0400 0000 0000 0000 a95b 1937 79a1 6dc0
000000d0: f2bd 70b7 7c20 5a39 ce99 f737 70f5 3839
000000e0: f253 0bb4 a780 f9b3 2bff 4035 0000 0000
000000f0: c70d 90b5 5107 79c0 5dae 3a37 37b7 6c39
00000100: d73d 0638 1069 3d39 30c5 13b4 1ccd 01b4
00000110: cdf4 4935 0000 0000 0400 0080 0400 0000
00000120: 0400 0080 0400 0080 0400 0080 0400 0080
00000130: 0400 0080 0400 0000 0400 0080 0000 0000
00000140: d482 c9b7 9c94 02c1 c114 a138 2943 003a
00000150: 215e 9138 8b19 c239 efc6 9cb4 ed1e 87b4
00000160: be77 d335 0000 0000 0000 0000 0000 0000
00000170: 0000 0000 0000 0000 0000 0000 0000 0000
00000180: 0000 0000 0000 0000 0000 0000 0000 0000
00000190: 9739 e035 aef7 02c0 005f c234 6691 f538
000001a0: 4e4e 8b37 aa13 c938 56b1 9ab3 b1e8 88b3
000001b0: ee8a d434 0000 0000 0400 0080 0400 0080
000001c0: 0400 0000 0400 0000 0400 0000 0400 0000
000001d0: 0400 0080 0400 0000 0400 0000 0000 0000
000001e0: 0400 0080 0400 0000 0400 0000 0400 0000
000001f0: 0400 0000 0400 0000 0400 0000 0400 0080
00000200: 0400 0000 0000 0000 8a9e be36 521f 70c0
00000210: 2f84 c1b6 6d18 5f39 f82a fd37 cb65 3939
00000220: 4e64 0db4 2262 fbb3 f2e4 4235 0000 0000
00000230: 0400 0000 0400 0080 0400 0080 0400 0080
00000240: 0400 0080 0400 0080 0400 0080 0400 0000
00000250: 0400 0080 0000 0000 0400 0000 0400 0080
00000260: 0400 0080 0400 0080 0400 0080 0400 0080
00000270: 0400 0080 0400 0000 0400 0080 0000 0000
00000280: 46f0 31b7 6ede 1d40 1a60 ad37 a170 0db9
00000290: 09a5 a0b7 3c7e f9b8 8da0 b733 fb80 a633
000002a0: ec54 00b5 0000 0000 0000 0000 0000 0000
000002b0: 0000 0000 0000 0000 0000 0000 0000 0000
000002c0: 0000 0000 0000 0000 0000 0000 0000 0000
000002d0: 0c0a abb6 f1c0 693f cf9e 3037 dee3 4db8
000002e0: adf1 e9b6 ffae 3ab8 8822 0733 067e f732
000002f0: 492e 3eb4 0000 0000 c959 6535 703c 4b40
00000300: 7675 17b7 9728 41b9 c514 dbb7 6a94 1ab9
00000310: 4c33 f133 7bd4 d333 45cf 24b5 0000 0000
00000320: fb2f 8537 84f3 c9c0 399e d3b7 363b b939
00000330: 8743 5238 1c3f 9d39 6cc2 6cb4 8204 54b4
00000340: d602 a435 0000 0000 b526 5634 1a6b aec0
00000350: 5a52 3f37 ae23 a539 6d51 3b38 c702 8539
00000360: 31b7 4eb4 4cf4 35b4 d577 8d35 0000 0000
00000370: 01a6 2f37 0fb8 e240 53b2 2cb8 54bd dab9
00000380: b002 78b8 43a9 aab9 693e 8734 b889 6b34
00000390: d3ba b7b5 0000 0000 0400 0080 0400 0000
000003a0: 0400 0000 0400 0000 0400 0000 0400 0000
000003b0: 0400 0000 0400 0080 0400 0000 0000 0000
000003c0: f0cb 6e35 b7b4 84c0 6b51 e636 6db9 7a39
000003d0: c034 0e38 50b4 4a39 d527 1db4 b27e 0ab4
000003e0: bd49 5735 0000 0000 d198 d936 a9b9 47c0
000003f0: c3fc 18b7 703b 3839 061a d137 60f2 1a39

exp_avg_sq f4 [128, 10]
4.659567e-23 1.2135913e-21 4.3824497e-22 1.2232523e-20 6.5656234e-22 8.494788e-21 2.7729238e-28 5.8313066e-29
1.3591696e-25 0.0 2.8826505e-06 203362.69 2.8824532e-05 0.0017638737 3.8532376e-05 0.0011047093
4.0229664e-10 6.866128e-10 1.9315305e-08 0.0 2.6923261e-09 2.055819e-07 2.576087e-08 8.4781686e-07
2.7212007e-08 5.3651786e-07 1.9842778e-14 5.0149683e-15 9.052684e-12 0.0 1.3863623e-38 4.017079e-37
1.3039128e-37 3.6395494e-36 2.254597e-37 2.5274718e-36 0.0 0.0 4.0443e-41 0.0
4.384794e-09 2.3914765e-06 5.600201e-08 4.2307547e-06 1.04553706e-07 2.6661105e-06 8.737286e-15 3.8867763e-15
4.503487e-11 0.0 4.6262107e-06 312076.22 4.7033194e-05 0.0029198525 6.481626e-05 0.0018399208
6.3644995e-10 1.1518717e-09 3.207089e-08 0.0 1.0703048e-06 73698.63 1.1187668e-05 0.0007257436
1.6098369e-05 0.00045759836 1.4130273e-10 2.8850758e-10 7.987025e-09 0.0 1.0078077e-08 1.3927554e-06
9.545306e-08 3.038487e-06 6.4628345e-08 1.7251072e-06 2.7304134e-14 5.629289e-15 3.1165244e-11 0.0
1.5144435e-06 160046.67 1.5281243e-05 0.00083025644 1.7060376e-05 0.0004992819 2.6731675e-10 2.3833893e-10
8.870429e-09 0.0 0.0 0.0 0.0 0.0 0.0 0.0
0.0 0.0 0.0 0.0 9.90658e-07 60876.76 1.0754837e-05 0.00071312784
1.6361766e-05 0.000453541 1.2288483e-10 2.678364e-10 7.882401e-09 0.0 8.258016e-08 0.07267781
9.26589e-07 5.4772558e-05 1.2566514e-06 3.369424e-05 1.31952e-13 1.1751559e-12 5.7822513e-10 0.0
2.873493e-08 6.9845595e-07 2.672894e-07 7.159932e-06 3.779652e-07 4.969735e-06 1.2783775e-13 2.7020442e-14
7.95379e-11 0.0 1.5071391e-06 126409.72 1.5018711e-05 0.0009478644 2.0470055e-05 0.0005923266
2.4276695e-10 3.4284608e-10 1.0360297e-08 0.0 3.0921863e-09 2.1914875e-07 2.8518304e-08 7.8748303e-07
3.6258147e-08 5.341813e-07 1.6893457e-14 4.438548e-15 8.6548685e-12 0.0 9.667677e-36 2.6737317e-34
8.65112e-35 2.8567903e-33 1.4342481e-34 1.9838912e-33 3.56293e-40 8.6888e-41 3.1719338e-38 0.0
1.1618762e-06 109274.24 1.1454714e-05 0.0007075578 1.4524769e-05 0.00043243996 2.1548255e-10 2.3615956e-10
7.6374675e-09 0.0 0.0 0.0 0.0 0.0 0.0 0.0
0.0 0.0 0.0 0.0 3.5456432e-07 17153.08 3.3433812e-06 0.00015484905
3.2663415e-06 9.350802e-05 3.0148096e-11 2.9738635e-11 1.6627427e-09 0.0 9.690435e-07 37944.883
1.0078364e-05 0.000602342 1.4700484e-05 0.00039369133 8.0935335e-11 2.4415664e-10 6.7796e-09 0.0
8.092835e-06 604864.7 8.2140155e-05 0.005123134 0.000112870504 0.003220472 1.1689905e-09 1.9633704e-09
5.62379e-08 0.0 1.270092e-06 87555.89 1.337361e-05 0.00087479653 1.9697922e-05 0.00055500225
1.6591185e-10 3.2449476e-10 9.660154e-09 0.0 1.136342e-06 71665.31 1.2316747e-05 0.00076958665
1.8504888e-05 0.00049789797 1.2641216e-10 2.837044e-10 8.604138e-09 0.0 1.9240927e-08 6.858443e-07
1.8342074e-07 5.731713e-06 2.3934638e-07 3.8010169e-06 4.958209e-14 1.3749776e-14 6.239931e-11 0.0
1.6755457e-06 97914.52 1.777937e-05 0.0011697087 2.7389598e-05 0.00075495004 1.922374e-10 4.5319917e-10
1.306018e-08 0.0 1.7876243e-06 116241.16 1.8084662e-05 0.0011083321 2.5001884e-05 0.00070311717
00000000: a552 611a 8a64 b71c 9073 041c da10 671e
00000010: 0d6f 461c 4676 201e 43c1 af11 58d7 9310
00000020: ce41 2816 0000 0000 8f73 4136 ac98 4648
00000030: 36cc f137 c831 e73a d39d 2138 e5cb 903a
00000040: 382a dd2f 15bc 3c30 ceea a532 0000 0000
00000050: e703 3931 ecbd 5c34 c148 dd32 8895 6335
00000060: d6bf e932 3a05 1035 55ba b228 ebae b427
00000070: aa41 1f2d 0000 0000 24f6 9600 b2b1 0803
00000080: bb7a 3102 2fcf 9a04 9f70 9902 7603 5704
00000090: 0000 0000 0000 0000 bd70 0000 0000 0000
000000a0: 0ea9 9631 417d 2036 dc86 7033 e8f5 8d36
000000b0: 0287 e033 6eeb 3236 9f65 1d28 2f09 8c27
000000c0: c210 462e 0000 0000 d93a 9b36 8761 9848
000000d0: 8245 4538 ff5a 3f3b f7ed 8738 7f29 f13a
000000e0: 2ff2 2e30 e24f 9e30 51be 0933 0000 0000
000000f0: 65a7 8f35 51f1 8f47 abb2 3b37 d43f 3e3a
00000100: fc0a 8737 d0e9 ef39 2f5d 1b2f d59b 9e2f
00000110: 4f37 0932 0000 0000 da23 2d32 b6ee ba35
00000120: e0fb cc33 cfe8 4b36 cfc9 8a33 3b8a e735
00000130: 0cef f528 07d1 ca27 f210 092e 0000 0000
00000140: e243 cb35 ab4b 1c48 3830 8037 91a5 593a
00000150: e11c 8f37 3ee2 023a 7df5 922f 3907 832f
00000160: 8f64 1832 0000 0000 0000 0000 0000 0000
00000170: 0000 0000 0000 0000 0000 0000 0000 0000
00000180: 0000 0000 0000 0000 0000 0000 0000 0000
00000190: c0f6 8435 c3cc 6d47 ac6f 3437 33f1 3a3a
000001a0: a040 8937 3ec9 ed39 011d 072f 9f3e 932f
000001b0: 2b6b 0732 0000 0000 ec56 b133 1bd8 943d
000001c0: b6ba 7835 96bb 6538 37aa a835 ea52 0d38
000001d0: 9390 142a 7463 a52b faf0 1e30 0000 0000
000001e0: c8d4 f632 877d 3b35 fa7f 8f34 593f f036
000001f0: 24eb ca34 b3c1 a636 b9ee 0f2a e660 f328
00000200: dbe7 ae2e 0000 0000 e848 ca35 dce4 f647
00000210: dff8 7b37 1a7a 783a 1cb7 ab37 5e46 1b3a
00000220: 6976 852f 4c7b bc2f 11fd 3132 0000 0000
00000230: 517e 5431 264f 6b34 6af8 f432 6c63 5335
00000240: 41ba 1b33 a964 0f35 a929 9828 61ea 9f27
00000250: 1042 182d 0000 0000 d79b 4d05 30b3 b107
00000260: 79fc e506 3655 6d09 efa4 3e07 b3d0 2409
00000270: 33e1 0300 35f2 0000 4eb2 2c01 0000 0000
00000280: c3f1 9b35 1f6d d547 9f2d 4037 667b 393a
00000290: 68af 7337 1cb9 e239 f2ec 6c2f 81d4 812f
000002a0: f035 0332 0000 0000 0000 0000 0000 0000
000002b0: 0000 0000 0000 0000 0000 0000 0000 0000
000002c0: 0000 0000 0000 0000 0000 0000 0000 0000
000002d0: f35a be34 2902 8646 da5e 6036 fa5e 2239
000002e0: 5233 5b36 bc19 c438 bd97 042e baca 022e
000002f0: 8f86 e430 0000 0000 1510 8235 e238 1447
00000300: 3e16 2937 7de6 1d3a 19a2 7637 5b68 ce39
00000310: 8bfa b12e fe39 862f fef1 e831 0000 0000
00000320: 76c6 0737 0bac 1349 a942 ac38 f6df a73b
00000330: e4b4 ec38 8e0e 533b 32aa a030 faeb 0631
00000340: 3a8a 7133 0000 0000 0778 aa35 f201 ab47
00000350: 385f 6037 9a52 653a f73c a537 927d 113a
00000360: 096c 362f 9464 b22f cef5 2532 0000 0000
00000370: 6a84 9835 a8f8 8b47 07a4 4e37 16be 493a
00000380: f23a 9b37 5e85 023a dcfd 0a2f d8f7 9b2f
00000390: 66d1 1332 0000 0000 3f47 a532 dd1a 3835
000003a0: 4ff2 4434 0a53 c036 847f 8034 f914 7f36
000003b0: 424c 5f29 a6b1 7728 b037 892e 0000 0000
000003c0: 50e3 e035 433d bf47 e824 9537 e950 993a
000003d0: b7c2 e537 d7e7 453a 055e 532f 1d26 f92f
000003e0: 475f 6032 0000 0000 4eee ef35 9408 e347
000003f0: 84b4 9737 7445 913a 23bb d137 6551 383a
