Assets/results/VIkramRover3/VikramRover/checkpoint.pt (torch, 858283 bytes, 51 tensors)

network_body._body_endoder.seq_layers.0.weight f4 [128, 10]
0	0x3df08ddc	0.117458075
1	0xbe9c011a	-0.3046959
2	0x3ec4ccef	0.38437602
3	0x3f1a3cc2	0.6024896
4	0xbd9697eb	-0.07353195
5	0x3b4108f3	0.0029454797
6	0x3ccc0e77	0.024909241
7	0x3e54c179	0.20776929
8	0x3e855ef1	0.26048997
9	0x3ebb4156	0.36573285
10	0x3d60767c	0.054800496
11	0xbef70d62	-0.48252398
12	0x3e628258	0.22120035
13	0xbe4e8e1c	-0.20171398
14	0xbe73aa72	-0.23795488
15	0x3f0e486f	0.55579275
16	0xbf3ad084	-0.7297442
17	0x3ec5341f	0.38516328
18	0x3f0232d9	0.5085884
19	0x3dc51a28	0.096241295
20	0xbe1794b1	-0.14802815
21	0xbe91d578	-0.28483176
22	0xbe5727c9	-0.2101127
23	0xbe962088	-0.29321694
24	0x3cc75571	0.024332734
25	0xbd8f0ce9	-0.06984884
26	0x3e75a86a	0.23990026
27	0xbc257a98	-0.010100029
28	0x3efae775	0.49004713
29	0xbe7c5792	-0.2464278
30	0x3de2adaf	0.11068284
31	0x3d9b386d	0.07579122
32	0xb98a48be	-0.00026375608
33	0xbd6276f7	-0.055289235
34	0x3dcc6b02	0.099813476
35	0x3e3ad76f	0.18246244
36	0x3d3444d7	0.044010963
37	0x3e083ee3	0.1330524
38	0xbeef94bf	-0.46793172
39	0xbdc448e3	-0.095842145
40	0x3ea38d9a	0.3194397
41	0xbf237927	-0.6385674
42	0xbeaa9fec	-0.33325136
43	0x3eee4e7e	0.4654426
44	0xbad926c5	-0.001656734
45	0x3cc4b78f	0.024013309
46	0x3e84841e	0.25882047
47	0xbeff7ed3	-0.49901447
48	0xbeb2f728	-0.3495419
49	0x3c4fa69d	0.012674001
50	0x3f0b43a8	0.5440011
51	0xbeab12b1	-0.33412698
52	0x3d9c50fa	0.076326326
53	0xbe9a4bde	-0.30136007
54	0x3e8533ae	0.2601599
55	0xbf00f41a	-0.5037247
56	0x3f145285	0.57938415
57	0x3ea5e9e7	0.32405016
58	0x3e8bbe21	0.27293494
59	0xbefcc057	-0.49365494
60	0xbd842f6d	-0.06454358
61	0x3d3a1381	0.045428757
62	0xbf0a451a	-0.5401169
63	0xbe8b744b	-0.27237162
64	0xb941d3b7	-0.00018484784
65	0xbe87162b	-0.263841
66	0xbf127954	-0.5721638
67	0x3e689c0b	0.22715776
68	0x3e476ac6	0.19474325
69	0x3ec6870d	0.3877491
70	0x3e9f6771	0.31133607
71	0xbeae165f	-0.34001443
72	0x3ea78127	0.32715723
73	0x3d86b09d	0.06576655
74	0x3deecd3b	0.11660238
75	0x3db85847	0.090012126
76	0x3ed4b5b9	0.41544893
77	0xbeceeb25	-0.40413776
78	0x3d832407	0.06403356
79	0xbe5b9cb7	-0.214465
80	0xbede05f5	-0.4336392
81	0xbda6d36c	-0.08145794
82	0xbdfe9aa7	-0.12431841
83	0x3e6b84c9	0.22999872
84	0x3ebb5862	0.36590868
85	0x3e0af7de	0.13571116
86	0xbeb5d2d4	-0.35512412
87	0x3d94ba5f	0.0726211
88	0xbf071b9f	-0.5277652
89	0xbf0a0be6	-0.53924406
90	0x3e11aef0	0.1422689
91	0xbe078cd6	-0.13237318
92	0xbe1f043d	-0.1552896
93	0xbcf18d80	-0.029486418
94	0xbe4f0622	-0.20217183
95	0x3d29b2a6	0.041430138
96	0xbe88e70b	-0.26738772
97	0xbee4cf24	-0.44689286
98	0x3ec5977d	0.3859214
99	0x3e64a51e	0.22328612
100	0x3e3ec5d5	0.18630154
101	0xbe91bf3c	-0.28466213
102	0xbe8a0e36	-0.26963967
103	0xbc3b3c53	-0.011427957
104	0x3e95ee59	0.29283407
105	0xbca6f9ff	-0.02038288
106	0xbebbd525	-0.36686054
107	0x3ec4acc2	0.38413054
108	0x3d38779c	0.045035943
109	0x3ec26d55	0.3797404
110	0x3f3abc59	0.72943646
111	0x3e2f88aa	0.17141977
112	0xbd888191	-0.06665338
113	0xbec2be96	-0.3803603
114	0xbebaef91	-0.365109
115	0xbeccffb9	-0.4003885
116	0x3ef08f22	0.46984202
117	0x3ee06306	0.4382555
118	0x3ea549dc	0.32282913
119	0x3c5f5d9b	0.013633157
120	0xbcf1247c	-0.029436342
121	0x3e4d82fc	0.20069498
122	0x3ed21385	0.41030517
123	0xbcb3c83f	-0.02194607
124	0xbd9da653	-0.076977395
125	0xbe4466f1	-0.19179894
126	0xbef89865	-0.48553768
127	0xbe5a189b	-0.21298449
128	0x3e2489bb	0.16068165
129	0x3eebd7ca	0.4606307
130	0xbdcaf32d	-0.09909663
131	0xbdae4cfe	-0.08510779
132	0x3ed69641	0.4191151
133	0x3e8e57c8	0.27801347
134	0x3e7cf266	0.24701843
135	0xbf14ee92	-0.5817653
136	0x3f54bddb	0.83102196
137	0x3e4c9c47	0.1998149
138	0xbe16f089	-0.14740194
139	0xbcd2eb59	-0.025746988
140	0xbee68032	-0.4501968
141	0x3d258288	0.040407687
142	0xbea45b8e	-0.321011
143	0x3f63ba4c	0.8895614
144	0xbe09725d	-0.13422532
145	0x3d8f2092	0.06988634
146	0x3e50eee6	0.20403633
147	0xbda77d49	-0.08178193
148	0x3eb7256c	0.35770738
149	0xbede985a	-0.4347561
150	0xbee5614f	-0.44800803
151	0xbdfbb15d	-0.12289689
152	0x3ba0a734	0.0049027447
153	0x3e9af7dd	0.3026723
154	0x3b5ecf99	0.003399825
155	0xbd89485f	-0.06703257
156	0x3ea5409f	0.32275864
157	0x3f6bbb39	0.92082554
158	0x3eb83d8d	0.3598446
159	0xbea89b25	-0.32930866
160	0x3db92ab1	0.09041346
161	0xbece0a56	-0.4024226
162	0x3e9d53cc	0.30727994
163	0x3ed95b8e	0.42452663
164	0xbe993ae6	-0.29927748
165	0x3f0fe719	0.56212
166	0x3eef5550	0.46744776
167	0x3eb8087d	0.35943976
168	0x3eb097b8	0.34490752
169	0x3ea81416	0.32827824
170	0x3bad2399	0.0052837846
171	0xbf251fa5	-0.6450141
172	0x3d2e3c2e	0.04253786
173	0x3e9506be	0.29106706
174	0xbea5ef95	-0.3240935
175	0x3d2f1f26	0.042754315
176	0xbf245c0b	-0.64202946
177	0xbefa44c8	-0.488806
178	0xbd42de5c	-0.04757534
179	0x3ddcfd56	0.107905075
180	0xbf11e5ab	-0.5699107
181	0xbe94956b	-0.29020247
182	0xbd45f11e	-0.04832565
183	0xbe3581e9	-0.17725338
184	0x3d42e306	0.047579788
185	0x3e55a55f	0.20863865
186	0x3f07d3cf	0.5305757
187	0x3ea22e95	0.31676164
188	0xbd7519e6	-0.05983915
189	0xbd713683	-0.058889877
190	0xbd54fe0e	-0.052000098
191	0x3e880d4a	0.2657264
192	0x3d154a3f	0.03644776
193	0x3d327847	0.043571737
194	0xbeb45d8b	-0.35227618
195	0xbc636a25	-0.013880287
196	0xbd79e15a	-0.061005928
197	0x3c99aa9e	0.018758114
198	0x3e4d5ed4	0.20055705
199	0xbd37304c	-0.044723794
200	0x3e98527e	0.29750437
201	0x3e05f3ab	0.13081233
202	0x3d513212	0.05107314
203	0xbee2cd04	-0.4429704
204	0xbe85ff19	-0.26171187
205	0x3e4a6e91	0.1976874
206	0xbe0025f3	-0.12514476
207	0x3e57c51d	0.21071286
208	0xbea7b0ad	-0.3275198
209	0x3ea0244c	0.31277692
210	0xbe026515	-0.12733872
211	0xbe52f9f9	-0.2060317
212	0xbe88806e	-0.26660484
213	0xbf450083	-0.76953906
214	0xbe6a162d	-0.22860022
215	0xbd926f46	-0.0715013
216	0x3daa2a82	0.08308889
217	0xbf2322cb	-0.63724965
218	0xbce6530c	-0.028115772
219	0xbe67e90f	-0.22647499
220	0x3e0ec17c	0.13940996
221	0x3db127a8	0.08650142
222	0x3efca523	0.4934474
223	0x3dccb821	0.09996057
224	0xbe0d475b	-0.13796751
225	0xbeb18a03	-0.34675607
226	0x3eb97b03	0.36226663
227	0x3ea26376	0.31716508
228	0x3d84d44d	0.06485806
229	0x3ebe7d05	0.37204757
230	0x3d493657	0.04912409
231	0x3e12681b	0.14297526
232	0x3e95e172	0.29273564
233	0xbec35231	-0.38148645
234	0xbc674207	-0.014114863
235	0x3f18d11d	0.5969408
236	0x3f3853f5	0.7200311
237	0xbe6398c0	-0.22226238
238	0xbecc7ef9	-0.39940622
239	0xbe4cf926	-0.20016918
240	0xbe0204fa	-0.12697211
241	0x3e230a72	0.15921953
242	0x3e9e2b06	0.308922
243	0x3e0bd32a	0.13654771
244	0x3e391c20	0.18077135
245	0xbe019f9c	-0.12658542
246	0x3da92834	0.08259621
247	0x3edc8829	0.43072632
248	0x3eac428f	0.3364453
249	0xbf0ae8ba	-0.5426136
250	0x3d9d24af	0.076730125
251	0xbf0ba0b7	-0.54542106
252	0xbe0632ee	-0.13105366
253	0x3e60e428	0.21962035
254	0x3e6f968a	0.2339727
255	0x3ddeba1f	0.108753435

network_body._body_endoder.seq_layers.0.bias f4 [128]
0	0xbb4323db	-0.002977601
1	0xbb015044	-0.001973168
2	0x1a3c2b81	3.891263e-23
3	0xbbfa9429	-0.0076470566
4	0xbbbd7594	-0.0057818387
5	0xb981dc3e	-0.0002476889
6	0x99acaf93	-1.7855297e-23
7	0xbca6e340	-0.020372033
8	0xba80ad69	-0.0009817305
9	0xbb905825	-0.004405039
10	0xbc0aff26	-0.008483684
11	0xbc0f107a	-0.008731956
12	0x3b8e1241	0.004335672
13	0x3cb421f0	0.021988839
14	0x39dc6bd7	0.00042042017
15	0x2e8b5e07	6.337691e-11
16	0x3bc20f70	0.0059222504
17	0xbc558eba	-0.013034517
18	0x8b02bddb	-2.517992e-32
19	0x3b8587d4	0.00407503
20	0xbc9dddd1	-0.01927081
21	0x27b2f580	4.9671096e-15
22	0xbace1819	-0.0015723734
23	0xbb085164	-0.0020800466
24	0x3c5083cd	0.012726736
25	0x3ae29c49	0.0017289008
26	0xa706145b	-1.860727e-15
27	0x3d05d006	0.03266909
28	0xbc5683c4	-0.013092939
29	0x2c543f4d	3.016215e-12
30	0x3ca32915	0.01991705
31	0x27c7af04	5.5423348e-15
32	0xbad5aad6	-0.0016301523
33	0xbc0cfc37	-0.008605055
34	0x3abb3c2a	0.0014284898
35	0x3ba32a1c	0.004979385
36	0xbb58b355	-0.0033065875
37	0xbb2f4b7d	-0.0026747875
38	0x3b9faa8a	0.0048726248
39	0x3c386eb7	0.011256865
40	0x3cd47cf0	0.025938481
41	0xbc8a11cb	-0.016854187
42	0x3c5e5188	0.013569243
43	0xbbd389c5	-0.0064556324
44	0x3bb477b3	0.0055074333
45	0xa2d20b1e	-5.6932385e-18
46	0xbc111e2b	-0.00885729
47	0xbbbc363b	-0.0057437695
48	0x3cb8203c	0.022476308
49	0xbc92e957	-0.01793353
50	0x3d01a88b	0.031654876
51	0x3b0540b6	0.002033276
52	0xbc016c65	-0.007899378
53	0x3c888f29	0.016669827
54	0x3ba0879b	0.004898978
55	0xbc945f60	-0.018111885
56	0xbc71f438	-0.014767699
57	0xbca53b31	-0.020169826
58	0xbcc06cde	-0.023489412
59	0xbc305d23	-0.010764393
60	0xbbd4ce70	-0.006494336
61	0xbce218ff	-0.02759981
62	0xbb8d8115	-0.0043183663
63	0x3bfebafd	0.0077737556
64	0xbc2e9c9a	-0.010657454
65	0xb7097724	-8.193576e-06
66	0xbc257f8e	-0.010101212
67	0xbc1939a3	-0.009352121
68	0x3c4d1429	0.012517014
69	0xbb93dec5	-0.00451264
70	0xbc9353fe	-0.017984387
71	0xbc88fd1a	-0.01672225
72	0x00000000	0.0
73	0xba4ab476	-0.0007732579
74	0x3b532836	0.0032220013
75	0xbd005d1f	-0.031338807
76	0x3c0d8935	0.00863867
77	0xb50a2f01	-5.1477406e-07
78	0xbbc9304b	-0.00613979
79	0xbca7fca2	-0.020506207
80	0xbade59c6	-0.001696401
81	0xbbee15a4	-0.0072657634
82	0xbc592487	-0.013253338
83	0xbb1821a2	-0.0023213406
84	0xbab69694	-0.0013930374
85	0x188afa97	3.5925195e-24
86	0xbc9c9f7a	-0.019119013
87	0x3bb21581	0.0054346924
88	0xbc5247c6	-0.012834495
89	0xbb3f918a	-0.0029231035
90	0xbc22e8db	-0.009943212
91	0xbc1e4275	-0.009659399
92	0xbb73412b	-0.00371177
93	0xbc5881d6	-0.013214549
94	0xbb91192f	-0.004428051
95	0x93e62940	-5.810084e-27
96	0xbc0bfedc	-0.00854465
97	0x3ae645e3	0.0017568435
98	0xbba2f6df	-0.004973277
99	0x3bcd534d	0.0062660337
100	0xbc878624	-0.016543455
101	0x3a8d9175	0.0010800796
102	0xbc828551	-0.01593271
103	0x3b9cfe20	0.0047910362
104	0xbc337fa8	-0.010955729
105	0x3bec9fc6	0.007221195
106	0xaa4e85d9	-1.8342913e-13
107	0x3c65403c	0.013992365
108	0x3c137b6b	0.009001593
109	0xbcf6022c	-0.030030333
110	0x9032e867	-3.5283347e-29
111	0x8a00ee0e	-6.207749e-33
112	0x3c8eb2cd	0.017419243
113	0xbb8752ee	-0.004129759
114	0xbb9bc6fc	-0.0047539454
115	0xbc394afd	-0.0113093825
116	0xbbbf3151	-0.0058347364
117	0xbc647ed0	-0.01394625
118	0xba71018a	-0.000919365
119	0x3a914c56	0.0011085372
120	0xbce22720	-0.027606547
121	0xada0e009	-1.8289386e-11
122	0xbab01a65	-0.00134356
123	0xbbf5d76a	-0.007502486
124	0x3ba28b1b	0.0049604303
125	0xbc2ce3c4	-0.01055235
126	0xbc6d9785	-0.014501457
127	0xbc686cd2	-0.014186101

network_body._body_endoder.seq_layers.2.weight f4 [128, 128]
0	0x3dc8c3e8	0.09802991
1	0x3e26aa19	0.16275825
2	0x3e3d0cb2	0.18461874
3	0xbdc88810	-0.09791577
4	0xbd55a41c	-0.05215846
5	0xbd8542e9	-0.06506903
6	0xb998c735	-0.0002914012
7	0xbd8907ac	-0.066909164
8	0x3d8deeef	0.069303386
9	0xbe5faf85	-0.21844299
10	0x3da65a9b	0.0812275
11	0x3dc51e87	0.09624963
12	0xbdbcd4d1	-0.09220279
13	0x3d8f88af	0.07008492
14	0xbe2e70b7	-0.17035185
15	0x3d7defb8	0.06199619
16	0xbe27a4e8	-0.163715
17	0x3d5221c9	0.05130175
18	0x3c886fe8	0.016654924
19	0xbda28bfd	-0.07936857
20	0xbdbb80ed	-0.0915545
21	0xbcf9b52d	-0.0304819
22	0xbcb1632c	-0.021653734
23	0x3df3355a	0.118754104
24	0x3d9644e1	0.07337356
25	0x3dff0c50	0.1245352
26	0x3c12fe70	0.008971795
27	0xbb5617ed	-0.003266807
28	0x3df1b05c	0.11801216
29	0xbdb39e65	-0.08770446
30	0x3d177fa8	0.036986977
31	0xbda02287	-0.078190856
32	0xbd917434	-0.07102242
33	0xbdb440cb	-0.08801421
34	0x3d304f86	0.04304459
35	0xbd7742ec	-0.060366556
36	0xbe505568	-0.2034508
37	0x3d9aa0b2	0.075501814
38	0xbe01eb51	-0.12687422
39	0xbd9d287c	-0.076737374
40	0x3d855fd0	0.065124154
41	0x3d1fd477	0.03902098
42	0x3d5e6249	0.05429295
43	0x3de541de	0.11194204
44	0xbde30b5d	-0.11086152
45	0xbe3e0b45	-0.18558986
46	0xbe03370f	-0.12813972
47	0x3da985b5	0.08277456
48	0x3de612a1	0.11234022
49	0xbcfe64d0	-0.03105393
50	0xbd6ae478	-0.05734679
51	0xbdfc10fe	-0.123079285
52	0x3e2fee9e	0.17180869
53	0xbd05296f	-0.032510217
54	0x3d8089a3	0.06276252
55	0x3b211f7d	0.002458542
56	0xbde101fb	-0.10986706
57	0x3d887213	0.06662383
58	0xbd07df8b	-0.03317217
59	0x3e173252	0.1476529
60	0x3e5dde84	0.21666914
61	0xbd297fd6	-0.04138168
62	0x3c9c30ce	0.01906624
63	0x3d3f0b9c	0.04664193
64	0xbd9f7841	-0.077866085
65	0xbd802fef	-0.062591426
66	0xbdb1f7d8	-0.086898506
67	0xbd9d4caf	-0.07680642
68	0x3e11d16f	0.14240049
69	0x3df534b0	0.1197294
70	0x3d5cf1cf	0.053941544
71	0xbdf7811e	-0.12085174
72	0xbd49c91e	-0.049264066
73	0xbc60cdfa	-0.013720984
74	0xbd2f5d62	-0.042813666
75	0xbd90bac9	-0.070668764
76	0x3d884a37	0.0665478
77	0xbc8a396f	-0.01687309
78	0x3dbf548e	0.093422994
79	0xbdf0cec7	-0.1175819
80	0xbd8a5e9c	-0.067563266
81	0xbddabaec	-0.10680184
82	0xbc6f899f	-0.014620214
83	0xbd7c7cc4	-0.061642423
84	0x3e432dbe	0.19060418
85	0x3dcfe1ba	0.10150476
86	0x3bb542d7	0.0055316496
87	0x3e2a7e58	0.16649759
88	0xbcbd7e60	-0.02313155
89	0xbd084cf7	-0.033276524
90	0x3cc14a30	0.023594946
91	0xbddc299e	-0.10750125
92	0xbc63fd72	-0.013915407
93	0x3baf0036	0.0053406013
94	0xbc9c4c44	-0.019079335
95	0xbd8953c5	-0.06705431
96	0xbc97e30d	-0.018540883
97	0x3e01635f	0.12635563
98	0x3d2bbfcc	0.04193096
99	0xbd9f2ca0	-0.077721834
100	0xbc836523	-0.016039437
101	0xbdc4fafb	-0.09618183
102	0x3d7cc270	0.061708868
103	0xbd87afbd	-0.06625316
104	0xbd318d21	-0.04334748
105	0xbe141a91	-0.1446326
106	0xbd524fa5	-0.051345486
107	0xbd05e1c4	-0.03268601
108	0xbcf65dee	-0.030074086
109	0x3d37b15f	0.04484689
110	0x3d8ed7f7	0.06974786
111	0xbd465367	-0.048419382
112	0x3e00c6a5	0.12575777
113	0x3e057a81	0.13035013
114	0x3df3e051	0.11908019
115	0xbd99e6ab	-0.075146995
116	0x3d0a4281	0.03375483
117	0x3c7c56ee	0.015401585
118	0x3e085260	0.13312674
119	0x3e09ef7c	0.13470262
120	0x3d255975	0.040368516
121	0x3e216feb	0.1576535
122	0xbdc4110c	-0.09573564
123	0x3ba537d8	0.0050420575
124	0xbda33d7d	-0.07970712
125	0xbc45c6a7	-0.012071288
126	0xbda1243c	-0.07868239
127	0x3d15b7c7	0.036552217
128	0xbe1cff28	-0.1533171
129	0x3df44543	0.11927273
130	0x3daf8273	0.08569803
131	0x3d3a8153	0.04553349
132	0x3a8abd49	0.0010584976
133	0x3c07813b	0.008270557
134	0x3dfbbf27	0.12292319
135	0xbcccacaf	-0.024984686
136	0x3cb15f64	0.021651931
137	0x3cca90a0	0.024727166
138	0x3c179fe2	0.009254428
139	0x3ccd9c97	0.025099082
140	0x3dcbb1cb	0.09946021
141	0xbce921c7	-0.02845849
142	0xbd4520ab	-0.048126858
143	0x3cffed31	0.031241031
144	0xbdc7dd9a	-0.09759064
145	0x3ce65408	0.028116241
146	0x3ceab874	0.028652407
147	0xbd1f722a	-0.038927235
148	0x3d02b649	0.031912122
149	0x3db31bd5	0.08745543
150	0x3dd830fd	0.10556219
151	0xbd1b3907	-0.037896182
152	0xbd9afc32	-0.07567634
153	0xbd266b9c	-0.040629968
154	0xbc799572	-0.015233384
155	0xbdc283ba	-0.09497781
156	0xbd3cd226	-0.04609885
157	0xbd510dae	-0.051038437
158	0xbbec49f5	-0.007210965
159	0xbe249e87	-0.16076098
160	0xbdb45e6d	-0.08807073
161	0xbc872924	-0.01649911
162	0xbe8077aa	-0.25091296
163	0x3e03deb1	0.12877919
164	0x3e5e005e	0.21679828
165	0x3d77c3eb	0.060489576
166	0x3e044a1b	0.12918894
167	0xbb4bafcb	-0.0031080123
168	0xbd292b0d	-0.041300822
169	0x3e163931	0.14670254
170	0x3e0b19bb	0.13584034
171	0x3e1cfc10	0.15330529
172	0x3ca87dde	0.02056783
173	0xbe1923e7	-0.14955102
174	0x3e04f460	0.12983847
175	0x3dc03d07	0.0938664
176	0x3daf68ff	0.08564948
177	0x3cbf4d8e	0.02335241
178	0x3cccb3d6	0.024988096
179	0xbd971902	-0.07377817
180	0x3d43b7b0	0.0477826
181	0xbce6abfd	-0.028158182
182	0xbd56d823	-0.052452218
183	0x3dbc9a3f	0.092091076
184	0x3d14aeae	0.0362994
185	0x3dabc0c9	0.0838638
186	0xbd15a931	-0.036538307
187	0xb9902691	-0.00027494555
188	0x3e03f532	0.12886503
189	0x3c4e9ad7	0.012610159
190	0xbd9fa485	-0.077950515
191	0xbdc93996	-0.09825437
192	0x3d0d79a6	0.03453984
193	0xbdceb42e	-0.1009296
194	0xbd19ff8e	-0.03759723
195	0x3cd3ac30	0.025838941
196	0xbe12ce6c	-0.14336556
197	0xbd877f06	-0.06616025
198	0xbe1278cc	-0.14303893
199	0x3d367ac7	0.044550683
200	0xbdbc785f	-0.092026465
201	0x3dc5bc86	0.096550986
202	0x3dbb7f8a	0.091551855
203	0xbd85e34b	-0.06537493
204	0x3e48b9ae	0.19602081
205	0xbe5d5a17	-0.21616398
206	0xbd93c609	-0.072155066
207	0xbd3a64c9	-0.045506272
208	0x3d4c49c3	0.049875032
209	0xbce26f44	-0.027640946
210	0x3d850259	0.064945884
211	0x3e072e5b	0.13201277
212	0x3ccdb5c8	0.025111094
213	0x3c2dcc32	0.010607766
214	0x3ceadd00	0.028669834
215	0xbc4a94d6	-0.012364587
216	0xbe1d54aa	-0.15364328
217	0x3d0bc807	0.034126308
218	0x3e2b6649	0.16738237
219	0x3d12d65e	0.035848968
220	0x3d35020f	0.044191416
221	0x3c22493b	0.009905155
222	0x3e1893f3	0.14900188
223	0xbbdcfaa8	-0.0067437477
224	0x3e27ae29	0.1637503
225	0xbbb208a4	-0.005433159
226	0xbd65cdc1	-0.056104425
227	0x3d8e43c0	0.06946516
228	0xbd87a2e3	-0.06622865
229	0x3e4ba13a	0.19885722
230	0xbb519922	-0.0031982143
231	0xbd3bec79	-0.045879815
232	0xbd87f41a	-0.066383556
233	0xbdce4bd7	-0.10073059
234	0xbcd9f097	-0.02660398
235	0x3db30584	0.087412864
236	0xbc547afe	-0.012968777
237	0x3cfd46b7	0.030917509
238	0xbd441995	-0.04787596
239	0x3d850544	0.06495145
240	0xbd9c4ba4	-0.07631615
241	0x3df47919	0.1193716
242	0x3e2fe4c2	0.17177108
243	0x3de9d82c	0.11418185
244	0x3deee41d	0.11664603
245	0xbe1cfec2	-0.15331557
246	0xbd416529	-0.047215614
247	0xbdd40206	-0.103519484
248	0xbe26252d	-0.16225119
249	0xbd51ff53	-0.051268887
250	0xbdef8ab0	-0.116963744
251	0x3df518d3	0.119676255
252	0xbd3d58f0	-0.046227396
253	0x3ca61438	0.020273313
254	0x3b2cc006	0.0026359572
255	0x3dc09068	0.09402543

network_body._body_endoder.seq_layers.2.bias f4 [128]
0	0x3c3a055d	0.011353818
1	0x3b9e1a48	0.0048249103
2	0xbc0a6372	-0.008446561
3	0xbaf392c7	-0.0018583172
4	0xbba0075f	-0.004883691
5	0xbc4e397e	-0.012586949
6	0xbb81c80f	-0.0039606164
7	0xa502e179	-1.1352096e-16
8	0xbc29ef65	-0.0103720175
9	0xba10a57d	-0.0005517824
10	0x19866885	1.389749e-23
11	0xbb1166ef	-0.0022186597
12	0xbb274463	-0.002552294
13	0xb9e0a414	-0.00042846857
14	0xbb99804c	-0.0046844836
15	0xbb9e329b	-0.00482781
16	0xa689f135	-9.571664e-16
17	0xbbda6c22	-0.0066657225
18	0xbc06724f	-0.008205964
19	0xbb94707a	-0.00453001
20	0xbc2173cd	-0.009854269
21	0xbb993910	-0.004675992
22	0xbcac626e	-0.021043029
23	0xbb994586	-0.0046774773
24	0xbc59a57a	-0.013284082
25	0xbb1a6958	-0.0023561325
26	0xbbaf2c8c	-0.0053458866
27	0x19cb00b1	2.0989987e-23
28	0xa51cc611	-1.359795e-16
29	0xbb7d399c	-0.0038639074
30	0xbba852e0	-0.0051368326
31	0xb8f5295a	-0.00011690213
32	0xbc3eec2a	-0.011652986
33	0xbc47786b	-0.012174706
34	0x3b8436f6	0.004034872
35	0xace40e6a	-6.48175e-12
36	0xba86f3db	-0.0010296063
37	0xbb5b9eb8	-0.0033511352
38	0x98470bc9	-2.5726097e-24
39	0xbb1a47aa	-0.002354125
40	0xbc14efb2	-0.009090351
41	0xbb079f35	-0.002069426
42	0xa437ccbe	-3.9855223e-17
43	0xbc0ba0cd	-0.008522225
44	0xb6e1ec78	-6.733051e-06
45	0xbbe63ae5	-0.0070260637
46	0xbc94c953	-0.018162405
47	0xbc343148	-0.010998078
48	0xbbcdfbb1	-0.0062861075
49	0xbb254f38	-0.002522422
50	0x22c8a92c	5.4389226e-18
51	0xbbbe8eda	-0.005815369
52	0xbb06e6f8	-0.0020584445
53	0xbb7506d6	-0.0037388108
54	0x3bb021b6	0.0053751124
55	0xbb989e47	-0.00465754
56	0x190fb903	7.4302895e-24
57	0xbb6b9250	-0.0035945363
58	0xbc0114d0	-0.007878497
59	0xbc29f30f	-0.010372891
60	0x3a292716	0.00064526626
61	0xae20261d	-3.641364e-11
62	0xbbd564a9	-0.0065122438
63	0xbbb7e8b6	-0.005612458
64	0xbb09fdb4	-0.002105576
65	0xbb441eee	-0.0029925662
66	0xbbc2590c	-0.0059310254
67	0xa8c1f1b0	-2.153212e-14
68	0x32ba5f9e	2.1696732e-08
69	0xbb857a52	-0.0040734196
70	0xaf9fb7b4	-2.905246e-10
71	0x00000000	0.0
72	0x24735cd0	5.277084e-17
73	0xbb5ae8dd	-0.0033402957
74	0xbb9e350a	-0.0048281
75	0xbb5bc3eb	-0.0033533524
76	0x3b2a6656	0.0026000938
77	0xbb1c1653	-0.0023817017
78	0xbb9564a9	-0.0045591188
79	0xbc412cbb	-0.01179045
80	0xbb6b6a91	-0.0035921673
81	0xbc46ec03	-0.0121412305
82	0xbc18646f	-0.009301289
83	0xbbf57a77	-0.0074914056
84	0xbbae9b39	-0.0053285626
85	0xb2233cd8	-9.501683e-09
86	0xbb58153d	-0.0032971643
87	0xbae7fc75	-0.001769914
88	0xbc7076e3	-0.014676782
89	0xba07d945	-0.0005182217
90	0xba53f00f	-0.0008084783
91	0x39f28db9	0.00046263429
92	0x2d8861a6	1.5504775e-11
93	0x288f7bf3	1.5929944e-14
94	0xbc6adaed	-0.014334423
95	0xb9d65c40	-0.00040885992
96	0xbb378e14	-0.002800827
97	0xbbb30503	-0.005463244
98	0x3b2a403e	0.0025978233
99	0xbba24684	-0.004952254
100	0xba9e28f0	-0.0012066644
101	0xbba5298c	-0.005040353
102	0xbc363d7a	-0.011123056
103	0xbbd9bc24	-0.0066447426
104	0xbbcb4669	-0.006203462
105	0xbb98c1f0	-0.004661791
106	0xba511597	-0.00079759344
107	0xbc0254b8	-0.007954769
108	0xbb6d7e3c	-0.0036238572
109	0xbb81a824	-0.0039568115
110	0xbbc7a55f	-0.006092712
111	0xbc1b4f67	-0.00947938
112	0x2937d15e	4.081576e-14
113	0xb5ab8786	-1.2779935e-06
114	0x3af7ac6b	0.0018895989
115	0xbb24955f	-0.0025113446
116	0xbbb5fdd8	-0.005553942
117	0x8926a312	-2.0058198e-33
118	0xbc82354d	-0.015894556
119	0x9b0f98d0	-1.1878059e-22
120	0xb88d4265	-6.735771e-05
121	0x982c3961	-2.2259448e-24
122	0x8a910ece	-1.3968561e-32
123	0xbc86c388	-0.016450658
124	0xbbd4706b	-0.006483128
125	0xbb8b7215	-0.004255543
126	0xbc849f2a	-0.016189177
127	0x3b576ec6	0.0032872423

network_body._body_endoder.seq_layers.4.weight f4 [128, 128]
0	0xbd3918f9	-0.04518983
1	0xbde41b20	-0.11137986
2	0xbe131b8e	-0.1436598
3	0xbd1192f5	-0.03554054
4	0x3deac0f3	0.114625834
5	0xbda3ab0b	-0.07991608
6	0x3e2c2d09	0.16814055
7	0xbe2d36d2	-0.16915444
8	0xbe1bd224	-0.15216881
9	0x3c714ca9	0.01472775
10	0x3d2371a4	0.039903298
11	0x3c35522a	0.011066953
12	0xbdfe1687	-0.124066405
13	0xbd256838	-0.040382594
14	0x3d601f4b	0.054717343
15	0x3c3e82f4	0.011627901
16	0x3d6072ca	0.05479697
17	0xbdea3eef	-0.11437785
18	0xbdbee074	-0.09320155
19	0x3ceadde3	0.028670257
20	0x3d960b6a	0.07326396
21	0xbe2bc9cb	-0.16776197
22	0x3df41fa3	0.11920097
23	0xbe5b3f89	-0.21410955
24	0x3e0eced2	0.13946083
25	0xbe0c50d2	-0.13702706
26	0x3caf07d9	0.021366047
27	0x3ceab364	0.028649993
28	0x3e1fb515	0.15596421
29	0x3d1abe5b	0.037779193
30	0xbcb969df	-0.022633491
31	0xbcb17293	-0.021661079
32	0x3d559043	0.05213953
33	0x3c1bca87	0.0095087355
34	0x3de7b544	0.113138705
35	0x3e0ce6fa	0.13759986
36	0x3da789cc	0.081805795
37	0xbd075245	-0.033037443
38	0xbd0d603b	-0.0345156
39	0xbe2e5dd4	-0.1702798
40	0xbda165d6	-0.07880752
41	0xbcae7062	-0.021293823
42	0xbe0c4601	-0.1369858
43	0xbde718d3	-0.11284032
44	0x3dde5f52	0.10858025
45	0x3d206849	0.039161954
46	0xbe2efaab	-0.1708781
47	0x3dff1929	0.12455971
48	0xbd856f1f	-0.06515335
49	0xbddc04e2	-0.10743119
50	0xbdd26343	-0.10272839
51	0x3d5908b3	0.05298681
52	0xbcd0adb0	-0.025473446
53	0xbd1441ed	-0.036195684
54	0x3d0a8b44	0.03382422
55	0xbb8aa23c	-0.0042307656
56	0x3da75889	0.081711836
57	0x3c4db945	0.012556379
58	0x3ceea732	0.02913246
59	0xbdce66fc	-0.100782365
60	0xbdc93cf0	-0.09826076
61	0x3c93f3c3	0.01806057
62	0xbdc29f37	-0.09503024
63	0x3d290e89	0.041273627
64	0xbcbaa71e	-0.022784766
65	0xbd7db4cd	-0.061940003
66	0xbd2d4aa3	-0.042307507
67	0xbb7fae74	-0.0039013894
68	0xbc495e74	-0.012290586
69	0xbe2075ba	-0.15669909
70	0x3d26da12	0.04073531
71	0x3c468d6b	0.012118678
72	0xbe27ed89	-0.16399206
73	0xbd036edf	-0.032088157
74	0x3c07376e	0.008252962
75	0x3db86c5b	0.09005042
76	0xbe0c8cd7	-0.13725601
77	0xbcef37d4	-0.029201426
78	0xbdbc92c3	-0.0920768
79	0xbca74995	-0.020420829
80	0xbc43506a	-0.011921028
81	0xbcb89fc2	-0.022537116
82	0x3e0d8334	0.13819581
83	0xbdb8b6bd	-0.090192296
84	0x3cb36a11	0.021901162
85	0x3d4c6655	0.04990228
86	0x3d69a714	0.057044104
87	0xbd6b6d12	-0.057477064
88	0x3d9ae877	0.075638704
89	0xbd8852b6	-0.06656401
90	0xbc4475ec	-0.011991005
91	0xbd57086c	-0.052498266
92	0xbc25f55a	-0.010129297
93	0x3e04522f	0.12921976
94	0x3da5224d	0.08063183
95	0xbd2f9e8c	-0.04287581
96	0x3d78f338	0.060778826
97	0xba8a375a	-0.001054506
98	0x3bf0c94e	0.007348216
99	0xbd047e07	-0.03234675
100	0x3da3bc7c	0.07994935
101	0x3dbe0375	0.09278003
102	0x3d70d204	0.058794037
103	0xbd4248dc	-0.047432765
104	0xbd9cb0fe	-0.07650946
105	0xbdbeb04a	-0.09310968
106	0xbd423c64	-0.047420874
107	0x3e564528	0.20924819
108	0x3e37ba7c	0.17942232
109	0x3a938ab6	0.0011256549
110	0x3db4cdbd	0.08828304
111	0x3dc40122	0.095705286
112	0x3a9a6260	0.0011778586
113	0x3d0bd5bc	0.03413938
114	0x3e50c21f	0.20386551
115	0xbc14e690	-0.0090881735
116	0xbe0dd2c1	-0.13849927
117	0x3a1d05ca	0.00059899373
118	0x3dd9b3d5	0.10630003
119	0xbce1e507	-0.027575029
120	0xbd95d370	-0.07315719
121	0x3d3522b1	0.044222537
122	0x3c8658b3	0.016399717
123	0x3e12ff3e	0.1435518
124	0xbcf3054b	-0.02966561
125	0x3d807be0	0.06273627
126	0x3d95cf2b	0.07314905
127	0x3cfae5f0	0.03062722
128	0x3d0da0c7	0.034577157
129	0x3e053f86	0.13012514
130	0xbda595f5	-0.08085243
131	0x3b355b26	0.0027672737
132	0x3cd83521	0.026392521
133	0xbe03231a	-0.12806359
134	0x3cab2269	0.020890431
135	0xbd815a8b	-0.06316098
136	0x3c3f1c8c	0.011664521
137	0xbdb150f7	-0.08658021
138	0x3d9b9768	0.07597238
139	0x3df0ceda	0.11758204
140	0xbd93dd92	-0.072199956
141	0xbd001a08	-0.031274825
142	0xbd77f158	-0.060532898
143	0xbe01d936	-0.12680516
144	0xbab74e5d	-0.0013985146
145	0xbd510365	-0.051028628
146	0xbe36ba2f	-0.17844461
147	0xbcfedc96	-0.031111043
148	0xbd1a360f	-0.03764921
149	0x3d6b0b8e	0.057384066
150	0xbd8fa3c7	-0.0701366
151	0xbcc8e56f	-0.024523465
152	0xbd8bb775	-0.06822101
153	0xbdf09b69	-0.11748392
154	0x3d5e4ca7	0.05427232
155	0xbd592b56	-0.053019844
156	0xbdb5ed6b	-0.088831745
157	0x3dafb7e7	0.085799985
158	0x3dc58434	0.09644356
159	0xbdba57e4	-0.09098795
160	0x3e7042a7	0.23462926
161	0xbd4f29ba	-0.050576903
162	0xbd3c410b	-0.045960467
163	0xbd279f60	-0.040923476
164	0xbe06a905	-0.13150413
165	0x3d45f2a2	0.048327096
166	0x3dcbf4f6	0.09958832
167	0x3cf241db	0.029572418
168	0xbe13a93d	-0.14420028
169	0xbe124724	-0.1428495
170	0xbc822d8b	-0.015890857
171	0x3d7a3894	0.061089113
172	0xbe0f1a6c	-0.13974923
173	0xbb008761	-0.0019611942
174	0xbccadaa7	-0.024762465
175	0x3da99897	0.08281057
176	0x3e3a1001	0.18170168
177	0xbdb6a131	-0.089174636
178	0xbc2a2510	-0.010384813
179	0xbd69a7fe	-0.057044975
180	0x3c2565a1	0.010095031
181	0xbc47cfca	-0.012195537
182	0xbd9ddc26	-0.077080056
183	0xbb8639eb	-0.00409626
184	0x3c47d418	0.012196563
185	0xbceaa32d	-0.028642261
186	0xbdc06099	-0.093934245
187	0x3e202a72	0.15641192
188	0x3d6fb3e4	0.058521166
189	0xbe404974	-0.1877802
190	0x3c74ed52	0.01494916
191	0x3d867a83	0.06566336
192	0xbcd91021	-0.026496949
193	0xbd404310	-0.046938956
194	0xbdd5d76d	-0.1044148
195	0xbe1a5720	-0.15072298
196	0xbe37fdf1	-0.17967965
197	0x3e41e4d2	0.18934944
198	0xbc38d4d5	-0.011281212
199	0xba349373	-0.0006888427
200	0x3dafa9b1	0.08577288
201	0x3dcc001b	0.099609576
202	0xbbb0fbac	-0.0054010954
203	0x3c202e1e	0.00977662
204	0xbc3a7654	-0.011380751
205	0x3d8861f5	0.06659309
206	0x3de06919	0.10957546
207	0xbd3cc323	-0.046084534
208	0xbd159bcf	-0.036525544
209	0xbe2adc43	-0.16685586
210	0xbd380a43	-0.04493166
211	0xbd85cb3c	-0.065329045
212	0xbdac9ba4	-0.084281236
213	0x3caf3d5a	0.02139156
214	0xbdf5d8ad	-0.12004218
215	0xbd1d3604	-0.03838159
216	0xbcd73ad5	-0.02627317
217	0xbd30c860	-0.043159842
218	0x3dea5dd3	0.11443677
219	0xbe19ad54	-0.15007526
220	0xbd6bd401	-0.05757523
221	0x3c9dcb99	0.019262122
222	0x3d9536b6	0.07285826
223	0xbd69293c	-0.05692409
224	0x3b0bea95	0.0021349539
225	0x3db6f5de	0.08933614
226	0xbd8194d1	-0.063272126
227	0xbe84df18	-0.25951457
228	0x3d535dd9	0.051603172
229	0xbd1e22c3	-0.03860737
230	0xbd596f65	-0.05308475
231	0xbdf991c8	-0.12186009
232	0x3e2072ab	0.15668742
233	0xbd78821d	-0.06067096
234	0x3dc99688	0.09843165
235	0x3e09fa4c	0.13474387
236	0x3dc50144	0.09619382
237	0xbdc248ae	-0.09486519
238	0x3d45d635	0.048299987
239	0x3da86e70	0.08224189
240	0x3d61fd63	0.05517329
241	0xbd318c50	-0.043346703
242	0xbdb91da0	-0.09038854
243	0x3b9b4f2a	0.0047396617
244	0xbe00b08b	-0.12567346
245	0xbd2c5d19	-0.042080972
246	0x3d00f1b9	0.031480525
247	0x3d370e1a	0.044691183
248	0x3d4acdeb	0.049512785
249	0x3da20a40	0.07912111
250	0xbe12a035	-0.14318927
251	0x3cc71a40	0.02430451
252	0xbbc26cbb	-0.005933372
253	0xbcfb3615	-0.030665437
254	0x3db7c15f	0.089724295
255	0x3dc6df12	0.09710516

network_body._body_endoder.seq_layers.4.bias f4 [128]
0	0xbb0505e9	-0.0020297712
1	0xbc2759e4	-0.010214303
2	0xbb6c6a26	-0.0036074012
3	0xbc530849	-0.012880393
4	0xbbf810d5	-0.007570366
5	0xbc141ca7	-0.009040034
6	0xbc99e2c9	-0.018784897
7	0x3b8b6ba9	0.0042547775
8	0xbc3162bf	-0.010826766
9	0x3b9fa856	0.004872362
10	0xbb85fc67	-0.0040889266
11	0xbb64503e	-0.0034837867
12	0xbc0cfda3	-0.008605394
13	0xbb80e44c	-0.003933465
14	0xbb68b899	-0.003551042
15	0xb90f9a3f	-0.00013695004
16	0x3b3af3e5	0.002852672
17	0xbba48b32	-0.005021476
18	0xbc447640	-0.011991084
19	0xbc3a286f	-0.011362179
20	0xbbd0e46f	-0.0063748877
21	0xbc2d66bb	-0.010583575
22	0xbc531c3f	-0.012885152
23	0x3abb5548	0.0014292384
24	0xbcbee04c	-0.023300312
25	0xbb85f573	-0.0040880977
26	0xba4691b4	-0.0007574812
27	0xbbcfcbe6	-0.0063414453
28	0xbad0159f	-0.0015875584
29	0xbc1e5d8d	-0.009665859
30	0xbbc30bcd	-0.0059523345
31	0xbc1c3f7f	-0.009536623
32	0xba0604f8	-0.0005112435
33	0xbbf6243b	-0.007511643
34	0x3a98acd9	0.0011648192
35	0xba6d09a8	-0.00090422714
36	0xbc2c75ca	-0.01052613
37	0x39f97801	0.0004758239
38	0xafadafc7	-3.1593414e-10
39	0xbbb013a5	-0.0053734356
40	0xbbe714ef	-0.007052056
41	0xbcdfdfad	-0.027328337
42	0xbbe9e7b1	-0.0071382155
43	0xbbd33e05	-0.0064466023
44	0x3ab75212	0.0013986251
45	0xb9d40437	-0.0004043893
46	0xbc47a4e9	-0.012185314
47	0xbabd700e	-0.001445295
48	0xbc0fc177	-0.008774153
49	0xbc3bd969	-0.011465409
50	0x3b5afd96	0.003341531
51	0xbc303dbb	-0.010756905
52	0xbb7f543c	-0.003896012
53	0xbc059d68	-0.008155204
54	0xbc98051a	-0.01855712
55	0xbc199e4c	-0.00937612
56	0x3b7b4291	0.0038339237
57	0xbc7f8d8c	-0.015597712
58	0x3b51a718	0.0031990465
59	0xbc142928	-0.009043016
60	0xbcceb597	-0.025233073
61	0x3b754ea0	0.0037430897
62	0x3ab8180f	0.0014045256
63	0x3a538c5a	0.0008069925
64	0xbc3c15db	-0.01147982
65	0xbb681243	-0.0035411275
66	0xbbba8555	-0.005692164
67	0xba836e48	-0.0010027373
68	0xbc5b47d0	-0.013383821
69	0xb8cf3642	-9.8806355e-05
70	0x3c230a5a	0.0099511985
71	0xbc159706	-0.009130245
72	0x3b2ced67	0.002638662
73	0xbc7bada2	-0.0153612215
74	0xbc5ca5c3	-0.013467255
75	0xbbef29ee	-0.0072986996
76	0xbbe64323	-0.0070270463
77	0xba0fd6c6	-0.0005487021
78	0xbbed09dc	-0.0072338413
79	0xbb95d6ef	-0.004572741
80	0xbbd81ca8	-0.006595213
81	0x3a46453a	0.0007563416
82	0xbbddb13c	-0.0067655127
83	0xbc8657c4	-0.016399272
84	0xbc434576	-0.011918416
85	0x3b8ce2fa	0.0042995187
86	0xb4a66eaa	-3.1000428e-07
87	0xbb14a215	-0.0022679616
88	0xbb4309a0	-0.0029760376
89	0xba1d3e2e	-0.000599834
90	0xbc5a0792	-0.013307469
91	0xb769e044	-1.3940098e-05
92	0xbc843e2f	-0.016142933
93	0x3b852806	0.004063609
94	0xbc0d11fb	-0.008610244
95	0xbbeb0244	-0.007171901
96	0xba8eaa39	-0.001088447
97	0xbb2843da	-0.0025675208
98	0xbca054e2	-0.019571725
99	0xbb2f7118	-0.002677029
100	0x3a303849	0.00067222543
101	0xbba506f1	-0.005036228
102	0xbb18b8c1	-0.0023303481
103	0xbb7f6b4e	-0.003897387
104	0xbb07509c	-0.0020647412
105	0xbbc697e4	-0.0060605872
106	0xbc64f655	-0.013974746
107	0xbc790cd8	-0.015200816
108	0xbc910725	-0.017703602
109	0xbb063180	-0.0020476282
110	0xbac5ff8a	-0.0015106064
111	0x3be28b7c	0.0069136005
112	0xbb99753b	-0.0046831644
113	0xbc4f0f12	-0.01263787
114	0xbbbbe0f0	-0.0057336017
115	0xbad4a4a6	-0.0016223385
116	0x3a23d616	0.0006249858
117	0xbc4ab70c	-0.012372743
118	0xbb9a1589	-0.004702274
119	0xbc7b04bc	-0.015320953
120	0xbc1b8084	-0.00949109
121	0xbbc4251c	-0.005985869
122	0xbb6f53fc	-0.0036518564
123	0xbbceede8	-0.0063149817
124	0xbc93ec7f	-0.018057106
125	0xb898f7ed	-7.2941046e-05
126	0xbbf6e3d9	-0.007534486
127	0xbb97c848	-0.0046320297

action_model._continuous_distribution.log_sigma f4 [1, 2]
0	0x3d23600f	0.03988653
1	0x3d90a398	0.07062453

action_model._continuous_distribution.mu.weight f4 [2, 128]
0	0x3d1f7ab3	0.038935374
1	0xbca10b9c	-0.019658856
2	0xbc21012b	-0.009826939
3	0xbb8a814d	-0.0042268396
4	0xbc970f9e	-0.018440064
5	0x3ca96854	0.02067963
6	0xbbdf2342	-0.006809623
7	0xba81a29b	-0.0009890379
8	0xbcb609a0	-0.022221386
9	0x3b043166	0.0020171045
10	0xbbd9654f	-0.0066343914
11	0xbb9afec2	-0.0047300765
12	0xbc4fcab3	-0.012682605
13	0xbbf39c45	-0.0074344003
14	0x3d11daec	0.03560917
15	0x3cbfa2aa	0.023392994
16	0x3c639b72	0.0138920415
17	0xbccf4089	-0.025299327
18	0xbb08916b	-0.002083863
19	0x3b59d37e	0.0033237631
20	0xbc24d009	-0.010059365
21	0xbbc53cfc	-0.006019233
22	0x3bcb77df	0.006209358
23	0x3bb49f95	0.0055121877
24	0xbb990698	-0.0046699755
25	0x3ca20f94	0.019782819
26	0xbbc84a91	-0.0061124046
27	0x3c97e25b	0.018540552
28	0xba4d3adb	-0.00078288995
29	0xbc9eadec	-0.019370042
30	0xbd2eedcb	-0.042707246
31	0xbcab39b6	-0.020901542
32	0xbb70b200	-0.003672719
33	0xbccd93b4	-0.025094844
34	0x3c48c806	0.012254721
35	0xbbb58164	-0.005539106
36	0xbd4cfaf1	-0.050044004
37	0x3bb64ad4	0.0055631194
38	0x3c618313	0.013764161
39	0x3bdc4870	0.0067225024
40	0xbc0ad0f5	-0.008472671
41	0x3a8d5896	0.0010783847
42	0x3c9cce03	0.019141203
43	0x3c139b67	0.009009219
44	0x3c0b8628	0.008515872
45	0xbd05cf38	-0.032668322
46	0x3b58b0cc	0.0033064364
47	0xbccb62d1	-0.024827393
48	0x3b9abcda	0.00472222
49	0xbbfbccaa	-0.00768431
50	0xbcefdabf	-0.029279111
51	0x3b273023	0.002551087
52	0x3c15042b	0.009095232
53	0xba44e586	-0.00075110083
54	0x3a0975bc	0.0005243679
55	0x3bbe8b43	0.005814941
56	0x3cb3dafc	0.021955006
57	0xbc8c3d5f	-0.017119108
58	0x3caedb35	0.02134476
59	0xbbd6edab	-0.006559094
60	0xbb07b8ce	-0.0020709517
61	0x3c10a6d5	0.008828838
62	0xbc97e1af	-0.018540232
63	0x3b8008c0	0.003907293
64	0x3c849101	0.016182425
65	0xbc095e55	-0.008384307
66	0x3c948e64	0.018134303
67	0xbcd9ed16	-0.02660231
68	0x3c982fe8	0.018577531
69	0x3c42602a	0.011863748
70	0xbc4a43ee	-0.012345297
71	0x3c9cf1d6	0.019158285
72	0xbd0e8146	-0.034791254
73	0x3c0ee0ca	0.008720586
74	0x393ecc34	0.00018195884
75	0xbc71a117	-0.0147478795
76	0xb97dbad3	-0.00024197558
77	0xbc85d00c	-0.016334556
78	0xbb01edab	-0.00198255
79	0xbb31bd04	-0.0027120719
80	0xbbf2665a	-0.007397455
81	0xbc8a89b7	-0.01691137
82	0xbab8bd55	-0.0014094511
83	0x3c20e996	0.009821316
84	0xbbea78da	-0.00715552
85	0x3cfab7e5	0.030605266
86	0x3c961ab5	0.018323282
87	0x3c175d08	0.009238489
88	0xbc594f5a	-0.013263548
89	0x3cbcf6d5	0.023066917
90	0xb9df83dc	-0.00042632117
91	0xbc2f3371	-0.010693417
92	0x3d2d87b6	0.042365752
93	0x3c505220	0.012714893
94	0x3cf34c39	0.029699432
95	0xbb88083e	-0.004151373
96	0xbc9f8945	-0.019474635
97	0x3bf7a824	0.0075578857
98	0xbcb814cc	-0.022470854
99	0xbd25b496	-0.040455423
100	0x3c0c5f26	0.008567607
101	0x3d244190	0.040101588
102	0xbd0c584a	-0.034263887
103	0x3b230d3d	0.0024879717
104	0xbb977c34	-0.0046229605
105	0x3ae5b52f	0.001752531
106	0xbc318072	-0.010833846
107	0x3b9c0ff6	0.004762645
108	0x3bc7ec2a	0.006101151
109	0x3c65fe72	0.014037715
110	0xbcd86315	-0.026414433
111	0xbc46793d	-0.012113866
112	0xbc12764f	-0.00893934
113	0xbc39277d	-0.011300919
114	0xbc9ba930	-0.019001573
115	0xba65a1f0	-0.00087597873
116	0xbcdf313a	-0.027245153
117	0x3b245104	0.0025072703
118	0xbc889f48	-0.016677514
119	0xbc0827e9	-0.008310297
120	0x3b663202	0.0035125022
121	0x3c481615	0.012212296
122	0x3bf3508f	0.007425375
123	0xbc04f17b	-0.008114214
124	0xbb0f8b44	-0.0021903077
125	0xbc2ff70b	-0.010740052
126	0xbc5fbf55	-0.013656457
127	0x3bdac035	0.006675745
128	0x3c628724	0.013826165
129	0xbc878580	-0.01654315
130	0x3c2cc290	0.010544434
131	0x3c196d74	0.009364475
132	0x3ba4d2e7	0.0050300243
133	0xbaa0ce16	-0.001226845
134	0x3bbf5efa	0.0058401795
135	0xbd0c651f	-0.034276124
136	0x3bf2b553	0.0074068694
137	0xbcfe587f	-0.031048058
138	0x3c05810e	0.008148445
139	0xbcbbf73d	-0.02294504
140	0x3ade2f39	0.0016951329
141	0xbc8850ba	-0.016640056
142	0x3ccfb3e2	0.02535433
143	0xbbc0cf1f	-0.0058840658
144	0x3c9a4160	0.018830001
145	0xbbfa7cc7	-0.007644269
146	0xbc2a4ab1	-0.010393784
147	0x3c12bb54	0.008955795
148	0xbc2b4908	-0.010454424
149	0xbc51d92b	-0.012808125
150	0x3bbbe91f	0.0057345773
151	0xbcf7c644	-0.030245908
152	0x3b7e69b4	0.0038820328
153	0x3caeae30	0.021323293
154	0x3b4a5959	0.003087601
155	0x3c04724a	0.008083889
156	0x3bf0915b	0.0073415465
157	0x3c74fba6	0.014952576
158	0xbadb5114	-0.0016732537
159	0x3cf18d61	0.02948636
160	0x3cf82641	0.030291678
161	0x3bb5d8aa	0.00554951
162	0xbc8b8b50	-0.017034203
163	0xbc6ed841	-0.014577926
164	0xbd017d53	-0.03161366
165	0xbc3d1d62	-0.01154265
166	0xbbda7055	-0.006666223
167	0xbaef76b4	-0.0018269629
168	0xbb63ed1c	-0.003477878
169	0xbb970406	-0.004608634
170	0x3ba7d157	0.005121391
171	0xbbff2a39	-0.0077870158
172	0xbb6132a2	-0.0034362455
173	0xbace98fb	-0.0015762144
174	0xbbcd455c	-0.006264372
175	0x3c31d889	0.010854849
176	0x3b1d74d2	0.002402593
177	0x3c1eadde	0.009685008
178	0xbbbc580b	-0.0057478
179	0x390bb841	0.00013324713
180	0x3b0255c6	0.001988755
181	0x39ef0d64	0.0004559561
182	0x3c5c3ecf	0.013442709
183	0x396c0226	0.00022507514
184	0x3bce9d77	0.0063053924
185	0x3baf8878	0.0053568445
186	0x3c71f153	0.014767009
187	0x3d135a20	0.03597462
188	0xba4796a0	-0.00076136924
189	0xbca7258f	-0.020403652
190	0x3bc3a71b	0.0059708483
191	0x3d4ce3f8	0.050022095
192	0x3d0bc542	0.034123667
193	0xbc92ed49	-0.017935412
194	0xbbb932b6	-0.005651797
195	0xba5ffa33	-0.00085440575
196	0xbc6982d8	-0.014252387
197	0xbc8af636	-0.016963106
198	0x3c7acb9e	0.015307335
199	0x3ca5289c	0.020160966
200	0x3a977462	0.001155507
201	0x3bb074a1	0.005384997
202	0xbc46cc9d	-0.012133745
203	0xbc4d771c	-0.012540605
204	0x3c2db9a1	0.010603339
205	0x3baba408	0.00523806
206	0xbc2a8429	-0.010407486
207	0xbb4572f0	-0.0030128323
208	0x3ce19fd9	0.027542042
209	0x3bdf46be	0.006813853
210	0xbb85a4ed	-0.0040784986
211	0xbcab9db3	-0.02094922
212	0x3c8e39f7	0.017361624
213	0xbbad50f5	-0.005289192
214	0xbc86fbc6	-0.016477477
215	0xbc51181e	-0.012762098
216	0xbaeac1ac	-0.0017910502
217	0x3caf24a3	0.021379774
218	0xbb4a0bd1	-0.0030829797
219	0xbc09eca5	-0.008418237
220	0xbb0e0f9e	-0.002167679
221	0xbc9bae62	-0.01900405
222	0x3af5d8ba	0.0018756606
223	0xbabf3c70	-0.0014590155
224	0xbbdb34c8	-0.0066896416
225	0x3b95b7c5	0.004569026
226	0x3d081b31	0.033229057
227	0xbba9d853	-0.0051832586
228	0xbc049eb2	-0.008094477
229	0x3c8180a7	0.015808417
230	0xbcb15346	-0.021646153
231	0xbcaeb7f0	-0.021327943
232	0xbb7a5334	-0.0038196566
233	0x3bd2f331	0.006437682
234	0x3cbf5010	0.023353606
235	0xba4524e5	-0.00075204513
236	0xbbb03d31	-0.0053783883
237	0xbb852daa	-0.0040642815
238	0xba19fe80	-0.000587441
239	0xbc46209e	-0.0120927375
240	0x3c0ceea0	0.0086018145
241	0xba912b82	-0.0011075588
242	0x3d0bacf7	0.0341005
243	0xbc9ee102	-0.019394401
244	0xbc86713b	-0.016411414
245	0x3ba61b47	0.0050691697
246	0x3c932c07	0.01796533
247	0xbcb04cd7	-0.021521015
248	0x3bbfe260	0.0058558434
249	0x3c6dc391	0.014511959
250	0xbc1b0084	-0.009460572
251	0x3abb2655	0.0014278392
252	0xba7a0623	-0.00095376576
253	0x3d467751	0.048453633
254	0x3cafe3b0	0.021470875
255	0xbbe9a0eb	-0.0071297786

action_model._continuous_distribution.mu.bias f4 [2]
0	0x3bb8923b	0.0056326664
1	0xbc26e8d8	-0.01018735

action_model._discrete_distribution.branches.0.weight f4 [1, 128]
0	0xb9b47cad	-0.00034425166
1	0x3beeecb8	0.0072914027
2	0xbbf3570a	-0.0074261473
3	0xbb06cb7f	-0.002056807
4	0xbbe3228f	-0.00693161
5	0xb9f84ad5	-0.00047358
6	0xbc201e25	-0.009772812
7	0xbc8f69b2	-0.017506454
8	0xba101ab0	-0.0005497141
9	0xbc2d46f5	-0.0105759995
10	0xbc2dfac3	-0.010618868
11	0xbc34fe5c	-0.011046972
12	0xbc491f73	-0.0122755645
13	0xbb9cb1c3	-0.004781933
14	0x39a6b631	0.0003179773
15	0x3c29047b	0.01031601
16	0x3b09a3c2	0.0021002148
17	0xbc0c99b5	-0.0085815685
18	0xbc03ab54	-0.008036453
19	0x3c12d8aa	0.00896279
20	0xba8128b5	-0.0009854051
21	0x3c78273f	0.015146076
22	0xbc143127	-0.009044922
23	0x3cb89946	0.022534024
24	0xbc6c4958	-0.014421783
25	0x398199dc	0.00024719432
26	0xbc368dd4	-0.011142213
27	0x3c6f88e3	0.014620039
28	0xbbf72c23	-0.0075431033
29	0x3b871637	0.0041225213
30	0xbbc83174	-0.006109411
31	0x3cbc2318	0.022965953
32	0x3b52d357	0.0032169425
33	0x3bf3559d	0.0074259774
34	0xbbe107d5	-0.0068673887
35	0x3b59b4aa	0.0033219256
36	0x3bb94a97	0.0056546438
37	0x3b94a41e	0.004536166
38	0x3b9370e7	0.004499543
39	0x3be71498	0.0070520155
40	0xbc161d83	-0.00916231
41	0xbbdc7497	-0.006727766
42	0x3bad9155	0.005296866
43	0xbc1edf00	-0.009696722
44	0x3ba33a9f	0.0049813534
45	0x3c0a3ea9	0.008437791
46	0xbbb9d439	-0.005671051
47	0xbb8ccb38	-0.0042966865
48	0xbc537c1b	-0.012908007
49	0x3a870f5b	0.0010304259
50	0x3bce9855	0.0063047805
51	0xbc1b7c03	-0.009490016
52	0xb98a5cef	-0.00026390652
53	0x39c4e03f	0.0003755111
54	0xbca1212f	-0.019669143
55	0xbb5ac03f	-0.0033378748
56	0x3c0968ac	0.008386772
57	0x3c510ef3	0.012759912
58	0xbb840db8	-0.0040299557
59	0x3c18d9cf	0.009329273
60	0x3c2a04d6	0.01037713
61	0x3badc94b	0.005303537
62	0x3c2450b1	0.010029004
63	0x3bbed8d2	0.005824187
64	0xbad9e4af	-0.0016623939
65	0x3c935071	0.017982693
66	0x3c2d1641	0.010564388
67	0xbc3a6a96	-0.011377951
68	0x3bc1a3ff	0.0059094424
69	0xbb9f3d0a	-0.0048595713
70	0xbab1df2b	-0.0013570538
71	0x3ba3754b	0.0049883476
72	0xbc393fc7	-0.01130671
73	0xbc174af7	-0.009234182
74	0xbc20bbd7	-0.0098104095
75	0xba2ecd3f	-0.00066681573
76	0x3b1133d6	0.002215614
77	0xbb5f86c7	-0.0034107433
78	0xbbae05ee	-0.0053107655
79	0x3bbd940a	0.00578547
80	0x3b882c82	0.0041556964
81	0xbc08e916	-0.008356353
82	0xbc8b5d17	-0.017012162
83	0x3c305df4	0.010764588
84	0xb9ee768b	-0.0004548322
85	0xbb70cec2	-0.003674433
86	0x3bad7998	0.005294036
87	0xbc608d63	-0.013705584
88	0xbcaea03b	-0.021316638
89	0xbc4b9679	-0.012426012
90	0x3aedcc2a	0.0018142511
91	0x3c5be79f	0.013421922
92	0xba6281e3	-0.00086405704
93	0xbbc7151f	-0.006075516
94	0x3aa1f151	0.0012355243
95	0xba37555f	-0.0006993617
96	0x3b318262	0.002708577
97	0x3bfe8cf5	0.007768268
98	0x3aed6533	0.0018111825
99	0xbc013692	-0.007886546
100	0x3b04f2db	0.0020286355
101	0x3c1cfae0	0.009581298
102	0xba37ba81	-0.0007008687
103	0x3ac8d772	0.0015322997
104	0x3bcdcc9d	0.0062804953
105	0xbc5b3480	-0.013379216
106	0xbca68453	-0.020326769
107	0x3b925808	0.0044660605
108	0xbcd52b55	-0.026021639
109	0x39e69268	0.000439781
110	0x3ba02ec3	0.004888387
111	0x3b8e2248	0.0043375827
112	0x3b3ee2e8	0.0029126946
113	0xbbfd308a	-0.0077267336
114	0x3b6c71bf	0.003607854
115	0x3bb0433d	0.005379109
116	0xbb190e75	-0.0023354564
117	0x3b9bf8f7	0.0047599035
118	0xbb4ebf4a	-0.0031547123
119	0xb937883e	-0.00017502994
120	0x3b9026f3	0.0043991744
121	0x3bb68411	0.0055699428
122	0xbc57444f	-0.013138845
123	0x3c2d9d95	0.0105966525
124	0x3c654c82	0.013995292
125	0x3b6ba7a3	0.0035958074
126	0xbb3d625f	-0.0028897745
127	0xbc014b8f	-0.00789155

exp_avg f4 [128, 10]
0	0xbab57bc8	-0.0013846094
1	0xb9b62fb8	-0.00034749298
2	0xba3e4950	-0.0007258849
3	0x3ac71dd4	0.0015191385
4	0xba0ac584	-0.00052937143
5	0xbb2031d4	-0.0024443762
6	0x3a047709	0.0005053138
7	0x3928e002	0.00016105178
8	0x00000000	0.0
9	0x00000000	0.0
10	0x3ca795c1	0.02045715
11	0x3bace6aa	0.0052765207
12	0x3c28612e	0.010277076
13	0x3b52995a	0.0032134862
14	0x3af08052	0.0018348789
15	0x3c4e02b4	0.012573887
16	0x3685746a	3.9772613e-06
17	0x39fd5f5b	0.00048326966
18	0x00000000	0.0
19	0x00000000	0.0
20	0x8dea9560	-1.4457324e-30
21	0x8c90ee34	-2.2330076e-31
22	0x8cf00080	-3.6978156e-31
23	0x0cd2b616	3.2465212e-31
24	0x0d294db5	5.217068e-31
25	0x8c9d8e08	-2.4275162e-31
26	0x8898eac0	-9.203357e-34
27	0x0818dd08	4.6000657e-34
28	0x00000000	0.0
29	0x00000000	0.0
30	0xbc03b2da	-0.008038247
31	0xbb09d52f	-0.0021031608
32	0xbb844027	-0.004035968
33	0xba672280	-0.00088170916
34	0xba53c8af	-0.00080789154
35	0xbbb093f7	-0.0053887325
36	0x389e3d24	7.5454154e-05
37	0xb8bf2f39	-9.1163856e-05
38	0x00000000	0.0
39	0x00000000	0.0
40	0xbc07e29d	-0.008293775
41	0xbb086df6	-0.0020817495
42	0xbb84d0a5	-0.0040531927
43	0xbbbca63f	-0.0057571228
44	0xb9c5dd27	-0.0003773954
45	0xbb603abf	-0.0034214703
46	0xb91b9c4d	-0.00014840178
47	0xba0778fd	-0.000516787
48	0x00000000	0.0
49	0x00000000	0.0
50	0xbbf53574	-0.0074831787
51	0xbaf7faf7	-0.0018919398
52	0xbb6f57e0	-0.0036520883
53	0xbb30966f	-0.0026945134
54	0xb971c556	-0.00023057064
55	0xbb0a64f8	-0.002111731
56	0xb9273fdc	-0.0001595015
57	0xb7edee5b	-2.8363595e-05
58	0x00000000	0.0
59	0x00000000	0.0
60	0x0049beb9	6.77241e-39
61	0x0012d2c5	1.728649e-39
62	0x00250ff9	3.403643e-39
63	0x800c7c4b	-1.146614e-39
64	0x000179e4	1.35562e-40
65	0x0025deb4	3.477804e-39
66	0x00002117	1.187e-41
67	0x800015db	-7.84e-42
68	0x00000000	0.0
69	0x00000000	0.0
70	0x3c19f0e3	0.009395811
71	0x3b21c8a8	0.002468625
72	0x3b9ad221	0.0047247563
73	0x39987600	0.00029079616
74	0x3a783a58	0.0009469143
75	0x3bd99e0e	0.006641156
76	0x39015763	0.00012334953
77	0x39630219	0.00021649188
78	0x00000000	0.0
79	0x00000000	0.0
80	0x91ae976c	-2.754568e-28
81	0x90b0bd2b	-6.971122e-29
82	0x91235a5b	-1.2886276e-28
83	0x91a9d844	-2.6796783e-28
84	0x9002d7b4	-2.580415e-29
85	0x913c3a46	-1.4848542e-28
86	0x8d184621	-4.692303e-31
87	0x8dd324e4	-1.301276e-30
88	0x00000000	0.0
89	0x00000000	0.0
90	0xbbf1abbb	-0.007375208
91	0xbaf99836	-0.0019042555
92	0xbb72a5bf	-0.0037025062
93	0xba9ed7ca	-0.0012118754
94	0xb9f251b8	-0.00046218722
95	0xbb6e8ec6	-0.0036401018
96	0xb9251390	-0.00015742914
97	0xb92376ed	-0.00015589195
98	0x00000000	0.0
99	0x00000000	0.0
100	0xbaed9746	-0.0018126748
101	0xb9f39cd2	-0.00046465412
102	0xba701aba	-0.0009159256
103	0x395c46a0	0.00021007145
104	0xb9216509	-0.00015391795
105	0xba8de268	-0.0010824921
106	0x38cbba4d	9.7144955e-05
107	0x37956331	1.7808374e-05
108	0x00000000	0.0
109	0x00000000	0.0
110	0xbc51507b	-0.012775536
111	0xbb56584a	-0.0032706433
112	0xbbd38ece	-0.0064562326
113	0xbade3326	-0.0016952499
114	0xba8e7776	-0.0010869342
115	0xbbf74600	-0.0075461864
116	0xb95ec1e3	-0.00021243798
117	0xb9a965bf	-0.0003231
118	0x00000000	0.0
119	0x00000000	0.0
120	0xbc2ce503	-0.0105526475
121	0xbb355709	-0.0027670285
122	0xbbb0c43e	-0.0053944876
123	0xba87d024	-0.0010361713
124	0xba8f7fe8	-0.0010948153
125	0xbbe7eac8	-0.0070775487
126	0x392661fd	0.00015867497
127	0xb9165dc2	-0.00014340042
128	0x00000000	0.0
129	0x00000000	0.0
130	0xba949996	-0.0011337276
131	0xb98c47d8	-0.0002675641
132	0xba0239f4	-0.0004967742
133	0xba3bfe38	-0.00071713654
134	0xb77fe028	-1.5251375e-05
135	0xb931e450	-0.00016965088
136	0x36a3b788	4.8791444e-06
137	0xb76cf2e4	-1.4123249e-05
138	0x00000000	0.0
139	0x00000000	0.0
140	0x3aa56713	0.001261922
141	0x39a6e6c5	0.00031833924
142	0x3a1b196d	0.00059165695
143	0x3a6e6915	0.0009094638
144	0x376a692f	1.3971977e-05
145	0x396b2838	0.00022426329
146	0x35c8b9fe	1.4955292e-06
147	0xb6651772	-3.4137306e-06
148	0x00000000	0.0
149	0x00000000	0.0
150	0x99c45b52	-2.0302809e-23
151	0x98c6888e	-5.1319685e-24
152	0x99292a7b	-8.745674e-24
153	0x99d1b830	-2.1684486e-23
154	0x158b0e7d	5.616451e-26
155	0x1782e89c	8.459772e-25
156	0x9511a68c	-2.94139e-26
157	0x141b77e5	7.849145e-27
158	0x00000000	0.0
159	0x00000000	0.0
160	0xbbcfebd2	-0.0063452506
161	0xbadc3c6d	-0.0016802676
162	0xbb5d7a62	-0.003379487
163	0x3abc93bf	0.0014387293
164	0xba8e265e	-0.0010845175
165	0xbbc2e7be	-0.005948036
166	0x395bcd7f	0.00020962021
167	0xb9167523	-0.00014348752
168	0x00000000	0.0
169	0x00000000	0.0
170	0x3b69f53d	0.0035699152
171	0x3a67d508	0.0008843695
172	0x3adaba12	0.0016687533
173	0x3b189071	0.0023279453
174	0x383465b0	4.3010048e-05
175	0x3a2ab9e8	0.00065126875
176	0xb625b0fa	-2.468993e-06
177	0x379a152c	1.836809e-05
178	0x00000000	0.0
179	0x00000000	0.0
180	0x00000004	6e-45
181	0x00000004	6e-45
182	0x00000004	6e-45
183	0x80000004	-6e-45
184	0x00000004	6e-45
185	0x00000004	6e-45
186	0x80000004	-6e-45
187	0x00000004	6e-45
188	0x00000000	0.0
189	0x00000000	0.0
190	0x3ac49cf0	0.0015000384
191	0x39a585d0	0.0003157095
192	0x3a5666b8	0.00081787584
193	0x39b2c180	0.00034094974
194	0x39226bb4	0.00015489646
195	0x3a73b738	0.0009297016
196	0xb84f4d96	-4.9424903e-05
197	0x3913e21c	0.00014103245
198	0x00000000	0.0
199	0x00000000	0.0
200	0x3a71e732	0.0009227871
201	0x397d0e44	0.00024133275
202	0x39e92b8e	0.00044473674
203	0xba347c64	-0.0006884991
204	0x38e1c890	0.00010766194
205	0x3a4ced60	0.0007817354
206	0x393b6c1c	0.00017873984
207	0x3887f2c0	6.482517e-05
208	0x00000000	0.0
209	0x00000000	0.0
210	0x9b8f5e6c	-2.3718384e-22
211	0x9a8f714a	-5.932644e-23
212	0x9b0c8325	-1.1622904e-22
213	0x1a44b090	4.0674476e-23
214	0x973a05f0	-6.0107336e-25
215	0x9b0e6835	-1.1779636e-22
216	0x96fc27ea	-4.0737985e-25
217	0x16a688c3	2.6905055e-25
218	0x00000000	0.0
219	0x00000000	0.0
220	0xbc7c60c4	-0.01540393
221	0xbb823012	-0.0039730156
222	0xbbf83806	-0.007575038
223	0xbbacb690	-0.0052707866
224	0xba8a6e9d	-0.001056153
225	0xbbfc1cd3	-0.007693866
226	0x378bf696	1.6684917e-05
227	0xb91cd870	-0.00014957949
228	0x00000000	0.0
229	0x00000000	0.0
230	0x3c256684	0.010095242
231	0x3b26628a	0.0025388324
232	0x3ba98a60	0.0051739663
233	0x3a82ff80	0.0009994358
234	0x3a40e53a	0.0007358376
235	0x3ba16d89	0.0049263877
236	0x392df380	0.00016589276
237	0x398a7fec	0.0002641672
238	0x00000000	0.0
239	0x00000000	0.0
240	0x3a8ac0e0	0.0010586046
241	0x39804810	0.00024467753
242	0x3a544d50	0.00080986787
243	0xb9919120	-0.00027764682
244	0x397b269a	0.00023951606
245	0x3acc4ace	0.0015586258
246	0xb7a8ec60	-2.0137231e-05
247	0x39acdd17	0.0003297112
248	0x00000000	0.0
249	0x00000000	0.0
250	0xbba029bf	-0.004887789
251	0xbaa48755	-0.0012552539
252	0xbb1a5bf2	-0.0023553339
253	0xba9dc200	-0.0012035966
254	0xb9e0f547	-0.00042907355
255	0xbb4e6324	-0.0031492198
