Assets/results/VikramRover10/VikramRover.onnx (onnx, 147290 bytes, 10 tensors)

network_body._body_endoder.seq_layers.0.weight f4 [128, 10]
000000 dd b7 4b bf 4c 75 75 3e 31 56 1d 3c eb a7 8f be
       -0.7957743 0.23970526 0.009603069 -0.280578
000010 5c 56 5f 3e 26 a4 26 bf c0 0c cf be 50 80 10 3e
       0.21810287 -0.6509422 -0.40439415 0.14111447
000020 96 9e e4 bc 7e 7a 37 be 76 ff 06 3f ed 5d da 3d
       -0.02790765 -0.17917821 0.5273355 0.10662446
000030 9e f3 92 3e db 35 8a bc 00 47 1b be 44 11 8b 3e
       0.2870149 -0.016871383 -0.15163803 0.2716161
000040 3b 18 d5 3e 02 92 d7 bd 3c 44 6b be 07 aa e2 3d
       0.4162005 -0.10525896 -0.22975248 0.110675864
000050 44 1b 28 3c cc da 0a bf 15 db a6 bd 3e 88 d1 bd
       0.010260407 -0.5424011 -0.08147255 -0.10231064
000060 2f 55 b5 3e c2 df bf bd ac 91 32 3f e6 65 b3 be
       0.35416552 -0.0936885 0.6975353 -0.3503868
000070 7f 6b 45 bf 99 6a 35 bf a8 41 a4 3c f6 34 75 3d
       -0.7711715 -0.7086578 0.020050839 0.05986496
000080 b1 d3 90 be eb 70 c5 3e a6 19 d2 bd 13 4d 05 3d
       -0.28286508 0.38562712 -0.10258798 0.032544207
000090 6b 0c 2c 3d a5 4f 07 3e 61 e5 06 be 9b 2f 1a be
       0.04200403 0.13213976 -0.13173439 -0.15057223
0000a0 f0 f1 32 bc 4c a0 7d 3d de 08 78 3d 89 3e 9b be
       -0.01092194 0.06192045 0.06055533 -0.30321148
0000b0 fd 2d 9e 3e 20 9b 11 3f f8 51 f0 3d 51 7f c1 3e
       0.3089446 0.56877327 0.11734384 0.37792447
0000c0 98 0b 76 be 83 ca 89 be f1 ac 06 bd f9 f7 94 bf
       -0.2402786 -0.26912317 -0.032879774 -1.1638175
0000d0 0b a3 a5 3e 3a fa 31 3f ba a7 11 3f 23 38 ff 3e
       0.32350954 0.6952244 0.56896555 0.49847516
0000e0 fd 85 a7 be 7b 78 15 be 9b 19 52 3e 69 ff 23 bf
       -0.32719412 -0.14596741 0.2051758 -0.640616
0000f0 77 44 c9 3d b5 42 ee bd f0 c3 29 3f 12 bd 86 3e
       0.09827512 -0.11633817 0.663146 0.26316124
000100 bb 52 c3 be 0d 4f 28 bd e2 d3 aa 3e 29 27 99 be
       -0.38149056 -0.041091014 0.3336478 -0.2991269
000110 c8 4f 0e 3e c4 43 6f 3e 3d cc 8a 3e eb 8a 16 3e
       0.13897622 0.23365694 0.27108946 0.1470143
000120 91 86 7a 3d 5b e6 3f bd 55 fd 1a be 1b 5e 47 be
       0.06116349 -0.046850543 -0.15135701 -0.19469492
000130 58 bf 2e 3e 40 5f a9 bd 74 9f 03 bf 5b a8 9d bd
       0.1706518 -0.082701206 -0.5141518 -0.07698127
000140 48 cc 40 3c 71 b0 1f 3d 04 84 d2 3d ce 1a 75 bf
       0.011767454 0.038986627 0.10279086 -0.95744026
000150 c2 c5 cb be e9 be f0 3e 04 00 a4 be 6e 64 8e be
       -0.39799315 0.47020653 -0.32031262 -0.27810997
000160 98 79 1f be 69 d0 01 3f 07 69 52 3e e3 c4 83 bd
       -0.15573728 0.50708634 0.20547877 -0.064340375
000170 53 f5 54 3e 8a 2e 65 be 93 33 c3 bd d8 aa 96 3e
       0.20796709 -0.22381034 -0.095313214 0.29427218
000180 5f ae 4a 3e 14 f6 cc 3d 6c bb c4 bd f0 64 14 be
       0.1979308 0.10007873 -0.096060604 -0.1449163
000190 28 85 ca bd c8 fe 85 3e f3 35 27 3f 1d ca 22 bf
       -0.09888679 0.26170945 0.65316695 -0.6358965
0001a0 b3 33 8d be 88 a2 5d 3f 84 1a 65 bd ba e8 8c 3e
       -0.27578506 0.8657613 -0.05593349 0.27521306
0001b0 7e c1 0d 3f 03 46 09 3e c7 49 88 3d a7 00 75 be
       0.5537337 0.13405614 0.06654697 -0.2392603
0001c0 bc 60 2b be 75 7e 85 3e dc 22 aa bd a7 87 1d 3e
       -0.1673612 0.26073042 -0.0830743 0.15383779
0001d0 65 83 76 3e dd 30 e0 3d eb 8b c0 3e 14 f9 6a 3d
       0.2407356 0.1094682 0.3760675 0.057366446
0001e0 95 be 1a be fe 1e ea bd 72 17 d6 3b 25 84 0a 3f
       -0.15111764 -0.114316925 0.0065335566 0.54107887
0001f0 11 f1 13 3d 71 10 a1 3e a7 1e 10 bf 59 7b 83 be
       0.03611857 0.31457856 -0.5629677 -0.25680044
000200 32 99 87 bd e6 48 4b bf 3b a0 7e be d4 9e 87 3e
       -0.066210166 -0.7940811 -0.2486581 0.26488364
000210 f7 ad 85 be 25 e8 53 3f cd 91 a2 3d 67 fa eb be
       -0.26109287 0.827761 0.079379655 -0.4608948
000220 82 18 00 3e 5b 0a 1b be 5a c0 c3 bd be 9d a4 3d
       0.12509349 -0.15140669 -0.095581725 0.080378994
000230 03 75 a9 3e 06 b9 87 be 53 d3 b8 be cd 3c 29 bf
       0.33097085 -0.2650835 -0.36098728 -0.661084
000240 ef 0f 76 be 13 7e e2 be 0b 2c e1 bc 11 fe bb be
       -0.24029516 -0.44236812 -0.027486822 -0.36717275
000250 68 ce f5 3d a7 3c b1 3e 55 cc a3 3d 58 52 20 3f
       0.120022595 0.34616587 0.079979576 0.62625647
000260 57 d7 fe 3e ff 3c 07 3d d1 0b 13 3e aa 3f 9c be
       0.49773666 0.033017155 0.14359976 -0.30517322
000270 d9 4c 7b 3e 0d b5 21 3d 5f 89 6a bd d1 d6 db be
       0.24541034 0.039479304 -0.057259914 -0.4293733
000280 64 b2 83 3e 5e 7c b1 3d 12 b7 cc 3d d5 5f cb be
       0.2572204 0.08666299 0.099958554 -0.39721552
000290 8a 79 9f 3e d3 b6 1c bf 18 2a 06 3e 6d cd d3 be
       0.31147414 -0.6121647 0.13101995 -0.41367665
0002a0 b4 85 1a 3f c5 3e 1f bd e0 09 b2 3e a7 e4 e6 3d
       0.60360265 -0.03887822 0.3477316 0.11274081
0002b0 0a 8b d9 3e 70 2c 60 3e dc 0a a5 be 9d 53 9e 3e
       0.4248889 0.21891952 -0.32234848 0.30923167
0002c0 8d 57 4a be 2d 8f 2d 3d d4 95 16 bf d9 d8 5b 3e
       -0.1975996 0.04237287 -0.5882237 0.2146944
0002d0 0e 3f 02 bf 96 f5 df 3d 2d 6c 08 be 2c c3 1c be
       -0.50877464 0.10935514 -0.13322516 -0.15308827
0002e0 0d e9 23 3f 09 75 96 be ae 51 1f 3d 12 61 f5 be
       0.6402748 -0.29386166 0.038896255 -0.4792562
0002f0 7e 89 ed bc 67 e4 df 3d 8f 32 70 3e 2e d2 02 be
       -0.028996225 0.10932236 0.23456787 -0.1277549
000300 aa ff 32 be 8e 8f 87 3e 11 94 79 be 2d 40 0e bf
       -0.1748034 0.2647671 -0.24372889 -0.55566674
000310 f6 d3 0f 3f df 78 f8 3e 10 61 49 be fe 1f af be
       0.561828 0.48529717 -0.19665933 -0.34204096
000320 96 e9 4a 3e 13 f8 2e be 37 57 2c be c0 4d 04 3e
       0.19815668 -0.1708682 -0.16830145 0.12920284
000330 6e f2 91 3e a9 58 74 be 28 f9 b6 be 35 0d c3 3e
       0.28505272 -0.23861946 -0.35736966 0.38096014
000340 3c 3d 34 bf c9 f5 05 bf 54 a2 df bc 16 50 53 be
       -0.70405936 -0.52328163 -0.027299084 -0.20636019
000350 ce b3 14 bd eb 0a 8a 3e 75 9e d9 3e fe a0 1c be
       -0.036304288 0.26961455 0.42503706 -0.15295789
000360 cf e9 04 be b5 23 0f be 5c ab 93 3d 6d 87 0f be
       -0.12979816 -0.13978465 0.072104186 -0.14016505
000370 59 28 bc 3e d8 1c d7 3d 05 43 30 be 2f 76 34 3e
       0.36749533 0.105035484 -0.17213066 0.17623208
000380 0f b6 df 3d 89 be 57 3e a5 02 5c 3e 21 2f ae 3e
       0.10923397 0.21068777 0.21485384 0.34020332
000390 07 b4 97 3e e3 f9 8c 3c 5f 29 bd 3e 99 28 72 bc
       0.29629537 0.017208999 0.36945626 -0.014780187
0003a0 27 a9 b5 3e cb ff 5c 3e bd ab 3b be 89 52 f6 3d
       0.35480615 0.21581952 -0.18327232 0.12027461
0003b0 90 e6 3d bf 87 86 f8 be 32 41 c4 be 0c 0b 6f be
       -0.74179935 -0.48540136 -0.3833099 -0.23344058
0003c0 c4 0c 74 3e 4f 3a 64 bd 99 79 af be 4c ed a6 3d
       0.23832995 -0.05571967 -0.3427246 0.081507295
0003d0 7b 08 80 be 0f e2 95 be 0e 91 53 be d8 a0 20 bd
       -0.2500647 -0.29274032 -0.20660803 -0.039215893
0003e0 93 42 91 be 8a 26 86 bd 1b 1b 00 3e 98 4b 5f 3e
       -0.28371105 -0.065503195 0.1251034 0.2180618
0003f0 a3 8b f0 bd bc 03 6c 3e 4a 47 52 3e c6 73 ed be
       -0.117453836 0.230483 0.20535007 -0.4637739

network_body._body_endoder.seq_layers.0.bias f4 [128]
000000 00 00 00 00 41 db e7 b9 2b 62 9a b6 1a 44 1d bb
       0.0 -0.0004422311 -4.600986e-06 -0.002399689
000010 d3 57 93 3a 7b 10 1d 3b 21 39 c9 ba b1 cc 48 bb
       0.0011241384 0.0023966122 -0.0015352109 -0.0030639584
000020 8f f9 5e bb ab 12 2f 3b b9 2c d3 ba e6 15 24 3b
       -0.003402326 0.0026714008 -0.0016111351 0.0025037467
000030 82 3f 25 3b 1d ad 2a 3a a0 4c bc 3a 7e db 28 bb
       0.0025214856 0.0006510781 0.0014366098 -0.0025765593
000040 00 00 00 00 53 08 07 3a 00 00 00 00 c7 68 86 bb
       0.0 0.0005151082 0.0 -0.004101846
000050 d7 d6 12 3b 31 ce 6b ba a5 09 9c 3a 07 89 23 bb
       0.0022405887 -0.00089952635 0.001190473 -0.00249535
000060 f4 0a 6a bb bf 3f 6f bb 47 bc 6a bb b2 3b dc 25
       -0.0035712095 -0.0036506501 -0.0035817788 3.8204368e-16
000070 3a 59 29 3b 87 3d 0f 3b 25 a8 1b b7 b3 42 10 3b
       0.0025840537 0.0021856742 -9.277869e-06 0.0022012412
000080 d8 55 00 3c b1 62 15 bc db 98 54 bb 6e c4 3d 3a
       0.007832967 -0.009117768 -0.0032439742 0.0007239048
000090 38 bb 4d 3b 00 00 00 00 ed bc 0f bc ca d7 28 bb
       0.0031392109 0.0 -0.008773071 -0.0025763386
0000a0 58 24 ed 38 1c ed 85 3b c9 39 ae 3a e0 d7 ad 3a
       0.0001130781 0.0040871035 0.0013292368 0.0013263188
0000b0 c3 fe a2 ba b6 75 32 b9 30 dd 82 bb d0 c3 6e bb
       -0.0012435544 -0.00017019254 -0.0039936528 -0.0036432631
0000c0 55 fb af b9 1c 34 b4 bb ba da b1 ba db 25 06 3b
       -0.00033565858 -0.005499376 -0.0013569214 0.002046934
0000d0 00 00 00 00 7e 73 10 3b b1 c9 9c 3b c9 48 95 ba
       0.0 0.0022041495 0.0047847857 -0.001138949
0000e0 96 4d c6 3a cf 8e 8a bb 22 08 38 bb a5 8a 8c 3b
       0.0015129324 -0.00422845 -0.002808102 0.0042889887
0000f0 d0 47 d2 3a 33 ea e0 bb 84 57 8e 3b 4f 6e a8 3b
       0.001604313 -0.006863856 0.004343929 0.005140103
000100 00 00 00 00 d9 8b 90 39 42 6e e4 2c ff 57 76 3b
       0.0 0.00027570015 6.492391e-12 0.003758907
000110 0a 1e 9c ba ba 18 4c 3b 7b fd 1b bb c3 45 83 3b
       -0.0011910808 0.0031142668 -0.002380221 0.004006119
000120 3c 65 f9 3a c7 05 88 3a 00 00 00 00 0f fc 9c ba
       0.0019027363 0.0010377698 0.0 -0.0011976975
000130 81 61 d4 b9 e4 e0 7d ba 4f 79 a1 bb f4 b3 e2 39
       -0.00040508437 -0.00096846954 -0.004927791 0.00043240155
000140 03 13 e0 ba 10 5f 6c bb 5c 60 c7 bb ab 08 05 39
       -0.001709551 -0.0036067404 -0.006084485 0.00012687097
000150 00 00 00 00 cb 3f 68 bb 00 00 00 00 ca 68 b8 bb
       0.0 -0.0035438414 0.0 -0.005627726
000160 33 6b 9e 3b 00 00 00 00 65 13 34 3a 49 2a 55 ba
       0.0048345565 0.0 0.0006869345 -0.0008131606
000170 0c bc 60 b9 82 74 9e 3b 7e 2d 34 3b 4b a5 39 39
       -0.00021432358 0.004835666 0.0027492936 0.00017704551
000180 27 be 3f 3b 85 a8 47 3b 5c 25 89 bb 5a 0d 63 3b
       0.0029257627 0.0030465436 -0.004185362 0.003464541
000190 87 a0 d5 86 cf 30 65 bb 1b 8c 8a ba e0 db 19 bb
       -8.035757e-35 -0.003497172 -0.0010570319 -0.0023477003
0001a0 f7 34 08 bb 8e 88 1c 3b 3b 0d b9 bb d0 60 ae 3a
       -0.0020783523 0.0023885104 -0.005647329 0.0013303999
0001b0 b9 89 ee 3a 33 11 a1 bb 00 00 00 00 49 e1 25 3b
       0.0018199004 -0.0049153804 0.0 0.0025311282
0001c0 be 66 83 3b 07 62 89 3b 3f 8a cf ba 74 d1 d7 3b
       0.0040100506 0.004192594 -0.0015834047 0.006586248
0001d0 8a 77 8d bb 3b 8b 49 bb 5e 71 0c ba 34 c5 62 bb
       -0.0043172287 -0.0030753154 -0.0005357469 -0.0034602406
0001e0 ab 47 00 bb 00 00 00 00 97 d4 80 3b 13 0d 8c bb
       -0.0019573967 0.0 0.0039315927 -0.0042740195
0001f0 14 a0 71 3a 63 d4 1d bb e0 5b f1 ba 87 7b 03 3a
       0.0009217274 -0.0024082891 -0.0018414222 0.00050156604

network_body._body_endoder.seq_layers.2.weight f4 [128, 128]
000000 b1 19 30 3e 89 cb a4 bc 72 9f 3d 3d e5 d1 43 bd
       0.171973 -0.020116584 0.046294637 -0.047807593
000010 ff 57 7d bd 7b e2 3d bd 31 70 79 bd 9b bc 71 bc
       -0.061851498 -0.046358567 -0.06089801 -0.01475444
000020 75 c9 6d bb 6a 13 ed 3d 20 90 89 3b 6c 9f b7 3d
       -0.0036283408 0.115759686 0.0041980892 0.08965954
000030 f7 8e 08 bc 2e d4 36 3e 88 ce 4d 3c f2 a4 c8 3d
       -0.008334867 0.17854378 0.012561448 0.09797086
000040 90 a4 1a 3e 43 e2 f6 bd c2 18 95 3c 8e 35 45 bd
       0.15101838 -0.12054875 0.018200282 -0.048146777
000050 53 42 7b bc 4d 5a 32 3c 0c e6 96 3d 51 d0 96 bd
       -0.015335637 0.010885787 0.07368097 -0.07363952
000060 75 ad f7 3a 53 78 7b bd fd 16 5f 3c 2b 19 10 be
       0.0018896299 -0.061394047 0.013616321 -0.14072101
000070 74 14 92 bd 91 e7 97 bb 2b fb d2 bd 0f c1 64 3d
       -0.071328074 -0.004635759 -0.10301813 0.055848178
000080 59 d9 e9 bc ed 86 9d 3d 44 63 f1 bc a1 e6 a9 bc
       -0.028546022 0.07691751 -0.029466279 -0.020739855
000090 d6 3b a2 bc 01 4d 77 bc c2 8b a4 bd 0c df 1a 3c
       -0.019803923 -0.015094043 -0.08034469 0.009452593
0000a0 b4 da b5 3c 33 b0 07 be 82 da f0 bd 54 79 97 3b
       0.022199012 -0.13250808 -0.11760427 0.0046226177
0000b0 65 07 84 3d d5 e7 34 3e 3d c8 2f 3d e0 3a 7b 3d
       0.06446723 0.17666562 0.04291557 0.061335444
0000c0 c2 0a 1a bd 7a 2d 1a be 74 85 af bd 90 35 b9 bb
       -0.037607916 -0.1505641 -0.08570376 -0.005652137
0000d0 d9 61 68 3e 9f f0 35 bd 8c 7f 3c bc 82 8d 1b 3d
       0.22693576 -0.044418927 -0.011505019 0.03797675
0000e0 f2 3d ee bc 69 3e 57 be 14 ec 5d bc 32 79 10 bd
       -0.029082272 -0.21019901 -0.013545055 -0.03527183
0000f0 fd 73 69 bc 3c 21 3e 3d 24 25 be bc 2e 98 8f bd
       -0.014248845 0.046418414 -0.02321107 -0.07011448
000100 97 9d cb 3d 7d 73 4e bd c7 58 08 be f8 b9 07 bd
       0.09942167 -0.050403107 -0.13315116 -0.033136338
000110 2f 11 00 3d 03 7b 9a bd 7b 43 83 3c d8 98 74 bd
       0.031266388 -0.07542994 0.016023388 -0.059716076
000120 f2 b7 8e bd 23 e9 a1 3d 53 ea b1 bd 99 95 de bd
       -0.069686785 0.079057954 -0.08687272 -0.10868377
000130 19 68 c0 3d f0 96 fa 3a 1f d1 3d be 9f cc ee 3d
       0.09394855 0.0019118469 -0.18536805 0.11660122
000140 2a f6 ab 3d f4 9a bc 3d ff 39 2c 3d a5 1c 39 bd
       0.083965614 0.092092425 0.042047497 -0.045193333
000150 a7 38 3e bd ba e2 45 be 01 72 b7 3d 68 25 ee bb
       -0.046440747 -0.1932477 0.089572914 -0.0072676428
000160 fe 51 da bd de e9 31 be cb 33 82 3d c2 b9 41 bd
       -0.1066017 -0.1737437 0.06357535 -0.047296293
000170 46 43 f7 bc b0 47 0a bd de f3 00 3e 30 4a 81 3d
       -0.030183446 -0.033759773 0.12593028 0.06312978
000180 3a c6 09 3e 92 32 01 3e e3 ec e0 3d 55 3e 3b bc
       0.13454524 0.12616947 0.109826826 -0.011428435
000190 d5 71 b9 bd 34 e2 1f bc b4 fe 77 3d c2 1f ad 3c
       -0.09054915 -0.009758521 0.06054564 0.021133307
0001a0 4e 97 b3 bd ee 5d cc 3b 51 8f 19 bd c0 44 75 3c
       -0.087690935 0.006236783 -0.037490193 0.014970005
0001b0 bd a1 02 3d a3 2c 95 3d 0a 89 99 3c d4 0f c1 3d
       0.031892527 0.072839044 0.018742103 0.09426847
0001c0 0e e0 db bc 7d c4 fb 3c 63 54 25 be 92 32 2a bd
       -0.026840236 0.030733341 -0.16145472 -0.041552134
0001d0 28 f1 f3 bb 13 2a ea 3d 94 f5 0b bd a5 15 e7 bb
       -0.0074445195 0.11433806 -0.03416975 -0.007052141
0001e0 9f 92 bf ba f8 37 54 bd 00 fb 71 bb f3 c6 14 bc
       -0.001461584 -0.05181119 -0.003692329 -0.009080636
0001f0 00 12 75 3d 52 36 96 bb 49 6b d5 3d 8a 24 d9 3d
       0.05983162 -0.004584112 0.10420854 0.106026724
000200 f4 3a bf 3d 51 64 69 3c f7 77 65 3d 32 2c 4d 3c
       0.09337416 0.014245109 0.05602261 0.012522744
000210 ad e7 ea 3d d2 21 9b 3d 88 d0 a5 3d 32 55 b4 bd
       0.1146997 0.0757481 0.08096415 -0.08805312
000220 98 0c 89 bd 1e c0 9a bd c9 a3 64 bd 2b cd 41 3d
       -0.06691855 -0.07556175 -0.05582026 0.047314804
000230 03 b2 4e 3d 2c bf 78 bc 9b 84 30 3d 82 44 8a bd
       0.050462734 -0.015182298 0.043095212 -0.06751348
000240 50 6b 8d 3d 6d 97 1d be 0f 88 bf 3d a2 8d 48 3d
       0.06905234 -0.15389796 0.09352123 0.048963197
000250 ac 68 28 3d 8d 81 e5 bd bb af 33 be f8 b5 c1 bd
       0.041115448 -0.112063505 -0.17547505 -0.09458536
000260 a1 4c c0 bc 5c c8 1c be f0 7f bf bd d0 1e f1 bc
       -0.02347404 -0.15310806 -0.09350574 -0.029433638
000270 43 ea 90 bc 0f 02 a7 3d 33 41 26 bd f6 c5 23 3e
       -0.01768983 0.081546895 -0.040589523 0.15993485
000280 b5 a1 75 3d b0 04 a4 bd eb 80 d8 3d f2 97 14 bd
       0.05996867 -0.080087066 0.10571464 -0.03627772
000290 02 53 99 3b 9e 9a 59 3c 4f 4a eb bc 1c 20 11 be
       0.0046790848 0.0132814925 -0.028721957 -0.14172405
0002a0 ed 82 62 3d 8c be 00 be 11 8d 74 bd 7a 4c eb bc
       0.05530064 -0.12572688 -0.059704844 -0.02872299
0002b0 68 96 00 3d 8c c8 59 3d ad 86 b3 bd 6a 97 68 be
       0.03139344 0.053169772 -0.08765922 -0.2271401
0002c0 4b 8d 29 be 06 e2 62 3d 30 85 d2 bd 5a c1 02 3b
       -0.16557805 0.055391334 -0.1027931 0.0019951672
0002d0 d6 c3 0d 3d 55 53 6a 3c 10 81 a1 3d 05 0a 0d 3e
       0.03461059 0.0143020945 0.07885945 0.13773353
0002e0 04 8e 28 3d 1e 1c 8f bd d1 5a bf bd d6 95 99 3d
       0.04115106 -0.06987785 -0.09343494 0.07499282
0002f0 9a 9e 14 3e dd 54 89 3b 3c 51 41 3c b8 ad 0e 3c
       0.14513627 0.0041910247 0.011799153 0.00870841
000300 74 b2 8f 3d e2 b4 73 3d 33 45 58 bc 33 bc 90 3d
       0.07016459 0.059498675 -0.013200092 0.07067146
000310 a5 85 a6 bc 91 2b 31 be e4 4e 6f 3d 4b a5 bf 3a
       -0.020327399 -0.17301776 0.058424845 0.0014621405
000320 6e 5b 7d 3d 5f d8 bb 3d fb a9 de 3d 83 ba 37 bd
       0.061854772 0.09172129 0.10872265 -0.044855606
000330 94 2e fe 3c fe 55 76 3d 59 34 c9 3d 7c cf 84 3d
       0.03102807 0.060140602 0.09824438 0.06484887
000340 23 6e 29 bd 85 85 36 be 5f 67 79 3d 80 ff a9 3d
       -0.0413648 -0.17824371 0.060889598 0.08300686
000350 2c 13 42 3d 61 2b 82 bd 68 1c 84 3c 53 7a 31 3e
       0.047381565 -0.0635593 0.016126826 0.17331819
000360 8d 60 6c 3d ad b9 4b bb cd 6a 71 3d e6 fb 6e bc
       0.057709266 -0.0031086013 0.058939744 -0.014586424
000370 79 98 27 be 02 23 aa 3d 76 79 88 3d 07 f1 9c bd
       -0.16366757 0.083074585 0.06663792 -0.0766316
000380 eb 93 ad 3d 0c d7 0d bd f7 b5 3a 3c 2f 65 9a bd
       0.08475479 -0.034628913 0.011395923 -0.075388305
000390 d2 f4 04 be 24 81 40 3d af 70 76 3c 84 de d7 3d
       -0.12984017 0.046998158 0.015041514 0.10540488
0003a0 3d c4 e2 ba 09 a2 82 3d 66 92 d8 bc 04 a1 0d 3c
       -0.0017300915 0.06378562 -0.026436996 0.008644346
0003b0 8b 54 9d bc c1 12 b2 3d e8 be f1 3d 35 06 02 3d
       -0.019205352 0.08694983 0.118039906 0.0317442
0003c0 c5 e7 00 bd a1 f7 f7 bd b7 ba a6 bd 56 67 a6 3d
       -0.031471033 -0.12107778 -0.08141082 0.081251785
0003d0 d3 76 e5 bb b9 44 b4 3d d5 2c a0 bd 6e 69 c1 bc
       -0.0070026903 0.0880217 -0.07821051 -0.023609843
0003e0 eb cf aa bd a7 c2 1b be 10 f5 aa bd df 62 fb 3a
       -0.083404385 -0.15210973 -0.08347523 0.0019179246
0003f0 9d af b0 3d 91 65 29 3d 36 49 10 3e 2c 18 66 3d
       0.086272456 0.041356627 0.14090428 0.056175396

network_body._body_endoder.seq_layers.2.bias f4 [128]
000000 ae 8d 30 bb 6b 99 bb 3b 86 ea 27 bb 41 3b 6f bb
       -0.0026939916 0.005725076 -0.0025621965 -0.0036503824
000010 9e 0d 9c 3a da e0 fd 3b 65 dd 0c b9 12 4b f4 3b
       0.0011905914 0.0077477517 -0.00013433916 0.007455238
000020 e7 e6 2e bb d5 a7 13 3b 79 3b f1 ba 16 4e 10 13
       -0.0026687921 0.0022530456 -0.0018404565 1.8213855e-27
000030 7c 33 26 ba ae fe 5d bc 62 71 b6 39 bb 06 27 94
       -0.0006340069 -0.01354949 0.00034798222 -8.432673e-27
000040 a1 db e7 3b ff aa 21 b9 50 27 43 ba e9 7a 25 bb
       0.0070757424 -0.00015417858 -0.00074445177 -0.0025250262
000050 01 df f2 ba 1d cb 08 3b be 76 7d ba 4a 7c 4a 3a
       -0.0018529595 0.0020873018 -0.0009668878 0.0007724209
000060 00 00 00 00 06 a1 49 ba d5 4b 9d bb b2 81 ec ba
       0.0 -0.0007691536 -0.0048002996 -0.0018044023
000070 d6 b8 6f 97 f4 d9 cf 38 de 5f 9d 3b 51 a0 41 39
       -7.745836e-25 9.911126e-05 0.004802688 0.00018465637
000080 28 2b 4b bb 00 00 00 00 f0 15 b4 37 00 00 00 00
       -0.0031001065 0.0 2.1467888e-05 0.0
000090 27 23 bd 3a 42 ef ad 3b f2 b0 e5 3a 68 e9 51 ba
       0.0014430032 0.005308063 0.0017524047 -0.00080074975
0000a0 07 04 3c ba 83 2f 27 bb 99 08 c5 ba 00 00 00 00
       -0.0007172231 -0.0025510497 -0.001503247 0.0
0000b0 d9 4f 15 bb 0b 86 cb bb 52 c6 a9 3a 08 bf a3 ba
       -0.0022783189 -0.0062110475 0.0012952781 -0.0012492845
0000c0 07 6d 51 ba 00 00 00 00 75 3c f0 ba 2f 4a bb ba
       -0.00079889636 0.0 -0.0018328564 -0.0014289076
0000d0 8a 34 d6 b8 fb 1b 86 3a 3d ac 7b ba 3e c5 91 ba
       -0.00010214101 0.0010231728 -0.00096005556 -0.0011121405
0000e0 4c ce dc a5 3f ae 80 ba 56 95 02 0b d3 2a bf b9
       -3.8303709e-16 -0.0009817554 2.5149437e-32 -0.00036462265
0000f0 55 63 81 07 b2 bd 4c 3a ce 84 85 b9 00 00 00 00
       1.9468145e-34 0.0007810249 -0.00025466684 0.0
000100 00 00 00 00 12 be a0 bb 53 84 4a 3a e6 c0 05 3b
       0.0 -0.0049054706 0.00077254063 0.0020409166
000110 74 07 14 bb e6 31 81 bb e3 40 13 3b fb 02 dd ba
       -0.002258745 -0.003942716 0.0022469095 -0.001686185
000120 93 27 83 bb 8d 49 d3 b9 33 d9 97 ba 16 f2 79 3a
       -0.0040025203 -0.00040299856 -0.0011585116 0.000953467
000130 b5 07 d2 3a fb 66 52 3a ca f1 cc bb 99 13 85 ba
       0.0016024025 0.00080262095 -0.0062544094 -0.0010152935
000140 59 d8 80 38 b7 39 cb b4 99 ee 24 bb 92 0b 11 ad
       6.1438135e-05 -3.785369e-07 -0.002516663 -8.244865e-12
000150 99 bd c9 ba ec 84 d5 b9 1f b9 32 39 78 8a 39 3a
       -0.0015391588 -0.0004072556 0.00017044366 0.00070778234
000160 81 84 d8 3a 44 03 b5 39 b5 96 47 bb da 10 f6 ba
       0.0016518981 0.00034525443 -0.0030454819 -0.0018773333
000170 9a 1f 96 3b ec 2e 66 bb 08 30 cb 3a 54 96 2a 3b
       0.004581404 -0.0035123182 0.0015501985 0.0026029544
000180 eb 39 8c 88 14 cb 16 96 00 00 00 00 3c ac 0c bb
       -8.43956e-34 -1.2180984e-25 0.0 -0.0021464964
000190 be ef 81 bb 82 8c 8c 3b 00 00 00 00 d3 41 83 3b
       -0.003965347 0.004289211 0.0 0.0040056496
0001a0 5f 65 8d bb 0b 6f 78 36 17 b8 7f b9 2e 08 f7 ba
       -0.004315063 3.7019515e-06 -0.00024387274 -0.0018847042
0001b0 6d e7 fc 3a fb 7f 85 3b 73 87 03 3c f2 bf e7 3a
       0.0019295044 0.0040740944 0.008027899 0.0017681106
0001c0 2f 15 a5 ba c0 41 f9 39 58 57 22 ba 76 01 89 bb
       -0.0012594814 0.00047541969 -0.0006192825 -0.0041810824
0001d0 e9 f8 56 ba 42 f1 e5 3a 03 ea a6 3a 95 3f 51 bb
       -0.00082005427 0.0017543214 0.0012734536 -0.0031928767
0001e0 b4 1c 06 ba ea 3e 2d bb d5 15 e2 3a c3 4c 43 bb
       -0.00051159714 -0.0026435205 0.0017248938 -0.0029800392
0001f0 f3 03 25 3c 1b b9 36 bb 98 57 ea ba 00 00 00 00
       0.010071742 -0.0027881328 -0.0017878888 0.0

network_body._body_endoder.seq_layers.4.weight f4 [128, 128]
000000 c9 3c 7e bd 48 20 ea 3b 8a 4c ed 3d f8 66 64 3d
       -0.062069688 0.0071449615 0.11586864 0.05576226
000010 52 0e 5f bb 23 8a 4e bd 4b 8e 94 bc ee 44 17 be
       -0.0034035635 -0.050424706 -0.018134257 -0.14772388
000020 01 dd 9c bd c2 a6 88 3d 43 58 ee ba 0c af 9c 3d
       -0.07659341 0.066724315 -0.0018184263 0.07650575
000030 86 34 0e 3e 35 9c 81 bd cf 78 af bd 5f 7f 70 bc
       0.13887224 -0.06328622 -0.08567964 -0.014678805
000040 dd 89 15 3e c0 fa 29 bd d2 72 54 bd 1d 53 5e bd
       0.14603372 -0.0414989 -0.051867314 -0.05427848
000050 22 92 ab 3c 9e e6 57 3b 3a 91 1d be ed 6a 0b be
       0.020943705 0.0032943855 -0.15387431 -0.13615008
000060 be 05 8d 3d 1f 7b 2c be 72 77 82 3e a3 6e 32 bc
       0.06885861 -0.16843842 0.25481755 -0.010890636
000070 f2 c9 cd 3b bf 77 10 be e1 9d c9 3c 64 96 8f bd
       0.0062801773 -0.1410818 0.024611415 -0.070111066
000080 97 95 17 3e 88 ef dc 3d f1 91 1e 3e 31 35 f1 3d
       0.14803158 0.107878745 0.1548536 0.117777236
000090 40 34 00 bb 53 ff 06 3e 1d 48 45 3d 82 3d 1d 3e
       -0.0019562393 0.13183336 0.048164476 0.15355495
0000a0 81 0b 15 3e d0 eb 63 be d6 68 46 3e a4 13 d5 bd
       0.1455517 -0.22257924 0.19375929 -0.10404137
0000b0 f2 ad e7 3c 1d dc 75 bc a2 2f 55 bd 63 cb 7d bc
       0.028281186 -0.015006092 -0.05204738 -0.015490386
0000c0 1f 24 e9 3d 3f d6 5e 3d 0a 5a 5e 3d 02 6c ef bd
       0.11383843 0.05440354 0.054285087 -0.11690523
0000d0 c7 01 03 bb 50 65 b6 3d 46 b3 29 3e 46 f0 a2 bd
       -0.0019990073 0.089060426 0.16572294 -0.07955985
0000e0 17 6b 75 3d 77 4f 24 3d 31 e9 c1 3d 1c 0b b1 3d
       0.059916582 0.040114846 0.09468306 0.08644697
0000f0 7c ef 0e bd 3c fc a5 bc 5b 14 47 bc c8 d4 bf bd
       -0.03489636 -0.020261876 -0.012150849 -0.09366757
000100 1c c5 94 bd 16 0c ad bd 43 f1 9c 3d f2 1f 1b 3c
       -0.07264158 -0.08449571 0.076632045 0.009468066
000110 d9 a7 e2 3d f7 79 0b 3e 9e fc 73 3d 7a 38 c3 bc
       0.11067171 0.13620745 0.059567086 -0.023830641
000120 1a 86 37 3e 4a f9 11 be de 42 01 3d 02 ab 3f be
       0.1792225 -0.14255252 0.03155791 -0.18717578
000130 4a 22 e1 3d 84 da 00 bd 93 21 59 bd 34 d6 43 bd
       0.10992868 -0.031458393 -0.053010534 -0.047811702
000140 58 9f 3d 3e 89 06 0d 3d a0 db 14 bd a7 f7 45 3d
       0.18517816 0.03443006 -0.036342263 0.048331883
000150 a0 7d 6f 3b 97 fd 4e bd 33 62 3d bd b8 c1 7d bd
       0.0036543384 -0.05053481 -0.04623623 -0.061952323
000160 a1 06 f2 3d fe eb ab bd 62 8b b2 3d 8f b8 06 3d
       0.118176706 -0.08394621 0.087179914 0.032890853
000170 7a 48 76 3c 70 86 f4 3d 73 10 e5 bc 6d 4d 0a 3d
       0.015031928 0.119397044 -0.027961945 0.033765245
000180 fb 22 e9 bd 08 c2 3e 3d 86 9c 03 bd a9 ab 83 bc
       -0.11383625 0.04657176 -0.032131694 -0.016073065
000190 47 d3 00 3e f7 51 d3 bd 59 a2 94 bc b3 c5 ed 3d
       0.12580596 -0.10318368 -0.01814382 0.11609974
0001a0 35 42 15 be 51 1f 53 3d 02 c5 95 bd c4 d3 9b bd
       -0.14576037 0.051543538 -0.07312967 -0.076087505
0001b0 73 8d e5 3d dd d7 7c bb 86 14 33 3e 0d 0c 02 bd
       0.1120862 -0.0038580813 0.17488298 -0.031749774
0001c0 6c 7b d7 bc 7d 45 45 bc 42 28 f6 bd b6 d9 94 39
       -0.02630397 -0.012040493 -0.12019397 0.00028390967
0001d0 d8 1c 3d bd 31 ba 88 bc 38 2a 46 3d e2 ef 53 3d
       -0.046170086 -0.016690345 0.048380107 0.051742442
0001e0 67 00 f4 bc eb 77 fe 3d 2b 47 e1 bc a3 e2 8f 3d
       -0.029785348 0.12425216 -0.027499756 0.070256494
0001f0 b2 0d 37 3e 19 50 18 be 58 4e 20 3c 13 c9 60 3e
       0.17876318 -0.14874305 0.009784304 0.21951704
000200 27 ea 19 3e 5e 30 0f bd 1e 6d 62 bd 4d 71 8b 3d
       0.15030728 -0.034958236 -0.055279844 0.0680872
000210 3f 2b b7 bd 89 59 8b bd 75 65 90 3e 9f 96 17 be
       -0.089437954 -0.06804187 0.28202406 -0.14803551
000220 c0 f0 96 bd b3 85 08 3e d5 6c ad bc 75 8c 93 3d
       -0.07370138 0.13332252 -0.02117006 0.072045244
000230 ef 80 e1 3d 33 cc 3f bd 69 0e 84 bd 85 ed 05 3e
       0.1101092 -0.0468256 -0.06448061 0.13078888
000240 0c 52 f0 bd 42 cb 8f bd 28 73 dd bc a7 da e2 3d
       -0.11734399 -0.0702119 -0.02703245 0.11076861
000250 c5 41 27 3d 57 62 1c 3e 3b fe 67 3e b1 a0 37 3e
       0.040834207 0.15271889 0.22655575 0.17932393
000260 ac 99 8f bd cc 4e 03 bd 81 22 79 bd a1 5b ad bd
       -0.070117325 -0.03205757 -0.06082392 -0.084647425
000270 60 e0 ad bd 2c d3 03 be e8 bd 3a 3e 21 ae 4d 3d
       -0.08490062 -0.12873524 0.18236506 0.05021489
000280 63 fe 66 3e 40 8a e4 bd 2c 79 0e 3e 36 04 a1 bd
       0.22557978 -0.111591816 0.13913411 -0.07862131
000290 74 40 63 3c 84 9e 9e bc db 2d db 3d c3 78 e8 3d
       0.013870347 -0.019362696 0.107021056 0.113511585
0002a0 37 35 0c 3e a3 8e 68 3d 1b cd 38 bd 33 d2 82 3a
       0.13692175 0.056776654 -0.04511748 0.0009980857
0002b0 85 87 01 be fa 38 5d 3d 81 98 e5 3d 1f 55 92 bd
       -0.12649353 0.054009415 0.112107284 -0.07145142
0002c0 14 76 5f 3d bc 40 90 3d f0 8f c9 bc 20 a7 be 3d
       0.054555967 0.07043597 -0.024604768 0.0930922
0002d0 ae 3a 84 bd 3a ec 3b be 71 b4 75 bd 9c 13 71 39
       -0.06456505 -0.18351832 -0.059986535 0.00022990856
0002e0 cd 01 79 3d 5e 25 bd 3c c7 26 a8 bd d0 ee cf bd
       0.060792733 0.023089107 -0.08210521 -0.10152972
0002f0 56 48 07 3d 6b c2 68 be 6a 85 f7 3d 89 9a d9 3d
       0.03302797 -0.22730415 0.120859936 0.10625178
000300 d6 c6 d0 3c f1 23 ae bd f7 69 01 3e cc ae b1 bd
       0.025485437 -0.08502949 0.12638079 -0.08675918
000310 79 02 04 3e b2 52 89 bc a6 a3 5e 3d b3 d0 ee 3d
       0.12891568 -0.016763065 0.054355286 0.116609
000320 84 8a 02 3e 71 24 a0 3c 4d 86 cd ba 2d 85 87 3d
       0.12748152 0.019548627 -0.0015680284 0.06617198
000330 ac d9 af bd b7 46 97 bd c2 8d 32 bd d2 a4 40 bd
       -0.085864395 -0.07386535 -0.043592222 -0.047032185
000340 ba 62 41 be d0 af a0 be 0a 4a 82 3c fd 39 14 3e
       -0.18885317 -0.31384134 0.015904445 0.14475246
000350 ec 2f ed 3c af 85 40 3c 11 f9 8f bd 93 c7 ec 3d
       0.028953515 0.011750623 -0.070299275 0.11561503
000360 62 b5 a1 3c 13 70 e6 bd 4d c2 48 be aa 40 8a bc
       0.01973981 -0.11251845 -0.1960537 -0.016876537
000370 f4 bc c4 bd dc 28 d2 bc cf 77 e2 bd c8 d6 36 3e
       -0.096063524 -0.025654249 -0.11058008 0.1785537
000380 89 d9 a6 3d 51 0a 26 3c d9 6b c3 bc 69 73 bf 3c
       0.0814696 0.010134296 -0.023855137 0.023370462
000390 a5 c9 1a bb a1 b0 f6 bb f9 65 bc 3d 7d aa 14 bd
       -0.0023618725 -0.00752838 0.09199137 -0.036295403
0003a0 94 ee 52 3d 6b bb eb bd e3 86 f3 3d 07 2a 8e 3d
       0.051497057 -0.115103565 0.11890962 0.0694161
0003b0 86 b1 6e bd f5 6f 82 bd 62 a5 06 be 2f 49 9f bd
       -0.05827477 -0.0636901 -0.13149026 -0.077776305
0003c0 c8 5a 3b 3d 9d 91 e7 bd b9 90 3a bd 3a 7c ea 3c
       0.045740873 -0.113070704 -0.045548175 0.028623689
0003d0 0d ee 0e bd f2 7a 5d bd 0d e6 4c bc 8f 91 5d bd
       -0.03489499 -0.054072328 -0.01250602 -0.054093894
0003e0 6d 07 b7 bc 81 a5 3d 3d d0 e2 b1 bd 69 b0 eb 3c
       -0.022342408 0.046300415 -0.08685839 0.028770642
0003f0 e8 f0 81 bc 37 bf e5 3d 7c 14 10 bd ed 10 82 bd
       -0.015861943 0.11218112 -0.035175785 -0.063508846

network_body._body_endoder.seq_layers.4.bias f4 [128]
000000 7a 4b a9 ba 3c 85 f2 ba 00 00 00 00 4f da 53 ba
       -0.001291617 -0.0018502842 0.0 -0.0008081542
000010 1c 2f c0 b9 83 ad d5 39 d5 28 c2 3b 5b a3 b7 ba
       -0.00036656193 0.00040755802 0.0059252777 -0.0014010476
000020 02 06 da 3a be 5a 72 bb a3 90 60 ba 73 65 73 b9
       0.001663387 -0.0036980356 -0.00085664744 -0.00023212079
000030 e8 15 9b b9 66 db 13 bb 36 45 46 3b 4b c5 35 3b
       -0.00029580225 -0.0022561192 0.0030253655 0.0027736004
000040 b2 50 e3 ba 13 f2 9d b9 00 00 00 00 83 64 25 39
       -0.0017342775 -0.00030125733 0.0 0.0001577307
000050 29 9e 08 ba 5e 37 9d b9 41 06 3d ac 47 69 70 ba
       -0.0005211556 -0.00029986625 -2.6861987e-12 -0.0009170961
000060 00 00 00 00 a7 34 dc 3a ad 88 e1 3a 8f ca 8e 3b
       0.0 0.001680036 0.001720687 0.004357643
000070 75 33 a4 b9 a9 52 7b ba cf 2c fd 3a 81 7c 60 b9
       -0.00031318856 -0.00095872075 0.0019315722 -0.00021408686
000080 8b 7a 8d bb 02 bb a4 ba aa 81 92 bb 22 18 e9 3a
       -0.004317587 -0.001256794 -0.0044710236 0.0017783681
000090 00 00 00 00 fe 58 b2 3b 00 00 00 00 00 00 00 00
       0.0 0.0054427376 0.0 0.0
0000a0 39 c2 3a ba 40 76 00 ba 8f fc d8 39 b9 a6 8c 34
       -0.00071242783 -0.0004900433 0.000413869 2.619834e-07
0000b0 61 76 d6 b9 19 54 c5 39 7b b4 a8 38 19 69 e0 ba
       -0.0004090546 0.00037637426 8.0444814e-05 -0.0017121165
0000c0 2d e1 96 b7 ca d9 2e 3b 00 00 00 00 57 0b 1e bb
       -1.7986249e-05 0.0026680105 0.0 -0.0024115646
0000d0 e3 f3 f0 ba 5e 76 d7 3a 3e 28 74 2b 93 e5 09 ba
       -0.0018383231 0.0016438474 8.674206e-13 -0.00052603445
0000e0 b6 1a 80 91 a3 d2 fb 3a 2d d1 34 3a df 10 d2 3b
       -2.02113e-28 0.0019212555 0.00068976247 0.0064107026
0000f0 3f 8b 15 3b fa 7f e0 bb 44 9b de b8 28 14 2e ba
       0.0022818593 -0.0068511935 -0.000106147054 -0.0006640577
000100 aa 66 04 ba 45 f3 f1 39 7c fb 65 bb fc 4b bd 3a
       -0.00050506985 0.00046148352 -0.0035092523 0.0014442201
000110 e4 cb d1 bb f6 6a 4d 3a 11 12 c2 ba af bc 09 3b
       -0.0064024795 0.0007836068 -0.001480641 0.0021017005
000120 9f 34 95 3a 48 f0 53 ba 52 05 ce ba 24 ed cb ba
       0.001138348 -0.0008084816 -0.0015718138 -0.0015558344
000130 9e 41 10 3b 31 17 3b 3b d1 d1 b2 b9 3b 5b 46 3b
       0.0022011767 0.0028547759 -0.0003410713 0.003026678
000140 50 db 98 ba f2 54 ec 13 75 1c a2 ba 9d c4 27 ba
       -0.001166204 5.965854e-27 -0.00123681 -0.0006399842
000150 85 7d a8 b9 52 52 c4 bb cf 95 80 ba af 74 fe 39
       -0.00032136976 -0.0059912587 -0.0009810271 0.0004853359
000160 0a aa 1e ba d1 9f 18 ba 7b ac 9e ba c6 30 4c bb
       -0.00060525595 -0.00058221543 -0.0012105847 -0.0031157
000170 52 d3 0e b9 89 b6 a3 3a 96 0a 9e ba f4 d6 a9 a1
       -0.00013620898 0.0012490313 -0.0012057598 -1.1508783e-18
000180 3d fc 37 bb 6a e5 dd ba e1 11 80 19 8c a1 2c 39
       -0.002807393 -0.0016929333 1.3242111e-23 0.00016463379
000190 38 1e 15 bb e3 e8 10 ba 11 36 59 96 ba 85 9a bb
       -0.0022753607 -0.0005527867 -1.7546181e-25 -0.0047156485
0001a0 f8 ea ac 39 cf 95 23 ba 06 de d2 3a 2d f6 15 bb
       0.00032981462 -0.000624028 0.0016087897 -0.0022882328
0001b0 ee 84 63 3a 12 b8 30 bb b6 47 29 38 88 be 1a bb
       0.0008679171 -0.0026965183 4.0359526e-05 -0.00236121
0001c0 3d fe 37 b8 60 0f 04 b9 7d 5d 68 bb d7 36 0a 3a
       -4.3867378e-05 -0.00012594229 -0.0035456114 0.0005272454
0001d0 12 d8 ec ba 8d 00 ae b7 36 c8 93 bb a4 92 b5 b4
       -0.0018069765 -2.0742673e-05 -0.004509951 -3.3820572e-07
0001e0 8f 25 38 bb 37 30 e8 b9 20 92 59 ba 31 81 af 3a
       -0.0028098559 -0.0004428641 -0.00082996674 0.0013389942
0001f0 73 a9 b5 ba af af d8 ba 9a 54 ad b9 20 1b 38 bb
       -0.0013859704 -0.001653185 -0.00033060164 -0.002809234

action_model._continuous_distribution.log_sigma f4 [1, 2]
000000 56 81 21 3c 95 63 8c 3c
       0.009857496 0.017137328

action_model._continuous_distribution.mu.weight f4 [2, 128]
000000 ba 7d 79 3b b5 22 3b bc 62 09 b7 bc c9 de 23 3c
       0.0038069324 -0.011421849 -0.022343341 0.010001847
000010 9b e1 38 3c 5e 6e b5 ba cc 97 b1 bc 0f 03 7d 3c
       0.011284257 -0.0013842096 -0.021678828 0.015442624
000020 22 53 ca bc fd fe 97 bc fa 77 93 3c 54 4f 52 3b
       -0.024697844 -0.018554205 0.018001545 0.003209074
000030 9c 7e d0 3c af 7c 70 3c 3d 14 39 bd 7d 57 2e bd
       0.025450997 0.014678164 -0.045185316 -0.042563904
000040 eb eb bd bc 4a e5 2c 3d b2 28 1b 3c a6 51 29 bc
       -0.023183784 0.042210855 0.009470152 -0.010334408
000050 70 cd 62 ba 07 89 ba 3b 97 63 d8 bc 1b 90 c9 3a
       -0.00086518284 0.0056926045 -0.026414676 0.001537803
000060 5a 37 5b 3c f7 47 f0 3c 18 ec 30 bc 70 b1 0e bd
       0.013379896 0.02933119 -0.010798477 -0.034837186
000070 ac 1b 22 bc a5 77 7d bb b1 66 6a bb d5 c5 f7 3b
       -0.009894293 -0.003867605 -0.0035766775 0.007561425
000080 d3 41 ae bb de 54 66 3c 43 04 2d 3c 34 ea 55 3c
       -0.0053179055 0.01405832 0.010560098 0.013056327
000090 25 39 3d 3c 8d 2b 69 bb ea 79 e4 3c 2b d6 7c 3c
       0.011549269 -0.0035578937 0.027890164 0.015431921
0000a0 1f 50 f9 3b 9b fe 9a bc 92 0c 86 bc 7b 15 a1 bb
       0.007608428 -0.018920233 -0.016363416 -0.0049158907
0000b0 33 e5 ef 3a 2d 5f 56 bc 4e bd a9 3b 8f e7 51 3b
       0.001830256 -0.013084215 0.0051800376 0.0032028889
0000c0 17 4f 29 ba c4 11 60 3c 47 cf 7a 3a 10 fc d8 bc
       -0.00064586237 0.013676111 0.000956763 -0.02648738
0000d0 19 26 7e 3c b1 32 1e bd 22 69 80 bc 6c bc 7e 39
       0.015512013 -0.03862256 -0.015675131 0.0002429352
0000e0 ba a3 eb 3b d8 10 18 bd 8d 81 7b bc f3 ac 67 bc
       0.0071911486 -0.03712544 -0.0153507115 -0.014140355
0000f0 f8 8a c1 bc 5e a2 5b 3c e6 c5 b1 39 ee e2 82 3a
       -0.023625836 0.013405411 0.00033907517 0.0009985843
000100 9f 28 9d bc 32 c5 c6 3c ed 23 af ba fa a9 5f 3b
       -0.019184409 0.024263952 -0.0013362147 0.0034128414
000110 01 9a dd bb d1 5a 95 bc 75 91 1c bc 63 7e 3f 3c
       -0.0067627435 -0.018231781 -0.009556164 0.011687848
000120 d9 5d 98 39 a8 80 a9 3c f7 97 cc bc 6f c6 a5 bc
       0.0002906162 0.02069123 -0.024974806 -0.020236222
000130 ce 5b 96 3b 40 fc ab bc d4 01 51 bc e8 4e bd bc
       0.0045885807 -0.020994306 -0.0127567835 -0.023108914
000140 e9 2b 44 bc ab 25 50 bb 9f f7 fd bc de 4a 12 3d
       -0.01197336 -0.0031760733 -0.031001864 0.03571593
000150 d0 f9 14 3d 5b c8 e2 ba 73 70 f6 bc d3 17 77 ba
       0.036371052 -0.0017302142 -0.030082917 -0.00094258523
000160 0a 2e fa bc 4b 9b fa bc a9 f7 e3 3b fd 05 99 3c
       -0.030539531 -0.030591628 0.0069570136 0.018679613
000170 95 e4 00 bd 1a 22 c0 bc 82 6c 29 3c 76 ca 84 bb
       -0.031467993 -0.02345376 0.010340812 -0.0040524555
000180 a7 8d 6a 3a d1 6a a6 bb 80 b5 c7 bc d8 b6 45 bd
       0.00089474994 -0.0050786515 -0.024378538 -0.048270077
000190 06 d2 c7 3c 9d 2d 8b b9 6d c7 3a 3c 2c 03 c5 3b
       0.02439214 -0.0002654613 0.011400086 0.006012341
0001a0 35 e2 32 bc 4f c3 2f 3d ef 76 e9 bc be 6c 0b 3d
       -0.01091819 0.04291087 -0.028499095 0.03403925
0001b0 8b 79 b5 bc 62 f8 51 3c 8f 68 a6 3c d3 92 19 bc
       -0.022152683 0.012815567 0.02031353 -0.0093733845
0001c0 3e 61 0b bd bd fd 8b 3b 54 a4 e5 3c 14 3e f5 bc
       -0.034028284 0.0042721913 0.02803246 -0.029936828
0001d0 51 dc bf bb cf df d5 3b c0 5e c5 ba 59 ab 0a ba
       -0.005855121 0.006526924 -0.0015058145 -0.0005289815
0001e0 91 fe 16 3c 17 46 05 bd b4 e0 d4 3c 69 4d 6e 3c
       0.009215967 -0.032537546 0.025986053 0.014544823
0001f0 b7 66 ad 3b 27 10 33 bc b5 ba d6 bc 89 65 d6 bb
       0.0052917856 -0.010929144 -0.026212076 -0.0065428657
000200 a9 55 17 bb dd 7d 3c bc bf 29 1d bb 85 20 b9 bc
       -0.002309183 -0.0115046175 -0.0023981181 -0.022598514
000210 20 be 0e b9 0e f8 fe bc 8d f2 92 bc ad bd 5d bc
       -0.00013613002 -0.031124141 -0.017937923 -0.013533992
000220 ab fd 77 bc 5f 7c 0a 3c 23 0a 94 bb 61 17 08 3c
       -0.015136163 0.008452504 -0.00451781 0.008306355
000230 85 3b 0b 3c 7b 1f c5 3b b1 bc 90 bc a0 66 2a bd
       0.008498077 0.0060157157 -0.0176681 -0.041601777
000240 4d c6 b3 bb 8c 93 7f 3b 67 44 82 bc 44 51 b9 bc
       -0.005486286 0.0038997857 -0.015901757 -0.022621758
000250 17 ac ad 3c d3 0b 16 3c 2e 68 1f bb 7c 2e a1 3b
       0.021200223 0.009158093 -0.002432357 0.0049188714
000260 fb 41 4e 3c 01 f1 8f 3c 70 2b 76 3c 32 5f 5f 3c
       0.012588973 0.017570974 0.015025005 0.013633536
000270 d2 b5 26 3c d3 7f 8a bc e8 11 42 bd f1 fa ce ba
       0.010175185 -0.016906654 -0.047380358 -0.0015791339
000280 b9 25 0b bd 9f d0 03 bd 77 42 88 bc 7e b9 fd 39
       -0.033971522 -0.03218138 -0.016633255 0.00048394123
000290 a5 78 7d 3c c0 d1 a9 bc 87 24 4c bc 6b cf d4 3c
       0.015470658 -0.0207299 -0.012459881 0.02597781
0002a0 ef b3 32 bd c1 8f 42 bc 6a ec 83 3c 44 ca bf 3b
       -0.04362863 -0.011875094 0.016103942 0.0058529694
0002b0 4f 9f 5f bb a6 69 b9 3c b4 5e 00 3d 4b 7e 18 3c
       -0.0034122055 0.022633385 0.031340316 0.009307454
0002c0 8e d3 45 3d de a0 21 3c 0c ef c4 3c a1 54 c6 3c
       0.048297457 0.009865014 0.024039768 0.024210276
0002d0 a9 e3 1a bc 4f 44 88 bc 83 c3 2e 3c 64 a7 06 bd
       -0.0094536925 -0.016634135 0.010666731 -0.03287448
0002e0 d8 eb 8c bc 97 51 54 bd 4e a2 09 3b 8f 29 fa bc
       -0.017202303 -0.051835623 0.0021001282 -0.030537395
0002f0 74 27 37 3c 53 73 c8 3c db cb 3c 3c 4d d0 92 bc
       0.01117884 0.024469053 0.011523212 -0.017921591
000300 af 12 64 bc 58 1c b1 3c de 75 4d 3c 09 44 fc 3c
       -0.01392047 0.02161996 0.012540309 0.03079416
000310 30 37 50 3c c3 ba e8 ba 0e 80 1c 3b ad e9 d1 3c
       0.01270847 -0.0017755855 0.0023880037 0.02562412
000320 df fb d5 3b 98 6f ee bc 87 0d e2 bb db ac d2 3c
       0.0065302695 -0.029105946 -0.0068985852 0.02571719
000330 9b d4 4b 3d 47 9e 75 bc a4 2c 54 bb 51 67 60 bb
       0.049763303 -0.01499135 -0.003237524 -0.003424127
000340 65 30 68 bc 13 db 95 bd 22 4f 76 3a a7 4e 2b bc
       -0.014171694 -0.07317176 0.0009395947 -0.010455764
000350 82 1e e8 3a 56 2b 73 bb c7 e3 8b bc 69 de 3e 3c
       0.0017709287 -0.0037104688 -0.017076386 0.011649706
000360 d7 aa 74 bc 23 04 aa 3b 00 f4 af bc ab 23 d3 3b
       -0.0149333095 0.0051884814 -0.021478653 0.006443461
000370 34 3b a8 3c 6e 74 80 ba 2a 77 3a bc da ca 59 bc
       0.020536043 -0.0009800324 -0.01138095 -0.0132929925
000380 f4 f6 d3 bb 18 30 84 3b 33 fa a4 3c 43 e4 b6 ba
       -0.006468648 0.0040340535 0.020138836 -0.0013953525
000390 c7 99 29 3b 3c 2e 97 bc 70 5c b7 bc 9c 79 24 ba
       0.0025879012 -0.018454663 -0.022382945 -0.0006274225
0003a0 5f 3b 35 3c 96 af ab 3c 4c db 92 3c af f8 92 bb
       0.011061518 0.02095775 0.017926835 -0.004485212
0003b0 63 fa cd bc bb fc 9c 3b ca fd 87 bc 82 36 e4 3a
       -0.025143808 0.00479087 -0.016600508 0.0017411264
0003c0 f5 89 ce bb a8 2e 13 3c 60 6d e4 bb c8 3f 18 3d
       -0.006303067 0.008983292 -0.0069710463 0.0371702
0003d0 e4 5f 2e ba f8 4e 60 bc e1 05 f8 bc 16 30 34 bc
       -0.0006651862 -0.013690703 -0.03027624 -0.010997793
0003e0 8c 09 2f 3c ee b0 63 bc 4d cb 9e bc e7 25 89 3c
       0.0106834285 -0.013897164 -0.01938405 0.016741706
0003f0 79 fe 12 3d 82 a8 b4 bb c5 61 83 bb df b5 2d bc
       0.035887215 -0.0055132518 -0.004009458 -0.0106024435

action_model._continuous_distribution.mu.bias f4 [2]
000000 80 d3 7a b9 da 66 d9 39
       -0.00023920648 0.00041466096

action_model._discrete_distribution.branches.0.weight f4 [1, 128]
000000 37 9d 82 bb 0b 3b 00 bc 53 3c 64 3c a8 4b 87 bc
       -0.0039860266 -0.007826577 0.013930398 -0.016515568
000010 15 d0 5b 3c 60 75 54 bc b2 4f 08 bc 35 78 0f 3a
       0.01341631 -0.0129674375 -0.008319782 0.00054729293
000020 36 43 8e 3a 90 bd 7e 3b 0f 46 10 3b 55 ad 9d bc
       0.0010853771 0.0038870312 0.0022014414 -0.01924769
000030 f0 29 e5 3b 3b 88 5a 3c c1 26 ac bb c3 8f 50 bc
       0.0069935247 0.013338144 -0.0052536433 -0.012729588
000040 63 05 87 bb 47 28 54 3b 7f 48 01 3b 0e 11 1f 3b
       -0.004120515 0.003237264 0.001972705 0.002427164
000050 3b 7e cd 3b 2b 50 b9 37 da 53 5c bc 84 c9 8b bc
       0.0062711514 2.209105e-05 -0.013447726 -0.017063864
000060 83 c1 a5 bb 5f c6 47 bb 4b e5 2d 3c a3 d8 15 bc
       -0.005058469 -0.0030483229 0.01061375 -0.0091458885
000070 cc ff 4a 3c 66 40 99 bb ca 78 b9 3a 03 c0 5c bc
       0.012390088 -0.0046768663 0.0014150378 -0.013473514
000080 bb 98 68 3b 60 2d 7f 3b 0d 6a a1 bb d8 b3 5b bb
       0.0035491425 0.0038936958 -0.0049259723 -0.0033523943
000090 12 0d e1 3b 00 61 3d bc 3b e9 3e 3c ba ec b6 3b
       0.006868013 -0.011558771 0.011652286 0.005582419
0000a0 4b b9 7e bc 77 e4 70 3b 45 3b 07 bc e0 e9 0a 3c
       -0.015547107 0.003675727 -0.008253877 0.008478612
0000b0 f4 b0 8e bc 20 a9 8d 3b 32 91 85 bc 8a a2 10 bc
       -0.017418362 0.00432314 -0.016304586 -0.008827815
0000c0 7f 31 9e bb 23 bf b6 3b 1a c3 db 3b f9 d7 b9 bb
       -0.0048276777 0.0055769845 0.0067066075 -0.005671498
0000d0 8b 68 d2 bb 23 7d 36 bc fc 8e c2 bb 17 fc c6 ba
       -0.006421154 -0.011138233 -0.005937455 -0.001518133
0000e0 f2 f6 cf bb 10 5c 98 bc 0f 32 37 bc 46 83 0e bc
       -0.006346577 -0.018598586 -0.0111813685 -0.00869829
0000f0 64 34 83 bb cb d6 80 3b c0 06 07 bb 0a 91 47 bb
       -0.004004048 0.0039318553 -0.0020603389 -0.003045144
000100 23 fa 96 bb 4c 65 ca bc a5 8c a9 3a dd b1 59 bb
       -0.0046074553 -0.024706505 0.0012935592 -0.0033217587
000110 f5 c3 2a bc 87 8e 6b 3b 72 c9 45 3c 4f fd 89 3b
       -0.010422696 0.0035943107 0.012071954 0.004211105
000120 f3 ee 04 bb 50 1a bc bc 88 14 76 3c 22 1a d7 bb
       -0.0020284026 -0.022961766 0.0150195435 -0.0065643946
000130 08 cc 84 bb a5 bd e3 bb 0c 45 ab 3b 24 35 9e ba
       -0.0040526427 -0.0069500976 0.005226737 -0.001207028
000140 a3 02 39 3b f2 78 8b ba e2 35 ec 3b d0 b8 cf 3c
       0.0028230331 -0.0010640903 0.007208572 0.02535668
000150 aa 0c b5 3b 88 d3 59 bc bf 96 af bb ef ac 87 3b
       0.0055251913 -0.013295062 -0.0053585465 0.0041404883
000160 13 88 98 3b 83 8b 1b 3a 7a b5 94 3b 1d 67 a0 bb
       0.004654893 0.00059335696 0.0045382353 -0.0048951046
000170 22 fc 6e ba 39 1c 96 3b 47 77 48 3c bb be c7 39
       -0.000911655 0.004581001 0.012235469 0.00038098343
000180 f7 0b 9d 3b c2 0e 04 bb 64 60 a6 3b 43 31 be bb
       0.004792686 -0.0020150398 0.0050774086 -0.0058042123
000190 44 a1 33 39 35 6c f1 3b 1b fc ac 3b 73 b4 e1 3b
       0.00017130846 0.0073676356 0.0052790768 0.0068879663
0001a0 9e 93 a2 3c d4 4b c1 b9 a2 0a f8 3b a5 8c ba 3b
       0.01984578 -0.00036868325 0.007569627 0.0056930357
0001b0 94 cc b2 bb c3 e3 ba bb d4 30 16 3c 2f 1a 49 bc
       -0.0054565165 -0.005703421 0.009166915 -0.012274309
0001c0 dc d6 1a bc f2 bc e5 b8 68 bb 50 ba 6a df 50 ba
       -0.0094506405 -0.00010954765 -0.0007962496 -0.00079678616
0001d0 0a 9a 67 3b d4 fd 31 bb db e1 d0 bb af 65 13 3b
       0.0035339617 -0.002715935 -0.0063745803 0.0022491028
0001e0 c0 78 ab bb 4d 0e d4 ba 78 d0 d1 3a 57 d6 d1 bb
       -0.0052329004 -0.0016178578 0.0016007563 -0.006403725
0001f0 fb 72 ba bb 2e 56 a1 ba f5 8c 25 3b 84 4d 97 bb
       -0.0056899763 -0.0012309009 0.002526102 -0.004617395
