Assets/results/VikramRover11/VikramRover/VikramRover-1311.pt (torch, 859945 bytes, 51 tensors)

network_body._body_endoder.seq_layers.0.weight f4 [128, 10]
00000000: 3812 99be 6a7c 5dbe 5ca9 373e 8c1f 19be
00000010: 4604 a23e 7851 bb3e d0fd 803f 3e42 bd3e
00000020: 8afe b5bb 955e 9ebe d87a 413d ca01 8e3e
00000030: 6602 45be 0671 933e cbfb 9abe b9f7 16bd
00000040: f90e 183f cf6e a9be 2654 94bd c98b e0be
00000050: 7df2 06be 6c3e 163f 641f 173e 2e0d e9be
00000060: a7cd 9dbd ba1d 683e 20ba cb3e 72bd 1bbe
00000070: 9549 ffbc e54e e3bd 18e0 40be 96a5 2e3e
00000080: 6d81 f13d 7073 803e 1472 de3d 002f 4c3f
00000090: 960f dcbd e90e 88be 70a9 2b3e 1a08 2c3e
000000a0: 733c ed3d 68d9 23be 7988 9fbd bdd5 60bc
000000b0: 06ed da3a 94af 16be adac c23e 43fc 3b3e
000000c0: 37d3 cdbe 1066 1ebe 9917 28be 9900 ad3e
000000d0: a414 1b3d e86d 993e 256d b4bd 4123 ccbe
000000e0: 0987 f5bb d142 073e 3856 3f3d cc7e dabd
000000f0: 1b94 633e 720d d23e 4836 9b3e ee12 39be
00000100: c19f 15bf 8d78 093e de54 02bf 7abf c1be
00000110: e689 f5bd 5dbc 623e 63f4 63bf 1250 ff3e
00000120: 6fbc b43d a1f1 ac3e 4626 8d3e ae7c 683e
00000130: ed6f 18be d5dd da3d 6ab1 433e d706 6f3f
00000140: 4d92 bdbe 59c0 f73e a51e a93e d383 9bbd
00000150: 9ab3 17bc d807 e4bc 4afc 7a3c 8af6 a43e
00000160: cc16 bcbd dcc9 71bc 771c e43e 249f c53e
00000170: 2957 56be 2756 0abd 18e3 c9be dbd9 fcbe
00000180: be9f 9e3e f494 9abd bcc4 db3e c8c5 0a3f
00000190: b8d7 e13d 8aa4 acbe db14 2abe f10b 02be
000001a0: 76a6 0e3f 91e4 62be 58bb 9cbd 5c19 b73e
000001b0: 23dc 85bd 66c3 f83e ca25 cfbe 0100 ddbd
000001c0: dee9 6cbe 5684 fbbe bbc2 853e f822 cabe
000001d0: 6f0e 953e ad84 3b3e 2c9c 4ebd d7db 62be
000001e0: 84e1 393e 5175 d7be 0d99 07be 1e8a aa3e
000001f0: e734 42be 7b77 89bd 8c5b ce3e 5047 babe
00000200: feb3 943e 794c ae3b 6da8 e5bc 8321 983e
00000210: 7030 af3e e3d9 8b3e 8e59 a8bd 693a 45be
00000220: a430 323d b149 fc3e 0724 b4bd 9fe7 0fbd
00000230: f0f9 94be 8459 503e bd6c 0dbe b314 dd3d
00000240: 0b1f e33a d204 bbbe 6372 9c3e 1d07 99be
00000250: cb20 56be e94e 18be 4e8d 6b3d 6989 a4bd
00000260: e186 e1bd c8ff 64be 62c8 0b3e f1b7 79bd
00000270: e094 dabe 5136 d9be 2614 0e3e 99e5 2ebe
00000280: f534 513d df5a 743d 2fc1 c63d 41f4 013d
00000290: 77ea d438 60e0 02be d3fc 103f 0ee2 48be
000002a0: 8f03 463d f474 8f3c 7f0d ffbe b373 cebe
000002b0: f9b8 0ebf 4cd5 5d3e c07f 213c d93b 163d
000002c0: c648 063f b79f 8a3e 5ae4 8ebe a813 cf3d
000002d0: e143 813e 50c1 8dbd aa01 a2be 2e9a ff3c
000002e0: b3af 40be 194d 273e 626c 1b3f 5766 07bf
000002f0: c6ab 16be d8b7 47bd 91a5 3cbf 57b6 29be
00000300: 0f2d 543e a146 273e bea0 9a3e bba0 293f
00000310: a5a4 a23e e391 023e 0ab2 12bd 4ebb acbe
00000320: e95a 553e 7fc6 323e 7e41 3dbe ab6d 2fbf
00000330: 34b5 5ebe 237b ae3e 585a 953c f30f f4be
00000340: 8d52 973e 4e4d 06bd a8c2 023f 213d d93e
00000350: 417f 7fbe f0ac 45be 79ee 15be 88de cfbd
00000360: 4087 e9bd 9cc1 ec3b d43d 643d 728c 06bf
00000370: 2a66 33be b64b bfbe 9fba 0dbe d01a b13e
00000380: 5cd0 643e cac3 0dbe 4966 cdbd e251 353d
00000390: b0bc 223f 4256 9b3e 1969 493e f3bc 70be
000003a0: 6210 633e 218c 323f cac9 2bbe 7b3d acbd
000003b0: bc29 873e cb67 743f aa01 9d3c b72f a5be
000003c0: 861a f93e a55e 063e 7c5d a5bd 4971 943d
000003d0: 215d 2bbe 639f b43c 398e 8a3e 01e0 953e
000003e0: fb37 1e3d caa0 acbe 436d b93e c844 05be
000003f0: c369 65be f674 2a3e cf5c 653e baf0 9f3c
-0.29896712 -0.21629491 0.17935699 -0.1495344 0.31643885 0.36585593 1.0077457 0.369646
-0.005554025 -0.30931535 0.047236294 0.2773574 -0.19239196 0.28797168 -0.30270228 -0.03685734
0.59397846 -0.33092353 -0.072426125 -0.43856648 -0.1317844 0.58689 0.14758068 -0.45517868
-0.07705241 0.2266759 0.3979044 -0.15208986 -0.031163016 -0.11099032 -0.18835485 0.17055354
0.11792264 0.25088072 0.108616024 0.79759216 -0.1074516 -0.26573876 0.16763854 0.16799966
0.115837954 -0.16000903 -0.07789702 -0.013722834 0.0016702719 -0.14715415 0.38022366 0.18357949
-0.40200207 -0.15468621 -0.16415252 0.33789518 0.03786148 0.29966664 -0.0880988 -0.39870647
-0.007492904 0.13209082 0.046713084 -0.10668716 0.22224467 0.41025883 0.3031485 -0.18073627
-0.5844689 0.13424893 -0.5091075 -0.37841398 -0.11989193 0.22142167 -0.8904478 0.49865776
0.08825003 0.33778098 0.27568263 0.22703812 -0.14886446 0.10686842 0.19110647 0.9336981
-0.3702568 0.48388937 0.33031192 -0.07593503 -0.009259129 -0.027835771 0.015318939 0.32219344
-0.09184036 -0.0147576 0.44552967 0.38597977 -0.20931686 -0.033773568 -0.3943107 -0.4938496
0.3098125 -0.07547942 0.42923534 0.5420804 0.11027473 -0.33719283 -0.16609518 -0.12699868
0.5572275 -0.22157504 -0.076529205 0.35761535 -0.06536128 0.48586577 -0.40458518 -0.10791016
-0.23136088 -0.49124402 0.2612513 -0.39479804 0.29112574 0.1831233 -0.050441906 -0.22154175
0.18152434 -0.42081693 -0.13241978 0.333085 -0.18965493 -0.06712242 0.4030422 -0.36382532
0.29043573 0.005319175 -0.028034413 0.29713067 0.34216642 0.27314672 -0.08220206 -0.19260563
0.04350342 0.49274972 -0.08795934 -0.035133 -0.29096937 0.20346648 -0.13811012 0.10794964
0.0017327977 -0.36527115 0.3055602 -0.2988824 -0.20910947 -0.14873852 0.057507806 -0.080340214
-0.11012054 -0.22363198 0.13650659 -0.060966436 -0.42691708 -0.42424253 0.13874874 -0.17079772
0.051075894 0.059656974 0.097048156 0.03172708 0.0001015262 -0.12780905 0.5663578 -0.19617483
0.048343237 0.017511822 -0.49814984 -0.40322646 -0.55750996 0.21663398 0.009857118 0.03667817
0.52454793 0.27074978 -0.27908593 0.10111171 0.252471 -0.06921637 -0.31641895 0.031201448
-0.18817024 0.16338004 0.60712254 -0.52890533 -0.14713964 -0.04875931 -0.73690134 -0.16573463
0.20720313 0.16335537 0.30200762 0.6626088 0.3176624 0.12750964 -0.035814323 -0.33736652
0.2083546 0.17458533 -0.18482015 -0.68526715 -0.21748811 0.3407832 0.018231556 -0.47668418
0.2955517 -0.032788567 0.5107827 0.4242945 -0.24950887 -0.19304252 -0.14641751 -0.10149866
-0.1140275 0.0072252285 0.055723026 -0.5255805 -0.17519441 -0.3736245 -0.13840722 0.3459077
0.22345108 -0.13844219 -0.10029275 0.044267543 0.63569164 0.30339247 0.19668998 -0.23509578
0.22174218 0.6974507 -0.16776195 -0.08410164 0.26399028 0.95470876 0.019165833 -0.32262966
0.48653048 0.13122042 -0.08074471 0.0724817 -0.16734745 0.022048658 0.27061632 0.29272464
0.038627606 -0.33716422 0.36216173 -0.13014519 -0.22403626 0.1664618 0.22398685 0.019523967

network_body._body_endoder.seq_layers.0.bias f4 [128]
00000000: 431e acba 252a 603b 18ea 883b b227 00bc
00000010: 5b29 a63b d917 26bb c62f c8b9 e6df d6ba
00000020: 4828 a7bb 1d23 c4ba 52ef c03b 4fba a73c
00000030: f240 e63b 25f4 f73a 1854 7dbb 4afa 823c
00000040: 6ca7 35bb 3c83 b33b fdc3 3bbb 7695 f13a
00000050: 0000 0000 0037 9bb9 392f 1f3c 749a 71bb
00000060: 2439 483b 36c1 ffb9 27bf db3b ff0c 83bb
00000070: 419d e0bb 0000 0000 93a7 073c 22d9 de3b
00000080: ade0 143a 3347 19bb 9eda b03b 84d6 393c
00000090: 8a97 51bc 398f cdbb ca14 253c c556 2c39
000000a0: 0907 673b 4d35 873b a0c7 883b 6a5f a23b
000000b0: d8f5 a9bb ec24 db39 3694 2b3b b6dc 513a
000000c0: ee9d 043b 8de2 51bb 0000 0000 249c 9b3b
000000d0: 153e a73b fd10 05bc c800 903b 17be babb
000000e0: f92a e43a 4c88 013c 0bf8 553b 7bbf 733c
000000f0: f4ae 53bb ca0f 7cbb 0000 0000 8d31 a43b
00000100: e0d3 bbbb 9103 343a 7fc0 923c 704a 36bc
00000110: bf68 003c ab7c 963b 08a1 8dbb 1327 33bb
00000120: f87b 243b 40c0 663c 2c5b d63b d021 e53a
00000130: c2c9 263b 4fd3 b299 0000 0000 6854 093b
00000140: 21a1 8cba 7775 a9b3 18bd 143b b75c 773b
00000150: 8d67 c2bb e0ad 32bc 31fe 8aba 0ec9 233b
00000160: 0000 0000 4e18 b63b eb52 f4bb 676f 043c
00000170: efb9 0a3b 5ec8 573c 490a 1e3b 9dd3 89ba
00000180: 0000 0000 0000 0000 7e1b 793b 8acd 9d39
00000190: 4bf2 3a3c 0000 0000 0000 0000 cc32 52bc
000001a0: e053 103c 1afd 1b3c db62 bd3b 0000 0000
000001b0: 5674 123c ff8d b1ad 6dcc 913b d42d 33bb
000001c0: 1273 233c 6cb4 e43a 5dae 933b 0831 083b
000001d0: 6d71 d33b 2f10 093b 81a6 803b 95ba 8abb
000001e0: 9252 f83a 96bb 423c 1ef3 933b 6094 ca10
000001f0: 4bf4 653c b635 673a 2daf 793a 76f4 02bb
-0.0013131577 0.0034204808 0.004178297 -0.007821964 0.005070848 -0.0025343804 -0.00038182567 -0.0016393631
-0.0051012374 -0.0014964078 0.005887904 0.020474581 0.007026785 0.0018917365 -0.003865486 0.015988488
-0.00277182 0.005478291 -0.0028650754 0.0018431384 0.0 -0.00029604882 0.009715849 -0.0036865743
0.0030551637 -0.00048781344 0.0067061367 -0.003999352 -0.0068546836 0.0 0.008279699 0.0068007866
0.0005679231 -0.0023388385 0.005397155 0.011342648 -0.012792477 -0.006273177 0.010075757 0.00016435522
0.0035251996 0.004126227 0.004174188 0.004955222 -0.0051867776 0.00041798444 0.002618087 0.0008005606
0.0020235735 -0.0032025904 0.0 0.004748838 0.0051038363 -0.008121726 0.0043946244 -0.00569893
0.0017407826 0.007906031 0.0032649066 0.0148771955 -0.0032300325 -0.003846156 0.0 0.0050107897
-0.0057320446 0.00068669865 0.017914055 -0.011126146 0.007837473 0.0045924983 -0.004322175 -0.0027336522
0.0025098305 0.014083922 0.0065416303 0.001748139 0.0025449847 -1.8490115e-23 0.0 0.002095485
-0.0010729172 -7.8910425e-08 0.0022695716 0.0037744471 -0.0059327544 -0.010905713 -0.0010604319 0.0024991664
0.0 0.0055570966 -0.0074561737 0.008083201 0.0021167954 0.01317033 0.0024115017 -0.0010515336
0.0 0.0 0.0038010771 0.00030098512 0.011410306 0.0 0.0 -0.012829494
0.00880906 0.009520793 0.0057796068 0.0 0.008938869 -2.018563e-11 0.0044494183 -0.0027340548
0.009976165 0.001744879 0.0045068697 0.0020781178 0.0064527304 0.0020914187 0.003926099 -0.004233668
0.0018945506 0.011885544 0.004515066 7.990356e-29 0.014035295 0.0008819954 0.00095246994 -0.0019982136

network_body._body_endoder.seq_layers.2.weight f4 [128, 128]
00000000: f43a 053d 315f 92bc 298b ab3d a88c 0d3e
00000010: acbb a2bd 0721 dabb a61c 033d 7a07 d7bd
00000020: 175c 823c f486 16bd 9e4d 23be bafc 563d
00000030: dcc9 423c 935f 0dbe 60b1 d43b afed 183c
00000040: 41d6 cdbc f19f 64bd 7c47 dbbd 1dfb 60bd
00000050: dd6b 7cbc a3dd 8b3d 438c 88bd c522 f0bd
00000060: 807f 29bd 1635 02be 6469 2c3d 3ee1 35bd
00000070: b56b 2d3d e169 be3d 1ee2 d7bd f2d8 13be
00000080: e5da f63b f35d 89bc 6590 e63d 9141 f33d
00000090: 903c 523c 3f9b b13c 3ce5 dc3c 608a 6e3d
000000a0: b9aa 933d 97a1 aebd 5c5c 9dbd 2a88 d13d
000000b0: 2a81 363e 7828 66be 677b 1d3e dadb 6ebb
000000c0: 9d1e 463d c995 8a3d b84a bdbc bfff 30be
000000d0: 3803 033d 83d8 46be 61c7 2e3d 44fe f03b
000000e0: 40d8 14bc 2821 373d efe9 0e3d 1bd9 a9bc
000000f0: 0ee0 683d bfde 3d3d 41a0 90bd 0fda 41bd
00000100: 6ca6 2dbc fbb3 d13d 7ed6 f2bc 89b5 cebc
00000110: a240 0d3d 8538 05be c893 2c3d 068f 153e
00000120: 00c8 6dbc 3312 593d 26c4 34bd bf9f a7bc
00000130: f0a1 883d 85e3 5abd 5ae6 353d 4d5a 1a3d
00000140: 5c82 81be 013b 143d 895d 2c3d 1fa0 11be
00000150: dc54 ca3c 906e 653c 2d03 b5bc 3cb2 efba
00000160: 8353 733d 379e 0a3e f68f 263d a34a de3c
00000170: ebfe 0e3e e264 d6bd f987 183d bf29 6cbd
00000180: eff3 9d3d 78a5 95bd 2835 c0bd 2b90 1e3d
00000190: d11d 1c3c 75d5 2fbc cda8 973d 510f 483c
000001a0: 81ba ca3c 3771 31bd d2e0 983b 6f1b 273d
000001b0: 9e66 413c 5073 193e c874 9c3d e0ea c7bd
000001c0: 719e 3c3d 6d14 9bbd 6306 fbbd 8610 0a3e
000001d0: 10d4 233c fad9 613d a29f 023d 6ad4 abbd
000001e0: 0701 1d3e 1516 0fbe 8d4d 96bd e902 b93b
000001f0: 79f1 d1bc cb23 18bc b73f 5bbe 8fc7 bd3b
00000200: 2a11 033e 0d4e b3bd 7185 43bd beb9 0c3d
00000210: 112f f9bd a820 453e 7e70 49bc 6f07 213c
00000220: 6d02 4c3d d3a5 8f3d 50a7 3abc 3a87 a93d
00000230: 719e ddbc 455b 8d3d e432 53be 329f fdbd
00000240: 9b90 c43b d3cf 15be dea1 9f3c 62e5 2f3c
00000250: b936 25bc 2f0c a33d 0a04 0c3d 2e6f 42bd
00000260: b342 c8bc 016e 9ebd 6fd3 b3bc 1210 de3d
00000270: acc1 833d 0ef7 29be d98a 1bbd ed85 863d
00000280: dc3e a4bd 289c b3bd 8c80 063d 7177 a1b7
00000290: bfe4 cc3d 5472 e2bc 0c0d 843d 9a16 be3d
000002a0: c84a 9cbd 2b4b 89bd 9437 91bd a4c5 08be
000002b0: 7aff 22be fab0 e03d 586c 92bd 9670 d2bd
000002c0: feef 53bd a9c8 96bd 79ad 2d3d 0322 933b
000002d0: 4d2d 45bc e37f 47bc 338b 4bbd 71ad 04bd
000002e0: 4a2e 5a3e b1c9 bf3c 5f63 3cbe c710 23bb
000002f0: 52a5 98bc 9ee3 00bd a7e6 923d bd8f c7bd
00000300: e35a d63b e55d 3fbd 4eb9 543d 0185 ce3d
00000310: 6ea3 913d a70e 203c 98fd 22bd 7343 ac3d
00000320: 4eaf 693c c68c f4bc a10f 793c a2cc fa3d
00000330: 5fb0 b93d d028 e33d 7bd1 bb3c c276 e2bd
00000340: 9a1a e03b 9b92 51bd 13b7 cb3d dd1a f53d
00000350: 0ead c3bd 6540 82bc fa28 e63c 1eaf cebd
00000360: 9dbe bfbc 13f7 f5bc ddc4 92bb d407 893d
00000370: 49fb c1bd 3ec8 833b b19f 963d 3eda f93c
00000380: 5a4f 84bd baae 5ebd c0c4 803c ef97 303d
00000390: 91d8 2c3d af4e 22bd 9218 b7bc 8cce 3cbe
000003a0: 72b1 b4bd 2a4f 403d f461 0bbd c678 7fbc
000003b0: 1085 833d 39f6 a63d 8b99 4a3d 4f07 c9bd
000003c0: 3f6e 6ebd 0ca2 9fbd ed15 c33d 1f68 86bd
000003d0: a62c cebd 8f4a 773d 7a1f 063e e039 583d
000003e0: ff61 823d 2836 bc3d 3108 623e b4c2 20be
000003f0: 5396 d33d be5a f2bd ef16 2a3c 6e01 51bc
0.032526925 -0.017867656 0.08376152 0.13823187 -0.07945952 -0.006656769 0.032009743 -0.10499473
0.015913052 -0.036749795 -0.15947577 0.052487113 0.011888947 -0.1380599 0.0064908713 0.009334012
-0.025126578 -0.055816595 -0.10706994 -0.05492698 -0.015406576 0.06829383 -0.06667378 -0.11725382
-0.04138136 -0.12715563 0.042092696 -0.04440426 0.042339046 0.092975385 -0.10541175 -0.14438227
0.0075334185 -0.016768431 0.1125801 0.1187774 0.012831822 0.021680472 0.026964776 0.058237433
0.07210297 -0.085269146 -0.07683632 0.10231049 0.1782271 -0.22476375 0.15379106 -0.003644696
0.04836904 0.067668505 -0.023106918 -0.1728506 0.03198549 -0.1941853 0.04267061 0.0073545296
-0.009084761 0.044709355 0.034891065 -0.020733407 0.0568543 0.046355005 -0.07061816 -0.047327098
-0.01059876 0.10239407 -0.029643293 -0.025233047 0.034485467 -0.13009842 0.042133123 0.1460534
-0.014513016 0.05299587 -0.044132374 -0.020461915 0.06671512 -0.053439636 0.044409133 0.037683774
-0.2529477 0.036189083 0.04208139 -0.14221238 0.024698667 0.014003411 -0.02209624 -0.0018287371
0.059405815 0.13536917 0.040664636 0.027135199 0.13964431 -0.104684606 0.03723905 -0.057657
0.07712542 -0.07306951 -0.09385139 0.038711708 0.009528593 -0.0107320445 0.07405243 0.012210683
0.024747135 -0.04332086 0.0046654725 0.040797647 0.011804251 0.14985394 0.07639462 -0.09761596
0.04604954 -0.07572255 -0.122570775 0.13482866 0.00999929 0.05513952 0.03189052 -0.08390124
0.15332423 -0.13973267 -0.073390104 0.005646099 -0.025627838 -0.009285877 -0.21411024 0.0057916115
0.12799516 -0.087551214 -0.04773468 0.034356825 -0.1216718 0.19250739 -0.012294887 0.009828432
0.049807 0.0701405 -0.0113924295 0.082777455 -0.02705309 0.06902174 -0.20624882 -0.1238388
0.0059986836 -0.1463006 0.019486364 0.0107358415 -0.010083848 0.07961308 0.03418354 -0.04746931
-0.024445867 -0.07735825 -0.021951405 0.10842909 0.06433424 -0.1659815 -0.037974212 0.06568513
-0.08019802 -0.08770019 0.032837436 -1.9248315e-05 0.10004567 -0.027642407 0.06447801 0.09281655
-0.07631451 -0.0670379 -0.07090679 -0.13356644 -0.15917769 0.109712556 -0.07149571 -0.1027538
-0.051742546 -0.07362492 0.042401765 0.0044901385 -0.012034726 -0.012176487 -0.049693298 -0.03239197
0.2130672 0.023411604 -0.18397282 -0.0024881826 -0.018633518 -0.031467073 0.071729 -0.09744213
0.0065415963 -0.046720404 0.051934533 0.10083962 0.0711125 0.009769118 -0.039792627 0.084113024
0.014262987 -0.029852282 0.01520148 0.12246062 0.09066843 0.11091769 0.022927037 -0.110578075
0.0068391087 -0.051165204 0.09947028 0.119680144 -0.09554492 -0.015899846 0.028095711 -0.10091995
-0.023406321 -0.03002504 -0.0044790343 0.06690946 -0.09471757 0.0040216735 0.073546775 0.030499574
-0.064604476 -0.05436585 0.015718818 0.043113645 0.04219872 -0.03962582 -0.022350583 -0.18438166
-0.088229075 0.046950497 -0.034028962 -0.0155927595 0.06421864 0.08152432 0.049462836 -0.09815847
-0.058210608 -0.0779458 0.095256664 -0.06562828 -0.1006711 0.06037384 0.13097945 0.05278957
0.063663475 0.09190017 0.22073437 -0.15699273 0.103314064 -0.11833714 0.010381444 -0.0127566885

network_body._body_endoder.seq_layers.2.bias f4 [128]
00000000: 0000 0000 e1b4 cfbb ddff a0bb c355 e2b9
00000010: 3be1 f9bb 5164 3a39 14a8 163c 50f4 39ba
00000020: f293 63bb f483 73bb 8839 5c3c cb4c db3b
00000030: 20be b7ba 1f00 1b3c ce00 b0bb 0ebf d53b
00000040: 3b5a 88bb b66a f43b 5f40 1f3c 0000 0000
00000050: 20d8 97bb 3442 ae3b b455 073b d048 30bb
00000060: cbbc b239 ca89 47ba b5f5 a63b b6b7 273c
00000070: 8db2 7e3b 0000 0000 2f5b 093c 8ada 54bb
00000080: 39ac 91ba beb4 983c ed5c a2bb 0000 0000
00000090: dd8e 383b 1e50 98bb ec9c 49ba c8cf 84bb
000000a0: 0c3a bf3b 6a67 7b3b 0000 0000 4bfa c43a
000000b0: 894c 623b c402 e63b 1a12 203a 2f2a 6e3a
000000c0: 0000 0000 0000 0000 66ab 863b 0000 0000
000000d0: ee60 45bb 661a 123a f132 f83b eb5d a9ba
000000e0: a3f4 5ebb 0000 0000 0000 0000 270f 383c
000000f0: ea23 4f3b 72bb f83a db94 b13b 5aee 9039
00000100: a0d3 65bb 5e08 d6ba a88c 14bb 9862 aaa3
00000110: 56f0 0dbb 9935 f03a 805b 5eba 5129 8f3a
00000120: fbca 9b3b eebb 243c 56e9 433b 96fd 673b
00000130: f768 763b ad9c 4fbb 9889 24b1 7774 48bb
00000140: ecb0 5abb eb83 723b 3793 b83b 0000 0000
00000150: 3a7a 563b 78c3 793b ae94 a73b 1751 3dbb
00000160: 92e4 613a 4bfa c3bb 2e5e 7b16 0977 d7ba
00000170: 5e82 ae3a 173f 823b 0b0c f1ba aa2c a43b
00000180: 0000 0000 ca09 993b 6bf2 083a 105e 173a
00000190: 0000 0000 8dbe aabb 019b a53b 0000 0000
000001a0: 0000 0000 33c7 6a3c e85b 9cbb 016c 68bb
000001b0: a3e0 8d3b 4ff4 923c 15bf 19bb 3d87 dfba
000001c0: f215 85bb 58fa 77bb 18c7 c13b 27d8 33b9
000001d0: 7683 5ebb b3c9 e83b 9744 6c3b 5d21 fc3b
000001e0: 8865 2f3c 9800 bc3b 0000 0000 d389 c4b9
000001f0: 2124 983b 0d85 d83a 0000 0000 dedc c33b
0.0 -0.006338701 -0.004913314 -0.00043169977 -0.0076257265 0.00017775713 0.009195346 -0.00070935953
-0.0034725633 -0.0037157508 0.013441451 0.006692504 -0.0014018454 0.009460478 -0.0053711897 0.0065230196
-0.004161147 0.00745901 0.009719937 0.0 -0.0046339184 0.0053179506 0.0020650448 -0.0026898868
0.00034091467 -0.000761178 0.0050952085 0.010236671 0.0038863749 0.0 0.008383556 -0.0032478892
-0.0011113948 0.018640872 -0.0049549253 0.0 0.0028161325 -0.0046482226 -0.00076909247 -0.00405309
0.005835777 0.00383612 0.0 0.0015028206 0.0034530482 0.0070193727 0.0006106213 0.00090852653
0.0 0.0 0.0041097878 0.0 -0.003011759 0.00055733917 0.007574432 -0.0012921666
-0.0034020327 0.0 0.0 0.011234081 0.00316071 0.0018976761 0.0054193563 0.00027643406
-0.0035068765 -0.0016329398 -0.0022666845 -1.8473193e-17 -0.0021658144 0.001832652 -0.00084822625 0.0010922347
0.0047544218 0.010054572 0.0029893718 0.0035398952 0.0037599185 -0.003167908 -2.3943354e-09 -0.0030586997
-0.0033369614 0.0037004899 0.0056327838 0.0 0.0032726661 0.0038110893 0.0051141595 -0.0028887445
0.00086171285 -0.005980765 2.0305336e-25 -0.0016438673 0.0013313999 0.003974806 -0.001839043 0.005010207
0.0 0.0046703564 0.00052241114 0.0005774209 0.0 -0.0052107037 0.0050538783 0.0
0.0 0.014329719 -0.0047716983 -0.0035464766 0.0043297573 0.017938761 -0.002345984 -0.0017053854
-0.004061454 -0.0037838425 0.0059136264 -0.00017151293 -0.0033952869 0.0071041225 0.0036051625 0.007694407
0.010705359 0.0057373755 0.0 -0.0003748672 0.004642979 0.0016519144 0.0 0.005977257

network_body._body_endoder.seq_layers.4.weight f4 [128, 128]
00000000: 796b 10bd 54ea 033d 0c43 1ebd f35f 863d
00000010: 0a91 b23d 9c20 e03c d086 ca3d 12bb 073e
00000020: 5da8 b1bd 0941 7b3d c641 853d 54a5 e93d
00000030: 284e ab3d ed11 b3bd 7be5 2cbe 0642 79bc
00000040: ac31 acbd df78 2a3a fba3 863d a896 db3d
00000050: 339d 923d bcf3 0c3d b21f d4bc 026b 56be
00000060: 8158 d6bb 8493 efbd 7705 053e 60ca 7b3d
00000070: 3916 33bd 3052 7fbd 0bcd 433d cf60 a63d
00000080: 9651 b0bd c2ff a6bc 802c a83d a7d1 a0bd
00000090: c841 fe3d 7d20 0cbc a7fd 483c 3d3f 26bb
000000a0: 142b a93b eca8 923d b5ce 26bd 03ed 49bd
000000b0: c5eb 093e 8111 86bc 831f 58bc c1ec b6bc
000000c0: 50cf 3dbd 5395 9abd 5fcd 4e3c 926f d73d
000000d0: 52af 383d a839 273e 59a8 a5bd 8f9d 033d
000000e0: ffbc ea3d 01b1 8a3d 7ac3 01bd 382d 023e
000000f0: 4ab9 5e3d 2382 1b3d 9ec3 29be 7b89 bf3d
00000100: 00ba edbc 3c45 683c f763 9cb8 0d49 1ebd
00000110: fb1d 143d 178e 85bc e55f 9c3d d702 85bd
00000120: d66f 773d e22d 78bd c7b9 44bd 7185 d1bd
00000130: d3c0 87bd 7979 c9bd 0f8e b03d 9155 ebbd
00000140: cc82 adbd 7693 8f3d 9958 1d3e db0e fbbd
00000150: c8c7 9dbd 6765 c63b 2bb5 d0bd 0b1d 4d3e
00000160: f1ca 44bd 55f0 f13d 3f94 f63d aa3f fc3d
00000170: 11ed fc3d 7cfc 24bc efef 9bbc 8556 be3d
00000180: 474b acbc 3c22 b43c 6929 5e3d fc4b a43d
00000190: fbb2 93bc 8f9a 273d e009 c43d ad4f e3bd
000001a0: 9219 6abd 905a 46bd 83ba fa3d 2ca8 06bd
000001b0: 22b9 9dbb 09a1 7b3e 3cc4 653d c2c2 96bc
000001c0: 4b70 e8bd 0ecd d0bc 1df5 393c 45e1 d23d
000001d0: 8804 6ebd a461 82bd 5d9a a43c 11e4 4d3e
000001e0: 2dbb 3a3e 6f63 bb3d 0bee 403e d8c5 2abe
000001f0: 633d 053d 7812 243d f8dd d9bd e9a8 5dbb
00000200: 61cf 0dbd 5473 063e 8a46 4f3d 574c 813d
00000210: 360a 3abd 394f 2bbe f83d 523e e18e 4e3d
00000220: 31e3 5bbd c90a 783c cbc1 a23d 6842 f7bd
00000230: e5c0 2fbd d4bd 993c b45a 943d 3d93 883c
00000240: 1e2f 603d c097 b6bc b050 11bd a4c6 11bd
00000250: 184e 6f3d dfdd d23d 06a8 4bbd b41a 45be
00000260: d111 98bc 467b 1e3e 4c8c 44bc d6db 95bd
00000270: 84ce 963d 511e 5abe 12c8 67bc abf8 0bbc
00000280: 9714 293d 0270 1d3d 23ca 5b3d f608 37bd
00000290: 3b51 a93d 279e d73d c38b 8bbd c656 613d
000002a0: 41d3 0cbd a116 a4bd ef26 263d 9f3e 9a3d
000002b0: dcb2 e93d 8f5d 5b3c a633 e2bc ff80 593d
000002c0: 7f8a 3e3d 2355 d83c 6f47 653d af3c 903d
000002d0: 9f10 1c3d 2817 123e 786a a63d 8bd4 15be
000002e0: ce5d bdbd 6c47 27be abbd 2ebd fc66 743e
000002f0: 3944 023d 3a07 743d 795d 843d a49e 0fbd
00000300: 7471 b1bc 661f 32bb 6b6b b3bc ffb4 62bd
00000310: b096 06be db5a fe3d f296 8fbd 8042 2bbd
00000320: acbd c53d aab3 4a3d 3921 003e b6c9 173d
00000330: 9643 5a3e 1aa3 a63d 98cf bfbd e1fb 7abc
00000340: 1f13 ccbc fcc7 433e c21c 803d 6e3b 233e
00000350: ca6b 043c c846 b53d b833 0d3e c5dc d93d
00000360: 810e 0d3d 5b66 e4bc f385 453e 5bc4 45bc
00000370: 0d1c d6bc 8ec8 88bc f8f3 3d3d 3edb 263d
00000380: 667f c13d a48d d2bb fe66 833d e5c5 923d
00000390: f6df 903c 347f 85bc 1c34 71be 2203 973d
000003a0: 9142 073c 784d 6ebd 4d3f e73d ce36 063e
000003b0: c94e 083e 652a eb3d b4fb 3abd 1529 103e
000003c0: 883e de3c 245e bd3c 4fa0 a13d bb0e e0bd
000003d0: 1a97 1e3c 92c7 873c 3ba8 2c3c a718 60bc
000003e0: e4d4 ea3d 7424 8b3d 5c91 03be 43de 0cbe
000003f0: e229 183d f7b0 f33d f4c5 d0bc 59fb 9fbd
-0.035258744 0.032205895 -0.03863816 0.065612696 0.0871907 0.0273593 0.09888995 0.13254955
-0.08674691 0.06134132 0.06506686 0.11408487 0.083645165 -0.087436534 -0.16884415 -0.015213495
-0.08407912 0.00065029965 0.065742455 0.10722095 0.071588896 0.03441213 -0.02589402 -0.20939258
-0.006541312 -0.11698058 0.12990366 0.061472297 -0.043722365 -0.06233424 0.047802966 0.081239335
-0.08609311 -0.020385627 0.08211613 -0.07852488 0.124148905 -0.008552668 0.012267507 -0.0025367283
0.005162606 0.071611255 -0.040724475 -0.049298298 0.13468845 -0.016365768 -0.013191107 -0.02232969
-0.046340287 -0.075480126 0.0126222065 0.10519327 0.045089073 0.16330588 -0.080887504 0.03213268
0.114618294 0.06772042 -0.03168056 0.12712562 0.054375924 0.037965905 -0.16578528 0.09352394
-0.029019356 0.014176663 -7.4572796e-05 -0.038643885 0.036161404 -0.016303105 0.07635478 -0.06494682
0.06040939 -0.060590632 -0.048028734 -0.1023053 -0.06628575 -0.09837622 0.086208455 -0.1149093
-0.08472213 0.07010548 0.15365829 -0.12258693 -0.07704121 0.0060545686 -0.10190805 0.2003061
-0.048045103 0.11813418 0.120399944 0.123168305 0.12349904 -0.010069963 -0.019035308 0.09293846
-0.021031989 0.02198898 0.05423871 0.08022305 -0.01802968 0.040918883 0.09572196 -0.11099181
-0.057153292 -0.04842621 0.122426055 -0.032875225 -0.0048133293 0.24573149 0.056095347 -0.018403415
-0.11349543 -0.025488403 0.0113499435 0.10296873 -0.05810979 -0.0636628 0.020093137 0.20106532
0.18235464 0.09149825 0.18840806 -0.16677034 0.032529246 0.040056676 -0.1063804 -0.0033822602
-0.0346216 0.13129932 0.05060438 0.06313389 -0.045419894 -0.1672944 0.20531452 0.05042923
-0.053683463 0.01513929 0.07947119 -0.12073213 -0.042908568 0.018767275 0.07243863 0.016671771
0.054732434 -0.022289157 -0.03547734 -0.03558983 0.058424085 0.10296225 -0.049720787 -0.19248468
-0.018563183 0.15476713 -0.01199634 -0.07317321 0.073636085 -0.21300627 -0.014146822 -0.008543174
0.0412794 0.038436897 0.05365957 -0.04468628 0.082674466 0.10528212 -0.06813767 0.055014394
-0.034381155 -0.080121286 0.040564474 0.07531475 0.11411068 0.013389005 -0.027612519 0.053101536
0.0465188 0.026407784 0.055976328 0.070428245 0.03810179 0.14266646 0.08125776 -0.1463186
-0.092464074 -0.16335839 -0.04266135 0.2386741 0.031803343 0.059577204 0.06463141 -0.0350634
-0.021660544 -0.002717936 -0.021901807 -0.055348393 -0.1314342 0.12419673 -0.070112124 -0.041811466
0.09655318 0.049487747 0.12512673 0.0370576 0.21314844 0.08136578 -0.09365767 -0.015318842
-0.024911461 0.19119257 0.06255485 0.1594064 0.00808234 0.08851391 0.1378926 0.106378116
0.03443766 -0.027880838 0.19289379 -0.012070741 -0.026136423 -0.016697194 0.046375245 0.04073643
0.094481274 -0.0064255763 0.064161286 0.07166652 0.017684918 -0.016296007 -0.23555034 0.073736444
0.008255617 -0.05817935 0.112913705 0.13106844 0.13311304 0.114826955 -0.0456502 0.14078172
0.027129427 0.023116179 0.078919046 -0.109403096 0.00967958 0.016574655 0.010538156 -0.013677753
0.11466387 0.06794062 -0.12848419 -0.13756661 0.037149318 0.11898988 -0.025485016 -0.07811613

network_body._body_endoder.seq_layers.4.bias f4 [128]
00000000: 0103 983b febc e03b f32f 41b8 3e11 f23b
00000010: 9dea 7c3b 0000 0000 0d3d 133b 7b82 f73a
00000020: 62e0 4ebb 39cf 41bb 38ea a4bb cdee 0b3b
00000030: eebf ee9e 7716 3fbc a388 1d3b 355e dc3a
00000040: b630 a8bb 2786 a5bb d021 c63b 91ed da3b
00000050: cee0 1dbc fb64 2abb 6cb7 6abb 40cd 7c3b
00000060: 841d b53b 9428 7dbb 5069 b0b9 597b a6bb
00000070: 0000 0000 0ef5 e63b ba65 9abb 95c0 2c3b
00000080: 73f4 7c3a 1c3d 96bb 7643 f8bb d00b 393b
00000090: d267 993a 376c 30bb bce1 e5ab acdf d93b
000000a0: 0000 0000 3641 903b 7636 0d3b 5411 773a
000000b0: e318 87bb 0000 0000 c12e 89bb e437 a83a
000000c0: aeb5 8c31 21fd 76bb c429 57bb 3a07 389b
000000d0: ba3e 12b9 2284 583b 331e ebba 9806 93bb
000000e0: 2fc0 78ba 12b6 af3c 672d 6bbb 143a bf3b
000000f0: 0000 0000 0000 0000 0000 0000 0e13 16bb
00000100: 06e7 c9ba f237 d4bb ec9b 3dbb 5992 c63b
00000110: 62fa 373b d672 42bb 8683 54bb 0000 0000
00000120: 3a8f 54bb 6a65 913a 0000 0000 cbdb e53b
00000130: 9aa5 e638 0000 0000 d85a b6ba 71be 963b
00000140: 5180 24ac 03e4 c93b 561a bc3b b136 043a
00000150: c1d7 5f3b 7af2 923b 0000 0000 bad3 1bbc
00000160: db2d 77bb b96f 9d3b 0000 0000 e090 a53b
00000170: 3434 84ba 0000 0000 78bc f73a 4d49 57bb
00000180: b18d 423b 2813 da3a 2974 253c 0357 7d3b
00000190: 4a97 2abb 0a5e 7abb 97d9 6f3b 6a59 983b
000001a0: d60b fd3b 5958 d13b d8c8 bf3b 321c 61bb
000001b0: 9fb1 a4bb d4cc 903b 21f6 3fbb 8c46 dbbb
000001c0: 2dcf 0e3c 0659 343b 3f00 0bb3 8c1a 2433
000001d0: 49a9 c7bb 11b7 cfbb 7b58 c93a f92b 9c87
000001e0: 3f21 d73b 26a2 2fbc ba44 a5b8 d700 a43b
000001f0: ab10 b29c 49a7 be3b 900b da3b ca90 98bb
0.00463903 0.006858467 -4.6059442e-05 0.0073873093 0.003859199 0.0 0.002246681 0.0018883491
-0.0031566848 -0.0029572977 -0.005032804 0.0021352053 -2.527861e-20 -0.011663071 0.002403774 0.0016812744
-0.00513276 -0.0050513926 0.0060465112 0.006681152 -0.009636117 -0.002600013 -0.0035814894 0.0038574487
0.0055272 -0.0038628923 -0.000336478 -0.005080622 0.0 0.0070482558 -0.004711834 0.0026359905
0.0009649463 -0.0045849215 -0.0075764013 0.00282358 0.0011703914 -0.002691997 -1.6334083e-12 0.006648978
0.0 0.004402305 0.0021547354 0.00094248843 -0.00412284 0.0 -0.0041864817 0.001283404
4.095191e-09 -0.0037687498 -0.003283129 -1.5222458e-22 -0.00013947012 0.0033037742 -0.0017938077 -0.00448687
-0.0009489087 0.021449123 -0.0035885216 0.005835781 0.0 0.0 0.0 -0.002289954
-0.0015403933 -0.0064763958 -0.0028932048 0.0060599265 0.0028072824 -0.0029670498 -0.0032427027 0.0
-0.0032434002 0.0011092846 0.0 0.0070147268 0.000109981 0.0 -0.0013912572 0.004600339
-2.3377032e-12 0.0061612143 0.005740444 0.000504355 0.00341557 0.004484472 0.0 -0.009510929
-0.003771654 0.004804578 0.0 0.005052671 -0.0010086359 0.0 0.0018900773 -0.0032850087
0.0029686505 0.0016637789 0.0100984955 0.00386566 -0.0026030117 -0.0038203024 0.00365982 0.004649331
0.007722358 0.0063887057 0.0058528 -0.003434908 -0.005026057 0.0044189487 -0.0029290991 -0.0066917595
0.008716387 0.0027518882 -3.2363683e-08 3.820837e-08 -0.0060931784 -0.006338962 0.0015361452 -2.3498116e-34
0.0065652425 -0.010719812 -7.8806144e-05 0.005004983 -1.178336e-21 0.005818282 0.0066542104 -0.004655932

action_model._continuous_distribution.log_sigma f4 [1, 2]
00000000: e77f 853c 147a dd3c
0.01629634 0.02703575

action_model._continuous_distribution.mu.weight f4 [2, 128]
00000000: 61b8 0a3c 5740 173b cb52 a63a 99c5 c83c
00000010: d8b6 0c3c eec1 333c 71e0 183c f97d 86bb
00000020: 5905 b33a cd69 a3bc 7373 b33b dd66 5c3b
00000030: 32db e0bc 10c6 9cbc bc31 ca3c 8bfe 993c
00000040: 7e38 caba ea3f 13bc 0174 643a 9d5f 253c
00000050: 6e9a bb3c db9b a6bc 3b30 19bd 7db5 e3bb
00000060: c5a7 7f3c 2a5a 2b38 7261 1a3c 02e4 41bb
00000070: 0b14 1d3b 1d47 273c 8890 86bc cad6 a63b
00000080: 946c c73c 860b 6d3b 83d9 c7bc d126 ed3b
00000090: da94 44bc 3725 0bbc bd81 6cbb 11aa ec3c
000000a0: a706 2dbc f0f2 413c d7a0 6c3c bd60 253c
000000b0: a98b 35bc d3dd 123d ace2 ccbb 96f7 e63b
000000c0: f177 fb3a ab6a 8abc 521f 12bd da79 d43c
000000d0: 032b 15bc de09 873c 8ed5 923a b7d1 8cbc
000000e0: cb0a cf3b 1f42 5ebc 1f00 a9bc 4c20 aa3c
000000f0: 606b 97bb 492e 203b cb30 a3bc 5633 9bbc
00000100: 241b 1dbc fc20 f2bb e94a 053d 6c9b a03c
00000110: eebb e43c eba0 8f3c ed12 e43a 0073 b0bc
00000120: e6c2 1fbd ede3 333c 3b57 913c b29a c43c
00000130: bd5f 34bc 88f2 c1bc 5157 34b9 574e d23c
00000140: c1de b3bb cc83 ee3c af94 ac3c aec6 22bd
00000150: d05d 163c 7888 a83c e8f3 f9bc fa3a 40bc
00000160: 3b8a d73c c4a6 db3c 983d 19bc 799e 893c
00000170: 057a 55bc 6f25 3a3c ad6c 833c 85d3 acba
00000180: 858b 373d cc63 663b e689 aebb 3989 f1bc
00000190: 0dcb 30bc 70e3 91b8 75d2 7b3c 5a8d 203d
000001a0: 1056 de3c e855 7e3c cb6a 313c 02d1 38bd
000001b0: 5686 38bc ab64 713c 4019 1abb a779 87bc
000001c0: f641 6a3b 0ac1 c4bb 6470 22bc eb70 e7ba
000001d0: 6b1e 9cbb 459e a63a 71e2 29bc c990 25bb
000001e0: 8883 c8bc ca28 e9bc cd51 89bc 82a4 383c
000001f0: 87f2 813c a29e 3c3d 7749 74bc 31e0 adbc
00000200: d003 02bd c5c5 9bbc 3f07 31ba b3ac efbc
00000210: 9fb5 31ba a0ad 363c 1cf0 bc3c b84a 923c
00000220: d125 3e3b 4de3 e8bc c0ab 41bc a94b 61bc
00000230: 6e4a 8fbc e4ea 08bc b991 a7b8 2d44 12bd
00000240: 48b1 3c3b 14cf 013d 2791 b5bc 3178 c5bc
00000250: 1195 9f3c 9d72 b13b 028d cf3c 5e3c 00bd
00000260: 0799 e7bc 3761 243c 1f1f 02bd 54e0 873b
00000270: 754e b8bb c7eb b5bc 0509 a8bc be45 08bd
00000280: b6f9 123d 3839 083c 01f6 48bc 4adf afbc
00000290: a02e cbbc 40a2 bf3c c370 9d3c 8af6 f8bc
000002a0: 63ed a83a 13e7 9cbc 513b f7bc 01b0 d3bb
000002b0: b6d8 64bc 983f 03bc e3c6 6fbc 3aba 263b
000002c0: 5f53 ccbc c02a c03c 94ba b8bc 6528 8c3c
000002d0: fe20 b43c 1756 48bc cd98 74bc df5e 8dbc
000002e0: 8e24 903b b06b efbc fd05 083c 6785 ccbb
000002f0: 8cea 153c ead6 94bc 5d08 daba 1dcb 013c
00000300: bfc1 9fbc 065f 3dbc 2e0a 9bbc d321 1fbd
00000310: 44cb c8bc e624 af3c 3890 063d 150e 8abc
00000320: 98f4 cbbc 8356 b43c a93c 2dbc b79a 49bd
00000330: f4ba 18bd a6df 17bb c0d3 843c 0777 69bc
00000340: aca0 533c 105d 9fbc 4003 31ba bc28 17ba
00000350: 14ec 3bbb 758e febb cfea 19bc e309 883b
00000360: 0d23 36bc 2c3c 513c 7dd2 b5bb 3ed8 96bb
00000370: bf10 07bd e951 2abc b2a1 d5bc befa 9abc
00000380: 4230 1fbd c99a d8bc 6b71 c1bc 69aa aebc
00000390: 3c94 b9ba 0137 9a3b ef28 c23b 49b7 0d3c
000003a0: 13b4 e2bc 8ef2 80bc 662b d3bc f10d 07bd
000003b0: ae6b dcbc 4a6d 6b38 5e3a 1dbd 3bf1 593c
000003c0: bf2e dfbc 5a4a 2abd 436e 3c3c 0886 203b
000003d0: e871 c23b b002 173b 3d02 0dbd 92fe 0e3b
000003e0: 4057 39bd a0e4 ebbb 86e9 73bc 6f46 c5b9
000003f0: fb30 80bc 1076 9dbc f956 3bbd fcbf c93c
0.008466811 0.002307912 0.0012689469 0.024508284 0.008588515 0.010971529 0.009330855 -0.0041043726
0.001365821 -0.01994791 0.005476409 0.0033630647 -0.02744827 -0.019137412 0.024681918 0.018798133
-0.0015428213 -0.008987406 0.00087147957 0.010093597 0.022900786 -0.02033799 -0.03739951 -0.0069491253
0.015603964 4.085355e-05 0.009422647 -0.0029585366 0.0023968245 0.010209826 -0.01642634 0.005091523
0.024343766 0.0036170199 -0.02439571 0.0072372933 -0.01199838 -0.008492759 -0.0036088072 0.028889688
-0.010560668 0.011837706 0.014442644 0.010093865 -0.011080661 0.03585608 -0.0062526073 0.0070485575
0.0019185526 -0.016896566 -0.0356744 0.02593701 -0.009104493 0.016484197 0.001120256 -0.017189844
0.0063184253 -0.013565569 -0.02062994 0.020767353 -0.0046209544 0.002444165 -0.019920727 -0.018945377
-0.00958899 -0.007389186 0.032542143 0.01960536 0.027921643 0.017532786 0.001740066 -0.021539211
-0.03900423 0.010979635 0.01774179 0.023999546 -0.011009154 -0.023675218 -0.00017198666 0.025672121
-0.005489201 0.02911558 0.021066992 -0.039740257 0.00917764 0.020572886 -0.030511811 -0.011732811
0.02631103 0.026812918 -0.009353064 0.016799198 -0.01302958 0.011361464 0.016043032 -0.0013185596
0.04481079 0.0035154698 -0.0053264974 -0.029484378 -0.010790599 -6.956502e-05 0.015370001 0.039197303
0.027140647 0.015523411 0.010828684 -0.0451212 -0.011262497 0.014733474 -0.0023513585 -0.0165375
0.0035744882 -0.0060044574 -0.009914491 -0.0017657554 -0.0047643683 0.0012711963 -0.010368929 -0.00252633
-0.024476781 -0.028461833 -0.016762638 0.0112696905 0.015862716 0.04604972 -0.0149100935 -0.021225067
-0.031741917 -0.019015202 -0.0006753094 -0.029257154 -0.0006779078 0.011149794 0.023063712 0.017857894
0.002901424 -0.028428698 -0.011820734 -0.013750949 -0.017491546 -0.008356784 -7.9903235e-05 -0.03570955
0.0028792191 0.031691626 -0.02216394 -0.024105163 0.01948026 0.0054152743 0.025335792 -0.03130757
-0.028271211 0.010032943 -0.03176796 0.004146615 -0.005624587 -0.022207154 -0.020512113 -0.033269636
0.035882674 0.008314423 -0.012265683 -0.021468777 -0.024802506 0.023392797 0.019218808 -0.030390996
0.001288813 -0.019153154 -0.030179651 -0.0064601903 -0.013967684 -0.008010767 -0.014634821 0.002544059
-0.024942098 0.023457885 -0.022549905 0.017109105 0.021988388 -0.012227557 -0.014929009 -0.017257152
0.004398889 -0.029226154 0.008302209 -0.0062414887 0.009150159 -0.018168885 -0.0016634573 0.007921961
-0.019501565 -0.0115583 -0.018925752 -0.038850617 -0.024510987 0.0213799 0.03285238 -0.016852418
-0.024896905 0.022013908 -0.010573545 -0.049219813 -0.037287667 -0.0023174076 0.016214252 -0.01424957
0.012916725 -0.019453555 -0.00067524984 -0.0005766263 -0.002867465 -0.007768447 -0.009394362 0.004151569
-0.011116755 0.012770694 -0.005548774 -0.004603415 -0.032974955 -0.010395505 -0.026078079 -0.018918391
-0.03886438 -0.026440995 -0.023613652 -0.021321492 -0.0014158557 0.004706264 0.00592529 0.008649656
-0.027673757 -0.01574066 -0.02577753 -0.03297228 -0.026906814 5.613015e-05 -0.03838574 0.013302143
-0.02724397 -0.041574813 0.011500898 0.0024493951 0.005933989 0.0023042373 -0.034425963 0.0021819216
-0.045249224 -0.007198885 -0.014887219 -0.00037627245 -0.015648356 -0.019221336 -0.04573724 0.024627678

action_model._continuous_distribution.mu.bias f4 [2]
00000000: ade4 b53b ac7d 17bb
0.005550942 -0.0023115678

action_model._discrete_distribution.branches.0.weight f4 [1, 128]
00000000: 4764 003c 7253 f9b8 8d49 09bc 41e4 b5bb
00000010: 65d4 af3a 6928 1b3b 2bcb 23bb e872 f03b
00000020: 4cf3 95bc ece2 a33b 33f1 c7bb 83ad 16bc
00000030: a33f e3bb d7a5 12bb 0d3f bb3a 736d 87bb
00000040: db80 f93b 9ba4 773c f342 1cbc c07a 783a
00000050: 428c ef3a 6b0c 6b3b f451 bbbb 257b f53b
00000060: 436a a1bb 43cc 143b d11f 9a3b afb4 1ebc
00000070: 86aa 813c 734e 3c3b 6c89 48ba 8a7c f8bb
00000080: 3707 77bc a07e 363c 9cb2 0e3c e8c3 0d3c
00000090: 5389 67bb 7797 fb3a 40da 55bc 1b02 9aba
000000a0: e68e 8bbc 7f3f 97bc b551 fd3b e6e9 c93b
000000b0: df14 8dbb 985c 803b b3fc fcbb 6d4b 723c
000000c0: bb30 6f3c 6b0c 8a3c 5a90 32bb 67f3 fc3b
000000d0: 401e a5bb e837 f23b 1b62 d83b c713 5fbb
000000e0: 1bb9 a2ba 9d40 f737 eeed 87bb cb2f d4bb
000000f0: e77a 00ba ecf1 403c 5a13 7fbc 871c efbb
00000100: 7e04 333b 275f babb 1338 9d3c b0a0 79bb
00000110: 836e 373c 7343 5bbb ed3d a33a 9a85 3f3c
00000120: 62dd 3bbc b545 543b 755e 39bb abf3 3a3c
00000130: 3b52 75b9 5071 513a 9002 df3b 57bd 193c
00000140: 7d61 653c 36d4 20bb ff78 2d3c 54bc 873c
00000150: 675c 903b 1d8b cf39 6c2b 05bb 7dfc 073c
00000160: ea05 bebb a83a cebb 661b 3abc 5734 03bc
00000170: 457f 913b 005b 813c f731 1cbc 77da 693a
00000180: 7ae3 dbbb 2a2d dc3b 34d2 a83c bea8 4b3c
00000190: 4c8c bc3b cdad b9bc 37fd 99bc 2b79 313b
000001a0: 2787 95bc 475f f2bb f506 d53a 75cd 733a
000001b0: 1a4e ddbb 926d fd3b be4d 20bc b0a1 dbbb
000001c0: b779 a13b 2328 00bc 3937 3f3c a3f3 123c
000001d0: 7faa f4ba 2b29 aeb9 22a3 edbb 1d2b d8bb
000001e0: 84a2 b03b b8fb 073c 779d 56bb cbf5 8a3c
000001f0: 124b 8dbb ad62 d83a fd5a a83c 922b eabb
0.007836408 -0.00011888788 -0.008379352 -0.0055508916 0.0013414739 0.002367521 -0.0024992924 0.0073379166
-0.01830449 0.0050014164 -0.0061017512 -0.009196642 -0.0069350763 -0.002237668 0.0014285758 -0.0041329204
0.0076142377 0.015114929 -0.009537446 0.00094787404 0.0018276053 0.0035865556 -0.0057165567 0.0074914866
-0.0049259975 0.0022704757 0.0047035 -0.009686633 0.015828382 0.0028733283 -0.0007649872 -0.0075832056
-0.015077404 0.011138588 0.008709576 0.008652665 -0.0035329654 0.001919492 -0.013052523 -0.0011749895
-0.017035913 -0.018462894 0.0077306875 0.006161916 -0.0043054665 0.003917288 -0.007720554 0.014788491
0.014599021 0.016851624 -0.0027246685 0.0077194455 -0.0050390065 0.0073919185 0.006603492 -0.0034038888
-0.0012414785 2.9474782e-05 -0.0041482365 -0.006475424 -0.00049011264 0.011776429 -0.015568579 -0.007297102
0.002731591 -0.0056876126 0.019191777 -0.0038090162 0.011195782 -0.003345695 0.0012454368 0.011689568
-0.011466356 0.0032390181 -0.002828506 0.011410634 -0.00023395654 0.0007989602 0.0068057254 0.009383521
0.014000294 -0.002454055 0.01058793 0.016569294 0.0044055465 0.00039585764 -0.002032007 0.008299944
-0.005799045 -0.0062936135 -0.011359071 -0.008008084 0.0044402205 0.015790462 -0.009533397 0.00089207984
-0.006710467 0.006719251 0.020608045 0.012430368 0.0057540294 -0.022665882 -0.0187975 0.0027080278
-0.018252922 -0.007396612 0.0016252684 0.000930033 -0.006753695 0.007734009 -0.00978416 -0.0067026243
0.0049278396 -0.007822069 0.011670881 0.00896922 -0.0018666534 -0.0003321854 -0.007252113 -0.0065969364
0.005390467 0.0082997605 -0.0032747665 0.016962906 -0.0043119276 0.00165089 0.0205512 -0.0071463073

exp_avg f4 [128, 10]
00000000: 24eb 0138 775b 4f3b d965 0f38 7d7a 0b38
00000010: a4eb 9d36 0782 d037 fa43 9d34 8d74 8233
00000020: 0000 0000 0000 0000 97c8 ac3b 2e9a 333b
00000030: 8658 1e3b 04b2 483c 5025 393a a3ac 7b3b
00000040: 07ae 04b8 ece2 bb37 0000 0000 0000 0000
00000050: 1b2c bc2c cb7f 772c b967 822d 2b7e 522d
00000060: 352b 372c 39a5 1a2d c419 6993 e68e b113
00000070: 0000 0000 0000 0000 420e a63a b393 e439
00000080: 13e3 e139 7c75 0b3b d262 3339 cca2 4d3a
00000090: ecf9 8ab6 a896 3636 0000 0000 0000 0000
000000a0: 4ac0 9736 2987 233b 2ee2 31b8 c27c 92b8
000000b0: ea79 1ab7 77de 50b8 cfbb 8cb4 0fa2 3e34
000000c0: 0000 0000 0000 0000 cd16 81ba 0d99 40b9
000000d0: acbb 86b9 26c8 97ba aee4 00b9 4541 c7b9
000000e0: 37f0 bf36 cc0c 80b6 0000 0000 0000 0000
000000f0: 9183 5c3a 752d f439 b126 dc39 e9ed 083b
00000100: c838 e138 396a 1a3a 58f1 d3b6 477c 9636
00000110: 0000 0000 0000 0000 7a87 24b9 45a8 7aba
00000120: ee17 12ba 0555 5dbb 81a6 72b7 b5e3 75ba
00000130: 3653 ad35 f525 f6b5 0000 0000 0000 0000
00000140: 03a1 e3b8 da4a 3fba 3b7e ceb9 bc8d 27bb
00000150: 5025 a0b6 4d9a 34ba ab36 5d35 027e afb5
00000160: 0000 0000 0000 0000 8ba7 05ba 848f e3b8
00000170: 0b57 16b9 2065 26ba 15f1 8eb8 de2e 7cb9
00000180: 77d5 c135 c090 97b5 0000 0000 0000 0000
00000190: bdcd ef37 b88b 2b3c 1e44 13b9 b02c 67b9
000001a0: d4fb 02b8 aba3 2cb9 e292 a234 9afc abb3
000001b0: 0000 0000 0000 0000 8367 4038 14ef 883c
000001c0: aa50 6cb9 0e7b b9b9 e92f 52b8 fb83 8ab9
000001d0: 8898 e834 549a d2b3 0000 0000 0000 0000
000001e0: ca3c 2e3a ff6e 593c b748 3539 2640 c53a
000001f0: e909 2738 33d7 9c39 1f48 9db6 7ae8 7636
00000200: 0000 0000 0000 0000 886c 3c3b 2f1f 183b
00000210: 270d fb3a f16a 1d3c 13d2 d539 c2d9 413b
00000220: 6809 9fb7 06a8 7437 0000 0000 0000 0000
00000230: 3285 0cb9 5836 5dba 1234 fbb9 36c8 42bb
00000240: 27fb 2bb7 342a 56ba 76f6 9535 fbec dbb5
00000250: 0000 0000 0000 0000 b161 1b38 ef1a 573c
00000260: d8d7 3eb9 50ca 95b9 24be 29b8 7db9 5fb9
00000270: 4b4c 0734 59e6 5633 0000 0000 0000 0000
00000280: c319 553b 9543 ae3a d05c ad3a aecc cd3b
00000290: 569f eb39 ee0c 0e3b 9906 84b7 51ed 3637
000002a0: 0000 0000 0000 0000 d2cf 5e36 6e31 ca3b
000002b0: c163 08b9 9f73 dfb9 43d7 a1b7 f3a8 3ab9
000002c0: 6146 c534 0c7b 89b4 0000 0000 0000 0000
000002d0: 733f 58ba 2515 953b 1795 4ab9 e193 30ba
000002e0: acea 06b9 e448 42b9 170b 1137 2a8d b4b6
000002f0: 0000 0000 0000 0000 959c b438 d801 d03b
00000300: f8a3 213a 9816 6f3b b4c3 1fb6 3480 7f3a
00000310: ed3e b0b5 b6d1 1a36 0000 0000 0000 0000
00000320: 0000 0000 0000 0000 0000 0000 0000 0000
00000330: 0000 0000 0000 0000 0000 0000 0000 0000
00000340: 0000 0000 0000 0000 1270 b939 0382 9a38
00000350: 02cf c338 b345 e539 4425 4d38 051e 1839
00000360: b6ed 46b6 4220 f435 0000 0000 0000 0000
00000370: 1a83 1f37 45c5 263c c892 cf38 3568 883a
00000380: dd16 b2b7 9da9 9839 dcf2 a935 4244 90b4
00000390: 0000 0000 0000 0000 6d00 87b9 d107 13bb
000003a0: f53a adb8 43ed 3dba 8cce eab7 2516 68b9
000003b0: 269e 4735 6205 22b5 0000 0000 0000 0000
000003c0: aed0 f3b9 a2ac f939 7eac 8639 a584 bd3a
000003d0: 300a 6bb8 52b0 be39 6970 7535 854e bc32
000003e0: 0000 0000 0000 0000 6d22 54ba 2eb6 8f3a
000003f0: 19da 1237 7f25 8139 54f3 f1b8 c172 c2b7
3.097499e-05 0.003164021 3.418871e-05 3.325426e-05 4.706397e-06 2.4856081e-05 2.9292988e-07 6.074797e-08
0.0 0.0 0.0052729356 0.002740513 0.002416165 0.0122494735 0.000706275 0.003840246
-3.1633328e-05 2.2397806e-05 0.0 0.0 5.348178e-12 3.517175e-12 1.4825351e-11 1.1965133e-11
2.6029849e-12 8.790573e-12 -2.9421438e-27 4.482199e-27 0.0 0.0 0.0012669044 0.00043597593
0.00043084528 0.0021279743 0.00017107584 0.0007844388 -4.141815e-06 2.7207807e-06 0.0 0.0
4.522536e-06 0.0024952388 -4.2410735e-05 -6.9850605e-05 -9.207501e-06 -4.979825e-05 -2.621368e-07 1.7754085e-07
0.0 0.0 -0.0009848714 -0.00018367563 -0.00025698298 -0.0011580035 -0.00012292221 -0.00038004867
5.7202083e-06 -3.816187e-06 0.0 0.0 0.0008411939 0.00046573175 0.00041990497 0.0020893759
0.000107394124 0.0005890462 -6.316386e-06 4.484816e-06 0.0 0.0 -0.00015690728 -0.0009561817
-0.0005573024 -0.00337726 -1.4463091e-05 -0.00093799393 1.2913722e-06 -1.8339475e-06 0.0 0.0
-0.00010854194 -0.00072972255 -0.0003938543 -0.0025566658 -4.7727153e-06 -0.00068894477 8.240847e-07 -1.3075189e-06
0.0 0.0 -0.0005098513 -0.00010850935 -0.00014337541 -0.0006347466 -6.815993e-05 -0.00024050052
1.4441747e-06 -1.1292504e-06 0.0 0.0 2.8586825e-05 0.010470323 -0.00014044388 -0.00022046524
-3.122895e-05 -0.0001646417 3.0281723e-07 -8.008756e-08 0.0 0.0 4.587277e-05 0.016715564
-0.00022536764 -0.00035377633 -5.011252e-05 -0.00026419744 4.3324349e-07 -9.806959e-08 0.0 0.0
0.00066466315 0.013271092 0.00017288594 0.0015049025 3.9825132e-05 0.00029914975 -4.6873606e-06 3.6792176e-06
0.0 0.0 0.0028751213 0.0023211946 0.00191537 0.009608016 0.00040783043 0.0029579257
-1.8958657e-05 1.4582654e-05 0.0 0.0 -0.0001340106 -0.0008438579 -0.00047913246 -0.0029721386
-1.025087e-05 -0.0008169741 1.1173095e-06 -1.6385742e-06 0.0 0.0 3.7045862e-05 0.01312898
-0.0001820022 -0.0002857023 -4.0469822e-05 -0.00021336037 1.260061e-07 5.0035258e-08 0.0 0.0
0.0032516576 0.0013295287 0.0013226513 0.0062805032 0.00044941407 0.0021675187 -1.5738698e-05 1.09033e-05
0.0 0.0 3.3201545e-06 0.0061704433 -0.00013007132 -0.0004262002 -1.9292935e-05 -0.00017801281
3.6745317e-07 -2.5607767e-07 0.0 0.0 -0.0008249201 0.0045496398 -0.00019319761 -0.0006735903
-0.00012866658 -0.00018528436 8.645256e-06 -5.3808517e-06 0.0 0.0 8.6122345e-05 0.006347876
0.0006166096 0.0036481973 -2.380676e-06 0.0009746582 -1.3131336e-06 2.3069856e-06 0.0 0.0
0.0 0.0 0.0 0.0 0.0 0.0 0.0 0.0
0.0 0.0 0.0003536945 7.367509e-05 9.336883e-05 0.00043730214 4.8910515e-05 0.00014507033
-2.9642665e-06 1.8188805e-06 0.0 0.0 9.507663e-06 0.010178869 9.897869e-05 0.0010407033
-2.12299e-05 0.0002911807 1.2662163e-06 -2.6871754e-07 0.0 0.0 -0.00025749524 -0.002243508
-8.2602644e-05 -0.00072451326 -2.7991155e-05 -0.00022133494 7.4363413e-07 -6.0357536e-07 0.0 0.0
-0.0004650405 0.00047621602 0.00025686988 0.0014459087 -5.6037854e-05 0.00036370993 9.143319e-07 2.1921787e-08
0.0 0.0 -0.0008092288 0.0010964328 8.753058e-06 0.00024632734 -0.00011537099 -2.3180039e-05
