Assets/results/VikramRover27-ppo/VikramRover/VikramRover-1553.pt (torch, 859945 bytes, 51 tensors)

network_body._body_endoder.seq_layers.0.weight f4 [128, 10]
0	0xbe7ea889	-0.24868979
1	0x3e634a62	0.22196344
2	0xbe4b0313	-0.19825391
3	0x3e815c4b	0.25265726
4	0xbf19494c	-0.5987747
5	0x3d463e7d	0.048399437
6	0xbf0fb4d3	-0.5613529
7	0xbdc17c91	-0.09447587
8	0x3e860d56	0.2618205
9	0xbedecc54	-0.43515265
10	0x3f0e4756	0.555776
11	0x3f1d1910	0.6136637
12	0x3e6f78ac	0.23385876
13	0xbf26d8a6	-0.6517433
14	0x3ef661e0	0.48121548
15	0xbe578cff	-0.2104988
16	0xbe6901c7	-0.22754584
17	0x3c987e39	0.018614875
18	0x3ec2dcfb	0.3805922
19	0xbe6e392c	-0.23263997
20	0xbe00abb5	-0.12565501
21	0x3cd218f7	0.02564667
22	0x3e4f8429	0.20265259
23	0xbe93e967	-0.2888901
24	0xbee15482	-0.44009787
25	0xbece6247	-0.40309355
26	0x3bc2e844	0.0059480984
27	0xbdaa55e0	-0.083171606
28	0xbdff4a10	-0.12465298
29	0x3f2153c7	0.6301846
30	0xbf28c207	-0.6592106
31	0x3e5f4dcb	0.2180702
32	0x3e9f2298	0.3108108
33	0xbd2ff036	-0.042953692
34	0x3edb4769	0.4282792
35	0xbe976efd	-0.29576865
36	0x3eca86d6	0.39555997
37	0x3deff644	0.11716893
38	0x3d03077d	0.031989563
39	0xbe850a13	-0.2598425
40	0xbe9439f8	-0.28950477
41	0xbecb37e0	-0.39691067
42	0x3f2aa403	0.6665651
43	0x3f1ce3f1	0.6128531
44	0xbcf1382c	-0.02944573
45	0x3e21434e	0.15748331
46	0x3ec7bf08	0.39012933
47	0xbf122f82	-0.5710374
48	0xbec85f77	-0.39135334
49	0x3e19af50	0.15008283
50	0x3e32cc7b	0.17460816
51	0x3e782457	0.24232613
52	0x3f0041b1	0.5010024
53	0x3e7514d9	0.23933734
54	0xbeae3226	-0.34022635
55	0xbed028d5	-0.40656152
56	0x3d92d273	0.07169046
57	0x3ddd706a	0.10812457
58	0xbeccacc8	-0.39975572
59	0xbd465693	-0.048422407
60	0xbef9ecf0	-0.4881358
61	0xbe00090c	-0.12503451
62	0x3ea86d24	0.32895768
63	0xbc9c4979	-0.019078003
64	0x3e0f089d	0.1396813
65	0x3eb8f7c6	0.36126536
66	0x3c116e90	0.008876458
67	0x3e18635a	0.1488165
68	0xbedc17a3	-0.42986783
69	0x3ee3b2cd	0.44472352
70	0x3e9b453a	0.30326253
71	0x3c78ab51	0.015177564
72	0xbe9f86c4	-0.31157506
73	0xbee66523	-0.44999036
74	0xbd948659	-0.07252187
75	0x3e8a7503	0.27042398
76	0x3f284340	0.65727615
77	0x3e871519	0.26383284
78	0x3d49e820	0.049293637
79	0xbee95ee1	-0.455802
80	0x3c6a006e	0.014282329
81	0x3d90755b	0.07053634
82	0x3ecc9b70	0.3996234
83	0x3e95761a	0.29191667
84	0x3ee3c284	0.4448434
85	0x3cc0da28	0.023541525
86	0xbee23691	-0.44182256
87	0xbe57cf53	-0.21075182
88	0x3dd77b20	0.10521531
89	0x3e87eb7c	0.26546848
90	0xbd83ea7b	-0.06441208
91	0x3e599873	0.21249561
92	0xbef3c707	-0.47612783
93	0x3c802e91	0.015647205
94	0xbe3f35ef	-0.18672918
95	0x3e16e644	0.14736277
96	0xbeaf20b0	-0.34204626
97	0xbe6fdab1	-0.23423268
98	0x3e36d653	0.17855196
99	0xbecb35b8	-0.39689422
100	0x3e6251e9	0.22101559
101	0x3ce42330	0.02784881
102	0xbec3ebd0	-0.38265848
103	0x3dd4274b	0.10359057
104	0x3e2b05c3	0.16701417
105	0x3e6380b2	0.22217062
106	0xbea9d9ce	-0.33173984
107	0x3d169276	0.03676077
108	0xbdb8989a	-0.090134814
109	0x3e2cb72a	0.16866747
110	0xbe75203c	-0.23938078
111	0x3ee05ea2	0.438222
112	0x3e195035	0.14972003
113	0xbec4e2a9	-0.38454178
114	0xbf432f48	-0.7624402
115	0xbf0a1a15	-0.5394605
116	0x3e9daf0f	0.30797622
117	0x3e5b8543	0.21437554
118	0xbd0aed3b	-0.033917647
119	0xbd404680	-0.046942234
120	0xbf2d5237	-0.67703575
121	0xbe2b9160	-0.16754675
122	0x3f3576d1	0.70884424
123	0x3e35c51a	0.1775097
124	0xbf1e6b34	-0.6188233
125	0x3f3664fd	0.71247846
126	0x3eaaa371	0.3332782
127	0xbcf5a9df	-0.029988227
128	0x3e46144e	0.19343683
129	0x3d9cfbc2	0.076652065
130	0x3e598d68	0.21245348
131	0x3eda7394	0.42666304
132	0xbd8ee525	-0.069772996
133	0xbf329718	-0.697618
134	0x3ea890ca	0.32922965
135	0xbd491713	-0.04909427
136	0x3e900554	0.28129065
137	0xbd90c0c7	-0.07068019
138	0x3ea8ca95	0.32967058
139	0xbf0837d2	-0.53210175
140	0x3f04340d	0.51641923
141	0xbeac5a40	-0.33662605
142	0x3e94cc11	0.2906194
143	0xbe7e9901	-0.24863054
144	0xbeb8c589	-0.36088207
145	0xbd8348bf	-0.064103596
146	0x3e3b2d4a	0.18278995
147	0xbdd8d5c1	-0.10587645
148	0xbe0d23b6	-0.13783154
149	0xbf15be11	-0.58493143
150	0x3ea6686c	0.32501543
151	0x3e1bafd5	0.15203793
152	0x3e4ab8ed	0.19797106
153	0x3cb598d6	0.022167604
154	0xbdf3e31d	-0.11908553
155	0x3e3213b1	0.17390324
156	0x3d80c3e3	0.062873624
157	0xbe248b41	-0.16068746
158	0xbe6af2f1	-0.22944237
159	0xbd75bf83	-0.059997093
160	0xbe822e37	-0.25425884
161	0xbccf22ef	-0.025285212
162	0xbf2de0a9	-0.6792093
163	0x3ea4e677	0.3220708
164	0x3da1a81d	0.07893393
165	0xbd75e33f	-0.060031172
166	0x3f0a51ef	0.5403127
167	0xbe992cff	-0.29917142
168	0x3e634194	0.22192985
169	0xbef6156c	-0.4806322
170	0xbdfc0ed3	-0.12307515
171	0x3f04a50a	0.5181433
172	0x3dca5689	0.098797865
173	0x3f22b55b	0.63557976
174	0xbf08fba3	-0.5350897
175	0x3eb6e1a7	0.35719034
176	0xbead232b	-0.33815894
177	0x3e1458e4	0.14487034
178	0xbdd2ab21	-0.102865465
179	0x3e56072e	0.20901176
180	0x3f0773a8	0.5291085
181	0x3e47567f	0.1946659
182	0xbe16e88d	-0.14737149
183	0x3e6c150b	0.23054902
184	0xbe0b5a54	-0.13608676
185	0x3e8ba4ea	0.27274257
186	0x3e8ad066	0.2711212
187	0x3e273504	0.16328818
188	0xbe06ebd6	-0.13175902
189	0x3eb03b17	0.34420082
190	0x3e3efc40	0.18650913
191	0x3e1188ee	0.14212391
192	0xbe8d98cf	-0.27655646
193	0x3f029df9	0.510223
194	0x3ef075fb	0.46965012
195	0x3e832ee7	0.2562172
196	0x3eae3731	0.34026483
197	0x3e345662	0.17611077
198	0x3d26021e	0.040529363
199	0xbe95cf96	-0.29259938
200	0x3e426d4a	0.18987003
201	0x3e401d2c	0.18761128
202	0x3ce64551	0.028109225
203	0xbe8b9413	-0.2726141
204	0x3c1c3b3b	0.009535606
205	0xbde64c19	-0.11244983
206	0xbeebb461	-0.46036056
207	0xbe8ac8f4	-0.2710644
208	0xbdc2ffb4	-0.09521428
209	0x3ebfd513	0.3746725
210	0xbe8b59fe	-0.27217096
211	0x3dde14d2	0.10843815
212	0xbe821d32	-0.254129
213	0x3f183d52	0.5946857
214	0xbf182039	-0.5942417
215	0xbf626ec2	-0.88450253
216	0x3efbd947	0.49189207
217	0x3d9c0a28	0.07619125
218	0xbf1640f8	-0.58692884
219	0x3e498d0b	0.1968271
220	0xbe7e5dad	-0.24840422
221	0x3ecbb517	0.39786598
222	0xbe0b3371	-0.13593842
223	0xbdaa7415	-0.08322922
224	0x3e12b0f9	0.14325322
225	0x3e1b320c	0.1515581
226	0x3ea15114	0.3150717
227	0x3d9fd9a5	0.07805184
228	0x3e21da68	0.15805972
229	0x3e19ec26	0.1503149
230	0xbd5460a5	-0.05184998
231	0xbe8c8227	-0.27443048
232	0xbe8e09d0	-0.2774186
233	0xbdbba50a	-0.09162338
234	0xbeea3642	-0.4574452
235	0xbe972032	-0.2951675
236	0xbe31174c	-0.17294043
237	0x3d8fb7c0	0.070174694
238	0x3df30190	0.118655324
239	0x3da3ae33	0.0799221
240	0xbeba7712	-0.36418968
241	0xbe9b5aae	-0.3034262
242	0x3e6d9405	0.23200996
243	0xbdee1c8b	-0.11626538
244	0x3ca8278c	0.02052667
245	0x3ef9f104	0.48816693
246	0xbec79cce	-0.3898682
247	0x3c59ee1b	0.013301398
248	0x3e152b36	0.14567265
249	0xbe7b10ad	-0.2451808
250	0xbe86b4d8	-0.26309848
251	0xbef4eddc	-0.47837722
252	0x3e02ad33	0.12761383
253	0x3eca513d	0.39515105
254	0xbe42f9f5	-0.19040664
255	0xbf27e712	-0.6558696

network_body._body_endoder.seq_layers.0.bias f4 [128]
0	0x3b74450a	0.0037272596
1	0xbbb7780c	-0.0055990275
2	0x00000000	0.0
3	0x00000000	0.0
4	0x3aebedc7	0.001799994
5	0xbb638ed8	-0.0034722593
6	0xb9189947	-0.0001455295
7	0xa76e4d9d	-3.307121e-15
8	0x3a82ba42	0.0009973722
9	0x965a4d39	-1.7634267e-25
10	0xbb90fb69	-0.0044245017
11	0x00000000	0.0
12	0xbb576060	-0.003286384
13	0x3b6a59ce	0.0035759094
14	0xbb6bd513	-0.0035985156
15	0x3a5e010f	0.00084687857
16	0x22dc7412	5.9754014e-18
17	0xbbdd2403	-0.0067486777
18	0xbb50e1dd	-0.0031872906
19	0xbba4501e	-0.0050144335
20	0xba618cda	-0.00086040574
21	0x3b24ba7b	0.0025135565
22	0x98de9fa8	-5.7546867e-24
23	0x00000000	0.0
24	0x3bbc4814	0.005745897
25	0x3b422d63	0.0029629103
26	0x3b678332	0.0035326001
27	0xba6eaf2a	-0.0009105081
28	0x00000000	0.0
29	0x2da34319	1.8560752e-11
30	0x3a81dbfc	0.0009907479
31	0x3afea78b	0.0019428594
32	0xba11dc21	-0.0005564113
33	0x2747a5ce	2.770668e-15
34	0x00000000	0.0
35	0x3a6e12ff	0.000908181
36	0x00000000	0.0
37	0x3ad401e2	0.0016174878
38	0x00000000	0.0
39	0x3b5834e5	0.0032990512
40	0x00000000	0.0
41	0x3a5e16e0	0.00084720366
42	0xbb9f0342	-0.0048526833
43	0xaedb76ae	-9.980049e-11
44	0x1bb5e90e	3.0094546e-22
45	0x3ad138a9	0.0015962321
46	0x00000000	0.0
47	0xba9b2a75	-0.0011838215
48	0x38105143	3.4407956e-05
49	0x3bbebf24	0.0058211256
50	0x00000000	0.0
51	0x3a33f9d9	0.00068655383
52	0x3ba50f0d	0.0050371946
53	0x3a84bf20	0.001012776
54	0x3b84a71d	0.004048242
55	0x3b903cbd	0.004401772
56	0xbb3ffaaa	-0.0029293695
57	0x3b66d8c0	0.0035224408
58	0xbaad84ba	-0.0013238408
59	0xbb122e23	-0.0022305332
60	0x3a1936ad	0.0005844634
61	0xbac38fec	-0.0014920211
62	0x1076f0a7	4.8700337e-29
63	0x0f5553ef	1.0517876e-29
64	0x00000000	0.0
65	0x00000000	0.0
66	0x3a0d7a57	0.0005396953
67	0x97a809ea	-1.0859248e-24
68	0x00000000	0.0
69	0x3a86e9ad	0.001029303
70	0x00000000	0.0
71	0x3abc6b7f	0.0014375298
72	0xbb725e00	-0.0036982298
73	0xbabae6ee	-0.0014259496
74	0x3a9716ef	0.001152722
75	0x3b04b87c	0.0020251563
76	0x00000000	0.0
77	0xbb69caae	-0.0035673785
78	0xbb952467	-0.0045514586
79	0x251c3ac6	1.3550756e-16
80	0xbb961fbb	-0.0045814193
81	0xab75e4a8	-8.735881e-13
82	0xbbb6a5b0	-0.0055739507
83	0xbbded922	-0.0068007866
84	0xbb2fbcac	-0.0026815338
85	0x00000000	0.0
86	0x00000000	0.0
87	0xbb75a219	-0.003748065
88	0x3aac02a5	0.0013123347
89	0xbb68bdfb	-0.0035513628
90	0xbb88feb5	-0.004180754
91	0x31880ffd	3.9599386e-09
92	0x0efa25ae	6.1666042e-30
93	0x39ca46ec	0.00038581283
94	0x3ab2208b	0.0013590021
95	0x00000000	0.0
96	0x00000000	0.0
97	0x38f4e4b7	0.00011677428
98	0xbb3dc487	-0.002895625
99	0x00000000	0.0
100	0x3aca7e28	0.0015448974
101	0xbb58bb58	-0.003307065
102	0xbb55b828	-0.0032610986
103	0x3b337e06	0.0027388348
104	0xbb677ed8	-0.0035323408
105	0xba0d70fa	-0.0005395558
106	0x3ace859d	0.0015756373
107	0x3b2ca3f9	0.0026342853
108	0x00000000	0.0
109	0x3b048b0a	0.0020224475
110	0x2a1fc728	1.4191133e-13
111	0x3c00a250	0.007851198
112	0x00000000	0.0
113	0xafd57896	-3.8830156e-10
114	0x0f35fd18	8.972733e-30
115	0x3b0050f4	0.0019579502
116	0xba273b26	-0.0006379358
117	0xbb19d89d	-0.002347506
118	0x3b4d4d26	0.0031326502
119	0xbb3d6fa4	-0.0028905654
120	0xba55ea9f	-0.00081602664
121	0xbb2c99e3	-0.002633684
122	0xba09c5fe	-0.00052556384
123	0x3b7cde40	0.003858462
124	0x00000000	0.0
125	0x3b7ee5c7	0.0038894282
126	0x00000000	0.0
127	0xba8d0ac1	-0.0010760651

network_body._body_endoder.seq_layers.2.weight f4 [128, 128]
0	0xbd7ea7cb	-0.06217174
1	0xbe1168f4	-0.14200193
2	0x3d70ba36	0.058771335
3	0xbc8d7313	-0.017266786
4	0x3ddebb06	0.10875516
5	0x3c9510d1	0.018196495
6	0xb9e309e3	-0.0004330418
7	0xbdcfcd3c	-0.10146567
8	0x3d2b7866	0.041862868
9	0xbde4e8ef	-0.11177241
10	0x3a8df7a3	0.0010831248
11	0xbd901f5c	-0.07037231
12	0x3db9cfef	0.09072863
13	0xbd4b4791	-0.049628798
14	0x3cfbcfc5	0.03073872
15	0xbcb3701b	-0.021904042
16	0x3e209469	0.15681614
17	0xbdf38ee2	-0.11892487
18	0x3d1a8ac5	0.037729997
19	0x3c36c511	0.011155383
20	0x3d2aa434	0.041660503
21	0xbd0c1533	-0.034199905
22	0x3dab106a	0.0835274
23	0x3d2eb2b0	0.04265088
24	0xbbe08eda	-0.0068529667
25	0xbe10641f	-0.14100693
26	0x3dce4432	0.10071601
27	0xbd112e15	-0.035444338
28	0xbd7af405	-0.06126787
29	0xbacc0ad7	-0.0015567195
30	0xbdcfc50b	-0.10145005
31	0x3daa4011	0.08313001
32	0xbd5494ee	-0.051899843
33	0x3d67ac5c	0.05656086
34	0xbc46b84e	-0.012128903
35	0x3afbfbf4	0.0019224868
36	0x3caa3efa	0.020781983
37	0x3bf85cc7	0.0075794193
38	0x3e0a4515	0.13502915
39	0x3c501f6b	0.012702803
40	0xbe0601be	-0.13086602
41	0xbcf9301c	-0.030418448
42	0x3dc754b4	0.09732953
43	0xbcd4b31b	-0.02596431
44	0x3ded809a	0.115967944
45	0xbd8d77a6	-0.06907587
46	0x3de98d18	0.114038646
47	0x3d39389d	0.045220006
48	0x3dc7384b	0.09727534
49	0x3d3f30af	0.046677288
50	0xbd857170	-0.06515777
51	0xbe3dce65	-0.18535765
52	0xbde5d8e7	-0.112230115
53	0x3db6a7ec	0.08918747
54	0x3dc5c2bd	0.09656284
55	0xbe0b8bc0	-0.13627529
56	0xbd1ec457	-0.038761463
57	0xbd5723b8	-0.0525243
58	0x3d79c77c	0.06098126
59	0xbe265b43	-0.16245751
60	0xbdc2569c	-0.09489176
61	0x3dc3609f	0.095399134
62	0x3d1cb3c1	0.038257364
63	0xbda8c3e5	-0.08240489
64	0xbc574b26	-0.013140475
65	0xbd3650a9	-0.044510517
66	0xbd3dc921	-0.04633439
67	0xbd7f7646	-0.062368654
68	0x3de53e65	0.111935414
69	0x3d808b8b	0.06276616
70	0x3ce013e3	0.027353233
71	0x3d29d342	0.041461237
72	0xbd369d5c	-0.044583663
73	0xbddd6c58	-0.108116806
74	0xbc201ab6	-0.009771993
75	0x3e29e45d	0.1659102
76	0x3c6c3bb3	0.01441853
77	0x3cc31589	0.02381398
78	0x3dcd0f71	0.10012711
79	0xbd020aae	-0.031748466
80	0x3c94a285	0.018143902
81	0x3d75be73	0.05999608
82	0xbe3661fc	-0.17810816
83	0x3e0a53fe	0.13508603
84	0xbd3aba27	-0.045587685
85	0xbd86cb93	-0.065817975
86	0x3da79600	0.08182907
87	0x3c102861	0.00879869
88	0x3df4ac9e	0.119469866
89	0x3d244ba9	0.040111218
90	0xbcadb125	-0.021202633
91	0xbdd316fa	-0.10307117
92	0xbd5ca232	-0.05386562
93	0x3d8a3b18	0.067495525
94	0xbdee6f2b	-0.11642297
95	0xbcab9c40	-0.02094853
96	0x3dc0d79d	0.09416125
97	0x3d4a9bb5	0.0494649
98	0xbdb8605c	-0.09002754
99	0xbcd9a62f	-0.0265685
100	0x3dbc8508	0.09205061
101	0x3dd8227a	0.10553451
102	0xbcdabde2	-0.026701871
103	0x3ca0d8a5	0.019634554
104	0x3d916c7f	0.07100772
105	0x3e33e86d	0.17569132
106	0x3d008116	0.031373106
107	0xbdb51c42	-0.088432804
108	0xbdac63be	-0.08417462
109	0xbe673c32	-0.22581556
110	0x3c7836da	0.015149796
111	0x3dd948f6	0.10609619
112	0x3d0597e4	0.032615557
113	0x3d29c5ee	0.041448526
114	0x3d0b2a0b	0.033975642
115	0xbd1cb7a0	-0.038261056
116	0xbd0a9f97	-0.033843603
117	0xbd4f6bce	-0.05063992
118	0xbe4b421a	-0.19849434
119	0x3d9c1205	0.076206245
120	0xbca9d030	-0.020729154
121	0xbe2aa5ec	-0.16664857
122	0xbdd5e126	-0.10443334
123	0x3d6f5853	0.058433842
124	0x3eabef40	0.3358097
125	0x3c9491ed	0.01813599
126	0xbdae4ec8	-0.0851112
127	0x3e18dd7c	0.1492824
128	0xbd486c01	-0.048931126
129	0xbd5d8cda	-0.054089405
130	0xbdb4396d	-0.088000156
131	0x3e14b51d	0.14522214
132	0xbc2f44c4	-0.010697547
133	0xbd2454ac	-0.040119812
134	0xbe0bc2df	-0.13648556
135	0xbbb3b414	-0.0054841135
136	0xbe1e9989	-0.15488257
137	0xbb5b8e25	-0.0033501473
138	0x3c912a61	0.017720403
139	0xbe2f0708	-0.17092526
140	0xbce7fa9a	-0.028317738
141	0xbde396dc	-0.111127585
142	0xbdc7d5ff	-0.097576134
143	0xbd6fe8ad	-0.058571506
144	0x3b94d70f	0.0045422385
145	0x3d0aa52e	0.033848934
146	0x3c800dbe	0.015631553
147	0x3d811c64	0.06304243
148	0x3ca4504a	0.020057816
149	0xbde547ab	-0.1119531
150	0x3cc7149b	0.024301818
151	0xbe1c3aae	-0.1525676
152	0xbcf61b09	-0.030042188
153	0xbb27a064	-0.0025577778
154	0xbd1bd57a	-0.038045384
155	0x3d34faf4	0.04418464
156	0xbd3a31bf	-0.045457598
157	0x3c6f3b46	0.014601534
158	0xbd9fe398	-0.07807082
159	0x3d64380a	0.055717506
160	0xbd777471	-0.06041378
161	0xbd91b310	-0.071142316
162	0xbe423f43	-0.18969445
163	0x3da1c06c	0.0789803
164	0xbdeeb2dc	-0.116552085
165	0xbc67a05b	-0.014137353
166	0x3e1b8764	0.15188366
167	0xbe09d1be	-0.13458917
168	0xbe0dbf40	-0.13842487
169	0x3e360ec3	0.17779069
170	0x3d113c07	0.035457637
171	0xbdce8186	-0.100832984
172	0xbe256e8d	-0.16155453
173	0xbda964c8	-0.082711756
174	0x3d0a1d5d	0.03371941
175	0xbe179b73	-0.14805393
176	0x3c7b5ad4	0.015341479
177	0x3daccdaa	0.08437665
178	0x3cc42c72	0.023946974
179	0xbd1801b3	-0.037110996
180	0xbb8dda3c	-0.004328994
181	0x3d046cd1	0.032330338
182	0x3d5e5ba7	0.054286625
183	0xbd6f8b54	-0.058482483
184	0xbd6100ca	-0.054932393
185	0xbdf98587	-0.121836714
186	0x3da66a23	0.08125713
187	0x3d363f1a	0.044493772
188	0xbe229d9d	-0.15880437
189	0xbdd7c618	-0.1053583
190	0xbc933932	-0.017971609
191	0xbdab9d0e	-0.08379565
192	0x3ca7e5e8	0.02049537
193	0xbe1b64f6	-0.15175232
194	0xbd552211	-0.05203444
195	0x3d2c5e1d	0.04208194
196	0x3e667f0e	0.22509405
197	0x3e055be8	0.1302334
198	0x3de24379	0.11048026
199	0xbd30eb8c	-0.043193385
200	0x3dc06ea7	0.09396105
201	0x3da4957c	0.080363244
202	0x3dd27a05	0.1027718
203	0xbc87a58a	-0.016558427
204	0xbd96dc79	-0.073662706
205	0x3d8368f0	0.064164996
206	0x3da7fe16	0.0820276
207	0x3db8c0b7	0.090211324
208	0xbc4a909c	-0.012363579
209	0xbd252962	-0.04032267
210	0x3d89c4c6	0.06726985
211	0x3b91373f	0.0044316347
212	0x3d62cd86	0.055371784
213	0x3c5c6356	0.013451418
214	0xbd99f182	-0.07516767
215	0xbc38954d	-0.011266065
216	0x3ce5f945	0.028072963
217	0xbb9c161f	-0.004763379
218	0xbdd23728	-0.102644265
219	0x3d539c54	0.051662758
220	0xbdad4ebf	-0.08462285
221	0x3d7eedc7	0.06223848
222	0xbd2e396a	-0.042535223
223	0x3cc32fac	0.023826443
224	0x3dbab537	0.09116595
225	0xbd14cf4a	-0.0363305
226	0x3c9a2821	0.018817963
227	0x3db12e66	0.08651428
228	0xbdbf8265	-0.09351043
229	0xbd069aac	-0.03286235
230	0xbe0076e4	-0.12545353
231	0x3c801bda	0.01563828
232	0xbd854a2d	-0.065082885
233	0x3e0c8597	0.13722835
234	0x3d90958d	0.070597745
235	0xbd5e6a0f	-0.054300364
236	0xbd7afdee	-0.061277322
237	0xbaefde6b	-0.0018300539
238	0xbd8a7b27	-0.06761771
239	0x3d0d3981	0.034478668
240	0x3d3dabbc	0.046306357
241	0xbc86666e	-0.016406264
242	0x3dbf81a0	0.09350896
243	0x39f04074	0.00045824389
244	0xbd8bac8b	-0.06820019
245	0x3d75eb31	0.06003875
246	0x3c421ed9	0.011848175
247	0x3d92ebbc	0.07173869
248	0xbd5a90ec	-0.053360865
249	0x3c848681	0.016177418
250	0xbcb40159	-0.021973299
251	0x3ca5acce	0.020224001
252	0x3c5410b1	0.012943433
253	0x3a6165ad	0.000859822
254	0x3d5c852b	0.053837936
255	0x3da0e1d8	0.07855576

network_body._body_endoder.seq_layers.2.bias f4 [128]
0	0x39399cd1	0.00017701394
1	0xbb99a748	-0.004689131
2	0xbb7362a8	-0.003713766
3	0x3ad0606c	0.0015897877
4	0x3b300109	0.0026856086
5	0x3aaca6b6	0.0013172242
6	0xbafb5f81	-0.0019178243
7	0x3ad4bd63	0.0016230758
8	0x9dd5873e	-5.6520468e-21
9	0xbabd9564	-0.0014464078
10	0x3a1860e4	0.00058127777
11	0x39e0ba30	0.0004286333
12	0x3b46129e	0.00302235
13	0x3b2c28f5	0.002626953
14	0xbb589611	-0.003304843
15	0x3b1d090f	0.0023961698
16	0xb986ccb3	-0.00025710984
17	0xbbc2ee41	-0.0059488122
18	0xacbc40e2	-5.350485e-12
19	0x3b3b2987	0.0028558688
20	0xbae04f11	-0.0017113407
21	0xba91de2e	-0.0011128837
22	0xbb6b69ff	-0.0035921333
23	0x00000000	0.0
24	0x3b860a65	0.0040905946
25	0xbab2af19	-0.0013632505
26	0x3af4dbf6	0.0018681276
27	0x3b8e3010	0.0043392256
28	0xbac62cd2	-0.0015119559
29	0x39850129	0.000253686
30	0xbacd0718	-0.0015642373
31	0xb833b748	-4.284762e-05
32	0xbb082083	-0.0020771332
33	0x3aa307cf	0.001243824
34	0xbb2f07e3	-0.0026707582
35	0xb3edecad	-1.10792236e-07
36	0x3a3bde55	0.0007166614
37	0xbbd33ebb	-0.006446687
38	0x3b5fbcb7	0.0034139582
39	0xbb74959a	-0.0037320615
40	0xbb89c6de	-0.004204615
41	0x00000000	0.0
42	0xbb9b8b56	-0.0047468347
43	0x3b2c2a52	0.0026270342
44	0x3a063962	0.0005120245
45	0x3ae4ade8	0.0017446848
46	0x00000000	0.0
47	0xa925342d	-3.6682615e-14
48	0x3acc645a	0.0015593872
49	0x3b5406a9	0.0032352603
50	0x3adee6a7	0.0017005996
51	0xbb510d0a	-0.003189864
52	0x3aba4ae7	0.0014212996
53	0x3acf7702	0.0015828314
54	0xba9543e1	-0.0011388027
55	0xbaf3c8c2	-0.0018599259
56	0x1293b06e	9.320498e-28
57	0xbb404191	-0.0029335956
58	0xbb29b329	-0.0025894141
59	0x00000000	0.0
60	0xbaec3a33	-0.0018022716
61	0x00000000	0.0
62	0xbb843e4f	-0.004035748
63	0x83c8898b	-1.1786522e-36
64	0x3b702c29	0.0036647415
65	0xbaeb86b3	-0.0017969221
66	0x00000000	0.0
67	0xb902f791	-0.00012489992
68	0x00000000	0.0
69	0xa439518e	-4.018456e-17
70	0xbb5da8d7	-0.003382256
71	0x3aa7cec4	0.001280271
72	0xbb1d9b76	-0.002404896
73	0x3b26a06f	0.0025425216
74	0x1eca46df	2.1416894e-20
75	0x00000000	0.0
76	0x3ba6f0f8	0.0050946437
77	0x3a89a61d	0.0010501776
78	0x100fae08	2.8335846e-29
79	0xbafba480	-0.0019198805
80	0xba36a5bb	-0.0006967445
81	0xbb19568e	-0.0023397538
82	0x39c56811	0.00037652304
83	0xba331cd1	-0.0006832602
84	0x3b9e5db2	0.0048329467
85	0x00000000	0.0
86	0xbba7dea4	-0.0051229764
87	0x3a0554d9	0.00050861906
88	0xbb80d28c	-0.003931349
89	0xba469243	-0.0007574895
90	0x00000000	0.0
91	0xb9d417d4	-0.00040453544
92	0xbb79ae3a	-0.0038098232
93	0x11876ca0	2.136619e-28
94	0xbb80b2cf	-0.0039275656
95	0xbad0e2a6	-0.0015936687
96	0xbbb64a51	-0.0055630584
97	0xbb1a973b	-0.0023588676
98	0x00000000	0.0
99	0xbaafe664	-0.0013420102
100	0xbb9b3c5d	-0.0047374205
101	0x1141fc08	1.5302679e-28
102	0xbb37bbbe	-0.0028035487
103	0xad0f6d9a	-8.152945e-12
104	0xbbb27556	-0.0054461164
105	0xbb97d24f	-0.004633225
106	0x3b547198	0.003241634
107	0xa4c662bf	-8.6036094e-17
108	0x3b6e736d	0.0036384717
109	0x398514ad	0.00025383141
110	0xbb3c54a3	-0.002873697
111	0xbad62da9	-0.0016340512
112	0x915a4cbf	-1.7220817e-28
113	0xbb76b5af	-0.0037644913
114	0x3b241501	0.0025036933
115	0x3b6b7c97	0.0035932416
116	0x3b8be417	0.004269134
117	0x3ae986cf	0.0017816665
118	0x39e75758	0.0004412483
119	0x3a6f54bf	0.00091297546
120	0x3ba6634a	0.005077754
121	0x00000000	0.0
122	0x00000000	0.0
123	0x00000000	0.0
124	0xba809b3f	-0.0009811892
125	0xbb66a5b6	-0.0035193986
126	0x0fccf738	2.0211178e-29
127	0xbb2893c0	-0.0025722831

network_body._body_endoder.seq_layers.4.weight f4 [128, 128]
0	0x3d7acbcd	0.061229516
1	0x3e2ba2b6	0.16761288
2	0xbd96f9f7	-0.07371896
3	0x3b5e0bae	0.0033881473
4	0xbe75fae4	-0.24021488
5	0x3ccd6fc9	0.025077717
6	0x3db4c6d5	0.08826987
7	0xbc933464	-0.017969318
8	0xbd2bac84	-0.04191257
9	0x3dcfe4a8	0.101510346
10	0x3db7352f	0.08945691
11	0x3d0aa688	0.033850223
12	0xbc1ca0df	-0.009559839
13	0x3d467aab	0.04845683
14	0xbd027374	-0.031848386
15	0xbd384988	-0.044992
16	0xbd6e45a8	-0.058171898
17	0xbd397e99	-0.04528675
18	0x3d936d53	0.07198586
19	0xbe1d9eca	-0.15392604
20	0x3deb9216	0.11502473
21	0xbd30d169	-0.04316846
22	0xbd0f4deb	-0.034986418
23	0x3da7d370	0.081946254
24	0x3d396f4f	0.045272168
25	0xbc3bebb0	-0.0114697665
26	0x3e198ff8	0.14996326
27	0xbde66bea	-0.11251052
28	0xbd730fda	-0.05934129
29	0xbdb2ec67	-0.087364964
30	0xbc556961	-0.013025613
31	0x3e030603	0.12795262
32	0xbdc28efb	-0.094999276
33	0xbdc16a30	-0.09444082
34	0x3dd2f3c3	0.103004
35	0xbe0f01b3	-0.13965492
36	0x3e33aa03	0.17545323
37	0x3de52f86	0.11190705
38	0xbe049165	-0.12946089
39	0xbe5422f3	-0.20716457
40	0xbd29dce7	-0.041470435
41	0x3d2217e9	0.039573584
42	0x3da8c4ca	0.082406595
43	0xbd16e7ce	-0.03684216
44	0x3c0cfc80	0.008605123
45	0xbd435ed8	-0.047697872
46	0xbe161fb5	-0.14660533
47	0xbd336e71	-0.043806497
48	0xbdb73b8a	-0.08946903
49	0xbce6a03c	-0.028152578
50	0x3e2442ac	0.16041058
51	0x3dfbf491	0.12302507
52	0xbe879a15	-0.26484743
53	0x3db4941a	0.08817311
54	0xbcdb11db	-0.026741913
55	0xbcc85414	-0.024454154
56	0xbc7accac	-0.015307587
57	0x3bbfebd4	0.0058569703
58	0x3d8e8b17	0.06960123
59	0xbc62a262	-0.01383266
60	0xbe5028e9	-0.20328106
61	0x3d969943	0.07353451
62	0xbe1642bc	-0.14673895
63	0xbd9c3f0a	-0.07629211
64	0xbcffdb1e	-0.031232413
65	0xbd8e7186	-0.069552466
66	0xbdcf8164	-0.10132101
67	0xbe08387a	-0.13302794
68	0xbd88a99f	-0.06672978
69	0xbd8bdb51	-0.06828941
70	0xbe87960a	-0.26481658
71	0xbcff7d13	-0.03118757
72	0x3d81f23a	0.06345029
73	0xbdc11c41	-0.09429217
74	0x3e2191a7	0.15778218
75	0x3dea8374	0.11450854
76	0x3d05b711	0.03264529
77	0xbd24d0b6	-0.040238105
78	0xbc3400b4	-0.010986496
79	0x3d9d1424	0.07669857
80	0xbc34c407	-0.011033065
81	0x3d73432f	0.059390243
82	0x3a79abf7	0.0009524221
83	0xbcf86fe6	-0.030326795
84	0x3e3aba05	0.18235023
85	0xbdb36c7f	-0.08760928
86	0x3ce537a8	0.02798064
87	0xbcdb2bbf	-0.026754258
88	0xbd1537c5	-0.03643014
89	0xbcaa0251	-0.020753058
90	0xbd0772a3	-0.03306831
91	0xbce70415	-0.028200189
92	0x3cc3f0a6	0.023918461
93	0xbd395662	-0.045248397
94	0x3cda935d	0.026681596
95	0x3d8a2fa0	0.06747365
96	0xbe809994	-0.2511717
97	0xbd35445a	-0.04425464
98	0x3da8bcfc	0.08239171
99	0x3cfe6df2	0.031058285
100	0xbcfe881c	-0.031070761
101	0xbd29764c	-0.041372582
102	0xbd67eb76	-0.056621037
103	0xbe181725	-0.14852579
104	0x3e012807	0.12612925
105	0x3d9b84ee	0.07593714
106	0xbca8e3f2	-0.020616505
107	0xbd95ef70	-0.0732106
108	0x3b028b7b	0.0019919563
109	0x3c188ce9	0.009310939
110	0xbc8bbdbe	-0.01705825
111	0xbd84482a	-0.06459077
112	0xbd9143e2	-0.07093026
113	0x3bcae588	0.006191913
114	0xbb8d1163	-0.004305051
115	0xbcdb7b58	-0.026792213
116	0xbd59efed	-0.053207327
117	0x3da2be31	0.079464324
118	0x3cd47f17	0.025939507
119	0x3b924021	0.004463211
120	0x3db7ec75	0.089806475
121	0xbdb55feb	-0.088561855
122	0xbd139d61	-0.03603876
123	0xbd02f4df	-0.03197181
124	0xbbef5da3	-0.0073048635
125	0xbd8f607c	-0.07000825
126	0x3d009862	0.031395324
127	0x3d802f37	0.062590055
128	0xbd78e7e3	-0.06076802
129	0x3d371968	0.044701964
130	0x3dd0244c	0.10163173
131	0xbc93528e	-0.017983701
132	0x3d83bcb7	0.06432479
133	0xbe071c0e	-0.13194296
134	0xbd7d406f	-0.061829027
135	0xbd4da7ce	-0.05020886
136	0xbd96b247	-0.073582225
137	0xbda54627	-0.08070021
138	0x3d8fdc79	0.07024474
139	0xbc785fe4	-0.015159581
140	0xbe701080	-0.23443794
141	0xbe219f62	-0.15783456
142	0x3dd55170	0.104159236
143	0x3b351a36	0.002763403
144	0xbd8b36f0	-0.06797588
145	0xbdcdd429	-0.10050232
146	0x3dbb01ec	0.09131226
147	0x3e223a39	0.15842523
148	0x3d3966b8	0.045263976
149	0xbde3dc8c	-0.1112605
150	0xbcafa68a	-0.021441717
151	0x3d633bec	0.055477068
152	0xbe4c5d40	-0.19957447
153	0xbe376884	-0.17910963
154	0x3d7566ad	0.059912372
155	0xbc8662c8	-0.016404524
156	0x3dee2753	0.11628594
157	0x3d6f1aed	0.058375288
158	0x3da02391	0.07819284
159	0xbd8659aa	-0.06560071
160	0x3d39cf28	0.045363575
161	0xbd17edd6	-0.037092052
162	0xbe132421	-0.14369251
163	0x3db49af9	0.08818621
164	0x3ba580db	0.005050761
165	0xbdd74ed7	-0.105130844
166	0xbd233ed2	-0.039854832
167	0xbb9375ce	-0.0045001274
168	0xbc99d677	-0.018779023
169	0xbe1adc43	-0.15123086
170	0xbd20d5e6	-0.03926649
171	0xbd3e81ab	-0.04651038
172	0x3d1e224e	0.038606934
173	0xbd53d155	-0.051713306
174	0xbdfcd859	-0.123459525
175	0x3d1db3fa	0.038501717
176	0xbcc8bd91	-0.024504455
177	0x3d88d8c1	0.066819675
178	0x3d092dd7	0.033490982
179	0xbcd2df1e	-0.025741156
180	0xbc5b94e9	-0.013402202
181	0xbd8a50c2	-0.067536846
182	0x3d8b2f1f	0.06796097
183	0x3d3e2bac	0.046428367
184	0x3d91d50b	0.07120713
185	0xbda9e925	-0.08296422
186	0x3e30822d	0.17237158
187	0x3bb704d7	0.0055852938
188	0x3de46ebb	0.11153933
189	0x3d370ad5	0.044688065
190	0xbc2a6e71	-0.010402308
191	0xbcbb3a89	-0.02285506
192	0x3df94b3b	0.12172552
193	0x3e1b8f9c	0.15191501
194	0x3dde2821	0.10847498
195	0x3d724ab4	0.059153274
196	0x3d1d6236	0.03842374
197	0xbd99daaa	-0.0751241
198	0x3cc066d3	0.02348653
199	0x3de859f4	0.11345282
200	0x3dbf3054	0.0933539
201	0xbb84fa8c	-0.004058188
202	0x3da54c32	0.08071174
203	0xbab31e0d	-0.0013665572
204	0x3d81f7fe	0.06346129
205	0xbd428741	-0.04749227
206	0xbc2964eb	-0.010339002
207	0x3d408345	0.04700019
208	0xbbb57c53	-0.0055385022
209	0xbd2b51a5	-0.04182591
210	0x3d9c1afd	0.07622335
211	0x3bbebbdf	0.005820736
212	0x3dab8924	0.08375767
213	0xbda84a8a	-0.08217342
214	0x3e3bb1f0	0.18329597
215	0x3beb1b3d	0.007174878
216	0x3cb5c870	0.022190303
217	0xbd91f879	-0.071274705
218	0x3d3b3c5c	0.04571186
219	0x3d8d5ab4	0.06902066
220	0x3c6b9316	0.01437833
221	0xbd5cbc8c	-0.05389075
222	0xbdc570be	-0.096406445
223	0xbccfedbc	-0.025381915
224	0xbb71b3c9	-0.0036880842
225	0xbdbf75a8	-0.09348613
226	0x3da2fa5e	0.0795791
227	0xbddfa3a9	-0.109198876
228	0x3c6cdb6c	0.014456611
229	0x3cab36d9	0.020900177
230	0x3e2c289b	0.16812365
231	0x3cb6c3f5	0.022310236
232	0x3c5e66fc	0.013574358
233	0x3d713360	0.058886886
234	0x3d45b251	0.04826576
235	0x3e19df19	0.15026511
236	0x3dfcd8cc	0.12346038
237	0xbd456264	-0.048189536
238	0x3dbb38ee	0.09141718
239	0xbdef076b	-0.11671337
240	0xbd224188	-0.039613277
241	0x3d89f3c1	0.067359455
242	0x3dca18e2	0.09868027
243	0x3df73fda	0.120727256
244	0xbd0c1fdb	-0.034210067
245	0xbd2e0ad1	-0.042490784
246	0x3ddfd390	0.10929024
247	0xbe373bce	-0.17893907
248	0xbdcbb913	-0.099474095
249	0xbaa36b7a	-0.0012467944
250	0xbe1935f3	-0.14961986
251	0xbdfe1cd4	-0.12407842
252	0x3d280c8b	0.041027587
253	0x3d94d3eb	0.07266983
254	0x3df25b95	0.11833874
255	0xbdeec053	-0.11657777

network_body._body_endoder.seq_layers.4.bias f4 [128]
0	0x3b01410c	0.001972261
1	0x1ce95bdc	1.5442392e-21
2	0xbaaf9135	-0.0013394715
3	0xbb0a2117	-0.0021076852
4	0x24bcb663	8.184098e-17
5	0xbb23e9ef	-0.0025011261
6	0xbb8d16b7	-0.0043056863
7	0x3b0d05c1	0.0021518322
8	0xbb097bfd	-0.0020978444
9	0xba99568c	-0.0011698767
10	0x3b13649c	0.0022490388
11	0xbb8aaa8c	-0.0042317566
12	0xbaa13b02	-0.0012300911
13	0x00000000	0.0
14	0xba9c11ca	-0.0011907157
15	0x3a28ad02	0.00064344716
16	0xbb3a88ab	-0.0028462808
17	0x26e03ee1	1.5560166e-15
18	0x2990161c	6.39872e-14
19	0xbb64132f	-0.0034801473
20	0xbaf1f6bb	-0.0018460372
21	0xb956fe73	-0.0002050342
22	0x3b11dde3	0.00222575
23	0x3b28a867	0.0025735141
24	0x3a7b10f8	0.00095774187
25	0x13f250b5	6.116897e-27
26	0xba07a3ea	-0.00051742664
27	0xbb7fe60a	-0.0039047026
28	0x3ace51d1	0.0015740936
29	0xa05599f9	-1.8092747e-19
30	0x3b6e693f	0.003637865
31	0x3b014e4e	0.001973051
32	0xbbaa25bf	-0.005192488
33	0xb9bf0e86	-0.0003644118
34	0x18e2f063	5.866236e-24
35	0xb92f0b18	-0.00016693433
36	0xba9cf286	-0.0011974133
37	0x00000000	0.0
38	0x3a186be7	0.00058144185
39	0xbb0474c1	-0.0020211192
40	0xbb77a9ec	-0.003779049
41	0xbae1361e	-0.0017182266
42	0x00000000	0.0
43	0xbad16b26	-0.0015977367
44	0x3ac858f2	0.0015285297
45	0x00000000	0.0
46	0x8c9594bf	-2.3046608e-31
47	0xbb16d920	-0.00230176
48	0xb8b0382d	-8.4027975e-05
49	0x3b084223	0.0020791374
50	0xbb882292	-0.0041545117
51	0x3b0e0367	0.0021669508
52	0xb5619d1a	-8.4047645e-07
53	0x3a3e658e	0.00072630576
54	0x172738ec	5.4032456e-25
55	0xa14777ff	-6.7582636e-19
56	0x3b190427	0.0023348422
57	0xa5839c74	-2.2830894e-16
58	0x39eca7fa	0.0004513858
59	0x00000000	0.0
60	0xaf148ccf	-1.3510547e-10
61	0xbb2e9cf1	-0.0026643837
62	0xb9dc23ac	-0.00041988248
63	0xa0d4498c	-3.5962866e-19
64	0xba7e3c2d	-0.0009698298
65	0x289a31e3	1.711907e-14
66	0x3b8a0b8f	0.0042128037
67	0xbb0c19a4	-0.0021377588
68	0x0cc9689b	3.103191e-31
69	0x3a048ba2	0.00050562073
70	0x3b79df9d	0.0038127669
71	0x306bd85d	8.579997e-10
72	0x202c98ae	1.4619484e-19
73	0x3b4f7940	0.0031657964
74	0x0314f115	4.377004e-37
75	0xbb98adc6	-0.0046593873
76	0x14e19716	2.2778787e-26
77	0xbb7d9feb	-0.0038700055
78	0x3b84d382	0.004053534
79	0xbb08de7f	-0.002088457
80	0x9f654300	-4.8548057e-20
81	0xbb66f441	-0.0035240802
82	0xbac109c1	-0.0014727638
83	0x00000000	0.0
84	0x3498c55e	2.845581e-07
85	0xbabbe5cf	-0.0014335456
86	0xa90ac24b	-3.0810678e-14
87	0xbaa47f42	-0.0012550133
88	0xb8ffaa2e	-0.00012191046
89	0x3aea0c6d	0.0017856486
90	0x3b9b658f	0.0047423313
91	0x3b8e84fb	0.0043493486
92	0x3b1ab665	0.002360725
93	0xbaf74a94	-0.001886683
94	0xba3fdc17	-0.0007318868
95	0x2cf23d9a	6.884893e-12
96	0xbb66bbf1	-0.0035207237
97	0xa81d6d33	-8.7389295e-15
98	0x3b6542dd	0.003498248
99	0x3baf4dd6	0.005349855
100	0xba8b5ba9	-0.0010632175
101	0x3a257eec	0.00063131633
102	0xba7c54f4	-0.0009625696
103	0x3b452761	0.0030083286
104	0x1aa43644	6.791648e-23
105	0x00000000	0.0
106	0x3b87aa12	0.004140147
107	0xbac0ed9f	-0.0014719254
108	0xbb4a7385	-0.003089161
109	0xbb1f8136	-0.002433849
110	0x3aec5c63	0.0018032904
111	0x328c1f98	1.6312512e-08
112	0xbaf2c0ce	-0.0018520595
113	0x3af019c5	0.0018318227
114	0xbb2778e1	-0.0025554227
115	0x3a786c66	0.0009476602
116	0xb9f7f43d	-0.00047293483
117	0x3b088cb6	0.0020835823
118	0xb974e898	-0.00023356301
119	0x3b39a8ac	0.0028329296
120	0x3997d977	0.00028962988
121	0xafe3b9b3	-4.1423007e-10
122	0xbb63a384	-0.0034734914
123	0x3a8061b8	0.0009794747
124	0x2bd9d9a1	1.5479182e-12
125	0x00000000	0.0
126	0xbb4c0442	-0.0031130468
127	0xbb4384ca	-0.0029833787

action_model._continuous_distribution.log_sigma f4 [1, 2]
0	0x3ca61100	0.020271778
1	0x3c8a4652	0.016879234

action_model._continuous_distribution.mu.weight f4 [2, 128]
0	0xbc9b9ec7	-0.01899661
1	0x3916b423	0.00014372221
2	0xbc10ea53	-0.00884493
3	0x3cf303c2	0.029664878
4	0xbae08683	-0.0017129931
5	0x3a0218d4	0.0004962806
6	0x3c65f1e5	0.014034723
7	0xbd03554a	-0.03206376
8	0x3caed830	0.02134332
9	0x3b82ecc1	0.0039955084
10	0xbb912385	-0.004429283
11	0x3c4c6056	0.01247414
12	0xbb8ec1d2	-0.0043566013
13	0xbb08a82a	-0.0020852187
14	0x3d1a3f93	0.037658285
15	0x3c8e1a1b	0.017346432
16	0xbb765060	-0.0037584528
17	0xbca1da86	-0.01975752
18	0xba4ef54f	-0.000789483
19	0xbb8fbcee	-0.004386536
20	0xbbafb16c	-0.0053617265
21	0x3c7f3d56	0.0155785885
22	0xbd20463a	-0.039129473
23	0xbbf6b7ff	-0.0075292583
24	0xbbd26140	-0.0064202845
25	0x3c83960d	0.01606276
26	0x3bae689e	0.00532253
27	0xba8ef9e3	-0.0010908212
28	0xbd08942a	-0.033344425
29	0x3c122d10	0.008921877
30	0xbca5a3ba	-0.020219672
31	0xbb0dc1c8	-0.0021630395
32	0x3c472f6b	0.012157301
33	0x3d15b8ba	0.036553122
34	0x3cb1436c	0.021638595
35	0xbcffc43d	-0.031221503
36	0x3caae841	0.0208627
37	0x3cb09015	0.021553079
38	0x3ce18bb8	0.027532443
39	0x3d022901	0.031777386
40	0xbd1cd067	-0.038284685
41	0x3c690eb1	0.014224694
42	0xbc2c8e6a	-0.010532001
43	0x3cab6a65	0.020924756
44	0xbd2c3fed	-0.042053152
45	0x3d0b294b	0.033974927
46	0xbbc92b47	-0.0061391923
47	0xbb1cb866	-0.002391362
48	0xbb3f72c6	-0.0029212697
49	0xbd132050	-0.035919487
50	0x3b41e807	0.0029587762
51	0xbb54f8c3	-0.0032496906
52	0xbcccbe6d	-0.024993146
53	0xbcc40d63	-0.023932165
54	0x3d42d2c7	0.047564294
55	0xbd1bf995	-0.038079817
56	0xbb931f88	-0.004489843
57	0x3c5d67c0	0.013513505
58	0x3bd398e8	0.006457437
59	0x3c31ca39	0.010851436
60	0x3ce52027	0.027969433
61	0xbc80bc08	-0.01571466
62	0x3c1f1f60	0.00971207
63	0xbd16c5fb	-0.036809903
64	0xbbd4209e	-0.006473615
65	0x3b337033	0.0027380108
66	0xbcdfd76c	-0.0273244
67	0x3d374718	0.044745535
68	0x3c7f65f7	0.015588275
69	0x3c3e2355	0.0116051035
70	0xbc285b1d	-0.010275629
71	0x3b5f9374	0.0034114989
72	0x3b7b94c5	0.0038388234
73	0xbbd35464	-0.006449269
74	0x3b9e2da1	0.0048272167
75	0x3cb20996	0.021733087
76	0x3cb6fe83	0.022338158
77	0x3bc247ba	0.0059289606
78	0xbc871512	-0.01648954
79	0x3d53aa6a	0.05167619
80	0xbd5ceeb8	-0.053938597
81	0xbb9f014c	-0.0048524495
82	0x3cbde150	0.023178726
83	0xbbc4531b	-0.0059913523
84	0x3cfb9219	0.030709313
85	0x3c5bba03	0.013411048
86	0x3c361733	0.01111393
87	0xbce83092	-0.028343473
88	0xbc837594	-0.016047277
89	0xbc80b5db	-0.015711715
90	0xbc99acfd	-0.018759245
91	0xbd19f134	-0.037583545
92	0xbbb73e81	-0.005592168
93	0x3c956081	0.018234493
94	0x3b5e7c61	0.0033948647
95	0x3d378086	0.044800304
96	0x3c3f65a0	0.011681944
97	0xbcce29df	-0.02516645
98	0xbc442807	-0.011972434
99	0x3997e18a	0.00028969004
100	0x3c1e7446	0.009671276
101	0xbc406394	-0.011742491
102	0xbba801e9	-0.005127181
103	0xbc0756c8	-0.008260436
104	0xbbe2e642	-0.0069244215
105	0x3c31ca21	0.010851414
106	0xbc8538b1	-0.016262384
107	0xbb8a060a	-0.0042121457
108	0xbb32f7f7	-0.0027308443
109	0x3aea7985	0.0017888999
110	0xbb366ade	-0.0027834694
111	0x3ba22133	0.0049478053
112	0xbba428ee	-0.005009762
113	0xbcdac0ce	-0.026703265
114	0x3bff3155	0.0077878633
115	0xbbc1eb63	-0.005917953
116	0xbc2bec15	-0.010493298
117	0xbc514979	-0.012773865
118	0x3cb8810a	0.022522468
119	0xbc5e152f	-0.013554855
120	0x3b665f3b	0.0035151977
121	0x3bcd54b8	0.006266203
122	0xbcdd3d12	-0.02700666
123	0xbc3821e4	-0.011238549
124	0xbc51bc6d	-0.012801272
125	0xbcd5f3c0	-0.026117206
126	0x3c2f6292	0.010704653
127	0x3d07f5b5	0.03319331
128	0xbbdac02d	-0.006675741
129	0x3d1109aa	0.035409607
130	0x3cadf303	0.021234041
131	0x3acea4b4	0.0015765638
132	0x3c7d893b	0.015474613
133	0x3cb35eb8	0.021895751
134	0x3c63d233	0.013905096
135	0x3a9c8485	0.0011941349
136	0x3bbd209d	0.00577171
137	0xbca5ca63	-0.020238107
138	0xbca91cea	-0.02064367
139	0x3c67fe06	0.014159685
140	0x3b55f104	0.0032644877
141	0x3c38df39	0.011283689
142	0xbc738fba	-0.01486581
143	0xbd11aa67	-0.0355629
144	0x3ca28791	0.019840034
145	0xbb2eddc8	-0.0026682485
146	0x3b6eb31d	0.0036422678
147	0x3bf5ced1	0.007501461
148	0x3c97cb78	0.018529639
149	0xbc8d04ec	-0.017214261
150	0xbbbcba62	-0.0057595233
151	0xbc91517c	-0.01773905
152	0xbcac136e	-0.021005359
153	0x3bf900ab	0.0075989566
154	0x3c2bfb19	0.010496878
155	0x3d0b1590	0.03395611
156	0x3ac5d138	0.0015092259
157	0xbc8c9ecb	-0.017165562
158	0xbcce2675	-0.025164822
159	0xbce5180d	-0.02796557
160	0x3b9683a6	0.0045933304
161	0x3c89378f	0.016750125
162	0xbd04e8a7	-0.032448437
163	0x3c2160e3	0.00984976
164	0xbbcb7216	-0.0062086685
165	0xbc35f3d5	-0.011105497
166	0x3d36d4dc	0.044636592
167	0x3c5324b0	0.012887165
168	0x3c86d16d	0.016457284
169	0x3c18eacb	0.009333323
170	0xbb264b2b	-0.0025374393
171	0xbb907600	-0.004408598
172	0x3cbf0fb5	0.02332292
173	0xbac84399	-0.0015278935
174	0xbc95bc7a	-0.01827835
175	0xbafa1b5e	-0.0019081642
176	0xbcb7e379	-0.022447335
177	0x3acdc24e	0.0015698166
178	0x3bb8b41a	0.005636704
179	0xbbdddea8	-0.0067709275
180	0xbcc9a8af	-0.024616567
181	0x3bfc0ead	0.007692179
182	0x3a74b3f5	0.0009334677
183	0xbc4e32a2	-0.012585314
184	0xbc5ecfae	-0.013599319
185	0xbd08783b	-0.033317786
186	0xbc6fa64c	-0.014627051
187	0x3d278e64	0.04090728
188	0xbb4cf03a	-0.0031271116
189	0xbc299d84	-0.010352496
190	0xbc1ee48c	-0.0096980445
191	0xbbf36d75	-0.00742882
192	0x3c854ee2	0.016272966
193	0x3bb2b69a	0.0054538967
194	0xbc929428	-0.017892912
195	0x3bb58aa0	0.005540207
196	0xbc7b7eb7	-0.015350035
197	0xbcbe95b8	-0.02326475
198	0xbbf7e532	-0.007565164
199	0xbc88852f	-0.01666507
200	0x3c2892f6	0.0102889445
201	0xbbf378f0	-0.0074301884
202	0x385606e7	5.1028004e-05
203	0x3c48918c	0.012241732
204	0xb9c1d7b3	-0.00036972537
205	0xbca1242c	-0.019670568
206	0xbc38bde7	-0.011275745
207	0x3c0f5572	0.008748399
208	0xbccfcfc2	-0.025367621
209	0x3d0d5e62	0.03451384
210	0xbc3f547a	-0.011677856
211	0x3bc29f82	0.005939425
212	0xbab2935d	-0.001362424
213	0x3b062e37	0.0020474324
214	0x3b2d3cce	0.0026433947
215	0xbbefef9b	-0.0073222644
216	0x3c4986f7	0.0123002445
217	0x3ccee32e	0.025254812
218	0xb9857e99	-0.0002546206
219	0xbca1d6b6	-0.019755702
220	0xbca7abe6	-0.02046771
221	0xbd03b6ed	-0.032156873
222	0x39e3a08c	0.0004341643
223	0x3c98da85	0.018658886
224	0x3ccacefc	0.024756901
225	0x3b3f0990	0.0029149987
226	0xbc706aae	-0.014673872
227	0x3c5da379	0.013527744
228	0xbbd1828a	-0.0063937353
229	0x3bf6a81d	0.007527365
230	0x3bd3d9ae	0.0064651584
231	0xbd00aa19	-0.031412218
232	0xba06f7de	-0.00051486294
233	0xbc8f0de1	-0.017462673
234	0xbc182cba	-0.009288007
235	0x3bb87893	0.005629608
236	0xba31cfa2	-0.0006782954
237	0xba8b755b	-0.0010639833
238	0xbc84631a	-0.016160537
239	0xbbd06832	-0.0063600773
240	0x3cd953ae	0.02652916
241	0xbba07be0	-0.0048975796
242	0x3cfa90c1	0.030586602
243	0xbaf6a5e1	-0.0018817746
244	0x3c158946	0.009126967
245	0xbc96a684	-0.018389948
246	0x3b53c67b	0.0032314349
247	0x3d000888	0.031258136
248	0xbc18ef16	-0.009334346
249	0x3c5f7928	0.013639726
250	0xbc4ecc4c	-0.01262195
251	0x3a6a1174	0.00089289923
252	0xbaa36822	-0.0012466947
253	0x3bffa01d	0.0078010694
254	0x3be85b69	0.007090975
255	0xbac9cced	-0.0015396156

action_model._continuous_distribution.mu.bias f4 [2]
0	0xbaf51b45	-0.0018700144
1	0xbb072b0e	-0.0020625028

action_model._discrete_distribution.branches.0.weight f4 [1, 128]
0	0x3c8200a9	0.015869455
1	0x3b0183a7	0.0019762309
2	0x3ba688c7	0.005082223
3	0x3be96c73	0.007123524
4	0x3b407bbf	0.0029370633
5	0xba6e12ff	-0.000908181
6	0x3c2b1683	0.010442379
7	0xbbedfa7b	-0.0072625256
8	0xbb650193	-0.0034943565
9	0xbbaff9c7	-0.005370352
10	0x3c769b40	0.015051663
11	0xbb8a7d2f	-0.004226349
12	0x3ac36fd3	0.0014910646
13	0x3924be2b	0.00015711102
14	0xbb5324d3	-0.0032217994
15	0x3bc84f82	0.0061129937
16	0x3b2e59b8	0.002660377
17	0xbc6c95cf	-0.014440014
18	0x3ba33955	0.0049811997
19	0xbb30a329	-0.002695272
20	0x3aef1a68	0.0018242123
21	0xbb88828f	-0.0041659544
22	0xbc31ba06	-0.010847574
23	0x3c35e62d	0.011102241
24	0xbbd89833	-0.0066099404
25	0xbbb7749b	-0.0055986173
26	0x3bd2d205	0.0064337277
27	0x3c9db38d	0.019250656
28	0xbc133de5	-0.008986925
29	0x3acc7adb	0.0015600579
30	0xbab5c29c	-0.0013867202
31	0x3b864887	0.0040980014
32	0x3baf903f	0.0053577716
33	0xbc027670	-0.007962808
34	0xbb836313	-0.0040096133
35	0x3bbfee66	0.0058572767
36	0x3a9daac5	0.0012029043
37	0x3ca1dd07	0.019758714
38	0x3ba0cc0b	0.0049071363
39	0x3b3ec18b	0.002910706
40	0xbbd9ea02	-0.0066502104
41	0x3987ba20	0.0002588788
42	0x3c36f62d	0.011167091
43	0x3ad0c4e2	0.0015927816
44	0x3be6ba2b	0.007041236
45	0xbc52184f	-0.012823178
46	0x3a92b34c	0.0011192351
47	0x3bfb1b8f	0.0076631973
48	0x3c376d8b	0.011195551
49	0xbaf35707	-0.0018565365
50	0x3c44d203	0.012012961
51	0xbc0ba2e3	-0.008522722
52	0xbb3c1b81	-0.0028702917
53	0x3b984360	0.0046467036
54	0xba67b797	-0.00088393077
55	0xbb2c5ac2	-0.0026299213
56	0x3c3d6c5b	0.0115614785
57	0x3a51639f	0.0007987562
58	0x38aa3860	8.116732e-05
59	0x3c22ca73	0.009935963
60	0xb8ce2e0a	-9.831421e-05
61	0x3c181933	0.009283352
62	0xbc11b426	-0.008893048
63	0x3b24a3a5	0.0025121954
64	0xbc070ad1	-0.008242325
65	0xbbd80e1f	-0.0065934802
66	0x3b4ef2e5	0.0031577882
67	0xbb9b6da7	-0.004743296
68	0x3c0f128c	0.008732449
69	0x3b99240d	0.004673487
70	0xbbbc76f3	-0.0057514845
71	0x3bf33dc2	0.0074231336
72	0x3c4db6b2	0.012555765
73	0x392816cc	0.00016030221
74	0xbc54a438	-0.012978606
75	0x3c583f9f	0.013198762
76	0x3bfcda35	0.007716442
77	0xbc187d57	-0.009307227
78	0xbba7bd1b	-0.0051189787
79	0x3bc16f47	0.005903158
80	0x3c36f313	0.011166352
81	0xbbd90ea2	-0.006624059
82	0x3c63da67	0.013907052
83	0xbc1da3f5	-0.00962161
84	0xbc938f64	-0.01801271
85	0xbc2e930b	-0.010655175
86	0x3aeb53af	0.0017954017
87	0x3c44c48f	0.012009754
88	0x3c60205f	0.013679593
89	0xbc19e621	-0.009393246
90	0x3ba986b8	0.0051735304
91	0x3bfd6f27	0.0077341977
92	0xbbef6110	-0.007305272
93	0xb9e6d3b0	-0.00044026738
94	0x3c2c378b	0.010511289
95	0x3b8753c2	0.0041298578
96	0x3c2d2df5	0.010570039
97	0xbc7c950f	-0.015416398
98	0x3981e526	0.00024775526
99	0x3c807caf	0.015684454
100	0x3cd19783	0.025584942
101	0xbb34ce3b	-0.0027588743
102	0x3bfd1a17	0.0077240574
103	0x3bde10f8	0.006776925
104	0x3b35ce05	0.0027741205
105	0xbb4048e2	-0.0029340317
106	0x3ad75add	0.0016430278
107	0xbc22f748	-0.009946652
108	0x3c0592ab	0.008152644
109	0xba801af5	-0.0009773659
110	0x3c06c18f	0.008224859
111	0xbc3c2487	-0.011483318
112	0x3a2fa1b4	0.0006699816
113	0x3be3b81d	0.0069494382
114	0xbc7906df	-0.015199392
115	0x3a6932e2	0.0008895827
116	0x3b9a419b	0.004707528
117	0xbb78e04b	-0.0037975486
118	0xbbd788df	-0.0065775956
119	0xbc76003a	-0.015014702
120	0xbad3acbb	-0.00161495
121	0x3c78eaca	0.015192697
122	0x3c42dbab	0.011893193
123	0x3bc4d13a	0.006006387
124	0x3c2df608	0.01061774
125	0x3b7eee8d	0.0038899512
126	0x3c30b217	0.010784647
127	0x3bb1ee90	0.00543005

exp_avg f4 [128, 10]
0	0xb74d3fdf	-1.2233823e-05
1	0xb63f036b	-2.8463207e-06
2	0xb6b48c9c	-5.380787e-06
3	0xb771ed30	-1.4419944e-05
4	0x32aa9066	1.985627e-08
5	0x35c0c40f	1.4362175e-06
6	0xb1ec3697	-6.87471e-09
7	0xb2656b58	-1.33539615e-08
8	0x00000000	0.0
9	0x00000000	0.0
10	0x3debc93b	0.11512991
11	0x3d05adb0	0.032636344
12	0x3df35955	0.11882273
13	0x3db1d835	0.08683816
14	0x3ca9ce6c	0.020728312
15	0x3db9a4e8	0.090646565
16	0x389f46a0	7.594866e-05
17	0xb89fc824	-7.61899e-05
18	0x00000000	0.0
19	0x00000000	0.0
20	0x00000000	0.0
21	0x00000000	0.0
22	0x00000000	0.0
23	0x00000000	0.0
24	0x00000000	0.0
25	0x00000000	0.0
26	0x00000000	0.0
27	0x00000000	0.0
28	0x00000000	0.0
29	0x00000000	0.0
30	0x00000000	0.0
31	0x00000000	0.0
32	0x00000000	0.0
33	0x00000000	0.0
34	0x00000000	0.0
35	0x00000000	0.0
36	0x00000000	0.0
37	0x00000000	0.0
38	0x00000000	0.0
39	0x00000000	0.0
40	0xbcdd4a94	-0.0270131
41	0xbbf9de0b	-0.0076253465
42	0xbcdec811	-0.027195008
43	0xbc39880c	-0.01132394
44	0xbb85d6a1	-0.0040844237
45	0xbc2c977f	-0.010534166
46	0xb84b4ae7	-4.846873e-05
47	0xb8998e60	-7.322128e-05
48	0x00000000	0.0
49	0x00000000	0.0
50	0x3da10133	0.07861557
51	0x3cb6f73e	0.022334691
52	0x3da5ddfa	0.08098979
53	0x3d366bdc	0.044536456
54	0x3c57bf7d	0.013168213
55	0x3d3f4a07	0.046701457
56	0x388728f7	6.444932e-05
57	0x384f5378	4.9430382e-05
58	0x00000000	0.0
59	0x00000000	0.0
60	0x3dafd7ca	0.0858608
61	0x3cc7c8c8	0.024387732
62	0x3db5f7db	0.08885165
63	0x3d8698b0	0.065720916
64	0x3c7d5887	0.015463001
65	0x3d8dd4a7	0.06925326
66	0x380c220e	3.3410317e-05
67	0xb8ede070	-0.000113428454
68	0x00000000	0.0
69	0x00000000	0.0
70	0x2363c181	1.2346671e-17
71	0x2281735f	3.5087674e-18
72	0x236bb441	1.2777546e-17
73	0x22a14601	4.3713257e-18
74	0x2201aa43	1.7572896e-18
75	0x22b472cc	4.8910644e-18
76	0x9b8af03e	-2.2985438e-22
77	0x1b587c40	1.7907249e-22
78	0x00000000	0.0
79	0x00000000	0.0
80	0xbc7fc470	-0.015610799
81	0xbb915f84	-0.004436435
82	0xbc8169d0	-0.015797526
83	0xbad41dfc	-0.0016183252
84	0xbaf43f5a	-0.0018634603
85	0xb9417c2e	-0.00018452175
86	0x36bfe5dd	5.719003e-06
87	0xb80a21d5	-3.2933272e-05
88	0x00000000	0.0
89	0x00000000	0.0
90	0x0ec3e90b	4.8295624e-30
91	0x0dba95d9	1.149921e-30
92	0x0e2ead03	2.1530458e-30
93	0x0ec0eba1	4.7558557e-30
94	0x0dbd6e6b	1.1674606e-30
95	0x0e10e8a5	1.7861385e-30
96	0x096081be	2.7024024e-33
97	0x0a4f3a69	9.977673e-33
98	0x00000000	0.0
99	0x00000000	0.0
100	0x3d551c5c	0.052029
101	0x3c7320a7	0.014839328
102	0x3d5dd33a	0.05415652
103	0x3d3db642	0.046316393
104	0x3c259357	0.010105929
105	0x3d491686	0.049093746
106	0x384fa51f	4.9506427e-05
107	0xb8b1653a	-8.4588726e-05
108	0x00000000	0.0
109	0x00000000	0.0
110	0x00000000	0.0
111	0x00000000	0.0
112	0x00000000	0.0
113	0x00000000	0.0
114	0x00000000	0.0
115	0x00000000	0.0
116	0x00000000	0.0
117	0x00000000	0.0
118	0x00000000	0.0
119	0x00000000	0.0
120	0x3d80c6ce	0.06287919
121	0x3c9277d2	0.0178794
122	0x3d85513f	0.06509637
123	0x3d6a648f	0.057224806
124	0x3c4cdebc	0.012504276
125	0x3d74dd58	0.059781402
126	0x389b0b9e	7.39314e-05
127	0xb874c5d9	-5.8358393e-05
128	0x00000000	0.0
129	0x00000000	0.0
130	0xbb8244b1	-0.003975474
131	0xba94151b	-0.0011297794
132	0xbb86d081	-0.004114211
133	0xbaadc782	-0.001325831
134	0xba0b670a	-0.0005317783
135	0xbac37956	-0.001491348
136	0xb57fd788	-9.530854e-07
137	0x36957835	4.45454e-06
138	0x00000000	0.0
139	0x00000000	0.0
140	0x3e07e19b	0.13269655
141	0x3d1a8f71	0.037734453
142	0x3e0cc9e2	0.13748887
143	0x3dcb7013	0.09933486
144	0x3cc3f5d6	0.023920935
145	0x3dd5cbb7	0.10439246
146	0x38a933b7	8.0681806e-05
147	0xb8899705	-6.560799e-05
148	0x00000000	0.0
149	0x00000000	0.0
150	0xbb652999	-0.003496742
151	0xba76930d	-0.00094060675
152	0xbb3e81a6	-0.0029068976
153	0x3c0b3d41	0.008498491
154	0x39f9b259	0.0004762586
155	0x3c22246c	0.009896379
156	0x3797195a	1.8012408e-05
157	0xb8402cb9	-4.581802e-05
158	0x00000000	0.0
159	0x00000000	0.0
160	0x9aad3200	-7.16319e-23
161	0x99a12eae	-1.6665864e-23
162	0x9a185a33	-3.1505726e-23
163	0x9af7fc09	-1.0256399e-22
164	0x9a221717	-3.3519467e-23
165	0x9a823343	-5.384956e-23
166	0x16befc1e	3.0855264e-25
167	0x176b5e82	7.605188e-25
168	0x00000000	0.0
169	0x00000000	0.0
170	0x3da949fd	0.08266065
171	0x3cc052b7	0.023476942
172	0x3daf1caa	0.08550389
173	0x3d75da18	0.060022444
174	0x3c79a7fb	0.015237804
175	0x3d82e20f	0.063907735
176	0x38866ba0	6.409665e-05
177	0xb8682740	-5.5349665e-05
178	0x00000000	0.0
179	0x00000000	0.0
180	0x3dd7f7ad	0.10545287
181	0x3cf56ce3	0.029959148
182	0x3ddf5f4f	0.109068505
183	0x3da2bb7c	0.07945916
184	0x3c9f50e0	0.019447744
185	0x3dab880a	0.08375557
186	0x38b6d990	8.7189605e-05
187	0xb84f414f	-4.941347e-05
188	0x00000000	0.0
189	0x00000000	0.0
190	0x3e030fa9	0.12798943
191	0x3d153845	0.036430616
192	0x3e081056	0.13287482
193	0x3dbbf603	0.091777824
194	0x3cbc57ce	0.022991087
195	0x3dc994e3	0.09842851
196	0x38a88004	8.034709e-05
197	0xb8e1f1f8	-0.00010773906
198	0x00000000	0.0
199	0x00000000	0.0
200	0x3c3a1d9f	0.011359601
201	0x3b5424e0	0.0032370612
202	0x3c40d011	0.011768357
203	0x3b06c843	0.0020566143
204	0x3a9c0ab2	0.0011905043
205	0x3b2ab9b9	0.002605064
206	0x36bfd3e3	5.7169104e-06
207	0xb6d8372f	-6.443726e-06
208	0x00000000	0.0
209	0x00000000	0.0
210	0x39b7ebc0	0.00035080127
211	0x38ab2a02	8.16174e-05
212	0x3921c98d	0.0001542924
213	0x3a0cb1f3	0.00053670927
214	0x38fd3a0b	0.000120747914
215	0xb8ddcff5	-0.00010576836
216	0xb607af51	-2.0218615e-06
217	0x36343b59	2.6856635e-06
218	0x00000000	0.0
219	0x00000000	0.0
220	0x110aea0d	1.0958403e-28
221	0x100e75a7	2.8095198e-29
222	0x108276c1	5.145893e-29
223	0x1102fe2b	1.0333513e-28
224	0x100e8830	2.8109477e-29
225	0x10678fff	4.5667648e-29
226	0x8c3ab4a5	-1.438328e-31
227	0x0ca1af94	2.491165e-31
228	0x00000000	0.0
229	0x00000000	0.0
230	0x00000000	0.0
231	0x00000000	0.0
232	0x00000000	0.0
233	0x00000000	0.0
234	0x00000000	0.0
235	0x00000000	0.0
236	0x00000000	0.0
237	0x00000000	0.0
238	0x00000000	0.0
239	0x00000000	0.0
240	0xbdff7bca	-0.12474783
241	0xbd11235e	-0.03543412
242	0xbe0430d6	-0.12909254
243	0xbdc3ae6f	-0.09554755
244	0xbcba3a17	-0.022732778
245	0xbdce2a82	-0.100667015
246	0xb8b1d521	-8.479716e-05
247	0x39001567	0.00012215004
248	0x00000000	0.0
249	0x00000000	0.0
250	0xb843679c	-4.6588117e-05
251	0xb735da06	-1.0839203e-05
252	0xb7abe3c8	-2.0490857e-05
253	0xb8467f14	-4.732523e-05
254	0x37018993	7.721031e-06
255	0xb8b683fa	-8.703019e-05
