Assets/results/VikramRover11/VikramRover.onnx (onnx, 147290 bytes, 10 tensors)

network_body._body_endoder.seq_layers.0.weight f4 [128, 10]
00000000: b4df 693e 0ebc 14bf 8b00 76be c649 fabe
00000010: bb25 aebe ea7e 8cbc 6913 9f3d c457 4ebe
00000020: 1b24 31be e26f 003f c51a b13e ac99 0d3d
00000030: cb74 da3e 5f53 57be cbc8 09bd d0df fdbd
00000040: 5b31 02bf 73d5 c73e 9833 dabe c6d3 76be
00000050: bc7b c63e 8f39 14be 27f3 1dbf c2f5 7a3e
00000060: c196 ac3e 0e4a f83e 49da ab3e 2313 5ebd
00000070: 1bc9 893e 8ee8 c43c b263 68be a6a1 e63e
00000080: ec4d 083f 79ae 953e 7048 2ebf bad8 ca3d
00000090: 661a 113f 536b 9bbe 90e2 6c3d 684d d73e
000000a0: b3ad 983e bb25 53be 16d0 d3be bcae 34bc
000000b0: f706 893e 536b bfbe 0f14 fbbd 13f1 d33d
000000c0: b454 34be ca08 eabe a2bd 76bf 4760 72be
000000d0: 8936 3ebe cc7e 153e e9c1 123e 5950 b6be
000000e0: c609 dbbd d353 54bc 28fe a9be a652 4f3e
000000f0: 0bd8 d6be 1c86 e8bd a4be 56be 059e bfbe
00000100: b97d a8be 0a40 e3be 3d33 e83e b643 c6bc
00000110: 804b bbbd 36dd 313c 07bc 02bf 7a5d 2c3e
00000120: 4134 89be 2bbd a6be 7c34 56be 4075 803e
00000130: 8b00 4ebc c5f1 843e b152 27be 95cd 573e
00000140: 5771 edbe 6913 073f 305c 883d e1a6 33be
00000150: d86d bd3d 6ab0 a43e c26d 59be b3fb 453b
00000160: 025e d13d d31a e33e 64ac bc3e ec7a 5a3d
00000170: fdef 10bf e974 0a3f f821 14bd 4717 3d3e
00000180: 3637 ae3e 94f3 ccbd 2ff8 513f 498b 343e
00000190: 0b56 273e 6481 f23d 40cd a63e f420 c6be
000001a0: 37f3 3fbe ca6c f73c 4d04 1abe a62e fe3d
000001b0: 8b5d c23d 626d c3bd 3854 77be ce01 b23e
000001c0: 578f aa3e 30c2 443e da89 a6bd 9780 13bd
000001d0: 6fd2 163e 4439 c83e f04c 33be 823f 423d
000001e0: 0c17 773e 6852 bd3e 9268 5fbd 8c20 05be
000001f0: 0830 383e 1078 c63e 055b 4cbd 4745 f3be
00000200: dfc6 0abf 0355 db3c 1a19 923e 43b3 acbe
00000210: 9728 943e de5e bf3e df44 0a3e 8415 d53e
00000220: fefa 413f b3a4 e3be 6379 5f3e e75f b73d
00000230: 0d63 0f3e 9b4e ed3e de01 ec3d cc18 cc3e
00000240: f113 663d 8938 3dbf 643d 493e 4fcb c5bc
00000250: a18d 123d 003b b1be 25e8 e0bc 21bd c9bd
00000260: d6b2 a0bd 9fd2 bdbe 2a88 c9be 9c1e afbc
00000270: bfd9 503e dfc3 e7be 6090 853e 7141 03bf
00000280: f4d0 b63e 1cb6 83be db57 883d ed47 18be
00000290: ca45 d6bd 1707 b6bd 444c 9a3e dc23 01bf
000002a0: ef6c 5abe c08b 5b3e 5525 87be eda3 d83e
000002b0: 43db c03d efa4 33be a7c1 c23e 028e 3abe
000002c0: d0ab 643e eda0 b7be 2281 163f 42dc f7be
000002d0: 1ff4 993d 7abd ffbd 6129 06bd 016f ab3b
000002e0: e52b 90be b41d 4f3e 9aaa 313e 5498 bebe
000002f0: bf35 3f3d b251 19bf e8d4 5a3e be0c cabe
00000300: 788a cbbe 33a7 5e3d b4b5 4fbf 8b5d 3fbe
00000310: ab01 8fbe 6b3b ca3d 76d9 be3e 70f5 9d3e
00000320: 1e52 86bd 302e 39bd 456d 05be bbd8 093e
00000330: 14db a4be 3e65 0a3d 5f92 41be feeb 923e
00000340: 9b24 213f 6601 d63e c95b 023e 4336 49be
00000350: bb6c c4be 4045 30be b778 22bd 59b2 0cbd
00000360: 676e c13e f449 85be be20 eebd 4dcc a43e
00000370: e3b3 e6be 9392 533c fceb 3f3e da5d 7f3e
00000380: f0f4 a93d 1d7a a03d 4012 3fbe 8d1d 9ebd
00000390: fe19 c7be b055 3f3e d761 37be 43c1 7a3e
000003a0: 27d0 3c3d 8896 d63e c65f 8b3e 6b1b bcbe
000003b0: 0a69 7c3d 8797 ef3e 297a 883e d821 e8be
000003c0: 2b7a 36bd 66de be3d a459 72bd 4f1b 9b3d
000003d0: 0f40 ff3e 57e7 fdbb a47c ac3d cf55 95bd
000003e0: 1050 9e3e 3dde 8fbf 4dad 003f 441f 67be
000003f0: 4064 df3e e46b 9c3e e376 7f3e ff76 e43e
0.22839242 -0.5809945 -0.24023645 -0.4888441 -0.3401316 -0.017150361 0.07767374 -0.20150667
-0.1729893 0.5017072 0.34590736 0.03457038 0.4266723 -0.21027897 -0.033638757 -0.123962045
-0.5085656 0.39030036 -0.42617488 -0.24104223 0.38766277 -0.14475082 -0.61699146 0.24507812
0.33708766 0.48494 0.33564976 -0.05421747 0.26911244 0.024036672 -0.2269428 0.45045203
0.532439 0.29234675 -0.6807928 0.099046186 0.56680906 -0.3035532 0.057833254 0.42051244
0.29820022 -0.20619862 -0.41369694 -0.011027988 0.26763126 -0.3738657 -0.12259685 0.10348716
-0.17610437 -0.4570983 -0.96383107 -0.2366954 -0.18575491 0.1459915 0.14331783 -0.35608175
-0.106952235 -0.012959438 -0.33201718 0.20246372 -0.41961703 -0.11353704 -0.20971161 -0.37425247
-0.3290842 -0.44384795 0.45351592 -0.024202209 -0.0914526 0.010855963 -0.51068157 0.16832533
-0.2679768 -0.325662 -0.20918459 0.25089455 -0.012573372 0.25965706 -0.16340138 0.21074517
-0.46375534 0.5276399 0.06658208 -0.17544128 0.09249467 0.32165843 -0.21233276 0.003020984
0.10223009 0.44356403 0.36850274 0.053339884 -0.56616193 0.5408464 -0.036165208 0.18465911
0.34026498 -0.10007396 0.82019323 0.17631258 0.16341417 0.118410856 0.32578468 -0.38697016
-0.18745123 0.030203242 -0.15040703 0.12411241 0.09490498 -0.095423475 -0.2415322 0.34767002
0.33312485 0.19214702 -0.08131762 -0.036011305 0.14728712 0.3910619 -0.17509818 0.047423847
0.24129885 0.36976933 -0.054543085 -0.13000697 0.17987072 0.38763475 -0.04989149 -0.47513792
-0.54209703 0.026773935 0.28534776 -0.33730516 0.28937218 0.37377065 0.13502835 0.41617978
0.7577361 -0.44461593 0.21823649 0.08953839 0.14002629 0.46349034 0.11523794 0.3986267
0.05617136 -0.7391439 0.19652325 -0.024144797 0.0357796 -0.34615326 -0.027454445 -0.098505266
-0.0784661 -0.37074754 -0.39361697 -0.0213769 0.20395564 -0.45266625 0.26086712 -0.5127173
0.35706294 -0.25724876 0.06657382 -0.14871188 -0.1046253 -0.08888071 0.3013631 -0.5044534
-0.21330617 0.21440029 -0.2639567 0.42312565 0.09416821 -0.17543386 0.3803837 -0.18218234
0.22331166 -0.35864964 0.5879079 -0.4841023 0.075172655 -0.12487312 -0.032754306 0.0052317386
-0.2815849 0.20226175 0.17350236 -0.37225592 0.046682116 -0.5989028 0.2137028 -0.39462847
-0.3975408 0.054358672 -0.8113663 -0.18688028 -0.2793096 0.09874614 0.37275285 0.30851316
-0.06558631 -0.045210063 -0.13029964 0.13461582 -0.32198393 0.03378796 -0.18903492 0.28695673
0.6294648 0.41797942 0.12730326 -0.19649605 -0.38364205 -0.17213917 -0.039665904 -0.034349773
0.37779543 -0.26032984 -0.11627339 0.3218712 -0.45059118 0.012913364 0.18742365 0.24938145
0.08298671 0.07835791 -0.18659306 -0.0772048 -0.38887018 0.18685031 -0.17908417 0.24487786
0.046096947 0.4191172 0.27221507 -0.36739668 0.06162361 0.46795294 0.266557 -0.4533832
-0.044550102 0.09319763 -0.05916752 0.07573568 0.4985356 -0.007748525 0.08422211 -0.07291757
0.30920458 -1.1239697 0.50264436 -0.2257052 0.43631172 0.30551064 0.24947695 0.44622037

network_body._body_endoder.seq_layers.0.bias f4 [128]
00000000: 209c 483c ce06 b3b9 d017 64b9 9303 f43b
00000010: fe20 ecba 426d a0bc 7356 993c 5d34 6ebb
00000020: 98dd c43b 8b76 40bb 01b8 893b f102 623a
00000030: 2030 b23b f30a bbbb c3f7 c1bb 11e5 f4ba
00000040: 5bec 893b 2ece adbb 4ec9 d5ba 33b3 76bb
00000050: f478 3b3a 1fb0 14bc a0ad 4ebb ef7c 113b
00000060: 1210 b13b 4592 c7ba 3302 a0ba 905f 953b
00000070: 7766 393b eeb9 a739 e782 c03a 19d7 cdbb
00000080: e383 9dbb b0b6 d0bb d2be c5ba 119e 2abb
00000090: 0000 0000 f608 14bb 1f0e 1a3b e9dd 4f3b
000000a0: ee2d 4839 b99d 2f3c 2df9 173a 384c 9939
000000b0: c095 f738 0b6f b33b ea29 89bb de9b 5bbb
000000c0: b1bb 15bb 6dfc 6fbc 1f5d 163c 3eac 2ebc
000000d0: f0c0 18bb 0000 0000 91f0 083c a628 03bb
000000e0: 18f6 533b 58fc f4ba fb09 a6ba 8ca8 d13b
000000f0: 9b9e b1bb 1d17 9aba ee73 533b 5b03 343b
00000100: 5f19 553b 7303 35bb 0e1b 41b9 9b29 20bb
00000110: 9f08 f8ba 7d53 3cbb 752d 67bb 279d 323b
00000120: 8f63 e63a 3cd5 a2bb a128 423b 0c35 3a3b
00000130: 6096 48b9 b35b 7fbb d714 44bb a1cc 34bc
00000140: 42fc 8fba 35ea 1abc 4cda c8bb 649e 61bb
00000150: f211 89bb 3350 d23b ae0f 353c 4fa9 7abb
00000160: a33d 1fbb 8e3c fcba 545f 6d3b 6704 c1b9
00000170: 4527 28bb cad7 6cba 35fb 373b a20e 653b
00000180: ba1e b9ba 108e 13bb de39 11bc 9b75 26bb
00000190: 9c00 09bb 4760 0b3b 344d 29bc b937 82ba
000001a0: 14fe 0dbb 9caa 8cbb 6ad6 013a f90e 4f3c
000001b0: 53b4 193a 208d 06bb 641c 173c cf37 443b
000001c0: ad84 eeba 354e f6ba 5f1b 3d3b 63e4 7e3b
000001d0: 3cc5 b6ba 4112 513a 4603 85bb 93a7 60bb
000001e0: bd5e 852e b2f3 c73b 073b 40ba 38d2 a839
000001f0: 0a36 80ba c775 60ba 54fb 9f3a be71 0dbb
0.012244254 -0.0003414661 -0.00021752645 0.007446715 -0.0018015204 -0.019583348 0.01871798 -0.003634713
0.0060078613 -0.0029367532 0.004202843 0.0008621654 0.005437866 -0.0057080924 -0.005919428 -0.001868399
0.004209084 -0.0053041195 -0.0016310604 -0.0037643432 0.00071515073 -0.009075194 -0.0031536594 0.002219971
0.005403527 -0.0015226087 -0.0012207687 0.004558511 0.0028289834 0.0003199125 0.001468745 -0.006281745
-0.004806982 -0.0063694343 -0.0015086776 -0.0026034156 0.0 -0.002258835 0.0023506952 0.0031717962
0.00019090596 0.010718756 0.0005797323 0.00029239221 0.00011805771 0.005475884 -0.0041859047 -0.0033509652
-0.0022847468 -0.014647585 0.009177475 -0.010661183 -0.002330836 0.0 0.008358137 -0.0020013242
0.0032342728 -0.0018690927 -0.0012667769 0.006398266 -0.0054205186 -0.0011756156 0.0032265144 0.002746782
0.0032516343 -0.0027620464 -0.00018415993 -0.0024438861 -0.0018923468 -0.0028736286 -0.0035274897 0.0027254315
0.0017577278 -0.004969267 0.0029626267 0.0028412966 -0.00019129505 -0.003896457 -0.0029919648 -0.011035115
-0.0010985213 -0.009455253 -0.0061295386 -0.0034426684 -0.0041830475 0.006418252 0.011051102 -0.0038247888
-0.0024298213 -0.0019244121 0.003622015 -0.0003681511 -0.0025658172 -0.00090348406 0.0028073315 0.0034951349
-0.0014123537 -0.0022515096 -0.008863894 -0.0025399688 -0.0020904904 0.0021267103 -0.010333348 -0.000993482
-0.0021666335 -0.004292799 0.00049529097 0.012637847 0.0005863357 -0.0020530894 0.009223077 0.002994049
-0.00181975 -0.0018791618 0.0028855426 0.0038893453 -0.0013944278 0.00079754373 -0.004059228 -0.003427957
6.064969e-11 0.006102049 -0.00073330145 0.00032200082 -0.000978173 -0.0008562472 0.0012205639 -0.0021582688

network_body._body_endoder.seq_layers.2.weight f4 [128, 128]
00000000: ef52 8b3d c481 aa3d 4343 043e 8f06 343e
00000010: 578b 2bbc 89e2 183d 3120 e23d 7e36 033d
00000020: 47b0 d2bd 743d fcbd 5116 33bd a91c 1ebe
00000030: 4364 8fbd f7d8 613e 5f0a 00be a1e3 833d
00000040: 63ef a93d 5fb9 88bd b223 0f3d 5a56 a73c
00000050: fedf f03d 2a49 f6bd 1af1 953d 2b4f 9bbd
00000060: 12cd cc3d d93f 5f3d c1e7 e9bd 7015 2c3d
00000070: d555 e33d 0051 5cbe a78a d2bd a35b 20be
00000080: 6754 fc3c ce30 d0bd d009 dbbd 70c8 e93d
00000090: c854 9bbd 6a66 f83d 920b 2f3e 2607 01bd
000000a0: 6c97 1c3e f452 9e3d bb1d 34be e3ad d6bd
000000b0: 2fc9 1f3d 35af 15be 983e 27bd 4e97 9a3d
000000c0: 628a 583c bd48 9bbc 848f 1c3e 78e0 2e3e
000000d0: c719 e33d c77b 0b3e d4a5 e8bd 5f58 bdbb
000000e0: 3069 2a3e f392 893d 9523 b4bd 8249 263d
000000f0: 60dc f3bd 7108 3d3c c0c2 283e 1088 4cbd
00000100: b187 d2bd c04c a4bd 0d76 883e 1f81 0ebe
00000110: 3bbb 193e b830 67be cff3 453d d79b f43d
00000120: 88f4 f83d 6c53 0a3b b184 d5bc 34ac 3ebd
00000130: 2423 39be 7251 173e 9600 263c d650 d43c
00000140: 089a 1f3c 73de 7abd 5c42 dcbd 0e79 86bd
00000150: 493f 2bbe 955a 35bd 3854 87bc 82c1 883d
00000160: b907 a9bc e255 7d3d d3d9 4dbc c994 23bd
00000170: 5be2 113d 9c40 aa3d 72f9 06bc 9fc3 de3d
00000180: 35d8 793d f1d8 ff3c 0765 503d abd3 fdbd
00000190: e390 22bc 273e 0f3e 1456 ac3d 6844 213c
000001a0: 4ef5 213e dc9b 1a3c 59c8 03bd 0edb 78bd
000001b0: 996e 073d 7d33 1cbd 7b84 a8bd 06cb 8bbd
000001c0: 298d b4bb 55e6 fa3c 90d1 453e 1521 40be
000001d0: f8e1 05bd 0f85 97bd 59d8 e43d 5917 0d3e
000001e0: f186 08bd 8c91 94bd 44da 1c3e d2fa 6cbd
000001f0: aded c0bd 212c abba a4b8 573d 2a3d d7bc
00000200: fdb9 f3bc bc5d 2abd 17fa 6cbd c6de 08be
00000210: a166 cdbd 1fb0 c93d e938 7b3b 4b64 f9b9
00000220: 1137 003e 61de 78bc 03fb 323d ae5b 17bd
00000230: 0232 b73c 21a3 0b3e 65c7 223d 4b1f 873d
00000240: 4736 22bd 9350 70be e841 0fbe 927e a5bd
00000250: 9a46 8d3c 83af a03c 56b9 983d 7b8e 4bbd
00000260: 54f2 a7bd 1c3d 00bd 3034 9e3d 6da5 df3d
00000270: c8cc 073e c186 c7bd e281 2a3c e11b b33d
00000280: 7398 0f3d 652f aabb ea8a 103e f627 973d
00000290: 39c4 cabd a00f 17be ade3 eabc 3e10 8f39
000002a0: 0a4b 033d ccab cd3d 8470 803d d5ec 01be
000002b0: 9899 98bd 429f 183c 0826 2b3e dd32 b83d
000002c0: f8ee c8bc 461a cdbd 657b 013d ce01 543d
000002d0: bcaa f0bd 1bff 883d b383 c1bd 7a03 1cbe
000002e0: e572 cb3a 8cbc fe3d ee57 bfbc d197 96bd
000002f0: c9a8 263d 0994 dc3c e9ab fdbd 3f8c 41bc
00000300: 1d0e 413d 7337 8f3e 4a79 983c f0df cebd
00000310: 6f5c c4bd 68a5 49bd c16e a3bb 8c5c a0bd
00000320: 5df9 b6bd 0eda 173d 12d6 eb3d 9337 10bc
00000330: 8903 ecbd 2b9d d43c e6c0 6e3c 87fa d9bd
00000340: 79cb cd3a 5e0d 02bd ef8d 9c3c 1629 13be
00000350: 0739 553e 7475 9a3d 31c8 e63b b86d a03d
00000360: 0865 363a daf5 973b acfa 97bd bad8 87bd
00000370: 0bf5 e03c aab6 efbd 616b 37bd f02c 8abc
00000380: 5600 523c 3a85 bebd 50e1 d03d cf4c d53d
00000390: 2b2c 153e b576 403d a989 5cbd 2d41 77be
000003a0: 0846 283c c592 4d3c a7f6 1ebe 23dc 423d
000003b0: abc6 623e 341d 3c3d 3582 58bb 1f3b 53bd
000003c0: 3677 ac3c 4d68 043d 2846 b63d f877 493c
000003d0: 2bc1 c03c d02d 16bd 7c54 943d 05ad 87bd
000003e0: 92e1 dcbd 81fa 2bba dc30 c9bd a388 8c3d
000003f0: 1079 f73b 8bc4 a1bc 4f42 21be b8b4 f03b
0.06802928 0.08325532 0.12916283 0.17580627 -0.010470233 0.037325416 0.11041296 0.03203439
-0.102875285 -0.12316409 -0.043722454 -0.1544062 -0.07001545 0.22055422 -0.12503956 0.06439901
0.082976125 -0.06675982 0.03494615 0.020426918 0.11761473 -0.12025674 0.07321377 -0.075834595
0.100000516 0.05450425 -0.11421157 0.042012632 0.111003555 -0.21515274 -0.10280352 -0.15659957
0.030801965 -0.10165559 -0.10695231 0.114151835 -0.0758453 0.12128909 0.17094257 -0.031500958
0.15292138 0.07730666 -0.17589466 -0.10482385 0.039010223 -0.14617617 -0.04083118 0.0754839
0.013216587 -0.018955583 0.15289122 0.17077816 0.11088901 0.13621436 -0.11359754 -0.005778357
0.16641688 0.067174815 -0.08795849 0.040597446 -0.119072676 0.011537657 0.16480541 -0.049934447
-0.10279787 -0.080224514 0.26652566 -0.13916443 0.15012829 -0.22577178 0.048328217 0.119437866
0.12156016 0.0021106852 -0.026064249 -0.046550944 -0.18079811 0.14777163 0.010131976 0.025917452
0.009741314 -0.0612473 -0.107548445 -0.06566058 -0.1672336 -0.04427584 -0.01651965 0.06677534
-0.020633565 0.061849482 -0.01256414 -0.039936814 0.03561626 0.083131045 -0.008238183 0.108771555
0.060997207 0.031231375 0.050877597 -0.12393888 -0.009922239 0.13988553 0.084148556 0.0098429695
0.15816233 0.009436574 -0.03217349 -0.06075578 0.03306446 -0.03813504 -0.08228394 -0.06825833
-0.0055099917 0.030627409 0.19318223 -0.1876262 -0.032686204 -0.07398426 0.111740775 0.13778438
-0.033331815 -0.07254323 0.15317637 -0.05785639 -0.09420333 -0.0013059416 0.05266632 -0.026274282
-0.029751772 -0.0415933 -0.05785569 -0.13366231 -0.100293405 0.098480456 0.0038333482 -0.00047567705
0.12521006 -0.015189738 0.043696415 -0.036952667 0.022362713 0.13636447 0.03974094 0.065977655
-0.039602544 -0.23468237 -0.13989985 -0.08080782 0.01724558 0.01961494 0.07457225 -0.049696427
-0.08200517 -0.03130828 0.07724798 0.10920224 0.13261712 -0.09742499 0.010406943 0.08745552
0.035057496 -0.005193638 0.14115492 0.07380669 -0.09900708 -0.14752054 -0.028673017 0.00027287187
0.032053985 0.10042533 0.06271461 -0.12688 -0.07451171 0.009315314 0.16713727 0.089940764
-0.024528012 -0.10014777 0.03161182 0.051759534 -0.11751315 0.066892825 -0.09448948 -0.15235701
0.0015521912 0.12438306 -0.023357358 -0.073531754 0.04068831 0.026926057 -0.12386305 -0.011813222
0.0471326 0.27971992 0.018612523 -0.101013064 -0.09587943 -0.04923001 -0.004987568 -0.07830152
-0.08934281 0.037073188 0.1151544 -0.008802312 -0.11524112 0.02595385 0.014572358 -0.106434874
0.0015700898 -0.03175103 0.019110648 -0.14371142 0.20822535 0.07541934 0.0070429076 0.07833427
0.0006957804 0.004637462 -0.07420859 -0.06633134 0.027460596 -0.11704762 -0.04478014 -0.016867131
0.012817463 -0.09302755 0.10199225 0.10415041 0.1456763 0.046988208 -0.05384222 -0.24145956
0.010270603 0.0125472 -0.15523778 0.04757322 0.22146098 0.045926288 -0.0033036594 -0.051570054
0.021052938 0.03232603 0.089001 0.012296669 0.02352961 -0.036664784 0.072426766 -0.06624798
-0.107852116 -0.00065604603 -0.09823772 0.06861999 0.0075522736 -0.01974704 -0.15747951 0.007345762

network_body._body_endoder.seq_layers.2.bias f4 [128]
00000000: 818f 7f3b 726b a9ba 18d6 78bb ace1 47bb
00000010: 0000 0000 61c3 3dbb cfff 173b 63ac 0cb8
00000020: 4271 4fba af2d 70b0 8013 9f3b 8eed f93b
00000030: 77ec 643a 25b2 fbba d8a2 27a6 f6d5 1ebb
00000040: 4baf c2bb 12b0 eeba b226 27bc 91ca 0cbb
00000050: 89f6 ec39 4276 583a 1339 abbb a46b a4bb
00000060: 8284 d13b 6474 073c 2595 f1bb cc39 c23a
00000070: 04d1 2cbb 4733 353b 1d5f c8ba ed5d 5194
00000080: 7894 afba 633c 893a 94c4 6dbb 1c5f 1b3b
00000090: c2a6 483c 1a00 d739 65da 24bc d4c9 093c
000000a0: 86ed 003b 92b6 d93b 0000 0000 4dc6 b735
000000b0: 8839 d8bb 3d48 cf3a 2960 14bb 233b 37bc
000000c0: e8cd 05bc 8d26 33bb 0272 e611 162b 993b
000000d0: 4d16 d13b 9d42 203b 80e5 8f3b b3a5 79bb
000000e0: 6bbf 8cba 0000 0000 4824 61ba 46b7 9bbb
000000f0: 0000 0000 c5b3 83bb 74c5 f9b5 d9b1 2f3b
00000100: 3c84 013c 0000 0000 3340 d5ba 2192 0dbc
00000110: 45c3 303b ee79 4b3b 0000 0000 6617 4f3b
00000120: 7b20 473c 0000 0000 ee9e 88ba 0000 0000
00000130: 6c69 9d3a 4ff3 ecba 3486 e9ba cd39 8bbb
00000140: f86f fcba 80cf 023b c9ff 0c95 f3e6 433b
00000150: 2c24 46bb 6fca 13ba 85a6 d8ba 9d45 33bb
00000160: 168b 673b 0c2e 8a3b c6a2 c539 5fed 943b
00000170: 4c1c 243b aafc 423a 3d00 c532 e1fc 68bb
00000180: a3b5 de3b eeda 0dbb 0000 0000 0000 0000
00000190: 0000 0000 1888 82bb 8164 23bb 037d e9bb
000001a0: 0000 0000 20a6 933a a023 3ebb 5241 9f3a
000001b0: 78e3 c5bb 545c b7ba ac97 96ba 006c 0d3b
000001c0: 0000 0000 f864 fcba 5bef 603a d29d 578b
000001d0: 1e9a d0bb e7ac dbb9 c2a1 3939 bc06 2288
000001e0: 6222 07bc 57d0 f93a e772 89bb 9a73 a0bb
000001f0: 822c 8e3a a6b6 87bb b146 35bb 66b5 81bb
0.0038995447 -0.0012925698 -0.0037969407 -0.00304995 0.0 -0.0028955566 0.0023193245 -3.353915e-05
-0.00079133 -8.737641e-10 0.0048546195 0.0076271957 0.0008732746 -0.0019202871 -5.816046e-16 -0.0024236417
-0.0059413067 -0.0018210432 -0.010202097 -0.0021483044 0.0004519711 0.0008257368 -0.0052253096 -0.0050177146
0.00639397 0.008267496 -0.0073725157 0.001481825 -0.00263697 0.0027648972 -0.0015287135 -1.0570327e-26
-0.0013395688 0.0010470267 -0.00362805 0.0023707813 0.012246789 0.0004100807 -0.010061835 0.008409936
0.0019672825 0.0066440785 0.0 1.3692276e-06 -0.006598655 0.0015814375 -0.0022640324 -0.011183533
-0.008166768 -0.002733621 3.6357864e-28 0.0046743257 0.0063808323 0.0024453767 0.004391372 -0.003809315
-0.0010738199 0.0 -0.0008588475 -0.0047520725 0.0 -0.004019233 -1.8609412e-06 0.0026808886
0.007905062 0.0 -0.0016269743 -0.008640797 0.0026971858 0.0031048018 0.0 0.003159964
0.01215374 0.0 -0.0010423341 0.0 0.0012009568 -0.0018077883 -0.0017816485 -0.0042488337
-0.0019259444 0.0019960105 -2.8474554e-26 0.0029892295 -0.0030233962 -0.000563777 -0.0016529119 -0.0027354725
0.0035330704 0.004216915 0.00037696044 0.0045448984 0.002504128 0.00074381626 2.2933927e-08 -0.0035551118
0.006796555 -0.0021645385 0.0 0.0 0.0 -0.003983509 -0.0024931731 -0.0071254983
0.0 0.0011264719 -0.0029012933 0.0012150204 -0.0060390793 -0.0013989308 -0.0011489294 0.0021579266
0.0 -0.0019256165 0.00085805886 -4.1526225e-32 -0.0063660285 -0.00041899757 0.00017703234 -4.875802e-34
-0.008247944 0.0019059282 -0.0041946056 -0.0048965933 0.0010847005 -0.0041416464 -0.0027660544 -0.003958392

network_body._body_endoder.seq_layers.4.weight f4 [128, 128]
00000000: 1eaa 653d 061d 763d eb24 b8bc 50e3 16bc
00000010: 9165 fd3d cb80 80bd 0f79 093d b443 13bd
00000020: 0076 3e3e a9e4 4f3e 7e42 063c 2189 7bbd
00000030: 0cc4 e1bc db69 1ebe 8527 5abc 2016 15be
00000040: 9544 7e3d 7ca7 f93c 6b3b 053d deb9 59bd
00000050: a9fb e8bd b272 513c bc91 013d 856f d23d
00000060: 51c4 7d3c 25ba 8fbe 5915 60bd ebf4 17bc
00000070: 8f56 c2bc 5643 973d 25eb f13d 68ba 96bd
00000080: f0c9 6ebd 40c5 3abd 5f42 773d b73c 8f3d
00000090: 19d7 bb3d 3bc8 383d e42e 4f3d 608c 3bbc
000000a0: 7a9e 763d b885 06be 4f04 36bb cbab 8ebd
000000b0: 98ab 1a3d 8b06 54bc 3aaf cb3d a8cf c1bd
000000c0: 3997 67bd 86fc 15be e075 fb3c fd90 39bc
000000d0: 2c9e 5f3d 43bc 453d e35d b43d 3c33 1d3e
000000e0: 36d6 22be 524d e73d 5128 4ebd 1bdc 6f3c
000000f0: e19e 843c 74ff 0a3d 6f56 003e 3749 5ebd
00000100: f1f5 09bd efde 1a3d 3c28 233d 98b0 7fbd
00000110: 9247 06bd ebaa bdbd 61bc 7fbc 7635 2f3d
00000120: f103 a8bd 5a81 c83d ba25 22be 6ea5 c93c
00000130: 783a dd3d 130c 183d c0fc 14bd fbca 4ebe
00000140: f080 c13d 95ee c8bd 4e5e 793c 1a16 363d
00000150: 7889 3c3d 2885 abbc e2e1 0d3d 92f6 b73d
00000160: bd5c 5dbd 47f6 d83c cab6 073b 7f4a 9d3d
00000170: c19e 7cbc d1d3 2f3d 0ecc 8bbd 95b1 a6bc
00000180: 6db3 e5bd 4093 9cbd b6ef 103c 7b4d 7f3d
00000190: 2cb5 57bc 0751 303d 52a1 583d 56e9 75bc
000001a0: 341c 1bbe b17a 09bd 421b 98bd dd6b 9fbd
000001b0: f1fe e13d d317 4a3d 9ceb 8b3d 249d aebd
000001c0: f2fa dabc f1d0 fdbd 2dbd ae3c d132 72bd
000001d0: 4864 b03c 4dfb 6ebc ebcb c83c e0eb 0d3e
000001e0: 2f81 7e3c 1034 8abc 8461 45bd c0a3 2a3d
000001f0: e2f0 6c3d 2c87 153c 3905 b3bd 1dd2 c5bb
00000200: f358 b5bd be65 873c fc18 583d 6155 c3bd
00000210: c87f eebc bceb cabd 05b7 f73b feee 65bd
00000220: e78b c13d 9d8a 53bd 8b0f 233e f5a0 87bd
00000230: 3656 5a3d 13de 73bd de21 03bc d33f 813d
00000240: 2e1d 973d d7e1 bb3d e409 fa3d 8d6f 08bd
00000250: 1ee3 b6bd b3bf a23d 8345 983c 29f2 fbbc
00000260: a71a d63d 6b53 fc3d 06db 5d3c 7eb0 ea3d
00000270: ca62 ecbc d858 08be da90 7abc 4bb5 3dbd
00000280: b449 d73d 8883 353d a037 e9bd 021a 40be
00000290: 6d57 463d 48c3 073e 8bf5 283d 3893 f2bd
000002a0: 13ef 91bc 2131 043e 6e00 d93a bd02 0c3d
000002b0: b5eb 68bd f532 8ebd c157 adbd 6b77 693c
000002c0: ed9f bdbd 51fe 83bd e585 1fbe 4d28 1bbe
000002d0: 190a 5c3b 013d 933c e7af 85bd 7def 2d3e
000002e0: ed57 5f3d 5168 e63c c14f b63d 6125 df3c
000002f0: c0eb 22be f0a3 90bd db25 9fbb 8ba8 9f3a
00000300: 48fd d93d 898a 563d 9c0f 7d3e 7f84 3ebd
00000310: 6086 b13d 5c88 6dbc 7d72 03be d95a 55be
00000320: 85dd b03c 8de2 cfbc 158f aebd a33d 4ebe
00000330: a07f c2bd a7c4 243e 0326 c73d a776 8fbd
00000340: f601 233d 42a4 183d 322f 673d 31c6 f93b
00000350: 8743 32be dc22 8bbd ee09 a6bd 9f1c f0bc
00000360: 541b 623d 09c9 083c 228e efbb dd2c 02bc
00000370: 26d1 16bc 4872 133d bc8f a83d 846e d03a
00000380: ebba f6bd 2c82 403e bd9c 9f3c 0ed4 8abd
00000390: bb77 57bd ccc3 a63b f66a 4ebc 6ea0 05bd
000003a0: aaae d1bd 7b03 1dbd 8e08 1f3d 4799 a33d
000003b0: 8ad0 0bbd 5912 033c 4306 0abe d1cb 9b3d
000003c0: 69a9 d1bd bf2b ea3d 4203 c03c a728 123d
000003d0: 5547 ae3d e0f6 13bc 928d a8bd b68a 1bbc
000003e0: 5b42 90bc 4e25 1d3d 2307 223b a9b0 dc3c
000003f0: ecf3 ce3c 1f52 21bd c8c6 af3a 99fc f13d
0.05607044 0.060086273 -0.022478541 -0.009209469 0.12372888 -0.06274565 0.033562716 -0.03595324
0.18599701 0.2030207 0.008194564 -0.061410073 -0.027559303 -0.15470068 -0.013315086 -0.14559221
0.062077124 0.03047537 0.03252737 -0.053155772 -0.11376125 0.012783693 0.031633124 0.10275177
0.0154887 -0.28071705 -0.05470786 -0.009274702 -0.023722915 0.0738589 0.118124284 -0.07359773
-0.05829805 -0.04559827 0.06036603 0.06994002 0.09171886 0.04511283 0.050581828 -0.011447042
0.06020973 -0.13136947 -0.0027773564 -0.06966361 0.0377613 -0.012941013 0.09945531 -0.094634354
-0.0565407 -0.14647111 0.030695856 -0.011326072 0.054594204 0.048275243 0.0880697 0.15351576
-0.15902027 0.112940446 -0.050331417 0.01463988 0.01618904 0.033935025 0.12532972 -0.054269042
-0.033681814 0.037810262 0.039833292 -0.062424272 -0.0327831 -0.09261116 -0.015608878 0.042775594
-0.08203877 0.09790297 -0.15834704 0.024615016 0.10802168 0.03712089 -0.036373854 -0.20194618
0.09448421 -0.09811131 0.015220238 0.04445467 0.046029538 -0.020937517 0.034639247 0.089825764
-0.05404352 0.026484622 0.0020708316 0.076802246 -0.015418709 0.042926613 -0.0682603 -0.02034835
-0.112158634 -0.07645273 0.008846214 0.06232975 -0.013165753 0.043046024 0.052888222 -0.015009245
-0.15147477 -0.033564273 -0.07427074 -0.07784245 0.11034954 0.049339127 0.06832048 -0.08526066
-0.026730988 -0.12393368 0.02133044 -0.059130494 0.021532193 -0.014586282 0.024511298 0.1385951
0.015533729 -0.016870528 -0.0481887 0.04166007 0.05784691 0.009126466 -0.087412305 -0.0060370103
-0.08854856 0.016528007 0.052758202 -0.09537769 -0.029113665 -0.09908244 0.0075596594 -0.056136124
0.094505124 -0.051645864 0.15923898 -0.06622497 0.053304873 -0.05953796 -0.00800368 0.06311002
0.073786125 0.09173935 0.12208918 -0.033309508 -0.08930038 0.0794672 0.018587833 -0.03075512
0.10454302 0.12320598 0.013540989 0.114594445 -0.0288557 -0.13315141 -0.015293324 -0.046315473
0.10512105 0.04431489 -0.11387563 -0.18759921 0.04842322 0.13258088 0.041249793 -0.11844486
-0.017814195 0.12909366 0.0016555914 0.0341823 -0.056865413 -0.06943313 -0.08464003 0.014249663
-0.09259019 -0.064449914 -0.1557842 -0.15152092 0.0033575355 0.017973425 -0.06527691 0.16985889
0.054527212 0.028125914 0.089019306 0.027239503 -0.15910244 -0.070625186 -0.0048568076 0.0012180967
0.10644013 0.05237821 0.24712986 -0.046513077 0.08668208 -0.014497843 -0.12836643 -0.20835437
0.021590004 -0.025376583 -0.085233845 -0.201407 -0.09496999 0.16090642 0.09724047 -0.07005053
0.039796792 0.037266023 0.056441493 0.007622503 -0.17408572 -0.06793758 -0.08107363 -0.029310523
0.055201843 0.008348712 -0.0073106447 -0.007945267 -0.009205138 0.03599766 0.0823054 0.0015902077
-0.120473705 0.18799657 0.019483918 -0.067787275 -0.05260442 0.005089259 -0.012598744 -0.0326237
-0.10238393 -0.038333397 0.038826518 0.0798822 -0.034134425 0.00799998 -0.13478951 0.07607234
-0.102373905 0.11434125 0.023439053 0.0356833 0.08509699 -0.009031028 -0.082301274 -0.0094935205
-0.017609766 0.038365655 0.0024723492 0.026939707 0.025262795 -0.039384957 0.0013410682 0.11815757

network_body._body_endoder.seq_layers.4.bias f4 [128]
00000000: 550d c1bb f039 a3ba bed8 aa38 d7a1 7e3a
00000010: 3b47 82b9 edc3 c6bb ebae 6f3b 3ca8 5d3a
00000020: 8a23 c53a 1668 013b 47cc b4ba 9f9a 063a
00000030: 1c4c 1f3a 86b2 083b 5bb1 d4bb 64fe 8f3a
00000040: ee86 31ba cc8c 57bb a35d 4abb 5073 a5bb
00000050: 8954 26bb 6129 09bb 0000 0000 bdfc 05bb
00000060: 775f ed02 562d 050a 42e8 1c39 e38b cd3b
00000070: 0f7e 4d3c 47cc f4bb b468 963a d0f2 663c
00000080: 4a31 37bb 10f5 e6bb 95a6 b4bb 005e 033a
00000090: ba67 933b b594 f73a 8d85 29bb 4916 6bba
000000a0: ea7a 14ae ff91 13bb f215 13bb 45cb 142f
000000b0: 7edf af39 61fb 7cbb 9171 4e3a fc44 eabb
000000c0: a315 7a28 6b32 87ba 0000 0000 babf f43a
000000d0: 6378 46bb 6693 64b9 1952 0dbc 3bad 3e3b
000000e0: 647a 23bc 3a9c 52b9 8be2 a83b 0000 0000
000000f0: 28a4 66ba eb9b c3bb 0d86 8db9 d35d e8ba
00000100: 603c 383b 2bba 24bb c82a 3d3b 0000 0000
00000110: 3e3a 24bb 8688 ea3a 9865 11bb ec24 47ba
00000120: f148 84bb d4a7 6ebb 97bb cfbb 0000 0000
00000130: c2e0 3abb 2c16 16b8 1474 43bb 9990 823b
00000140: 69e5 7eba 9b13 bfbb 921b be3b 0000 0000
00000150: 4b90 eabb 3bc2 3232 4003 dc3a f3ea 323a
00000160: 35d3 f73a 34ae fe3a 8ad6 97bb 784b 313a
00000170: a8cf dfba 1523 333b 9ec5 503a 9723 d73a
00000180: 64ae 51bb eeef 163b 341f 29bb 1ee2 00bb
00000190: 2e1f 30bb 8a98 d53a 4193 373c 75c6 2bbb
000001a0: fc14 9cbb c8db ab3a fc15 82bb 0000 0000
000001b0: 7fc1 f639 2705 f3ba b96a 08bb db95 d93a
000001c0: e1a1 d5bb 602b 2fbb 2814 483c e2a8 0524
000001d0: daa6 efba 8b77 643b dcef 0d3c e09b 1588
000001e0: 2322 acbb aaa2 4b3b 671d c2b0 8605 b6b2
000001f0: bdcd 90ba c04f 1b3a a2ec e93a b717 13bb
-0.005891482 -0.001245318 8.146603e-05 0.0009713447 -0.00024848603 -0.0060658366 0.0036572765 0.000845555
0.0015040499 0.0019745878 -0.001379379 0.00051347347 0.000607671 0.0020858361 -0.006490869 0.0010985848
-0.000677212 -0.0032890318 -0.0030878566 -0.0050491467 -0.0025379977 -0.0020929205 0.0 -0.0020444833
3.4878814e-37 6.412244e-33 0.00014963842 0.0062727793 0.012542262 -0.007470641 0.0011475296 0.014095977
-0.0027952963 -0.0070482567 -0.005513022 0.00050112605 0.004498449 0.0018888923 -0.0025866956 -0.00089678593
-3.3760474e-11 -0.002251744 -0.00224435 1.3532737e-10 0.00033545116 -0.0038601982 0.0007875199 -0.007149337
1.38824795e-14 -0.0010314708 0.0 0.0018672862 -0.0030284158 -0.00021798685 -0.008625531 0.0029094953
-0.009977911 -0.0002008536 0.005153959 0.0 -0.0008798265 -0.0059695146 -0.0002699349 -0.0017728157
0.0028112158 -0.0025135379 0.002886461 0.0 -0.002505913 0.001789347 -0.0022185799 -0.00075967493
-0.0040370156 -0.0036415951 -0.006339501 0.0 -0.0028515314 -3.5783436e-05 -0.0029823827 0.0039845225
-0.0009723516 -0.0058311946 0.0058016265 0.0 -0.0071583143 1.04051265e-08 0.0016785637 0.00068251713
0.0018907549 0.0019430579 -0.0046337293 0.000676326 -0.0017075436 0.0027334143 0.00079640176 0.0016413805
-0.0031994814 0.0023031193 -0.0025805952 -0.0019666026 -0.0026874053 0.001629607 0.011204542 -0.002621082
-0.0047632437 0.0013111765 -0.003969906 0.0 0.00047064942 -0.0018540964 -0.0020815565 0.0016600447
-0.0065195416 -0.0026728734 0.012211837 2.8982827e-17 -0.0018283979 0.0034861292 0.008663144 -4.5021287e-34
-0.005253093 0.0031072297 -1.4123714e-09 -2.11901e-08 -0.0011047643 0.00059246644 0.0017847011 -0.0022444555

action_model._continuous_distribution.log_sigma f4 [1, 2]
00000000: c087 f13c e41b 0a3c
0.029483676 0.008429501

action_model._continuous_distribution.mu.weight f4 [2, 128]
00000000: fc6a ad39 5d45 d03c 160a d9bc 7567 a2bc
00000010: 7051 5ebc 182f 9fbb 0806 b33c f7f0 86bc
00000020: f7c0 83bc b9fb 373c be04 aa3b e034 883b
00000030: 772a fcbc e2ce aa3c 86f9 a83c ae11 bdbc
00000040: ebd0 2ebc 3d7c bf3c 249f dfbc b94c c13c
00000050: e62e 33bd 3ef6 8abc 4766 243b 293c 963c
00000060: 282b 51bb 882a 013c 5fdf 86bc 4be0 dabc
00000070: be70 293d 5ebf a63b 9618 72ba f13f b33b
00000080: 4f3b 143c c774 3a3c 277b ae3c a72e 2cbc
00000090: 5d26 57bc 8f40 21bb eb73 4fba 2079 91bc
000000a0: a10a f2ba 5dbe 943c 0cb6 ec3b 909a b33b
000000b0: 2d6d 583d 2623 98bc 97da 63bc 8a9b 2e3d
000000c0: 38dc 463c b964 923c ab3e adbc 4abf 083c
000000d0: 39c9 993b ccbc 06bd dc36 ad3c bc61 873b
000000e0: 334a 0d3b e305 8b3c 624e babb 63b0 aebb
000000f0: c1bf 7a3c 305d be3b 4db0 943b f388 833c
00000100: c384 883c 5dff 1d3a 01a9 8fba cb58 20bd
00000110: 3ac8 81bb 2bec f4bc e353 8cbc 0ae8 84bb
00000120: c3d4 a73c 100f 74bc 2901 11bc c53b c93b
00000130: 2891 40bb ed04 243c 4290 c63a 640c 65bc
00000140: 50f4 893c 8aa4 9dbb db9d 4b3c 0ba5 b3bb
00000150: 7ba3 903b 5ca0 58bc f237 0d3c d8d0 afbc
00000160: f4e5 febb 8daa be3c 2744 45bb f1b3 183d
00000170: 2b8c 33bc e4de e43c 34ea 9bbc 0f42 7cbc
00000180: 01bb eb3a a3bd f7bb 9c2c 5fba 215e 463c
00000190: 9a4e b63a 894e 7e3b c5dd bcbc 1845 203b
000001a0: ebf8 58bb f410 2abd afc3 bc38 c05c 14bc
000001b0: 1a42 85bc 7e11 9bbb b33c 72bc 8c69 cbbb
000001c0: 3c71 12bb d473 baba a0ba 613c 850e 233c
000001d0: 6530 01bc d350 393d c682 783c c2a9 f4bc
000001e0: c6a1 75bb e215 c83c f1e4 2bbc fa37 9fbc
000001f0: b677 2f3c ab85 0bbd 4da7 78bc 52ab a03b
00000200: 3145 1f3d 1f62 38bc de57 3d3c ab5a 7e3c
00000210: bce3 093c 1209 1bbc db2c 0c3d b0cb ecbb
00000220: 3211 9a3c c50d 843c 02cc 8c3b bcd4 2f3c
00000230: 2b4f 333b 44a5 aa3c ce85 adbb 1bb7 8f3c
00000240: 85ab 1ebc 4b06 383a 2a7d acbb 0547 0d3d
00000250: 6aea 98bb f0b2 8bbc f95a 473b 292f afbc
00000260: 5f05 cbbb 2616 18bc 8a5a 4c3c 8da4 213d
00000270: 6748 7b3d d29b 69bb 2639 7c3c 4688 663d
00000280: f3e0 813c 7a5f 9a3b fde4 8539 c131 9ebb
00000290: bbd9 f43b 9496 adbc 4e08 94bc ee4a b4bb
000002a0: f3b7 c93b d648 cbbc 3389 c3bb b201 1a3d
000002b0: b420 ba3c 9e18 b83b 40e9 363c ca3a cb3c
000002c0: 37c2 b3bc 0ab4 9f3a 8b89 70bc 9604 3e3c
000002d0: 1c06 b03b c2e7 d63c 3632 213b 559a 853c
000002e0: 22cc 163c 8733 073a 5d01 7bbb 2bca a33b
000002f0: 00e1 6abc fcf5 a3bc 18df e33c 053e 09bc
00000300: b352 183c 3107 093c 7c8c 94bb f7b1 313d
00000310: f9df c6bb c8e8 083d 2e3e 1ebc 3a4d e3ba
00000320: 5d47 c3bc 2d87 b73b 57a7 e1bc 6715 863b
00000330: 9dcd afbb 4641 7a3c 8690 03bd 6f45 5ebc
00000340: 0e75 17bc e519 64bc c2d3 8d3b 178a 3c3b
00000350: df78 b1bb cc23 21bc bf2a b73c 5a54 793c
00000360: 3aaa 9d3c 91ca 223d ccb1 71bc 4ff3 0ebd
00000370: 4634 913b addc 5d3c c34c 8e3c ccaa 36bc
00000380: 6f76 593b 3c13 e43c b024 72bb f6cb ebba
00000390: 55df 87bc 2850 e33b 924a 29bb e9e8 16bc
000003a0: 56f9 e138 d1a1 86bc d86f dd3c fcbf 3e3d
000003b0: c9f9 3e3c b3dd 3a3d 2a2a 043c c746 663c
000003c0: b8cf 00bc 4f11 04bd c280 183d 7fb3 b9bc
000003d0: 8f8a 95ba 3708 973c 2e40 3c3c 9314 a3bc
000003e0: bd0f 46ba c36b aa3c e1ec cbbc 1c72 b73b
000003f0: 211b d13b bdad 443b fdb9 a83c 486d 66bd
0.0003307684 0.0254237 -0.026494067 -0.019824723 -0.013569221 -0.004857909 0.021853462 -0.016472323
-0.016083224 0.011229449 0.0051885536 0.004156694 -0.030781968 0.020850603 0.020626795 -0.02307972
-0.010669927 0.023374671 -0.027297564 0.023596155 -0.043745898 -0.01696312 0.0025085376 0.018339233
-0.0031916592 0.007883675 -0.016463934 -0.02671828 0.041367285 0.0050887307 -0.0009235231 0.005470269
0.009047343 0.011380381 0.021298958 -0.01050917 -0.013131705 -0.002460513 -0.00079136965 -0.017757952
-0.0018466302 0.018157179 0.00722385 0.005481072 0.052838493 -0.018571448 -0.013907096 0.042628802
0.012137465 0.017870294 -0.021148046 0.008346388 0.004693177 -0.032894894 0.021144323 0.004131524
0.0021559119 0.01697058 -0.0056856135 -0.0053310855 0.015304507 0.0058094487 0.0045376183 0.016056513
0.016664868 0.0006027127 -0.0010960401 -0.03914718 -0.0039606364 -0.02989777 -0.017129844 -0.0040559815
0.020487195 -0.014896169 -0.008850374 0.0061411583 -0.0029383395 0.01001094 0.0015149193 -0.013980005
0.01684013 -0.0048108744 0.012427772 -0.005482321 0.0044140196 -0.013221826 0.008619295 -0.02146189
-0.0077788774 0.023274684 -0.0030100436 0.03728098 -0.010958712 0.027938314 -0.019032575 -0.015396609
0.0017984809 -0.0075604483 -0.0008513422 0.012107403 0.0013908923 0.0038804135 -0.023054967 0.0024455246
-0.003310735 -0.041520074 9.0009875e-05 -0.009055316 -0.016266871 -0.00473231 -0.01478498 -0.0062076505
-0.0022345325 -0.0014225193 0.013777405 0.009952192 -0.007885073 0.045243096 0.015167898 -0.029866103
-0.0037480458 0.024424497 -0.010491596 -0.019435871 0.010709694 -0.034063023 -0.015176606 0.0049032355
0.038884345 -0.011253863 0.011556594 0.015524547 0.0084161125 -0.009462612 0.034222465 -0.00722643
0.018807027 0.016119847 0.0042967806 0.010731872 0.002736042 0.020830758 -0.005295492 0.017543366
-0.009684448 0.00070199807 -0.005263944 0.034491558 -0.004666616 -0.017053097 0.0030419214 -0.021384792
-0.0061957086 -0.009282624 0.012472758 0.03946357 0.061348345 -0.0035645855 0.015394485 0.056282304
0.015854334 0.0047110887 0.00025538346 -0.0048277085 0.0074722446 -0.021189965 -0.018070366 -0.0055020964
0.0061559617 -0.024815004 -0.005967283 0.037599273 0.022720672 0.005618169 0.01116401 0.024808306
-0.021943195 0.0012184393 -0.01468123 0.011597773 0.005371822 0.026233558 0.0024596578 0.016308943
0.0092039425 0.00051575195 -0.0038300373 0.0049984655 -0.014335871 -0.020014755 0.02781634 -0.008376603
0.009297061 0.008363531 -0.0045333486 0.04338261 -0.00606918 0.033425122 -0.0096583795 -0.0017341741
-0.02383774 0.005600831 -0.027545614 0.004091907 -0.005365087 0.015274351 -0.03212025 -0.013566359
-0.009244217 -0.013922189 0.004328222 0.0028768831 -0.0054160203 -0.009835195 0.02235925 0.015217865
0.01924621 0.039743964 -0.014751863 -0.034900006 0.0044312803 0.013541383 0.017370587 -0.01114912
0.0033182164 0.027841203 -0.0036948137 -0.0017989862 -0.016585985 0.0069370456 -0.00258318 -0.009210804
0.000107752785 -0.016434582 0.02703087 0.04656981 0.011656233 0.045621585 0.008066693 0.014054961
-0.007862024 -0.03224307 0.037232168 -0.022668598 -0.0011409092 0.018436534 0.011489911 -0.019907271
-0.0007555446 0.020803338 -0.024893226 0.0055983197 0.006381408 0.0030010783 0.020596499 -0.056256562

action_model._continuous_distribution.mu.bias f4 [2]
00000000: db50 043a 59b5 2a3b
0.0005047449 0.0026048033

action_model._discrete_distribution.branches.0.weight f4 [1, 128]
00000000: 4f05 38bc ad51 dc3a 0c6f aebb 7298 2abc
00000010: 6dda aabb 6301 ebbb 2492 8f3a 1f9c 38bc
00000020: 8b9a 3bbb 822c d63b 577f 85bb 899d 963b
00000030: 86c1 823b 59da 193a 73fc 7239 0545 d33b
00000040: 1a6f 833c ab3f 6abc 1201 99b9 f0dc 063c
00000050: 7179 2a3c 959a 633c 8a79 4eba e68c 9f3c
00000060: 020c 653b 3243 f93b 6d7a c0bc d0a6 74bc
00000070: c724 a23b ea31 6dbb 2897 d83b dbcb bb3b
00000080: bfd5 9d3b 033a 8a3b d97c 833c 5ea4 a5bb
00000090: c231 1c3b 52e5 10bc d4df 433c 4377 80bc
000000a0: 811b bcbb a32d c439 27a5 1d3c 5a93 193c
000000b0: 131a 50bb 0f84 3b3b 37c4 c139 483b eebb
000000c0: df1f f1ba 9a45 413c 65c2 2cbc 0f1b 0bbc
000000d0: b3d7 84bc 9aa0 4dbc dfd6 703c f7f5 90bc
000000e0: 4fbf 283c 5285 15bc e2b0 78bb 1935 4c3c
000000f0: 3546 2cbc 62ff e6b9 3209 613b c773 063c
00000100: 71a6 873c e886 a03a bd1f 36bc b8e7 823b
00000110: 757a 183a dd8a 0cbc 85fc f43b 1a6d b83b
00000120: d421 3dbc 2f81 2bbc f5d4 bc3b 0bf9 cdbb
00000130: b206 2b3c 6b7f 133c 98f8 9d3b 8de5 d639
00000140: f544 6e3b 1bd3 92bb 0e72 293b 30b9 54bb
00000150: 3735 17bc 9086 19bc 3f3a 37bc 081a 51ba
00000160: 1f90 c6b9 8172 13bb fc0b 85ba bcb6 0e3c
00000170: a68b c3bb ada2 e0bb bb02 57bb aaf1 79ba
00000180: 4ee4 be3a 3b63 823a 60a2 5bbc 3851 41bc
00000190: dd50 c53b 300d 763c 96a9 25bc 87fd b4bb
000001a0: f053 e73b 6049 5c3c e816 673c 0329 b8bc
000001b0: a257 b5bb c311 38bc 9378 62bb 0d52 d53b
000001c0: caab 013b 23a9 b1bc b30d f93b 1f15 f3bb
000001d0: b3d1 2bbc 2684 413c b806 be3b 933f 033c
000001e0: 5f94 a83c 2e9d a7bb 2fab 853b 4bfe 5cbc
000001f0: a53d 143c 17c5 4ebb a03f 66bc 5653 273b
-0.011231734 0.0016809009 -0.0053232964 -0.010412322 -0.0052140267 -0.007171796 0.0010953587 -0.011267691
-0.002862605 0.0065360675 -0.004074018 0.0045964164 0.003990355 0.0005869023 0.00023172963 0.0064474368
0.016044188 -0.014297406 -0.00029183232 0.008231387 0.01040493 0.013891836 -0.0007876387 0.019476365
0.0034949784 0.0076068873 -0.023495877 -0.014932349 0.004948232 -0.0036193081 0.006609816 0.0057310886
0.0048167403 0.0042183413 0.016050743 -0.0050549945 0.002383337 -0.008843737 0.01195522 -0.015681868
-0.0057405834 0.00037418035 0.009621895 0.00937351 -0.0031753823 0.0028612649 0.0003695802 -0.0072702505
-0.0018396339 0.011796379 -0.010544394 -0.008490338 -0.016216135 -0.012550497 0.014699667 -0.01769541
0.010299518 -0.009126024 -0.0037947227 0.012463831 -0.010514786 -0.00044059294 0.0034337756 0.008206314
0.016558858 0.0012247236 -0.011115965 0.003994908 0.00058165874 -0.008578029 0.0074763917 0.0056282403
-0.01154371 -0.0104678115 0.005762691 -0.0062857918 0.010438608 0.009002547 0.0048208944 0.0004098829
0.003635702 -0.004480732 0.0025855335 -0.0032459013 -0.009228996 -0.009370461 -0.011183321 -0.0007976596
-0.00037872882 -0.002249867 -0.0010150666 0.008710559 -0.005967575 -0.00685533 -0.0032808024 -0.0009534607
0.001456389 0.0009947786 -0.013405412 -0.011799149 0.0060216025 0.015017793 -0.010111233 -0.005523387
0.0070595667 0.013445228 0.014104582 -0.022480493 -0.0055341283 -0.0112347035 -0.003455673 0.0065100254
0.0019786232 -0.021687096 0.00760051 -0.0074182893 -0.010487008 0.011811292 0.005799141 0.008010763
0.020578561 -0.005115173 0.0040792446 -0.013488363 0.0090479 -0.003155058 -0.014053255 0.002553185
