Assets/results/VikramRover15-dl/VikramRover/checkpoint.pt (torch, 859435 bytes, 51 tensors)

network_body._body_endoder.seq_layers.0.weight f4 [128, 10]
000000 77 43 85 3d 57 09 e0 3e 3c dc 2d 3e 34 a7 9f 3e
       0.065070085 0.43757126 0.16978544 0.31182253
000010 89 da b6 3d c6 0c 98 3e 60 b9 e2 bd d4 3b cd bb
       0.08928401 0.29697245 -0.11070514 -0.0062632356
000020 c4 ff 07 3f bf c6 ea bc 44 d5 98 3e be 59 f9 be
       0.5312464 -0.028659223 0.2985021 -0.4870128
000030 ba 47 48 3e 5c 03 44 3e fe ff ec 3d 0d 54 e2 be
       0.19558612 0.19141906 0.11572264 -0.4420475
000040 fa 43 ed 3e fe 55 15 bf aa 6c 03 3e 97 bc 03 3f
       0.46340925 -0.5833434 0.12834421 0.5145964
000050 d3 93 8d bd 9a 03 9a be 5d 39 9a 3e 38 58 8e bd
       -0.06912961 -0.30080873 0.3012189 -0.0695042
000060 e8 2e 5a be 57 60 ea 3e 2f 30 16 3d 06 cc d9 be
       -0.21306956 0.45776626 0.036667045 -0.4253847
000070 96 21 51 be 65 14 0e 3e 40 42 82 bc da 0a ce 3e
       -0.20422968 0.13874967 -0.015900731 0.40242654
000080 d6 9c 55 3e 2f fe fb be b7 16 b5 bd 06 db 1b 3e
       0.2086061 -0.49217364 -0.08842223 0.1522027
000090 cf 8e 7e 3c 2a 76 03 3e f5 55 9a be a0 b7 33 3e
       0.015536978 0.12838045 -0.30143705 0.17550516
0000a0 2c be 81 3e 12 91 3a bf 3d dd 45 3d 66 c9 2b bf
       0.25340402 -0.7287761 0.048306692 -0.67104185
0000b0 d7 73 ef 3d 83 64 ca be 5a 63 b8 3d 97 ca 1d 3e
       0.116920166 -0.3952981 0.09003325 0.15409313
0000c0 1e fe 12 bd e2 fa f3 3d ca b4 48 be 79 06 20 3d
       -0.035886876 0.119130865 -0.19600216 0.039068673
0000d0 04 05 17 3e 41 cc 66 be e5 6f 8e be 68 3c e8 3e
       0.14748007 -0.22538854 -0.27819744 0.45358586
0000e0 75 7e b1 3e a6 c0 ea 3d 39 cd ce 3e a6 81 4f be
       0.34666792 0.11462526 0.40390947 -0.202643
0000f0 b3 6f 5c be 7e 77 01 bd 2f bd 78 be 21 a4 c0 be
       -0.21526985 -0.031608097 -0.24290918 -0.3762522
000100 fd b8 f3 bd 1f b6 e9 be 1e 98 28 3e 66 99 87 3d
       -0.11900518 -0.4564676 0.16464278 0.06621055
000110 d2 86 96 bd 98 87 07 3d d6 6e f7 3c 94 74 42 be
       -0.07349934 0.033088297 0.030204218 -0.18989784
000120 ef 56 b3 bd bd c5 17 bf 8a 6d 13 be 71 13 92 be
       -0.08756816 -0.592861 -0.14397255 -0.28530458
000130 a1 ce c5 3d 75 e4 80 be 5a ef 7a be 9f 53 09 3f
       0.09658552 -0.251743 -0.24505368 0.5364322
000140 df f4 0b 3e 7b df 8a be b6 9a 02 3f 9a c7 43 be
       0.1366763 -0.27123627 0.5101732 -0.1911911
000150 a2 47 2d 3f 90 ec b7 3d 9e a0 03 3d 5d fa 7f be
       0.6768743 0.089806676 0.0321356 -0.2499785
000160 a4 f5 82 bc ef 5e 42 3b 19 cf cc be b2 00 e4 3e
       -0.015986271 0.0029658636 -0.40001753 0.4453178
000170 8f 3a 15 3e c2 8a 90 bc 69 ba ca 3e e4 14 15 bd
       0.1457312 -0.01764429 0.39595345 -0.036396876
000180 26 13 fd be ef ea 64 bd b8 56 d0 3d 0e f1 b5 3e
       -0.49428672 -0.055888113 0.1017279 0.35535473
000190 78 61 9c bd b8 1a dd 3d 56 97 69 3d 54 1f bf bd
       -0.07635778 0.10796112 0.05702909 -0.09332147
0001a0 1b 68 b7 3e 07 56 b7 bd 00 a1 15 3f e6 d6 cc be
       0.35821614 -0.08951955 0.5844879 -0.40007704
0001b0 b4 3f 91 bc da e0 d4 bb 2a 86 78 3e 29 e8 9e be
       -0.017730571 -0.006496531 0.2426993 -0.310365
0001c0 2f 08 32 3e 70 b3 dd 3e 4e ad 2e 3e d0 d3 99 be
       0.17385934 0.43300962 0.17058298 -0.30044413
0001d0 3e 03 f9 3d f8 cc 81 bd 7e e1 21 bf b0 0c fb bc
       0.121588215 -0.06337923 -0.632347 -0.030645698
0001e0 59 66 67 be 95 14 62 be dc 4e 24 3e a1 31 4e 3e
       -0.22597636 -0.22078164 0.16045707 0.2013612
0001f0 31 81 89 3e ac 77 9e 3e f1 cf ed be 78 c9 95 3c
       0.26856378 0.30950677 -0.4644771 0.018284544
000200 05 a6 4d bf 5c d2 7e be ae 5d 22 3e 72 3f bf 3e
       -0.8033145 -0.24884933 0.15856048 0.37353092
000210 8e d3 2b 3e 63 97 11 3e ef b2 52 3e e5 c4 4b be
       0.1677992 0.14217906 0.2057607 -0.19899328
000220 fc 28 1a bf 01 12 e0 3e 38 8f e2 bd 64 e9 ca 3e
       -0.6021879 0.43763736 -0.11062473 0.39631188
000230 67 0f 3d bc 7c ca 51 be 4e 65 0e bf c1 44 71 3d
       -0.011539317 -0.20487398 -0.5562333 0.05890346
000240 7d df ac be 56 75 79 be 03 6c 57 be ed 8b 11 3e
       -0.33764258 -0.24361166 -0.21037297 0.14213534
000250 68 1b a3 3e 95 28 64 be 1e 4d 11 be b9 26 20 3e
       0.31856847 -0.22281106 -0.14189574 0.15639772
000260 77 fa 5c 3d de 02 56 bf a0 64 8e 3e d8 93 e8 3c
       0.0539498 -0.83598125 0.27811146 0.02839081
000270 dd 26 1c be cf a4 01 3e 0f 5d 93 3d 21 70 25 bd
       -0.152492 0.12660526 0.07195484 -0.040390138
000280 85 81 8a bc 80 16 be 3e f9 da 07 bb d6 fa ea be
       -0.016907463 0.3712654 -0.0020729883 -0.45894498
000290 2d c2 00 3d e2 d0 63 3e f2 89 c4 bc df 90 5d bf
       0.03143518 0.22247651 -0.023991559 -0.8654918
0002a0 05 cf 85 be d2 d4 cf 3d 17 e5 48 3e 1e 9b 01 3e
       -0.26134506 0.10148014 0.19618641 0.12656829
0002b0 c5 71 20 be 93 76 2f bd 2a dd 81 be 5b c0 8b bd
       -0.156684 -0.04283769 -0.25364047 -0.06823798
0002c0 64 c1 82 be 46 ce 29 3b d9 8e 0b 3e 18 ac b8 3e
       -0.2553817 0.0025910302 0.13628711 0.36068797
0002d0 a9 01 81 3e 6f f2 3e be 95 9c 06 bf 3b 82 c6 be
       0.2519658 -0.18647169 -0.52582675 -0.38771233
0002e0 5b 78 ad 3d c1 e9 5c 3f 17 6e 69 3e b1 84 02 be
       0.084702216 0.8629418 0.22795902 -0.1274593
0002f0 d7 bb 3a 3e f0 2d be 3e ad 86 db 3e e8 b9 b0 be
       0.18235718 0.37144423 0.42876187 -0.34516835
000300 a3 64 79 3e e5 c2 30 bf 7b b8 89 3e ae b6 ac be
       0.24354796 -0.69047385 0.2689856 -0.33733124
000310 05 a6 2d be 29 2f 33 3e 97 dc cf be b9 5d ed 3d
       -0.16957863 0.17498459 -0.40597984 0.11590142
000320 c3 e2 b1 bd 6c 50 2f 3e 1a e8 9c 3e fe b1 7a 3c
       -0.086858295 0.17120522 0.3064583 0.015301226
000330 ec 3e cc 3c 44 ae a0 3e b0 b3 82 3e c8 02 77 3e
       0.024932347 0.31382954 0.25527716 0.24122155
000340 95 12 45 3d 53 98 29 be 58 a0 c8 3d 71 e9 70 bd
       0.048113424 -0.16562013 0.09796208 -0.058816377
000350 12 c7 42 bd 16 b9 35 bf 31 9c c3 be 95 93 03 bf
       -0.04755313 -0.70985544 -0.38205102 -0.5139707
000360 33 d3 87 3c 5b d0 c7 3e a5 63 49 3e b4 2d 45 3e
       0.0165802 0.3902615 0.19666918 0.19255716
000370 46 d5 15 bf fb c3 bd 3d a6 16 62 be 2f 36 3e be
       -0.58528554 0.09265896 -0.22078952 -0.18575357
000380 ef 23 8d 3e df 81 0d be 80 2d 8f be 35 0b 0c bd
       0.27566478 -0.13819073 -0.279644 -0.034190375
000390 d5 5f db 3d 43 f6 59 be 98 78 f7 3d 8e 99 53 3e
       0.10711638 -0.21285348 0.12083548 0.20664045
0003a0 2e 2e 59 be 6c 8b 0a 3f cb 9a 9a be 40 aa 01 3f
       -0.21209022 0.5411899 -0.30196223 0.50650406
0003b0 43 88 eb 3d 8a ff 93 3e 76 b6 61 3c 1d 51 6f be
       0.11500599 0.28905898 0.013776412 -0.23370786
0003c0 80 b6 90 bd 0d c2 66 3e 85 da 0e 3f 6e b8 6e be
       -0.07066059 0.22534962 0.55802184 -0.23312542
0003d0 88 55 7a be 6f 42 1b be 81 d1 9e 3e e7 42 a2 bd
       -0.2444669 -0.15162061 0.31019214 -0.07922917
0003e0 d4 78 09 3d b8 78 96 be b7 8c 9c bd 8e b1 83 be
       0.033562496 -0.29388976 -0.07644027 -0.257214
0003f0 35 82 56 be a9 7a f7 be b3 b4 5a 3d 6c af 67 be
       -0.20948108 -0.4833577 0.053394984 -0.22625512

network_body._body_endoder.seq_layers.0.bias f4 [128]
000000 a9 8a 08 3c 00 00 00 00 52 c8 fb bb 00 00 00 00
       0.00833384 0.0 -0.007683792 0.0
000010 00 00 00 00 57 30 8d 39 00 00 00 00 00 00 00 00
       0.0 0.00026929632 0.0 0.0
000020 38 b2 65 bc 96 13 04 3c f8 e6 51 2f 26 29 04 3c
       -0.014019541 0.00806131 1.9090496e-10 0.008066451
000030 30 d5 2a 3c e0 58 12 3c 00 00 00 00 00 00 00 00
       0.010426804 0.008932322 0.0 0.0
000040 de b6 76 85 9c 0a 17 17 09 b4 37 3b 00 00 00 00
       -1.1600452e-35 4.880412e-25 0.0028030893 0.0
000050 48 5a 92 3b 00 00 00 00 00 00 00 00 d5 14 b5 ba
       0.004466329 0.0 0.0 -0.0013815413
000060 00 00 00 00 00 00 00 00 87 7c 74 21 00 00 00 00
       0.0 0.0 8.2835226e-19 0.0
000070 00 00 00 00 b8 42 3e bc 00 00 00 00 00 00 00 00
       0.0 -0.011612587 0.0 0.0
000080 1b 87 11 bb 20 d8 2d 3c d6 1b 32 3c 6f c6 9f 3b
       -0.0022205773 0.01061061 0.010870894 0.00487595
000090 0f da 07 bb 1f ce 22 3c 00 00 00 00 6c 82 15 3c
       -0.0020729338 0.009936838 0.0 0.009125333
0000a0 62 da 25 3c af dc 40 bc 23 fb c4 3b 62 ab 40 a1
       0.010122867 -0.011771365 0.006011383 -6.5278954e-19
0000b0 ce fd 3f bc 4a a7 93 3b 00 00 00 00 69 4b e5 bb
       -0.011718227 0.0045060264 0.0 -0.006997515
0000c0 00 00 00 00 ac 66 0f 3c 96 a4 9d 3b 20 9c 3b 3c
       0.0 0.008752506 0.00481088 0.011450797
0000d0 96 89 21 b8 00 00 00 00 00 00 00 00 97 72 30 3c
       -3.8513528e-05 0.0 0.0 0.010769508
0000e0 58 90 e7 bb 3a cf 9f bb a5 1e ec 3a 18 31 dd 12
       -0.0070667677 -0.0048769983 0.0018014504 1.3959163e-27
0000f0 e8 f0 f3 3b ba 98 9f ba 00 00 00 00 00 00 00 00
       0.0074444897 -0.0012176253 0.0 0.0
000100 72 47 d9 3a e4 2d 8b 30 00 00 00 00 00 00 00 00
       0.0016577078 1.0126624e-09 0.0 0.0
000110 4d cb 9d bb 00 00 00 00 26 06 0e 86 8b b8 9c ba
       -0.004815495 0.0 -2.671175e-35 -0.0011956854
000120 01 d8 59 2a d9 16 df ba 31 7f 79 bb 00 00 00 00
       1.9348413e-13 -0.0017020359 -0.0038070197 0.0
000130 4d dd 2a bc 58 42 bb 3b fa ab 64 bb 1b 1b 58 bc
       -0.010428739 0.005714696 -0.0034892545 -0.013190056
000140 23 00 c1 3b 15 8b f5 3b 17 fc 2f 3c 00 00 00 00
       0.005889909 0.0074933865 0.010741255 0.0
000150 2e e0 4c 3c ec 1c ec ba 97 13 ef bb 93 7a 02 3c
       0.0125046205 -0.001801399 -0.0072960365 0.007963794
000160 16 f4 8a 3b 00 00 00 00 1d be 7e 3b 05 27 51 22
       0.004240523 0.0 0.003887064 2.8345439e-18
000170 ea 6c 85 3a 00 00 00 00 00 3f 37 3c 20 1d 07 3a
       0.0010179554 0.0 0.011184454 0.0005154181
000180 b7 98 6a 3a 3d be 3d 3b a4 c2 10 bc 7b 21 ac 3b
       0.0008949148 0.0028952502 -0.008835468 0.0052530146
000190 98 9f 14 90 8e c8 ec 3b 00 00 00 00 00 00 00 00
       -2.93108e-29 0.0072260564 0.0 0.0
0001a0 00 00 00 00 99 51 79 ae de 1b f6 3b a5 3e 8b bc
       0.0 -5.668852e-11 0.0075106462 -0.016997645
0001b0 6d 2d d1 1d 48 8d 23 3c 00 00 00 00 91 08 3f 3c
       5.536881e-21 0.009982415 0.0 0.011659757
0001c0 f0 ad 20 3c 17 ed 5d 3c 77 a4 37 3c c1 4a 30 3c
       0.009807095 0.013545296 0.011208645 0.01076001
0001d0 d8 b5 14 3c a1 4b 95 3b 1c ba 5b bb 4c 34 40 3c
       0.009076558 0.004556135 -0.0033527678 0.011731219
0001e0 99 22 1c 3b 87 37 89 24 19 70 2c bc 00 00 00 00
       0.0023824333 5.9508346e-17 -0.010524773 0.0
0001f0 2e cc 53 b4 00 00 00 00 00 00 00 00 00 00 00 00
       -1.9725186e-07 0.0 0.0 0.0

network_body._body_endoder.seq_layers.2.weight f4 [128, 128]
000000 45 cd 13 3d 16 9e 44 bd 89 06 5e bb bb 1c 13 3e
       0.036084432 -0.048002325 -0.0033878407 0.14366429
000010 cb a8 dd 3c 94 d0 57 bd 54 24 d3 bd ac 67 3f be
       0.027058026 -0.05268915 -0.103096634 -0.18691891
000020 47 fa 79 bc d0 98 a0 bd 6a 90 37 3e 6f 43 05 3d
       -0.015257425 -0.07841647 0.17926183 0.032535013
000030 06 d6 86 3c 14 62 8d 3c 37 ae f6 3a cb 21 e8 3d
       0.016459476 0.017258681 0.0018820231 0.113345705
000040 f3 3e 51 3d 1a cf 1a 3e 44 b9 b6 bd 90 04 24 3d
       0.051085424 0.15118065 -0.08922055 0.040043414
000050 56 75 e2 bc ab f3 c6 3d d1 dc 11 3d ed 77 33 3e
       -0.02764384 0.09714445 0.035610978 0.17526217
000060 84 12 5a 3d 18 4c c6 3d 32 63 25 be 7c 68 c5 3d
       0.053240314 0.096824825 -0.16151121 0.096390694
000070 43 13 81 3d 21 41 97 bc 41 cc 8b 3d 46 2a 2a 3c
       0.06302502 -0.018463673 0.06826068 0.010386055
000080 c1 75 85 bd 3d 27 48 3c d3 e5 f3 bd f8 86 b9 bc
       -0.065166004 0.012216386 -0.1190907 -0.022647366
000090 70 26 5b 3c b7 2e 0e 3e 97 7f 1a bd 32 2f cf 3c
       0.013375863 0.13885008 -0.037719335 0.02529106
0000a0 72 7c 60 3d 25 ae bf 3d 66 bc eb 3d 52 19 31 3e
       0.05480618 0.09359387 0.115105435 0.17294815
0000b0 ea 98 6b 3d ce 3d 6b bd 28 3f 3d 3d 7a a2 7c bd
       0.057518877 -0.05743199 0.04620281 -0.061678387
0000c0 c5 cb 79 bd 90 f3 0c 3d 24 19 b8 bd dd a6 db bd
       -0.060985345 0.034411967 -0.0898917 -0.10725186
0000d0 0a b5 9f bc 73 e9 c9 bc 23 84 3f bd c9 54 09 bd
       -0.019495506 -0.02464745 -0.046756875 -0.033528123
0000e0 18 7d fa 3d 4e 40 bf bd 85 9e be bc d6 3f ed 3b
       0.12230891 -0.09338437 -0.023268947 0.007240276
0000f0 63 16 cd bb 45 e6 64 3e 24 de 57 bd 1e 28 16 be
       -0.006258772 0.22353466 -0.052702084 -0.14663741
000100 df 50 bc bd 7a ad a7 bd 5b 25 34 bd 9e b6 a1 bd
       -0.091951124 -0.08187385 -0.043980937 -0.078961596
000110 55 6d 08 bd 51 09 5a 3d 00 19 d3 bc b2 2c c4 3e
       -0.033307392 0.05323154 -0.025768757 0.3831535
000120 31 35 42 3d b0 6a 20 bd 7d ea 48 bd 46 fa 9c bc
       0.04741401 -0.039164245 -0.04905175 -0.019162308
000130 92 35 b3 3d 8d 7e be bd 3b 18 d3 bc c0 0c cf bd
       0.08750452 -0.093014814 -0.02576839 -0.10109854
000140 f3 77 e1 bd 3b 06 2d bd 30 6c 12 bd c7 6f 06 be
       -0.110092066 -0.04224227 -0.035747707 -0.13128577
000150 c0 c4 68 bd 23 e5 0e 3d a8 f3 1e bd 96 5a 22 be
       -0.05682826 0.03488649 -0.038806587 -0.15854868
000160 88 d9 12 3d f8 76 93 3d 40 67 4d 3d ad e0 c3 3d
       0.035851985 0.07200426 0.050147295 0.09564338
000170 90 31 08 3d 5a 6d 21 be 3e e1 f3 3d f7 08 46 3e
       0.03325039 -0.1576437 0.11908196 0.19339357
000180 28 9a b0 bc 10 10 a2 bd 9b 11 20 3c 46 22 7b be
       -0.021557882 -0.0791322 0.0097698225 -0.24524793
000190 4f 63 02 3e e6 62 13 3e bb 5e ba 3c 7a 35 73 3c
       0.12733196 0.14393196 0.02275025 0.014844293
0001a0 86 5a 12 bd f1 08 59 bb 10 d0 27 bd c7 04 14 be
       -0.03573086 -0.0033116902 -0.04096991 -0.14454947
0001b0 b0 d6 52 be 46 61 bd bd ab b6 6b bc e5 e6 18 3d
       -0.2058971 -0.09247069 -0.014386813 0.037329573
0001c0 12 c9 ed bd 9a 95 59 3c f7 e3 df bd b2 3b b9 3a
       -0.11610617 0.013280297 -0.10932153 0.001413217
0001d0 7e 13 a2 3d 18 48 41 bc 54 11 0f bd 53 fc f9 3c
       0.07913874 -0.011796974 -0.034928635 0.030515825
0001e0 6c 06 d8 bd c4 d5 05 3d f7 5d 86 bb c1 5e 18 3e
       -0.105481 0.032674566 -0.004100557 0.14879896
0001f0 9a 02 cf 3d 18 09 65 bd 91 ce 3d bd c8 68 2f bd
       0.10107918 -0.055916876 -0.046339575 -0.042824537
000200 18 71 8f bd 68 84 19 bd a6 dc 3b 3e 19 79 2b 3d
       -0.07003993 -0.037479788 0.1834589 0.041863535
000210 14 f3 c9 ba b8 13 b5 bd c6 98 1f bd 53 7a 0c bd
       -0.0015407526 -0.08841652 -0.038964055 -0.034296345
000220 98 89 45 3d f2 42 46 3e 5f 64 b5 3d 94 cb e9 bd
       0.048226923 0.19361475 0.08857035 -0.114157826
000230 96 8a 5e bd e7 93 a5 3d 49 38 a0 bc c5 78 21 3d
       -0.054331385 0.08084851 -0.019558089 0.039421815
000240 a2 de a1 3d 34 27 14 be 33 79 cb 3d de d3 78 bd
       0.07903792 -0.1446808 0.09935226 -0.060748927
000250 89 34 32 3d 85 0f 9a 3d 44 92 81 3d 6b 34 e9 3c
       0.043507133 0.07522491 0.06326726 0.028467378
000260 92 3c 7f 3d 1c f5 d8 3d 46 d5 2b 3e 6c e7 41 be
       0.062313624 0.10593626 0.16780576 -0.18935937
000270 c7 b9 0a bd 4e e3 29 bd 6a b3 01 be 27 d2 36 3e
       -0.033868577 -0.04147654 -0.12666097 0.17853604
000280 ae 12 99 bc 61 70 9e bc ab d8 88 3d 83 b0 b2 3c
       -0.018685665 -0.019340696 0.06681951 0.021812683
000290 38 a3 9e 3d 15 c0 29 3d 7a 06 ae 3d 30 ae 16 bc
       0.07745975 0.04144295 0.08497329 -0.009196803
0002a0 12 1a 99 bc e1 40 24 be db 50 40 3e 95 d9 0c 3d
       -0.01868919 -0.16040374 0.18780844 0.03438719
0002b0 cc f6 1d bc 9d 9b 3d 3d a9 27 1c 3c 4f 10 d7 3d
       -0.0096413605 0.046290983 0.00953094 0.105011575
0002c0 ef f5 c8 3d 0b df 6d bd 32 bf 59 be 5e bf a3 3d
       0.09812533 -0.05807404 -0.21264341 0.07995485
0002d0 64 fd ac bd 8c 38 f3 3d a6 ec b5 bd f5 b3 8f bc
       -0.08446768 0.1187602 -0.08883028 -0.017541865
0002e0 62 7d 48 bd 4e 7b 46 be 6e 11 93 3d 15 20 6f 3d
       -0.0489477 -0.19382975 0.07181059 0.058380205
0002f0 2b 18 e0 3c 7b b1 c8 bd ea b1 27 3e 13 b7 64 3d
       0.027355274 -0.09799477 0.16376463 0.055838656
000300 c0 7c 0d bd 0f 6e 10 3d 9f 8a 47 3e e8 bc 0a be
       -0.0345428 0.03526121 0.19486474 -0.13548625
000310 02 ae ba bc 51 3d ff 3c dd dc c1 bd a8 e9 83 3d
       -0.022788052 0.031157168 -0.094659545 0.06441051
000320 cd 26 90 bd 67 b8 b0 3c 36 40 84 3c 85 b8 67 bd
       -0.07038651 0.021572305 0.0161439 -0.056572456
000330 d8 d6 5c bd 09 da b7 3d ee 04 8d bd 8f 80 1b bc
       -0.05391583 0.08977134 -0.06885706 -0.0094911
000340 69 63 e4 bc 88 0a 5a bd 29 49 86 3d 3b 09 10 bd
       -0.027879434 -0.0532327 0.06556923 -0.035165053
000350 ef 01 d4 3d a3 13 f9 3d ca c2 71 3d d7 7d aa 3d
       0.10351931 0.121619485 0.059023656 0.08324783
000360 31 15 ab bb 91 8f fc 3c 7c e1 bc 3d 3d 5b a7 bc
       -0.005221032 0.030830177 0.09222695 -0.020429248
000370 9f 3d 99 3d 34 46 35 3b 5b ed 3a 3e 49 bc 12 bd
       0.074824564 0.0027660253 0.18254606 -0.035824094
000380 27 9d 36 3c dd ef 6d bd 6b 89 d2 bd 6f 7c e0 3c
       0.0111458665 -0.05809008 -0.10280117 0.027403085
000390 39 cb 0d bb fc 34 87 bc 5c fe 46 bd 95 2b f8 bd
       -0.0021636023 -0.016504757 -0.04858242 -0.121176876
0003a0 6d 54 bf bd 1b 95 97 bd 80 65 1b 3e 5c c5 14 be
       -0.09342275 -0.074014865 0.15175438 -0.14528412
0003b0 af 68 30 3d e1 99 e4 3c be 26 93 3d 4c df 8d 3d
       0.043068584 0.027905406 0.07185124 0.06927356
0003c0 7f 8a 14 bc 1d cb 7a bd ed ca 01 be 76 f3 40 3e
       -0.009066223 -0.06122886 -0.12675066 0.18842873
0003d0 06 50 1d be 1f 39 8e 3d da b3 be 3b c6 5b 73 3d
       -0.15362558 0.06944489 0.00581978 0.059413694
0003e0 32 d8 ae bc 21 8e ca bd 36 f6 cf 3c 92 27 5c be
       -0.021343324 -0.0989039 0.025385957 -0.2149947
0003f0 0b e0 3e 3e 27 7e ce 3d 94 02 ab 3d 13 c8 a2 bb
       0.18640153 0.100826554 0.08350101 -0.0049676984

network_body._body_endoder.seq_layers.2.bias f4 [128]
000000 b8 b5 78 ab d9 17 f5 3b 23 53 df 3b 4a 59 11 bb
       -8.8359485e-13 0.0074796495 0.0068153306 -0.0022178465
000010 5e 3b f9 bb 16 37 3f 0c 92 d0 14 96 00 00 00 00
       -0.007605954 1.4730682e-31 -1.2021158e-25 0.0
000020 3a d1 04 3c e5 44 ec ba 00 00 00 00 54 2e aa 32
       0.008106524 -0.0018025903 0.0 1.9811672e-08
000030 d5 a6 c3 3b 00 00 00 00 f1 c2 42 3c 5f 2f bb 3b
       0.0059708157 0.0 0.011887298 0.005712434
000040 00 00 00 00 58 7d 2a 3c 00 00 00 00 c5 bb 63 3b
       0.0 0.010405861 0.0 0.003474937
000050 00 00 00 00 54 a9 16 bb 00 00 00 00 0a d7 99 35
       0.0 -0.002298911 0.0 1.1461973e-06
000060 94 ef 8b 39 00 00 00 00 08 2a 51 3a 00 00 00 00
       0.00026690646 0.0 0.00079789804 0.0
000070 95 04 29 3c 1b 6d 08 bb e9 d9 c1 11 7f 3b 2e bc
       0.010316034 -0.0020816985 3.0584328e-28 -0.010634302
000080 07 c2 d5 3b bb 68 32 bc 00 00 00 00 9d c9 8a bb
       0.006523374 -0.0108892275 0.0 -0.00423546
000090 1c ec c3 bb 00 00 00 00 17 de 83 a9 40 a7 7c 3a
       -0.005979074 0.0 -5.856095e-14 0.00096379593
0000a0 5d 50 37 3c 00 00 00 00 12 a3 d1 bb a3 28 34 25
       0.011188594 0.0 -0.0063976133 1.562628e-16
0000b0 00 00 00 00 ff ea 21 3c 00 00 00 00 00 00 00 00
       0.0 0.009882688 0.0 0.0
0000c0 00 00 00 00 00 00 00 00 9b c2 01 b2 45 24 6d bb
       0.0 0.0 -7.553036e-09 -0.0036184948
0000d0 00 00 00 00 39 00 39 bc 19 32 ba 3b 0e 01 1b 3c
       0.0 -0.011291557 0.0056822416 0.009460701
0000e0 00 00 00 00 30 56 d8 a7 e6 2f 13 3c 3f 14 e3 3a
       0.0 -6.004549e-15 0.008983588 0.0017324759
0000f0 44 ed 0b 3c 87 b2 64 bb 00 00 00 00 d8 44 15 3c
       0.008540455 -0.003489645 0.0 0.009110652
000100 52 11 92 bb 00 00 00 00 8c 4f 1a bc da 9f 64 3a
       -0.004457631 0.0 -0.0094183795 0.00087213295
000110 b8 7d 00 ba b6 b4 a2 b9 71 55 4f ba d3 a2 85 b8
       -0.0004901546 -0.00031033688 -0.0007909155 -6.3722626e-05
000120 fd f5 4d 3c 89 d8 22 bb 94 d7 ac 3b 9b ba 8c bb
       0.012570855 -0.0024848303 0.0052747224 -0.004294706
000130 76 b9 90 85 ec db f8 3b 00 00 00 00 1c 85 13 3b
       -1.3609823e-35 0.007594576 0.0 0.002250976
000140 ac 2c c0 ba 60 91 f8 ba 1f 62 46 3c ab 79 bf bb
       -0.0014661751 -0.0018964224 0.012108355 -0.0058433614
000150 00 00 00 00 15 04 08 bc 71 b5 17 0e 02 ab 3d 3c
       0.0 -0.0083017545 1.8699548e-30 0.011576416
000160 4c c1 65 9c f5 ab 15 3c 00 00 00 00 16 ca b8 3b
       -7.6019574e-22 0.009135236 0.0 0.005639325
000170 00 00 00 00 3a 77 9f 8e 6f cf 62 ba 54 3c 34 3c
       0.0 -3.9311337e-30 -0.0008652126 0.0110007115
000180 d9 46 22 ba f1 8c 35 3c 25 87 85 af 5e e1 97 ba
       -0.00061903667 0.011080966 -2.4288585e-10 -0.001158755
000190 00 00 00 00 61 9e 1f bb 22 18 0e 3c f7 4c d0 b8
       0.0 -0.0024355876 0.008672746 -9.932549e-05
0001a0 e5 fd 6d bc b8 62 51 8b 00 00 00 00 00 00 00 00
       -0.014525865 -4.0326204e-32 0.0 0.0
0001b0 00 00 00 00 04 1d 21 3c 91 1e 47 3c 9d 83 41 3c
       0.0 0.009833578 0.012153284 0.011811164
0001c0 b6 bc 01 3c e1 d0 47 19 2d be e1 bb ce 44 09 23
       0.007918527 1.0330242e-23 -0.006889126 7.441355e-18
0001d0 ff 53 2a 3c 00 00 00 00 00 00 00 00 dd b5 52 bc
       0.010396003 0.0 0.0 -0.012860742
0001e0 8c 1e ec ba 25 77 c3 3b 00 00 00 00 8e 52 2a 3c
       -0.0018014475 0.005965131 0.0 0.010395659
0001f0 11 b9 1b 3c 60 b1 b8 bb a5 34 9d 3b 88 da 82 b0
       0.0095045725 -0.005636379 0.0047975355 -9.520855e-10

network_body._body_endoder.seq_layers.4.weight f4 [128, 128]
000000 8d ff 16 3e 3b 2f d1 bd b9 3e 3c bd e5 60 29 bc
       0.14745922 -0.102140866 -0.045958254 -0.010338043
000010 db 85 03 3d f5 c4 20 bd 35 a0 32 3e 69 f4 89 bc
       0.032110076 -0.039250333 0.17443927 -0.016840177
000020 72 dd ef bc 12 8b 04 be 6a 91 25 3e 6b 63 8b bd
       -0.029280398 -0.12943676 0.16168752 -0.06806072
000030 dc e3 cd 3c 55 8b d6 3d 79 43 bb 3d 2b d6 6e bc
       0.025133066 0.10475794 0.09143729 -0.014577429
000040 df 4c 83 3d 04 93 d9 bd bf 44 bb 3d 29 be f3 3a
       0.064111464 -0.10623744 0.09143972 0.0018596101
000050 cc ec b5 3d f7 48 99 3c 52 fc b0 3c b9 e2 1f 3e
       0.08883056 0.01871155 0.02160469 0.15613832
000060 25 13 49 bc c5 a2 4d 3d a6 1a b3 3d 5c 2d 27 bd
       -0.012272631 0.050204057 0.08745317 -0.040814742
000070 1f c8 8e bc 26 9b da 3d cf 20 cb bd 70 46 6d 3d
       -0.01742941 0.106741235 -0.09918367 0.057928503
000080 b1 8d 84 3b 0f b9 19 be be fd 34 3d 2c a7 35 3e
       0.0040452112 -0.15012 0.0441873 0.17739552
000090 0b 71 94 bc 60 52 98 3d 67 5f 69 bd db 09 74 bd
       -0.01812031 0.07437587 -0.05697575 -0.05957971
0000a0 d6 8f 55 3c 94 c4 6e bd 18 f9 82 3c f5 a6 a3 3d
       0.013034781 -0.05829294 0.015987918 0.07990829
0000b0 84 18 1c 3d e2 b9 41 be 07 49 e9 3c 9a 18 2e 3d
       0.038109317 -0.18918565 0.028477205 0.04250393
0000c0 80 ae ba bd 85 4e 71 bd 44 b5 cb 3b 2d fd 05 be
       -0.091153145 -0.058912773 0.006216677 -0.1308486
0000d0 bf 81 f8 bd ec 6a 8d 3d 73 ec 58 3e b9 5d 8c 3d
       -0.12134122 0.06905159 0.21183948 0.06853814
0000e0 c0 45 3e 3e c9 aa ce 3c fc 52 bf 3d 8c 29 88 bd
       0.18581295 0.025227921 0.09342 -0.066485494
0000f0 c0 2e 29 3d 3b e4 a8 bc ea db 03 be 3b 5c 29 bd
       0.04130435 -0.020616641 -0.1287686 -0.041347723
000100 1f 67 9d 3d 33 1b 8a bd 10 c4 19 3e e7 e1 c9 bc
       0.076856844 -0.06743469 0.15016198 -0.024643851
000110 a2 55 e4 3d 63 4a f2 3d 94 52 4c 3e 96 85 0a bc
       0.11149146 0.118305944 0.19953376 -0.008454701
000120 d9 1f 13 bd b9 94 c2 3c b3 55 a9 bd 53 68 89 bd
       -0.035919044 0.023752557 -0.08268299 -0.067093514
000130 2f 55 60 bd 95 df 3c 3e b7 84 4d 3d 30 6a 59 3d
       -0.054768737 0.18444665 0.050175395 0.053079784
000140 fe 0b 82 bc 9c ff 21 3c c7 c6 d8 3d cb 60 99 3d
       -0.015874859 0.009887602 0.10584789 0.07489165
000150 20 1b 05 3d af 85 11 be b8 9a 3a 3e dc 6d c9 bc
       0.03249657 -0.14211152 0.18223083 -0.024588518
000160 d5 22 51 3d f2 32 c1 3d f1 cb cc bc b8 1f b8 3c
       0.05105861 0.09433545 -0.02499959 0.022476062
000170 b4 e2 8c bc a2 91 67 3d c8 f2 bf 3d 22 e3 e1 bd
       -0.017197944 0.05653537 0.09372479 -0.1102965
000180 fd 6d 58 bd 14 c7 92 bd b9 9e c6 bd da b7 ad 3c
       -0.052839268 -0.071668774 -0.09698243 0.021205831
000190 7c 9c fe bd 57 e8 8b bd 81 f5 1d bd be 8c 02 be
       -0.12432191 -0.06831425 -0.03856421 -0.12749001
0001a0 62 e1 c1 39 18 7d 03 3d b5 fc ae bc e0 2f 9b 3d
       0.00036979752 0.03210172 -0.021360734 0.07577491
0001b0 3b b5 e8 bc a1 d0 6f 3d 6b bc c4 bd dd 0e 08 be
       -0.02840673 0.058548573 -0.096062504 -0.1328692
0001c0 8a 3f c5 3d 71 c7 80 bd 05 0a da bd 56 78 37 bc
       0.0963126 -0.062880404 -0.10646442 -0.011198124
0001d0 36 82 32 bc f8 f7 f0 3d 1a 46 2d bd bf 0b 22 3d
       -0.0108953025 0.11766046 -0.042303182 0.039561983
0001e0 a3 3f 96 bd 0d 1a 3d bd 78 9b 38 3d c5 72 6e 3d
       -0.073363565 -0.046167422 0.04507014 0.05821492
0001f0 48 14 1f bd 7f c3 a4 3d 3b c6 5c bd a3 0a 57 bd
       -0.0388377 0.080451004 -0.053899985 -0.05250038
000200 cd ba 10 be 54 35 71 bd 88 ef 46 3d d2 cb 60 be
       -0.14133759 -0.05888875 0.04856828 -0.21952751
000210 e5 59 23 3d 1e 68 05 3e 9f 3c 32 3e 9a 46 14 3e
       0.039880652 0.13027999 0.17405938 0.14480057
000220 1f 4c f1 3d 12 54 7f bd b1 cd 1a 3e 94 9c 95 bc
       0.11782097 -0.062336035 0.15117528 -0.018263139
000230 77 25 d1 bc a7 39 c9 3b 0f 2f 11 3d 5e f9 b1 bc
       -0.02553056 0.006140906 0.03544527 -0.021725353
000240 63 e8 07 be 39 98 a1 bc 5a 4b e2 3d bc 72 e6 3c
       -0.13272242 -0.019725906 0.110495284 0.028130881
000250 69 9e a2 bd 69 25 96 3c e9 2f cb 3d bf c2 9d 3d
       -0.079403706 0.018328385 0.099212475 0.077031605
000260 8a 20 60 bb c1 6d 29 3d 68 da ba bb 97 bc 6e 3b
       -0.0034199082 0.041364435 -0.0057023056 0.0036428326
000270 fe 81 80 bd 93 a5 80 bd c9 f1 f4 bd 9c 32 c2 bd
       -0.06274794 -0.06281581 -0.11960179 -0.09482309
000280 b8 e9 f3 bc a0 a0 72 bd d7 d7 fb bc d0 69 e9 3d
       -0.029774532 -0.059235215 -0.030742569 0.11397135
000290 b1 3a ba bd b3 f0 23 bd 08 e3 b2 bb 93 e5 9d 3d
       -0.09093226 -0.04002447 -0.005459193 0.077098034
0002a0 22 0f 18 3e ff 34 25 3e cb 8d 8c 3d 97 b5 33 3e
       0.14849523 0.16133498 0.06862982 0.1754974
0002b0 c7 20 04 3d d9 0d 62 bd 87 f4 8e 3d 3f 55 f8 bd
       0.03225782 -0.055188987 0.06980234 -0.121256344
0002c0 01 64 b2 bd 12 97 ad bd 02 21 0f 3d 3d ed 8d bd
       -0.087104805 -0.0847608 0.034943588 -0.06930015
0002d0 19 6f 23 3c b8 79 fb 3d 4f de ca bc d2 fa 35 3d
       0.009975218 0.122790754 -0.024764208 0.044428654
0002e0 9e ed 43 be 6b 7b ae bd ae 9e 09 bc 18 a4 f9 bd
       -0.19133613 -0.08519634 -0.008399649 -0.121895015
0002f0 eb 0f bd 3d 2f 4a 9d 3c 49 57 44 be 73 47 a9 3d
       0.09231552 0.019200413 -0.19173922 0.08265581
000300 48 ff b0 3c ba af 35 bc 0d 1f 3b 3d 14 7e 05 be
       0.021606103 -0.01108926 0.04568391 -0.13036376
000310 86 b0 19 3e 22 42 1e 3d 1f 93 a5 bc 58 4e c1 3c
       0.15008745 0.038637288 -0.020211754 0.023596928
000320 76 bb f9 3d 2c 14 84 3e c1 89 87 3d d5 ee 78 bd
       0.121939585 0.2579664 0.06618071 -0.060774643
000330 a4 22 5f 3c 3b e9 a3 bd fc 32 86 3d 57 31 65 bd
       0.013619099 -0.080034696 0.06552693 -0.055955257
000340 ef 5e 19 bd fa b8 04 bd 12 3a 04 bd 34 7e 01 be
       -0.03744405 -0.03240297 -0.032281943 -0.12645799
000350 3b 16 80 3d da 41 4c 3e 0b 74 37 bb cb a4 01 3e
       0.0625424 0.19946995 -0.002799275 0.1266052
000360 45 dc 7a bd 80 ab df bd e4 e4 53 bc 5f df 70 3d
       -0.06124522 -0.10921383 -0.01293299 0.058806773
000370 a5 ce 2a be 9b 3d 06 3d 59 a4 0a 3d 14 17 da 3d
       -0.16680391 0.032773595 0.03384814 0.10648933
000380 9b 62 f0 bc 4f 45 99 bb f1 f7 3b bd 24 af 25 be
       -0.029343894 -0.0046774517 -0.045890752 -0.16180092
000390 e8 db 3b 3d 1a 9c e6 3d 7e 42 8a 39 05 19 bb b9
       0.045864016 0.11260243 0.00026370952 -0.0003568606
0003a0 91 a8 ee bb b0 9f 33 3d 34 07 76 bd f4 c4 d1 3d
       -0.0072832783 0.04385346 -0.060065463 0.10242644
0003b0 6a 24 91 bb a6 36 e8 3c 15 5e ab bd d0 7c ce bd
       -0.0044293897 0.02834637 -0.08367554 -0.100824
0003c0 3e 9b 84 bd 68 56 08 3c 76 6a 47 be 51 ee 0d be
       -0.064749226 0.008321382 -0.19474205 -0.13860442
0003d0 24 63 e2 3c 1a c2 22 3e 93 cc 10 bd ad 52 b7 bd
       0.027635165 0.15894356 -0.035351347 -0.08951316
0003e0 f4 a1 a8 bb bc 8c 98 3d 2c 65 7b bc d1 77 80 bd
       -0.0051462594 0.07448718 -0.0153439455 -0.06272853
0003f0 5e ec 9e bd e9 50 2e be 54 66 15 bd fd 30 7e 3d
       -0.07759927 -0.17023052 -0.03647454 0.062058438

network_body._body_endoder.seq_layers.4.bias f4 [128]
000000 de f4 a5 3b 17 73 ab bb fa c8 44 3c 4a d1 3e 3c
       0.005064591 -0.0052322256 0.012010807 0.011646578
000010 ec c8 b0 3b 14 f9 8e 3b df 22 ec ba e3 b7 29 3c
       0.0053950455 0.0043631885 -0.0018015763 0.010358783
000020 d0 cc b1 bb 8d 1f 41 3c 4b 22 ec ba 79 ed 12 3c
       -0.005426027 0.011787307 -0.0018015591 0.008967751
000030 6b d1 06 3a 00 16 f5 bb d4 15 01 bb 11 42 90 27
       0.00051429 -0.0074794292 -0.0019696848 4.003966e-15
000040 00 00 00 00 cb cd 2b 3c 23 e8 fc 3b bb 4b 19 bc
       0.0 0.010486077 0.0077181025 -0.009356434
000050 18 ac 48 3c 52 dd 10 3b 17 85 2e 3c fe 48 2a 20
       0.012248062 0.0022104573 0.010651848 1.4423711e-19
000060 b3 da 6d 3b e8 69 eb 3b 94 7f 7c 3b 2e 52 44 3c
       0.0036293685 0.007184256 0.003852819 0.011982484
000070 00 00 00 00 32 54 96 bb cd ef 48 3c e2 fd 1d 3b
       0.0 -0.0045876736 0.012264204 0.0024107625
000080 50 5a 02 3b c2 10 8a 3a 16 83 c5 bb bd 9f 0b 3c
       0.0019890256 0.0010533559 -0.0060275896 0.008521971
000090 00 00 00 00 b0 40 ea ba f3 bf 50 3a 7b e7 48 3c
       0.0 -0.0017872062 0.0007963173 0.0122622205
0000a0 00 00 00 00 91 94 73 bb 00 00 00 00 95 58 24 3b
       0.0 -0.003716741 0.0 0.0025077213
0000b0 00 00 00 00 38 52 c2 3b 00 00 00 00 b9 44 2d 3c
       0.0 0.0059302114 0.0 0.010575467
0000c0 e5 43 af 3b 00 00 00 00 21 a8 02 bc 75 2d 0a bc
       0.00534867 0.0 -0.007974655 -0.008433689
0000d0 a1 e2 f1 3b 00 00 00 00 07 c3 17 3c 6f 9d 3c 3c
       0.0073817526 0.0 0.009262807 0.0115121445
0000e0 00 00 00 00 bc fc d6 bb e0 d8 6d 18 cc e0 90 3b
       0.0 -0.00656089 3.0741026e-24 0.004421329
0000f0 77 5b d2 b2 92 e1 0f bb 83 fe 9c 3b 66 8b 31 bb
       -2.4488811e-08 -0.0021954519 0.0047910823 -0.0027091145
000100 18 32 1f 06 44 c5 e4 35 7c 76 77 bb db 7c 6c 1b
       2.994138e-35 1.7044736e-06 -0.0037759831 1.9561805e-22
000110 1c ff eb ba f3 0a 26 3c e2 0d 03 ba a5 ab 34 3c
       -0.0018005106 0.010134446 -0.0004999322 0.011027251
000120 5b 54 3e b8 00 00 00 00 c6 e7 29 bc 34 fe 36 3c
       -4.5378092e-05 0.0 -0.0103702005 0.011169005
000130 e3 83 e9 ba 4d 9d 35 ab 99 8c 7b af f9 30 79 08
       -0.0017815795 -6.4522416e-13 -2.2878267e-10 7.498828e-34
000140 59 a1 82 3a 71 28 16 9f 9e b8 2b 3c 2e b1 c5 91
       0.0009966298 -3.1797188e-20 0.010481028 -3.1190315e-28
000150 dd f6 bd 3a 00 00 00 00 00 00 00 00 96 df b1 bb
       0.0014493127 0.0 0.0 -0.005428265
000160 41 38 e8 ba e6 e0 2a 3c 08 4e 24 3c 4a c1 53 bc
       -0.001771696 0.0104295965 0.01002837 -0.012924502
000170 1f ce 2c bb 2e c2 aa 3b 94 44 cc b9 00 00 00 00
       -0.0026367975 0.0052111363 -0.00038961007 0.0
000180 bd df 35 bb ec a9 20 13 db dc 96 bb a0 20 57 bc
       -0.0027751767 2.0278617e-27 -0.0046039647 -0.013130337
000190 08 23 ec ba 62 90 43 b9 6d c7 31 bb 00 00 00 00
       -0.0018015811 -0.00018650436 -0.0027126924 0.0
0001a0 00 00 00 00 c7 26 98 3b d0 7b ba bb f0 4b 59 bc
       0.0 0.0046432945 -0.005691029 -0.013262734
0001b0 2c 3a 48 3c 00 00 00 00 00 00 00 00 d4 19 70 3c
       0.0122209005 0.0 0.0 0.014654595
0001c0 35 0f bc bb 4f 49 15 bc 3f 09 36 ba 4a 4c 87 bb
       -0.0057391175 -0.009111716 -0.0006944127 -0.0041289674
0001d0 ee 09 6c b9 07 4f 38 3c 00 00 00 00 19 14 24 3c
       -0.00022510413 0.01124931 0.0 0.010014557
0001e0 ae c7 08 bb cb 14 d4 9e 68 6f 76 bb 55 74 7a bb
       -0.0020870971 -2.2454973e-20 -0.0037603024 -0.0038216312
0001f0 12 81 93 b9 38 f1 b0 bb 1c f3 f0 3b 2d 32 2e 3c
       -0.0002813419 -0.0053998493 0.0073531996 0.01063208

action_model._continuous_distribution.log_sigma f4 [1, 2]
000000 07 4f 2a 3a 9d bc c5 3c
       0.00064967613 0.02413779

action_model._continuous_distribution.mu.weight f4 [2, 128]
000000 1c 6a 3c 3c dd 22 72 3c 55 2b 0a 3d cd 21 c6 3c
       0.011499908 0.01477882 0.03373273 0.02418604
000010 91 10 ab 3c ba 4e 1d 3c 3b 8b 04 bc de fd db 3c
       0.020881923 0.009601289 -0.008089836 0.026854452
000020 3a 6a 9d 3b 8f fa e7 3c fe d7 d8 bb 5d 51 af 3c
       0.004803923 0.028317718 -0.006617545 0.021401102
000030 83 4d 68 3c f3 f5 c7 bb ce 7b 58 bb 3d 93 5e ba
       0.0141786365 -0.0061023175 -0.0033032778 -0.0008490568
000040 e1 56 a8 3c 79 07 ba 3c 3e 59 89 3c 7d 67 af bc
       0.02054924 0.022708641 0.016766187 -0.021411652
000050 d9 77 45 3d af dd 4e 3c ec 01 f9 3c e2 0a 3e 39
       0.04821 0.012626096 0.030396424 0.00018123866
000060 2c e0 59 3c 08 ed e8 3c 68 bf 82 3c 97 72 10 3d
       0.013298076 0.028433338 0.01596041 0.03526553
000070 2f 54 14 3c 8f 98 9a bc d7 4f 60 3d 62 d6 20 3c
       0.009053274 -0.018871574 0.05476364 0.009816738
000080 9e 87 da 3c df ca af 3b ee 4c 39 bb b8 c2 d1 3c
       0.026675995 0.0053647603 -0.0028274613 0.025605544
000090 0b 4c 00 3d 1f a3 5b bc 54 ca c2 3c f0 45 8a 3d
       0.03132252 -0.01340559 0.023778118 0.06751621
0000a0 e4 ed 85 bc cd 7f 39 3b 07 ac ad 3b 23 41 a4 3c
       -0.016348787 0.0028304935 0.0053000483 0.02005059
0000b0 5f f7 77 bc c3 e8 a7 3c bb 25 85 3b b1 f8 f0 3c
       -0.015134661 0.020496732 0.0040633357 0.02941546
0000c0 6e 5d 6a 3c df 89 0d bc f1 88 b8 bc 97 f2 62 bc
       0.014304502 -0.008638828 -0.022526236 -0.013851783
0000d0 6c f8 8a 3c 1c d8 96 bc 1f 6e 14 3d 57 a7 bc 3c
       0.01696416 -0.018413596 0.036237832 0.023029013
0000e0 30 b9 de 3c 9d 2f 7c bc 81 ac b4 3c 9d e4 93 3c
       0.027187914 -0.015392211 0.022054913 0.018053347
0000f0 26 b9 86 bb 94 06 3d bc 70 42 99 3c fb 81 9a b9
       -0.004111427 -0.011537213 0.018708438 -0.00029470012
000100 0d 9a f0 3b 5e 5d 92 3c 27 fe 82 38 25 a4 1b bb
       0.007342583 0.017866787 6.2462226e-05 -0.002374896
000110 8b 7e f6 3b d1 5e f6 3c 8e 96 bc bc 79 84 13 3d
       0.0075224093 0.030074509 -0.023021009 0.036015008
000120 f1 d6 a9 3c d6 90 97 3c e7 81 5b ba a9 11 3f 3d
       0.020732375 0.01850168 -0.0008373544 0.0466477
000130 15 c2 b0 bc 47 cc 81 bc c1 bd 4c 3c 37 d8 da bc
       -0.02157692 -0.015844477 0.012496413 -0.026714427
000140 e4 bb c5 3c cb 80 56 3c 7e d5 12 3d 85 33 c9 3c
       0.024137445 0.01309223 0.035848133 0.0245607
000150 96 0c a5 3b af 84 4a 3b 7c c7 be 3c c8 34 1a bc
       0.0050369008 0.003090184 0.023288481 -0.009411998
000160 e0 4f 1f 3d 42 f2 be 3c 67 f1 cf 3c d0 ac c9 bb
       0.038894534 0.023308877 0.025383664 -0.006154634
000170 f5 df ec 3b bd 0e 9c 3c 6f 84 3f 3a c4 4c a8 bc
       0.007228846 0.019049997 0.0007305806 -0.020544417
000180 0b f0 a7 3b 27 fa 13 3b 69 ab 0c bd 4a 15 d3 ba
       0.005125051 0.0022579522 -0.034343157 -0.0016104367
000190 e0 ab cd bc 75 96 38 3c 2e 29 41 bc 78 27 b5 3b
       -0.02510637 0.0112663405 -0.011789603 0.0055283867
0001a0 32 92 4a 3b 50 a6 9a 3c 32 03 63 3a de 3b 6c bb
       0.0030909893 0.018878132 0.0008659839 -0.0036046426
0001b0 c1 4b 27 3d 58 65 a7 3b 27 77 23 bd 82 26 37 3d
       0.04084373 0.0051085167 -0.039908554 0.04471446
0001c0 5b 2d 9e bb 92 82 6b bc 5a b7 03 bc a8 6d 45 bc
       -0.004827184 -0.014374392 -0.00803932 -0.01205007
0001d0 db e0 32 3c cb 7a b4 3c 48 49 88 bc d9 ca 06 3d
       0.0109178675 0.022031209 -0.016636506 0.032908294
0001e0 4c 8a f4 3b 5f ba af 3b 7d 11 1f ba 42 6f 3a bc
       0.0074627753 0.0053627933 -0.00060679746 -0.011379065
0001f0 31 10 a3 ba da 55 2d 39 80 6c b2 3c af 13 51 3d
       -0.0012440739 0.00016530548 0.021780252 0.051044162
000200 30 b8 ee b9 f0 15 4a 3c ab 04 42 3b 4d 6b d4 3b
       -0.00045532128 0.012334332 0.0029604833 0.006482518
000210 a3 84 19 3d 15 9f 29 3c 09 d0 a3 bc 2f b4 fc bb
       0.037480008 0.0103528695 -0.01999666 -0.0077119092
000220 68 d0 99 3b f2 5c 8f 3a 0f ba 04 bc c8 81 07 bc
       0.0046940334 0.0010937734 -0.008101 -0.008270688
000230 2e 4c ab bc 04 26 d1 ba 4c 7e ef 3c aa a3 75 3c
       -0.020910349 -0.0015956764 0.029235028 0.014992634
000240 4f 6d c7 bb 24 27 8d bb 5f 02 53 3c 6d d8 9f 3c
       -0.0060860286 -0.0043076444 0.012878983 0.01951238
000250 82 fa 5c 3c 62 2c 3d bb 4e 39 9e 3c 69 e8 1a bc
       0.01348746 -0.0028865566 0.019314434 -0.009454825
000260 89 5a 02 3d 96 8f 1e 3d 5d 9f 08 bc 07 81 3c 3c
       0.031824622 0.038711153 -0.008338776 0.011505372
000270 9d b4 cb 3c 3b 11 bf 3c 93 de a4 3c e5 21 ce 3c
       0.024866397 0.023323646 0.020125663 0.025162647
000280 ce 98 92 bc 85 f3 e1 bb 39 e0 d6 bc e9 2f cb 3c
       -0.017895129 -0.006895485 -0.026229965 0.024803119
000290 5f 0a b2 3c b0 d0 41 3d 08 24 bb bc ce ec 80 bb
       0.021733461 0.04731816 -0.02284433 -0.0039344793
0002a0 20 71 51 3c 47 0b 01 bd b8 6b 6d bc d9 59 c0 bc
       0.012783319 -0.031504896 -0.014491014 -0.023480343
0002b0 65 4a 94 3c a1 04 d8 bb d7 44 ae bb f7 47 9e 3c
       0.01810188 -0.0065923487 -0.005318265 0.019321425
0002c0 01 d3 de bb 98 55 6e 3c 42 e8 0f 3a 25 83 24 3c
       -0.006800056 0.014546774 0.0005489626 0.010041033
0002d0 bd 82 83 3c cf f2 00 3d 58 dc c8 3c d3 cf a2 3b
       0.016053552 0.03148156 0.02451913 0.0049686222
0002e0 37 21 2a bc b4 ec 78 bb 90 04 96 bc 7b 72 d6 bc
       -0.010383896 -0.0037982883 -0.018312722 -0.026177635
0002f0 ee 2f e7 3b 7c 27 0f 3c 7e 09 13 bc 24 c3 79 3c
       0.007055274 0.008737441 -0.008974431 0.015244279
000300 96 01 b7 3c 17 14 06 bd 78 04 c1 3b 67 a3 89 bc
       0.022339623 -0.032734003 0.0058904253 -0.01680155
000310 34 e9 a2 bb ce 2e b4 3c 14 59 ac bb c1 c3 15 bc
       -0.0049716476 0.021994974 -0.0052596424 -0.00914091
000320 bd 01 4c 3c e3 c0 35 bc f8 54 e7 3b 7c 4a 5f bc
       0.012451586 -0.011093351 0.0070596896 -0.013628598
000330 b4 ff 21 bc 58 54 7d 3c ef 37 51 3c 27 bd c3 3c
       -0.0098876245 0.015462004 0.012769683 0.023893906
000340 0b 5c 2b bd c0 84 e5 bc 9c 46 59 bc 92 40 88 3b
       -0.041835826 -0.028017402 -0.0132614635 0.004158088
000350 ca 6f cf 3b 48 e3 e3 3c ea 11 de bb 47 68 33 bb
       0.006330465 0.027818337 -0.006777038 -0.0027375387
000360 55 35 49 bc d6 f6 5a 3c 32 9e 00 bc 2e 29 02 3b
       -0.012280782 0.013364514 -0.007850217 0.001986097
000370 9d 95 66 bc 23 9c 03 bc 98 4e 59 3c 23 ef c1 ba
       -0.0140737565 -0.008032831 0.013263367 -0.0014796
000380 ce c8 16 bb b4 af c9 3b d9 0b 26 3d 5d ca 26 bb
       -0.0023007873 0.0061549786 0.040538643 -0.0025450208
000390 e2 be 67 bb e0 b6 59 bc 7f f4 28 3d 75 25 27 bc
       -0.0035361578 -0.01328823 0.041248795 -0.010201802
0003a0 5b d0 78 bb 3d 64 18 bc c7 4a 93 bc 64 30 c2 3a
       -0.0037965986 -0.009301242 -0.017979993 0.0014815447
0003b0 4c a0 43 3c 74 5e 0f bc c4 08 8c bc c7 98 a0 3c
       0.011940073 -0.008750547 -0.017094024 0.0196041
0003c0 ae be a9 bc b6 be 91 bb e4 24 45 3c 6e 56 ad bb
       -0.020720806 -0.0044477833 0.012032721 -0.0052898442
0003d0 f6 57 1c 3b a0 15 05 3b f3 2b a8 3b a2 23 cf 3c
       0.002385614 0.002030708 0.0051321923 0.025285546
0003e0 e3 a9 51 bb 73 da 55 3c 0c 7d 1e 3d a9 ca 66 bb
       -0.003199213 0.013052571 0.038693473 -0.003521601
0003f0 6f a3 30 bc 65 ab a9 3a d2 94 c9 3c 1c 0a ba bc
       -0.010781153 0.0012944756 0.024607096 -0.022709899

action_model._continuous_distribution.mu.bias f4 [2]
000000 0b cd 4f 3c 81 cc f4 3a
       0.012683163 0.001867667

action_model._discrete_distribution.branches.0.weight f4 [1, 128]
000000 8d 85 e6 b9 92 bd ce bb cf 98 8a bb 05 34 81 3b
       -0.00043968522 -0.0063092196 -0.004229642 0.003942969
000010 66 e6 97 3b e2 ab 72 bb 78 6f ee 3b 37 7b 88 3b
       0.00463562 -0.003702872 0.0072764717 0.004165079
000020 41 fa 27 3b 63 bf d1 3a 2d 4a e4 3b 7c f4 1c 3b
       0.002563134 0.0016002472 0.0069668503 0.0023949435
000030 1c 29 a3 bc c2 e3 47 bc bb d2 98 3a 10 b8 5c bb
       -0.019917063 -0.012200298 0.0011659482 -0.0033679046
000040 90 d6 77 3c f4 bb b0 bc b3 0e f6 bb be fa 32 bc
       0.015126839 -0.021573998 -0.0075090765 -0.010924039
000050 ba 97 27 3a 85 e0 2f bb 7e aa 21 3c 4d da 89 bb
       0.00063931535 -0.0026836705 0.009867309 -0.0042069317
000060 23 d3 c1 3b 52 a9 47 3c 2f 40 02 3b 55 c9 ba 3b
       0.005915062 0.012186365 0.0019874682 0.00570027
000070 6d 1f 26 bb 5f ff a0 3b 6d 20 9a bb 27 cd c6 ba
       -0.002534832 0.004913255 -0.0047035725 -0.0015167341
000080 d3 a7 83 bb 0a 41 5f bc 22 d4 d8 3b cb 5b 73 3c
       -0.004017809 -0.013626346 0.006617085 0.014853428
000090 f8 dc 36 bc cf 11 ca bb 30 51 70 3b b7 d6 7b bc
       -0.0111610815 -0.0061666737 0.0036669485 -0.015371016
0000a0 d6 64 ca 3b f2 2c e3 bb bb 7d c2 bb fa d7 a8 3c
       0.0061765714 -0.006932848 -0.0059353984 0.020610798
0000b0 e3 46 86 3b 53 06 23 bc f3 e9 36 bc 8d 14 af 3a
       0.004097806 -0.009950238 -0.011164176 0.0013357565
0000c0 e4 4b bd bb e8 e4 76 bc b8 21 52 3c 47 7a 80 3b
       -0.005776869 -0.015069224 0.012825422 0.0039208266
0000d0 bf c1 f5 3a 0d b5 fd b9 d3 1c 27 3b e7 6b 96 3c
       0.0018749757 -0.00048390814 0.0025499358 0.018361999
0000e0 c9 32 98 bb 23 a0 9d 3b 8f 67 2a 3c fe 35 10 bc
       -0.004644726 0.0048103496 0.010400667 -0.008801935
0000f0 33 28 a8 bb 97 13 15 bb ca fb f6 bb 4b 8c 3e bb
       -0.0051317452 -0.0022747272 -0.00753734 -0.002907532
000100 af b3 26 3a ec b8 a3 3b ad 2c 63 3b d5 8e e8 bb
       0.00063591724 0.0049964096 0.003466408 -0.007097105
000110 df 35 9f 3b 13 cf de 3b f3 62 14 bc d0 00 ac bb
       0.004858717 0.0067995875 -0.009056794 -0.0052491203
000120 0f 73 0b bb be 53 ac ba 50 ab 59 bc cf a5 86 bc
       -0.0021278297 -0.0013147516 -0.013285473 -0.016436486
000130 a0 45 f4 b8 82 86 ba bb 29 6b 3b 3b 8a 9b 23 3a
       -0.00011647795 -0.005692304 0.0028597808 0.00062411337
000140 03 4f f7 3b 25 f1 8a bb a0 95 29 3b 01 e8 2f 3a
       0.0075472607 -0.0042401724 0.0025876537 0.00067102915
000150 70 47 43 3b f9 32 ba 3a 2d d2 4a bb 4a d6 44 ba
       0.0029797219 0.0014205865 -0.0030948028 -0.0007508738
000160 13 43 70 b9 bb 51 eb 3b ed 03 f7 3b 2b 3b 53 3c
       -0.0002291317 0.007181374 0.00753831 0.012892525
000170 27 1a 40 bc 9f be 18 3c df b7 8b 3b f4 7d 01 3c
       -0.011724985 0.009322791 0.0042638625 0.007903565
000180 92 a1 58 3b 43 c8 38 3b f5 52 54 bc 93 fc d1 3b
       0.0033055288 0.0028195537 -0.012959232 0.006408283
000190 0e 35 35 3b ff c0 d6 3b e5 60 62 3c 7f b1 49 3c
       0.0027650031 0.0065537686 0.013817047 0.012310385
0001a0 cf 2f 43 3a f8 ab 5d 3c 72 b5 5d bc b7 cf 94 bb
       0.00074457837 0.01352977 -0.013532029 -0.004541363
0001b0 d0 1d 29 3c bd 38 2c bc 4b e3 5d 3b 97 1f 75 39
       0.010322049 -0.010511574 0.00338574 0.00023376789
0001c0 94 07 12 3c 2d 26 0a 3c 2a 13 2e 3b 6e 88 3d 3c
       0.00891294 0.008431953 0.0026561716 0.011568172
0001d0 a2 44 d4 bb bb 0a 83 bb f2 80 bd 3b db 69 6e 3b
       -0.006477908 -0.003999082 0.0057831937 0.0036379013
0001e0 6a 83 6b bc f4 d4 8a 3c eb f9 cf 3b a5 34 62 bb
       -0.014374593 0.016947247 0.006346931 -0.0034516242
0001f0 38 0e 1e 3c e3 14 ee bb f6 ba 80 bc fd 1b ca 3b
       0.009646945 -0.0072656735 -0.01571415 0.0061678872

exp_avg f4 [128, 10]
000000 13 5b b4 39 fd 10 a9 39 61 bb 8a 39 e7 e0 41 3b
       0.0003440013 0.0003224685 0.0002646102 0.0029583515
000010 76 71 dd 39 4d 98 1b 3b 76 ac 1f b4 48 4f d8 b3
       0.0004223694 0.0023741901 -1.487077e-07 -1.0072705e-07
000020 00 00 00 00 00 00 00 00 00 00 00 00 00 00 00 00
       0.0 0.0 0.0 0.0
000030 00 00 00 00 00 00 00 00 00 00 00 00 00 00 00 00
       0.0 0.0 0.0 0.0
000040 00 00 00 00 00 00 00 00 00 00 00 00 00 00 00 00
       0.0 0.0 0.0 0.0
000050 f3 36 0a b7 25 90 01 b7 f7 a1 d4 b6 cd 33 94 b8
       -8.238235e-06 -7.72256e-06 -6.3369475e-06 -7.0668386e-05
000060 b9 7d 2a b7 78 b1 6d b8 fd ae 98 b1 cc f0 8b 31
       -1.0162062e-05 -5.6670484e-05 -4.443676e-09 4.072808e-09
000070 00 00 00 00 00 00 00 00 00 00 00 00 00 00 00 00
       0.0 0.0 0.0 0.0
000080 00 00 00 00 00 00 00 00 00 00 00 00 00 00 00 00
       0.0 0.0 0.0 0.0
000090 00 00 00 00 00 00 00 00 00 00 00 00 00 00 00 00
       0.0 0.0 0.0 0.0
0000a0 00 00 00 00 00 00 00 00 00 00 00 00 00 00 00 00
       0.0 0.0 0.0 0.0
0000b0 00 00 00 00 00 00 00 00 00 00 00 00 00 00 00 00
       0.0 0.0 0.0 0.0
0000c0 00 00 00 00 00 00 00 00 60 fd 18 b8 d2 69 0f b8
       0.0 0.0 -3.6475598e-05 -3.419241e-05
0000d0 06 5d eb b7 06 5e a4 b9 9f 0e 3c b8 81 e3 83 b9
       -2.80575e-05 -0.0003135057 -4.483631e-05 -0.0002515577
0000e0 56 4c 16 32 14 ac 50 32 00 00 00 00 00 00 00 00
       8.748506e-09 1.21463195e-08 0.0 0.0
0000f0 00 00 00 00 00 00 00 00 00 00 00 00 00 00 00 00
       0.0 0.0 0.0 0.0
000100 00 00 00 00 00 00 00 00 00 00 00 00 00 00 00 00
       0.0 0.0 0.0 0.0
000110 00 00 00 00 00 00 00 00 00 00 00 00 00 00 00 00
       0.0 0.0 0.0 0.0
000120 00 00 00 00 00 00 00 00 00 00 00 00 00 00 00 00
       0.0 0.0 0.0 0.0
000130 00 00 00 00 00 00 00 00 00 00 00 00 00 00 00 00
       0.0 0.0 0.0 0.0
000140 c3 dc 1a 39 36 2b 11 39 82 3e ee 38 c6 73 a6 3a
       0.00014768825 0.00013844375 0.00011360367 0.0012699298
000150 7f 35 3e 39 6c 94 85 3a 09 1f 82 b3 81 93 3c b3
       0.00018139741 0.0010191328 -6.059242e-08 -4.3906315e-08
000160 00 00 00 00 00 00 00 00 99 49 a4 39 05 01 9a 39
       0.0 0.0 0.00031335352 0.0002937393
000170 7d be 7c 39 e6 99 30 3b cd bb c9 39 74 ba 0d 3b
       0.00024103555 0.00269472 0.0003847763 0.0021626027
000180 b6 ee 11 b4 90 d7 c4 b3 00 00 00 00 00 00 00 00
       -1.359102e-07 -9.166172e-08 0.0 0.0
000190 d6 e5 d9 07 14 3a cc 07 0f 9c a7 07 fd 0b 6c 09
       3.2785617e-34 3.0728644e-34 2.521909e-34 2.8413104e-33
0001a0 9e ce 02 08 22 c6 3d 09 6c 6b fb 82 25 7c 56 81
       3.936333e-34 2.2843209e-33 -3.6942792e-37 -3.9394662e-38
0001b0 00 00 00 00 00 00 00 00 6b ab e1 39 38 8b d3 39
       0.0 0.0 0.0004304306 0.00040348782
0001c0 86 96 ad 39 f8 98 72 3b 57 88 0a 3a 14 b2 42 3b
       0.0003310928 0.0037017446 0.00052845984 0.0029708194
0001d0 c1 62 4d b4 d0 1f 06 b4 00 00 00 00 00 00 00 00
       -1.9128039e-07 -1.2491296e-07 0.0 0.0
0001e0 a8 da a6 39 f0 68 9c 39 ad 58 80 39 70 63 33 3b
       0.000318249 0.00029832823 0.0002448013 0.0027372502
0001f0 bb cf cc 39 c0 f8 0f 3b 00 df 22 b4 9d b8 c1 b3
       0.00039064683 0.0021968335 -1.5168553e-07 -9.020844e-08
000200 00 00 00 00 00 00 00 00 7d e2 10 38 cf d0 07 38
       0.0 0.0 3.454321e-05 3.2380976e-05
000210 f7 e4 de 37 ff c0 9b 39 90 e0 31 38 dd ff 79 39
       2.6571082e-05 0.00029707697 4.240923e-05 0.00023841807
000220 25 cc 83 b2 13 6f 2c b2 00 00 00 00 00 00 00 00
       -1.5343241e-08 -1.0036973e-08 0.0 0.0
000230 00 00 00 00 00 00 00 00 00 00 00 00 00 00 00 00
       0.0 0.0 0.0 0.0
000240 00 00 00 00 00 00 00 00 00 00 00 00 00 00 00 00
       0.0 0.0 0.0 0.0
000250 00 00 00 00 00 00 00 00 00 00 00 00 00 00 00 00
       0.0 0.0 0.0 0.0
000260 00 00 00 00 00 00 00 00 00 00 00 00 00 00 00 00
       0.0 0.0 0.0 0.0
000270 00 00 00 00 00 00 00 00 00 00 00 00 00 00 00 00
       0.0 0.0 0.0 0.0
000280 04 00 00 00 04 00 00 00 04 00 00 00 04 00 00 00
       6e-45 6e-45 6e-45 6e-45
000290 04 00 00 00 04 00 00 00 00 00 00 00 00 00 00 00
       6e-45 6e-45 0.0 0.0
0002a0 00 00 00 00 00 00 00 00 82 51 fe 06 40 66 ee 06
       0.0 0.0 9.5663946e-35 8.967589e-35
0002b0 00 a0 c3 06 25 b2 88 08 df 1f 1c 07 8e 68 5b 08
       7.3585946e-35 8.227084e-34 1.1745502e-34 6.602582e-34
0002c0 1c af 67 81 eb 62 16 81 00 00 00 00 00 00 00 00
       -4.2553634e-38 -2.762162e-38 0.0 0.0
0002d0 8a 99 d0 39 e6 8a c3 39 29 75 a0 39 16 37 60 3b
       0.00039787247 0.00037296786 0.0003060487 0.0034212521
0002e0 11 18 00 3a 7c ef 33 3b 2b a8 2b b4 02 94 ff b3
       0.00048863987 0.0027455976 -1.5986795e-07 -1.1901285e-07
0002f0 00 00 00 00 00 00 00 00 00 00 00 00 00 00 00 00
       0.0 0.0 0.0 0.0
000300 00 00 00 00 00 00 00 00 00 00 00 00 00 00 00 00
       0.0 0.0 0.0 0.0
000310 00 00 00 00 00 00 00 00 00 00 00 00 00 00 00 00
       0.0 0.0 0.0 0.0
000320 3e 05 06 3a 4f 43 fb 39 39 2e ce 39 6f 0c 90 3b
       0.00051124755 0.000479246 0.0003932582 0.0043960134
000330 20 9b 24 3a 12 33 67 3b a5 9e 57 b4 7c 3b 25 b4
       0.0006279219 0.0035278243 -2.008115e-07 -1.5388463e-07
000340 00 00 00 00 00 00 00 00 00 00 00 00 00 00 00 00
       0.0 0.0 0.0 0.0
000350 00 00 00 00 00 00 00 00 00 00 00 00 00 00 00 00
       0.0 0.0 0.0 0.0
000360 00 00 00 00 00 00 00 00 00 00 00 00 00 00 00 00
       0.0 0.0 0.0 0.0
000370 00 00 00 00 00 00 00 00 00 00 00 00 00 00 00 00
       0.0 0.0 0.0 0.0
000380 00 00 00 00 00 00 00 00 00 00 00 00 00 00 00 00
       0.0 0.0 0.0 0.0
000390 00 00 00 00 00 00 00 00 3c ad a2 39 75 7e 98 39
       0.0 0.0 0.00031028118 0.00029085917
0003a0 1a 44 7a 39 97 dc 2e 3b 90 c5 c7 39 93 54 0c 3b
       0.00023867228 0.0026681775 0.00038103433 0.0021412715
0003b0 c6 ab 0a b4 c6 58 c5 b3 00 00 00 00 00 00 00 00
       -1.2914742e-07 -9.189675e-08 0.0 0.0
0003c0 00 00 00 00 00 00 00 00 00 00 00 00 00 00 00 00
       0.0 0.0 0.0 0.0
0003d0 00 00 00 00 00 00 00 00 00 00 00 00 00 00 00 00
       0.0 0.0 0.0 0.0
0003e0 00 00 00 00 00 00 00 00 00 00 00 00 00 00 00 00
       0.0 0.0 0.0 0.0
0003f0 00 00 00 00 00 00 00 00 00 00 00 00 00 00 00 00
       0.0 0.0 0.0 0.0
