Assets/results/VikramRover24-ppo/VikramRover/VikramRover-24192.onnx (onnx, 147290 bytes, 10 tensors)

network_body._body_endoder.seq_layers.0.weight f4 [128, 10]
0.110544436 -0.090150274 0.14750744 0.15615325 -0.39504895 0.3642094 0.06802136 -0.29024735
-0.04437872 -0.036556475 0.40704906 0.50076437 -0.26626775 0.18864086 0.38180572 0.16902831
-0.07833346 -0.06666229 -0.019674681 0.5241294 -0.20310105 0.1543681 0.04181664 0.44108364
0.34934506 0.38628593 -0.118899725 -0.09217894 0.15880518 0.16035172 -0.29238424 0.32217616
0.2227239 0.07143051 0.64502525 0.0927719 -0.11407752 -0.009973655 0.44570535 -0.16046597
-0.19991219 0.08183591 0.603898 -0.1274438 -0.08011105 0.38965708 0.31166285 -0.3110311
0.06795803 0.29755917 0.51437193 -0.0024610895 -0.18222466 0.13656034 -0.00803067 0.55832565
-0.5966182 -0.23091495 0.15500562 -0.29198888 0.557337 -0.25504723 0.19831233 -0.46323076
0.2599101 -0.17425226 0.043736376 -0.09133398 -0.07193576 -0.36542058 -0.21076062 -0.26801997
0.6194462 0.24233112 0.24910504 -0.047870353 0.064449504 0.45446223 0.49123693 0.54040706
-0.11673792 -0.056538004 -0.18776427 -0.451684 -0.44511354 -0.29444277 -0.37628764 0.41904473
0.24063939 -0.124931626 0.069353364 -0.5010421 0.24542086 -0.43682173 0.3795618 -0.05390842
0.22893554 -0.059471976 0.28388676 0.13574757 -0.011769395 0.014400548 -0.47118637 -0.32256114
-0.20606598 -0.13533436 -0.097508416 -0.40554458 -0.29294324 0.012755032 -0.25719792 0.80214983
0.23202753 -0.20910344 0.23509607 0.06130054 -0.053597577 0.09389868 0.233332 -0.0021505798
-0.023547955 0.29186565 0.32863444 0.19355333 -0.089985594 0.08688867 0.009088883 0.1412087
-0.030149922 0.0739109 0.24552828 -0.2168109 0.030280937 -0.080018796 0.27809846 0.5580059
-0.020673104 0.09067905 -0.10380804 0.35577434 0.11506281 0.58803743 -0.26217085 -0.026412856
0.13110623 0.3072569 -0.08928638 -0.3787423 -0.53177565 0.53695554 0.2934117 0.46204966
-0.19989629 0.44279212 0.665789 0.16740282 -0.39712635 -0.43209362 0.0040936405 0.21653959
0.18557136 -0.063386895 -0.07622702 -0.4295458 -0.010841277 0.23370673 0.1491976 0.13754094
0.09800102 0.63834715 -0.0018063586 -0.14678185 0.21410643 0.2192381 -0.0053565106 -0.09518759
-0.20403156 0.2283886 -0.31313816 0.28472322 -0.34023064 0.77550477 -0.12202875 0.10444975
0.22423945 0.08099175 -0.051080234 0.023489758 -0.10381851 -0.15449332 0.07203836 -0.110292345
0.07493803 -0.050236467 0.43617326 0.21194522 0.18279158 0.17014514 0.07472837 -0.047610544
0.36558267 0.2286719 0.017376814 0.25592947 -0.090973794 -0.34359407 -0.409567 0.18009718
0.10163084 0.090349264 -0.11437562 0.25652847 -0.42405057 -0.5151032 0.01635861 0.44041133
0.17278099 0.40491292 -0.04724096 0.25671333 -0.10199133 -0.15730534 0.38279167 0.5538286
0.28074524 0.4268515 0.23195894 -0.35193148 -0.122031614 -0.057579014 0.2553248 0.20596525
0.19710258 0.5091367 0.024185596 -0.1692168 -0.12073684 -0.58298784 0.29745805 -0.11819187
0.34683666 -0.09255799 -0.4613701 -0.047220193 0.3822209 -0.25263834 -0.39359593 0.50125074
0.31485075 -0.28907153 0.24331388 -0.0309705 0.26936355 0.05770678 0.20345485 0.31452692
00000000: 1f65 e23d b5a0 b8bd 310c 173e a3e6 1f3e
00000010: db43 cabe a879 ba3e c84e 8b3d 4d9b 94be
00000020: 76c6 35bd 3ebc 15bd bc68 d03e 1832 003f
00000030: 3f54 88be 122b 413e 0a7c c33e c215 2d3e
00000040: 4b6d a0bd 3d86 88bd cc2c a1bc 582d 063f
00000050: b9f9 4fbe ac12 1e3e ed47 2b3d b7d5 e13e
00000060: 5bdd b23e 45c7 c53e b381 f3bd 50c8 bcbd
00000070: d39d 223e 3e33 243e 63b3 95be 46f4 a43e
00000080: bc11 643e 294a 923d 6020 253f 32ff bd3d
00000090: 7aa1 e9bd 8b68 23bc 7e33 e43e 3151 24be
000000a0: c8b5 4cbe 9699 a73d 0f99 1a3f a180 02be
000000b0: 4311 a4bd 2281 c73e 4692 9f3e 783f 9fbe
000000c0: 942d 8b3d ad59 983e e1ad 033f 3b4a 21bb
000000d0: 1a99 3abe 79d6 0b3e 1293 03bc 6eee 0e3f
000000e0: f8bb 18bf f874 6cbe cbb9 1e3e 917f 95be
000000f0: a3ad 0e3f 8d95 82be 6312 4b3e 952c edbe
00000100: f012 853e 2f6f 32be ea24 333d 4f0d bbbd
00000110: 0e53 93bd 6818 bbbe a2d1 57be ea39 89be
00000120: 0794 1e3f a625 783e 6415 7f3e b413 44bd
00000130: 1afe 833d 46af e83e 6883 fb3e 1e58 0a3f
00000140: 4a14 efbd 6594 67bd 4745 40be 2043 e7be
00000150: ece5 e3be 34c1 96be c6a8 c0be 088d d63e
00000160: 2c6a 763e 27dc ffbd 2309 8e3d 4c44 00bf
00000170: 9b4f 7b3e 19a7 dfbe ed55 c23e 13cf 5cbd
00000180: 146e 6a3e e398 73bd 9b59 913e 6901 0b3e
00000190: 6cd4 40bc 47f0 6b3c 573f f1be bc26 a5be
000001a0: f602 53be 1795 0abe 7eb2 c7bd 8aa3 cfbe
000001b0: a8fc 95be 7bfa 503c 72af 83be b159 4d3f
000001c0: a098 6d3e 361f 56be 06bd 703e 4616 7b3d
000001d0: 2289 5bbd f34d c03d 95ee 6e3e bef0 0cbb
000001e0: a4e7 c0bc 6a6f 953e c642 a83e d832 463e
000001f0: 5e4a b8bd b0f2 b13d 8ae9 143c 0399 103e
00000200: f8fc f6bc 995e 973d c46b 7b3e ad03 5ebe
00000210: ba0f f83c e5e0 a3bd ec62 8e3e 7ad9 0e3f
00000220: a45a a9bc f0b5 b93d 4f99 d4bd 0e28 b63e
00000230: 0da6 eb3d 9f89 163f 423b 86be c65f d8bc
00000240: b640 063e c750 9d3e c7db b6bd 83ea c1be
00000250: 7322 08bf eb75 093f 0f3a 963e c691 ec3e
00000260: 9db1 4cbe a6b5 e23e 2671 2a3f a56b 2b3e
00000270: 2554 cbbe 603b ddbe f223 863b 8ebc 5d3e
00000280: 6b06 3e3e fdd0 81bd e91c 9cbd 6ded dbbe
00000290: 9d9f 31bc d150 6f3e 41c7 183e 88d7 0c3e
000002a0: c2b4 c83d b86a 233f 56c3 ecba fb4d 16be
000002b0: b73e 5b3e f47f 603e ab85 afbb b6f1 c2bd
000002c0: a6ed 50be b3de 693e a553 a0be 3ec7 913e
000002d0: b632 aebe 7b87 463f 36ea f9bd c0e9 d53d
000002e0: 079f 653e 01df a53d 8239 51bd 986d c03c
000002f0: cd9e d4bd 7f33 1ebe d988 933d f4e0 e1bd
00000300: 1c79 993d c1c4 4dbd 1a52 df3e 2b08 593e
00000310: b72d 3b3e 873a 2e3e 300b 993d 4603 43bd
00000320: a72d bb3e f728 6a3e d259 8e3c 3009 833e
00000330: 7850 babd 90eb afbe c4b2 d1be 656b 383e
00000340: d423 d03d 0909 b93d c43d eabd b357 833e
00000350: 281d d9be cedd 03bf 7e02 863c 987d e13e
00000360: 80ed 303e bf50 cf3e bd7f 41bd ee6f 833e
00000370: d5e0 d0bd a714 21be 45fd c33e b6c7 0d3f
00000380: d7bd 8f3e 488c da3e a586 6d3e 5d30 b4be
00000390: b6eb f9bd f9d7 6bbd efb9 823e 8ee8 523e
000003a0: 42d5 493e c856 023f df20 c63c 2b47 2dbe
000003b0: e044 f7bd b13e 15bf 6c4c 983e 940e f2bd
000003c0: 9394 b13e 0b8f bdbd b438 ecbe f669 41bd
000003d0: 75b2 c33e d059 81be 6885 c9be f851 003f
000003e0: 1e34 a13e 2f01 94be 4627 793e d9b5 fdbc
000003f0: 05ea 893e f25d 6c3d 7856 503e ac09 a13e

network_body._body_endoder.seq_layers.0.bias f4 [128]
0.0047645927 -0.0053378413 -0.01576701 -0.0136624025 -0.0019630804 -0.019598503 -0.005573462 -0.0150807435
0.0 -0.00071020785 0.0 -0.009763606 -0.019194892 -0.0121560125 -0.011196171 -0.01587809
-4.2333536e-06 -0.01689928 5.8289294e-07 -0.005754618 0.0038339698 0.0 -0.017427664 -0.012391948
-4.6357527e-32 -0.014281423 -0.0066389837 -1.4199875e-07 -0.029188959 -0.0034338483 -0.0037901169 -0.016741596
-0.007536204 -0.00620525 0.0 0.0 0.0 -0.0028390903 -0.0072348416 0.0
-0.005751742 -0.022438308 -4.77868e-30 -0.011647182 0.0 0.0013654146 0.0 -0.018621627
-6.9141945e-26 0.0033814132 -0.0017351677 -0.0066258013 3.0753785e-29 -0.0052723987 -2.089377e-24 1.3944168e-14
-0.0045024757 0.0 -0.009034393 -0.012286728 0.0 0.019505834 -0.014978956 -0.0011905103
-0.026601063 0.0 0.0 -0.012405837 -0.024046274 0.005266453 -0.0037769796 -0.016954077
-3.2727583e-17 -0.0037095458 -0.0015114329 -0.00697425 -0.010898768 -0.0066214083 -0.026819617 -0.010343971
0.0012204096 -0.008451696 0.0 0.0 -0.005441256 0.012850339 0.0 -0.004791973
0.0 0.0 -0.010827546 -0.04434729 -1.980109e-32 -0.006953411 0.004539269 0.0
0.0 -0.0004094218 2.3213496e-22 -0.01936938 0.0 0.0 0.0 -0.012719041
-0.01219629 -0.009293545 -0.0026285164 0.0 -0.0063294508 0.0 -0.00593679 -0.0067911954
-0.00492273 0.0 -0.005068923 2.0288184e-28 -0.010134085 0.0 -0.00862577 -0.0011296427
-0.009826374 -2.1607942e-08 -0.009090748 -0.0025737893 0.0 0.0 0.0 0.0036552723
00000000: 4d20 9c3b 0fe9 aebb d129 81bc 45d8 5fbc
00000010: 06a7 00bb 0a8d a0bc 97a1 b6bb 3915 77bc
00000020: 0000 0000 3e2d 3aba 0000 0000 88f7 1fbc
00000030: 9b3e 9dbc 032a 47bc 2570 37bc c512 82bc
00000040: 3b0c 8eb6 5c70 8abc 1978 1c35 3c91 bcbb
00000050: 5743 7b3b 0000 0000 76c4 8ebc 9907 4bbc
00000060: b9b3 708b a1fc 69bc d58b d9bb 5278 18b4
00000070: af1d efbc 6a0a 61bb 9c63 78bb ac25 89bc
00000080: 43f2 f6bb 6955 cbbb 0000 0000 0000 0000
00000090: 0000 0000 0810 3abb 4012 edbb 0000 0000
000000a0: 1c79 bcbb 8bd0 b7bc a6d8 c18e d2d3 3ebc
000000b0: 0000 0000 b6f7 b23a 0000 0000 628c 98bc
000000c0: ea2f ab95 b39a 5d3b 916e e3ba 401d d9bb
000000d0: b2f0 1b10 16c4 acbb 60a8 2198 2032 7b28
000000e0: 8189 93bb 0000 0000 fe04 14bc 464e 49bc
000000f0: 0000 0000 b3ca 9f3c 4c6a 75bc e60a 9cba
00000100: 79ea d9bc 0000 0000 0000 0000 da41 4bbc
00000110: b1fc c4bc 3692 ac3b 3487 77bb 47e3 8abc
00000120: e9ed 16a4 da1b 73bb 461b c6ba 4088 e4bb
00000130: bf90 32bc 66f8 d8bb d0b4 dbbc c279 29bc
00000140: 27f6 9f3a fb78 0abc 0000 0000 0000 0000
00000150: 904c b2bb 3a8a 523c 0000 0000 fc05 9dbb
00000160: 0000 0000 0000 0000 0566 31bc 81a5 35bd
00000170: 54a0 cd8a 70d9 e3bb 26be 943b 0000 0000
00000180: 0000 0000 aaa7 d6b9 2551 8c1b 89ac 9ebc
00000190: 0000 0000 0000 0000 0000 0000 8663 50bc
000001a0: f3d2 47bc f443 18bc 3043 2cbb 0000 0000
000001b0: 4867 cfbb 0000 0000 6789 c2bb ad88 debb
000001c0: da4e a1bb 0000 0000 3519 a6bb 7697 8011
000001d0: 6f09 26bc 0000 0000 1a53 0dbc 8510 94ba
000001e0: cdfe 20bc 5e9c b9b2 5cf1 14bc 05ad 28bb
000001f0: 0000 0000 0000 0000 0000 0000 4b8d 6f3b

network_body._body_endoder.seq_layers.2.weight f4 [128, 128]
0.013994233 -0.17807868 0.14128964 -0.058045994 0.119891115 -0.074737675 0.018001845 0.02376931
0.063921444 -0.0164658 0.0035782782 -0.016631203 -0.001962842 0.10613137 0.19246195 0.09908998
-0.19825006 0.041909404 -0.015241212 0.0825782 -0.1641173 0.07697278 -0.118492 0.05013545
0.051603705 0.09614343 0.057919994 -0.11451342 0.034207616 -0.101264216 0.031386934 0.03746142
-0.01660548 -0.036278933 -0.0034747466 0.04497704 -0.079907335 -0.03408499 0.11943569 0.00051895296
-0.08126674 -0.003400329 0.1650371 -0.042322896 -0.04621577 -0.03505787 0.039226413 -0.023790885
-0.14831027 -0.14743459 -0.14589079 -0.0046752924 0.05334877 0.06475824 0.0050110873 -0.13234253
-0.07816547 0.13807382 -0.20124832 0.1708276 -0.18842377 -0.13068019 0.112281635 0.07445649
-0.08909766 -0.13135196 0.03467539 -0.0098984 -0.010064341 0.084765874 0.011763776 -0.037062276
-0.058715433 -0.066919506 0.038043194 -0.13868561 -0.10765013 0.030878756 0.02860101 -0.09159259
0.029830016 -0.085010625 -0.09043831 -0.041672587 0.076519616 -0.036655523 -0.07023635 0.079963244
-0.11482206 0.045444 0.065561585 0.044554684 -0.06036092 -0.15927397 -0.038744025 -0.06087777
0.009854539 -0.05760297 -0.017366495 0.0055272835 -0.024157556 0.11222391 -0.00749421 0.020511266
0.12728535 0.098201536 0.0092047565 0.037024133 -0.013619335 -0.007716833 0.11975829 -0.21251185
0.099244736 -0.051158987 -0.07383708 -0.062067132 -0.009045934 0.19148737 0.055112448 -0.049208283
0.09795219 0.025262099 -0.0021439728 -0.1455259 -8.8240406e-05 0.04480256 0.04535423 -0.15925969
0.050383586 -0.08724488 0.05735491 -0.23131861 -0.03138845 -0.008810143 0.07613932 0.031086072
-0.2586711 0.08067828 0.07138153 -0.15821774 0.02212618 0.10910081 -0.11033468 -0.125553
-0.017521631 0.011042277 -0.1677058 -0.14362137 -0.13441798 -0.025290966 0.009993066 0.14554347
-0.08858155 -0.009424232 0.01941546 0.17769144 -0.1453277 -0.13199994 -0.06484749 0.028657166
-0.003999175 0.08166012 0.028709568 -0.001603748 0.1220714 -0.07001261 0.06819503 -0.040617622
-0.040107526 -0.08768934 -0.14169325 -0.05683365 -0.098711856 0.115718834 0.06909073 -0.08871736
0.12714858 -0.0930369 0.0040075583 -0.028835101 -0.025137544 -0.17822152 0.14219078 -0.058285303
0.007039804 -0.03329021 -0.014540344 -0.10079188 -0.13806833 0.019472053 0.004393545 -0.12735759
0.03141168 -0.024482865 0.013554858 -0.035480518 -0.021023715 -0.08791018 0.07709005 -0.003711779
-0.03089433 -0.018134892 0.018646766 -0.011144408 -0.035984762 -0.15159151 0.09615451 -0.13490523
0.031034814 0.23097064 0.07307201 -0.22153431 0.13641475 -0.008826102 -0.016051043 0.060540505
0.0055184932 0.020840373 0.18147844 -0.06455759 -0.03818711 -0.009474883 -0.23279431 -0.10688773
-0.006376158 0.08272727 0.14602673 -0.054442808 -0.10211363 -0.07265277 0.11582179 -0.026733765
0.15566716 0.12970853 0.10849788 -0.045381017 0.15530282 0.18437408 0.007938255 0.023250554
0.07745042 0.1261446 0.06897321 0.24364926 -0.09945493 -0.083138235 -0.025439454 -0.011656032
-0.21324351 -0.015183705 0.050478257 -0.15038435 0.14433858 -0.12127769 0.048074916 -0.07322822
00000000: 1148 653c 425a 36be 3bae 103e a3c1 6dbd
00000010: 7989 f53d 1110 99bd 9b78 933c dbb7 c23c
00000020: 3fe9 823d 49e3 86bc 8c81 6a3b 293e 88bc
00000030: 06a3 00bb 675b d93d bf14 453e b0ef ca3d
00000040: 1002 4bbe 32a9 2b3d 47b6 79bc c21e a93d
00000050: 5e0e 28be e8a3 9d3d efab f2bd d45a 4d3d
00000060: 685e 533d d9e6 c43d 843d 6d3d 0386 eabd
00000070: 491d 0c3d 9d63 cfbd 968f 003d 2571 193d
00000080: 3708 88bc 3899 14bd 93b8 63bb d839 383d
00000090: 75a6 a3bd b49c 0bbd b39a f43d 580a 083a
000000a0: 2d6f a6bd 0ed8 5ebb 7cff 283e c65a 2dbd
000000b0: bf4c 3dbd d798 0fbd e0ab 203d 1ae5 c2bc
000000c0: a6de 17be 18f9 16be 6564 15be 3233 99bb
000000d0: 3d84 5a3d f89f 843d 0c34 a43b cd84 07be
000000e0: 3815 a0bd 3963 0d3e 0a14 4ebe 6eed 2e3e
000000f0: 29f2 40be 07d1 05be eaf3 e53d a57c 983d
00000100: d578 b6bd 2181 06be c807 0e3d e62c 22bc
00000110: e8e4 24bc bb99 ad3d dabc 403c 9dce 17bd
00000120: 987f 70bd 180d 89bd 2ed3 1b3d 9a03 0ebe
00000130: ac77 dcbd 72f5 fc3c aa4c ea3c e594 bbbd
00000140: 145e f43c 0d1a aebd b837 b9bd e0b0 2abd
00000150: 51b6 9c3d 1a24 16bd 13d8 8fbd c5c3 a33d
00000160: d427 ebbd 7d23 3a3d 2745 863d f97e 363d
00000170: 033d 77bd b718 23be 0eb2 1ebd f85a 79bd
00000180: ef74 213c 18f1 6bbd 2e44 8ebc 371e b53b
00000190: 11e6 c5bc a6d5 e53d fd91 f5bb 3e07 a83c
000001a0: 1757 023e e31d c93d 8ccf 163c 9ea6 173d
000001b0: a223 5fbc 7ddd fcbb d643 f53d b59c 59be
000001c0: d340 cb3d 168c 51bd e537 97bd 1b3a 7ebd
000001d0: 6635 14bc 4415 443e 97bd 613d a08e 49bd
000001e0: 289b c83d 76f2 ce3c e581 0cbb be04 15be
000001f0: b50d b9b8 e482 373d 5bc5 393d f914 23be
00000200: 055f 4e3d 72ad b2bd fbec 6a3d c9de 6cbe
00000210: 2d91 00bd 6b58 10bc efee 9b3d 38a8 fe3c
00000220: 8a70 84be a73a a53d 7b30 923d d503 22be
00000230: f641 b53c 3f70 df3d 26f7 e1bd f790 00be
00000240: 8689 8fbc abea 343c 12bb 2bbe 7b11 13be
00000250: dea4 09be 002f cfbc f5b9 233c 5909 153e
00000260: 3e6a b5bd 1868 1abc 2c0d 9f3c bff4 353e
00000270: c9d0 14be fe2a 07be c3ce 84bd 6fc2 ea3c
00000280: 830b 83bb 6c3d a73d 5430 eb3c da34 d2ba
00000290: 9200 fa3d c562 8fbd d6a9 8b3d aa5e 26bd
000002a0: ca47 24bd 7896 b3bd 0918 11be 67ca 68bd
000002b0: 7129 cabd fffd ec3d 717f 8d3d 72b1 b5bd
000002c0: 3d33 023e 218a bebd d651 833b 9737 ecbc
000002d0: 40ed cdbc b47f 36be 769a 113e 92bc 6ebd
000002e0: 28ae e63b 515b 08bd 9f3a 6ebc f96b cebd
000002f0: c961 0dbe db83 9f3c baf7 8f3b 076a 02be
00000300: 89a9 003d 4a90 c8bc 3215 5e3c 0554 11bd
00000310: ed39 acbc 410a b4bd 63e1 9d3d 5141 73bb
00000320: 1b16 fdbc a08f 94bc 1ac1 983c 0997 36bc
00000330: c264 13bd ce3a 1bbe a8ec c43d 9924 0abe
00000340: b93c fe3c 9183 6c3e c7a6 953d e4d9 62be
00000350: 4fb0 0b3e 5b9b 10bc 7a7d 83bc 52f9 773d
00000360: 7ad4 b43b 6eb9 aa3c 7cd5 393e c536 84bd
00000370: 166a 1cbd 8a3c 1bbc a261 6ebe f4e7 dabd
00000380: 17ef d0bb ea6c a93d 0888 153e 6cff 5ebd
00000390: f320 d1bd faca 94bd fa33 ed3d c500 dbbc
000003a0: 3667 1f3e 50d2 043e 2334 de3d 72e1 39bd
000003b0: b407 1f3e 8fcc 3c3e 740f 023c f277 be3c
000003c0: 539e 9e3d 0d2c 013e d441 8d3d 317f 793e
000003d0: 07af cbbd 6144 aabd 6766 d0bc f1f8 3ebc
000003e0: 825c 5abe 13c5 78bc 4ac2 4e3d 5bfe 19be
000003f0: 7ecd 133e 7060 f8bd 34ea 443d adf8 95bd

network_body._body_endoder.seq_layers.2.bias f4 [128]
-0.020335952 6.504376e-09 -0.0013357124 -1.4174818e-26 7.387909e-21 0.0 0.0 -0.009617615
-0.009889484 -0.01396998 0.0 0.0 0.0 0.0 0.0 -0.008806799
-8.537538e-07 -0.0076165237 0.0 -0.009893871 -0.006097591 -1.4893755e-23 -0.003875417 -3.6011184e-32
0.0 0.0 0.0 0.0 -0.0020912068 -0.010903325 -0.002634897 -0.012535174
-1.6685908e-07 -0.0066805985 -6.399079e-12 0.0 -6.3994577e-07 -0.012148837 0.0 0.0
-0.003092897 0.0 0.000508919 -0.008129512 -0.0020119827 -0.0030933965 -0.0051017767 -0.00986625
-0.012879555 2.6969916e-24 0.0 -0.004278851 -9.752161e-05 0.0 0.0 -1.0326362e-16
-0.004435339 0.0 -0.0021713176 -0.006321767 0.0 -0.0058399322 0.0 0.0
-0.0023784258 0.0036059865 -2.8212547e-16 -0.007449028 0.0 0.0 -0.0012503498 0.0
-0.00398011 -0.007981846 -0.0069463723 -0.0047302684 0.0 -0.0078043914 -2.4498866e-16 0.0
0.0 -0.010667975 0.0018730353 -0.0056349644 0.0035087916 -0.0038249537 -0.008744673 -7.125403e-28
-0.0025414848 0.0 0.0 -0.0074483585 0.002941438 -0.005775429 -0.0041891327 -0.0047802674
0.0 -5.2759788e-06 -0.004700206 6.29219e-09 0.0 0.0 0.00037590056 0.0
-0.0056999056 0.0 0.0 -0.01895015 -7.3848764e-24 0.0 0.0 -0.006677092
-0.011807236 0.0 0.0029369902 0.0 -0.0030123615 0.001439811 -0.011187485 -0.0018950796
-0.005678193 -0.0067339474 -0.0060769683 -0.0033020119 0.0 0.0 -0.008664009 -0.0076176845
00000000: 9597 a6bc 197d df31 1213 afba 6f61 8c94
00000010: bc8d 0b1e 0000 0000 0000 0000 3393 1dbc
00000020: 8107 22bc 58e2 64bc 0000 0000 0000 0000
00000030: 0000 0000 0000 0000 0000 0000 644a 10bc
00000040: 842d 65b5 0894 f9bb 0000 0000 e719 22bc
00000050: 4dce c7bb 270b 9099 b5fa 7dbb 13fb 3a8b
00000060: 0000 0000 0000 0000 0000 0000 0000 0000
00000070: a10c 09bb dca3 32bc 3cae 2cbb 5560 4dbc
00000080: e029 33b4 ece8 dabb c825 e1ac 0000 0000
00000090: bdc8 2bb5 ea0b 47bc 0000 0000 0000 0000
000000a0: 33b2 4abb 0000 0000 fa68 053a a531 05bc
000000b0: 78db 03bb 95ba 4abb ce2c a7bb 0da6 21bc
000000c0: c504 53bc 6cab 5018 0000 0000 9b35 8cbb
000000d0: 8484 ccb8 0000 0000 0000 0000 151c eea4
000000e0: 5256 91bb 0000 0000 aa4c 0ebb d326 cfbb
000000f0: 0000 0000 e75c bfbb 0000 0000 0000 0000
00000100: 5ddf 1bbb 6a52 6c3b 5fa2 a2a5 fa16 f4bb
00000110: 0000 0000 0000 0000 c7e2 a3ba 0000 0000
00000120: 956b 82bb 4ac6 02bc 659e e3bb 5e00 9bbb
00000130: 0000 0000 fbbb ffbb f239 8da5 0000 0000
00000140: 0000 0000 bbc8 2ebc a380 f53a 82a5 b8bb
00000150: c1f3 653b 13ac 7abb d145 0fbc 23d0 6192
00000160: 0a8f 26bb 0000 0000 0000 0000 5c11 f4bb
00000170: 24c5 403b cf3f bdbb fe44 89bb caa3 9cbb
00000180: 0000 0000 5008 b1b6 3004 9abb b032 d831
00000190: 0000 0000 0000 0000 8514 c539 0000 0000
000001a0: 46c6 babb 0000 0000 0000 0000 583d 9bbc
000001b0: 23d8 0e99 0000 0000 0000 0000 82cb dabb
000001c0: 2373 41bc 0000 0000 857a 403b 0000 0000
000001d0: 0a6b 45bb 0ab8 bc3a b74b 37bc 5264 f8ba
000001e0: 2310 babb 72a8 dcbb 4e21 c7bb 9166 58bb
000001f0: 0000 0000 0000 0000 7df3 0dbc c59d f9bb

network_body._body_endoder.seq_layers.4.weight f4 [128, 128]
0.14513876 -0.06628344 -0.016736949 0.024196366 -0.049979303 -0.020266665 0.060316738 0.018112078
-0.012927688 -0.1016041 0.0040441235 0.1348189 -0.030322578 -0.07668949 -0.13159356 0.114006884
-0.10971722 -0.032053173 -0.1473954 -0.0014934434 0.13101481 0.15117274 -0.05101935 -0.05670326
-0.080528736 0.009967414 0.02861233 0.10923941 -0.0172708 0.004883279 0.017869448 -0.031212864
0.052727856 -0.060873315 -0.119064584 0.02372041 -0.21474247 0.13177605 -0.0014714864 -0.020524899
0.13085282 0.16172816 0.0032034277 0.07002162 0.017464694 -0.061068308 0.07193961 -0.015554203
-0.04301664 0.004092929 0.18536788 -0.09538079 -0.018874861 0.046129193 0.023405476 -0.018929422
-0.10142053 -0.17789938 0.0053839097 0.019059755 0.13486814 0.08885273 0.07716515 0.010183069
-0.041803483 0.022338359 -0.117241 0.033902667 -0.10957154 0.0019135006 0.08816528 -0.015738096
-0.020116435 0.013372076 -0.18870683 -0.15631555 -0.091877356 -0.14957333 0.14551592 -0.023333775
-0.0025048354 0.014304742 -0.03908186 0.06417529 -0.030003449 0.024836216 0.046310574 0.039259814
0.037427597 -0.10154731 0.34044957 -0.0267671 0.0004490052 0.05725489 0.053631395 0.13186301
-0.06980774 0.05680463 0.13508517 -0.07551217 -0.17999224 0.13420288 -0.08347633 -0.07660007
-0.029419621 -0.049193673 0.007926511 -0.06772985 0.016498554 -0.1758873 0.021646803 -0.10685019
0.008888935 -0.15572183 0.009371 -0.117338106 -0.08899696 -0.14806855 0.02589699 0.022718707
0.13777645 0.07524642 -0.038777005 0.019426553 0.14990658 0.1492682 0.00809786 0.041287966
0.08711434 -0.079652734 -0.11181174 -0.17468728 -0.012092734 0.022970377 0.02403254 -0.032961804
-0.08787746 0.031330295 -0.092277035 -0.052493878 0.08685524 0.02921945 0.00943966 0.084699035
-0.21961462 0.20771267 0.18206415 -0.013137311 -0.25839993 0.15961143 0.1263967 0.079024255
0.16569246 -0.09616918 0.06380245 0.01053817 -0.13247243 -0.10737193 0.047108363 -0.11490509
-0.049633924 0.010157335 -0.021434197 -0.0814933 0.17063858 0.08509052 -0.048438728 0.0821536
-0.0033806523 0.04438057 0.058164798 -0.05750666 -0.19275497 -0.089991264 -0.021809965 -0.010673259
0.0132663995 -0.08569939 -0.09319863 -0.015774468 0.033303987 -0.028364941 0.0063089477 -0.0046336167
-0.03465004 0.027767524 0.030617617 -0.14148611 0.04183704 0.032692514 0.051319808 -0.04266995
-0.05150179 0.06074173 -0.06990147 -0.027897373 -0.016891375 0.043985363 0.080340624 -0.056884456
-0.033763777 -0.13176045 -0.057830956 0.032446984 -0.029211823 -0.015721988 -0.18465924 0.048487958
-0.09068178 0.19060151 0.024959313 -0.038476992 -0.14635707 0.109973826 -0.08442739 0.040905174
-0.040942766 0.010199702 0.11220615 0.025407452 -0.1069747 -0.017541368 0.11838199 -0.056716565
-0.0691622 0.036745593 0.045502517 -0.021991163 -0.02400738 -0.038819466 -0.12281383 0.079923674
-0.046915337 -0.10454915 0.017190661 0.098437265 0.115769185 0.050820347 -0.056943547 -0.07033064
0.047588702 -0.022208165 0.06661582 0.08769202 -0.094399296 0.09974229 -0.005171149 0.11773918
-0.08445031 -0.0909673 0.06577619 0.108453594 -0.10875722 0.048384253 -0.1052167 -0.047749456
00000000: 419f 143e 9dbf 87bd ed1b 89bc 7537 c63c
00000010: 19b7 4cbd 4706 a6bc af0e 773d c85f 943c
00000020: a7ce 53bc cf15 d0bd 9184 843b f70d 0a3e
00000030: 0e67 f8bc 610f 9dbd 76c0 06be 717c e93d
00000040: 6cb3 e0bd 304a 03bd d2ee 16be a5bf c3ba
00000050: bf28 063e 07cd 1a3e aaf9 50bd ad41 68bd
00000060: 40ec a4bd 5d4e 233c 6864 ea3c e9b8 df3d
00000070: 7e7b 8dbc ea03 a03b f362 923c 1fb2 ffbc
00000080: 2af9 573d 4c56 79bd 22d8 f3bd 4e51 c23c
00000090: 73e5 5bbe 4df0 063e e4de c0ba d523 a8bc
000000a0: 48fe 053e 119c 253e 99f0 513b 7f67 8f3d
000000b0: 1e12 8f3c c322 7abd 1355 933d 0ed7 7ebc
000000c0: 3732 30bd fa1d 863b 14d1 3d3e 0157 c3bd
000000d0: 749f 9abc f7f1 3c3d d7bc bf3c e011 9bbc
000000e0: 91b5 cfbd 412b 36be 826b b03b 3423 9c3c
000000f0: e01a 0a3e 6cf8 b53d c308 9e3d e3d6 263c
00000100: 213a 2bbd effe b63c 0d1c f0bd 86dd 0a3d
00000110: 0b67 e0bd 6dce fa3a 0090 b43d 2eed 80bc
00000120: 39cb a4bc 8d16 5b3c 5d3c 41be 2f11 20be
00000130: 322a bcbd c029 19be 2002 153e 7926 bfbc
00000140: 2a28 24bb 705e 6a3c 4d14 20bd 566e 833d
00000150: cbc9 f5bc 5275 cb3c 28b0 3d3d e6ce 203d
00000160: ae4d 193d 09f8 cfbd 684f ae3e ad46 dbbc
00000170: 7568 eb39 1b84 6a3d 98ac 5b3d 1907 073e
00000180: 5cf7 8ebd f9ab 683d c453 0a3e 20a6 9abd
00000190: e34f 38be 7b6c 093e a3f5 aabd 7fe0 9cbd
000001a0: 6b01 f1bc 4e7f 49bd 32de 013c f3b5 8abd
000001b0: fa27 873c cd1b 34be a354 b13c 46d4 dabd
000001c0: e5a2 113c 8b75 1fbe d388 193c f64e f0bd
000001d0: 0a44 b6bd 489f 17be ed25 d43c 951c ba3c
000001e0: 4515 0d3e cc1a 9a3d a3d4 1ebd 6f24 9f3c
000001f0: 1c81 193e c3d9 183e e3ac 043c 921d 293d
00000200: 0169 b23d f920 a3bd 8efd e4bd 39e1 32be
00000210: 9a20 46bc 5f2c bc3c e4df c43c f502 07bd
00000220: 19f9 b3bd 3254 003d befb bcbd d203 57bd
00000230: 29e1 b13d a15d ef3c cea8 1a3c b076 ad3d
00000240: a8e2 60be a1b2 543e 066f 3a3e e03d 57bc
00000250: ff4c 84be 2e71 233e 236e 013e 78d7 a13d
00000260: 49ab 293e 59f4 c4bd dcaa 823d 4aa8 2c3c
00000270: daa6 07be d0e5 dbbd b3f4 403d 5c53 ebbd
00000280: f14c 4bbd f36a 263c c596 afbc f6e5 a6bd
00000290: e1bb 2e3e f043 ae3d b067 46bd 2640 a83d
000002a0: ef8d 5dbb 67c8 353d 363e 6e3d 1b8c 6bbd
000002b0: 8f61 45be 574d b8bd d0aa b2bc e5de 2ebc
000002c0: 505b 593c 2983 afbd ecde bebd 7539 81bc
000002d0: c369 083d 985d e8bc 4abb ce3b 98d5 97bb
000002e0: 33ed 0dbd b878 e33c ccd1 fa3c bce1 10be
000002f0: 515d 2b3d 96e8 053d b834 523d afc6 2ebd
00000300: 8af3 52bd 52cc 783d 8028 8fbd 0889 e4bc
00000310: c85f 8abc ff29 343d a089 a43d adff 68bd
00000320: e34b 0abd 36ec 06be 27e0 6cbd 21e7 043d
00000330: a24d efbc 66cb 80bc 5017 3dbe 4f9b 463d
00000340: 5eb7 b9bd 0b2d 433e 7977 cc3c 0d9a 1dbd
00000350: a1de 15be f539 e13d 44e8 acbd 2f8c 273d
00000360: 9ab3 27bd a71c 273c 57cc e53d 4a23 d03c
00000370: 8d15 dbbd eab2 8fbc 4272 f23d a14f 68bd
00000380: e9a4 8dbd 8c82 163d d960 3a3d d026 b4bc
00000390: 20ab c4bc 2901 1fbd d185 fbbd 06af a33d
000003a0: 4c2a 40bd dd1d d6bd 6ed3 8c3c 7a99 c93d
000003b0: 6518 ed3d ff28 503d a33d 69bd 8309 90bd
000003c0: 5fec 423d e6ed b5bc e06d 883d e097 b33d
000003d0: 6b54 c1bd b045 cc3d be72 a9bb 3d21 f13d
000003e0: 49f4 acbd 104d babd abb5 863d eb1c de3d
000003f0: 1bbc debd 912e 463d da7b d7bd ef94 43bd

network_body._body_endoder.seq_layers.4.bias f4 [128]
-0.0028900995 1.7561269e-25 -0.013409753 -0.013635215 -1.0275346e-14 -0.0068473164 0.0 -0.00898927
0.0 -0.007586165 -0.0042875637 -0.004867088 -0.0069015804 2.2076965e-12 0.0 -0.013689698
-0.0035637943 -0.0018290266 0.0 0.0 0.0 -0.0018794949 -0.00036282852 -7.1059567e-06
0.0 -0.011052378 -0.0032927773 0.0 0.0063796407 0.0076833577 -0.018711014 -0.0053270124
-0.0023411973 -3.261124e-28 0.0046217693 -0.009979668 8.749796e-21 -0.008472738 -0.004973055 0.0
0.0 -0.00079284067 -0.004998206 -1.06487135e-19 1.6954773e-12 -0.008366121 0.002788809 -0.0033250963
-2.4238776e-05 -0.012445941 -0.007995149 -1.462616e-11 -0.012160362 0.0031102856 0.0 -1.0480122e-21
-0.020875685 -0.0017178328 0.0048453882 -0.0040322724 -0.011911639 -0.00149384 4.389321e-23 -0.009573846
-0.009212173 -8.370335e-15 9.537814e-13 -0.0042871493 -0.004460329 -0.00478295 0.026855297 -0.0014373539
-0.01060562 0.0 -3.0742293e-27 -1.0457904e-21 -0.004893442 -1.3890084e-13 -0.005124767 -0.0018244447
0.0 -0.01908374 0.0 0.0 -0.014993029 0.0020356239 -0.0048776227 0.0
0.00066406664 -0.004263232 -0.009065973 0.0 -0.009729174 -0.0059511857 3.60681e-14 0.006994635
-0.004977386 -4.73866e-06 1.7439444e-25 -0.022053096 -0.00764451 0.0 0.0 -0.0021678112
-0.013654394 0.0015882881 -0.0070507783 -0.009560444 0.0 2.3595668e-14 -0.0041653095 0.0010767162
1.9014076e-31 -0.0032040724 -0.0088091055 -0.004080851 -0.0067546526 -0.009507993 -0.0009581283 -0.02279243
0.002415733 -0.0015757763 -0.0035624104 0.0 -0.004188561 -0.0046295975 -0.002882081 -0.010077464
00000000: d367 3dbb e265 5916 95b4 5bbc 3d66 5fbc
00000010: ab1a 39a8 745f e0bb 0000 0000 bb47 13bc
00000020: 0000 0000 5d95 f8bb b17e 8cbb 187c 9fbb
00000030: a726 e2bb 535a 1b2c 0000 0000 c14a 60bc
00000040: 8c8e 69bb f3bb efba 0000 0000 0000 0000
00000050: 0000 0000 6259 f6ba 053a beb9 b46f eeb6
00000060: 0000 0000 0915 35bc a3cb 57bb 0000 0000
00000070: 4e0c d13b adc4 fb3b d747 99bc 388e aebb
00000080: c66e 19bb c3b2 ce91 3672 973b c381 23bc
00000090: 6b47 251e 3dd1 0abc 02f5 a2bb 0000 0000
000000a0: 0000 0000 a3d6 4fba fec7 a3bb 866f fb9f
000000b0: 029e ee2b 0e12 09bc 73c4 363b dce9 59bb
000000c0: 6054 cbb7 0fea 4bbc 16fe 02bc 2fa7 80ad
000000d0: 413c 47bc efd5 4b3b 0000 0000 025f 9e9c
000000e0: 7c03 abbc e728 e1ba 10c6 9e3b 2721 84bb
000000f0: 0929 43bc f4cc c3ba 2a41 541a 9fdb 1cbc
00000100: a7ee 16bc 5bc9 16a8 993b 862b 377b 8cbb
00000110: f427 92bb 4bba 9cbb a4ff db3c 9865 bcba
00000120: 32c3 2dbc 0000 0000 c790 7393 0e09 9e9c
00000130: 2b59 a0bb 7163 1caa a9ed a7bb 3522 efba
00000140: 0000 0000 8155 9cbc 0000 0000 0000 0000
00000150: 52a5 75bc 1a68 053b 77d4 9fbb 0000 0000
00000160: c214 2e3a 95b2 8bbb 7289 14bc 0000 0000
00000170: 1d67 1fbc 2a02 c3bb b06f 2229 4033 e53b
00000180: 5719 a3bb c800 9fb6 cee3 5716 b2a8 b4bc
00000190: cc7e fabb 0000 0000 0000 0000 d611 0ebb
000001a0: aeb6 5fbc 1b2e d03a 370a e7bb 69a3 1cbc
000001b0: 0000 0000 e887 d428 267d 88bb 9a20 8d3a
000001c0: 1bd1 760c 6afb 51bb 1154 10bc a9b8 85bb
000001d0: 2256 ddbb 6ac7 1bbc e72a 7bba 31b7 babc
000001e0: 4651 1e3b 478a ceba 5477 69bb 0000 0000
000001f0: 3240 89bb e1b3 97bb 4ce1 3cbb f31b 25bc

action_model._continuous_distribution.log_sigma f4 [1, 2]
0.23617862 0.210148
00000000: cfd8 713e 0a31 573e

action_model._continuous_distribution.mu.weight f4 [2, 128]
-0.02136039 -0.003426388 -0.018199068 0.0075336085 0.002352431 -0.007844279 -0.04598574 -0.04272546
-0.0018789793 -0.0026225336 -0.0014011019 0.009887639 0.0109240515 -0.00639419 0.015356054 0.015303286
-0.006923761 0.0073794513 -0.0067018303 0.01920617 -0.017726284 0.0077790786 0.0085211145 -0.00076042366
0.008011772 -0.0009035899 0.00411895 0.007457133 0.019596227 0.033161845 -0.031273186 -0.06989812
-0.0044999896 0.02974978 0.018554935 0.009955654 0.013394793 0.005701713 -0.004488844 -0.030181512
0.024816645 0.0019229339 -0.044474296 -0.0016265583 -0.013182076 0.008355263 0.013998269 -0.0060225353
-0.0023702965 -0.00015350798 0.041230153 0.018664526 -0.023640178 0.00925143 -0.04166136 -0.019162465
-0.0032024984 -0.03167402 0.022457259 -0.035242524 -0.02624103 -0.009489669 -0.013408643 0.016469093
0.0020622772 -0.020482628 -0.018690543 -0.025949603 0.008086935 -0.0080357995 0.038104277 -0.020245451
-0.0019278775 -0.027941722 0.016784959 -0.0040364787 -0.020122703 -0.0038581137 0.012232219 -0.0064411466
0.004127381 -0.004210571 -0.010123446 0.010321451 -0.0075822193 0.00041909868 0.008453552 -0.011737577
0.012719924 0.013352414 -0.011086301 -0.014665012 -0.003914415 -0.014737644 -0.0474639 0.002553808
0.008516768 -0.010772958 -0.02082299 0.020469338 0.006440219 0.019339973 0.020956775 0.019674407
-0.0092715295 -0.025326641 -0.009602156 0.04147316 0.026645834 -0.016384434 -0.020433946 0.0038461143
0.0012568628 -0.037947636 -0.0022991798 -0.0042446144 0.00010275344 -0.0037462828 -0.0345053 -0.008479892
0.018153325 -0.01909313 -0.010531068 0.0011594376 0.006425897 0.010945505 -0.0152604645 -0.021755798
0.003917663 -0.024895294 -0.009508946 -0.0011171282 -0.012875087 -0.0053527635 0.02343603 -0.008087067
-0.017950466 -0.00698994 0.0039164186 0.011586266 -0.004623754 0.0141587425 -0.02152751 0.008120608
-0.023114787 -0.0021843628 -0.026728434 0.019074986 0.013888533 0.034467835 -0.013855324 -0.014344526
-0.020028958 -0.007689898 0.028859349 0.010301798 -0.02597877 0.0022908514 -0.0031220498 -0.007908179
-0.0056161396 -0.020960992 -0.019669313 0.0055311527 0.012655337 -0.0021627848 -0.00031846622 0.0040308866
0.024676261 -0.016048396 0.0020581824 -0.011442162 0.016088573 -0.0014225789 -0.023569178 -0.0069988756
0.009962913 0.004730249 0.028336085 0.0014896631 0.009181459 -0.0113342 0.024622878 -0.014681794
-0.0018777923 -0.015425872 -0.007491673 0.026632512 0.0016342698 0.0070483885 -0.009748381 0.018609019
-7.631695e-05 -0.029541245 0.0044390503 -0.0012590111 0.013741121 -0.0019295312 -0.02778072 -0.0029603748
-0.007906007 0.0030547096 -0.01786179 -0.010607447 -0.005119278 -0.006532176 0.011246576 0.028971558
-0.0066149817 0.002903456 -0.030774144 0.042965926 0.011558324 -0.036944535 -0.010988952 0.0063991137
-0.007141142 0.0015266659 0.0006286814 -0.03775295 0.015542629 -0.004262951 0.00993012 -0.0021710591
-0.007245641 -0.02560341 0.019145472 0.013372437 3.3239623e-05 -0.010009811 -0.010216247 0.0021913594
0.0019278735 0.00025661895 0.001242486 0.006630558 -0.034151208 -0.0099115735 -0.018480556 0.04898573
0.0032785838 -0.008646432 -0.0006444475 -0.017254354 0.0075660013 -0.00031046398 0.0070616426 -0.003467463
-0.005105162 -0.01817942 -0.008183656 0.010514326 0.0013855883 -0.015525416 0.00071497617 0.0022566381
00000000: fcfb aebc 408d 60bb 3616 95bc 7ddc f63b
00000010: 3e2b 1a3b 4a85 00bc 8b5b 3cbd e400 2fbd
00000020: 1548 f6ba d0de 2bbb 2ea5 b7ba c4ff 213c
00000030: cbfa 323c 5a86 d1bb f597 7b3c a2ba 7a3c
00000040: b8e0 e2bb 53cf f13b 079b dbbb 4256 9d3c
00000050: b636 91bc a4e7 fe3b 259c 0b3c 2b57 47ba
00000060: cf43 033c e4de 6cba 42f8 863b f75a f43b
00000070: 4488 a03c b7d4 073d 5018 00bd bf26 8fbd
00000080: a674 93bb d0b5 f33c 8500 983c 0a1d 233c
00000090: d575 5b3c 6fd5 ba3b 2717 93bb 383f f7bc
000000a0: 474c cb3c f40a fc3a ae2a 36bd 3d32 d5ba
000000b0: a2f9 57bc 83e4 083c ff58 653c b058 c5bb
000000c0: fa56 1bbb fcf6 20b9 f3e0 283d 59e6 983c
000000d0: 0ca9 c1bc 4f93 173c 1aa5 2abd 9afa 9cbc
000000e0: 02e1 51bb 9ebc 01bd 49f8 b73c 775a 10bd
000000f0: 6ef7 d6bc 8f7a 1bbc edaf 5bbc 31ea 863c
00000100: 4527 073b 2fcb a7bc e91c 99bc 4394 d4bc
00000110: 107f 043c 96a8 03bc 3b13 1c3d cad9 a5bc
00000120: d6b0 fcba 0ae6 e4bc 9c80 893c 7044 84bb
00000130: 5ed8 a4bc 68d8 7cbb a569 483c 4110 d3bb
00000140: fb3e 873b d4f8 89bb cfdc 25bc 4e1b 293c
00000150: 4474 f8bb 79ba db39 c480 0a3c f74e 40bc
00000160: 3a67 503c 15c4 5a3c 51a3 35bc 8545 70bc
00000170: 7e44 80bb 2976 71bc 8269 42bd ca5d 273b
00000180: ea89 0b3c 1081 30bc fa94 aabc 50af a73c
00000190: 7908 d33b dd6e 9e3c 8bad ab3c 392c a13c
000001a0: 9de7 17bc d179 cfbc 5c52 1dbc c3df 293d
000001b0: 5d48 da3c a638 86bc 1765 a7bc 170f 7c3b
000001c0: 51bd a43a fb6e 1bbd d6ad 16bb 6816 8bbb
000001d0: 557d d738 3284 75bb 6e55 0dbd 3fef 0abc
000001e0: 48b6 943c 3269 9cbc 808a 2cbc 45f8 973a
000001f0: 5590 d23b c754 333c 0707 7abc 3739 b2bc
00000200: bd5f 803b 37f1 cbbc 69cb 1bbc 9a6c 92ba
00000210: 07f2 52bc 3c66 afbb ebfc bf3c 9e7f 04bc
00000220: db0c 93bc de0b e5bb 4d55 803b 52d4 3d3c
00000230: dc82 97bb 12fa 673c 765a b0bc 4c0c 053c
00000240: 395b bdbc 8727 0fbb 97f5 dabc 2543 9c3c
00000250: bb8c 633c 252e 0d3d 7101 63bc 4e05 6bbc
00000260: c513 a4bc 8afb fbbb 716a ec3c dfc8 283c
00000270: 6ed1 d4bc 1c22 163b 4e9b 4cbb 4f91 01bc
00000280: 9807 b8bb 63b6 abbc 8a21 a1bc ac3e b53b
00000290: 5558 4f3c 82bd 0dbb d0f7 a6b9 8715 843b
000002a0: df25 ca3c ed77 83bc 92e2 063b e877 3bbc
000002b0: 2fcc 833c d475 baba 2614 c1bc d356 e5bb
000002c0: 7c3b 233c 3400 9b3b 1421 e83c cd40 c33a
000002d0: d56d 163c 15b3 39bc ebb5 c93c e88b 70bc
000002e0: 4120 f6ba ccbc 7cbc b57c f5bb 6d2c da3c
000002f0: ff34 d63a 2bf6 e63b acb7 1fbc f171 983c
00000300: 5a0c a0b8 7b00 f2bc 7475 913b 6705 a5ba
00000310: 7022 613c 53e8 fcba 6494 e3bc d902 42bb
00000320: 3288 01bc 8631 483b e352 92bc dbca 2dbc
00000330: 9ebf a7bb dd0b d6bb 8f43 383c c355 ed3c
00000340: 7dc2 d8bb e947 3e3b 0f1a fcbc 0afd 2f3d
00000350: 205f 3d3c 2753 17bd 010b 34bc a8af d13b
00000360: 3e00 eabb 681a c83a 18ce 243a d6a2 1abd
00000370: 83a6 7e3c 3ab0 8bbb f1b1 223c 5448 0ebb
00000380: d86c edbb 3ebe d1bc f7d6 9c3c 1118 5b3c
00000390: c66a 0b38 3100 24bc 0c62 27bc e99c 0f3b
000003a0: b3b0 fc3a d08a 8639 e9da a23a 2745 d93b
000003b0: 23e2 0bbd 2764 22bc 8964 97bc 43a5 483d
000003c0: 82dd 563b c4a9 0dbc 24f0 28ba 0159 8dbc
000003d0: 38ec f73b c5c5 a2b9 5a65 e73b 603e 63bb
000003e0: 3449 a7bb 02ed 94bc be14 06bc 4844 2c3c
000003f0: a19c b53a 505e 7ebc 3d6d 3b3a 1be4 133b

action_model._continuous_distribution.mu.bias f4 [2]
0.01204457 -0.007581655
00000000: 9756 453c 886f f8bb

action_model._discrete_distribution.branches.0.weight f4 [1, 128]
-0.004865083 -0.010154943 -0.008226226 0.013433388 0.008207141 4.5992412e-05 0.00023742358 0.0056673177
0.0003602834 -0.011070434 -0.0018039559 0.0075889006 -0.00082957785 -0.007927454 -0.01776361 0.00017929923
0.00070250704 0.002219097 0.0017106006 0.0013586165 0.0008325521 -0.010890289 0.0045498377 -0.00970286
-0.009629227 0.00076928304 0.01353393 -0.00912799 0.0088803 0.0016913008 0.0048294873 0.015280427
0.0016874912 -0.012789217 0.004736775 -0.0067562833 0.00042421135 -0.014517114 0.018406129 -0.0049883486
0.01722883 -0.016177254 -0.002453742 -0.011741414 0.0038255786 0.013066063 -0.010934873 -0.0004067232
0.0026342866 0.0049603973 -0.018172411 0.004494281 0.0014509079 0.0011426582 -0.012862541 -0.0009628202
0.010549377 -0.0056999763 -0.0074680904 -0.0033730895 0.00015920047 0.0052735154 0.0007319557 0.0021594565
-0.01410641 0.0013063004 0.011079571 0.0052508074 -0.011513504 0.009770605 0.018899584 -0.012114915
0.011087692 -0.008512624 -0.010162585 -0.0038109042 -0.011384392 -0.013387754 -0.011773592 0.012050289
0.002152414 -0.01682115 0.019669177 -0.008819136 0.004578779 0.011541349 -0.00134159 0.01198162
0.00858892 -0.00070561183 -0.008871683 0.004121374 0.009651913 0.012200908 0.01405965 -0.006982576
-0.008098139 0.0013217625 -0.00077410205 0.012646148 0.0051957513 -0.008618175 -0.0018556679 -0.0137720285
-0.010454898 -0.0034581223 -0.012639381 0.013521588 0.0035754957 -0.0007132777 0.00033746843 -0.011508299
-0.0011341559 -0.011567416 0.003663119 0.011506565 -0.0015242047 0.008536 -0.00848102 0.0043863785
-0.0079977615 0.00074178906 -0.009215823 -0.0028146633 0.00047189844 0.00022369374 -0.011544923 -0.019224115
00000000: 466b 9fbb eb60 26bc 4bc7 06bc b717 5c3c
00000010: 3f77 063c fae7 4038 e8f4 7839 e8b4 b93b
00000020: 6be4 bc39 c460 35bc b772 ecba 50ac f83b
00000030: 0778 59ba 27e2 01bc fe84 91bc 4502 3c39
00000040: 7328 383a 456e 113b 3b36 e03a 9b13 b23a
00000050: a03f 5a3a 2f6d 32bc ce16 953b bff8 1ebc
00000060: e8c3 1dbc b6a9 493a 6bbd 5d3c 918d 15bc
00000070: ae7e 113c a3ae dd3a ad40 9e3b c25a 7a3c
00000080: cf2e dd3a dd89 51bc f336 9b3b d063 ddbb
00000090: af68 de39 30d9 6dbc 73c8 963c 4d75 a3bb
000000a0: 7a23 8d3c 2986 84bc f6ce 20bb 0f5f 40bc
000000b0: 8fb6 7a3b 0a13 563c 2e28 33bc 773d d5b9
000000c0: ffa3 2c3b d48a a23b 4fde 94bc c344 933b
000000d0: 642c be3a 3fc5 953a 68bd 52bc c565 7cba
000000e0: 4bd7 2c3c dec6 babb e2b6 f4bb 0d0f 5dbb
000000f0: 0def 2639 74cd ac3b b7e0 3f3a ab85 0d3b
00000100: 921e 67bc 2b38 ab3a 1787 353c f70e ac3b
00000110: 23a3 3cbc e314 203c 4dd3 9a3c a37d 46bc
00000120: 27a9 353c 8878 0bbc f980 26bc 5dc0 79bb
00000130: 9a85 3abc 4f58 5bbc 06e6 40bc 936e 453c
00000140: 840f 0d3b 82cc 89bc 4121 a13c 237e 10bc
00000150: 9509 963b ed17 3d3c 4ad8 afba 8f4e 443c
00000160: 8bb8 0c3c cff8 38ba 895a 11bc 970c 873b
00000170: 0f23 1e3c 51e6 473c 725a 663c 18ce e4bb
00000180: 0fae 04bc fd3e ad3a 1ced 4aba ca31 4f3c
00000190: 1f41 aa3b 3f33 0dbc e239 f3ba 13a4 61bc
000001a0: 054b 2bbc aaa1 62bb 6815 4fbc a789 5d3c
000001b0: dd52 6a3b 42fb 3aba 3fee b039 4e8d 3cbc
000001c0: f5a7 94ba 4285 3dbc f010 703b 0886 3c3c
000001d0: d3c7 c7ba 94da 0b3c faf3 0abc 9cbb 8f3b
000001e0: 0b09 03bc 9f74 423a f7fd 16bc 3776 38bb
000001f0: 2369 f739 558f 6a39 eb26 3dbc e47b 9dbc
