Assets/results/VikramRover24-ppo/VikramRover/VikramRover-2880.pt (torch, 859945 bytes, 51 tensors)

network_body._body_endoder.seq_layers.0.weight f4 [128, 10]
0.54799294 -0.32054394 0.026964718 -0.52720666 0.11288587 0.20610835 0.18013094 0.09039176
-0.022262614 0.123397775 0.08406624 -0.19645879 -0.44563636 -0.30580485 0.11875307 0.00919483
0.07546049 -0.2261609 -0.3409669 0.20846967 -0.11367032 0.041670993 -0.07415275 0.13701048
0.10894666 0.27020454 0.5219593 0.4255559 0.10568642 -0.011015649 -0.76736325 -0.29057744
0.14068018 -0.5109927 0.16586041 0.3411879 -0.15434042 0.13946946 0.26160997 0.48174188
-0.34610853 -0.036482394 0.24385154 -0.45905173 -0.13795793 0.5268449 0.10743402 0.0822422
-0.075311 0.23674347 0.43793872 -0.014047935 -0.2193317 0.6366619 -0.033525717 0.06065419
0.080277465 -0.19846709 -0.013091642 -0.033816352 0.031002458 0.5786171 0.023967836 0.0988922
0.17726363 0.26122263 0.011283569 0.23361333 -0.12582184 0.18200311 0.017421065 -0.57630527
0.1705758 -0.1298902 0.16065633 -0.33858892 -0.037286513 -0.482605 -0.17203988 -0.016134782
0.26051515 0.26952672 0.3435363 0.05976363 -0.14724776 0.0476343 0.13378933 -0.28411976
-0.20304906 -0.097130455 0.045428663 -0.26088518 0.58810645 -0.1076421 -0.13304788 0.082997575
0.2249635 0.39637992 -0.57836944 -0.010930904 0.17158446 -0.42045596 0.035845652 0.023840923
-0.28988552 0.11000827 0.09944784 -0.057830814 -0.23289119 -0.45208734 -0.01683533 0.49905688
-0.33767158 0.101720676 -0.04376128 0.30561805 0.11792009 -0.13998206 -0.16337018 0.10113226
0.14423786 0.0992759 -0.2399666 -0.12294668 0.37702852 0.54786223 -0.09407833 -0.37636206
-0.5041197 -0.029264105 -0.110453926 0.11269027 -0.0067175347 -0.16520998 0.5042906 -0.28903544
-0.13692982 0.5379074 -0.2007298 -0.23442662 0.37912452 -0.26630637 -0.09047193 -0.12732251
0.033824366 0.23263259 -0.5938401 0.026366912 -0.58252686 -0.477229 -0.2408185 -0.2856864
0.25536245 0.18445116 0.2932184 -0.23820943 -0.16356549 -0.015530956 0.55985594 -0.8488276
0.10215612 -0.33800977 -0.199417 -0.08345585 -0.03371371 -0.27403462 -0.06635652 -0.17564245
0.3494349 -0.14909898 0.35595086 -0.20465846 0.7163848 0.18880951 -0.16539983 -0.2676819
-0.0691539 0.35279357 -0.10384764 -0.45133698 0.35824245 -0.017118093 -0.32717243 0.29863343
-0.012121291 0.015250473 -0.22670431 -0.37558928 -0.01722516 -0.24237917 -0.2611025 0.6480972
0.15582141 -0.3602255 -0.0014492986 0.3085825 -0.09527521 0.1661251 0.2722691 0.25099736
-0.33547464 -0.16175643 0.44460434 0.39805904 0.05708319 -0.3612065 -0.38777533 0.25004506
0.42675757 -0.24452326 0.011038953 0.039923303 -0.7182672 -0.25719374 0.13841377 -0.04280173
-0.35067335 0.3846329 0.4228511 -0.58195037 0.24709941 -0.057579257 -0.11860403 -0.41923323
-0.058523685 -0.11003235 -0.33768377 0.31508154 -0.3025773 -0.08612325 -0.079940826 0.33581585
0.32497305 -0.5387211 -0.16693497 0.043856207 -0.20321742 0.23803563 0.13884285 0.21860087
0.14445768 0.36831686 0.23622243 0.3482596 -0.02405406 -0.19305855 0.73639727 0.38261268
0.40891814 -0.19557609 -0.6458999 0.03891135 -0.705429 0.4838927 -0.29216287 -0.027088262
00000000: 4449 0c3f 561e a4be 1de5 dc3c 04f7 06bf
00000010: b530 e73d 110e 533e 3f74 383e 511f b93d
00000020: 1660 b6bc f9b7 fc3d ec2a ac3d 7e2c 49be
00000030: 732a e4be 7492 9cbe cf34 f33d eaa5 163c
00000040: 088b 9a3d b996 67be 3793 aebe 1379 553e
00000050: fccb e8bd 34af 2a3d 66dd 97bd 7a4c 0c3e
00000060: 6d1f df3d 4058 8a3e 209f 053f 77e2 d93e
00000070: 1f72 d83d fb7a 34bc eb71 44bf 91c6 94be
00000080: 770e 103e 6bd0 02bf 50d7 293e 2eb0 ae3e
00000090: 6a0b 1ebe 15d1 0e3e bef1 853e dfa6 f63e
000000a0: 2335 b1be 906e 15bd 38b4 793e d408 ebbe
000000b0: d844 0dbe 4fdf 063f 5e06 dc3d 996e a83d
000000c0: a73c 9abd e16c 723e 8139 e03e 4f29 66bc
000000d0: 7d98 60be 46fc 223f 4352 09bd 8770 783d
000000e0: 8368 a43d f53a 4bbe 547e 56bc 0483 0abd
000000f0: def8 fd3c 4020 143f 3258 c43c fe87 ca3d
00000100: 9984 353e f9be 853e b8de 383c 5538 6f3e
00000110: 71d7 00be 065f 3a3e 9fb6 8e3c be88 13bf
00000120: 6cab 2e3e f001 05be 1883 243e 875b adbe
00000130: beb9 18bd 0118 f7be 392b 30be 172d 84bc
00000140: 3e62 853e 68ff 893e fde3 af3e b5ca 743d
00000150: 1ec8 16be 2f1c 433d 1200 093e 2578 91be
00000160: 18ec 4fbe 55ec c6bd 6813 3a3d be92 85be
00000170: 258e 163f 7673 dcbd b43d 08be a2fa a93d
00000180: d55c 663e 4ff2 ca3e 0510 14bf 8917 33bc
00000190: d6b3 2f3e 0146 d7be e4d2 123d 0a4e c33c
000001a0: e06b 94be 044c e13d 4fab cb3d 01e0 6cbd
000001b0: 077b 6ebe fe77 e7be 3fea 89bc 6284 ff3e
000001c0: 4ae3 acbe ee52 d03d 073f 33bd f879 9c3e
000001d0: 1780 f13d 7557 0fbe 834a 27be 6e1e cf3d
000001e0: 17b3 133e 2a51 cb3d ceb9 75be 78cb fbbd
000001f0: e209 c13e b340 0c3f 24ac c0bd 87b2 c0be
00000200: fd0d 01bf 47bb efbc ab35 e2bd 28ca e63d
00000210: c41e dcbb ce2c 29be 3019 013f 74fc 93be
00000220: 5537 0cbe 4db4 093f 1d8c 4dbe 880d 70be
00000230: 9c1c c23e 4f59 88be 5949 b9bd d560 02be
00000240: 6b8b 0a3d 3d37 6e3e e805 18bf 6cff d73c
00000250: 7b20 15bf 5c57 f4be 2099 76be 7d45 92be
00000260: debe 823e c4e0 3c3e b920 963e 2ced 73be
00000270: b67d 27be 8d75 7ebc b852 0f3f c44c 59bf
00000280: 3a37 d13d 9e0f adbe f833 4cbe e7ea aabd
00000290: 6317 0abd 444e 8cbe ede5 87bd 9ddb 33be
000002a0: 22e9 b23e 67ad 18be 313f b63e fd91 51be
000002b0: ff64 373f 4857 413e 935e 29be 9a0d 89be
000002c0: 8fa0 8dbd 5ca1 b43e 12ae d4bd a415 e7be
000002d0: 8e6b b73e 3e3b 8cbc 2583 a7be 7be6 983e
000002e0: 6198 46bc 1fdd 793c 2d25 68be 3d4d c0be
000002f0: c71b 8dbc 3f32 78be 3aaf 85be b3e9 253f
00000300: a68f 1f3e 7a6f b8be 64f6 bdba 87fe 9d3e
00000310: a61f c3bd b31c 2a3e db66 8b3e ba82 803e
00000320: 55c3 abbe 7aa3 25be 2ea3 e33e 65ce cb3e
00000330: 10d0 693d 0ff0 b8be 7d8a c6be e805 803e
00000340: f87f da3e 4e64 7abe badc 343c 9e86 233d
00000350: 5ce0 37bf e6ae 83be 57bc 0d3e de50 2fbd
00000360: 758b b3be 9aee c43e f07f d83e b3fa 14bf
00000370: a107 7d3e 3ad8 6bbd abe6 f2bd bda5 d6be
00000380: 88b6 6fbd a458 e1bd e3e4 acbe 5e52 a13e
00000390: 69eb 9abe 6361 b0bd 04b8 a3bd 0ef0 ab3e
000003a0: de62 a63e a0e9 09bf 00f1 2abe 91a2 333d
000003b0: 3a18 50be 9dbf 733e d22c 0e3e e8d8 5f3e
000003c0: b7ec 133e 0794 bc3e 4be4 713e 154f b23e
000003d0: 050d c5bc 24b1 45be 8884 3c3f cfe5 c33e
000003e0: b85d d13e 1945 48be b259 25bf 8261 1f3d
000003f0: ff96 34bf c9c0 f73e 5f96 95be 34e8 ddbc

network_body._body_endoder.seq_layers.0.bias f4 [128]
-0.0036114193 0.0 -0.003367936 0.0 1.3991086e-31 -0.010165985 0.0002226395 0.0
0.008640904 0.0010534725 -0.008950962 -0.006276138 0.0015261625 0.0 0.0039570727 -0.00590588
0.0 -0.007233808 0.0045367195 1.8982268e-20 -0.0035096614 0.0 0.0 0.0
0.0027612112 0.0 -1.3298329e-05 -0.0016912858 -0.0106264055 0.0 0.0029203128 -0.0027670998
2.6043575e-18 1.8057371e-18 -0.0068730554 0.0 0.0 0.0136657525 0.0 0.001996283
-0.0022717672 -0.00474555 -0.0029299038 -3.3578555e-30 -0.010869071 -0.008394873 -0.009732675 -0.0024538913
0.0 -0.01027626 -0.017017033 0.0 -0.015883623 -0.016909217 0.0 0.0022882044
0.0037667942 0.0010267057 0.0 0.0 1.1470026e-27 -0.013035195 -0.008265954 -0.015081053
0.007639886 -0.0063020587 0.0 -0.012801808 2.2441161e-07 0.0013168261 0.0 0.0
0.00494851 -0.00031017218 0.0032442578 0.0 0.00049671327 0.0 -0.016491769 -0.0108443685
0.0 0.0 0.0042669 0.0 -0.0022198725 0.0 0.0 -0.0055866647
0.0034603144 0.0024741665 0.0 0.0026098064 -0.0017844194 0.0 0.0044865324 0.0
0.0 8.1620055e-05 0.0 -0.011876847 -0.016932653 0.0032323312 -0.00449531 0.0
0.0021896544 -0.0030924804 0.0 0.0008358662 0.008796752 0.0 0.01482824 0.0030259711
0.00056904444 0.0 -0.004103242 1.2934215e-14 8.7491524e-14 -2.0784517e-05 -0.009462254 -0.017831784
-0.00842495 -0.0002649464 -1.6120931e-17 -0.0063769384 -0.006411127 -0.009358291 -2.335892e-33 0.0
00000000: 90ad 6cbb 0000 0000 97b8 5cbb 0000 0000
00000010: 5c9d 350c 3b8f 26bc 5674 6939 0000 0000
00000020: 9492 0d3c ac14 8a3a 0ea7 12bc 10a8 cdbb
00000030: 8409 c83a 0000 0000 55aa 813b 1d86 c1bb
00000040: 0000 0000 9409 edbb c3a8 943b 4f48 b31e
00000050: 5902 66bb 0000 0000 0000 0000 0000 0000
00000060: 70f5 343b 0000 0000 e31b 5fb7 22ae ddba
00000070: 601a 2ebc 0000 0000 b862 3f3b 3b58 35bb
00000080: ec2a 4022 693d 0522 5e37 e1bb 0000 0000
00000090: 0000 0000 52e6 5f3c 0000 0000 12d4 023b
000000a0: eee1 14bb 8f80 9bbb a103 40bb f735 888e
000000b0: 3014 32bc a68a 09bc cc75 1fbc 77d1 20bb
000000c0: 0000 0000 c25d 28bc 4e67 8bbc 0000 0000
000000d0: 5f1e 82bc 3385 8abc 0000 0000 b3f5 153b
000000e0: 52dc 763b 8792 863a 0000 0000 0000 0000
000000f0: f4bf b512 9291 55bc ed6d 07bc 8516 77bc
00000100: 0258 fa3b 8081 cebb 0000 0000 adbe 51bc
00000110: cbf5 7034 5a99 ac3a 0000 0000 0000 0000
00000120: 1c27 a23b 9b9e a2b9 9d9d 543b 0000 0000
00000130: dd35 023a 0000 0000 bf19 87bc 94ac 31bc
00000140: 0000 0000 0000 0000 5ad1 8b3b 0000 0000
00000150: 487b 11bb 0000 0000 0000 0000 5710 b7bb
00000160: 71c6 623b a025 223b 0000 0000 4909 2b3b
00000170: 2ee3 e9ba 0000 0000 c303 933b 0000 0000
00000180: 0000 0000 6f2b ab38 0000 0000 1b97 42bc
00000190: 59b6 8abc 85d5 533b 654d 93bb 0000 0000
000001a0: 4e80 0f3b 36ab 4abb 0000 0000 081e 5b3a
000001b0: 4120 103c 0000 0000 25f2 723c 5f4f 463b
000001c0: ed2b 153a 0000 0000 7d74 86bb 8a00 6928
000001d0: 6e03 c529 695a aeb7 9207 1bbc f613 92bc
000001e0: cd08 0abc 81e8 8ab9 79b0 94a3 a3f5 d0bb
000001f0: 6e14 d2bb 8453 19bc ee0e 4289 0000 0000

network_body._body_endoder.seq_layers.2.weight f4 [128, 128]
0.08632571 0.051383957 -0.073471144 0.0138438055 -0.06527997 -0.019358693 -0.023745388 -0.01033736
-0.027689423 -0.051784642 -0.07003282 0.10070009 0.051604778 -0.028954756 0.07850607 -0.096873656
0.08124737 -0.010104469 -0.028708791 0.118182 0.0022704632 0.0593989 0.024646247 -0.036735505
0.13850781 -0.16013083 -0.0830423 0.10251025 -0.024646357 -0.03963861 0.07551593 -0.046772067
-0.026085662 -0.09976593 0.009373721 0.07538568 -0.08257132 0.05404564 0.09905755 -0.012285775
0.0874718 -0.013654688 -0.039001387 0.005205042 0.12201617 -0.049561232 -0.01828386 -0.0051593147
0.0005953894 0.040780876 0.017071625 0.040761877 0.0012816796 -0.07310688 -0.13447179 0.021988275
0.08917475 0.012617025 -0.20115604 -0.012780538 0.067564465 0.0063411533 0.044838537 -0.041829266
-0.03843827 0.07152162 -0.08301904 -0.16718078 -0.060523 0.05845224 -0.07677345 0.13412039
-0.0039002881 0.16414234 0.09057554 -0.1442411 0.11491527 -0.21795125 -0.03283947 0.05111108
-0.052271623 -0.04230096 0.11892402 0.05718733 0.11184386 -0.18349762 0.027026152 -0.08506527
0.06278248 0.031779278 -0.09899769 0.033579852 0.072502784 0.108661845 -0.010724713 0.23754059
-0.05080793 0.10999152 -0.0684482 -0.081862845 0.016866438 0.082901746 -0.10651724 0.017554862
0.16857217 0.06705683 -0.050357364 0.17187934 0.022182178 0.08505765 0.028912533 0.005614728
0.008703288 0.009503771 -0.06895688 0.087127574 0.0072067133 0.24571507 0.0734087 0.012497476
-0.058901027 -0.15786546 0.10772815 0.095995404 0.024218122 0.09173001 0.020418996 -0.011736189
-0.024121186 -0.015768023 -0.12113481 0.03166414 -0.03952857 -0.05645217 -0.0104255285 0.011012611
0.07581323 -0.022364901 -0.024111032 -0.07841957 0.042544253 0.07530129 -0.08147397 -0.05722128
-0.14607704 -0.0033809391 -0.14735028 -0.08989455 -0.01495068 0.12626833 -0.038063478 0.0055286298
-0.14678136 0.05914783 -0.048866984 0.0561032 -0.053873256 0.14425921 -0.03124645 -0.019044498
0.010281163 0.089972846 -0.09402817 0.056319743 -0.022990432 0.05635785 -0.060114425 -0.031190602
-0.00020375256 0.008292066 -0.06158543 0.2131841 0.07441476 0.07400356 0.09596697 0.0912449
0.031101517 0.3377691 0.082058415 -0.08571513 0.15907222 0.021633549 -0.015149339 -0.052191854
0.06378359 -0.08600551 0.024397193 -0.02752111 -0.022830773 0.1216848 -0.05034235 0.1297827
-0.030890075 -0.093681455 0.006830561 0.02983682 0.05791759 0.046912093 -0.12333859 0.014246757
0.17561656 -0.17226693 -0.0017019687 -0.06781898 0.05461631 0.15294488 0.15232232 0.08922936
-0.06934055 -0.0475807 -0.02226015 0.016371028 0.028690226 -0.00040696881 -0.010660815 -0.122446105
-0.022709167 0.045295533 -0.073746 -0.033728555 0.07408469 0.015302957 -0.030249966 0.008176343
0.0048924135 -0.0980306 -0.028321441 0.21588242 -0.0078415135 -0.10176856 -0.28150466 -0.12639277
0.12360519 -0.017230295 -0.019038511 -0.02486609 0.0072580506 -0.0401327 0.15870759 -0.0104575455
-0.076561995 0.11560277 0.058639903 0.03593561 0.07741362 0.231743 -0.1654064 0.09882955
0.080995545 0.10878072 0.16104898 0.0027123557 -0.22471945 -0.16817336 0.088083506 -0.099147186
00000000: 89cb b03d fc77 523d 0a78 96bd 21d1 623c
00000010: 81b1 85bd 1f96 9ebc b085 c2bc 085e 29bc
00000020: eed4 e2bc 221c 54bd 5e6d 8fbd d93b ce3d
00000030: 885f 533d 8632 edbc cac7 a03d b265 c6bd
00000040: 0565 a63d 378d 25bc b32e ebbc 6809 f23d
00000050: 0dcc 143b 434c 733d ede6 c93c f877 16bd
00000060: fed4 0d3e 56f9 23be 1512 aabd e5f0 d13d
00000070: 28e7 c9bc 185c 22bd 19a8 9a3d 1194 3fbd
00000080: 99b1 d5bc 1452 ccbd 3c94 193c cf63 9a3d
00000090: 271b a9bd f65e 5d3d afde ca3d 464a 49bc
000000a0: 6a24 b33d eab7 5fbc ebbf 1fbd 0f8f aa3b
000000b0: 9de3 f93d b800 4bbd 09c8 95bc 780f a9bb
000000c0: e813 1c3a d909 273d cbd9 8b3c edf5 263d
000000d0: 08fe a73a 0fb9 95bd f9b2 09be c120 b43c
000000e0: 40a1 b63d a3b7 4e3c d9fb 4dbe 7665 51bc
000000f0: 3d5f 8a3d 73c9 cf3b 9da8 373d 2a55 2bbd
00000100: 7371 1dbd ed79 923d e305 aabd 7031 2bbe
00000110: f7e6 77bd 9e6b 6f3d 663b 9dbd db56 093e
00000120: fa9b 7fbb ee14 283e ab7f b93d f0b3 13be
00000130: b258 eb3d 9d2e 5fbe ae82 06bd da59 513d
00000140: c51a 56bd c543 2dbd 708e f33d 433d 6a3d
00000150: 650e e53d cde6 3bbe f365 dd3c b336 aebd
00000160: 1a94 803d fd2a 023d 4dbf cabd 078b 093d
00000170: 577c 943d 1a8a de3d b5b6 2fbc d73d 733e
00000180: fa1b 50bd 3c43 e13d 922e 8cbd b5a7 a7bd
00000190: 7c2b 8a3c 64c8 a93d b625 dabd 37cf 8f3c
000001a0: 2f9e 2c3e 1755 893d 8643 4ebd 2301 303e
000001b0: 66b7 b53c b532 ae3d fad9 ec3c c1fb b73b
000001c0: 3c98 0e3c b4b5 1b3c 4439 8dbd f16f b23d
000001d0: 4b26 ec3b bb9c 7b3e 4d57 963d 37c2 4c3c
000001e0: 3442 71bd 7ca7 21be 94a0 dc3d 3d99 c43d
000001f0: 1565 c63c f2dc bb3d bd45 a73c 2549 40bc
00000200: cb99 c5bc f12b 81bc 8715 f8bd 42b2 013d
00000210: b6e8 21bd 643a 67bd d6cf 2abc 3d6e 343c
00000220: f743 9b3d 9936 b7bc 8084 c5bc 719a a0bd
00000230: e242 2e3d 9037 9a3d d3db a6bd dc60 6abd
00000240: 3895 15be bf92 5dbb fee2 16be a21a b8bd
00000250: b2f3 74bc 7c4c 013e 73e8 1bbd 8229 b53b
00000260: da4d 16be ff44 723d bf28 48bd 78cc 653d
00000270: 34aa 5cbd b0b8 133e 8ef8 ffbc 3503 9cbc
00000280: 5372 283c af43 b83d d791 c0bd 88af 663d
00000290: 6e56 bcbc 7dd7 663d 8b3a 76bd 6f83 ffbc
000002a0: 69a6 55b9 72db 073c 0141 7cbd ef4c 5a3e
000002b0: c466 983d 2e8f 973d 558a c43d 9bde ba3d
000002c0: 9cc8 fe3c 12f0 ac3e 3e0e a83d 6a8b afbd
000002d0: d4e3 223e d738 b13c ef34 78bc 20c7 55bd
000002e0: f9a0 823d a823 b0bd 9fdc c73c f373 e1bc
000002f0: 9a07 bbbc e135 f93d c833 4ebd c2e5 043e
00000300: 2f0d fdbc 10dc bfbd e6d2 df3b 596c f43c
00000310: ff3a 6d3d e526 403d f198 fcbd 3b6b 693c
00000320: d4d4 333e be66 30be 9814 dfba ade4 8abd
00000330: 5ab5 5f3d 959d 1c3e 62fa 1b3e e2bd b63d
00000340: 6b02 8ebd fbe3 42bd eb5a b6bc 891c 863c
00000350: c407 eb3c 6e5e d5b9 b3aa 2ebc 06c5 fabd
00000360: 9308 babc cf87 393d 2508 97bd f426 0abd
00000370: b7b9 973d 41b9 7a3c c7ce f7bc 11f6 053c
00000380: 8a50 a03b 44c4 c8bd 5e02 e8bc 4810 5d3e
00000390: b179 00bc 096c d0bd 6121 90be 1b6d 01be
000003a0: b824 fd3d 8c26 8dbc a7f6 9bbc f8b3 cbbc
000003b0: f1d4 ed3b 3062 24bd 3e84 223e 2056 2bbc
000003c0: 89cc 9cbd 25c1 ec3d 6530 703d 3831 133d
000003d0: 088b 9e3d 094e 6d3e 4c60 29be 2667 ca3d
000003e0: fee0 a53d 6dc8 de3d 06ea 243e c7c1 313b
000003f0: db1c 66be a335 2cbe 2065 b43d ae0d cbbd

network_body._body_endoder.seq_layers.2.bias f4 [128]
0.0024615952 -0.008817868 -0.00395142 1.9086001e-30 0.00067388214 -0.00180151 0.0 -0.0038365102
1.7259741e-19 0.0036897426 0.0 -0.019356007 0.0035974816 -8.617333e-38 -0.0031357775 -0.008440015
0.0 1.063468e-08 -0.0014036853 0.0 -0.007865123 0.0 -0.0008207909 0.0
-3.033222e-25 -0.0038704216 0.0 0.0 0.0 -0.007018356 0.0064915754 -0.00041004855
-0.0018015574 -0.0070562325 0.013460288 1.2960384e-34 -0.005184712 -0.0008277653 0.007086408 -0.011402226
0.0 0.0 0.0 -4.1510802e-17 -0.0053224224 -1.1912524e-05 -0.0075839427 -0.0063924408
0.0011546012 -0.005068373 0.0 0.0 -0.0044624703 -0.0018015824 0.0 0.0
0.0 0.0 -0.004349628 0.0049443943 -0.0021029066 -0.0049377503 0.0077742334 0.0011828719
-0.0054392554 -0.008592643 0.004839002 -0.0004507456 -0.008163521 0.0 -0.0099953255 0.0
-0.006686675 -0.0013695032 -0.011639209 -0.004461117 0.00095470255 0.0 0.00067948195 0.0
-1.0027013e-14 -0.0056791767 0.003416346 -0.0017674448 0.0 3.008323e-31 0.0016085225 0.0021931888
0.0 -0.013216211 -0.0031898748 0.0 0.0 0.0060531753 0.0 -0.008729962
0.006798049 -1.22730185e-20 0.0 0.0 -0.006592905 0.0 0.0 5.940869e-28
2.0656236e-27 0.0032949217 -0.0027037929 -0.0020636255 -0.006395474 -0.0077922996 0.0 9.956688e-19
0.005132027 0.0021230145 0.0026816614 -5.0969297e-06 0.0033530218 -0.008405066 0.0 -1.1858624e-31
0.0 -0.011213226 -0.0069390377 -0.0022421714 -1.1180707e-21 0.003922618 0.0 0.0
00000000: b752 213b d278 10bc ea7a 81bb 13d8 1a0e
00000010: 77a7 303a a520 ecba 0000 0000 f66d 7bbb
00000020: 5ec4 4b20 9ccf 713b 0000 0000 7d90 9ebc
00000030: bac3 6b3b 0c96 ea81 9e81 4dbb fd47 0abc
00000040: 0000 0000 d1b3 3632 ddfb b7ba 0000 0000
00000050: b8dc 00bc 0000 0000 582a 57ba 0000 0000
00000060: 52bf bb96 e6a6 7dbb 0000 0000 0000 0000
00000070: 0000 0000 3dfa e5bb 48b7 d43b c9fb d6b9
00000080: 3c22 ecba f837 e7bb 8a88 5c3c e745 2c07
00000090: 84e4 a9bb 64fe 58ba 1935 e83b 67d0 3abc
000000a0: 0000 0000 0000 0000 0000 0000 4e6f 3fa4
000000b0: b767 aebb e7db 47b7 b982 f8bb ae77 d1bb
000000c0: fd55 973a 9814 a6bb 0000 0000 0000 0000
000000d0: ea39 92bb 1323 ecba 0000 0000 0000 0000
000000e0: 0000 0000 0000 0000 5387 8ebb 9604 a23b
000000f0: ebd0 09bb dacc a1bb ffbe fe3b 980a 9b3a
00000100: c83b b2bb 28c8 0cbc 7e90 9e3b 0d52 ecb9
00000110: 4ac0 05bc 0000 0000 6fc3 23bc 0000 0000
00000120: e51b dbbb e780 b3ba 62b2 3ebc 902e 92bb
00000130: 0145 7a3a 0000 0000 431f 323a 0000 0000
00000140: 70a1 34a8 6318 babb c6e4 5f3b 9ba9 e7ba
00000150: 0000 0000 5740 c30c 0fd5 d23a 9abb 0f3b
00000160: 0000 0000 cf88 58bc 380d 51bb 0000 0000
00000170: 0000 0000 b759 c63b 0000 0000 1d08 0fbc
00000180: 2bc2 de3b add4 679e 0000 0000 0000 0000
00000190: 4c09 d8bb 0000 0000 0000 0000 0e46 3c12
000001a0: d3a7 2313 9def 573b 1e32 31bb e43d 07bb
000001b0: 2091 d1bb 8c56 ffbb 0000 0000 4eef 9221
000001c0: 902a a83b 4622 0b3b d0be 2f3b 4b06 abb6
000001d0: 5fbe 5b3b 67b5 09bc 0000 0000 0aef 198c
000001e0: 0000 0000 aeb7 37bc de60 e3bb 65f1 12bb
000001f0: 44f5 a89c 4e89 803b 0000 0000 0000 0000

network_body._body_endoder.seq_layers.4.weight f4 [128, 128]
0.14602125 -0.017123561 -0.111167535 -0.13044497 0.13901982 -0.0392132 -0.07038592 0.024690978
0.121425055 -0.0027111287 -0.03851835 0.05798187 -0.19093382 -0.01224268 0.16102724 0.07249871
-0.10632101 -0.2983784 -0.03918812 -0.026243256 -0.21423647 0.039211523 0.065359496 0.08649505
0.104970686 -0.06688442 0.05077229 -0.012601487 -0.1028015 -0.09073667 -0.14638875 -0.0060242135
-0.123548254 -0.012995971 0.06267967 -0.05439007 -0.1794992 -0.016256044 -0.04057865 0.0502143
-0.011504763 -0.09958495 0.12842545 -0.0623271 0.026397582 -0.08417688 -0.108519346 0.044001892
0.06363776 -0.023306118 -0.13892348 -0.09098196 -0.03360214 0.016455416 -0.06598566 -0.04006191
-0.037282366 0.18248439 -0.047997925 0.0077080545 0.09321145 0.09298688 0.1396347 -0.067820825
0.03387869 -0.208863 0.021427028 6.699095e-06 -0.047097083 -0.060488876 -0.0097930385 -0.03652257
0.0018614319 0.07803627 -0.031259317 -0.18575208 0.12681809 0.0011922059 -0.10168726 0.07730982
0.054554105 -0.120836765 -0.016979847 0.008164444 -0.02744203 0.064708434 -0.07939601 -0.081426695
0.016383331 -0.035533637 -0.026193906 -0.063508466 0.06029319 -0.07432244 0.11315511 -0.15893044
-0.10263028 0.05389442 0.18020542 -0.14884645 0.028954046 0.06649867 0.12504055 0.09714852
-0.08231493 0.07590459 -0.114276476 -0.017287795 -0.026434695 -0.08539045 0.059160866 -0.0015642388
0.050257698 -0.011873735 -0.024122266 0.004060888 -0.079270065 -0.057298575 0.07006679 -0.21798837
-0.028706456 0.044551905 0.089081 0.014744681 -0.057661556 0.07889819 -0.032341037 -0.2432984
0.12594847 -0.1008245 0.14439864 -0.06454359 -0.11867612 -0.043265793 -0.021748394 0.0003764322
-0.003475177 0.106821306 0.011540884 0.069473624 -0.120457485 -0.04183948 0.029973423 0.15691721
0.08357221 0.09584459 0.010937135 0.023219418 0.0058738235 -0.05669424 -0.015783612 0.004120421
0.14076802 0.106691375 0.07422114 -0.0036577864 -0.09590172 -0.067551136 0.010344839 0.08893861
-0.05138536 0.017539216 0.12052634 -0.073956825 0.01778289 0.09318387 0.0013521718 0.12593852
0.07955204 -0.007022841 -0.115978286 0.018766288 -0.14490639 -0.10596517 0.033981036 -0.08066034
-0.026998293 -0.00030064638 0.12990801 0.07542937 -0.18750958 0.020138446 0.09805656 -0.03151883
0.013744466 -0.077999145 0.015274772 0.14849775 0.0004387259 -0.012522564 0.062138047 0.041998945
0.08974704 -0.1893339 -0.05534673 -0.12786181 0.07058693 0.08469057 0.036395874 0.072049044
-0.03807726 0.13710721 -0.09937045 -0.12917773 0.008017898 0.06674284 0.03221612 -0.068223566
0.19553061 -0.1234921 -0.0049510393 -0.09344882 -0.17124525 0.08104686 -0.06620741 0.1010946
0.041813076 0.1131886 0.06353451 0.074005105 -0.108628 0.20295079 -0.025867755 -0.07799875
0.082555406 0.13164961 0.05322566 -0.0063203005 -0.07911304 0.06298181 0.13709433 -0.17130406
-0.017794065 0.0061330046 -0.24812642 0.035983704 -0.032222945 -0.0007978731 0.008359226 -0.079530135
0.055922948 0.083094396 0.1071476 0.076392524 -0.046149977 0.11349546 -0.013341137 0.02349736
-0.0997084 0.022096187 0.040782444 -0.023879422 -0.053244613 -0.013824009 -0.039305527 0.12578993
00000000: 9886 153e b646 8cbc ceab e3bd 5e93 05be
00000010: 365b 0e3e 059e 20bd 7e26 90bd bc44 ca3c
00000020: b3ad f83d 31ad 31bb 6bc5 1dbd 667e 6d3d
00000030: 2884 43be 8695 48bc 53e4 243e 347a 943d
00000040: d4be d9bd 0ec5 98be b983 20bd 19fc d6bc
00000050: ce60 5bbe 439c 203d 33db 853d 5124 b13d
00000060: dffa d63d b3fa 88bd 9bf6 4f3d 7876 4ebc
00000070: 9889 d2bd 26d4 b9bd efe6 15be c466 c5bb
00000080: de06 fdbd 0eed 54bc 335e 803d 1fc8 5ebd
00000090: a3ce 37be 652b 85bc cc35 26bd 83ad 4d3d
000000a0: 797e 3cbc 32f3 cbbd f681 033e b44a 7fbd
000000b0: be3f d83c ee64 acbd 643f debd 543b 343d
000000c0: 8454 823d 79ec bebc f541 0ebe c054 babd
000000d0: 66a2 09bd 82cd 863c 7d23 87bd f517 24bd
000000e0: 65b5 18bd 30dd 3a3e 7999 44bd d993 fc3b
000000f0: a5e5 be3d e86f be3d 66fc 0e3e a5e5 8abd
00000100: 62c4 0a3d 2fe0 55be bc87 af3c cac8 e036
00000110: dfe8 40bd 2fc3 77bd fb72 20bc b198 15bd
00000120: 4afb f33a 7bd1 9f3d c509 00bd cb35 3ebe
00000130: 9adc 013e cb43 9c3a 6941 d0bd 9c54 9e3d
00000140: 2074 5f3d 4479 f7bd 5219 8bbc 29c4 053c
00000150: 1cce e0bc db85 843d 609a a2bd 0ac3 a6bd
00000160: 5636 863c b88b 11bd 9a94 d6bc ba10 82bd
00000170: fef5 763d 5d36 98bd debd e73d a9be 22be
00000180: d32f d2bd 65c0 5c3d c587 383e 346b 18be
00000190: 0931 ed3c 7430 883d a10a 003e cef5 c63d
000001a0: bb94 a8bd de73 9b3d c909 eabd 229f 8dbc
000001b0: 938d d8bc 30e1 aebd aa52 723d 2507 cdba
000001c0: 04db 4d3d 0e8a 42bc 0f9c c5bc 3311 853b
000001d0: 5858 a2bd e9b1 6abd 2d7f 8f3d 5838 5fbe
000001e0: cd29 ebbc 0f7c 363d 1970 b63d ad93 713c
000001f0: 862e 6cbd 6095 a13d 0978 04bd 3723 79be
00000200: a3f8 003e 137d cebd 3ddd 133e 6e2f 84bd
00000210: 770c f3bd 7937 31bd b029 b2bc e05b c539
00000220: ccbf 63bb 21c5 da3d fa15 3d3c 3048 8e3d
00000230: 6ab2 f6bd e05f 2bbd d38a f53c e8ae 203e
00000240: e827 ab3d 2b4a c43d ab31 333c a636 be3c
00000250: 3479 c03b 3838 68bd a24c 81bc 9904 873b
00000260: 7e25 103e 0281 da3d 4101 983d 79b7 6fbb
00000270: 1f68 c4bd 4058 8abd 667d 293c 7225 b63d
00000280: 7579 52bd 67ae 8f3c 84d6 f63d ad76 97bd
00000290: 6cad 913c 2fd7 be3d 5b3b b13a 07f6 003e
000002a0: 2eec a23d dc1f e6bb 0686 edbd c2bb 993c
000002b0: 5762 14be 4404 d9bd b32f 0b3d 4031 a5bd
000002c0: 862b ddbc 13a0 9db9 9b06 053e b77a 9a3d
000002d0: 8302 40be 62f9 a43c e1d1 c83d e419 01bd
000002e0: 7830 613c 04be 9fbd 0a43 7a3c cb0f 183e
000002f0: cb04 e639 712b 4dbc 7784 7e3d 1607 2c3d
00000300: 4ccd b73d bfe0 41be 41b3 62bd 35ee 02be
00000310: e18f 903d 4072 ad3d d713 153d 738e 933d
00000320: e7f6 1bbd d565 0c3e bc82 cbbd 2b47 04be
00000330: 805d 033c 78b0 883d 0df5 033d ccb8 8bbd
00000340: 2d39 483e 6de9 fcbd 543c a2bb 1862 bfbd
00000350: ea5a 2fbe e5fb a53d c097 87bd b00a cf3d
00000360: 3044 2b3d 6dcf e73d 621e 823d fd8f 973d
00000370: 5b78 debd 55d2 4f3e 9de8 d3bc cfbd 9fbd
00000380: cf12 a93d 28cf 063e 2603 5a3d 861a cfbb
00000390: 0406 a2bd 9bfc 803d 7562 0c3e 556a 2fbe
000003a0: dcc4 91bc 5ff7 c83b da14 7ebe a663 133d
000003b0: 35fc 03bd 5b28 51ba 23f5 083c b2e0 a2bd
000003c0: 760f 653d 652d aa3d 3370 db3d af73 9c3d
000003d0: c207 3dbd 4f70 e83d c994 5abc 897d c03c
000003e0: eb33 ccbd 1003 b53c 7e0b 273d c79e c3bc
000003f0: 0617 5abd 197e 62bc d5fe 20bd 13cf 003e

network_body._body_endoder.seq_layers.4.bias f4 [128]
0.0 0.005158283 -0.0053692255 -0.0041903984 -0.0069307056 -0.010780121 -0.005966809 -0.010838165
-0.011431406 0.0 0.0 -0.003420081 0.0 0.004836575 0.0013712021 0.0
0.005376037 -0.00014772899 0.0 -0.006874405 2.419523e-22 0.0 -0.002645635 -0.008257154
0.0 0.0 0.0043631317 -0.0028630602 -0.012888086 -0.006416788 0.0 0.004935984
0.0 -0.0053859837 -0.0018014228 -0.0036699933 -0.0072580143 0.0 0.0 0.0022281292
0.0 0.0025153207 0.0 3.6821942e-17 0.001315349 -0.0061847907 -0.009485483 -0.00589202
-0.0002810785 -0.009042295 -0.012041521 3.2152282e-23 0.001953215 0.0 -0.00407895 -0.006662415
-0.0068814033 0.0 0.0 -0.0047159735 0.005736493 -0.007386926 -0.0021170955 0.0
0.0021655087 0.0036165682 0.0 0.0 -0.0076786764 0.00567988 -0.011189919 -0.0076582036
0.0 0.0 0.0 0.0 -0.0055224774 -0.007597492 0.0 0.0017509563
0.005077302 -0.0017520151 -0.004449929 -0.0018021965 2.614282e-22 -0.0072923596 0.003445203 -0.00786451
-0.0015969472 -0.006574292 -0.005573621 0.0030498493 -0.0062726215 1.2706998e-05 -0.0052036387 -0.006397156
-0.0029928684 0.0007637939 1.8265024e-13 0.0023182794 -0.003521613 0.0 0.0 0.0
0.0 0.0 0.0051146233 0.0 -0.005988479 0.0042452845 -1.2070157e-05 -0.0060413876
-0.0030167415 -0.0076646744 -0.007605192 -0.0055886228 -0.0049592676 -2.82689e-07 -0.003095657 0.0
-1.3309132e-21 -0.0064448253 -0.011963033 -0.0027440279 -0.0013669657 0.0053916876 0.0 0.0
00000000: 0000 0000 d006 a93b 54f0 afbb 9c4f 89bb
00000010: f91a e3bb 1b9f 30bc 3985 c3bb 8f92 31bc
00000020: cb4a 3bbc 0000 0000 0000 0000 7023 60bb
00000030: 0000 0000 227c 9e3b e8b9 b33a 0000 0000
00000040: 7829 b03b b3e7 1ab9 0000 0000 b042 e1bb
00000050: 4e40 921b 0000 0000 6462 2dbb 0449 07bc
00000060: 0000 0000 0000 0000 9af8 8e3b 2ea2 3bbb
00000070: 8d28 53bc eb43 d2bb 0000 0000 09be a13b
00000080: 0000 0000 e87c b0bb b81d ecba 4584 70bb
00000090: a3d4 edbb 0000 0000 0000 0000 ce05 123b
000000a0: 0000 0000 14d8 243b 0000 0000 adcf 2924
000000b0: ca67 ac3a c9a9 cabb 0069 1bbc d911 c1bb
000000c0: b85d 93b9 2226 14bc cd49 45bc 997a 1b1a
000000d0: 8301 003b 0000 0000 b6a8 85bb 6350 dabb
000000e0: 657d e1bb 0000 0000 0000 0000 7488 9abb
000000f0: 31f9 bb3b 070e f2bb f8be 0abb 0000 0000
00000100: 35eb 0d3b f203 6d3b 0000 0000 0000 0000
00000110: 689d fbbb 491e ba3b ec55 37bc abf1 fabb
00000120: 0000 0000 0000 0000 0000 0000 0000 0000
00000130: e6f5 b4bb 62f4 f8bb 0000 0000 5880 e53a
00000140: 7f5f a63b dfa3 e5ba b6d0 91bb ae37 ecba
00000150: 0e06 9e1b bff4 eebb eac8 613b 25da 00bc
00000160: a850 d1ba 296d d7bb eca2 b6bb fbdf 473b
00000170: 908a cdbb 2430 5537 4983 aabb 3c9f d1bb
00000180: 0024 44bb 5739 483a 59a5 4d2a 46ee 173b
00000190: ddca 66bb 0000 0000 0000 0000 0000 0000
000001a0: 0000 0000 0000 0000 9298 a73b 0000 0000
000001b0: 013b c4bb 071c 8b3b ee80 4ab7 d5f6 c5bb
000001c0: 86b4 45bb f327 fbbb f934 f9bb c420 b7bb
000001d0: 5a81 a2bb 7bc4 97b4 82e0 4abb 0000 0000
000001e0: 361f c99c 1d2f d3bb 9900 44bc 26d5 33bb
000001f0: c22b b3ba c1ac b03b 0000 0000 0000 0000

action_model._continuous_distribution.log_sigma f4 [1, 2]
0.043930482 0.038990375
00000000: 73f0 333d 5fb4 1f3d

action_model._continuous_distribution.mu.weight f4 [2, 128]
-0.004127068 0.023146415 -0.02063501 0.032982856 -0.0010057705 -0.016527496 -0.025300361 0.0009548223
-0.010715161 0.0019147769 0.008759967 0.0066090827 0.013734238 0.028966611 -0.026829904 0.02222785
0.02739722 0.030981466 0.0219382 -0.022080204 -0.00356012 -0.013555311 0.00012018259 -0.017430421
-0.008233763 -0.022033589 0.0120030055 -0.0034740183 -0.00018840056 -0.013026274 0.0048706173 0.02897966
-0.015048969 0.00047594178 -0.0063212346 0.025363987 0.002633338 -0.00051648397 0.026000593 0.0012734459
-0.03008013 0.01476215 -0.013296502 -0.0065519386 0.0058762953 -0.0077036037 -0.012338159 -0.00022919421
0.02081034 -0.027934482 -0.01836443 -0.0033594624 0.00650424 -0.004912538 -0.014827507 -0.0048211566
-0.022524627 0.007461861 -0.019533856 -0.013711631 0.03265206 -0.016835645 0.019449007 0.015711674
0.026978746 -0.03013192 0.013766653 -0.0029859224 0.007871876 0.023441408 -0.010252765 0.0021211763
-0.009619864 0.008501691 0.0048044906 -0.01864118 0.008972092 -0.0035060039 -0.00040923632 0.0049874736
0.02292595 0.0018161086 0.029628433 -0.012613389 -0.041909408 0.022517705 0.029235303 -0.018972952
0.007953731 0.009894205 0.01018607 0.020482162 -0.009530016 0.021111662 0.011315987 0.0035230825
0.037068866 -0.039463695 0.03743905 -0.008180534 -0.05153529 -0.017135462 -0.040995687 -0.0074942834
0.006478268 0.008812192 0.034943767 -0.019394554 0.009370465 0.024550306 -0.014415113 -0.00829474
-0.0005567789 -0.0050369413 -0.0040572095 -0.0078333 -0.01895288 -0.027786348 0.024615673 0.0029485465
0.036938127 -0.0029582651 -0.019856496 0.02099284 0.015187808 0.053432025 0.01727621 -0.0199931
-0.0028571915 0.028430434 0.008719523 -0.012407357 -0.0054556145 0.02130216 -0.003346171 0.003426141
0.015937684 -0.0355329 -0.012893808 -0.015050111 0.02947467 0.006693463 0.006540668 -0.016894577
0.014923169 -0.021796683 -0.008400128 -0.024735652 -0.064671725 -0.0030106613 -0.0013561316 0.010844071
0.014333139 -0.046181574 0.0155228125 -0.035484385 -0.00053283887 -0.0026765405 -0.008217548 -0.025629917
-0.0024602225 0.010749343 -0.012857185 0.002912471 -0.011794851 -0.03907767 0.0026096546 0.03155022
0.0025701157 -0.0005936464 0.001976377 0.017621797 0.0061752256 -0.007732275 -0.026200626 -0.018400865
-0.019744014 -0.010736628 -0.004109662 0.0016671893 -0.007189568 0.0054228436 -0.005573867 0.012940586
-0.014129452 0.009222199 -0.021945355 0.02804573 0.02542526 -0.0114669 -0.025420202 -0.008948474
-0.013449204 0.005882873 0.013614686 0.0060359943 0.028818693 0.013547503 -0.0013274376 -0.009497404
-0.006990734 0.033545557 0.033208262 0.013025584 -0.020752594 -0.017283924 4.2562056e-05 0.02147689
0.031681042 0.011934174 0.0035447725 0.0038078341 -0.0091819605 0.00045756972 -0.0068941736 0.015141991
0.0006902075 -0.015109943 -0.0148595935 -0.0002920503 0.008470993 -0.038303733 -0.004576572 -0.020694712
-0.002011823 0.014332548 -0.031633034 0.033314224 -0.0058775684 -0.02576123 0.008514411 0.0052848505
0.012335297 0.016588116 0.009263358 0.002097589 -0.039570745 0.022456976 -0.019174622 -0.015998296
-0.01890546 0.0021774503 0.004880083 -0.0017273623 -0.026207514 -0.0014225562 -0.011892422 -0.0068102414
-0.029643415 0.0070706354 0.0062304605 -0.0051452564 -0.019739268 0.008130479 -0.035943363 0.016313465
00000000: 5b3c 87bb 8d9d bd3c c10a a9bc 0819 073d
00000010: 0fd4 83ba ac64 87bc b442 cfbc 0a4d 7a3a
00000020: a58e 2fbc 40f9 fa3a f785 0f3c 0191 d83b
00000030: 9205 613c 634b ed3c 63ca dbbc 2e17 b63c
00000040: 2270 e03c d8cc fd3c bdb7 b33c 8be1 b4bc
00000050: e750 69bb 1817 5ebc 890a fc38 3eca 8ebc
00000060: e8e6 06bc c97f b4bc 41a8 443c 5bac 63bb
00000070: 648d 45b9 276c 55bc b399 9f3b c066 ed3c
00000080: f38f 76bc d387 f939 5c22 cfbb 23c8 cf3c
00000090: 1594 2c3b a764 07ba 32ff d43c c1e9 a63a
000000a0: 9b6a f6bc f2dc 713c 92d9 59bc a5b1 d6bb
000000b0: f08d c03b 836e fcbb fd25 4abc da53 70b9
000000c0: 727a aa3c dbd6 e4bc 0071 96bc 6d2a 5cbb
000000d0: 8521 d53b 5bf9 a0bb 12ef 72bc cbfa 9dbb
000000e0: 9185 b8bc a082 f43b 7705 a0bc c0a6 60bc
000000f0: 2bbe 053d e8ea 89bc 8653 9f3c c5b5 803c
00000100: 8802 dd3c 37d7 f6bc 878d 613c 77af 43bb
00000110: 0af9 003c 3208 c03c 37fb 27bc 6f03 0b3b
00000120: a29c 1dbc ad4a 0b3c fd6e 9d3b 63b5 98bc
00000130: aeff 123c fcc4 65bb c58e d6b9 f66d a33b
00000140: 34cf bb3c 7e0a ee3a 54b7 f23c 63a8 4ebc
00000150: 33a9 2bbd 0d77 b83c e07e ef3c 2a6d 9bbc
00000160: 5e50 023c 4e1b 223c 79e3 263c 35ca a73c
00000170: c923 1cbc 5df2 ac3c b166 393c 84e3 663b
00000180: 86d5 173d afa4 21bd b059 193d a507 06bc
00000190: ab16 53bd ab5f 8cbc 18eb 27bd 9b92 f5bb
000001a0: a747 d43b 0361 103c 3221 0f3d 54e1 9ebc
000001b0: 9486 193c b91d c93c 5e2d 6cbc a9e6 07bc
000001c0: cdf4 11ba ed0c a5bb 57f2 84bb 3e57 00bc
000001d0: 1243 9bbc 32a0 e3bc cfa6 c93c 673c 413b
000001e0: 6f4c 173d 74df 41bb 17aa a2bc 2df9 ab3c
000001f0: 49d6 783c 8adb 5a3d d786 8d3c 92c8 a3bc
00000200: b83f 3bbb f1e6 e83c 55dc 0e3c 3a48 4bbc
00000210: 03c5 b2bb de81 ae3c 6f4b 5bbb 1c89 603b
00000220: bf8f 823c f28a 11bd 8d40 53bc be94 76bc
00000230: dd74 f13c d654 db3b 1a53 d63b 7f66 8abc
00000240: 4f80 743c f58e b2bc b1a0 09bc 6ca2 cabc
00000250: 9c72 84bd 844e 45bb 3ac0 b1ba 55ab 313c
00000260: 8bd5 6a3c e428 3dbd 6553 7e3c 1358 11bd
00000270: 36ae 0bba e668 2fbb e5a2 06bc d5f5 d1bc
00000280: af3b 21bb 031e 303c f1a6 52bc 28df 3e3b
00000290: 313f 41bc e80f 20bd bd06 2b3b ce3a 013d
000002a0: 636f 283b ef9e 1bba 1b86 013b 965b 903c
000002b0: 8c59 ca3b 065f fdbb b2a2 d6bc 69bd 96bc
000002c0: 33be a1bc afe8 2fbc 58aa 86bb 9785 da3a
000002d0: 7896 ebbb 1cb2 b13b fca4 b6bb c004 543c
000002e0: 387f 67bc b518 173c bfc6 b3bc 29c0 e53c
000002f0: a348 d03c aadf 3bbc 073e d0bc 9f9c 12bc
00000300: 0d5a 5cbc 1ec5 c03b 2210 5f3c 97c9 c53b
00000310: 2e15 ec3c 59f6 5d3c 6afd adba 009b 1bbc
00000320: 8712 e5bb 1167 093d 6305 083d 4269 553c
00000330: 5801 aabc 0497 8dbc a984 3238 4ef0 af3c
00000340: fbc3 013d 8e87 433c 6a4f 683b db8c 793b
00000350: ef6f 16bc f8e5 ef39 85e8 e1bb 1d16 783c
00000360: 0bef 343a b28f 77bc a775 73bc 541e 99b9
00000370: ebc9 0a3c 60e4 1cbd 12f7 95bb f587 a9bc
00000380: cad8 03bb 10d3 6a3c a491 01bd 7f74 083d
00000390: 9e98 c0bb 3709 d3bc 0780 0b3c 8a2c ad3b
000003a0: fc19 4a3c cde3 873c 57c5 173c b477 093b
000003b0: ef14 22bd b1f7 b73c 1914 9dbc dc0e 83bc
000003c0: a0df 9abc 8eb3 0e3b 1ae9 9f3b a968 e2ba
000003d0: 24b1 d6bc 1175 baba 6fd8 42bc 7228 dfbb
000003e0: bfd6 f2bc cab0 e73b e428 cc3b 8a99 a8bb
000003f0: 3fb4 a1bc b335 053c 5939 13bd d1a3 853c

action_model._continuous_distribution.mu.bias f4 [2]
0.0049714395 0.0036346633
00000000: 75e7 a23b 8833 6e3b

action_model._discrete_distribution.branches.0.weight f4 [1, 128]
-0.006050386 0.0039003068 0.0016812999 -0.0049208105 -0.0077064834 0.010166213 -0.005485726 0.009954994
0.012189433 -0.0005796214 0.0071103247 -0.012604862 0.009006122 -0.003502691 0.004775736 0.005663945
0.009677503 -0.011968436 -0.00064250216 0.014831448 0.0059113605 -0.0015865983 -0.01450333 0.011201131
-0.007126514 -0.009191274 -0.0036627133 0.0051294854 0.0032244169 -0.0011686725 0.0049216207 -0.012241604
0.009652508 -0.010278865 0.0061105085 0.005648873 0.0081359 -0.0007355627 0.005439811 -0.00044622956
0.0040726922 -0.0009870961 0.004049072 0.0003710789 -0.0043703965 -0.01042012 0.00031177746 -0.0045981086
0.0033197068 -0.0011203028 -0.007020843 0.003938203 0.008868276 0.012651818 0.0005433648 0.00789469
-0.012452048 0.007360843 0.0041634995 0.0029022822 -0.00036608495 0.0015590958 0.012297556 -0.0032345399
-0.0015876333 0.0020566755 0.009573646 0.0020654728 0.011703135 0.0029173838 -0.000673855 -0.007838648
-0.0040572085 -0.008452495 0.0022201433 0.00379741 -0.0005399553 -6.6935e-05 0.003129676 0.0016362055
-0.014841318 0.012959492 0.005633251 0.00423361 0.0123156225 -0.01561978 -0.01144089 -0.002497222
-0.003209288 -0.0065379823 0.0015074398 -0.005115229 0.004756428 0.011757686 -0.00024528473 0.0018724503
-0.004188335 0.008665891 -6.394185e-05 0.012492489 -0.0063095475 0.0023448213 0.0024345897 0.00056874385
-0.01218522 -0.0014670618 -0.00010462278 -0.005391471 0.008311372 0.0072124447 0.0028606253 -0.004368672
0.00082789466 -0.0007324169 0.0020556606 0.0041857646 -0.0099457735 -0.00672137 -0.0071621235 -0.0014957549
8.835413e-05 -0.0067188735 0.0049505453 0.0031980749 0.002468567 -0.0057370914 0.0024174408 -0.0006952479
00000000: 5142 c6bb 4a9c 7f3b 105f dc3a c03e a1bb
00000010: ab86 fcbb 3090 263c 9bc1 b3bb 451a 233c
00000020: 30b6 473c bcf1 17ba bafd e83b a084 4ebc
00000030: 6a8e 133c 678d 65bb c77d 9c3b 9d98 b93b
00000040: 648e 1e3c 4217 44bc 976d 28ba 9aff 723c
00000050: 16b4 c13b 68f5 cfba 609f 6dbc f384 373c
00000060: 8885 e9bb ff96 16bc 220a 70bb 3e15 a83b
00000070: bd50 533b 242e 99ba 8c45 a13b 0291 48bc
00000080: 8e25 1e3c af68 28bc a93a c83b 2e1a b93b
00000090: 704c 053c c7d2 40ba 7140 b23b ebf3 e9b9
000000a0: 3874 853b 7361 81ba 14ae 843b 5e8d c239
000000b0: 8b35 8fbb 27b9 2abc 1076 a339 bbab 96bb
000000c0: 708f 593b 20d7 92ba 1a0f e6bb 0b0c 813b
000000d0: 3f4c 113c 9249 4f3c 9870 0e3a bb58 013c
000000e0: ad03 4cbc 3a33 f13b f76d 883b 3734 3e3b
000000f0: 17ef bfb9 935a cc3a b07b 493c 93fa 53bb
00000100: 2218 d0ba 4ac9 063b c8da 1c3c e25c 073b
00000110: 82be 3f3c 9431 3f3b a5a5 30ba ac6d 00bc
00000120: 55f2 84bb 557c 0abc d37f 113b f8dd 783b
00000130: c98b 0dba 745f 8cb8 401b 4d3b f275 d63a
00000140: 0029 73bc 0d54 543c 2297 b83b 18ba 8a3b
00000150: 77c7 493c 1bea 7fbc 9272 3bbc 6fa8 23bb
00000160: eb52 52bb 923c d6bb 4995 c53a a79d a7bb
00000170: cfdb 9b3b 4fa3 403c 8f99 80b9 026d f53a
00000180: 4d3e 89bb 62fb 0d3c 8518 86b8 4cad 4c3c
00000190: 52c0 cebb 93ab 193b a38d 1f3b c117 153a
000001a0: 84a4 47bc 6d4a c0ba ed68 dbb8 f0aa b0bb
000001b0: 6c2c 083c 5f56 ec3b 5479 3b3b 1427 8fbb
000001c0: 1207 593a abff 3fba 43b8 063b bd28 893b
000001d0: 99f3 22bc f03e dcbb 3fb0 eabb 350d c4ba
000001e0: c34a b938 ff29 dcbb 2f38 a23b cb96 513b
000001f0: afc7 213b 36fe bbbb ed6d 1e3b 4c41 36ba

exp_avg f4 [128, 10]
0.004948071 0.00081061356 0.004127926 0.0061748396 0.00082875235 0.0047189123 2.8608497e-07 2.8444255e-08
0.0 0.0 0.0 0.0 0.0 0.0 0.0 0.0
0.0 0.0 0.0 0.0 0.0007150349 0.00011714 0.0005965177 0.0008846319
0.00012046577 0.00068896136 1.16055794e-07 1.1933284e-07 0.0 0.0 0.0 0.0
0.0 0.0 0.0 0.0 0.0 0.0 0.0 0.0
1.78e-43 3e-44 1.49e-43 1.96e-43 3.2e-44 1.82e-43 6e-45 -6e-45
0.0 0.0 0.0024078954 0.0003944714 0.0020087857 0.0029968894 0.00040411032 0.0023034662
1.8674791e-07 1.12172096e-07 0.0 0.0 0.0014235156 0.00023320617 0.0011875671 0.0017714747
0.00023891006 0.001362042 1.1355082e-07 6.8719494e-08 0.0 0.0 0.0 0.0
0.0 0.0 0.0 0.0 0.0 0.0 0.0 0.0
-0.00091579655 -0.0001500296 -0.0007640027 -0.0011393527 -0.00015375101 -0.00087642967 -7.084248e-08 -4.419388e-08
0.0 0.0 -0.0012159429 -0.00019920082 -0.0010144003 -0.0015183983 -0.00020359182 -0.0011586249
-4.7521986e-08 2.0004265e-08 0.0 0.0 0.00027334527 4.4780572e-05 0.00022803816 0.0003441483
4.5497985e-05 0.00025794306 -1.46586965e-08 -4.388271e-08 0.0 0.0 0.0016338553 0.000267665
0.0013630432 0.0020404933 0.0002735101 0.001556796 8.204601e-08 -1.0231401e-08 0.0 0.0
0.0012149747 0.00019904217 0.0010135919 0.0015206479 0.00020308098 0.0011546401 3.4263e-08 -5.448226e-08
0.0 0.0 0.0 0.0 0.0 0.0 0.0 0.0
0.0 0.0 0.0 0.0 0.0025169523 0.00041233757 0.0020997657 0.0031385825
0.0004217907 0.0024025599 1.61133e-07 4.9672348e-08 0.0 0.0 -8.288414e-10 -1.3578416e-10
-6.914601e-10 -1.0325687e-09 -1.3931747e-10 -7.9146817e-10 -2.2099212e-14 -1.2617584e-14 0.0 0.0
0.0 0.0 0.0 0.0 0.0 0.0 0.0 0.0
0.0 0.0 -0.00066152716 -0.00010837415 -0.0005518788 -0.00082937256 -0.0001104528 -0.0006273652
4.2486487e-11 5.477887e-08 0.0 0.0 -0.0043916893 -0.0007194647 -0.0036637646 -0.0054772706
-0.000735875 -0.004191229 -2.7057683e-07 -6.309265e-08 0.0 0.0 1.7120777e-35 2.8047995e-36
1.4283001e-35 2.0029538e-35 4.1425694e-36 1.8120251e-35 -3.3454336e-38 -1.1097316e-38 0.0 0.0
-0.0039963834 -0.0006547043 -0.0033339811 -0.004986722 -0.0006694353 -0.0038116365 -2.2208536e-07 -2.3002356e-08
0.0 0.0 0.0 0.0 0.0 0.0 0.0 0.0
0.0 0.0 0.0 0.0 0.0 0.0 0.0 0.0
0.0 0.0 0.0 0.0 0.0 0.0 0.0 0.0
0.0 0.0 0.0 0.0 0.0 0.0 0.0 0.0
0.002622959 0.00042970397 0.002188202 0.0032659394 0.00044001857 0.0025081178 2.0571277e-07 1.1432722e-07
0.0 0.0 0.0 0.0 0.0 0.0 0.0 0.0
00000000: 6e23 a23b 5b7f 543a 8e43 873b 4f56 ca3b
00000010: a140 593a 1ba1 9a3b 3897 9934 9455 f432
00000020: 0000 0000 0000 0000 0000 0000 0000 0000
00000030: 0000 0000 0000 0000 0000 0000 0000 0000
00000040: 0000 0000 0000 0000 0000 0000 0000 0000
00000050: 2e71 3b3a 0fa9 f538 a05f 1c3a a4e6 673a
00000060: 91a2 fc38 6a9b 343a 593a f933 f621 0034
00000070: 0000 0000 0000 0000 0000 0000 0000 0000
00000080: 0000 0000 0000 0000 0000 0000 0000 0000
00000090: 0000 0000 0000 0000 0000 0000 0000 0000
000000a0: 7f00 0000 1500 0000 6a00 0000 8c00 0000
000000b0: 1700 0000 8200 0000 0400 0000 0400 0080
000000c0: 0000 0000 0000 0000 c8cd 1d3b 0ed1 ce39
000000d0: d5a5 033b 7667 443b c5de d339 c0f5 163b
000000e0: e084 4834 43e3 f033 0000 0000 0000 0000
000000f0: 4295 ba3a ce88 7439 24a8 9b3a d430 e83a
00000100: ee83 7a39 8c86 b23a 39d9 f333 f192 9333
00000110: 0000 0000 0000 0000 0000 0000 0000 0000
00000120: 0000 0000 0000 0000 0000 0000 0000 0000
00000130: 0000 0000 0000 0000 0000 0000 0000 0000
00000140: 1112 70ba 4451 1db9 5a47 48ba 5556 95ba
00000150: 3938 21b9 33c0 65ba 1122 98b3 afcf 3db3
00000160: 0000 0000 0000 0000 4660 9fba 90e0 50b9
00000170: a0f5 84ba fe04 c7ba 437b 55b9 00dd 97ba
00000180: fa1a 4cb3 d8d5 ab32 0000 0000 0000 0000
00000190: c84f 8f39 c6d2 3b38 871d 6f39 ce6e b439
000001a0: 17d5 3e38 883c 8739 a1d5 7bb2 8d79 3cb3
000001b0: 0000 0000 0000 0000 1627 d63a 6355 8c39
000001c0: 24a8 b23a ccb9 053b e765 8f39 680d cc3a
000001d0: 4531 b033 2dc6 2fb2 0000 0000 0000 0000
000001e0: c93f 9f3a fab5 5039 80da 843a 7a50 c73a
000001f0: 23f2 5439 4b57 973a 9128 1333 e1ff 69b3
00000200: 0000 0000 0000 0000 0000 0000 0000 0000
00000210: 0000 0000 0000 0000 0000 0000 0000 0000
00000220: 0000 0000 0000 0000 0000 0000 0000 0000
00000230: 74f3 243b 032f d839 399c 093b adb0 4d3b
00000240: ca23 dd39 4474 1d3b e703 2d34 5357 5533
00000250: 0000 0000 0000 0000 87d4 63b0 d84b 15af
00000260: 2e11 3eb0 48ea 8db0 622e 19af 9f8e 59b0
00000270: 500d c7a8 564c 63a8 0000 0000 0000 0000
00000280: 0000 0000 0000 0000 0000 0000 0000 0000
00000290: 0000 0000 0000 0000 0000 0000 0000 0000
000002a0: 0000 0000 0000 0000 566a 2dba ee46 e3b8
000002b0: f6ab 10ba 406a 59ba e5a2 e7b8 c475 24ba
000002c0: 88db 3a2e 0146 6b33 0000 0000 0000 0000
000002d0: 29e8 8fbb 759a 3cba c51b 70bb ad7a b3bb
000002e0: bce7 40ba 9456 89bb cc43 91b4 8d7d 87b3
000002f0: 0000 0000 0000 0000 300f b605 209b 6e04
00000300: 07e2 9705 97fd d405 9634 b004 04b0 c005
00000310: 8a24 3681 cdd6 7880 0000 0000 0000 0000
00000320: 18f4 82bb 76a0 2bba ec7e 5abb a867 a3bb
00000330: 0b7d 2fba a6cc 79bb 5c76 6eb4 b796 c5b2
00000340: 0000 0000 0000 0000 0000 0000 0000 0000
00000350: 0000 0000 0000 0000 0000 0000 0000 0000
00000360: 0000 0000 0000 0000 0000 0000 0000 0000
00000370: 0000 0000 0000 0000 0000 0000 0000 0000
00000380: 0000 0000 0000 0000 0000 0000 0000 0000
00000390: 0000 0000 0000 0000 0000 0000 0000 0000
000003a0: 0000 0000 0000 0000 0000 0000 0000 0000
000003b0: 0000 0000 0000 0000 0000 0000 0000 0000
000003c0: f3e5 2b3b e449 e139 f067 0f3b 5f09 563b
000003d0: 4bb2 e639 3c5f 243b e5e1 5c34 0e84 f533
000003e0: 0000 0000 0000 0000 0000 0000 0000 0000
000003f0: 0000 0000 0000 0000 0000 0000 0000 0000

exp_avg_sq f4 [128, 10]
0.02556076 0.00068630924 0.017787365 0.029706452 0.00075752503 0.02145393 7.6921065e-09 8.2469755e-09
0.0 0.0 0.0 0.0 0.0 0.0 0.0 0.0
0.0 0.0 0.0 0.0 0.010254499 0.00027519863 0.007135216 0.011081592
0.0002809006 0.00795769 8.022793e-09 6.0537633e-09 0.0 0.0 0.0 0.0
0.0 0.0 0.0 0.0 0.0 0.0 0.0 0.0
0.0 0.0 0.0 0.0 0.0 0.0 0.0 0.0
0.0 0.0 0.013211361 0.0003550945 0.009192891 0.013082915 0.0003827036 0.009945376
2.769068e-09 2.817376e-09 0.0 0.0 0.0041183825 0.00011052345 0.0028657129 0.0044117337
0.00011426161 0.003147863 2.8873415e-09 2.0953956e-09 0.0 0.0 0.0 0.0
0.0 0.0 0.0 0.0 0.0 0.0 0.0 0.0
0.00442573 0.00011906276 0.003079129 0.004187934 0.00012343968 0.0029477617 1.4090875e-09 1.2868842e-09
0.0 0.0 0.0070179687 0.00018858662 0.0048831766 0.0076026306 0.00019699476 0.0055543613
4.071074e-09 2.1625286e-09 0.0 0.0 0.0057411813 0.00015609819 0.0039946414 0.005984598
0.00017099813 0.0044308174 2.0336794e-09 2.1154067e-09 0.0 0.0 0.0074816593 0.00020091774
0.0052058054 0.008155792 0.00022454416 0.0059528723 2.035821e-09 2.2248607e-09 0.0 0.0
0.014437869 0.00038746448 0.01004565 0.014880516 0.00040252839 0.010744981 6.883419e-09 2.4795008e-09
0.0 0.0 0.0 0.0 0.0 0.0 0.0 0.0
0.0 0.0 0.0 0.0 0.0036748254 9.860677e-05 0.0025571368 0.0044289525
9.882199e-05 0.002943926 1.8828792e-09 1.905004e-09 0.0 0.0 4.410867e-10 1.2222536e-11
3.06859e-10 4.3159415e-10 9.349621e-12 2.3340269e-10 1.047109e-15 4.6000104e-16 0.0 0.0
0.0 0.0 0.0 0.0 0.0 0.0 0.0 0.0
0.0 0.0 0.015815828 0.00042482172 0.011006032 0.017639177 0.00049226993 0.01383042
5.7702234e-09 4.8949405e-09 0.0 0.0 0.023039443 0.00061905786 0.016032415 0.027527478
0.00069621723 0.01979514 1.3960266e-08 1.7550079e-08 0.0 0.0 0.0 0.0
0.0 0.0 0.0 0.0 0.0 0.0 0.0 0.0
0.013731943 0.00036853223 0.009555791 0.01667789 0.0004063473 0.011782984 6.0694663e-09 7.1172965e-09
0.0 0.0 0.0 0.0 0.0 0.0 0.0 0.0
0.0 0.0 0.0 0.0 0.0 0.0 0.0 0.0
0.0 0.0 0.0 0.0 0.0 0.0 0.0 0.0
0.0 0.0 0.0 0.0 0.0 0.0 0.0 0.0
0.01327085 0.00035618927 0.009234119 0.014272892 0.00038073416 0.010460609 6.0791137e-09 4.318553e-09
0.0 0.0 0.0 0.0 0.0 0.0 0.0 0.0
00000000: cd64 d13c 6fe9 333a cfb6 913c f25a f33c
00000010: a594 463a 27c0 af3c 3e26 0432 95ae 0d32
00000020: 0000 0000 0000 0000 0000 0000 0000 0000
00000030: 0000 0000 0000 0000 0000 0000 0000 0000
00000040: 0000 0000 0000 0000 0000 0000 0000 0000
00000050: 7c02 283c 8948 9039 88ce e93b 918f 353c
00000060: d745 9339 f960 023c 9ed4 0932 7701 d031
00000070: 0000 0000 0000 0000 0000 0000 0000 0000
00000080: 0000 0000 0000 0000 0000 0000 0000 0000
00000090: 0000 0000 0000 0000 0000 0000 0000 0000
000000a0: 0000 0000 0000 0000 0000 0000 0000 0000
000000b0: 0000 0000 0000 0000 0000 0000 0000 0000
000000c0: 0000 0000 0000 0000 7774 583c fa2b ba39
000000d0: c89d 163c b959 563c 9ca5 c839 eef1 223c
000000e0: f649 3e31 ce9b 4131 0000 0000 0000 0000
000000f0: 7ff3 863b d3c8 e738 afce 3b3b 4e90 903b
00000100: bc9f ef38 614c 4e3b a66a 4631 97fe 0f31
00000110: 0000 0000 0000 0000 0000 0000 0000 0000
00000120: 0000 0000 0000 0000 0000 0000 0000 0000
00000130: 0000 0000 0000 0000 0000 0000 0000 0000
00000140: b705 913b 55b1 f938 36cb 493b f03a 893b
00000150: 966f 0139 3c2f 413b dca9 c130 36de b030
00000160: 0000 0000 0000 0000 fdf6 e53b 56bf 4539
00000170: 0e03 a03b 7d1f f93b 6190 4e39 5c01 b63b
00000180: 8ce1 8b31 9b9b 1431 0000 0000 0000 0000
00000190: 8520 bc3b 4aae 2339 7be5 823b 721a c43b
000001a0: f64d 3339 6430 913b dec0 0b31 a15e 1131
000001b0: 0000 0000 0000 0000 b528 f53b 72ad 5239
000001c0: 7695 aa3b df9f 053c 9d73 6b39 5010 c33b
000001d0: 8be6 0b31 2ae4 1831 0000 0000 0000 0000
000001e0: d08c 6c3c 9a24 cb39 8396 243c 68cd 733c
000001f0: 720a d339 b70b 303c 3283 ec31 d763 2a31
00000200: 0000 0000 0000 0000 0000 0000 0000 0000
00000210: 0000 0000 0000 0000 0000 0000 0000 0000
00000220: 0000 0000 0000 0000 0000 0000 0000 0000
00000230: 57d5 703b 1bcb ce38 a395 273b bf20 913b
00000240: a73e cf38 e2ee 403b f663 0131 2fe9 0231
00000250: 0000 0000 0000 0000 6f7d f22f 6905 572d
00000260: 91b2 a82f 7a45 ed2f f37a 242d 8250 802f
00000270: 81e7 9626 1696 0426 0000 0000 0000 0000
00000280: 0000 0000 0000 0000 0000 0000 0000 0000
00000290: 0000 0000 0000 0000 0000 0000 0000 0000
000002a0: 0000 0000 0000 0000 3290 813c 9bba de39
000002b0: a552 343c 0980 903c ad0b 013a fc98 623c
000002c0: 6c43 c631 5a30 a831 0000 0000 0000 0000
000002d0: 37bd bc3c 4548 223a 6956 833c 4e81 e13c
000002e0: 5982 363a 6b29 a23c e6d5 6f32 08c1 9632
000002f0: 0000 0000 0000 0000 0000 0000 0000 0000
00000300: 0000 0000 0000 0000 0000 0000 0000 0000
00000310: 0000 0000 0000 0000 0000 0000 0000 0000
00000320: f2fb 603c 8f37 c139 e48f 1c3c 12a0 883c
00000330: 030b d539 6b0d 413c 978b d031 678c f431
00000340: 0000 0000 0000 0000 0000 0000 0000 0000
00000350: 0000 0000 0000 0000 0000 0000 0000 0000
00000360: 0000 0000 0000 0000 0000 0000 0000 0000
00000370: 0000 0000 0000 0000 0000 0000 0000 0000
00000380: 0000 0000 0000 0000 0000 0000 0000 0000
00000390: 0000 0000 0000 0000 0000 0000 0000 0000
000003a0: 0000 0000 0000 0000 0000 0000 0000 0000
000003b0: 0000 0000 0000 0000 0000 0000 0000 0000
000003c0: fb6d 593c eabe ba39 b44a 173c d9d8 693c
000003d0: 469d c739 f962 2b3c 73e0 d031 6562 9431
000003e0: 0000 0000 0000 0000 0000 0000 0000 0000
000003f0: 0000 0000 0000 0000 0000 0000 0000 0000
