Assets/results/VikramRover24-ppo/VikramRover/VikramRover-6212.onnx (onnx, 147290 bytes, 10 tensors)

network_body._body_endoder.seq_layers.0.weight f4 [128, 10]
00000000: 1f8d e3bd fc9e d03e 09e4 33be 26e7 283e
00000010: 10bb c53e 6b4c 5b3d d6f3 f4be 3c71 b6be
00000020: 8e99 653d 6164 e3be 25e7 413f 147a 4bbe
00000030: 79a9 babe 4b33 a7be 9b0a 08be 9a0e e7be
00000040: 7def a8bd 810c febe 4e8c 873d e82c d33d
00000050: 9d42 73bd b071 6e3d 0530 cc3c f108 2dbf
00000060: e643 c13d 3585 ca3e af9a e63d 5379 223f
00000070: ddac b5bd 7a93 ecbe b9b2 b43d 4114 b4bd
00000080: 99ac bebe a999 b53e 59a3 993e 64ec bfbc
00000090: 26cc a8be 6b2d f1bd d21c 593f 6fa2 e33e
000000a0: f435 b43e d886 85be 53a5 3ebe 9a27 343e
000000b0: 46c2 0c3f 9473 c63d 8cd4 4cbe 1238 c1be
000000c0: e90e 513e 8d5f a63e 3998 3abe a636 fbbe
000000d0: 3ba2 15be eaa6 fd3d 0f16 8f3e 27a6 27bf
000000e0: e42f 0cbe 18e3 4dbe 4a7f bb3e 50b4 c4bd
000000f0: d4d4 823e ee23 14bd ead8 06be b0f4 6c3e
00000100: 2c15 133f fc84 ca3e b284 3fbe 646a 0cbe
00000110: 7374 b43e 678b 8ebe 19f3 643d bb23 993e
00000120: ddb0 343e 3deb cbbe 87c9 1abc 102d 983d
00000130: ece2 883c d452 bdbd 08df fd3e db93 84be
00000140: 5f4c b6be e958 293f 6571 55be e206 0cbd
00000150: dfbc 003f 60cd b53e 52bc 86be 8d13 8fbe
00000160: 8fe4 41bf b66f e9be 9887 25be 5df2 0dbd
00000170: d0f7 a03e bc38 9f3d b7b4 47be 539f 263d
00000180: 1660 cebe 5946 55be c5c5 3cbd a06e a53e
00000190: ea51 f0be eb9f 903d e4f4 933e 3b03 9abf
000001a0: 0427 c23e 5fb0 d93e 5580 033f fca5 cdbe
000001b0: 8b53 18bf 8dd2 7f3d 3e6b 57bf 80eb c13d
000001c0: d60d 273f 4e58 c1be 8a4e 25be 6b76 41bf
000001d0: 4ee0 f3be ae96 a4be 0da9 76be ec22 acbe
000001e0: b830 d3be 47f9 04bf 9405 0bbe 2330 01be
000001f0: 786d 093f 8578 de3d d6fd 90be 2722 bfbe
00000200: 724f a23e 170d 163e c2ed 47bd ba40 c8be
00000210: b51d 953e 27c9 0a3e f435 50bf 662e 223e
00000220: c7f5 8f3e a36c 063e 71bc cf3c bf7a 83be
00000230: 7105 8d3e 5af1 153e 5d1a a53e 1db6 d3bd
00000240: 90bb 423e 8540 c8bd 27b2 debe f47c c53d
00000250: babb ae3e 6dc6 f0be dcda 37bf 37bb 343c
00000260: d597 a33e 3c87 a63c 3e1b 91be 5e99 82bd
00000270: 3959 a4be 8524 a5be 95d6 4d3e 74c0 0bbf
00000280: 9288 3cbd cf48 b73e 3f6a 80bd 159a 84be
00000290: 4d02 3cbe 3c3c 403c 6ff2 e2be da21 24bf
000002a0: c590 29bf 3239 40be d4ae 4ebe 43ef 2dbe
000002b0: 8f07 c63d 441c 0ebe 623e bcbe 30c7 0e3e
000002c0: 3977 52be 0364 fa3d 6217 8d3e 1de2 adbd
000002d0: 62ed 213f 9945 98be 7520 df3e a3ec b4bd
000002e0: e841 bd3d 4dbc 31be 180b 2f3d 471e e0be
000002f0: 2d03 1abc 8ccd d23e 99ee 193f 6bf9 74be
00000300: 1c5f d43d 0f84 70be ef85 0f3e 25fd 8d3c
00000310: 7e34 2dbf 6b6e f2be 3c97 303f 44db 543c
00000320: dbe4 ddbe e109 933e ec04 883e d9c0 843e
00000330: 0e52 a83d 3ee5 2d3e 7892 033e 5ae6 01be
00000340: ced6 7abe c190 12bf 8858 08bf 288c 48bf
00000350: 0905 98be 2944 69be a4e3 b63e 9318 4dbe
00000360: db55 113f 7779 ff3e a900 2cbe f533 b0bd
00000370: 92d4 e9bb bdca 5abe aabe c4be 9c5d aa3c
00000380: 561f 97be 2a7f 883d 2003 17bf 1a73 78be
00000390: eb8c 91be 9d68 6cbd 4e7b 843e a85f b2be
000003a0: 79b1 513e 6af4 d53d 83de 06bd 934c 1fbe
000003b0: e2dc ec3e 06ee 07be da8d 90be 97ea b83e
000003c0: 2af3 b6be 2032 a9bc 7809 d7be 882c af3e
000003d0: 8830 acbe e141 4e3e c6c3 283e fab5 07bf
000003e0: 6d83 31bf 63ec 593d 0b91 7e3e 7bf2 07be
000003f0: 0c98 74be 6dc5 0ebf 9e7a 03bf 82c2 1e3e
-0.11110901 0.40746295 -0.17567457 0.16494426 0.3861928 0.053539675 -0.47842282 -0.35633266
0.056054644 -0.4441252 0.75743324 -0.19870788 -0.36457422 -0.3265632 -0.13285296 -0.45128328
-0.08248804 -0.49618915 0.06618558 0.103112996 -0.0593897 0.05821389 0.024925241 -0.6759177
0.09436779 0.39554754 0.11259972 0.63466376 -0.08870862 -0.46206266 0.08823151 -0.087929256
-0.37241057 0.35468796 0.30007437 -0.02342815 -0.32968253 -0.11776241 0.848096 0.44459864
0.35197413 -0.2607944 -0.18617754 0.17593232 0.5498394 0.096900135 -0.20002955 -0.3773809
0.20415844 0.32494774 -0.18222131 -0.4906513 -0.14612667 0.12385352 0.27946517 -0.65487903
-0.13690144 -0.2010616 0.3662055 -0.096047044 0.25553 -0.036167078 -0.13168684 0.23140216
0.5745418 0.39554584 -0.18702963 -0.1371246 0.35245094 -0.2784073 0.0558959 0.29910073
0.17645593 -0.3982791 -0.009447462 0.0743047 0.016709767 -0.09244314 0.49584222 -0.25894055
-0.35605142 0.6615129 -0.20844038 -0.03418625 0.50288194 0.3550825 -0.26315552 -0.27944604
-0.7573938 -0.4559304 -0.16165006 -0.034654964 0.31439066 0.07774493 -0.19502531 0.040679287
-0.40307683 -0.20827617 -0.046087045 0.32310963 -0.46937495 0.07061752 0.28897774 -1.2032236
0.37920392 0.42517373 0.51367694 -0.401657 -0.59502476 0.062456656 -0.84148014 0.09468746
0.65255487 -0.37762684 -0.16143242 -0.75571316 -0.47632068 -0.3214621 -0.24087925 -0.33620393
-0.41248107 -0.5194287 -0.13576347 -0.12616019 0.5368266 0.10862831 -0.2831866 -0.37330744
0.31701237 0.14653431 -0.048810728 -0.39111882 0.29124227 0.13553296 -0.81332326 0.15838012
0.281172 0.13127379 0.02535841 -0.25679585 0.27543214 0.1464285 0.32246676 -0.1033747
0.19016862 -0.09777931 -0.43495294 0.096429735 0.341276 -0.47026387 -0.7181833 0.011030964
0.31951776 0.020328157 -0.28341097 -0.06376909 -0.3209932 -0.32254425 0.20101388 -0.54590535
-0.04602868 0.35797736 -0.06270265 -0.25898805 -0.18360253 0.011733111 -0.44325587 -0.64114153
-0.66236526 -0.18771818 -0.20183879 -0.16985802 0.096694104 -0.1387797 -0.36766344 0.13943172
-0.20553292 0.12226107 0.27556902 -0.08490393 0.6325284 -0.297406 0.4357945 -0.08834197
0.09241086 -0.17356987 0.04273519 -0.437731 -0.009400171 0.41172445 0.60129696 -0.2392327
0.10369703 -0.23487876 0.14015935 0.017332623 -0.6765822 -0.47349867 0.68980765 0.01299173
-0.43338665 0.28718475 0.26566255 0.2592838 0.08218776 0.1698198 0.12848842 -0.12685528
-0.24496004 -0.57252127 -0.5326009 -0.7833886 -0.29691342 -0.22779907 0.3572055 -0.20028906
0.5677163 0.49897358 -0.16797127 -0.0860366 -0.007135936 -0.21366401 -0.38426715 0.02079659
-0.29516095 0.066648796 -0.58989143 -0.24262658 -0.28427824 -0.057716954 0.25875324 -0.34838605
0.20477857 0.10447009 -0.032927047 -0.15556554 0.4626227 -0.13274392 -0.28233224 0.36116478
-0.35732394 -0.020653784 -0.41999412 0.34213662 -0.33630776 0.20142318 0.16480932 -0.5301205
-0.69341165 0.05320395 0.24860017 -0.13276093 -0.23886126 -0.5577 -0.51358974 0.15503886

network_body._body_endoder.seq_layers.0.bias f4 [128]
00000000: 2c6b 82bb b75b a7bc 5824 8d9b 774e 82b9
00000010: 54d5 21bc 3335 d9af 05b9 fbbb 8cc1 b0bb
00000020: d3a3 7d3c be44 bb3a 0000 0000 0000 0000
00000030: 0000 0000 b980 9fb8 910c 483b 0000 0000
00000040: 5fc1 0891 0000 0000 5997 d638 38b9 3b3a
00000050: 92de dc3b 0000 0000 41db 0ab1 350e e03a
00000060: 60b5 7cba 0000 0000 6deb 07ba 71d3 233c
00000070: 856d b5bb d4f4 00bc 30bd 7b98 06c9 0c3b
00000080: cbac 06bb 0000 0000 b71d f0bb 0000 0000
00000090: 0000 0000 8fd3 d9bc 4364 bcbb 496b daba
000000a0: 33bb 7e99 0000 0000 ff9e 613b ddd4 6abb
000000b0: 16ed 35bc d63f 16bc 6134 84bc efba 6e3b
000000c0: 16b0 13ba 1d66 9aba 50a2 9bbc 0000 0000
000000d0: 881e c0ba 0000 0000 0dd3 cabb 4fa0 343b
000000e0: dd49 1dbc 7c0f 793b 5369 e507 80da 1d96
000000f0: 0000 0000 0000 0000 dc95 33bc 8888 f2bb
00000100: be2b 9b3b 0fb6 0bbc 2d27 27bb 0000 0000
00000110: 58ab b0bb 0000 0000 38a1 30b7 0000 0000
00000120: ec0b 66bb 247b e1bb 0000 0000 baf8 b5ba
00000130: fd99 a8bb 0000 0000 475a 42bb 5206 38bb
00000140: dfb5 813c 806e 65bc 9e54 1e3b a06d 63bb
00000150: 0d18 4bbc f699 9bbb 75bb ae3b 0edf e3bc
00000160: 0000 0000 0000 0000 f831 febc 0c5d 51bc
00000170: 69ad aaba 0000 0000 84e5 95ba 9150 8fbc
00000180: 1e64 abbb e618 4d3a 0000 0000 0000 0000
00000190: 0000 0000 8910 a7bc c939 9a91 079d 9325
000001a0: 8eec c0ba a82b 0c3a 401a 6c3b e946 4bbb
000001b0: 1b41 68bc 1337 7bbc ac86 343c e2b3 16bc
000001c0: 94e5 d436 0000 0000 2861 92bb ea7e e8bb
000001d0: 286e 93ba 41d4 a7bc c809 6ab8 6a56 95bb
000001e0: 0000 0000 ce2e b53a 8c65 98bc cf06 92a3
000001f0: 1cf1 08bc 90e4 c03a 0000 0000 0000 0000
-0.003980061 -0.020429475 -2.334998e-22 -0.00024853993 -0.009877522 -3.950987e-10 -0.007681968 -0.0053941663
0.015480953 0.0014287455 0.0 0.0 0.0 -7.605687e-05 0.0030525068 0.0
-1.0788095e-28 0.0 0.00010232506 0.00071610836 0.0067403996 0.0 -2.0206274e-09 0.0017094078
-0.0009640064 0.0 -0.00051849225 0.009999142 -0.0055367374 -0.007870872 -3.2536505e-24 0.0021482124
-0.002054977 0.0 -0.007327761 0.0 0.0 -0.026590137 -0.005749257 -0.0016664054
-1.3169297e-23 0.0 0.0034427044 -0.0035832443 -0.011103889 -0.009170493 -0.016138257 0.003642734
-0.0005633844 -0.00117797 -0.018998295 0.0 -0.0014657537 0.0 -0.00618971 0.0027561372
-0.00960013 0.0038003614 3.4517994e-34 -1.2751305e-25 0.0 0.0 -0.010961022 -0.0074015297
0.004735439 -0.008527293 -0.0025505528 0.0 -0.0053915195 0.0 -1.0527954e-05 0.0
-0.003510232 -0.0068811346 0.0 -0.001388333 -0.00514531 0.0 -0.002965586 -0.002807994
0.015833793 -0.014003396 0.0024159322 -0.0034702793 -0.012395871 -0.004748578 0.005332405 -0.027816322
0.0 0.0 -0.031029686 -0.012778532 -0.0013021651 0.0 -0.0011436199 -0.017494472
-0.0052304408 0.00078238396 0.0 0.0 0.0 -0.020393627 -2.4332529e-28 2.560684e-16
-0.0014718936 0.00053470815 0.0036026388 -0.0031017608 -0.014175679 -0.015332955 0.011018436 -0.009198161
6.3448188e-06 0.0 -0.0044671483 -0.0070952075 -0.0011248039 -0.020486953 -5.5799057e-05 -0.0045574205
0.0 0.0013823153 -0.018603109 -1.5832235e-17 -0.008358266 0.0014716554 0.0 0.0

network_body._body_endoder.seq_layers.2.weight f4 [128, 128]
00000000: 77e8 883c b935 843d de3a 9ebd 0804 e03b
00000010: 0df5 143e f7a3 61bd 4c21 253c 27e9 803d
00000020: aa90 993c 5356 5bbd 995a 17bc 3592 42bd
00000030: 1f45 e2bb 606d 53be 86a1 203d de6a a53d
00000040: 80eb 9fbd 6bbf 1abe c6cc f2bb e033 2abd
00000050: 4df7 153e 4f23 323d 1f19 7ebd 04bc 1a3d
00000060: a8fc 613d 555b ab3c 081a 2b3d 91cd 833c
00000070: 8694 fbbd 0ee7 793d c41c 503c 2c22 41bd
00000080: 4185 33bd b703 433d 5998 e3bd a951 5ebd
00000090: 51bc 70bd 3333 5dbc 2b3b 843d d06a f23d
000000a0: ec88 333d a565 00bd 423c 6cbd 8edd d2bd
000000b0: db69 0dbd 4bc4 a83c a848 0a3e 2f3a 113c
000000c0: 29e6 bebb d750 f2bc 207d 61bc 5029 ac3d
000000d0: 47f5 20bd faaa 3f3d 2d13 a43d 1381 34bd
000000e0: 037c 41bc af43 033e 7777 c2bd ab17 1ebe
000000f0: 2139 25bd e8c7 193c 21aa 8fbd 37ea 1d3e
00000100: ee2c b2bd 38ac e83d b3c6 e3bd cea0 463e
00000110: e23e 213d 5d25 693d 25a3 52bd fbe9 46bd
00000120: 0ff3 31be 7ad9 33bd 7402 02be 0fe6 ec3c
00000130: 9e45 763d 78e6 e8bc 290c de3d e692 1c3e
00000140: 15b1 903d ddca 04bd 164e a7bd aac3 6fbd
00000150: ca1e 0dbd ae3b dd3d c70d f3bd f26f eebc
00000160: 1a62 40bb ccf0 4c3d 2480 573a aa61 a23e
00000170: 7ad5 673d 6753 903d 9703 643e 662d 6d3d
00000180: a1a4 393d e855 a7bd 3c15 62bd 71f3 1cbd
00000190: 80e0 adbd ecbf ccbd ec93 efbc d8f6 9c3d
000001a0: 30ed 07be 1b58 9abc c700 86bd 7c30 a33d
000001b0: 563d ef3d 0ce6 acbd 252c dc3d 48f1 f7bb
000001c0: ac1d 00bd bdd4 803c f09c 9dbd ceef d73d
000001d0: 22f9 1a3d 4b0f b63c 7f5d 8dbe 0322 893c
000001e0: 0b0d fabd 186a 353d eb47 3a3e abc3 eb3c
000001f0: 9c07 6bbd ee8c 3f3e 9ffb fabb 174f c4bd
00000200: 9d80 52bc 8db7 cf3d 6063 1bbe 4aa4 fc3d
00000210: 1eb1 bc3b baf3 61bc e361 853d 3a82 d83d
00000220: 3d55 763d 9c7c 57be 0479 18be 5072 8bbc
00000230: fe1f f43d c8bd df3d ff33 a5b8 d557 883d
00000240: 4ad3 a83c 5017 393e 1a53 13bd bf5a 47bd
00000250: 24e8 3a3d 8f92 23bd 964f d33d 7ebc b1bb
00000260: c5c0 2b3e b8ea 343d 24bc 9c3d b4fa f2bd
00000270: 48cf 263d 9f33 c9ba 9a5e 6bbd 9c2b 9f3d
00000280: 327b 783d 7b9d d0bc 1193 ac3d f79e df3d
00000290: 0fc7 76bd 7335 18be e257 6a3e 40e3 25be
000002a0: f640 36bb 4428 343d de58 3f3d 309c a6bd
000002b0: e270 1e3e ae61 adbd 389f 8a3d 5b3d c63c
000002c0: e10c 33bb 3c63 a23c 6ab9 bdbc 84ec e03c
000002d0: 3383 b33d 0647 293c 4275 f73d 1596 283e
000002e0: 7571 203d b058 013d 8a54 3dbe 8d73 103d
000002f0: fa6e d0bc 2883 ab3d 9376 1bbd 0ab9 02be
00000300: f36f c43d bc4c fbbd 7898 86bd cf37 063e
00000310: 0c74 ca3d 2f64 16bd f740 4dbd be8e 053e
00000320: 5b8f edbd d118 94bd 85b8 313d b632 86bd
00000330: 1c89 2d3d 0472 873d 4476 7abd 028c bbbc
00000340: 8f33 aebc e49d a13d 1716 73bd 3720 9c3d
00000350: f1e9 5dbd 92a6 3ebe 90ec af3d 3b2e 1f3c
00000360: 9896 b3bd c9b8 c8ba 6eaf fcbc 028e 4dbd
00000370: 203a d8bc e637 e03d 6463 7e3d 97e5 383d
00000380: 8c15 3bbc 6306 e83d ff4f f53d baa1 96bd
00000390: 2482 d83d 03b4 693d cda5 0a3e 4b6c 94bd
000003a0: 3046 aebd 6a77 14be 392d 4dbd 4ecc 553c
000003b0: de16 05be c52a fbbc b68d 3dbd 4a72 0e3d
000003c0: 528d 543d 59f4 44bd f069 aabd c1ae 29bd
000003d0: 5c7e 123d be60 11be ce3c 9cbd 1396 713d
000003e0: ce76 803d 61da 47bd b328 623d 47e0 6bbc
000003f0: 8602 323d ff76 b0bd bd3e 92bc d61a d6ba
0.01671241 0.06455559 -0.07726072 0.006836418 0.14546604 -0.05508801 0.010078739 0.0629447
0.018745739 -0.053549122 -0.009237909 -0.047502715 -0.0069052125 -0.20647192 0.03921654 0.08077024
-0.0780859 -0.15112083 -0.007409665 -0.041553378 0.14645119 0.043490704 -0.062035676 0.037776962
0.055172592 0.020917574 0.041772872 0.016089233 -0.12284188 0.061011367 0.012702171 -0.04715173
-0.043828253 0.047610965 -0.111130424 -0.054277096 -0.058773343 -0.013500976 0.06456598 0.11836779
0.04383175 -0.031346936 -0.057674654 -0.102961645 -0.03452478 0.020601412 0.13504279 0.00886397
-0.005825777 -0.029579563 -0.013762742 0.08406317 -0.039296415 0.046793915 0.0801147 -0.044068407
-0.011809352 0.12818788 -0.09495442 -0.15438716 -0.040337685 0.00938604 -0.070148714 0.15421377
-0.08699976 0.11360973 -0.11121883 0.1939728 0.03936661 0.056920398 -0.051425118 -0.048562985
-0.17377876 -0.043908574 -0.12696248 0.028918294 0.060124986 -0.028430209 0.10842163 0.15290412
0.07065026 -0.032420028 -0.081691906 -0.05853621 -0.03445319 0.108023986 -0.11867862 -0.029106114
-0.0029355348 0.05003433 0.00082206936 0.31715137 0.05660007 0.07047158 0.22266994 0.057904623
0.045323018 -0.08170682 -0.055196032 -0.0383181 -0.084900856 -0.09997544 -0.02924534 0.07664269
-0.13274074 -0.01884084 -0.06543117 0.07968232 0.11681621 -0.084423155 0.107506074 -0.0075666048
-0.031278297 0.015726442 -0.07695949 0.10543786 0.037835248 0.02222409 -0.27610394 0.01673985
-0.12209519 0.044290632 0.18191497 0.028779825 -0.057380304 0.18706104 -0.00765939 -0.09585398
-0.012848047 0.101424314 -0.15174627 0.12336023 0.0057584187 -0.013791019 0.06512811 0.10571714
0.060139883 -0.21043628 -0.14889914 -0.017022282 0.119201645 0.1092487 -7.877498e-05 0.06657378
0.020608563 0.180753 -0.035967924 -0.048670527 0.045631543 -0.03993469 0.10317914 -0.0054240813
0.16772754 0.044169158 0.076530725 -0.11864224 0.040725023 -0.0015350467 -0.057463266 0.0777199
0.060664363 -0.025465718 0.08426488 0.10918992 -0.06024843 -0.1486414 0.22885087 -0.1619997
-0.0027809716 0.043983713 0.04671561 -0.08135259 0.15472749 -0.084658965 0.0676865 0.024199178
-0.002732091 0.01982271 -0.023159701 0.02745653 0.08765259 0.010331875 0.12082912 0.16463502
0.0391707 0.03157872 -0.1848928 0.035266448 -0.025443543 0.083746254 -0.037954878 -0.127659
0.09591665 -0.12270495 -0.0657205 0.13107227 0.098854154 -0.036716636 -0.050110783 0.13042733
-0.115996085 -0.07231296 0.043388862 -0.06552641 0.042367086 0.06613544 -0.061147943 -0.02289391
-0.02126482 0.07891443 -0.05934724 0.07623332 -0.054178182 -0.18618229 0.085900426 0.009715612
-0.08768958 -0.0015313859 -0.03084537 -0.050184257 -0.026394904 0.10948162 0.062106505 0.04514083
-0.011418711 0.11329343 0.11978149 -0.07355066 0.10571697 0.05705644 0.1353981 -0.07247218
-0.08509481 -0.14498678 -0.050091956 0.013049198 -0.12997004 -0.030660043 -0.046277724 0.034776963
0.051892586 -0.04808459 -0.08320987 -0.041426424 0.035765037 -0.1419706 -0.07628785 0.058981013
0.0627266 -0.048792247 0.055214595 -0.014396734 0.043459438 -0.08616447 -0.017852182 -0.0016334902

network_body._body_endoder.seq_layers.2.bias f4 [128]
00000000: 7a05 aabb 636c 09bb 45f5 c0bb 6baf 353b
00000010: ca0d b2ba c096 c6bb b605 763b 0000 0000
00000020: dfac 013b 042f a4ba 3cdf 0fbc 7ed8 65bc
00000030: ff88 e4b8 b802 d0b9 eb06 15bb 0000 0000
00000040: f043 04bc d550 a3ba 3831 a8b6 d50e 82bb
00000050: b461 26bc 0000 0000 f2b6 113b 3cc0 07bb
00000060: 5bf8 5fbc d9f8 5ebb 0000 0000 0000 0000
00000070: 179b 45bb 7fa5 fd3b f920 ddbb 20e7 5019
00000080: 1fc6 debb f1f7 d5bb 0000 0000 459e d0bb
00000090: 608a 4fb5 60a4 28bc accb 4f27 db78 e29a
000000a0: fba5 573a 0000 0000 bab1 d7ba d295 babb
000000b0: ee9b 74ba 06b3 00bb 0000 0000 ed4f 3a3b
000000c0: 7655 123a 4def eebb f5d4 3cbc 281a 21b0
000000d0: 93fd 06ba 0000 0000 0000 0000 0000 0000
000000e0: cd94 5bbb af81 1a3a 16a0 ceb9 0251 3d3a
000000f0: 57f6 9f3a 0000 0000 5c44 4fbb d2dc 2722
00000100: 6ebb 74ba 7331 8abb d0f7 cebb 01b5 d08f
00000110: b283 c6bb 90a9 d0bb 43ab 20bb ef52 9e13
00000120: 0617 720a 108e 683a c7f9 02bc 20c8 dbbb
00000130: 7391 b4bb 6fdb 58aa 6d8a bcbb 36f7 1c3b
00000140: 75b4 d1ba b590 83bb 635a bebb 0000 0000
00000150: 0000 0000 6532 b3ba 0000 0000 0000 0000
00000160: 4286 a4ba b207 87b5 1746 bfa1 c38d 1ebc
00000170: 2bf6 1c3b f291 abb9 19eb cda0 710e cbbb
00000180: 8474 bebb e635 15bc a765 91bb 7a28 1028
00000190: 6810 d7bb 8ffd 25bc 0000 0000 5dd1 ebbb
000001a0: d891 ad04 e4b4 613b 2137 94bb 1c28 12bb
000001b0: 7015 a2ba 8451 26bc 0000 0000 71d8 9eba
000001c0: e0f1 8bba ca9d a4bc 1132 30ba 0000 0000
000001d0: 0000 0000 1d77 d03a 0000 0000 0226 bfbb
000001e0: 2428 00bb 0000 0000 9469 ef28 225c efbb
000001f0: 5dfe 603a 0000 0000 f91e f29d 5864 913b
-0.005188641 -0.0020969145 -0.0058886134 0.0027722965 -0.0013584432 -0.0060604513 0.0037540025 0.0
0.0019786877 -0.0012526219 -0.008781251 -0.014028667 -0.00010897405 -0.00039674877 -0.002273972 0.0
-0.008072838 -0.0012460003 -5.01252e-06 -0.0039690533 -0.01015513 0.0 0.0022234288 -0.0020713946
-0.013670052 -0.0034022836 0.0 0.0 -0.0030152255 0.007740676 -0.0067483154 1.0800023e-23
-0.00679852 -0.006529801 0.0 -0.0063665234 -7.731487e-07 -0.010293096 2.8837432e-15 -9.366666e-23
0.0008226332 0.0 -0.0016456165 -0.0056941295 -0.00093310967 -0.0019637956 0.0 0.0028428987
0.00055821927 -0.0072917105 -0.011525382 -5.860863e-10 -0.000514948 0.0 0.0 0.0
-0.003350544 0.0005893958 -0.00039410655 0.0007221849 0.0012204152 0.0 -0.0031626439 2.2749622e-18
-0.00093357905 -0.0042173206 -0.0063161626 -2.0580104e-29 -0.00605818 -0.0063678697 -0.0024516142 3.9966586e-27
1.16562064e-32 0.00088712666 -0.007994122 -0.0067072064 -0.005510503 -1.9260785e-13 -0.0057538063 0.002395106
-0.0015999215 -0.004015053 -0.005809115 0.0 0.0 -0.0013671635 0.0 0.0
-0.0012552219 -1.0060523e-06 -1.2961216e-18 -0.009677353 0.0023950438 -0.000327244 -3.4883925e-19 -0.00619679
-0.0058122296 -0.009107089 -0.0044371667 8.002383e-15 -0.006563235 -0.010131254 0.0 -0.007196589
4.080604e-36 0.0034440095 -0.0045231734 -0.002230174 -0.0012366008 -0.010151271 0.0 -0.0012118948
-0.0010676943 -0.020094771 -0.00067213277 0.0 0.0 0.0015904639 0.0 -0.0058333883
-0.0019555176 0.0 2.6580118e-14 -0.0073046843 0.0008582825 0.0 -6.408889e-21 0.0044370107

network_body._body_endoder.seq_layers.4.weight f4 [128, 128]
00000000: 2639 e83d 3acd 82bd 83ea 60bb 204a f2bd
00000010: 0dc2 d33d 6bd5 593d e619 b5bd 9907 2e3d
00000020: 7c67 b53d f4ac f63d 3332 dabd c231 8c3c
00000030: 609b a03c be0f 06bc 0a70 b9bd 6b6c 6bbd
00000040: 3f37 263d 351f 833d c413 413d d59a 4a3d
00000050: e1d8 7dbd a75e 9a3d d75b ff3d 6d10 53bd
00000060: 785b c23c 84fd 2f3d 9d5e 88bd 88f2 ddbd
00000070: 5f54 23bc d126 13bd 0eb1 133e e89f 50bd
00000080: 07d1 06be e555 cabd a828 e6bc 862e 04bd
00000090: a2c1 ecbd eced edba 254b 2c3d 703d 78bc
000000a0: 40be debd fef0 33bd 1b01 283e e07e 103e
000000b0: 69e5 d8bd d198 d7bd 4b1d 1e3d 9adb 143e
000000c0: 3a78 87bd d66c c83c 7d4a 9a3c ecd1 24bd
000000d0: 6b73 98bd c1b9 e4bd f1fe d43c 1a0b f23d
000000e0: bb9f 0ebe c4d6 e43d d0b9 f7bc 18bb 223e
000000f0: a23d a83d 1a7f 75bd c280 083e 49e2 4c3d
00000100: 71cf eb3d ef2f e3bc 5648 5f3d cf00 09bd
00000110: ebee 8e3d 73c8 f1bc 37e4 a4bd b5ce 1c3e
00000120: aefc f23c e25a 96bb 2404 c5bc 393a 44bd
00000130: 2b54 0fbd 403a 453e bbf9 9e3d 7dc6 713e
00000140: 3790 e9bc ffcb aa3d 9cc5 053e 1f73 533d
00000150: 53c1 d93b 720e e93d 82f3 a0bd 8b5c 623c
00000160: a237 5ebc 23be 023d cf76 5cbd 3f53 563e
00000170: 4bcf a63b 583c 60bd 79ed d4bb 089c 183d
00000180: b59a 113d 3232 11bd bfe0 acbd 1c47 3dbd
00000190: 7dae ab3d f29c 863d c9da 143e 8b62 eb3c
000001a0: 09df b43c 0e8a 82bd c9af 743c 7302 b03c
000001b0: 1a75 313e bedd cabd 990d 1bbe b249 df3b
000001c0: 5bc1 f93d bad7 4bbd feac 70bc 3944 67bd
000001d0: 64de bb3d f5f7 e5bd ed02 573d bb06 013d
000001e0: 3941 acbd ac7f f23c 331e 7d3c 1be7 f53d
000001f0: f948 c73d 1993 9cbd d527 bd3c 53e3 6f3e
00000200: cb31 343d 0d64 f93c bbe9 853d 67ba 54bd
00000210: 48e2 f5bc 1653 34bd 751b 7f3c d867 2d3d
00000220: 0d95 e23d 882e 1fbe 0549 d83d 35fe 01be
00000230: 3c17 9fbd 0064 4e3c 1a56 b73d 424c 97bd
00000240: e368 ecbc 4ba9 ec3d e398 2e3c 27d7 f2bc
00000250: 64cc aebd 6fed bc3c 4ce5 debd c871 0bbd
00000260: 6474 ba3d 8d9a 01bd dcb3 a63d 41d3 f3ba
00000270: 5e8d 2d3d 10f6 273b 7718 a03d 60e7 583d
00000280: 9b0b b8bd 5993 0f3d 7cfd ea3d 59d5 5b3d
00000290: 8bc7 0d3e a0af d7bd b97f 64bd 3038 123d
000002a0: 8e9f 313d ef69 65bd 64d4 9abd 1c1b 01be
000002b0: 46d7 aabd aee5 773d acf1 a53c 4737 91bd
000002c0: fae7 253c aa07 e8bd 2767 22bd 4337 aa3b
000002d0: 83f6 adbd 4037 51be b3db 993d 7eb3 6dbd
000002e0: e7e0 aa3d 3a85 943d 67fc d7bb 76d9 523c
000002f0: 8224 c2bd 9b57 1abe f39c a6bd 58f2 b33b
00000300: d476 77bd e432 adbc 4c3f aa3c 2fc2 c43d
00000310: ba25 98bc d18f 103d 3cc5 133e 9c64 06bc
00000320: 4d83 11be a6ce 203e 9e22 ecbd 8297 253d
00000330: 4ee4 45bd 8632 21be 4aa4 9abb 8ef6 ae3d
00000340: 9a88 85be 373a 5d3d 2040 4ebd 02e7 e33d
00000350: 5097 fabb fc78 07be 61b8 033d b1c4 c73d
00000360: 67ef 40bd 76be 2cbd 5e0d 8fbd 9ad4 2e3d
00000370: 1f3a 0f3d e742 2fbc df1b f13d daa4 6abd
00000380: 90aa 8b3d bdda d9bc c61f 2cbd 5199 29be
00000390: 94c5 11bd 64c9 1bbd 883a 033e e398 0abc
000003a0: 5c11 1dbe 5f86 06bd 76b9 a9bd 8d19 3ebd
000003b0: 9c31 9abd 0876 1cbe e766 0fbe cdc8 f23c
000003c0: 8307 efbd af58 3a3e 4af7 bbbd 4230 c4bc
000003d0: d4d4 343d 215f 1abd 1662 6a3d 60f8 70bc
000003e0: 2bda 2cbe 780f 97bd 1244 793d 9717 263e
000003f0: f4b6 5bbc 9b01 21be 35f7 743d 5f17 03be
0.11339025 -0.063868 -0.0034319467 -0.118305445 0.103397466 0.053182047 -0.0884283 0.042487714
0.08857629 0.12044707 -0.10654106 0.01711357 0.019605339 -0.008182464 -0.09054573 -0.057476442
0.04058003 0.06402437 0.04713799 0.049464066 -0.06197441 0.07537585 0.12468689 -0.051529337
0.023725256 0.04296638 -0.06658671 -0.10837275 -0.009968846 -0.03592569 0.1442301 -0.05093375
-0.13165675 -0.09879664 -0.028095558 -0.03227093 -0.1156037 -0.0018152571 0.04206385 -0.015151367
-0.10876131 -0.043931 0.16406672 0.14110899 -0.105906315 -0.10527194 0.038602155 0.14536896
-0.06614728 0.02446596 0.018834347 -0.04023926 -0.07443889 -0.11168242 0.026000472 0.11818524
-0.1392812 0.11173776 -0.03023997 0.15891683 0.082148805 -0.059935667 0.13330367 0.05002049
0.11514176 -0.027732817 0.054512344 -0.033448037 0.06979164 -0.029514527 -0.08051341 0.15313227
0.029661503 -0.004588471 -0.024049826 -0.047907088 -0.03499238 0.19260502 0.07762476 0.23610874
-0.02851115 0.083396904 0.13063663 0.05162346 0.0066453605 0.11379708 -0.078589454 0.013816009
-0.013563069 0.03191961 -0.053824242 0.20930193 0.005090629 -0.05474505 -0.0064980355 0.037258178
0.03554793 -0.03544826 -0.084413044 -0.046210393 0.083828904 0.06572904 0.14536585 0.028733512
0.022079008 -0.06373988 0.014934489 0.021485543 0.17329827 -0.09905575 -0.15141906 0.006814205
0.12195083 -0.04976628 -0.014689682 -0.056461547 0.09173277 -0.11228935 0.052493025 0.03150056
-0.08410878 0.029601894 0.015449095 0.120069705 0.09730715 -0.07645244 0.023090282 0.23426561
0.0439928 0.030443216 0.06538721 -0.05193558 -0.030015126 -0.04402455 0.015570511 0.04233536
0.110635854 -0.15545094 0.10560802 -0.12694629 -0.077681035 0.012597084 0.089519694 -0.07387592
-0.028858608 0.115557276 0.010656568 -0.029643608 -0.08535078 0.023062436 -0.10883579 -0.034044057
0.09104231 -0.03164153 0.08139774 -0.0018602387 0.042371146 0.0025628842 0.07817166 0.05295503
-0.089865886 0.03505263 0.114741296 0.05367026 0.13845651 -0.10531545 -0.05578587 0.035698116
0.043365054 -0.05600923 -0.075600415 -0.12607998 -0.083418414 0.060521774 0.02025684 -0.070906214
0.010126108 -0.11329587 -0.039649155 0.005194576 -0.08494284 -0.20431232 0.075126074 -0.058032505
0.08343678 0.072519735 -0.006591368 0.01286923 -0.094796196 -0.15072481 -0.081354044 0.005491536
-0.060416058 -0.02114243 0.020782135 0.0960735 -0.018572677 0.035293404 0.14430708 -0.008202698
-0.14210244 0.1570383 -0.1153004 0.040427692 -0.04831343 -0.1574193 -0.004719292 0.0854312
-0.2608078 0.054010596 -0.050354123 0.111280456 -0.0076474324 -0.13229746 0.03215826 0.09754313
-0.047103312 -0.042173825 -0.069849715 0.04268322 0.034967538 -0.010697103 0.11772894 -0.05728612
0.068196416 -0.02659356 -0.04202249 -0.16562392 -0.035588816 -0.038033858 0.12815297 -0.008459303
-0.15338653 -0.03284299 -0.08287327 -0.046411086 -0.075289935 -0.152794 -0.14004098 0.029636765
-0.116713546 0.18197893 -0.09178026 -0.023948792 0.04414828 -0.03768838 0.05722245 -0.014707655
-0.168801 -0.07375997 0.060855933 0.16219936 -0.013410319 -0.15723269 0.059806067 -0.12801884

network_body._body_endoder.seq_layers.4.bias f4 [128]
00000000: bdd6 0a3a 0000 0000 11c7 a0bb 9dfa 343b
00000010: b71a c2bb 0000 0000 be24 1fbb 0000 0000
00000020: 0dd0 d7b5 75c2 ccbb 0000 0000 2d5c adbb
00000030: d2a4 a4bb 7e47 55bc 637e 9c3b 6e9f 4dbb
00000040: 69bc f5bb 670e 913a eb70 07bc 1119 7ebb
00000050: 68bd c3bb dee8 593a b41f 04bb 972b eaba
00000060: fbdc 7fbb 091c d83a d4c9 95bb 8b7d 00bc
00000070: b640 9f3b 67d9 96bb b501 55bc aa83 c4b4
00000080: 693b a3bb 3971 6ebb 0d5a 0bbb 1e3a ab3b
00000090: 638c f59e 1d78 5c3b 3573 81ba 9f52 951c
000000a0: 9a33 3b3a faa8 d63a 0000 0000 02ea 8e87
000000b0: 44e0 27bc c443 cdbb 031f 42bb 202d 9f3c
000000c0: bf77 8cbb 88ee 6239 3271 1dbc 85d7 e239
000000d0: 26de b13b 16e2 e2bb da90 8abb 0000 0000
000000e0: d9cf 88bc 0000 0000 8873 04bc 0000 0000
000000f0: 5a20 370c 4a02 ba3a 835f 683b 1de3 2bbb
00000100: 84d1 14bc 6310 9bbb 1267 00bc 1aa5 993b
00000110: 538e ebba cd7b 19b9 0000 0000 6c85 7db9
00000120: 6573 50bb 82f5 9abb eb6d 36bc e738 ba0b
00000130: 9f44 f9bb 9f9a 5fbc 10e7 d4bb 0000 0000
00000140: 4907 813b d5c8 8fba c1dd f3ba eadc 4bbc
00000150: bd54 ee2d 6514 0f2f 9e9a 0abc f237 e439
00000160: 0228 ccbb ad46 8239 7bf6 303b 014a 32ba
00000170: 833b 5fb7 df64 41bc 150f 02bc 074a 75bb
00000180: fe75 a327 7f51 6fbb 1705 19bc 18fa 803b
00000190: c22c 71bc 0000 0000 b707 8039 5763 a2bb
000001a0: 9fba 2dbb f2ce 47bc 46d6 03bb 2d09 c0bb
000001b0: 54f9 a6bb c064 0cba fbba 91bc a315 a2ba
000001c0: 6f42 14bb 8013 06bb ec2c 5bbc 0000 0000
000001d0: cfcb 0127 5fab 8a3a a5d6 b13b 16f2 01bc
000001e0: 0000 0000 0000 0000 3385 2c3b f1d1 b139
000001f0: bcf0 aa92 47de c7bb e656 2baf 3c1b 11bc
0.0005296281 0.0 -0.004906543 0.0027615197 -0.005923595 0.0 -0.0024283375 0.0
-1.6079299e-06 -0.006248767 0.0 -0.005290529 -0.005024531 -0.013017533 0.0047758087 -0.0031375545
-0.007499267 0.0011066914 -0.008266668 -0.0038772265 -0.0059735067 0.0008312593 -0.0020160498 -0.0017865774
-0.0039041627 0.0016487847 -0.004571179 -0.007842432 0.004860009 -0.004603553 -0.013000895 -3.6603643e-07
-0.0049814475 -0.0036383404 -0.0021263391 0.005225434 -2.5998447e-20 0.003364093 -0.0009876253 9.88135e-22
0.0007141173 0.0016377263 0.0 -2.1503323e-34 -0.01024634 -0.006264182 -0.0029620535 0.019430697
-0.004286736 0.000216419 -0.009609507 0.00043266654 0.0054280935 -0.006923924 -0.0042286934 0.0
-0.016700672 0.0 -0.008084185 0.0 1.4107543e-31 0.0014191356 0.003545732 -0.00262279
-0.009083156 -0.004732178 -0.007837074 0.004688871 -0.0017971493 -0.00014637336 0.0 -0.00024177664
-0.0031807062 -0.004728974 -0.011134605 7.173021e-32 -0.007607057 -0.013647704 -0.0064972714 0.0
0.003937636 -0.0010969887 -0.0018605517 -0.012442807 2.7095099e-11 1.301302e-10 -0.008459715 0.0004352923
-0.0062303552 0.0002484819 0.0027002383 -0.00068011886 -1.3305692e-05 -0.011803835 -0.007938166 -0.0037428157
4.5369516e-15 -0.0036517081 -0.009339592 0.0039360635 -0.014720144 0.0 0.0002441981 -0.00495569
-0.002650894 -0.012195336 -0.002011673 -0.005860469 -0.00509564 -0.0005355589 -0.017789355 -0.0012366067
-0.0022622605 -0.00204584 -0.013377409 0.0 1.8012831e-15 0.0010579637 0.005427199 -0.007931253
0.0 0.0 0.002632451 0.0003391649 -1.0787854e-27 -0.0060994956 -1.5583232e-10 -0.008856591

action_model._continuous_distribution.log_sigma f4 [1, 2]
00000000: fb81 633e 75ac 0b3d
0.22217552 0.034100015

action_model._continuous_distribution.mu.weight f4 [2, 128]
00000000: 8e87 f63c 5e3b 963c fc12 6cbc 7c52 6e3c
00000010: 82e7 b9bb 009f 05bd 233c d63c 42c5 0bbc
00000020: da70 b13c 88a4 30bd 8a43 08bb 4984 00bd
00000030: 8ecf 193c aa5a ae38 c6f8 fe3b abe7 94b9
00000040: ba9f 923a 1986 253c d4cd e03a 1a0d 3d3b
00000050: 8241 f0bb f4d9 483b 49d4 d8bc 4c03 efba
00000060: c233 04bc e28b 24bc ba54 1ebb bf98 ffbc
00000070: d6f9 bb3a 5fd0 bb3c 31d0 173a 0143 f0bb
00000080: 0f0e 18bd 7b8e d23b c09f 98bc e3f7 a93c
00000090: 420e 7abc 8349 b93c 3917 c53c cbed 073c
000000a0: b6f9 72ba 5dae 343c d53c cf3b cfda fb3b
000000b0: 2368 b23c e21a 88bc f3d3 7c3c 5a5e 513b
000000c0: 6d4f 423c 6a10 f73c 213f 34bc f466 823b
000000d0: f20d 1a3d 889c 033c 0a84 99bc 52a1 8cbc
000000e0: 45c3 5b3a 8f9a 9f3c 7496 be3c a3bd f23c
000000f0: 371b 65bc 15cb 173c 0c25 af3c e3e4 b5bb
00000100: 9307 a83c 6899 a8bb b032 9dbc f789 45bc
00000110: cba1 e3bc 9ccd 823a da00 a43b b9e2 9d3c
00000120: ee4f 8bbb ced6 8ebb 0ef6 54bc b08d e1bb
00000130: 878a 733a 938f 13bb 797d 97bb c549 b53c
00000140: 81d3 933c 67a8 033c 7da2 723b 54b8 72ba
00000150: 8a3c 85bc 9b5c d7ba 3d97 04bc f5c2 d5bc
00000160: ade6 03bc 9420 fb3b cec2 983c 7356 96bc
00000170: 652c a03a e936 83ba 5c9d 493b 3383 913b
00000180: 9f1c ef3b 16f8 0c3c 14e8 33ba e59b 293d
00000190: f99d a0bc 437f 0b3c ebc9 2dbb 69bf aa3a
000001a0: 1d34 25bc 54f2 06bb 7280 b3ba fcd6 e23b
000001b0: 0415 72ba 6e00 75bc e30d 943a 459e 3fbc
000001c0: c8b2 91bc 30af 973b 8813 a2bb 5235 22bc
000001d0: 5fd8 0b3a 428e c43c b6d2 883c 3f4b 7eba
000001e0: 77f8 b73c a048 cabc eeda 813c 928f d13c
000001f0: d9cd c7bb 5836 803c 94be a7bc 2e30 04bc
00000200: a879 733c 8511 3d3c a213 46bc 9867 abbb
00000210: 4096 6d3c a26f a2bb e039 f4b9 9449 b63c
00000220: 8778 d53c 5d34 dfbb 52fd a23b d90e 493c
00000230: 5dc6 643c 1212 30bb d2aa 1b3c 65d4 2dbc
00000240: 41e8 d3ba 4a99 6b3b e431 853a e8c5 c2bb
00000250: 5faf d53b c051 d1bc 022c c63a fb1d 873b
00000260: 029e 723c 65e2 aabb e2e3 0cbc e436 99ba
00000270: f7f5 f83c 9082 843c 7854 a83b 51e3 6e3c
00000280: f410 cbbc f601 dfbc c842 8bbc c1a1 83bb
00000290: e30e 01bd dfc4 563b 6750 113c 9ac3 44bc
000002a0: 9723 fbbc caf9 49bd 32b0 b03c 2de9 b33c
000002b0: f2cb 8c3b 0ba2 833c 5611 c53c 4c15 f43c
000002c0: 2578 913b 01c2 8c3c cc7d f93c f4d3 04bd
000002d0: 0d34 56bc 948c 3ebc 7ede 87bc 76ac a8bc
000002e0: 8d3f 303b 6f1d 99bc 550b 00bc f8ca 273c
000002f0: f64d 44b9 34c8 05bd 19f6 29bc a5bb 8bbc
00000300: 2915 863b a4b4 b4bb 560a d0ba 5a18 98b9
00000310: b4df 983c 2a9a 06bc 626d 70bb 0591 703b
00000320: d1b6 57bc 69ec 773b d43d ff39 ef47 adbb
00000330: f9ea b1ba d4e6 9a3a 615e 8f3c 7ef6 8a3c
00000340: 9c13 923a 530f 033d 8302 3bbc 08d4 8dba
00000350: c0f1 c9bc a7d4 b53c cbc2 ccba d9e6 1cbc
00000360: f5c9 d6bb b8c6 92bb 6227 42bc f04d c3bc
00000370: 2d6e 153d 6918 4d3c 3230 abbc 0e62 953a
00000380: 9aa5 d63b 7a89 1a3c 6433 e73b aea6 b9bc
00000390: 5496 5d3b b016 3b3b 91be c8bc b8f4 96bb
000003a0: 87e8 b6bc d61a a33c c932 bd3b 6f2f 86bc
000003b0: 3568 12bc 3518 d43b 450c 533c 2834 3abc
000003c0: e5bb bcb7 bb16 e1bb 5baa 17bc a13f 263c
000003d0: b8d8 723b 5c8c 293c 0816 b63a ec0d 673c
000003e0: 1183 08bc 6f5d d93c c8ac 0abc 0f77 323c
000003f0: ed57 2e3c 5281 9fbc 316f 30bc cd2c e0b9
0.030093934 0.018338855 -0.014408823 0.014546033 -0.00567335 -0.032622337 0.026151722 -0.008530917
0.021660257 -0.04312566 -0.002079221 -0.031376157 0.009387864 8.313854e-05 0.007781121 -0.00028401366
0.0011186518 0.010102772 0.0017151185 0.002884692 -0.007332028 0.0030647488 -0.026468413 -0.0018235235
-0.008068981 -0.010043116 -0.0024159388 -0.031200765 0.0014341425 0.022926508 0.0005791216 -0.0073322062
-0.037122782 0.0064256764 -0.018630862 0.020748084 -0.015262188 0.022618061 0.024058925 0.00829644
-0.0009268777 0.0110279 0.0063243904 0.007685996 0.021778172 -0.016614381 0.015431392 0.0031947107
0.011859757 0.030159194 -0.011001379 0.003979558 0.037610956 0.008032925 -0.018739719 -0.017166767
0.00083832844 0.019482879 0.023265101 0.029631441 -0.013983539 0.009264727 0.02137997 -0.005550967
0.020511424 -0.0051452406 -0.019189209 -0.012056819 -0.02778711 0.0009979489 0.0050049843 0.019273149
-0.0042514717 -0.004359103 -0.012998117 -0.0068833455 0.00092903565 -0.0022515997 -0.004623112 0.022129903
0.018045189 0.008035756 0.003702312 -0.00092590344 -0.016264219 -0.0016430797 -0.008092699 -0.02609394
-0.008050603 0.0076637957 0.018647578 -0.01835177 0.0012220262 -0.0010010871 0.003076396 0.004440689
0.007297113 0.00860407 -0.00068628904 0.04140844 -0.019606577 0.008514228 -0.0026518058 0.0013027015
-0.010083226 -0.0020591216 -0.0013694896 0.006922601 -0.0009234699 -0.014953716 0.0011295642 -0.011695449
-0.017785445 0.0046290383 -0.004946176 -0.009900408 0.0005334671 0.023993615 0.016702037 -0.00097005436
0.022457344 -0.024692833 0.015851464 0.025581155 -0.006097537 0.015650913 -0.020476617 -0.008068128
0.014860548 0.0115398215 -0.012089642 -0.005230855 0.014501154 -0.0049571553 -0.00046582427 0.022251882
0.026058448 -0.006811662 0.004974046 0.012271606 0.013963309 -0.002686624 0.009501176 -0.010609721
-0.001616724 0.0035949522 0.0010161963 -0.0059440024 0.00652115 -0.025551677 0.0015119317 0.004123447
0.01480818 -0.0052149766 -0.008599253 -0.0011689332 0.030390723 0.016175538 0.0051370226 0.014580564
-0.024788357 -0.027222615 -0.016999617 -0.0040170853 -0.031508338 0.0032771153 0.008869267 -0.012009526
-0.030656619 -0.049310483 0.021568391 0.021961773 0.004296773 0.016068479 0.024056118 0.029795311
0.004439371 0.017182352 0.030455492 -0.032428697 -0.013073933 -0.011630196 -0.016585585 -0.020590048
0.0026893348 -0.018690793 -0.007815202 0.010241263 -0.0001872106 -0.03266163 -0.010373616 -0.01705725
0.004091878 -0.005514698 -0.0015872221 -0.00029009843 0.018661357 -0.0082154665 -0.003668629 0.0036707532
-0.013166145 0.003783012 0.00048683456 -0.005288116 -0.0013574056 0.001181806 0.017501058 0.01696324
0.001114476 0.031997036 -0.011414173 -0.0010820637 -0.024651408 0.022196127 -0.0015622018 -0.009576523
-0.006554837 -0.0044792555 -0.01185021 -0.023840874 0.036482025 0.012518027 -0.020897005 0.001139702
0.006550503 0.009432191 0.007055687 -0.022662487 0.0033811526 0.0028547458 -0.024504932 -0.0046068095
-0.022327675 0.019910257 0.0057738763 -0.01638004 -0.008935978 0.0064726123 0.012881343 -0.011364974
-2.2498842e-05 -0.0068691648 -0.0092569245 0.010147006 0.0037055444 0.010348406 0.0013892064 0.01410244
-0.00833203 0.02653381 -0.008464046 0.010892644 0.01064108 -0.019470844 -0.010768698 -0.0004275799

action_model._continuous_distribution.mu.bias f4 [2]
00000000: 58de f93b 72eb 07bb
0.0076253824 -0.0020739702

action_model._discrete_distribution.branches.0.weight f4 [1, 128]
00000000: cb1b 5b3b 8369 f83b e05e 97ba 8337 6cbc
00000010: 3189 90bb 691f 203c f085 013c 0be0 97bc
00000020: bf85 72bc 2f84 aabb 59fa 40bc abd9 49bb
00000030: 8b99 babb 2ecc 9dbb fa59 09bb c337 63ba
00000040: 3058 adbb 98cb 633c d23f 043c bf5c fe3a
00000050: 6268 e7bb 448f 9cbc ad77 fbbb 27c3 b4bb
00000060: 4b98 1abc 79ac a53a 7b26 7d3c 2a1e b4b8
00000070: b277 b0bb 4011 dc3a 9170 abbb 27cd a43b
00000080: 31ad 95bb e070 2bbb eae7 53bb b547 763c
00000090: 8528 7fbc 51ca c63b 475e 84bb 823c 553b
000000a0: 5b33 223c a76d 24bc abb1 2eba 23b5 aeba
000000b0: 1f9b ae3b 172f 96bb b269 c0bb 337f ee3b
000000c0: 4538 83ba 83a7 283c bed4 ca3c 6c87 233a
000000d0: f24c 273c 1f3a dabb 65da d5ba 96c4 963c
000000e0: 1186 18bc c528 d339 f26c b83b cd74 4ebc
000000f0: 03f8 3e3b e1df 11bb 13de 8aba 3524 f53b
00000100: fa3b 5b3c 2845 593b eafb 053c e789 843c
00000110: a273 073c d553 b1bb 0b47 38bc 125a 2abb
00000120: f3ec 6abc fc4b a7bb ac2e 803c e7cb 32bb
00000130: dbb2 ecba 971e 49bc 1b2d c53b 48bd 4d3c
00000140: 1508 c83b 1f6f af3b f517 80bc 3ec7 c63b
00000150: 9d43 b13a 6fd2 93bb 9756 4dbc bb2e dc3b
00000160: 2331 823c bb22 27bc 79ee 0abc c155 963b
00000170: b70b b33b 873e 033b 749b cbbb cbe6 1bbc
00000180: f5fa 16bc e2f0 f23b 38a1 95ba 37f6 183a
00000190: edeb 62bc 0693 14ba a743 aa3b 2791 463c
000001a0: 1ff1 20bb 3218 813c b86e 7dbb d5a9 c7bb
000001b0: 3119 83bc 9af8 723c d3fe 423b 0d4f 6fbc
000001c0: 9fa2 0bbc fabf f139 16b0 91bb 66a9 073b
000001d0: 688b c4bb 7b6b 203b 3495 123b 7282 393c
000001e0: 8743 063c 6920 283b 7878 f4bb 2365 09bc
000001f0: 00b1 2ebc bf63 98bb 0943 3d39 4fb6 76bc
0.0033433314 0.0075809374 -0.0011548661 -0.014417532 -0.0044108857 0.009773114 0.007905468 -0.01853945
-0.014802395 -0.005203746 -0.0117784375 -0.0030799906 -0.0056945733 -0.0048156 -0.0020958171 -0.0008667672
-0.005290054 0.013903521 0.008071857 0.0019406303 -0.007062004 -0.019111283 -0.0076741786 -0.005516428
-0.009435724 0.0012639902 0.015451069 -8.588687e-05 -0.0053853625 0.0016789809 -0.005231925 0.005029339
-0.004567765 -0.0026159808 -0.0032334276 0.015031745 -0.015573625 0.0060665985 -0.004039559 0.0032537286
0.009899939 -0.010035909 -0.0006664048 -0.001332913 0.0053285505 -0.0045832503 -0.005871975 0.007278347
-0.0010011276 0.010293844 0.024759647 0.0006238136 0.010211216 -0.0066597606 -0.0016315697 0.018404286
-0.009309308 0.00040275432 0.0056282217 -0.01260109 0.0029139526 -0.0022258686 -0.0010594748 0.007481123
0.013380999 0.0033152793 0.008177737 0.016179038 0.008267315 -0.005411605 -0.011247407 -0.0025993627
-0.01433872 -0.0051054936 0.015647255 -0.002728218 -0.0018058674 -0.01227536 0.00601734 0.012557335
0.006104479 0.005353823 -0.015636424 0.006066232 0.0013524179 -0.0045111696 -0.012532852 0.006719438
0.01589257 -0.0102011515 -0.008479708 0.0045878594 0.005464043 0.0020026283 -0.0062136 -0.009515475
-0.009215106 0.0074139694 -0.0011415845 0.0005835029 -0.013850194 -0.000566766 0.005196053 0.012119568
-0.0024557782 0.015758608 -0.003867073 -0.0060932436 -0.016003223 0.014829779 0.0029753938 -0.0146062495
-0.008522659 0.00046110136 -0.00444604 0.0020700335 -0.005998064 0.0024478126 0.0022366764 0.0113226045
0.008194811 0.0025654084 -0.00746065 -0.008385929 -0.010662317 -0.0046505625 0.00018049417 -0.015058114
