Assets/results/VikramRover4/VikramRover/VikramRover-499988.onnx (onnx, 147290 bytes, 10 tensors)

network_body._body_endoder.seq_layers.0.weight f4 [128, 10]
00000000: 29ad 16be 3534 4fbe 3c4e 983e bbbe 713e
00000010: 35cb 6ebd 8d43 b8be 5d03 0c3e a8fe 89bf
00000020: fe83 503d 7418 67be 437b f4be 7b71 113f
00000030: 9f5e 243e dd50 023d 891b a9bf dcab f73d
00000040: 5d43 493f 0c12 01be 5c1b 94be 0067 0c3f
00000050: 0534 a2bd df36 88be ed35 db3e ae9b 50bd
00000060: c4b6 95be a750 26bd 54c1 a9bf 7e83 f7be
00000070: ce18 07bd 7fa0 123e f47d b0be 5586 f1bd
00000080: d856 c9be 4575 2f3f 53e7 23bf c52a b43e
00000090: e477 243e ea0e 9e3e 2ee3 df3d 0d0d 503e
000000a0: 4bc5 4e3e bf6e d03e 412d aebe 6e85 ac3e
000000b0: 2772 35bf 9098 ccbd 13a7 6f3d d049 a9bb
000000c0: 3bf3 7dbe 1729 783d 5760 cfbd ad67 fb3c
000000d0: 878f be3e 69d4 983d a615 e1bd 2dad e8be
000000e0: bcca cd3e 1a73 b8bf b705 aa3e 53c7 e73e
000000f0: 7671 463d 6b43 12bf d618 d1bc 4363 8b3e
00000100: 449e 5c3c a551 27be a3bf f6bf 8912 ec3e
00000110: 45e5 4e3e bfe3 68bd c604 88be cc8d c8be
00000120: 9f4b 0abf 3d25 cf3e 7634 4dbf 9036 3e3e
00000130: 35c5 f0be 8d1e 3a3f e7ae 24bf 5d90 58be
00000140: 718b 993e d03e 02bf 1e8a 4cbe 2476 8b3e
00000150: b3fe 03bf a6c6 20bf bcf4 c53e 8052 bfbe
00000160: 9ffa 7bbe 38cf 10be f55a 3cbd 4c13 d7bd
00000170: 1cce 0abe 24e9 56bd 3327 d4be ddc2 6fbe
00000180: 705b 03be 1510 563d 3d4a 593d 1506 8a3d
00000190: 9188 0a3f 0b83 67be bd38 0b3f de58 dfbe
000001a0: d981 09bd e82b 693e e820 fa3d ae6b 2abf
000001b0: 6bab a63e 0590 74be f227 293e 691a 243f
000001c0: 8bfd 21bd ebc9 11bf b5f0 3f3e 2c2f 9c3d
000001d0: 5c5a 7fbf 1fc0 93be 52e3 cbbe 4ad6 663e
000001e0: 11b5 38be 3b7f 853d 201a 1abe d35f 3d3f
000001f0: 0b3a 003f 16e8 02bf 57de 5cbe f3ed d9bb
00000200: a1d5 e43d ee85 7abc 62f0 e03e a55c 1bbf
00000210: b10c b13e f931 b7be 868c 2d3f fe94 b4bd
00000220: 7d5d 183f 06f3 e0be 2098 41be 72a9 803e
00000230: 677f 8abd eff0 1cbf 68f0 813e 1e74 fe3e
00000240: 7977 babe b62a 82be 9fe5 dfbe 6bf3 b83f
00000250: 3215 06bf 7e29 b8be 8000 bd3d b826 a1be
00000260: 62eb b8bd 1ddc 89bf 2f88 3fbe 113a cf3e
00000270: 6e3b 17bf 4091 ee3e 70be ecbe ce0c 97bd
00000280: 6558 2cbe d16a 35be 7835 42bf 196f 393f
00000290: 5968 1bbf e7a0 9e3c 01f7 b43e ece0 bf3e
000002a0: 72c6 b4be fb36 e93d 8bce 2ebe e965 9abe
000002b0: 642c 903d b2bc 9dbe a071 a6be e4c6 debe
000002c0: 4be8 0abe 878a 2a3f c1ca 7e3e b1e7 14be
000002d0: 0433 11bf 8028 ae3d 19c0 88be 03e5 903e
000002e0: eddc 373f e314 0d3e 8c19 ab3e 4989 a6be
000002f0: a6e4 9c3e 80c4 adbe e7a9 afbd 9802 853e
00000300: a0f5 2bbe b719 11bf 9bae 0f3d 79db 1ebe
00000310: 45c8 393d 66b0 59be 4a6f 80be 8605 513d
00000320: 2075 be3c 7022 763e 428b 8abd f8de 9f3d
00000330: 3d10 a13e d93c c6be 7e86 8f3f fbb7 013e
00000340: 8bfb 4c3e 65a1 cabe 54cb dbbc 6abf 08be
00000350: 0c63 f93c 7a4c 5e3d e3ce 423f ec46 c63e
00000360: cca5 b9be 5245 a33e 7eac d7bd 2141 87bf
00000370: 498c 8dbe d57b b2be 64d9 d63c a2ca efbe
00000380: 1f17 64be 75df 1ebf 953b ac3e fd10 a33e
00000390: bfb6 cabe 3e98 8cbe b203 dbbd 5dd7 0bbf
000003a0: e351 24be 1393 2b3e 1873 b3be 79d7 de3e
000003b0: 89a6 043e 5ce5 ca3c 834b 073f 9b50 c63d
000003c0: 4216 d93e d8ed 523e 3e0e 1abd 5b59 03bf
000003d0: 710a 0c3f eeb7 f33e 44a9 d13e 84e4 c5bd
000003e0: ee6e 2cbe 02aa 233e 4b2e 80bd 2c63 dd3d
000003f0: b14c 1dbf a00f aa3e 6e84 eaba 55b1 ae3b
-0.14714493 -0.20234759 0.29747188 0.23607914 -0.058299262 -0.35989037 0.13673158 -1.078084
0.050907128 -0.22567922 -0.4775029 0.5681378 0.1605172 0.0318154 -1.3211528 0.120933264
0.78618413 -0.1260454 -0.28927124 0.54844666 -0.07920078 -0.26604363 0.4281458 -0.050929718
-0.29241002 -0.04060426 -1.3262124 -0.48342508 -0.03298264 0.14319037 -0.34471095 -0.117932
-0.3932407 0.68538314 -0.6402485 0.3518888 0.1606136 0.30870754 0.10932003 0.20317478
0.20192449 0.40709493 -0.340189 0.3369555 -0.7087731 -0.099900365 0.058508944 -0.00516627
-0.24799816 0.06058606 -0.10125797 0.030689085 0.37218878 0.07462389 -0.10990457 -0.45444623
0.40193737 -1.4410126 0.33207485 0.4526926 0.04844805 -0.5713412 -0.025524538 0.27224168
0.013465468 -0.16339739 -1.9277233 0.4610789 0.20204647 -0.05685782 -0.26566142 -0.39170682
-0.5402164 0.40458098 -0.80158174 0.18575501 -0.47025457 0.72702867 -0.6432938 -0.2114882
0.29989198 -0.50877094 -0.19974563 0.27238572 -0.51560515 -0.62803113 0.3866328 -0.3736763
-0.24607323 -0.14141548 -0.04598518 -0.105017275 -0.13555187 -0.052468434 -0.41436157 -0.23414178
-0.1282785 0.05226143 0.053049315 0.06739441 0.54114634 -0.22608583 0.5438345 -0.43622488
-0.033571098 0.22770655 0.122133076 -0.66570556 0.32552657 -0.23883064 0.16519144 0.641028
-0.039548438 -0.5694873 0.18744166 0.07626185 -0.9974725 -0.28857514 -0.3982187 0.22542682
-0.18037821 0.06518408 -0.15049028 0.7397434 0.50088567 -0.51135385 -0.21569191 -0.00665068
0.11173559 -0.01529072 0.43933398 -0.6068824 0.34579995 -0.35780314 0.67792547 -0.088174805
0.5951765 -0.43935412 -0.18905687 0.25129277 -0.06762581 -0.61305135 0.25378728 0.49697965
-0.36419275 -0.2542321 -0.43729874 1.4449285 -0.5237609 -0.35969156 0.09228611 -0.31474853
-0.09029271 -1.0770298 -0.18704294 0.4047399 -0.5907506 0.46595192 -0.46239042 -0.07375489
-0.16830595 -0.17716528 -0.75862837 0.72435147 -0.60706097 0.019363834 0.353447 0.3747629
-0.35307652 0.1138744 -0.17070977 -0.30155876 0.07039717 -0.30808026 -0.32508564 -0.43511117
-0.13565175 0.66617626 0.24882032 -0.14541508 -0.5671847 0.085038185 -0.2670906 0.28299722
0.7182148 0.13777499 0.33417928 -0.32526615 0.30643195 -0.3393898 -0.08577328 0.2597854
-0.16792917 -0.5667986 0.035078626 -0.1551341 0.045357008 -0.21258697 -0.25084907 0.05103066
0.023249209 0.24036574 -0.067648426 0.078062 0.314577 -0.38718298 1.1212919 0.12667839
0.20017831 -0.3957626 -0.026830353 -0.13354269 0.030442737 0.054272152 0.76096934 0.38725984
-0.36259305 0.31888825 -0.10530947 -1.0566751 -0.27646092 -0.348601 0.026226707 -0.46834284
-0.22274445 -0.6205972 0.33639207 0.318489 -0.3959255 -0.27459902 -0.10694064 -0.54625493
-0.16046862 0.16755323 -0.35048747 0.43523768 0.12954153 0.02476757 0.52849597 0.09683343
0.42399794 0.20598543 -0.03761124 -0.5130822 0.5470343 0.47601265 0.40949452 -0.096627265
-0.16839191 0.15982822 -0.0625883 0.10809931 -0.61445147 0.33215046 -0.001789225 0.005331198

network_body._body_endoder.seq_layers.0.bias f4 [128]
00000000: 2857 86be 665a 79be f6ee 1bbe 6442 a3bc
00000010: 8d67 59be 9564 e2bd 4257 2ebe 0291 b8be
00000020: 5651 25be 2add 9cb3 b572 16be f194 b13d
00000030: d456 23be caca 30be 423a cbbd 5b9d 38be
00000040: e4e7 d6bd 0316 15b0 bb16 bb3a 2fd3 393b
00000050: cabf bcbd 36f2 353d 7fac 6821 64d6 61be
00000060: 26b2 edbb fd85 c3bb 824b 40be b67b ad0b
00000070: a2a7 a31a 8c8d 1abe 843c 63be 9e54 6b16
00000080: 8b61 a23c 0f26 3417 e7fc 93a8 0049 fe3c
00000090: da86 acbc 06b7 83b8 1b4f f3bd daf3 66be
000000a0: 3877 c13c 0e2e fa1c dd9b b2be 8521 b5bd
000000b0: 5406 19bd 15ab 80bd 8862 9586 b3f2 321f
000000c0: 26d2 2bbe 68f4 81bd 79e6 ae3d efaa 20bd
000000d0: 44b2 e0bc 221b 853d 6201 c3bd 4d58 0c35
000000e0: 73f7 2999 f42e efbd 087a 1bbe e694 8b16
000000f0: 6c07 08be a629 4510 5453 ffbd ceee 36be
00000100: a8a8 2bbd 9669 bb3d 520a 4ebd 8672 43bd
00000110: 4380 f13c e705 c1bd b115 edbd 741a 151f
00000120: 7d85 d691 dd73 7d3c b9a2 912d 3f4b 813d
00000130: ff3e 81bd 9bbb 0e3d 385e d5bd 7a72 20be
00000140: 141a 9ebc 3b3c 9dbc 9415 0dbe 7ded afbd
00000150: 7310 00be a6cc 9c3d 798a 42bd c6d6 413e
00000160: 100f d3bd 3d90 80bd ba44 b5bb dfd9 03bd
00000170: c032 69bd 2f93 a4bc fb9a 5ea9 bd20 1e32
00000180: d466 b93d c347 15be d612 62b9 aea7 cebc
00000190: ea66 51bd 9abc ad3d b20f d2bd e1a1 1abc
000001a0: 622d 3e0e e2b3 ffbd 349a 9b3d 2ae6 14bd
000001b0: 1be4 d618 5c2b a93d 30e7 f6bd bbea 5cbe
000001c0: 2d4b 84be 0000 0000 dda3 f43d be44 8c3d
000001d0: c27e 3abd 02b8 7dbe acbf c216 588c 93bd
000001e0: 0f94 e1bd fa50 a219 3848 1fbd 22e8 a03d
000001f0: 19a2 02be 8835 ae3b cee5 ddbd e9a3 09be
-0.2623837 -0.2435089 -0.15227875 -0.019929118 -0.21230908 -0.11054341 -0.17025474 -0.36048132
-0.16144308 -7.3045456e-08 -0.14692195 0.086709864 -0.15951091 -0.17264858 -0.09923221 -0.18028776
-0.104934484 -5.4237165e-10 0.0014273742 0.0028354635 -0.09216268 0.044420443 7.8832954e-19 -0.2205444
-0.007253903 -0.0059669004 -0.18778804 6.6823316e-32 6.7686045e-23 -0.15093058 -0.22191054 1.9009849e-25
0.019821903 5.8209174e-25 -1.6429957e-14 0.031040668 -0.021060396 -6.2806575e-05 -0.118803225 -0.2255396
0.023616418 1.6555517e-21 -0.3488454 -0.08844284 -0.03735955 -0.06282631 -5.619235e-35 3.7893722e-20
-0.16779384 -0.06345445 0.08540053 -0.039225515 -0.027428754 0.06499316 -0.09521748 5.228256e-07
-8.787067e-24 -0.116788775 -0.1518327 2.255063e-25 -0.13284081 3.8883484e-29 -0.124670655 -0.17864534
-0.04190889 0.09150998 -0.05030281 -0.04771664 0.029480105 -0.09424954 -0.11576403 3.157386e-20
-3.3845515e-28 0.0154695185 1.6556855e-11 0.0631318 -0.06310844 0.034846883 -0.104183614 -0.1566867
-0.019299544 -0.01919376 -0.13777763 -0.08590219 -0.12506275 0.07656221 -0.04749534 0.18929586
-0.10305607 -0.06277511 -0.0055318745 -0.0321902 -0.056933165 -0.020089714 -4.9428326e-14 9.204254e-09
0.09052816 -0.14578156 -0.00021560056 -0.02522644 -0.051123537 0.084832385 -0.102569 -0.009438009
2.344116e-30 -0.12485482 0.07597771 -0.036352314 5.554803e-24 0.08260223 -0.12055814 -0.21573918
-0.25838605 0.0 0.11945317 0.06849049 -0.045531042 -0.24777225 3.1463352e-25 -0.07204503
-0.11014568 1.6783114e-23 -0.038887233 0.07856776 -0.12757148 0.00531644 -0.108348474 -0.13441433

network_body._body_endoder.seq_layers.2.weight f4 [128, 128]
00000000: 7537 a63c 5a34 bcbd 0c06 783d 6ec0 093e
00000010: fe79 0a3a 7cd8 f13d 51c5 0d3d 9b9e 233d
00000020: d20d 8ebc b7fe 23be 4c3e e5bd 4f1c 78be
00000030: 9db6 bf3d 2d08 32be 01fe 0e3c df3e 33be
00000040: b401 403d e379 c7ba 6fce 723d b85f 263b
00000050: d11e efbc b239 dc3c 8536 b43d 5045 27be
00000060: a679 ffbd 297d 5cbd 343f 0a3a 832c 433d
00000070: e588 42bd 7b1c c4bd f621 063d e6c4 463c
00000080: 3863 12bd 2350 d63c 5cd9 2bbd 4880 ac3c
00000090: 55b9 9c3d 60f5 8b3c aad0 68be 7c2c b0bd
000000a0: 7764 89bd 85ec d93d 1bd0 2bbe 30b9 63bd
000000b0: 4ab6 6dbc 48b3 023d f180 043e 2d56 5cbe
000000c0: ce88 c3bd 8ec7 edbd 7641 9f3d c3f0 1f3d
000000d0: eaa5 42bc a780 d3bb dcae 463d 0822 083d
000000e0: 5006 f3bd 071d 5dbd a177 83bd 5e53 9d3d
000000f0: 37bb 1a3e 90c3 a83d b8b2 953a 3c3e 20be
00000100: aed9 f63d 5eb1 a6bd b7e4 aa3d 078d ecbb
00000110: ba20 a43d 6273 54bd c352 063d 011a 97bd
00000120: 31fb 203e c9c9 6e3c f08b 9a3d 18bd 0a3d
00000130: 5f0d 8ebd f291 24be e52b 633d 6bfc a53c
00000140: 124d 25bd 705e c6bd 013a eabd 80bb 2abe
00000150: 6eaa 353e 5c06 f13b 27e6 203b 878d a63d
00000160: c9ed 18bd 19eb 02be 8f27 aabd 2829 e03d
00000170: d1c9 233d 5a47 b5bd f563 fbbd 2986 893d
00000180: ef6f 1abe d24e 25be ef32 003e b4e8 07bc
00000190: 31c3 9ebc 473a 74be 3af1 f53d 20dd 87bd
000001a0: 0c59 b33d 3dfd cdbc afb4 5fbb 5de0 df3d
000001b0: 02df e83d 63ce 25bd 3ef6 c03c 2670 123e
000001c0: 5e8a 80bd 69c4 9dbd 9525 52bd faba adbd
000001d0: 93f9 1cbe 249e fdba f703 2bbe ce7d b33d
000001e0: 59f6 0dbe 4151 313d f48d 15be 101f b63d
000001f0: bb8d f53b 1148 12be d028 913b cce4 d1bd
00000200: 20a1 efbc a9dd 7abd 8195 ddbd fe9a 173d
00000210: 3a88 4d3c e09c a03d d9cf cbbc 29f8 b2bd
00000220: 8ba7 1cbd c3d9 28bd e728 49bd 8172 04be
00000230: b3ad ef3d dbcc cdbd d84b 82bd 19b8 e7bd
00000240: 723d 58be 4951 20be adc3 8abc 2494 c4bd
00000250: 9481 afbd 5247 30be a1ac 8bbd ba6b 20bd
00000260: bf93 c53c 201c 343e 93ff 25be be59 09bd
00000270: 166b 9a3c a5d7 c13d 474b f4bb d5d3 ee3b
00000280: bbbf b13b 46db 6abd 96b7 203e 4950 973d
00000290: cd78 85bc 9b79 8e3c 630d 57bd 76d4 8cb7
000002a0: 3efb dabc 62dc 043c 968b b4bd 3a65 023e
000002b0: da07 ba3d 9a09 433d 510d 333d a669 cd3d
000002c0: 59f6 c13c 9034 1ebd c9c5 17bd 9ac4 01be
000002d0: f10e a6bb 7645 243e ddbd 6bbd d506 cc3d
000002e0: e0aa 7bbd 4101 2dbe a584 48bc 758e 9bbc
000002f0: 4c06 4dbe 2200 75ba 6a58 34bd 8409 2fbc
00000300: 2e03 a2bc 51e3 24bc a81b 2fbd f428 7bbe
00000310: 37b0 19ba 3b81 a33d 8e36 19bd 85f9 443d
00000320: bd64 be3d d9e1 983d ad54 5abb b152 d43d
00000330: 3553 de3c 64c4 d9bd 62ae f43d 315c cd3d
00000340: b0c8 083e 91e9 a63d d454 b5bd b00a 27be
00000350: 77e7 103e d462 f6bc a99f 33be cea2 403d
00000360: e514 1fbe c949 cf3d ef7c 10bd baf8 8dbd
00000370: 7e77 233c 2cf1 e53c ef4c 473e d8ed 4c3d
00000380: d143 8f3d f50c b7bd 2570 87bd 88cd 57bc
00000390: 01cd 35bc b327 8b3d ba42 b9bc bd3d 903d
000003a0: 36c8 023e 4d3d f03c 1076 2e3d e836 d53d
000003b0: 85a6 663c b9b2 0c3a bff0 1c3d 79a9 13bd
000003c0: c108 01bd e884 533d 71e9 0abe e68c 3c3d
000003d0: abef 76bd ba33 e2bd 766f da3d 2b2f 5abd
000003e0: b715 fcbd 829d 443d d83b cfbd c33b eabd
000003f0: 57b7 4c3d f581 c63d 63b8 ebbd 753f 1b3c
0.020290116 -0.09189673 0.06055264 0.13452312 0.00052824605 0.11808869 0.034612004 0.03994618
-0.017340574 -0.16015135 -0.11193523 -0.24229549 0.093610026 -0.17385931 0.008727551 -0.17504452
0.046876624 -0.001521882 0.0592789 0.0025386643 -0.0291895 0.02688298 0.08799461 -0.16335034
-0.124743745 -0.0538303 0.00052737 0.04764987 -0.047493834 -0.09575745 0.03274723 0.012131905
-0.035739154 0.026161259 -0.041955337 0.021057263 0.07652537 0.017084777 -0.22735849 -0.08602235
-0.06708615 0.10640816 -0.16778605 -0.05559653 -0.014508793 0.031909257 0.12939812 -0.21517248
-0.09547578 -0.11610328 0.077761576 0.039047968 -0.011880377 -0.0064545455 0.048506603 0.03323558
-0.118664384 -0.05398276 -0.06419302 0.07681917 0.1511048 0.082404256 0.001142106 -0.1564874
0.12053238 -0.08139299 0.08344405 -0.00721896 0.080140546 -0.05186785 0.03279377 -0.07378007
0.15720822 0.0145744765 0.07546222 0.03387174 -0.06936144 -0.16071299 0.055461783 0.020261964
-0.040356703 -0.09685981 -0.114368446 -0.16673088 0.17740795 0.0073554944 0.0024551244 0.08132463
-0.037336145 -0.12784995 -0.083083265 0.1094535 0.03998739 -0.088515 -0.12274925 0.06715042
-0.15081762 -0.16143349 0.1251943 -0.008295227 -0.019380184 -0.23850356 0.12008901 -0.06633973
0.08757219 -0.025145167 -0.0034134795 0.10931466 0.1137066 -0.04048003 0.023554917 0.14300594
-0.062763914 -0.07703478 -0.051305372 -0.084829286 -0.1532958 -0.0019349498 -0.16700731 0.0876423
-0.13863505 0.04329038 -0.14604932 0.088926435 0.007493702 -0.14285304 0.004429914 -0.10248718
-0.029251635 -0.061246548 -0.10819531 0.037013046 0.012544686 0.078424215 -0.024879383 -0.08738739
-0.03824572 -0.0412233 -0.049111273 -0.12934305 0.11703052 -0.10048839 -0.06362122 -0.11314411
-0.2111719 -0.15656008 -0.016939009 -0.09598568 -0.08569637 -0.17214707 -0.06820036 -0.039165236
0.024118302 0.17588854 -0.16210775 -0.03353285 0.01884989 0.09464959 -0.007455263 0.007288436
0.0054244674 -0.05733802 0.15695032 0.0738836 -0.016292954 0.01739197 -0.052503 -1.6788235e-05
-0.02673113 0.008109184 -0.088156864 0.12733927 0.09083529 0.04761658 0.04371387 0.100299165
0.023677038 -0.038624346 -0.037053857 -0.12672654 -0.005067699 0.16042122 -0.057554115 0.099622406
-0.061442256 -0.1689501 -0.012238656 -0.018988827 -0.20021933 -0.0009346028 -0.04402963 -0.010683421
-0.019776907 -0.010063962 -0.042750984 -0.24527341 -0.0005862745 0.07983633 -0.037405543 0.048089523
0.09296558 0.07464952 -0.003331463 0.10367335 0.027139286 -0.10633162 0.119473234 0.1002735
0.13357806 0.08150018 -0.0885407 -0.1631267 0.14150797 -0.030076422 -0.17541374 0.047030263
-0.15535314 0.10121495 -0.035275396 -0.069322065 0.00997722 0.028069101 0.19462942 0.050031513
0.06995357 -0.08938018 -0.06613187 -0.013171561 -0.01109624 0.067946814 -0.022614826 0.07043026
0.12771687 0.029326105 0.042593062 0.10410863 0.014077787 0.0005367208 0.03831553 -0.036050294
-0.03150249 0.05164042 -0.13565613 0.04603281 -0.06028716 -0.11045022 0.10665791 -0.05326764
-0.12308829 0.048001774 -0.10118836 -0.1143718 0.049979534 0.09692756 -0.11509778 0.009475579

network_body._body_endoder.seq_layers.2.bias f4 [128]
00000000: 848f 5cbd b626 b4bc 15bb 1cbd 540e 1bbc
00000010: 5a9f 3bbc d3d2 d1bc 8c0d 3cbd 2185 71ae
00000020: 543e cfbb 6c11 4abd 28c3 babb e5b4 4dbd
00000030: e8f9 39bd 5047 04bd ecd5 8fbc c4bb f53b
00000040: d704 1cbd 0dc8 2839 3c2d 92bc 4fd4 f8bb
00000050: e20e 2d3d d68f 90bd 8314 0fbc e6a3 22bd
00000060: cb33 89b9 e7f2 abbc d707 9dbb 4f69 71bd
00000070: bfd2 44bc 867f 8ebd ced1 22bc b1d5 85bd
00000080: 7d54 4cbd 5779 f2bc 0880 f0bb b4e9 f7bc
00000090: 8488 fcbc 35d1 4fbc 1ef8 fdbc 3d25 dabb
000000a0: fd20 fcbc 0ece 293c caa6 bcbc 1d23 3e3d
000000b0: e922 1abd a60f 8cbc fe6d 00b6 c54c 13bc
000000c0: 9f3e 2d3d ecda 1fbd ae13 93bd 902c 06bd
000000d0: 8428 04bd 2ae1 80b9 d300 9dbb 761b 33bd
000000e0: 6e9f 84bd 7441 08bb f91e 34bc 96aa f53d
000000f0: f14f 15bd f910 01bd 155a cbbb e3a5 bd3b
00000100: 8e2b 0dbd b732 c4bc 6669 4e37 a697 abbc
00000110: e380 cabb 1b18 f0bb ce56 28bc 2954 67bd
00000120: d2a5 bdbb 4e26 0dbc bac8 a0bc c5b0 05bd
00000130: c8bb cebc 4c29 3dbd 31f9 fc3a 8981 08bd
00000140: 99c2 c0bc 4662 89bc e9e0 05bd 5936 d7bd
00000150: 8ef2 1dbd fc4f 07bd 5917 80bc c32a b6bc
00000160: 800f cabc 5489 fabc 2297 7fbc c6bc 7abc
00000170: d82f edbc 2f37 a8b5 7184 d7bc 4d49 3abd
00000180: bf41 33bc bb05 96bc bdc2 2fbd 4213 78bd
00000190: 7968 35bd ccbb 82bc bb4b 56bb f282 7abd
000001a0: 3f4e ffbc c1c9 29bc 4888 21bc f5e2 f0bc
000001b0: 5871 93bc 865b 20bc 5c22 2cbd 4d08 9aba
000001c0: a6ae 6abd eb3b 41bd b94a 85bd ac78 f7ba
000001d0: f7a3 cbbc dbcd a1bc f623 d0bc 6ff7 99bc
000001e0: 1b17 94bd c167 b8bc 81d9 23bd 8654 fa3d
000001f0: f3a6 1ebd 103b 2cbc fe98 7ebc e240 f4bb
-0.053847805 -0.021991115 -0.038264353 -0.009463865 -0.011451567 -0.025613224 -0.045911357 -5.4915298e-11
-0.0063245688 -0.04933302 -0.005699534 -0.050221343 -0.045404345 -0.03229457 -0.01755806 0.00749919
-0.038090553 0.00016096253 -0.017843835 -0.0075936685 0.04225052 -0.070586845 -0.008732918 -0.039707087
-0.00026169265 -0.020989848 -0.0047921943 -0.05893832 -0.012013136 -0.06957917 -0.009937717 -0.06534899
-0.04988526 -0.029598875 -0.0073394813 -0.030262806 -0.030826814 -0.012684156 -0.0310021 -0.006657271
-0.030777449 0.010364069 -0.02302875 0.046420205 -0.03763095 -0.017097306 -1.913751e-06 -0.008990471
0.04229605 -0.03902714 -0.07181488 -0.03275734 -0.0322652 -0.00024581823 -0.004791358 -0.04372736
-0.06475721 -0.0020790966 -0.010993713 0.11995427 -0.03645319 -0.031510327 -0.006205807 0.0057875975
-0.034465365 -0.023949964 1.2303097e-05 -0.020946335 -0.0061799153 -0.0073270923 -0.010274602 -0.056476746
-0.0057875896 -0.00861509 -0.019626964 -0.032639284 -0.025236025 -0.046181962 0.0019300339 -0.03332666
-0.023530291 -0.016770493 -0.032685194 -0.10508413 -0.038561396 -0.033035263 -0.015636133 -0.022237187
-0.024665594 -0.030583061 -0.015599998 -0.015303796 -0.028953478 -1.2533036e-06 -0.02630827 -0.04548006
-0.010940968 -0.01831328 -0.042910326 -0.06056524 -0.044289086 -0.01595869 -0.0032698947 -0.061160035
-0.03116524 -0.010363043 -0.009859152 -0.029405097 -0.017998382 -0.009787446 -0.042024955 -0.0011751741
-0.057295464 -0.047176283 -0.06508393 -0.0018880568 -0.024858458 -0.01975148 -0.025407773 -0.018794743
-0.072309695 -0.022510411 -0.04000235 0.12223153 -0.038733434 -0.0105121285 -0.015539406 -0.0074540237

network_body._body_endoder.seq_layers.4.weight f4 [128, 128]
00000000: 7b02 ac3c 9336 e3bb bf3b 163e 69fe 4e3c
00000010: 2344 46bc 8bc7 613d 4709 9e3e 6e18 833b
00000020: 28f0 473d 8d78 d5bd 8045 f2bd 88f8 29be
00000030: 4cb3 8e3d 956b 0c3d 9af5 5fbd de11 cd3d
00000040: a4c7 a43d 21dd eb3d eba9 633d 51b7 933d
00000050: 9109 c33b 6cb1 a73c a277 36be 9004 54bd
00000060: 8c5f 5e3e 7606 18bd 660a 24bf c554 043d
00000070: a9f0 d2bc 291b 02be f8f4 3f3c dd7a 85bc
00000080: 869d 30be eea7 133b 3584 77bd fb44 64bd
00000090: ebcf 993c e06e 043e 5954 8dbd e4cb 0dbe
000000a0: 50cd f7bc c429 a8bd d00a febb dff3 6cbe
000000b0: 6a2f 0abe 6ee0 153d 3c11 5a3d 2826 8b3d
000000c0: 1696 29be df08 74bd faf6 3e3c 4480 d5bc
000000d0: 0600 8e3d f8bb ab3c c559 0f3e 8e17 e6bd
000000e0: d7d5 5e3e c936 4abd 7385 31be 7c6b 953d
000000f0: 655f 89bd 0898 99be 67a5 d23c 74d7 0d3e
00000100: 429f 6dbd 84cd cd3d bca3 c5bd 605a c0bd
00000110: 3ae6 3f3d ee6e dfbd 34a0 ac3d 9f67 ba3d
00000120: 170e 4abc 6452 32bd f264 a43d a3ad 8f3c
00000130: 70c1 6f3d 0e59 b63d 0d0f 0b3d 8f49 0ebe
00000140: e1d2 2bbe dff7 ba3d 6f03 503e 670d ad3c
00000150: df1e 0a3e 4f1c 2a3d a72a 4dbe 6570 53bc
00000160: 66e2 563d 827b d03c a9bc cabd e298 7bbb
00000170: ae24 303c 09c3 f43d 7432 f03d c649 dd3d
00000180: 0502 903d 4941 2ebd 8948 7e3c 94f0 0fbe
00000190: 605f 34be 5c3d e4bc 6bba f43c 99d2 3b3e
000001a0: f5ba 513a 0e4a 98bb 4235 1c3b 4c7d eebd
000001b0: f4d6 ddba 58ec 75bd 23cd 063d 18f8 1abd
000001c0: 7d9f 61be cbb6 afbd 2d0c ae3d bf3a cd3d
000001d0: 9b25 003e ad88 c3ba fe8b 87bc 6458 883c
000001e0: eae8 733d 6f75 dd3d 84e5 413e 5891 933c
000001f0: 3fd5 83bd 8df7 a5bc 6883 663c 0417 953c
00000200: 7a0b b23d a3b6 d0bb a967 163e 7329 f6bd
00000210: ee92 f7bd dba6 28bd f85a 46bc 4860 57bd
00000220: 1610 b3bd 0ec7 36bc 0870 bbbd 3ff0 483d
00000230: 8ae7 8cbb 881d c4bd f25e 06bd 4385 0bbe
00000240: 7a1e ff3d 8ace 20bc 2520 7dbe 6ac7 3abb
00000250: 814b 23be 099f 13be 74ac e8bd 962c aebd
00000260: 38f4 9f3c 2d2f 623d 19d8 0f3e 0466 a6bd
00000270: 75e6 5cbc 78ec 87bc 272e 1ebc 8ae3 d83d
00000280: 41eb b3bd 8129 61be 19b9 79bc 14b3 dabd
00000290: de01 d93c a779 49bd 508c d3bd ded3 2e3e
000002a0: e648 533e 1539 ccbc b47a debd 0b7b f3bd
000002b0: 0e3d 71bc 72ae 4cbd 8403 073e d6a0 c2bd
000002c0: 8562 3ebd 2b79 343e 237f d0bc 8671 fa3d
000002d0: f377 c8bc 647b 153c 33d6 7a3e d3d1 7b3d
000002e0: 41c4 123e 09fd 683d 706e 013e 7737 3e3d
000002f0: 9ad7 f7bc a26d 64be 8e50 babd 4f4b e83c
00000300: 0659 043d 2c9f 233d 62e1 843c 5b9e 193e
00000310: 1d37 8fba 69a2 18bd 47c0 31be aff8 c7bd
00000320: 288c 153e 80e0 c23d a8fc 173e 7ae4 b5bd
00000330: 7bb3 95bc 8dcc 2dbd a8cd 38bd 2ea3 a3bd
00000340: 5db0 d1bc 77a7 88bd 7ce3 c5bc 37ea 0e3e
00000350: adf6 b8bd 7b3c cf3d c1c3 b2bd 73a2 5b3e
00000360: a5c3 b3bd c6bb 203e de47 443e 7f48 32bd
00000370: 729f 11bd 53d3 4bbd 2b76 073d cd01 00be
00000380: 2e45 82bd 5a66 8abc e318 f23c 8e72 56bd
00000390: 3e0e 953c 0769 623e 19b8 30bd 2188 2bbe
000003a0: 5d3d 07bd 5288 223e a4d8 cb3d 5ad7 eebc
000003b0: 2f7e f43d 8af8 21bd 4f4b 4abd 7e9f 6dbd
000003c0: 119b 31bc ced9 d43c 8a85 bd3d 7687 b5bd
000003d0: 531c e93d 6250 68bd d7af 173e 7dcf a53c
000003e0: 5519 083d 310e 223d 1d70 cfbd 24c5 fe3c
000003f0: 4ff7 d63d 88b1 c43d 3760 23bd 9f12 f1bd
0.020997277 -0.006933996 0.14671229 0.012633898 -0.012101206 0.05512194 0.30866453 0.004000715
0.048813015 -0.10423384 -0.11829662 -0.16598713 0.06967792 0.034282286 -0.054677583 0.100131735
0.08045891 0.11516786 0.05558197 0.07212699 0.005952068 0.020470344 -0.17819074 -0.051762164
0.21716136 -0.037115537 -0.64078367 0.032307405 -0.025749521 -0.12705673 0.01171612 -0.016293937
-0.1724759 0.0022530514 -0.060428817 -0.055729847 0.0187759 0.1293292 -0.06900854 -0.1384731
-0.030249268 -0.08211091 -0.007752754 -0.23139904 -0.1349465 0.036590986 0.053239092 0.06794387
-0.1656116 -0.059578773 0.0116555635 -0.026062138 0.06933598 0.020963654 0.13999088 -0.112349615
0.21761261 -0.049368653 -0.17336063 0.07295892 -0.06707648 -0.29998803 0.025713636 0.1385172
-0.05801321 0.100489646 -0.096503705 -0.09392238 0.04685042 -0.1090983 0.08428994 0.091017954
-0.012332461 -0.043535605 0.08027066 0.017538851 0.058534086 0.089037046 0.0339499 -0.13895248
-0.16779663 0.09129309 0.2031381 0.021124555 0.13488339 0.041530903 -0.20035802 -0.012905215
0.052462004 0.025449518 -0.09899265 -0.0038390686 0.010750933 0.119512625 0.11728373 0.10805087
0.07031635 -0.04254273 0.015520223 -0.14056617 -0.17614508 -0.02786129 0.029874047 0.18342055
0.0008000576 -0.0046475 0.0023835455 -0.11644992 -0.0016925023 -0.060039848 0.032910477 -0.037834257
-0.22033496 -0.08579787 0.08498416 0.100209706 0.12514345 -0.0014918052 -0.016546246 0.01664371
0.059548296 0.10813414 0.1893521 0.018013641 -0.06437158 -0.020259643 0.014069416 0.018199451
0.08693595 -0.0063694282 0.1468798 -0.120196246 -0.120885715 -0.04117475 -0.01210665 -0.052582055
-0.087433025 -0.011155857 -0.09152228 0.04905724 -0.0043000625 -0.09575945 -0.03280539 -0.13625054
0.12456985 -0.009814868 -0.24719293 -0.0028500208 -0.15946771 -0.14416136 -0.11361018 -0.08504598
0.019525632 0.05522077 0.14047278 -0.08124927 -0.01348268 -0.01659225 -0.009654558 0.10590275
-0.087851055 -0.21988489 -0.015241885 -0.10678688 0.026490148 -0.049188282 -0.10329497 0.17073008
0.20633277 -0.024929563 -0.108632475 -0.11888703 -0.014724029 -0.04997105 0.13184935 -0.09503333
-0.046480674 0.17624347 -0.025451249 0.12228684 -0.024471259 0.009123657 0.24495773 0.0614794
0.14332677 0.056881938 0.12639785 0.046439614 -0.030254174 -0.22307447 -0.09097396 0.028356222
0.032311462 0.03994672 0.016220752 0.15001814 -0.0010926459 -0.03726426 -0.17358504 -0.097642295
0.14604247 0.09515476 0.14842474 -0.08881469 -0.01827406 -0.042431403 -0.045118004 -0.079901084
-0.025596792 -0.066725664 -0.024156325 0.13956533 -0.09031425 0.101189576 -0.08728743 0.21448688
-0.087775506 0.1569663 0.1916804 -0.04352617 -0.03555245 -0.04976208 0.033071678 -0.12500687
-0.06360851 -0.016894508 0.029552883 -0.05235534 0.018195268 0.22110377 -0.04314432 -0.16751148
-0.033017505 0.15872315 0.0995343 -0.029155422 0.1193813 -0.039543666 -0.049388226 -0.05801343
-0.010840193 0.025982764 0.09253986 -0.08863728 0.113823555 -0.056717284 0.14813171 0.02024054
0.033227284 0.039564315 -0.10128806 0.031099863 0.10496389 0.09604174 -0.03988668 -0.1177113

network_body._body_endoder.seq_layers.4.bias f4 [128]
00000000: e876 8dbd bbd0 003d 64bf 9c3d 5893 813e
00000010: 049a 223e eff6 5e3d 6a1d 2fbc 4c1b a8ba
00000020: 39dc 98bc fc46 06bd 0626 bdbd 9f76 9a3c
00000030: b63f 0f3e 8719 11b9 28dd 10bd 2ad7 a93d
00000040: 2683 a33d 15f2 bbbd 534c d7bd 2e36 81bd
00000050: 5993 5e3e e209 833c bf17 63bd 716c 393e
00000060: 9c70 a3bb 52e8 61bd 1594 9cbd 4765 febc
00000070: 5e7e 6bbd f40c 86bd ca3f 06bd 8521 f8bd
00000080: ce3f 013e 8bd6 2a3e 32ed 0fbe a8ba 14be
00000090: dd38 a1bd 4571 9a3d ce5e 513e 41ed c33d
000000a0: 8214 4c3e f14c d7bc c4e0 93bc 4313 323d
000000b0: dc86 c0bd f528 76bd 01e3 59bd b030 193c
000000c0: 84a4 27bc 1071 943b 3460 78bd 2a4a 8b3d
000000d0: fa9e f83d eebb 253e 8678 00be a827 7bbd
000000e0: 69f0 1b3d fdb8 84bd a17a c6bd 674f 823e
000000f0: ca33 bbbd 594b 7dbd 8c08 04bd cec4 fe3d
00000100: 89f4 c2bd 559b 383e e49b b5bd 51d4 16be
00000110: 1526 c43c 01fd 1dbc c00b 97bc ab20 09be
00000120: 61d2 adbc 968f 8e3d 9542 35bd eb85 4d3e
00000130: de31 6dbd 8b64 95bd da0d 313d c850 323d
00000140: bd1d fd3c 87fb 1b3d 353a 3d3c 5c12 903e
00000150: ac4b 26bd 2c32 bf3d c596 6d3e 9b9b 413d
00000160: 47ab fe3c 3bce 483e 48db 96bd ff86 813e
00000170: 93ad 163e cebb 103d 6beb 8e3d ca6e 753d
00000180: 9290 a73a dbbf 6d3d 384d e8bc a345 943d
00000190: bf23 c8bd f4a5 a3bd 2314 2c3e 3710 a13c
000001a0: edcf 153c 1519 9a3d a688 073e 42a6 fdbb
000001b0: 8c5f b4bd 5f7e 47bd 04f1 a8bd 8623 57bb
000001c0: be9d 5dbd d984 a1bc 4c60 bdbd df6c 023e
000001d0: 2950 043d 66a3 03be 3780 573e ffdd 89bd
000001e0: 6f65 203e a7c9 873e efed 8abc 12b0 013e
000001f0: a720 b43d f82c ed3d 9fc9 253d b568 00bd
-0.06907445 0.03144906 0.07653692 0.25307727 0.15879065 0.054434713 -0.010688165 -0.0012825518
-0.018659698 -0.03278254 -0.09235768 0.018855391 0.13989148 -0.00013837787 -0.03536716 0.082929924
0.07983999 -0.09177033 -0.105126046 -0.06309162 0.21735896 0.015995923 -0.055442568 0.18107773
-0.0049877893 -0.0551532 -0.07645432 -0.031054152 -0.05749356 -0.06545439 -0.032775678 -0.12115768
0.12621996 0.16683404 -0.14055327 -0.14524329 -0.07872174 0.07541136 0.20446321 0.09566737
0.19929698 -0.026281806 -0.018051513 0.0434754 -0.094007224 -0.060097653 -0.053195003 0.009349987
-0.010232095 0.0045300797 -0.06063862 0.06801255 0.121396974 0.1618497 -0.12545976 -0.061317116
0.03807107 -0.06480596 -0.09691358 0.25451204 -0.09140737 -0.061839435 -0.032234713 0.12439881
-0.09519298 0.18028004 -0.088676244 -0.1472943 0.02394394 -0.00964284 -0.01843822 -0.13391368
-0.02121848 0.069609806 -0.04425295 0.20070617 -0.057908885 -0.07294568 0.0432261 0.04353407
0.03089797 0.038081672 0.011549522 0.28139007 -0.04059951 0.093357414 0.23202045 0.047267538
0.03108753 0.1960992 -0.07366043 0.25298306 0.14714651 0.035335355 0.06978496 0.05992011
0.0012784174 0.058044296 -0.028357133 0.07239845 -0.09772443 -0.079906374 0.16804557 0.019661052
0.009143812 0.07524315 0.13235721 -0.0077407667 -0.088072866 -0.0487045 -0.08249095 -0.003282757
-0.054105513 -0.019716667 -0.09246883 0.12736844 0.03230301 -0.128553 0.21045004 -0.067317955
0.15663694 0.26521036 -0.016959159 0.12664822 0.087952904 0.11580843 0.040475484 -0.031349856

action_model._continuous_distribution.log_sigma f4 [1, 2]
00000000: e68f f33f 6f27 b93f
1.9028289 1.4465159

action_model._continuous_distribution.mu.weight f4 [2, 128]
00000000: 32c1 15be 2c00 ae3e 0978 913e ee5f 033e
00000010: 2d2b 8c3d 801e dc3d 898c a4be 779a babe
00000020: 7768 18bf e903 90bb 2063 3c3d 4309 1d3e
00000030: 8cd8 1b3d 5987 b13c ba7d dbbc b7d4 e13d
00000040: 6a3c bb3c 8074 8fbb 60fa c2bd eb77 41be
00000050: c1b4 823d bb53 7abe b5e0 2cbd 8f1f e23d
00000060: c8fc 8dbe 61dc 92be c70e 12be b270 21bd
00000070: ea34 b4bd 76c7 073e 789b 20be 45b2 a4be
00000080: f8cb 0c3e 72d1 383d d433 c3be 10eb 3cbe
00000090: 4b9a 7cbc e4c9 283d 6d64 de3d e79b 103e
000000a0: 0305 2b3e f6d5 2abb ead8 d3bd a277 933d
000000b0: 0ca7 99bd 7075 3abe cf69 493d ab59 d63c
000000c0: 1ba6 c43e 660a d3bd e0d7 43be 08b7 993e
000000d0: af49 c3bd eb0a a23d 7b7d 253c 2476 cb3e
000000e0: 38e4 00be bbf4 4dbe d9e3 84bc be7e ce3d
000000f0: 9a5b 72bb 2979 563e f524 a0be 0705 b13d
00000100: 9f95 4fbc 21ab a33d cc52 5d3d 869c 643e
00000110: 8d1b 973c 7407 bf3e f6c0 12be e5a4 49bd
00000120: 5378 70bd 71f7 0b3c 512b 7fbe 7bd5 ed3d
00000130: d6b6 6abc 3ea1 cc3d b82c b33d 6765 dcbc
00000140: 7f3d 493e 3ec2 a63d 2755 ed3d 1167 143e
00000150: 39d6 40bc cef8 c93d d200 563e 698e 8abe
00000160: 0409 bdbc f855 d43d 9fc3 603e d395 bf3d
00000170: 27b0 483e 7fd5 893d 1c29 213e 0fc8 b43d
00000180: 3c21 0bbe 0435 ffbc e9c5 dfbc 9fca dcbc
00000190: ac83 463e bec5 39be c594 d13d 4ad0 e93d
000001a0: 08ad 5d3d 3524 bf3d 4279 be3d 0e95 c03d
000001b0: 8496 91be f5de 593d 8ea9 3bbd a70b 4dbb
000001c0: 8b93 fabc 14b2 93bd e2f8 773e 19c2 bc3d
000001d0: 91a1 6c3d 2aa4 88bd f39a 553e 206c c33e
000001e0: 9a93 e03d e21f dd3d 98d9 fc3e a73c 0f3e
000001f0: 8c6a 9e3e 50f3 c8bc 7895 84be 81e9 a2be
00000200: 113a afbe 9a9c 353d b946 90be c2c7 11be
00000210: 6d32 aebd e5b7 743e 9101 c03e 9ad6 803e
00000220: 218b dabc 4813 093c 16c8 d63e 8851 f1be
00000230: 9223 71bc fb2f cfbc 0467 20bd 2712 cbbd
00000240: 70f9 d4bd c6a9 d0be 8802 023d 95af 5fbe
00000250: d446 06bc ebdc 17be 5549 793a 5591 e0bc
00000260: f9fd cc3c e0f9 71be 09b5 853d 54a5 cbbb
00000270: 3064 903b cb6a a03e 1cf2 0bbe bf7c 80bc
00000280: c650 d5bd 5077 5bbd 89bd c53e 4311 25be
00000290: 0009 c43c c7da 01bf 9382 0dbb 1862 973d
000002a0: c0c6 b8bd a768 d03c 45e6 8d3d 5e65 0d3b
000002b0: cce0 72be 8a7c a9be 7070 25be 6a00 5bbe
000002c0: 5e97 043e f971 ef3e 016b 903e b33e 123e
000002d0: 88f2 b3be febf 03bd af75 013e 3279 9abd
000002e0: c30b e4be f773 063e ff9c 57be aa0a eabd
000002f0: 369e 33be aeff 3d3f 22ae 40bd b9ba 623e
00000300: 2714 1cbd 12d5 61bd 8ee8 683e 0486 81be
00000310: 73a9 b63e 3356 91bd cba6 00be 8582 debd
00000320: 90ff 84be 97b4 d8bd 1560 aebe 34e7 26bd
00000330: 417a b1bd 9db9 253e 6f16 253e ea50 c63e
00000340: 8417 95bc 3bf8 fd3d ea9e b83d 2502 a7bd
00000350: b176 f9bc a7c9 7a3e f1e1 6cbd 4d30 6cbc
00000360: 7f1b 92be 76d9 77bd c1e2 b63e 19b2 bfbd
00000370: 76c9 b8bd e262 62bd 183e 9b3e a4c5 233d
00000380: 9161 8e3e 470e ffbd da22 2dbe 6987 cabd
00000390: 21ef 2fbe 037d b9bd 2c26 4fbc 6b3d 85bd
000003a0: ef63 a33e cf83 7b39 ea07 89bd 3020 523d
000003b0: f881 3d3e e534 0fbe 9f3f 72be 4858 c5bd
000003c0: c1ff 54bd 25c7 45bc acdd 263f 593c b9bd
000003d0: 502a 4b3d a563 3e3e e034 41bd 82e2 ecbc
000003e0: 0a60 483c 130c a5bd 0afa eabd d98a f5bd
000003f0: 0bea d03d 3938 75be dd0e 9c3d 7d70 913d
-0.1462448 0.33984506 0.28411892 0.12829563 0.068441726 0.10748005 -0.3213847 -0.36445972
-0.595344 -0.0043949974 0.04599297 0.15335564 0.038048312 0.021670984 -0.02679335 0.110269
0.022855956 -0.0043779016 -0.095204115 -0.18893401 0.06382132 -0.24446003 -0.042206485 0.110411756
-0.2773192 -0.2868376 -0.1426345 -0.039414115 -0.08799155 0.13259682 -0.15684307 -0.3216726
0.13749683 0.045121618 -0.3812548 -0.18449044 -0.015417646 0.041208163 0.108589984 0.14121972
0.1670113 -0.0026067472 -0.103441074 0.072005525 -0.07502565 -0.18208861 0.049173173 0.026165804
0.38407978 -0.10304718 -0.19125319 0.30022454 -0.095355384 0.07912239 0.010100718 0.39738572
-0.12587059 -0.20112889 -0.016221927 0.10082768 -0.0036980868 0.20944656 -0.31278196 0.08643537
-0.01266995 0.079916246 0.05403404 0.22325334 0.018445754 0.37310374 -0.14331421 -0.04922952
-0.0587085 0.008542881 -0.24918868 0.11612984 -0.014325818 0.09991692 0.08748764 -0.026903821
0.19652365 0.081425175 0.11588507 0.14492442 -0.011769825 0.09861909 0.2089875 -0.27061775
-0.023075588 0.1036796 0.21949624 0.093547486 0.19598447 0.06730174 0.15738338 0.08827221
-0.13586897 -0.03115321 -0.02731605 -0.026952086 0.19386166 -0.18141839 0.10233454 0.11416681
0.054120094 0.09333078 0.09300472 0.0940343 -0.28435147 0.053191144 -0.045815997 -0.0031287463
-0.030587932 -0.072117 0.24216035 0.09216709 0.05777127 -0.06671937 0.2085989 0.3816843
0.10965653 0.10797097 0.4938476 0.13987981 0.30940664 -0.024530083 -0.25895286 -0.31818774
-0.3422399 0.0443388 -0.28178957 -0.14236358 -0.08505712 0.23898275 0.37501195 0.25163728
-0.02667767 0.008366413 0.41949528 -0.47132516 -0.014717953 -0.025291434 -0.039160743 -0.09915572
-0.10399139 -0.40754527 0.031740695 -0.21844323 -0.008195598 -0.14830367 0.00095095235 -0.02741305
0.025023447 -0.23630476 0.0652867 -0.006214777 0.0044064745 0.31331477 -0.13666576 -0.015684484
-0.10415797 -0.053580582 0.38621166 -0.16119866 0.023930073 -0.5072445 -0.002159272 0.07391757
-0.090222836 0.025440527 0.06928686 0.0021575312 -0.23718566 -0.33102828 -0.16156173 -0.21386877
0.12948367 0.46766642 0.28206638 0.1428173 -0.35145974 -0.03216552 0.12642549 -0.075426474
-0.44540223 0.13130175 -0.21055983 -0.11427815 -0.17540821 0.7421826 -0.047041066 0.22141542
-0.038105156 -0.05513484 0.22744963 -0.25297558 0.35676154 -0.07096519 -0.12563626 -0.108647384
-0.2597623 -0.1058132 -0.3405768 -0.040747836 -0.08665896 0.16184087 0.16121839 0.38733608
-0.01819969 0.12400862 0.090146855 -0.08154706 -0.030452104 0.24490987 -0.057832662 -0.014415813
-0.28536603 -0.06051012 0.35719875 -0.09360141 -0.090228006 -0.055270083 0.3032081 0.039983407
0.27808812 -0.12453895 -0.16907826 -0.09889109 -0.17181064 -0.09057047 -0.012643378 -0.06505855
0.3191218 0.00023986328 -0.066909626 0.051300228 0.1850661 -0.13985021 -0.23657082 -0.09635979
-0.05200172 -0.012071406 0.65181994 -0.090447135 0.0496009 0.18592699 -0.047169566 -0.028916601
0.012229929 -0.080589436 -0.114734724 -0.11989374 0.1020089 -0.23947228 0.076200224 0.071015336

action_model._continuous_distribution.mu.bias f4 [2]
00000000: fa8b d63e 455f f6bd
0.4190367 -0.1202989

action_model._discrete_distribution.branches.0.weight f4 [1, 128]
00000000: 25fc ddbb e5c9 18bc 2f48 163c 6511 32bb
00000010: c379 b43b a2dc d33b 7bc7 05bc eee9 0dbc
00000020: 0328 003c decd bd3b 5b2a 2fbb 3206 23bb
00000030: 3f99 c33a 7bba 6abc e463 ccbb 5d9e 08bc
00000040: a354 90ba 6bd3 cebb e09f 6e3b 2f04 f33b
00000050: 85a3 fe3b c7a5 25bc 8319 393c ea8a 76ba
00000060: 9b58 a5bb cf58 39bc a5c1 f9ba fdae d13b
00000070: d8e0 413b c05f fe3b 1228 113c 2298 eabb
00000080: ca62 4d3c 9df3 6d3c f275 003b 3b9f 24ba
00000090: 19dc 1a3c d143 953c ef12 b83c 7378 1b3c
000000a0: 0932 83ba b20c 0abb cc15 a0ba b0ad 6cbb
000000b0: f5e4 5bbb f1e6 9cba 7808 08bb 10f3 d3bb
000000c0: fd18 463c 99b8 3c38 37c3 c2bb a36f 11bc
000000d0: ed18 fdba e6a0 303c 5b64 b4bc 41c4 3b3b
000000e0: e88d 2cbb d5f0 6d3c e207 6539 05f9 ce3a
000000f0: 98ad c6bb 852f 2dbc 5382 1d3b 1c12 12bc
00000100: b0de d0ba c2c1 fcba 3db8 f2bb c196 9e3b
00000110: 1f8e dbbb 470e 813b 6062 693c 9578 91bc
00000120: bb5a 5c3c 6b86 7cba fbc8 67bb 0699 83bc
00000130: 02f1 b33c ff8a ca3b 15e6 74bc cbc6 f1bb
00000140: 2ba0 683c 7033 0b3a 5359 813a 75be beba
00000150: d313 afbb 7b7f 8ebc 44c3 46bb 0865 62bc
00000160: b648 393c 72da d7ba 6a62 98bc 9f97 d23b
00000170: cdc3 6cbb 8770 c13a 9ba4 e73b 4b13 593c
00000180: 1f09 d5ba 6810 8cbc 4ada 69ba 4d5f d5ba
00000190: a3a0 c73b f129 863a f9ee 843c 410f cb3c
000001a0: e57e 743a 4053 753b 69fc 09bc 433f c2bb
000001b0: eb71 85bc b010 c8ba 2575 68bb cd81 ddba
000001c0: 03fb 4c3b f370 b4bb efce 063c d3d1 a33a
000001d0: 10e3 91ba 93a9 b63b c02e 6cbc 6ebb 44bc
000001e0: f704 e7bb 72ee dabb a321 563b 5645 88bb
000001f0: db8d bf3a 5bbb 683b 52e0 a2bb 1d79 8f3a
-0.0067744427 -0.009325479 0.009172483 -0.0027171012 0.005507679 0.0064655105 -0.008165236 -0.00866173
0.00782204 0.0057923635 -0.0026728127 -0.002487552 0.001492299 -0.014326687 -0.006237494 -0.008338538
-0.0011011552 -0.006311824 0.003641121 0.00741627 0.007770958 -0.010110325 0.011297586 -0.0009404855
-0.005045963 -0.0113126775 -0.0019054903 0.006399034 0.002958348 0.007762879 0.008859651 -0.007159249
0.01253576 0.014523414 0.001960155 -0.00062798307 0.009451889 0.018220814 0.022469966 0.009489167
-0.0010009418 -0.0021064696 -0.0012213527 -0.0036114268 -0.0033553217 -0.0011970681 -0.0020757 -0.0064681843
0.012090919 4.4994613e-05 -0.0059436816 -0.008876714 -0.0019309797 0.010780549 -0.02202051 0.0028650912
-0.00263297 0.014522751 0.00021842078 0.0015790766 -0.0060631745 -0.010570412 0.0024033978 -0.00891545
-0.0015935507 -0.0019283819 -0.007407217 0.0048397486 -0.0067002918 0.0039384696 0.014244646 -0.017757693
0.013449366 -0.0009633067 -0.0035367596 -0.016064178 0.021965507 0.0061811204 -0.014947434 -0.0073784343
0.014198343 0.0005310094 0.000986854 -0.001455261 -0.0053429394 -0.017394772 -0.003032879 -0.013818033
0.01130884 -0.00164683 -0.018601615 0.006426766 -0.0036127449 0.0014758267 0.007069183 0.013249229
-0.0016253329 -0.017097667 -0.0008920772 -0.0016279012 0.0060921474 0.0010235888 0.016227232 0.024787547
0.000932677 0.0037433654 -0.008421996 -0.0059279515 -0.016289672 -0.0015263762 -0.0035470214 -0.0016899646
0.0031277544 -0.0055066287 0.008228048 0.0012498446 -0.0011130292 0.005574414 -0.014415443 -0.012007577
-0.0070501524 -0.006681257 0.0032673858 -0.004158656 0.001461442 0.0035512063 -0.0049705887 0.0010946129
